Dry fermentation prediction and optimization system/optimize_digester/Predictor_Digester CH4/models/NeuralNetTorch_BAG_L1/S1F1/net.params (torch, 207367 bytes, 9 tensors)

weight f4 [128, 5]
000000 14 1e 02 bd 29 1b 4e 3e f2 ce ca be 82 a4 ac be
       -0.031766966 0.20127548 -0.39611012 -0.3371926
000010 32 a5 38 be 5f 6d 1d 3e fb ac 6a bd 93 51 cf 3e
       -0.18031767 0.15373753 -0.057293873 0.40491924
000020 72 4f 35 bd 4c fb e8 3d 0e e5 32 be 14 d7 52 bd
       -0.044265218 0.11376056 -0.1747019 -0.051474646
000030 e9 00 e6 be b8 f4 96 be 11 66 3b be e4 b1 90 bc
       -0.4492257 -0.2948358 -0.18300654 -0.01766295
000040 e5 2c 4e 3e 2b c4 74 3e c6 b3 a0 be fa 5c 52 be
       0.20134313 0.23902957 -0.31387156 -0.2054328
000050 97 2d 74 3e bb 1c b5 3e c7 75 ae bd 4d 14 ac 3e
       0.23845516 0.35373482 -0.08518558 0.33609238
000060 cc ae 90 bd 56 e4 20 3d 88 8b da 3e 44 6e cd be
       -0.0706459 0.039280258 0.4268458 -0.40123188
000070 f9 e1 90 be 83 d0 ea bd c8 cd 2a be 5e 36 c4 3e
       -0.28297403 -0.11465552 -0.16680062 0.3832273
000080 2e 33 93 be 50 7c 5a be 0e cf a3 be 1f 66 db be
       -0.28749985 -0.21336484 -0.31993908 -0.4285135
000090 50 ab 8e be 8c 35 d4 3e 74 ec 41 3e 9b 88 53 3e
       -0.27865076 0.41447103 0.18937856 0.2065758
0000a0 22 89 9e bb 0a 0d 62 be 78 aa 86 3d 68 d3 d7 be
       -0.004838125 -0.22075287 0.06575483 -0.42153478
0000b0 b4 7b a7 be 3e 4f 6e be 1a 76 93 3e 87 70 84 3e
       -0.32711565 -0.23272416 0.28801042 0.25867102
0000c0 d4 4a 52 be c7 c1 bd bc b9 59 a6 3e 2a 61 db 3e
       -0.20536357 -0.02316369 0.32490328 0.42847568
0000d0 17 67 49 3e b5 65 73 3d fb 03 99 3e 15 a9 80 be
       0.19668232 0.059423167 0.2988585 -0.25129
0000e0 ae 4c d0 3d 7d 7c ab be dd b1 9b be 86 8f 66 be
       0.101708755 -0.33493415 -0.30409136 -0.22515687
0000f0 58 14 7f 3e ac e1 43 3e b3 78 86 be dd c9 fc 3d
       0.24910104 0.19129056 -0.2626396 0.1234319
000100 ed 71 6f 3e d7 95 88 bd 4a 67 0e 3c e6 36 04 3e
       0.23383303 -0.06669205 0.008691618 0.12911567
000110 81 68 88 3e a0 37 d6 3e 01 f8 b6 be bb 20 39 be
       0.2664223 0.41839314 -0.35736087 -0.18078892
000120 76 bb 45 3e a5 80 b8 3e 83 0a c2 3e 01 a3 cf 3e
       0.19309792 0.36035648 0.37898645 0.4055405
000130 6a 99 9d 3d 93 b2 c7 be c1 6a 23 3d ea e1 8f be
       0.07695277 -0.3900343 0.03989673 -0.28102046
000140 30 b2 cb be be 87 d7 3e cc d5 b1 3e e8 0d e4 be
       -0.39784384 0.4209575 0.34733427 -0.4454186
000150 2e d6 ac 3d d3 5c 17 be 0b 1e b5 bd 59 59 5f be
       0.08439289 -0.14781503 -0.08843621 -0.21811427
000160 d0 5a 3d 3e 50 ff 80 be bb ac 0d 3e bf 13 8a 3e
       0.18491673 -0.25194788 0.13835423 0.2696819
000170 3b de 9b 3e a1 7c 30 3e 25 fe df be 40 4a 8a be
       0.30442986 0.17235042 -0.43748584 -0.27009773
000180 14 24 76 3e f2 7c eb 3d 8f 9f b6 be 2c da 87 be
       0.240372 0.11498441 -0.3566861 -0.2653364
000190 a7 7b d1 3e bc 77 98 3e 4f 98 4b be 1e c2 02 be
       0.40914652 0.2977885 -0.1988232 -0.12769362
0001a0 70 de e1 be 8c 0b c1 bd 14 05 98 be 1e 76 b6 be
       -0.4411502 -0.094260305 -0.29691374 -0.3563699
0001b0 11 a1 a2 bc 1d 53 93 3d 1a 21 6c be 79 56 8a 3e
       -0.019852193 0.07193587 -0.23059502 0.27019098
0001c0 ec 6e 8c be 71 4b c7 3e 51 72 94 3e 45 29 ee be
       -0.27428377 0.38924745 0.28993466 -0.4651586
0001d0 71 8f e8 bd 94 75 91 3b 9a 84 68 3d ee da c7 3d
       -0.11355484 0.0044390652 0.056767084 0.097585544
0001e0 03 f9 40 3e 5a 77 0d 3d 28 1c 53 be 38 5e 63 3e
       0.1884499 0.03453765 -0.2061621 0.2220391
0001f0 d8 4d d6 be 25 e7 8d be 5d 16 ec bd f8 30 67 be
       -0.41856265 -0.27715412 -0.11527703 -0.22577274
000200 f3 11 0d be 8b 1a b2 be 81 92 f9 bd 6a 81 b2 3d
       -0.13776378 -0.34785876 -0.121861465 0.0871609
000210 b7 aa 7c be 45 f6 01 bd 8b 6a 9f 3e e4 02 67 3b
       -0.24674498 -0.031729 0.31135973 0.0035249526
000220 ae 83 3b 3b 4e 47 63 bc 9d cc a9 3d 30 b3 8d 3e
       0.0028612423 -0.013871981 0.0829098 0.27675772
000230 a6 05 d8 3e 73 d2 8c 3e df d3 d5 3e e4 da f4 bc
       0.4219181 0.2750431 0.41763207 -0.029889531
000240 22 6f cc be 37 2a 67 be 86 2f aa 3e 4b b6 e4 bb
       -0.39928538 -0.22574697 0.33239383 -0.006979739
000250 3b f0 64 be a5 1f b0 be 9b b5 e3 be 8f d4 c5 be
       -0.22357266 -0.34399143 -0.4447449 -0.38638732
000260 68 e0 0a bd b0 03 6f 3e 5c 75 6b 3e 12 80 e4 be
       -0.033905417 0.2334125 0.22993988 -0.4462896
000270 b6 bb 8d 3e 28 02 b4 be 5d 52 b3 bd d8 87 32 be
       0.27682275 -0.35157895 -0.08755944 -0.17434633
000280 9f 01 f6 bd 90 16 6e bd 8c d5 ce be 0c 9b c3 be
       -0.12012028 -0.058126986 -0.40397298 -0.3820423
000290 1e ed 86 bd 84 bd 07 3d 6d ce 79 be e2 9a 34 3e
       -0.06588195 0.03313972 -0.24395151 0.17637208
0002a0 28 14 ca be f2 16 b7 bc 6e 75 d0 3e c7 96 48 be
       -0.39468503 -0.022349808 0.40714592 -0.19588767
0002b0 06 f7 d4 3e 34 c0 38 3e c4 2f c5 be 85 27 b2 3e
       0.41594714 0.1804207 -0.38513005 0.34795776
0002c0 53 e5 4b bd 7d a4 4d be 5b 85 be 3e 35 9c b1 be
       -0.049779247 -0.20082279 0.37211117 -0.3468949
0002d0 ca 4e df 3d 5f 1e dc bd 33 c6 b0 3e 48 dd e4 3d
       0.109037 -0.1074798 0.34526214 0.111750185
0002e0 fa a4 4e 3e 61 5a 33 3e 10 50 ea bd 84 94 9e bd
       0.20180121 0.17514946 -0.11441052 -0.07743171
0002f0 22 69 b6 be 04 59 82 3e 9a 23 c2 3e 4f 7b a7 3e
       -0.35627085 0.2545854 0.37917787 0.32711264
000300 46 4a 9b be db 15 c6 3c e7 3d 9f be 82 43 81 be
       -0.30330104 0.024180343 -0.31101915 -0.25246817
000310 06 a6 78 be 22 ae 25 3e a1 f2 8b be 7b ee 87 bc
       -0.24282083 0.16179708 -0.2733355 -0.016593209
000320 8a be 11 bb bf ee 98 3e 84 b3 b5 be 0f c9 96 be
       -0.0022238814 0.2986965 -0.35488522 -0.2945027
000330 db 18 7d be 72 81 b4 3e 63 77 4a be 48 e1 d0 3e
       -0.24716513 0.3525501 -0.19772105 0.40796876
000340 82 29 1f 3e 6f 36 4e 3d 8f d3 9f 3c 04 8c bd bd
       0.15543178 0.05034488 0.019510059 -0.092552215
000350 5e 88 93 3d 18 0e e3 bd ee d0 42 bc bb ff a6 3d
       0.07203744 -0.110866725 -0.011890633 0.081542455
000360 f3 da bf be 35 f8 6a be a8 27 bc 3e b6 8f b6 be
       -0.37471732 -0.22946246 0.36749005 -0.35656518
000370 e6 f0 1f bd 26 26 ec 3e 2b 26 18 3e 8a 6d 8e bb
       -0.039048098 0.46122855 0.1485831 -0.004346554
000380 74 23 cf be 38 45 73 3e 54 6d aa be 36 01 f9 bd
       -0.40456736 0.23756874 -0.33286536 -0.12158434
000390 9d c6 10 be ab c6 6b bd d4 af 34 3d bb 54 b6 3e
       -0.14138265 -0.05756251 0.044112995 0.3561152
0003a0 45 ab b1 3d 3a ed c9 3e 20 e7 88 3e 40 b5 b5 be
       0.08675245 0.39438802 0.26738834 -0.35489845
0003b0 cf 9c 0d 3e 8c ac a8 be f6 2d 2b be f0 99 1d 3e
       0.13829349 -0.32944143 -0.16716751 0.15390754
0003c0 79 37 48 3e f9 ab a4 3e d4 27 03 be 2f ba c5 3b
       0.19552411 0.32162455 -0.12808162 0.0060341577
0003d0 1b 35 71 3e dd a0 05 bf 65 17 98 3e 95 1b c7 be
       0.23555414 -0.5219858 0.2970535 -0.3888823
0003e0 10 fe d4 3c 3b 2f 66 bd 95 18 7f be cf 59 9c 3d
       0.026000053 -0.056197386 -0.24911721 0.07634317
0003f0 e8 57 bf 3e b7 35 0d be 7b 9c 8b be 5a a1 1d be
       0.37371755 -0.13790022 -0.27267823 -0.15393582

bias f4 [128]
000000 2a bb 76 be 17 e5 8e 3d 7a 59 e9 3d ed 0c b6 3c
       -0.24094835 0.06977289 0.113940194 0.02222296
000010 cd b7 93 be 23 20 d2 3e 12 33 82 be 2a 8b b6 3e
       -0.28851166 0.41040143 -0.2542959 0.3565305
000020 88 20 ba be aa bf e9 bd 86 72 78 3e 57 c6 44 be
       -0.36352944 -0.1141351 0.24262437 -0.19216286
000030 f5 fe b3 3e 80 35 a3 be 2b 7f c5 be 6b 8d 40 be
       0.35155454 -0.31876755 -0.38573584 -0.18803947
000040 f5 5c 2f 3d a8 6d e0 3e 8a 51 73 be cf 02 1c 3e
       0.04281326 0.4383366 -0.23761573 0.15235446
000050 ed f0 c1 bd ab c1 c2 bd c3 99 a1 3e 52 45 ac be
       -0.09469781 -0.095095955 0.31562623 -0.33646637
000060 85 91 f2 3c 8e f6 d0 3e 8b 49 9b bd dd 80 ac 3e
       0.029610405 0.40813106 -0.075823866 0.33692065
000070 52 26 10 be 1d df ac 3e ed 39 e9 be 97 ef 8a bd
       -0.14077118 0.33763972 -0.45552006 -0.067839794
000080 bd bd db bd 2b 31 2f 3e bc 92 40 3e e5 10 ba 3e
       -0.10729549 0.171086 0.18805975 0.36341015
000090 e6 38 9d bd 48 fd a6 bc 04 00 9a 3e 82 6a 09 be
       -0.07676868 -0.020384446 0.30078137 -0.13419536
0000a0 2f ca be 3e bb ab 9d be 7d 83 20 bd df 1a 79 bc
       0.3726363 -0.30795082 -0.039187897 -0.0152041605
0000b0 8b 9e 50 3e b3 70 9e 3e 12 d3 9d bd 6e 43 a8 be
       0.2037298 0.30945358 -0.07706274 -0.32863945
0000c0 49 28 6a 3e 8d 2a 1d 3e 37 92 27 3e ef 2e 88 be
       0.2286693 0.15348263 0.1636437 -0.26598307
0000d0 18 8f 8f 3e da e9 d2 3e 7f d1 56 3d 43 c9 d5 be
       0.2803886 0.4119404 0.052445885 -0.41755113
0000e0 b4 33 a5 3e 68 7f 9a be 90 0c e7 3d c9 7c 80 3d
       0.3226601 -0.30175328 0.11281693 0.06273801
0000f0 5d f2 77 be a4 d2 14 3e 9b 86 be be 45 da d0 3d
       -0.24213548 0.14533478 -0.3721207 0.101978816
000100 f1 ca 97 be 3d a2 04 bd d2 35 d4 3d 6c c5 c3 3e
       -0.2964702 -0.032381285 0.10361828 0.38236558
000110 7f 52 56 be 4f d5 a5 3e ae 33 68 bd 28 40 51 be
       -0.20929907 0.32389304 -0.05668991 -0.2043463
000120 ef 50 d5 be 40 76 cd be a6 a9 df 3e b5 a3 f0 bd
       -0.4166331 -0.4012928 0.4368412 -0.11749975
000130 6d 0d 91 3c 3e 19 0c 3e e2 a2 a2 3e b8 c7 c7 3e
       0.017706597 0.13681504 0.31764895 0.3901956
000140 79 58 b0 3e 9e f6 a4 be 34 76 a7 bd 0b 18 8f be
       0.344425 -0.32219404 -0.08176842 -0.2794803
000150 5d 68 88 be d7 37 e1 3d a0 9c ca 3e fb 3f b8 be
       -0.26642123 0.10996979 0.3957262 -0.35986313
000160 fa 16 93 3e 75 ea 5e be 9e ac 83 bd 0d 6e ad 3e
       0.28728467 -0.21769126 -0.064294085 0.33873025
000170 45 c5 e2 bd e1 fe e7 3c 3a 41 9b be a7 87 c3 3e
       -0.110727824 0.028319778 -0.303232 0.38189432
000180 10 e7 73 bd 23 e7 91 be dc e8 f3 3d b2 8e aa be
       -0.05954653 -0.28496656 0.11909649 -0.33311993
000190 b7 9b bb be 46 a6 42 3c 94 39 b8 3e 68 1b 05 be
       -0.36642238 0.011880463 0.3598143 -0.12998736
0001a0 05 23 54 3e 75 58 c8 3e c8 70 91 3e bd ed 6f be
       0.20716484 0.39129987 0.28406358 -0.23430534
0001b0 1e ec 4d bd fd 31 14 be d4 59 c0 be 35 b1 65 bc
       -0.050274007 -0.14472194 -0.37568533 -0.0140193
0001c0 f1 84 a7 3e d3 79 b5 3e 47 4b 48 3d ec 1d a7 3d
       0.32718614 0.35444507 0.048899915 0.08160004
0001d0 ac 8d 45 be fe a4 a5 3e 99 91 57 be c8 a1 a4 be
       -0.19292325 0.32352442 -0.21051635 -0.3215468
0001e0 87 9b 7b 3d d2 ec 82 3e 77 63 c7 be 81 18 cc 3e
       0.06142762 0.25571305 -0.38943073 0.39862445
0001f0 3f d9 29 3e fe bd 9d be aa e2 d1 bd 37 cf d6 3e
       0.16586779 -0.30809015 -0.10248311 0.41954967

weight f4 [128, 128]
000000 b2 50 95 bd 81 ae 0e bc c4 03 ae 3c 6a b3 9f bd
       -0.07290782 -0.008708597 0.02124203 -0.077978924
000010 37 4b 1d 3d b9 ee 31 3d 62 20 58 3d 21 a3 3d bd
       0.03840181 0.043440554 0.052765258 -0.04629815
000020 e8 b4 a6 3d 8f 69 42 bd 04 9a ab 3d cb 61 bc bd
       0.08139974 -0.04746395 0.083789855 -0.0919834
000030 ce 96 ab bd 35 c1 71 3d f9 67 95 3c 9b f2 03 3b
       -0.08378373 0.059022147 0.018238055 0.0020133618
000040 a1 9b 42 bd bf e2 6d bd 3c 4e ef bc 05 7d b4 bd
       -0.0475117 -0.05807757 -0.02921211 -0.08812908
000050 47 00 b5 3a 7c 4b da 3b a7 c6 14 39 b0 8f 49 3d
       0.0013809287 0.0066618305 0.00014188384 0.049209297
000060 4a c7 9e 3d 9f 06 87 3c 47 3a 1a bd ac ab 09 bd
       0.07752855 0.01648265 -0.037653234 -0.033610985
000070 20 89 81 bd fc 77 87 bd 1a 79 ab bb 3d 05 a1 bc
       -0.06324983 -0.06614682 -0.0052329423 -0.019655818
000080 1a 33 05 3d b6 92 34 bd 3d 53 3c 3d 26 66 ca bd
       0.032519437 -0.044085227 0.04597782 -0.098827645
000090 40 30 ec 3b 93 2f 8b 3d f8 84 a8 3d 1a 13 73 bd
       0.0072079003 0.067961834 0.08228487 -0.05934439
0000a0 8c fe 18 3c ea 0f 81 3c f3 45 3d bd dc 3e 10 bd
       0.009338032 0.015754659 -0.046209287 -0.035216197
0000b0 ac 81 c4 3c 24 ef a5 bd b5 7b 4f 3c 28 cd 1f 3d
       0.023987614 -0.08102253 0.012663771 0.03901401
0000c0 5d be 2a bd 89 bc 56 3d 59 0b 2e bc 72 3b f1 3c
       -0.04168545 0.052425895 -0.010622823 0.029447291
0000d0 f3 2c bb 3d a3 11 96 bc c1 71 1a 3d 1e 12 0d bd
       0.09139433 -0.018318957 0.03770614 -0.034441106
0000e0 24 37 91 bc 8b 9b a6 bd 08 e0 4f 3d c9 4d 38 bd
       -0.017726488 -0.08135136 0.050750762 -0.044996057
0000f0 04 a0 a0 3c dc 32 02 3d e5 e7 b6 3d 6c 46 c5 bc
       0.019607551 0.031786785 0.08930949 -0.024081431
000100 6c a6 e9 3a be 78 d2 bd 74 27 96 bc 33 59 26 3d
       0.0017826087 -0.10276936 -0.01832936 0.04061241
000110 5e 02 77 3d 8e 2f bf bd e8 70 e0 bc d2 b8 81 3c
       0.060304992 -0.09335242 -0.027397588 0.0158352
000120 6a cf 55 bc 06 66 4d 3d 53 36 16 39 ce 85 15 3d
       -0.01304994 0.050146125 0.00014325352 0.03650456
000130 d8 67 0b 3d b0 d6 19 bd c9 97 09 3d 1b 0a 51 3d
       0.03403458 -0.037558258 0.03359202 0.051035028
000140 77 50 4f bb 79 59 50 3d f9 3a 4c 3b 85 f1 87 3d
       -0.0031633654 0.050866578 0.003116308 0.06637863
000150 09 3e 23 bd f3 66 8e bd b8 84 2e 3d f4 01 a6 bd
       -0.039854083 -0.0695323 0.04260704 -0.08105841
000160 12 62 50 bc 13 44 42 bd 78 80 5c 3b 64 c3 b2 bd
       -0.012718694 -0.047428202 0.003364591 -0.08728674
000170 f9 0d 44 3d 60 df a9 3d 86 e2 24 3c 17 b1 a7 3c
       0.047864888 0.082945585 0.010063773 0.020470185
000180 ba 4d ae 3d fb a7 a2 bd 3c 13 9b 3c ac 36 31 bd
       0.08510919 -0.07942196 0.01893007 -0.04326503
000190 32 31 be bb 8e 65 79 3d bd 5f 5a 3c 3c 33 76 bc
       -0.0058042044 0.060887866 0.01332849 -0.015026864
0001a0 07 a6 c1 bd c6 b1 b5 3b 54 1e e3 bb 75 68 f1 3b
       -0.09455495 0.005544874 -0.0069311056 0.0073671886
0001b0 1b 89 82 3d 07 18 9f 3d d9 fc 83 bd 75 bd a6 bb
       0.06373807 0.07768255 -0.06444711 -0.005088503
0001c0 88 c9 4f bd 68 55 ad bd 2b 3c 90 bd a2 ed 97 3d
       -0.050729305 -0.084635556 -0.07042726 0.07418372
0001d0 19 b9 1c 3d 88 0f 53 3d 68 02 3e 3d 03 d2 89 bd
       0.03826246 0.051528484 0.046389014 -0.0672951
0001e0 59 c4 5b 3c 4b 31 9b 3d ea e1 17 bd 9b bc 95 3d
       0.013413512 0.07577761 -0.037080683 0.07311364
0001f0 7f ce c0 3c d6 88 80 3d fd 26 2b bd 92 3c ca 3c
       0.023535965 0.062760994 -0.04178523 0.024687085
000200 b5 c7 a9 bd d0 d2 0f bd 38 70 a4 3c a6 da b7 3c
       -0.08290044 -0.035113156 0.020073041 0.022443127
000210 ff 9e 76 3d 20 2c ac 3d 61 ca 98 3d f0 19 87 3d
       0.060210224 0.08406854 0.07460476 0.06596744
000220 91 98 60 3d 33 10 b7 bc 59 3e 9d bd 8a 2a 21 bd
       0.054833 -0.022346592 -0.076779075 -0.03934721
000230 9c 5c 5c bc 10 a5 3d bd f1 0a 49 3d fe f2 00 3d
       -0.013449814 -0.046299994 0.0490827 0.031481735
000240 96 74 6e 3c 80 c0 0a 3d 7e bf 9d 3d 6c 6d d6 3c
       0.014554163 0.03387499 0.0770254 0.026175223
000250 0e b1 a5 bd c6 43 4e bd 70 de 1f 3d 69 06 11 3d
       -0.08090411 -0.050357603 0.039030492 0.035406504
000260 2c 67 22 3d 2b 9e ce bd 8f 2c 94 bd 7f f4 5d 3d
       0.039649174 -0.10088762 -0.072350614 0.054188248
000270 25 d8 5e 3d ae 42 b2 bd 4e ee 31 3d 97 aa a2 bd
       0.05440535 -0.087041244 0.043440156 -0.07942694
000280 56 99 73 3d 34 43 61 3c a3 a5 b2 3d 0b 34 e8 bd
       0.059472404 0.013748933 0.08722999 -0.113380514
000290 9e 64 b7 bd 6b 89 63 3d b2 e1 9b 3d f4 ed 30 3d
       -0.08954738 0.055550974 0.07611407 0.04319568
0002a0 3e 0a 53 3d 2f 2a d9 bd 35 be 65 3d b6 c3 b3 bd
       0.05152344 -0.10603749 0.0560896 -0.08777563
0002b0 44 c4 69 3c 0e fe 7a bd 15 bb 04 bd e2 1a d5 3c
       0.014267985 -0.06127744 -0.032404978 0.026013795
0002c0 94 58 3e bd ac e4 57 3c 46 4f b2 bd 25 df ca bd
       -0.046471193 0.013177078 -0.087065265 -0.09905843
0002d0 cc 01 1e 3d 44 12 25 bd b2 26 57 bd c5 43 ac bb
       0.038575932 -0.040300623 -0.052527137 -0.005257102
0002e0 2f c0 85 bd 26 72 87 bd 4f e6 65 3d 42 10 86 3d
       -0.06530797 -0.06613569 0.056127843 0.0654607
0002f0 fd 47 a2 3c a9 85 19 bd e0 33 af 3d ca 2f 15 bc
       0.019809717 -0.037480984 0.08554816 -0.009105632
000300 5c 05 75 bd ed 80 12 3d 4c ce ca 3d 37 5f b4 bd
       -0.059819564 0.035767484 0.09902629 -0.08807223
000310 36 a3 ff bd 66 5c 05 3c 6a 14 96 3d 58 06 58 bd
       -0.12482302 0.008139705 0.073281124 -0.052740425
000320 81 0a c6 3c 04 77 70 3d 55 30 ab 3c 1e 56 c5 3c
       0.02417493 0.058707252 0.02089707 0.024088915
000330 92 7e 9a 3d 07 40 2d 3d 82 f5 5f bd 10 fa 36 bc
       0.075436726 0.04229739 -0.054677494 -0.011168018
000340 94 58 4a 3d ea 3d 98 3d c1 bb c8 bd ea 6b 4a 3d
       0.04940088 0.07433684 -0.09801436 0.04941932
000350 0d ea 97 bc af d9 63 bd 5f f9 61 3c a6 37 5d bd
       -0.018544221 -0.05562752 0.013792365 -0.05400815
000360 56 5f 23 3d cc d1 71 bd db e0 96 bd 44 9e 51 bc
       0.03988584 -0.05903797 -0.073671065 -0.012794081
000370 73 9c 25 bd 65 61 39 3d 1f 95 84 bc a8 d3 c9 3d
       -0.040432405 0.0452589 -0.016184388 0.09854823
000380 1b cf 15 3d b8 0c a0 bc 6a df 51 3d 1c 7a 3a 3c
       0.036574464 -0.019537315 0.051238455 0.011381652
000390 78 97 7f 3c 0b 6a 07 bd e7 61 31 3c c7 e1 e4 bc
       0.015600078 -0.033060115 0.010826564 -0.02793969
0003a0 ed d4 2b bc e3 f0 9e bd 3b eb bb bb 89 a4 ad bd
       -0.010487777 -0.07760789 -0.0057348288 -0.08478648
0003b0 7a f4 e2 bc d2 98 15 3d 96 1d ab bd fa eb 66 bd
       -0.027704466 0.036522694 -0.083552524 -0.05637739
0003c0 2a 24 1c 3c e8 29 e3 bc 7b f1 1b 3c 7a fc 13 3c
       0.009530107 -0.027729943 0.009518023 0.009032363
0003d0 5a 05 82 3d 80 b0 6d bd 7b 9f 02 bb 83 1f 44 3d
       0.06348677 -0.05802965 -0.0019931484 0.047881614
0003e0 07 ad b5 3d 53 65 1b bc c6 f1 92 bd 72 a6 a8 3c
       0.08870893 -0.009484607 -0.07175021 0.02058718
0003f0 0f 49 3b 3d e0 8a 82 bd 5e b9 9b bd 05 1f 4b 3d
       0.04572397 -0.063741446 -0.07603715 0.04959013

bias f4 [128]
000000 a4 7a 82 3d 0e b0 f1 bc 49 55 17 3c b6 7c 35 3d
       0.06371048 -0.029502895 0.009236642 0.044308387
000010 28 9b 56 ba fc 6f 90 bd ca ba 71 bd 93 25 24 3c
       -0.0008186572 -0.07052609 -0.059016027 0.010018724
000020 0d e3 0b 3d d9 f4 57 3d 41 18 26 3d 9f 02 c0 3d
       0.03415208 0.05272374 0.040550474 0.093755
000030 f4 46 44 3d ea ee 22 3d 71 2e 9e 3d 36 cd 39 bd
       0.04791923 0.039778627 0.07723702 -0.04536172
000040 c5 1e 19 3d 1e 71 bd bc 78 e2 a6 3c b4 aa 1e 3d
       0.03738286 -0.023125228 0.02037166 0.038737014
000050 28 d1 aa bd c7 ec a6 3d c8 5e 19 3d 35 c1 dd bc
       -0.08340675 0.081506304 0.037443906 -0.027069667
000060 31 a2 13 bd fc 8d d4 bc 85 f3 d4 3c d0 5a 9a bc
       -0.03604335 -0.02594661 0.025995025 -0.01884213
000070 5c 7d be 3c 43 13 a1 bc e8 07 eb bb ae c9 93 3d
       0.023253135 -0.019662505 -0.0071725734 0.07216202
000080 1d bc b9 bd f6 dc f8 bb 49 d4 3d 3d 4d 97 2b 3d
       -0.09069083 -0.0075947 0.04634503 0.04189234
000090 c2 fb c1 3c b1 44 24 3d 2b de 96 bd 94 75 83 bd
       0.023679618 0.04010457 -0.07366594 -0.064189106
0000a0 59 b4 af bd f0 75 86 3d f8 24 75 3d 2f 60 80 3d
       -0.085793205 0.065654635 0.05984971 0.062683456
0000b0 07 36 9b 3d ea 74 db bc 04 c3 a4 3d 79 14 1c 3c
       0.07578664 -0.026789147 0.08045009 0.009526365
0000c0 9b 61 90 3c 28 5e bd bc d9 2e b7 bc 62 91 46 bd
       0.017624667 -0.023116186 -0.022361206 -0.04847849
0000d0 3b 63 20 3d e6 61 87 3d a7 34 41 bd 29 c8 3f bd
       0.039157134 0.066104695 -0.047169354 -0.046821747
0000e0 47 b0 82 bc ed 19 ae bd ab 54 5f 3b 00 1a 18 3d
       -0.015953196 -0.08501039 0.0034077566 0.03713417
0000f0 81 46 63 bc 98 5b 0e 3c 70 12 57 3d a9 1e 82 bd
       -0.01387179 0.00868883 0.052507818 -0.06353504
000100 5e cd 19 bd 99 fb ac bc a9 97 db 3c ab 1e ef 3c
       -0.03754937 -0.021116065 0.026805716 0.029189428
000110 7b 18 8b bd 18 58 3a bc b5 1f 88 bd b4 aa 82 bd
       -0.06791779 -0.011373542 -0.06646673 -0.06380215
000120 e0 b2 0f 3d 23 95 56 bd 77 1b 77 3d 2a fa 5b bd
       0.035082698 -0.05238832 0.060328927 -0.053705372
000130 bc 43 a3 bc 4e cc 1e 3d 1d a5 ab 3c 69 59 c8 3c
       -0.01992976 0.03876906 0.020952756 0.024456697
000140 2c 4d 1c bb 58 d9 c6 bc 89 8b 09 bd d5 b0 bc 3d
       -0.002384971 -0.02427356 -0.033580337 0.092134155
000150 00 bd 98 3d 08 55 3a bd 13 a8 4a 3d d0 11 ee 3c
       0.07457924 -0.04549125 0.049476694 0.029061228
000160 1a 46 87 bd 97 c9 5d bd 05 bb 37 3a 11 a9 49 bd
       -0.06605168 -0.05414733 0.0007008764 -0.0492335
000170 2e 41 ec bc 21 f1 fc 3a 7b 16 93 bd 30 30 6d bd
       -0.028839674 0.0019297936 -0.07182022 -0.057907283
000180 6d 80 ac 3c 31 25 d5 bb f7 fd 31 3d f4 76 7c 3d
       0.021057332 -0.0065046777 0.04345509 0.06163688
000190 5f 91 85 3d 8b ed 23 bd 5a 71 b2 3b 1b ef 92 bc
       0.06521868 -0.04002146 0.0054456415 -0.01793628
0001a0 9e cb ed 3c 78 20 ae bd bd 55 9e 3d 50 a2 48 3d
       0.029027756 -0.08502287 0.07731197 0.04898292
0001b0 e1 3f 3d bc 9c b3 0d bd 7e b6 b9 3d 8b 88 9d 3d
       -0.011550874 -0.034595117 0.09068011 0.07692059
0001c0 97 d2 ac 3d 4f 32 4c bd cc 17 96 bd 42 03 a7 bd
       0.08438604 -0.049852666 -0.07328758 -0.08154918
0001d0 a8 63 a3 ba 04 02 a5 3b a4 ef a2 3d 41 e9 38 bd
       -0.0012465613 0.0050356407 0.07955864 -0.045144323
0001e0 12 25 a7 bd 32 77 3c bb 1f e7 38 3c 75 a1 c1 3c
       -0.081613675 -0.002875757 0.011285572 0.023636559
0001f0 1b c9 d0 bc 1e 0f 8d bd 55 05 a2 bd 1e 4a b7 3d
       -0.02548652 -0.06887649 -0.07911173 0.089496836

weight f4 [128, 128]
000000 b4 50 a9 ba e2 59 6e 3c 1e d2 69 3d 2b 88 73 bd
       -0.0012917728 0.014547797 0.05708515 -0.05945603
000010 fe 71 74 bd cc 12 c5 bd 1d a9 95 3c 59 ee 82 3d
       -0.059679024 -0.09622726 0.018269116 0.063931175
000020 a6 9d 9b 3d f6 a2 03 bd 99 3f 30 3c 17 c4 0e 3c
       0.075984284 -0.032137834 0.01075735 0.008713744
000030 61 d7 43 3d 90 a8 56 bd 0d 97 a8 3d bc ee d1 bc
       0.047812823 -0.052406847 0.08231936 -0.025626533
000040 13 4e 46 3d 2b 1a 80 bd 42 7e 04 bd b0 60 15 bd
       0.0484143 -0.06254991 -0.03234697 -0.03646916
000050 9f c1 bb bb 99 ef 67 bd cc fc 4d 3d 6b ec bb 3d
       -0.0057298685 -0.056624983 0.050289914 0.091759525
000060 7a c8 9c 3d 41 d5 3f bd ce 43 ed ba 62 fb 88 bc
       0.07655425 -0.046834234 -0.0018101872 -0.016721431
000070 ce 4b b8 bc b2 66 39 bd 3c dd fa 3c c9 2f 8e bb
       -0.022497084 -0.045263954 0.03062307 -0.0043391925
000080 f7 06 2f bd 35 bd 13 3d de 42 c5 3d 9f 36 46 3c
       -0.04273125 0.036069114 0.096318945 0.012097984
000090 5e 38 03 3e 1a 46 48 bd bb 35 e1 3d 09 b0 42 3d
       0.12814471 -0.04889498 0.109965764 0.04753116
0000a0 ef 53 a4 3d 73 f5 63 3c cf ee 40 3c dc 72 00 bd
       0.080238216 0.0139135 0.011775686 -0.03135954
0000b0 be 12 3b bc 0f bc 1e 3d f6 c7 60 3b 51 bc a4 3d
       -0.011418043 0.038753565 0.0034298874 0.08043731
0000c0 5f ad c6 bc b1 52 f0 bc 2d 9b 32 bd 8d 2f 01 3d
       -0.024252592 -0.029336305 -0.04360502 0.03153949
0000d0 18 d9 f1 3d 2c 19 b6 3c d0 53 3f bd 28 da 18 3d
       0.118089855 0.0222288 -0.04671079 0.037317425
0000e0 f7 09 ad 3c a7 b6 7f 3d c2 ab 52 3d a2 31 ca 3d
       0.021122916 0.06243005 0.051433332 0.09872748
0000f0 63 d8 fe 3d 71 a2 3c bd ea 1e 97 3d 99 80 c3 bc
       0.12443616 -0.046053354 0.07378943 -0.023865031
000100 15 c8 bc bd 04 ad d2 3d e3 bc e6 bc fa 32 77 bc
       -0.0921785 0.10286906 -0.02816624 -0.015087837
000110 01 d4 ce 3d 32 75 e4 bc 63 b8 ce 3d d6 13 4f 3c
       0.1009903 -0.027887914 0.10093763 0.012639007
000120 6b 59 31 3c 50 d5 e8 3c 3e a4 5e bd ae 26 7c bc
       0.010824542 0.028422028 -0.054355852 -0.015390081
000130 83 fa 63 bd 00 57 a6 3d de 81 db bc 56 7b c1 3d
       -0.05565883 0.08122063 -0.026795324 0.094473526
000140 75 ac 31 3d 1f 47 c6 3c 5f 96 cd 3d 2e 72 42 3d
       0.04337736 0.024203835 0.10038447 0.04747217
000150 83 2b 85 3d 7a a1 db 3b d9 33 18 3d 43 fd 93 bd
       0.0650244 0.006702599 0.03715882 -0.0722604
000160 db 3f 03 bb 99 8a 0e 3c f1 a7 34 bd 55 7d cf 3b
       -0.0020027074 0.008700036 -0.044105474 0.0063320794
000170 2a f0 8b 3d c0 1e 93 3d f8 67 e5 3b b5 c2 51 bc
       0.06832917 0.071835995 0.0070009194 -0.012802769
000180 9d fc d2 bc 31 77 36 bd 83 a1 f5 3b a1 ca 08 bd
       -0.025755221 -0.044547264 0.0074960603 -0.033396367
000190 54 46 6f bd 5c e3 ce 3c 7f 79 37 bd f8 2d fa 3c
       -0.05841668 0.025254898 -0.044793602 0.030539498
0001a0 1c aa a9 3d 97 9c 36 bd bf 86 73 3d 2b 22 14 bd
       0.08284399 -0.04458293 0.059454676 -0.036165398
0001b0 ac 0d 94 bd 7b 9e db 3d ec f3 e3 bc 17 0b c5 3d
       -0.0722917 0.10723587 -0.027826272 0.09621256
0001c0 71 a4 bb 3d 92 35 86 3d 0e 90 fb bc 43 af 16 3d
       0.09162224 0.065531865 -0.030708339 0.036788236
0001d0 23 b1 8a 3d 75 26 0f 3d 9f 79 14 3d fe a4 c8 3d
       0.067720674 0.034948785 0.0362488 0.09797095
0001e0 5a 81 46 3c 87 46 3f 3d c4 d5 11 bd 2c a4 7c bc
       0.012115801 0.04669812 -0.035604253 -0.015420001
0001f0 3d 90 bc 3d bf e0 e9 bb d9 12 30 3d f2 82 4e bd
       0.09207199 -0.0071373875 0.042986725 -0.050417848
000200 36 b9 f1 3c a4 18 96 bd 76 d0 c9 3c 4f 55 a7 3c
       0.02950726 -0.073289186 0.024635535 0.02042642
000210 8d a1 f9 ba 3f 05 0e 3d a0 88 0e 3d 59 05 74 3d
       -0.0019045338 0.03467297 0.034798265 0.059575412
000220 f7 d6 a9 bd 87 c1 84 3b f9 5e 6f 3d 11 30 85 3d
       -0.082929544 0.0040513906 0.058440182 0.065033086
000230 59 6f 7a bd 17 00 4e bc 72 4a dd ba 02 a5 50 bb
       -0.061141346 -0.012573264 -0.0016883148 -0.0031836634
000240 ed 39 16 3d cb 76 3f 3d 3a 44 9e bd dc bf ca 3c
       0.036676336 0.04674415 -0.07727857 0.024749689
000250 52 71 7f bd 93 e5 2d 3c 6e 55 46 bc 2d f1 d4 3c
       -0.06236393 0.010613817 -0.012105329 0.025993908
000260 f6 1c a6 bb fe c9 9e 3d 03 64 82 bd 4c 16 44 3d
       -0.0050693704 0.07753371 -0.06366732 0.047872826
000270 2e f4 d0 3d 26 29 a2 bc 01 ad 52 3c 63 1f 28 bd
       0.102028236 -0.019795012 0.01285863 -0.041045558
000280 24 52 2b bd 09 41 1e bd 45 ac 79 3d 0a 6d 75 3d
       -0.041826382 -0.03863624 0.060955305 0.05991844
000290 2a 85 cf bc 70 e0 aa bc 34 6b 6c bd bc 51 5c 3d
       -0.025332052 -0.020858973 -0.057719424 0.053788885
0002a0 05 69 5d 3d de b4 30 bc 93 25 4d bd 4b 1b 70 3d
       0.054055233 -0.01078531 -0.05008466 0.05861978
0002b0 ac ab 39 bd 29 1d 8b 3d 57 94 6c bd 19 d0 2a 3d
       -0.045329735 0.06792671 -0.057758655 0.041702364
0002c0 b5 18 63 bd e1 5c ba 3c bd c8 cc 3d d3 10 92 3d
       -0.055443484 0.022749366 0.09999225 0.07132115
0002d0 68 c6 98 bd b5 b7 37 bd f7 32 12 3d b8 f4 3b bd
       -0.07459718 -0.04485293 0.035693135 -0.04588768
0002e0 01 31 2e bb fb f7 87 3d 45 78 f9 bc 3e 2c 7e bd
       -0.0026579502 0.066390954 -0.030452857 -0.06205391
0002f0 8e 2d 5d bd da 01 f9 3b 7c fa f4 bb 29 58 05 3d
       -0.053998522 0.0075990977 -0.007476149 0.03255478
000300 e3 f6 30 bd a5 a9 24 bd 4e 7e c8 bc bd f2 09 3c
       -0.0432042 -0.040200848 -0.02447429 0.00841969
000310 b3 f5 ac 3d 7a 4f a7 bd 3e ac 79 3d c2 0e 2d 3d
       0.08445301 -0.08169456 0.06095528 0.042250402
000320 fd 2a a3 bd f0 68 38 bd 44 27 2a 3d fa b0 95 bc
       -0.07967184 -0.04502195 0.041541353 -0.018272866
000330 ab db d5 3c 36 05 84 3c 23 48 8b bd b3 5d 74 3d
       0.026105722 0.016115766 -0.06800868 0.05965967
000340 ff c7 b4 3c 44 66 16 bd 4a 71 b3 3c 1d 5d e5 bc
       0.022068022 -0.03671862 0.021904606 -0.027998501
000350 a7 0d d0 bc 9e c5 82 bc 76 f2 8b bd 77 e5 9c bd
       -0.025397135 -0.015963372 -0.06833355 -0.076609544
000360 be 8e 22 3c 3f 89 45 bd 0a 4c 1f 3d e2 2a 99 3d
       0.009921728 -0.04822659 0.038890876 0.07478882
000370 ee 79 1f ba 36 03 87 bd 93 f7 c4 bd 50 71 6f 3d
       -0.00060835376 -0.06592409 -0.096175335 0.058457673
000380 a5 62 66 3c f2 f3 80 bd fe ff 4c bd 14 92 29 3d
       0.014061605 -0.06296529 -0.05004882 0.041399077
000390 82 40 82 3c 36 b9 64 3d f9 b2 b6 3d c4 21 d9 bc
       0.0158999 0.055840693 0.08920855 -0.026505359
0003a0 d9 65 ba bc 51 f6 a6 bd 07 0d a3 3d 17 b1 61 3c
       -0.022753643 -0.0815245 0.07961469 0.013775132
0003b0 84 6b 8d bc 37 5f 4e bb 09 ad 81 bd f7 a6 96 bc
       -0.017263182 -0.0031489858 -0.06331832 -0.018390162
0003c0 9e 1b 94 3d ee b5 33 3d 75 7f fc 3c d4 ed aa bc
       0.0723183 0.043874674 0.030822495 -0.020865358
0003d0 54 25 34 3d f6 dc c9 3d c5 34 83 bd 06 52 38 bd
       0.04398091 0.09856598 -0.06406549 -0.0450001
0003e0 9f be c5 3d 06 53 9d 3d e3 af 06 3d c1 9a b0 3d
       0.09655499 0.07681851 0.032882582 0.08623267
0003f0 85 d0 32 3c d2 95 4e 3c cc 76 62 3d 1b 13 9c 3d
       0.010913973 0.012608962 0.055289075 0.076208316

bias f4 [128]
000000 8c 8b 85 3d d5 fb d8 bb 79 de 99 bd 3f 28 14 3c
       0.06520757 -0.0066218176 -0.075131364 0.009042799
000010 6d 87 78 bb c2 b6 62 3c c3 31 4a 3c f8 bc a3 bd
       -0.0037922517 0.013837518 0.012340966 -0.07995027
000020 20 f9 88 bd b8 18 a2 3d cb d1 40 bc 97 cf 03 bd
       -0.06688142 0.07914871 -0.011768769 -0.032180395
000030 73 9c d3 3b f6 fd 92 bd 96 64 ff b9 71 8d 4b 3d
       0.006457859 -0.071773455 -0.00048712333 0.049695436
000040 db 60 19 3d e6 3b 81 bd f9 b0 ae 3c 97 f5 6d 3d
       0.037445884 -0.06310253 0.021324622 0.05809554
000050 db ca 84 3d 1c 7e e4 bc da 62 1b bd 40 15 25 bd
       0.06484004 -0.027892165 -0.03793607 -0.04030347
000060 12 d4 1d 3d 92 3b a0 3d 6b 18 49 bd 4a 60 31 3d
       0.038532324 0.07823862 -0.049095552 0.04330472
000070 be 09 04 3d a3 32 63 3b 7d 0c 5c 3d ba 6a 27 bc
       0.032235853 0.0034667633 0.053722847 -0.010218317
000080 ef 48 0d bc b6 2d 39 bd f7 2b a0 3d bc 2c 76 3d
       -0.008623346 -0.04520961 0.07820886 0.060101256
000090 11 2f 9c 3d 0e 2e 53 bd b8 1d 87 bc f2 5c d9 3c
       0.07626165 -0.051557593 -0.016493663 0.026533578
0000a0 db 5f 90 bd b8 29 9c bd 18 ec f8 bc 71 2d 7c bd
       -0.07049533 -0.07625145 -0.030386016 -0.061566774
0000b0 f5 43 a3 3d d3 aa 8a 3d ac cf 35 bd ef cc a1 bd
       0.07971946 0.067708634 -0.044387504 -0.07900416
0000c0 21 b5 67 bd b9 49 82 bc 28 c3 85 bd 4f 45 36 bd
       -0.056569222 -0.015904294 -0.06531364 -0.04449969
0000d0 fa 39 5e 3d 94 8d e2 bc 8e cd 01 bd 54 0b b6 bc
       0.05425451 -0.0276554 -0.031690173 -0.022222199
0000e0 71 cd d4 3d 54 46 81 3d ec a4 79 3c 39 bb 81 3d
       0.10390747 0.06312242 0.015237074 0.06334538
0000f0 e1 20 0f bc 59 f1 cd bc a7 01 82 bc 62 2d ee 3b
       -0.008735866 -0.025139498 -0.015869929 0.0072685936
000100 c6 e8 d5 bc cd 33 a3 3d 33 b0 f8 3c e3 72 c2 3d
       -0.026111972 0.079688646 0.030357456 0.09494569
000110 da 65 88 bd 19 8b 84 bd 8f 39 11 bd 54 5f a6 3a
       -0.06660052 -0.06471843 -0.035455283 0.0012693205
000120 22 6c 1c 3c f0 64 75 3d 1a 7c 9c bd 18 96 53 bd
       0.009547265 0.059910715 -0.07640858 -0.051656812
000130 04 d1 6b 3d 54 43 59 bc 44 f8 97 bd 0d e1 7d bd
       0.05757238 -0.013260681 -0.074204 -0.061982203
000140 aa 76 a4 3d 79 42 a7 3b df c3 1c 3d 08 ef bb bd
       0.08030446 0.0051043597 0.038272735 -0.09176451
000150 2e 59 ea bb ca 30 09 3d ae fa 41 bd 70 96 08 3d
       -0.0071517443 0.033493795 -0.047358207 0.033346593
000160 34 75 88 bd e2 f1 91 bd f2 7f 00 3c d0 2f 7f 3d
       -0.0666298 -0.071262136 0.007843005 0.062301457
000170 69 41 d3 3b e3 58 29 bc 2e 8e 5c 3d 99 59 91 3d
       0.0064470065 -0.010336134 0.05384653 0.070971675
000180 ba 9d 6d bb b6 d6 47 3d 06 91 2a bd e0 d6 8c bd
       -0.0036257342 0.04878875 -0.04164221 -0.06876922
000190 44 e3 4b 3c 68 8b 20 bd 60 24 52 3d 75 cd 0c bc
       0.012444321 -0.03919545 0.05130422 -0.008593907
0001a0 b1 39 c3 ba 4e ab 39 bd 4b 71 5e bc dd ed fd 3b
       -0.0014894513 -0.045329385 -0.013576816 0.007749303
0001b0 e2 43 78 3d 2a b3 67 bd a8 2b 4c bc 06 a2 59 bd
       0.060611613 -0.05656735 -0.01246158 -0.053133033
0001c0 71 31 0d bc 78 23 2a bc 32 ad 2d 3d 56 42 3d 3c
       -0.008617745 -0.010384433 0.0424015 0.01155146
0001d0 15 c3 31 3d 73 eb 54 3d 48 fa 84 bd f8 53 cd 3c
       0.043398935 0.051982354 -0.0649305 0.025064453
0001e0 a2 1b 9f bc 4a 24 e0 3a f7 04 38 3c d6 12 5b 3d
       -0.019422356 0.0017100659 0.011231652 0.05348476
0001f0 a0 1f ba bc 66 bb 97 bd ec e2 58 3c 3a 33 e6 bc
       -0.022720158 -0.0740879 0.013237696 -0.028100599

weight f4 [128, 128]
000000 d7 bb 34 3c 5f 77 77 bd 32 aa 4f bd 72 d5 13 3b
       0.011031113 -0.060416576 -0.05069942 0.0022557643
000010 90 e1 c0 3d db 07 9d bd 15 c2 7a 3d 05 89 1e 3d
       0.09418023 -0.07667514 0.061220247 0.03870489
000020 5f 5e b1 bd ed 2e 90 3d a2 38 71 bd ce 93 f4 bb
       -0.08660578 0.070402004 -0.0588919 -0.0074639088
000030 7c ea c2 3b 01 00 58 3d 26 2b 7f bc 88 ce b9 3d
       0.005948363 0.05273438 -0.015574252 0.09072596
000040 5c c8 9b bc 67 90 3d bd 83 3b 5a bd 88 94 85 3c
       -0.019016437 -0.04628029 -0.05327941 0.016306177
000050 bc 29 64 bd 35 b1 77 3d 32 6d 7e bd d2 ed ca ba
       -0.055703864 0.060471732 -0.062115856 -0.0015482253
000060 84 08 57 bc c4 2d 32 3d 63 06 35 3d 89 3f a8 3b
       -0.013124589 0.043500677 0.044195544 0.005134527
000070 1f c6 03 3c 2d b2 54 bc 01 88 c0 bc d7 df 98 3d
       0.008042841 -0.012981934 -0.023502352 0.07464569
000080 41 04 82 bd d8 b9 d2 3d bd e5 95 bd 14 96 fb b8
       -0.063484676 0.10289353 -0.0731921 -0.00011996567
000090 ec 2e 20 bd 27 84 a0 3d f9 1c 97 bc d2 5e 3c bc
       -0.03910725 0.07837706 -0.018446432 -0.011497216
0000a0 e6 a1 9b 3d f1 84 37 bc d2 cc 8a bd 47 7f 47 3d
       0.07599239 -0.011201129 -0.067773476 0.048705366
0000b0 d9 9a e4 3c 63 31 9e 3b a8 01 09 bd fc 4b 13 3c
       0.027905868 0.0048276647 -0.033448845 0.008990284
0000c0 59 a0 1c 3d 27 61 44 bd 0b c6 a4 bc c9 79 11 3d
       0.038238857 -0.047944214 -0.020113965 0.035516534
0000d0 7f 00 b6 bd 8a 3f a7 3d c4 1c b7 3d fd fa 63 bc
       -0.08886813 0.08166416 0.089410335 -0.013914821
0000e0 e3 c9 2d 3d da 39 96 bd e4 b4 5a 3c 50 63 42 bd
       0.042428862 -0.07335253 0.013348792 -0.047457993
0000f0 ef 64 2c 3d 4c 0e 56 3d e8 c3 50 bd 68 3d 90 bd
       0.042088445 0.05225973 -0.05096808 -0.07042962
000100 77 fe 70 3d b6 a9 17 3d 17 ae 86 bd 42 0b 52 bc
       0.058836427 0.037027083 -0.06576174 -0.012820067
000110 6e d1 3b bd 7e c4 82 3c 46 b7 30 bd 42 59 56 3d
       -0.045854025 0.015962835 -0.043143533 0.052331217
000120 b7 60 e2 bc cb 69 a8 3d f4 a0 db bc f4 27 43 bd
       -0.027634008 0.082233034 -0.026810147 -0.047645524
000130 f8 4f 24 bd 81 94 b1 3d b2 44 3c 3d 24 46 aa bb
       -0.040115327 0.08670903 0.04596395 -0.0051963497
000140 1b 01 54 bd 2f c7 16 bc d1 5c bc 3d 7d 60 d9 3c
       -0.051758867 -0.0092027625 0.09197391 0.026535267
000150 be 84 9a 3d 2c ed 9a 3d 0a a4 19 bd 5b c8 bc bd
       0.0754485 0.07564768 -0.037509955 -0.09217902
000160 95 91 af 3d e9 9a d3 bc a3 f4 ea 3c 1e 2a 41 bd
       0.085726894 -0.025830703 0.028681105 -0.047159307
000170 58 6e 81 3c 4d 64 17 bc 47 b8 6a bd 1e b8 7e 3d
       0.015799686 -0.009240222 -0.057304647 0.062187307
000180 a6 3f e2 bc 96 60 4e bd b5 f5 7f bd e7 78 b5 3d
       -0.02761824 -0.05038508 -0.062490184 0.08860951
000190 74 06 b5 3d 68 c2 b2 3d 08 b4 a9 3d 43 c3 73 bd
       0.088391215 0.08728486 0.08286291 -0.059512388
0001a0 f1 e3 99 bd 01 1a 97 3d 13 66 76 bd fc a8 a2 bc
       -0.075141795 0.07378007 -0.06015594 -0.019855969
0001b0 8a cc bd 3b 19 c3 ce bc 0a b1 0b bd fc 82 ca bc
       0.005792205 -0.025239514 -0.034104384 -0.024720661
0001c0 69 4c 85 3d 5e f6 bd 3d f4 b6 22 3c b5 5a 8a bd
       0.06508715 0.092755064 0.009931315 -0.06755582
0001d0 b0 89 31 bd 74 c3 68 bc 9e 4e f9 3b 1c bd 5b bd
       -0.0433442 -0.014206756 0.007608249 -0.053647146
0001e0 f1 60 b7 3d 69 69 cf bc 3d cf 33 bd 72 86 a1 bd
       0.08954037 -0.025318818 -0.04389881 -0.078869715
0001f0 72 aa 80 bd a7 16 0d 3c 0a 5b 69 bd d1 06 5d bd
       -0.0628251 0.008611358 -0.056971587 -0.05396158
000200 7c 38 e0 3c 6f 00 7b 3d 26 0f d9 3c a8 56 9a 3d
       0.027370684 0.06127971 0.026496481 0.075360596
000210 2e b2 d3 3b 46 5a 86 bd 5e f5 c5 3c 20 47 da 3c
       0.0064604497 -0.06560187 0.024164852 0.026645243
000220 38 45 c9 bc 23 ab 7a 3c bf 87 b0 3d 10 b2 53 bd
       -0.024569139 0.015299591 0.086196415 -0.051683486
000230 30 6f 8d 3d c9 0d 35 3d 88 3a 18 bd e0 c1 4d 3d
       0.06905973 0.0442026 -0.037165195 0.05023372
000240 3d 66 5c 3d 96 f9 62 3c 80 cb a6 bc d3 c1 5a bd
       0.05380844 0.013853451 -0.020360708 -0.0534075
000250 74 c0 a0 3c df 41 a0 bd 65 57 24 3c 78 cc 13 bd
       0.019623019 -0.07825064 0.010030602 -0.03608367
000260 22 7b ef 3b bb c5 98 3d cb d5 a4 3d 59 d5 5c 3d
       0.0073083797 0.07459589 0.0804859 0.0539144
000270 bc c1 b1 bd c7 fd 89 3d 72 6d 35 3d 71 56 82 bd
       -0.0867953 0.06737857 0.04429383 -0.06364144
000280 48 f9 c2 3d b0 36 91 bd 9c 21 79 3d 88 eb 7a 3d
       0.09520203 -0.07090509 0.060823068 0.061259776
000290 3e 25 b2 bd 96 2c 38 3b 75 cd 28 bd c3 43 70 bd
       -0.0869851 0.0028102747 -0.041211564 -0.058658373
0002a0 6f 7b dc 3c 1d 73 47 bd 5b 3c 61 bd 55 b5 0d 3d
       0.026914326 -0.048693765 -0.0549892 0.03459676
0002b0 5c 5f f1 bc 43 2d ab 3c ab 0d 22 bd cd 78 e2 bc
       -0.029464416 0.020895606 -0.039563816 -0.027645493
0002c0 94 b2 7f 3d 08 d1 19 3d cf 48 95 bd 48 25 9d 3a
       0.062426165 0.037552863 -0.07289278 0.001198926
0002d0 87 3a 85 3d 3e 29 12 bd 9e 74 7f bd 72 a6 87 3d
       0.06505304 -0.035683863 -0.062367074 0.06623544
0002e0 48 92 d0 3d cc 3e 24 3d d5 e9 45 3d 54 96 82 bd
       0.10184151 0.04009895 0.048318703 -0.06376329
0002f0 9f 39 0f bd 94 f1 ba 3d b9 19 56 bd 7d db 0c bb
       -0.03496706 0.091281086 -0.052270625 -0.002149313
000300 ff fe 83 bd f9 9e 02 bd df 72 fd 3c c6 95 99 bd
       -0.06445121 -0.03188989 0.030938564 -0.0749927
000310 be 97 9b 3d 01 a3 5c 3b 53 79 b3 bd d5 d2 8e bd
       0.07597302 0.0033666494 -0.08763375 -0.06973807
000320 b5 f6 90 bd 4e 9c 78 3d bd 36 98 3d ed fb 22 3d
       -0.07078306 0.06069594 0.074323155 0.039791036
000330 c0 13 00 3c 94 bf 49 bc 83 e6 32 bd 0d f0 69 3d
       0.007817209 -0.012313742 -0.043676864 0.057113696
000340 5d 5b 03 3d 81 d0 82 3c d0 5e 23 3d 94 08 a2 3d
       0.032069553 0.015968563 0.039885342 0.079117924
000350 4f 73 85 bd ef e2 00 bd 4b 72 c8 bb 58 66 aa bc
       -0.06516134 -0.03146642 -0.0061171404 -0.020800754
000360 39 a2 3c bc 9c 2b df 3d 46 18 27 3d ab eb 5a bd
       -0.011513286 0.1089699 0.040794633 -0.053447407
000370 26 0f a8 bd f5 a2 16 bb db d7 3f 3d e9 6f a6 3d
       -0.08206014 -0.0022985314 0.046836715 0.08126814
000380 2b 8e 5a bd 63 5b 3d 3d 21 44 b0 bd be 94 74 3b
       -0.05335824 0.04622973 -0.086067446 0.0037320103
000390 08 31 d0 bd 3d 3e 50 bd 17 d6 28 bd 41 aa 78 bd
       -0.10165602 -0.050840605 -0.041219797 -0.06070924
0003a0 c8 a4 5d bd 14 e6 12 3d d5 c0 64 bd 09 3d 23 3c
       -0.054112226 0.03586395 -0.05584796 0.009963282
0003b0 2d 38 d1 bd e5 7c 21 3c 2b cf 1d 3d a3 ef 07 3c
       -0.10215793 0.009856437 0.03852765 0.00829688
0003c0 fc c9 45 3d dc ae 40 bd de 09 20 3d b2 e5 33 bd
       0.04828833 -0.04704176 0.03907191 -0.043920226
0003d0 ee 62 5a 3d 26 59 0a bd 1e 6f 5f 3d 9f eb 89 bc
       0.053317003 -0.033776425 0.05454933 -0.016835986
0003e0 4e c4 8b 3c 32 33 84 bb e5 db 87 3d 37 29 0c 3d
       0.017061379 -0.0040344233 0.066337384 0.034218993
0003f0 6c 85 27 3d c7 76 29 3d 95 6e f0 3c 07 72 4a bd
       0.040898725 0.04137304 0.029349605 -0.04942515

bias f4 [128]
000000 32 92 b4 3d e0 68 28 3d 0f fb 1a bd 68 4c 72 3d
       0.08816947 0.04111564 -0.037837084 0.059154898
000010 59 02 0a 3d 92 b0 fb 3b 0c a0 8e bc dd ed 77 bd
       0.033693645 0.007680961 -0.0174103 -0.06052958
000020 11 ca 87 3d 19 7a 9f bc 2e 05 fe 3c e2 71 82 3d
       0.06630338 -0.0194674 0.03100833 0.06369378
000030 fd 62 99 3d b2 bd 88 3d b0 bc 2c 3b 96 81 09 bc
       0.07489584 0.066768065 0.0026357584 -0.008392712
000040 44 14 2d 3d bf 2f 2b bd 46 a0 76 bd 18 f4 b3 bb
       0.042255655 -0.04179358 -0.060211442 -0.0054917447
000050 b0 33 8c bd f7 da 8f bc f9 24 6b bd 3a a6 df 3c
       -0.06845796 -0.017560465 -0.057408307 0.027300943
000060 a2 4d b2 bd bd 7e 17 bd ad e9 c3 3d 6c e9 48 3d
       -0.087062135 -0.0369861 0.095660545 0.049050733
000070 89 01 c7 bc 69 24 88 bd 16 e0 11 bd 2c 39 9e bd
       -0.024292724 -0.0664757 -0.035614096 -0.077257484
000080 0c 6c 9f ba eb 91 a9 3d 50 52 f3 3c c0 e6 10 3d
       -0.0012162938 0.08279785 0.029702336 0.03537631
000090 fc bb ba 3c 9f 8d 90 bd df fa a6 bd 2b 67 27 3d
       0.022794716 -0.07058262 -0.081533186 0.040869873
0000a0 b8 0a bf bd 6e 55 94 bc 33 0c 86 3d 92 54 cb 3c
       -0.09328216 -0.018107142 0.065452956 0.0248206
0000b0 ec 30 83 3d 2a 27 b8 3d a4 8d 9c bd b8 64 5f 3d
       0.064058155 0.08991845 -0.07644203 0.054539412
0000c0 29 7f 99 bc 8a 41 61 bc 25 d8 3f bd c1 1b be 3d
       -0.018737393 -0.013748536 -0.04683699 0.092826374
0000d0 76 65 64 3b 70 19 75 bd 39 a8 08 3d a9 6f bb bd
       0.0034850514 -0.059838712 0.033363555 -0.09152157
0000e0 f6 a6 c4 bd 26 bd 3d bc 32 1d bb 3d 35 5d 84 bc
       -0.09602158 -0.011580741 0.09136428 -0.016157726
0000f0 c2 69 67 3d 3d 24 1e bd 6d c3 15 3d c7 ac 93 3d
       0.056497343 -0.03860878 0.036563326 0.07210689
000100 1b d4 01 bd ad 7b 1c bc c5 b9 49 bd 41 6c c5 3c
       -0.03169642 -0.009550971 -0.04924943 0.024099471
000110 19 35 cb 3c 31 60 d0 bc 96 be 1c bd fa 84 8c 3c
       0.024805592 -0.025436493 -0.038267694 0.017153252
000120 2e b9 fa bc 70 a9 7b 3d 58 8b 93 3b a2 dd a0 3d
       -0.030605879 0.061440885 0.004502695 0.07854773
000130 b1 33 93 bd 3f aa 2b bd 3c 13 19 3d b8 39 8e 3d
       -0.07187594 -0.041910406 0.03737186 0.06944603
000140 dc e4 74 3d e0 3c 8f 3a db 99 a8 3d b1 57 a3 bc
       0.05978857 0.0010928176 0.082324706 -0.019939275
000150 b4 ac 7b bd f2 e0 47 bd 3a da 8f 3d a4 17 68 bd
       -0.061444 -0.04879851 0.07024045 -0.05666317
000160 ae 28 96 3b 8a 43 02 3d 78 7e 96 bc 94 7d 8d 3d
       0.004582486 0.03180269 -0.018370852 0.06908718
000170 1e 22 26 3d 95 31 1f 3d a9 1d cc 3c da c1 e3 bc
       0.04055988 0.038865644 0.024916487 -0.027802397
000180 0e 4f 2b 3c a6 33 19 bd e3 53 2d bc 2e af a1 3d
       0.01045586 -0.03740277 -0.010579082 0.07894741
000190 36 74 2e 3c d3 f7 87 3d 19 70 16 bc 55 ba 4a 3d
       0.010647824 0.066390656 -0.009182 0.049494106
0001a0 ac e3 9f 3b 09 f9 83 3d 65 84 c5 3c 0c 90 e5 bc
       0.0048794355 0.06443984 0.024110982 -0.028022788
0001b0 e1 cc 60 3d 9d 6b 54 bd f0 62 41 3d d7 56 a7 bd
       0.054882888 -0.05186044 0.047213495 -0.0817086
0001c0 cc c3 d0 3c a5 16 3a bd 70 f0 d0 3c 72 ad a8 bd
       0.025483988 -0.04543175 0.025505275 -0.08236207
0001d0 d9 ba 2f 3c 12 c9 b3 bc 20 c6 2b bc a4 28 4e bd
       0.0107257 -0.021946464 -0.010484248 -0.050331727
0001e0 68 be 9d 3c 4c 9f 5d bc 26 f6 a2 bd a8 f9 bf 3d
       0.019255832 -0.013526749 -0.07957105 0.0937379
0001f0 9b 05 65 3d 37 2b cc bc ca 01 95 3d ee 30 a0 bc
       0.05591355 -0.02492295 0.07275732 -0.019554581

weight f4 [1, 128]
000000 08 f4 8d 3d 81 9e f3 bc 4a 64 a7 bd 39 bd 7d 3d
       0.06931311 -0.029738666 -0.081734255 0.061948035
000010 80 d3 b3 3d 47 e8 95 3d b1 e0 2b 3d 9b 57 67 3d
       0.08780575 0.07319694 0.04196233 0.05648003
000020 4a 42 bd bd a6 a9 14 3d 10 97 b9 bd 7c 4f ad bd
       -0.09241159 0.0362946 -0.09062016 -0.08462426
000030 1d 90 20 bd 74 59 d4 bd 6f 2f 76 3d 43 12 c0 bc
       -0.039199937 -0.10368624 0.06010383 -0.023446208
000040 6a 56 fa 3c e0 ce b6 bd 98 1b a4 3c 77 ee 9e bd
       0.030558784 -0.08926177 0.020032689 -0.07760327
000050 79 35 1e bd 9d 4d dd bd 92 01 b1 3b 42 f8 8f 3c
       -0.038625214 -0.10805819 0.0054017985 0.017574433
000060 0d 6d b9 bc 9e e8 9d 3d 8c 14 2a bd 83 56 bf bd
       -0.022635007 0.07710384 -0.0415235 -0.09342673
000070 51 ba cb bc 11 9a fa 3c 09 c7 8c bd d8 9a a8 3d
       -0.024869116 0.030591043 -0.068739004 0.08232659
000080 5f 3b 29 3d 77 b7 99 bd c4 9e bc bc e4 ef 8e 3d
       0.041316386 -0.07505696 -0.023024924 0.06979349
000090 73 2f c6 3d c3 dd b4 bd b5 f5 b8 bc 91 23 90 3d
       0.09677019 -0.0883136 -0.0225781 0.07038034
0000a0 de 52 29 bd 67 29 9f bd 14 79 d0 bc 4e 20 d2 3b
       -0.041338794 -0.07771569 -0.02544836 0.0064125424
0000b0 d1 41 f5 3c 35 c7 16 3d af eb db bb 50 2a f1 bd
       0.02993861 0.036811072 -0.0067114453 -0.117756486
0000c0 0d 95 5a 3d d6 ed ba 3d 92 54 03 3c e8 72 f2 bc
       0.053364802 0.09127395 0.008015769 -0.029595807
0000d0 48 7c 61 3d a3 04 9c 3c f1 41 37 3d 91 29 1b bd
       0.055050164 0.01904518 0.04474062 -0.037881438
0000e0 37 c6 9a bd fd 88 9d 3c 1a 00 36 bd 0c 54 62 3d
       -0.07557338 0.01923036 -0.04443369 0.055255935
0000f0 d1 f3 0e bd cb 9e 99 bc 8f a2 b8 bd 6a 11 2a bd
       -0.03490049 -0.018752476 -0.090153806 -0.041520514
000100 04 3c 88 bd 22 b2 79 bd 4c f0 79 bd c5 02 8b bc
       -0.06652072 -0.060960896 -0.06102018 -0.016969094
000110 8e 06 a9 3d 3f 4f d1 bd 78 5d 64 bc ab 2c b8 bd
       0.08253203 -0.10220193 -0.0139383 -0.08992895
000120 f3 3f 97 3d c6 d1 70 3d ad 53 6a bd fb a1 59 bd
       0.07385244 0.058793806 -0.057208706 -0.053132992
000130 d1 54 5b bd 73 e6 2b 3d 6a 45 1d bb ea 1c a7 3d
       -0.053547684 0.04196782 -0.0023997673 0.08159812
000140 cf e7 57 bd 4c fc 3b 3d e9 ac ce bd dc 9e 80 bc
       -0.052711304 0.045894906 -0.10091574 -0.01570075
000150 8a f6 81 3d ea 5a 95 3d 25 25 89 3d 62 b8 98 3b
       0.06345852 0.07292731 0.06696538 0.004660652
000160 05 db 17 bd 05 b0 2c bd ad 09 c4 3d 56 95 9d 3d
       -0.037074108 -0.042160053 0.09572158 0.07694499
000170 00 fa bd 3d 91 e6 e6 bd 9a f7 a4 3d fd cb 63 bd
       0.09276199 -0.11274446 0.08055039 -0.05561446
000180 e8 43 83 bd 0e b2 1a 3d 4f f6 ab bd 67 d4 c5 3d
       -0.064094365 0.037767462 -0.08396589 0.09659653
000190 a7 83 6e 3d f9 f7 7b 3d 67 82 4d 3d 0e 4f b0 bd
       0.058231022 0.061515782 0.05017319 -0.086088285
0001a0 a5 72 66 3d a7 2f b8 3d 10 c5 76 3c 17 cf b8 bd
       0.056261677 0.08993464 0.015061632 -0.09023874
0001b0 72 cb b6 3d e2 e0 8e bd e6 48 4d 3d f0 65 3a 3c
       0.08925523 -0.06976487 0.05011835 0.011376843
0001c0 ea 2d 8f 3d 59 6e df 3b 0e 13 ea bc 86 a3 98 bd
       0.06991179 0.0068185744 -0.02857354 -0.074530646
0001d0 78 dc 91 bd 96 39 85 3c 9b 09 e0 bc 64 cb b8 bc
       -0.07122129 0.01626281 -0.02734833 -0.022557922
0001e0 d6 a9 b0 3d 6b 31 35 bc 03 55 f2 3b ff 37 56 bd
       0.08626144 -0.011059145 0.007395388 -0.052299496
0001f0 81 70 b0 3d 99 13 39 3c 00 9e 7b 3c 50 94 e8 3c
       0.086152084 0.011296176 0.015357494 0.028391033
