Dry fermentation prediction and optimization system/predictor_percolate_tank/Predictor_Percolate Tank Biogas Production/models/NeuralNetFastAI_BAG_L1/S1F4/model-internals.pkl (torch, 132451 bytes, 15 tensors)

weight f4 [7]
00000000: 5f44 7e3f f755 873f 5221 7d3f d4d9 7e3f
00000010: 7331 7d3f c228 843f fdd4 733f
0.99323076 1.0573109 0.9887897 0.9955113 0.9890358 1.0324938 0.9524687

bias f4 [7]
00000000: 204c 5ebb a537 943c ea1a 6b3d 0436 073c
00000010: a656 033d dbae eebc 1280 893a
-0.0033919886 0.01809294 0.057398714 0.008252624 0.032065056 -0.029136112 0.0010490438

running_mean f4 [7]
00000000: ddde 13bc aafe 313b b83d d9ba 8d44 583c
00000010: c40d 043c 7211 793c 9123 14bc
-0.009025303 0.0027159848 -0.001657418 0.0131999375 0.008059923 0.015201913 -0.009041683

running_var f4 [7]
00000000: 59ef 7d3f ac03 843f 8902 7e3f 4c2d 803f
00000010: 84f7 833f 511d 833f 6a0a 813f
0.9919334 1.031362 0.9922262 1.0013824 1.0309911 1.0243322 1.0081303

weight f4 [200, 7]
00000000: 83a8 56bd cb77 583e 3906 98be 83fc 8dbe
00000010: 9ce3 26be e8a6 ef3d 781a eebb 6eb4 913e
00000020: 55a1 84bd 8f0a d63d a517 b0bd a19b bbbd
00000030: 50d3 bbbe d392 89be 16f2 02be 62b0 043d
00000040: c9b8 123e 401e 8a3e 84ee 80be ce96 3bbe
00000050: 670e c73d 7227 853e 4417 9fbd e9e8 9c3e
00000060: 376f 64bd df6e 873d 7593 c03e 0155 b2be
00000070: a12c 84be 1d36 fcbd 5a20 16be 7833 b33e
00000080: 7da7 5abe 1fbb 14be 3e7a 78be 578a b5be
00000090: 9d38 7abe 94a0 9a3e 9ed1 3b3e 7309 473e
000000a0: 3730 e73c 7a4d 4abe 6df8 9f3d 9d85 c1be
000000b0: 35dc 6fbe 2215 38be 3991 863e fe4a 7b3e
000000c0: aa50 31be 3f36 663b 1793 2b3e 67b4 c53e
000000d0: 87d9 363e be2f a93d 93cf 9a3e 909f 66be
000000e0: 73ef 8b3d 8095 aabe f3d7 69be 32f9 2fbe
000000f0: c624 413e a53c 2f3e 61ea 7fbe b186 f33d
00000100: 4432 6b3e d3a3 08bd 1330 f3bb d54c 9c3d
00000110: e4e3 5b3e b226 ba3e 19f6 94be c6c3 cfbd
00000120: 265c 1c3e fece a13e 2b5f ac3e b1a1 aa3e
00000130: bc8a 853d 526b b2be dcdc 0d3c c093 88be
00000140: 2166 b9be 37b7 9c3e bbe5 833e a4f0 b9be
00000150: 7dad 663d 7b02 98bd ea52 9cbd 4f12 28be
00000160: be2d 0f3e 200f 71be 87fc 043e 185a 293e
00000170: 5535 5a3e c2a9 353e f9c9 d1be 72a3 6ebe
00000180: 75f2 4d3e 7ebc f23d b31c 9fbe 4879 75be
00000190: 5168 a13e 9509 583e 6c7c 52be f283 06be
000001a0: 2347 b1be 86f2 ddbb 425b a2be d348 97be
000001b0: 49b0 2ebb 91b8 2a3d b360 28be 2044 573e
000001c0: 9678 58be f614 bd3e 4511 663e 78bb 9abe
000001d0: 9af1 d4bd 340b 1f3d bc47 883d 2649 f73c
000001e0: 4feb 1e3e c489 853d 1581 40be 4185 4c3e
000001f0: 3cae b3be 9076 67be 9dc6 99bd fe1e cbbd
00000200: 4f30 1ebe 26d8 adbe 8e9b 9cbd 208f a73d
00000210: 5a04 60be 0f1a 17ba 7c8b 9b3e 8231 5dbd
00000220: e684 603d aab9 24bd 8847 363d 9a4d 5e3e
00000230: 3579 ae3e d425 8c3e fed5 b83e 8452 38bd
00000240: add9 9ebe 67a6 2cbe 55e1 883e 2e0b 90bd
00000250: 4baf 49be 49bd 86be fa32 bfbe 8a4d 8dbe
00000260: 327e 3fbd 9d35 6b3e c003 643e 31ad c9be
00000270: c83e 453e 2a92 7bbe fd0e 01be 8af8 62be
00000280: 3abf 04be 731a bfbd dc79 c8be 2be0 95be
00000290: bd62 94bd 6e9a 933c 8bb9 38be bbd6 173e
000002a0: cd5d adbe 827e 50bd 5a5d b63e a23a 32be
000002b0: ef20 a63e a43e 073e 405a afbe de01 963e
000002c0: 018e 6abd 4dbd cbbd 2dbb a43e e1c1 82be
000002d0: e87b 8d3d 33db d7bd 3c6e 6e3e a2df b73d
000002e0: 0b40 5e3e 96b8 1e3e 1ef6 a1bd 7bf5 84bd
000002f0: 2578 9ebe 9c00 323e b5cd a93e 1604 873e
00000300: 30ad 82be e48a 7e3c 096b 80be 1be3 5ebe
00000310: 3249 6bbe 9779 e83d 48df 87be 967f 89bc
00000320: 18a8 33bc 2ad0 533e 07e1 82be 33ae 84be
00000330: 4972 74be b20d a33e b03b fdbd 2cd3 943e
00000340: 6108 113e a234 0e3d 85b0 c53b bca2 adbd
00000350: 2e92 f83c 17ff 09bd b582 98bc 5381 a13c
00000360: ba77 b8be aee3 53be bd18 ad3e 3954 96be
00000370: 8645 47bd 12b4 b33e d848 083e 8e56 3e3d
00000380: 7bb1 a7be 658c 4a3e ba8d 89be 3b0a c8bd
00000390: d503 02be fde5 81bd 4222 0aba 5f7f 963e
000003a0: 40af 973d 6ae0 ab3e 3d37 6e3e 455b 91be
000003b0: 9696 003e cf12 8ebe 7c44 3bbe 5cf5 073d
000003c0: d41b c43d 8ca1 a43e 9edc a8bd a8c7 5f3c
000003d0: d4e0 343e 3f17 b9be 8a10 9c3e 760a 9abe
000003e0: 7422 a0bb ec13 9abd 4032 43be a1ac 833d
000003f0: 8566 973e 5489 f4bd c5e1 78be a2d4 26be
-0.0524068 0.21139447 -0.29692248 -0.27731714 -0.16297764 0.11701757 -0.007266339 0.2845797
-0.06476084 0.10451233 -0.0859826 -0.09160543 -0.36684656 -0.2686983 -0.12787661 0.032394774
0.14328302 0.26976204 -0.25181973 -0.18319246 0.09719544 0.26006657 -0.077681094 0.30646446
-0.055770125 0.06612944 0.376125 -0.34830478 -0.258153 -0.12315009 -0.14660779 0.35000205
-0.21352954 -0.14524506 -0.24265382 -0.35457107 -0.24435659 0.30200636 0.18341681 0.19437198
0.028221233 -0.19756117 0.07811055 -0.3779725 -0.23423846 -0.17976812 0.2628267 0.24540326
-0.17315927 0.0035127548 0.16755329 0.386142 0.17856418 0.08261059 0.30236492 -0.22521806
0.06832781 -0.33317184 -0.22836284 -0.17184904 0.18861684 0.17112978 -0.24991752 0.11890925
0.22968394 -0.03335936 -0.0074215024 0.07631842 0.21473652 0.36357647 -0.29094008 -0.10144763
0.15269527 0.31603235 0.33666357 0.33326486 0.06520602 -0.34847504 0.008658614 -0.26675224
-0.3621073 0.30608532 0.25761208 -0.36316407 0.056317795 -0.07422348 -0.07633002 -0.16413234
0.13982293 -0.23540926 0.12986957 0.16538274 0.21309407 0.17740539 -0.40974405 -0.23304537
0.20112021 0.11852358 -0.31076583 -0.23972046 0.315249 0.21097405 -0.20555276 -0.1313627
-0.34624586 -0.006773296 -0.3171025 -0.29547748 -0.0026655367 0.041679922 -0.16443138 0.21022081
-0.2113975 0.36930054 0.22467525 -0.30221152 -0.10397644 0.038829044 0.06654307 0.030186247
0.1551945 0.06520417 -0.18799241 0.19972707 -0.35093868 -0.22603822 -0.075085856 -0.09918021
-0.15448116 -0.3395397 -0.07646857 0.08181596 -0.2187666 -0.0005764076 0.30379856 -0.054002292
0.05481424 -0.040216126 0.04450181 0.2170929 0.3407685 0.2737261 0.36100763 -0.045000568
-0.31025448 -0.16860352 0.26734415 -0.07033382 -0.19695775 -0.26316288 -0.3734358 -0.2759822
-0.04675121 0.2296967 0.22267056 -0.39389947 0.1926223 -0.24567476 -0.12603374 -0.22165123
-0.12963572 -0.09331217 -0.3915547 -0.2927259 -0.07245395 0.018017974 -0.18039529 0.14828007
-0.33860627 -0.050901897 0.35618097 -0.17405179 0.32447 0.13207489 -0.34248543 0.292983
-0.05726433 -0.09948216 0.32174054 -0.25538543 0.06908399 -0.10539856 0.23284239 0.089782014
0.21704118 0.15500101 -0.07908271 -0.06492134 -0.30951038 0.17383045 0.33164755 0.26370305
-0.25522757 0.015536044 -0.2508166 -0.21766321 -0.2297714 0.113513164 -0.26537538 -0.01678447
-0.01096537 0.20684877 -0.25562307 -0.25914153 -0.23871721 0.31846386 -0.123649 0.2906736
0.14163353 0.034718163 0.0060330057 -0.08478305 0.030343141 -0.03369054 -0.018617013 0.019714987
-0.36028844 -0.20692322 0.33807936 -0.29361132 -0.048650287 0.3509832 0.13309038 0.046469264
-0.32752594 0.19780119 -0.2686594 -0.09767576 -0.12696774 -0.06342695 -0.0005269387 0.2939405
0.07406473 0.33569652 0.23263259 -0.28389946 0.12557444 -0.27748725 -0.18287843 0.033192977
0.0957562 0.321545 -0.082452044 0.013658442 0.1766389 -0.36150548 0.30481368 -0.30086106
-0.0048869196 -0.07523331 -0.19062138 0.06429411 0.29570404 -0.11940256 -0.24304874 -0.1629205

weight f4 [200]
00000000: 90d1 7b3f a33d 803f ad34 813f f120 7e3f
00000010: 2e15 823f e856 7a3f 4ced 803f b85b 813f
00000020: aed3 803f 44db 7c3f 5b4e 7c3f a9ab 803f
00000030: 72ed 793f 2010 7e3f 153f 7a3f bbe1 823f
00000040: 7e75 7a3f 6005 7d3f c0c6 7a3f 6723 823f
00000050: 488a 7f3f a4f3 7d3f a416 813f f2a4 803f
00000060: 4394 803f 81f9 813f 6f05 803f 7f58 803f
00000070: 67aa 853f 727e 7c3f 4227 853f 5c8e 7b3f
00000080: 2ee2 7e3f 55f4 773f 4e27 7b3f 2285 7b3f
00000090: 1b29 7e3f 527e 7a3f c22b 803f e6b2 843f
000000a0: 225c 7c3f 22ad 7f3f c9df 833f 0187 823f
000000b0: 86d2 7a3f 72e9 7f3f 2451 7d3f da16 803f
000000c0: 5937 803f a34c 823f 1af4 7d3f fcde 7f3f
000000d0: 76bf 783f eda0 7d3f 61fd 803f eee9 7b3f
000000e0: ae1b 7b3f 51eb 7e3f dfd3 753f 8ce3 833f
000000f0: a159 823f b0c2 803f 420b 803f 4bd0 7c3f
00000100: db70 7a3f cdf8 783f b2b7 813f 257e 803f
00000110: 8627 813f 4a96 843f 6351 813f 6681 7d3f
00000120: 65be 823f bb2d 803f b6e1 7d3f 95c2 803f
00000130: aba0 813f 271f 7f3f 293d 783f 22ef 7a3f
00000140: 1e95 803f 0538 803f f62f 783f 787f 7d3f
00000150: 6953 803f 30fe 833f c41c 823f 001c 7b3f
00000160: 4d1d 793f c832 7d3f a8b6 7c3f 9e31 823f
00000170: f482 823f 7a03 833f 40d5 7c3f 8293 813f
00000180: 1d3d 783f 7992 7c3f cd7c 803f bfb0 823f
00000190: 5441 7e3f 65fc 803f 7dba 7c3f 60ad 823f
000001a0: 92e4 7a3f 8541 7f3f 0425 853f ee7e 783f
000001b0: 83f9 853f 0d49 863f 3f7d 7e3f 6e1d 7c3f
000001c0: e1e6 813f 9778 843f a0bb 803f bf7c 7e3f
000001d0: b1c7 723f a067 813f d11c 803f b20a 7d3f
000001e0: 64a2 823f a404 7f3f 5c4b 863f e1c5 7f3f
000001f0: 455d 7d3f 2827 843f 6afe 833f 16fe 803f
00000200: 0b0b 763f be77 7d3f 0b56 803f e51f 7e3f
00000210: 5a09 823f 4174 7b3f 8fac 883f d585 7a3f
00000220: d8ee 813f 8b7b 803f 9105 713f 4290 813f
00000230: 7bc2 7e3f 9233 7f3f 61ec 803f 10c0 783f
00000240: 1ada 7d3f 647d 803f 10e1 813f 4884 833f
00000250: 28c3 803f 056e 813f de04 7d3f 9ffa 813f
00000260: 16c8 7d3f a018 7d3f 3d56 7c3f 3777 833f
00000270: d86a 823f 1cdf 813f 7832 7e3f bb9e 803f
00000280: 371e 803f c5db 7e3f a2df 813f dcdf 813f
00000290: fa8c 7d3f 3051 803f 018e 823f a2c1 813f
000002a0: ee17 7c3f 325d 833f 2858 813f 06e0 7b3f
000002b0: 110a 7f3f 390a 853f 5de1 7e3f 5fea 823f
000002c0: 01c8 7c3f b254 7d3f d1d8 813f 8404 7a3f
000002d0: 14c2 833f 9770 833f 4f0e 813f b5a8 803f
000002e0: 659d 7e3f b797 803f 9568 773f 9b2f 823f
000002f0: 4ea2 793f 09c5 7e3f fabe 7e3f 8c90 7c3f
00000300: a75b 7a3f 5829 833f 8915 813f e46d 7a3f
00000310: 155e 7b3f dce2 7f3f dcb6 803f 3948 7f3f
0.9836664 1.001881 1.00942 0.99269015 1.0162714 0.9778886 1.0072417 1.0106115
1.00646 0.9877207 0.9855706 1.0052387 0.9762794 0.99243355 0.97752506 1.0225137
0.9783553 0.98836327 0.9795952 1.0167054 0.99820375 0.9919989 1.0085034 1.0050337
1.0045246 1.0154268 1.0001658 1.0027007 1.0442628 0.9863044 1.0402606 0.982641
0.9956387 0.96857196 0.9810685 0.9825002 0.9928147 0.97849 1.0013354 1.0367095
0.98578084 0.99873555 1.0302669 1.019745 0.97977483 0.99965584 0.98951936 1.0006974
1.0016891 1.0179638 0.99200594 0.9994962 0.97167146 0.9907368 1.0077325 0.98403823
0.9808911 0.99577814 0.96026415 1.0303817 1.0183603 1.0059414 1.0003436 0.9875533
0.97828454 0.9725464 1.0134184 1.0038496 1.0090187 1.0358365 1.0102962 0.9902557
1.0214354 1.0013956 0.9917253 1.0059382 1.0127157 0.9965691 0.96968323 0.9802114
1.0045507 1.0017096 0.9694818 0.99022627 1.0025455 1.0311947 1.0165029 0.980896
0.97310334 0.9890561 0.9871621 1.0171392 1.0196214 1.0235436 0.98762894 1.0123141
0.9696825 0.98661 1.0038086 1.0210189 0.9931843 1.0077025 0.9872206 1.020916
0.9800502 0.9970935 1.0401921 0.9706868 1.046677 1.0491043 0.9940986 0.98482406
1.0148584 1.0349301 1.0057259 0.994091 0.94835955 1.0109749 1.0008794 0.98844445
1.0205808 0.99616456 1.0491748 0.99911314 0.98970443 1.032445 1.0312016 1.0077541
0.961106 0.9901084 1.0026258 0.9926742 1.0159104 0.98224264 1.0677661 0.9786046
1.0151014 1.0037702 0.9414912 1.0122149 0.99515504 0.99688065 1.0072137 0.97168064
0.9916092 1.0038266 1.0146809 1.0274744 1.0059557 1.01117 0.9883555 1.0154608
0.9913343 0.988657 0.9856909 1.0270756 1.0188856 1.0146213 0.9929576 1.0048441
1.0009221 0.9955409 1.0146372 1.0146441 0.9904324 1.0024776 1.0199586 1.0137217
0.98474014 1.0262816 1.0105028 0.9838871 0.99624735 1.0393745 0.9956263 1.0227774
0.9874268 0.9895736 1.0144292 0.9766314 1.0293603 1.0268735 1.0082492 1.0051485
0.99458915 1.00463 0.96643955 1.0170778 0.9751328 0.995194 0.9951016 0.9865806
0.977961 1.0246992 1.0084697 0.9782393 0.9819043 0.99955535 1.0055804 0.9971958

bias f4 [200]
00000000: 28a4 8bb8 7a17 c53c c0de 283d 79d6 9cb9
00000010: 04d5 833c 1b1e b13c 4d6b ea3c a476 87bc
00000020: 1b72 8dbc 3e22 113c 76f8 b83c 9ef4 d1bc
00000030: a09b a13c 494e 1c3d c77a ad3b 0842 0ebd
00000040: 5a17 043d 0f01 15bd daf9 373c a0fe b53c
00000050: eae0 683b dd81 40bd 8fd8 143d 2e7f f03c
00000060: 4b20 403c b764 1b3d 09f0 edba 5be0 d7bc
00000070: e5c6 46ba c0dc 823c 86ea 053d ddb6 d43c
00000080: f62e 9cbc ca4b b5bc 3815 273c cdb3 22bc
00000090: d1d1 c03b 3044 a93c d901 973c 8d61 7bbc
000000a0: 46b6 ab3b 3951 4c3b 5f71 0e3c df13 b33b
000000b0: f278 81bc 9434 c83c 3167 3f3c d5b0 903b
000000c0: 1dd7 063d bbaa 8fbb b068 9c39 298f 243b
000000d0: 7e9f 713b 35fb 703c 9c0a 593c 06bc 2bba
000000e0: e51d 2abd d6f7 fcbc d143 1bbd 57f2 10bd
000000f0: 53e5 823c 3bd3 fabc 98c4 46bc 8ebf f5ba
00000100: 6cd8 2bbc c764 de3c 591b af3c b887 3c3d
00000110: 3ee3 66bc 87f9 a43c e535 f7bc 9a99 d93c
00000120: 8e07 0b3c e842 25bd e142 9c3b 2db9 bf3c
00000130: 612e a13b e509 693d 02b1 25bd e226 e23c
00000140: ac5f fdbc c2b8 d93c 3138 103d 9478 a43c
00000150: b5a5 f4bc 19b6 b43c 242e 14bc 2e98 4e3c
00000160: e82c 943c 7293 373d 745b 46bc 480a 0dbb
00000170: 5ac1 163d 41f8 96bb a32c 22bc f72b bdbc
00000180: f8b3 3f3c 1937 313b c9d4 5abb 5b54 f33b
00000190: b01c d0bc 46c1 673d c286 f13c d5ef 16bb
000001a0: 0ab1 a73c dc05 0d3d 24a1 58bc 541b d53c
000001b0: cef2 82bb 2274 303c 8393 2b3c 908b 3a3c
000001c0: edae 943b 2090 283d f456 f0bc 0f26 abbb
000001d0: 6d0e 5b3c 6a12 933d 7bb6 43bc 4652 56bc
000001e0: 2430 8d3c 0974 2f3d 7d65 2cbc f3c7 903c
000001f0: a725 8c3c 626f a23b 4b64 a93b 4fec d03c
00000200: 5034 223b f068 f83c d67a ddbb 5f64 5ebc
00000210: 5b35 80bc b03e 0c3c 4cab 263b 4690 d23b
00000220: f857 f639 dfd1 e8bc af4c 9ebc 8ffd 1a3d
00000230: 197d 41bb 791e 5d3c eb51 2b3c 8230 1a3c
00000240: 0a59 353c 095d ac3d 7e9c 813b dc2b 493d
00000250: 6a60 a2bd aecb cbba 7d94 81bc e86f 263d
00000260: 9f18 d83c 2eff d2bb e003 2bbd 6b14 6e3c
00000270: f3de 20ba 026b b93c b0e0 3e3d 57eb d13c
00000280: d438 44bd eb5e 433d a1e0 69bc b24b 11bc
00000290: f151 033d 202f 923c 0e6b a03a 958c 99bc
000002a0: 6fb0 ab3b 7154 be3c 87cf 333d 920e 22bc
000002b0: 3167 0dbd 9607 4d3d 2afc e53c a584 fe3c
000002c0: c3ab 1d3d c41a d7bb 43b2 023d 9998 b13c
000002d0: faac 623d 447e aa3c 8264 6c3d 8e5e de3b
000002e0: 401a 113b cd65 883c d452 db3c 399b 10bd
000002f0: 092b 8f3c 1090 5cbc bb66 3f3c 620f 593c
00000300: d999 403c c311 263d c0a7 89bc 8b81 b63c
00000310: e5ec d0bb 0481 d43a 620d ac3c ff3d a1ba
-6.658613e-05 0.024059046 0.041228056 -0.00029914433 0.016092785 0.0216208 0.028615618 -0.016536064
-0.017266324 0.008858262 0.022579413 -0.025629338 0.019727528 0.038160596 0.005294177 -0.03473094
0.032248832 -0.036377963 0.011229003 0.022216141 0.003553445 -0.046998847 0.03633934 0.029357519
0.011726449 0.037937846 -0.0018153201 -0.026352098 -0.0007582738 0.015974402 0.032694362 0.025966102
-0.019065361 -0.022130866 0.01019793 -0.009930563 0.005884387 0.020662397 0.018433498 -0.015343082
0.0052402345 0.0031176342 0.008694022 0.0054650153 -0.015804742 0.024439134 0.011682318 0.0044156113
0.03291999 -0.0043843663 0.00029832637 0.0025109744 0.0036868746 0.01470833 0.013247158 -0.000655115
-0.041532416 -0.030879896 -0.03790647 -0.035387363 0.015978491 -0.0306183 -0.012131833 -0.0018749104
-0.010488611 0.027147664 0.021375345 0.04602787 -0.014092265 0.020138515 -0.030177066 0.0265625
0.008485688 -0.04034701 0.004768715 0.023403728 0.004918859 0.0568942 -0.04045201 0.027606431
-0.030929409 0.026577357 0.03520984 0.020077027 -0.029864172 0.022059487 -0.009044204 0.012609525
0.01808782 0.04481835 -0.012106765 -0.002152102 0.03680549 -0.004607231 -0.009898338 -0.023092253
0.011700623 0.0027040897 -0.003339099 0.0074258274 -0.025404304 0.056580804 0.029483203 -0.0023031135
0.020470161 0.034429416 -0.013222013 0.026014008 -0.0039962297 0.010769876 0.010472181 0.011385813
0.0045374543 0.041153073 -0.029338337 -0.005223043 0.013370139 0.071812466 -0.011945362 -0.013081139
0.01723487 0.04283527 -0.010522244 0.017673468 0.017107798 0.0049571255 0.0051694266 0.025503306
0.002475042 0.030323476 -0.006759028 -0.013573735 -0.015650442 0.008559868 0.002543169 0.00642589
0.00046986318 -0.028420387 -0.019323675 0.03783947 -0.0029524027 0.013496035 0.0104565425 0.009410979
0.011068592 0.084161825 0.003955423 0.049114093 -0.07928546 -0.0015548372 -0.015817875 0.040634066
0.026378928 -0.006439111 -0.041751742 0.014531235 -0.00061367376 0.022634033 0.046600997 0.025624914
-0.047905758 0.047697943 -0.014274747 -0.008868145 0.032060567 0.017844737 0.0012238936 -0.018743793
0.0052395384 0.023233624 0.043899085 -0.009891169 -0.03452224 0.050056063 0.028074343 0.03106911
0.038493883 -0.00656447 0.031908285 0.02167921 0.055340745 0.020812161 0.05771304 0.006786174
0.002214089 0.016650105 0.026772894 -0.03530428 0.017476575 -0.013462082 0.011682208 0.013248296
0.01175543 0.040544283 -0.016803622 0.022278568 -0.0063758963 0.0016212766 0.021002475 -0.0012301801

running_mean f4 [200]
00000000: e9a2 2f3e 8efc 723e 6388 253e 15b7 933e
00000010: e37f a53e 0e7d ab3e acc1 5e3e 2df3 a93e
00000020: a278 3f3e f715 6e3e 9130 b73e 7fa4 6c3e
00000030: fa1c f53d 5044 8e3e 1b68 923e dc83 643e
00000040: 131a 8c3e c104 f83d dcd4 b83d be7e 1a3e
00000050: 53c5 9a3e a90f 9f3e 5ac7 463e 0641 843e
00000060: 0964 b83e f6a1 533e 7468 483e bfda 5a3e
00000070: 0675 f73d d87e a93e de3c e83d 9bc1 4b3e
00000080: 7b20 293e 8655 5a3e 9603 ed3d 285b 593e
00000090: c22b 653e b88b a23e f577 513e 2366 833e
000000a0: 57f5 843e 952b 113e 39d7 1c3e 296c e93d
000000b0: cb88 1e3e 2c12 003e 2e67 933e b4b9 953e
000000c0: ea3d 7b3e b83a 223e c4c4 2c3e 3641 b43e
000000d0: 0f1a 863e f11a 8d3e c450 d63e 8ef3 853e
000000e0: 7926 7f3e c82a 9b3e fb9a 893e fb64 463e
000000f0: a02e 4e3e ec80 903e 1fc4 543e 3154 943e
00000100: 2f97 bf3e 74ba 5c3e c71e 863e ef9d 9c3e
00000110: e1d6 a03e 87da 753e 2a57 4a3e 1695 dd3e
00000120: f940 243e 820f 183e 0469 1a3e f677 7b3e
00000130: c0b1 ac3e 1049 2c3e 65b0 b83e 76da e43d
00000140: 42b9 323e 76ff 933e 7415 893e 7736 633e
00000150: 609c 993e 3072 9e3e 705a 1b3e ca75 0e3e
00000160: a44d 6a3e 0503 c43e da6d 033e 9312 823e
00000170: 4a9e 4f3e a729 933e 1585 f03d da5f 083e
00000180: c43b dd3d 49cf 3f3e f67f 433e 0c79 863e
00000190: 30d1 2f3e a4e8 7c3e 7b6d 9f3e 8f80 093e
000001a0: 2896 643e bc72 aa3e b513 5a3e 9fbd 713e
000001b0: 024b 1b3e c659 583e e37e 2f3e c294 573e
000001c0: 4ef2 1e3e 1b45 663e f715 063e 0a4d 863e
000001d0: 9ad2 0c3e 82ec 563e 2359 f93d 2133 4d3e
000001e0: 94c2 f83d e3bb 243e 028e 4e3e 9f87 803e
000001f0: c861 333e 25b9 673e e806 6a3e 78d2 243e
00000200: 1aca c53e 95e6 663e 55b3 8d3e dc2e 913e
00000210: b521 a03e 1a6e e43e 7e5d 1c3e 3402 c13e
00000220: 8f22 893e 6585 b03e 7ecd 1d3e 03fd 173e
00000230: 63b6 553e 0762 6d3e 26c6 fc3d 332d 723e
00000240: 21af 1c3e 0803 803e 70f3 203e 9024 513e
00000250: 1259 0f3e bebc 363e 846e 283e 0024 a13e
00000260: 6f60 6d3e 9575 e03e da11 643e b9f4 803e
00000270: c027 433e 7650 103e 4b63 a83e 9aa4 d43e
00000280: 3a23 8b3e d4a2 703e 0bd9 363e 2703 6b3e
00000290: e6ea 8c3e 1d8c 8d3e 9cd6 423e 7d7f 723e
000002a0: a696 653e 7a7c 903e fef3 193e cfcc a13e
000002b0: 5dcf a33e a72b 843e 818a 343e 34cd 273e
000002c0: 6214 853e 7ba3 aa3e 9c06 cb3e 3ec7 4a3e
000002d0: fbd4 a13e 98a7 7d3e 9cb4 b23e 6c38 133e
000002e0: 7c35 893e 069c 693e db38 993e c550 583e
000002f0: 6295 8d3e 8135 783e 9803 4d3e 0ef8 803e
00000300: 0a91 8f3e 5633 963e 1c46 263e 4cae 4f3e
00000310: 6d8d 3d3e e1ab 733e 2314 0e3e 3e90 813e
0.17151989 0.23729154 0.16165309 0.28850618 0.32324132 0.33493847 0.21753567 0.3319334
0.18698362 0.23250566 0.3577924 0.23109625 0.119684175 0.27786493 0.2859505 0.22315925
0.27363643 0.12110282 0.09024975 0.15087411 0.3022867 0.31066635 0.19411984 0.2583086
0.3601382 0.20667252 0.19571096 0.21372508 0.12082867 0.33104587 0.113397345 0.19898073
0.16516297 0.21321687 0.115729496 0.2122618 0.22379974 0.31747222 0.20455916 0.25663862
0.2596843 0.14176781 0.15316476 0.11397583 0.1548187 0.12506932 0.28789657 0.29243243
0.24535337 0.15842712 0.16871935 0.35206002 0.26191756 0.27559617 0.41858494 0.2616238
0.2491702 0.30306077 0.26876053 0.19374458 0.20134974 0.2822336 0.2077794 0.28970483
0.3742003 0.21555501 0.26195356 0.30589244 0.3141394 0.24009143 0.19759813 0.43277806
0.1604041 0.14849666 0.15079123 0.2455748 0.33729362 0.16824746 0.36072078 0.111744806
0.17453483 0.2890584 0.2677418 0.22188745 0.30002117 0.30946493 0.15171218 0.1391212
0.2288118 0.38283554 0.12834874 0.25404796 0.20275226 0.28742716 0.117441334 0.13317814
0.10802415 0.18731417 0.19091782 0.26264226 0.17169642 0.2469812 0.31138214 0.13427947
0.22322905 0.3329066 0.2129658 0.23607491 0.15165332 0.21127996 0.17138247 0.2105284
0.1552212 0.22487299 0.13094316 0.2623065 0.13752213 0.20988658 0.121752046 0.20039035
0.12146488 0.16087298 0.20171359 0.2510347 0.1751777 0.22629221 0.22854197 0.16095912
0.38630754 0.22548898 0.27675882 0.28356063 0.31275716 0.4461525 0.1527004 0.37696993
0.2678418 0.34476772 0.1541042 0.1484261 0.20870356 0.23181926 0.12342481 0.23650055
0.15301181 0.25002313 0.15717864 0.20424104 0.13998821 0.17845437 0.16448408 0.31472778
0.23181318 0.43839708 0.22272435 0.2518671 0.19058132 0.14093193 0.32888255 0.4153183
0.27175313 0.23499614 0.17856233 0.22950421 0.27522963 0.2764596 0.1902718 0.23681445
0.22420749 0.28219968 0.15034482 0.3160157 0.31994143 0.25814554 0.1763096 0.16386873
0.25992113 0.3332785 0.3965348 0.19802567 0.31607804 0.24770963 0.3490342 0.14376992
0.26798618 0.22813424 0.2992619 0.21124561 0.27653033 0.2423916 0.20020902 0.2518925
0.28040344 0.2933604 0.16237682 0.20281333 0.18510981 0.23796035 0.13874869 0.2530536

running_var f4 [200]
00000000: b83d bc3d e162 b03d 8623 563d 940a 403e
00000010: 1ded 153e d9d3 3c3e 06c4 b03d 33fc 5b3e
00000020: b461 763d 78b2 233e 105f a83e 0053 073e
00000030: 68f9 213d f2d2 b43e 310e 2a3e b01e e43d
00000040: dda3 4a3e f256 d23c 9ce5 be3c c00b 9d3d
00000050: 65d4 8f3e 4d70 453e 42ce 693d d2aa 133e
00000060: 31da 723e 8643 a63d 8630 5b3d 058e da3d
00000070: 41ea 243d 52d2 493e 637e 333c f892 ce3d
00000080: 25e8 5f3d 83b5 a83d c2b3 ce3c 833d ae3d
00000090: 53b6 d43d ac6c 5e3e 73a7 d13d 2e87 193e
000000a0: c334 e53d 0b2b 373d c8c3 4f3d bfe4 b43c
000000b0: f5b1 423d 34f1 f23c 18aa 0f3e 8a68 233e
000000c0: d855 1d3e a24e 423d 3166 963d 8221 313e
000000d0: 4a0d 483e c2d6 7f3e faf7 a13e 19fb fd3d
000000e0: 8008 e83d ca67 4b3e ea6b 2c3e 69b7 f23d
000000f0: a16a 443d 45a1 1a3e c62e a63d 4099 733e
00000100: 39f1 b53e a0e5 ac3d f41e 883d a087 093e
00000110: dfd8 163e 80e8 ff3d 404a c53d d0e0 9f3e
00000120: 1721 323d daa6 623d c713 073d d0bd 523e
00000130: c4a7 583e 7a22 f33d 7861 0f3e 9f48 e83c
00000140: c628 a63d 3c8d fc3d ce72 353e 3dcd 013e
00000150: 481d e83e dd2d e43d fedf 823d 5d59 0f3d
00000160: b0d0 e73d 10dc 613e f626 0f3d efd6 1b3e
00000170: 9569 a23d cb6a 803e 0c7a 203d 94aa 543d
00000180: 3203 dd3c 7072 ed3d f2f6 9d3d cadb 1b3e
00000190: 52d3 8a3d c8b4 c23d 8f2b 413e e733 6c3d
000001a0: 6a1e 833d 6907 693e 853d 823d 8209 133e
000001b0: c2b2 883d 4086 c23d fbac 993d 18a7 fe3d
000001c0: b1e9 b93d b454 d93d 62e4 2e3d 7a1e 073e
000001d0: b35b 5e3d 48f7 c43d 6759 0e3d 88c9 a83d
000001e0: 45a7 203d 9917 383d da11 b73d e1d7 cc3d
000001f0: e8b9 0e3d cc95 b83d 98fd d83d 73db 893d
00000200: 37eb 8d3e e8df cd3d 07ba 343e d48e f53d
00000210: 2e9e 823e 5cfc d33e 482a 483d 9850 903e
00000220: 5426 193e 3722 213e bc06 7b3d f7e6 193d
00000230: 58b1 8d3d 0203 0b3e c541 eb3c aa6e e33d
00000240: c0cc ee3c 9171 0f3e 04f6 b03d 0a96 073e
00000250: 88b4 843d 1092 6b3d df8c 563d 95e9 743e
00000260: ea78 0a3e dd40 793e 53b9 123e 8c47 f83d
00000270: 00f9 503d b616 fa3c c73e 373e 4c1c b23e
00000280: 8cfd 253e 7a17 543e e3fe 2a3d 3d5e f13d
00000290: c6e0 763e 08bb 123e db16 9e3d d0fe 053e
000002a0: 78a9 e53d 1719 4f3e 3683 533d 3c83 873e
000002b0: da2f 253e e80d 3c3e 3e37 2b3d 1bd1 be3d
000002c0: e036 4e3e 8e7d 4a3e 4c3d 753e f81f 753d
000002d0: 1323 283e b7c4 f73d cca6 873e 6ce4 cb3c
000002e0: 711a b43d 58f6 ab3d cf8a 1e3e 2dad 273e
000002f0: c4ca 083e 4ed4 013e bf7c b53d 7e9e 773e
00000300: a55a ff3d 401e 1f3e 0a89 753d f049 123e
00000310: 95d5 803d 3602 683e fd66 593d 586b e13d
0.091914594 0.0861261 0.05227997 0.18754035 0.14641233 0.18440188 0.086311385 0.21482925
0.06015177 0.15986049 0.32885027 0.13215256 0.039544493 0.35317189 0.16606976 0.11138666
0.19789071 0.025676224 0.023302846 0.07668257 0.28091732 0.1928112 0.05708147 0.14420632
0.23716046 0.08118348 0.053513072 0.10671619 0.040262464 0.19709137 0.010955426 0.10086626
0.05466475 0.082377456 0.0252322 0.08507826 0.10386338 0.21721143 0.102370165 0.14992973
0.11191704 0.044718783 0.05072382 0.02208173 0.047532994 0.02965603 0.1402973 0.15957847
0.15364778 0.04743827 0.0734371 0.17297938 0.1953632 0.24984267 0.31634504 0.12401409
0.11329746 0.19863811 0.16838041 0.11851389 0.04795325 0.15100582 0.0811439 0.23788929
0.355356 0.08442235 0.06646529 0.13430643 0.14731167 0.12495518 0.09633303 0.31226206
0.04348859 0.055334903 0.032977846 0.2058022 0.21157748 0.1187181 0.14002025 0.028354941
0.08113246 0.12331626 0.17719576 0.12675948 0.4533484 0.1114156 0.06390379 0.034997333
0.11319101 0.22056603 0.034949265 0.1521871 0.079302944 0.25081477 0.039178893 0.05192049
0.026979063 0.11594093 0.07713117 0.15220562 0.067785874 0.095071375 0.18864273 0.057666685
0.064022854 0.22756733 0.0635939 0.14359096 0.0667472 0.094982624 0.075036965 0.12434214
0.09077776 0.10611859 0.04269827 0.1319522 0.05428667 0.09617478 0.03475323 0.08241564
0.03922202 0.04494438 0.08938952 0.10002113 0.034845263 0.090129465 0.10595244 0.0673131
0.27718517 0.10052472 0.17649089 0.11990133 0.25511307 0.41403472 0.048868448 0.28186488
0.14956027 0.15735708 0.06128572 0.03757378 0.06918591 0.13575366 0.028717885 0.11105092
0.029150367 0.14008166 0.08640674 0.13240829 0.06479746 0.057512343 0.05238044 0.2391723
0.13522688 0.2434115 0.14328508 0.121230215 0.051018715 0.030528408 0.17895041 0.34787214
0.16210002 0.2071208 0.041746985 0.11785553 0.24109182 0.1432916 0.07719203 0.13085485
0.11213964 0.20224415 0.051638804 0.2646731 0.16131535 0.1836468 0.04180073 0.093172275
0.2013812 0.19774458 0.23949164 0.05984494 0.1641963 0.12098067 0.26494443 0.024889193
0.08794106 0.08396596 0.15482639 0.16374655 0.13358599 0.12678644 0.08861684 0.24181554
0.12468461 0.15538883 0.059945144 0.14286017 0.062907375 0.22657093 0.053076733 0.11006802

weight f4 [100, 200]
00000000: 565b 6bbc 85b3 debc 8084 d2bd 196d 193d
00000010: 02dc cb3c d20b 53bc aeaa 673d 2cde ebbc
00000020: c8b2 5c3d eb1f f8bc 8466 363b ea4e 3bbd
00000030: b1a7 5e3d 154d 823d 6ce6 893c c19f 993c
00000040: 6acf 543d 5bfc cabd e792 f3bc 1ab8 ae3c
00000050: 2ebc b6bb c1d0 f9bc bd05 0e3b 5a1c 96bc
00000060: 7a98 a9bd 90e1 c43c 7755 d63c bdbf eeba
00000070: 1d6b b6bd 74be a6bd 3f8c 6bbd a1ee 71bc
00000080: 4121 c9bb 76ac febc f52e 76bd 325b 90bd
00000090: 9852 633c 095b 94bd b955 92bd f2d8 9e3d
000000a0: b742 93bc cd59 f0bb ad9d 03bd c3c6 a9bb
000000b0: 9cc8 a6b9 b0ee a63d 9e95 4cbd 5c6a 583c
000000c0: 5469 3a3b 4356 a7bd 89f9 9d3c 8aaa 963d
000000d0: 040a ea3c 7ead c6bb c99a 3d3d a51a 8ebd
000000e0: 17a5 e0bb 7e48 f2bc 3b72 0ebd 8941 483d
000000f0: 93d6 4dbc e0fc 74bc d582 7fbd 1790 aebd
00000100: 8314 cabc 9c6c 8abd f4dc a13d 121a 993c
00000110: ac3e 443d d014 c4bc c711 393c 7ac8 9b3c
00000120: b832 cf3d 5e2e ba3d de52 cdbc 3b53 4ebd
00000130: 0315 2abd 6e71 a3bc e7e3 613d 04b1 db3c
00000140: 6bb6 d73c 2ead 113d 70fa dbbb 9701 77bd
00000150: 9b1e 833d 750a 803d f373 92bc af49 c0bc
00000160: a82e d53d befe 7c3c cce3 113d 161d bfbb
00000170: 5613 e9bb ad35 a7bd 2476 c1bd 5638 b63a
00000180: e201 12ba 2a7f 7cbd 4c21 483d a331 013c
00000190: e1ed 2a3d 07df 32bd ed1e d03c b4e5 96bd
000001a0: b803 babc 9989 0cbc 5ceb 0cbd f41e b2ba
000001b0: 72ba 1abd 5814 8c3d 9340 833c 4b6c 1bbd
000001c0: df0b 77bd 47ed debd 03c6 7ebd 7090 b0bd
000001d0: 87e2 1dbc dd39 fbbc 949c d1bc fb89 6abc
000001e0: 4117 ba3c 5655 be3c 1895 b9bc 87f9 49bc
000001f0: 8b67 713d e619 473d 74ae a2bd 3fba 02bd
00000200: 8f28 6fbc 9b7e 32bd f084 793d ff6e 12bd
00000210: 9bfa 4f3d 5b52 6fbc 10bd 743d 828b fbba
00000220: 168c 8ebd 808f 353d a0ae 1a3d 7e0a db3c
00000230: 538d cf3d 49ec 67bd d8c3 5d3b 1174 923d
00000240: bedd c2bc 3fad 423d 652e 973b 63d1 67bd
00000250: 3652 60bd 8720 56bc c3ac 013b 4c73 793c
00000260: 4497 8e3d 2eab b83c 68c2 42bc 06f5 aa3c
00000270: cb86 a6bd d45c 8dbd 6177 ebbc 9e8c 03bd
00000280: 8b53 133d 0351 ca3b 502b b4bc 987f 18bd
00000290: 8afa 413d b0cd c7bd a2cf fcbc d01e 50bd
000002a0: e09c b3bc df4f b0bc 841c c5bd 8169 40bd
000002b0: c3f2 7a3d a5f7 23bd fa93 e1bc fd1b 993c
000002c0: 8e43 443d a011 c1bc bc61 9a3c 5b1e 653d
000002d0: 4eb0 053c 0eff b0bc 194b 60bd 1e5c 4c3d
000002e0: ce2c a53c b322 42bd b9e2 c1bd a5a0 b83c
000002f0: cecf 523b 143d 3fbd 6a8c c13c 4c80 1f3d
00000300: 3a44 65bc aa1a 32bc 7205 9f3d e639 83bc
00000310: 1f45 dcbd 60b9 29bc 0a6a 1b3c 7df6 72bc
00000320: 72ba 64bd 2042 453d c1c0 513d f2a5 ddbb
00000330: a8df 3ebc 6407 58bc d96a d83c 746e a23b
00000340: aee8 58bd b859 893c 716d c23b 9dc7 463b
00000350: eb7b 0ebd 0c57 483c 55a5 84bd c8a9 f63b
00000360: 1f79 1e3d be0f 153b 45ef 75bd 4bfa 28bc
00000370: e1f0 10bc 5007 9bbd cfaa 30bd a5e9 3f3d
00000380: 8d47 543d f327 973c 7a49 263d b921 fc3c
00000390: 4c85 5e3d bd62 743d 87cf d0bc 95e9 be3c
000003a0: 2890 3a3d d72f acbc 38f3 1dbd 8099 33bd
000003b0: 578e c7bb 2f65 163d 6ae7 423d 38eb a2bb
000003c0: b11c 6a3d 0a47 89bd 6f40 34bd 39b6 b9bd
000003d0: afa8 b93c 1442 a53b e957 d5bc 3fc1 c63c
000003e0: aa1a 31bd d48e 73bd df7d 813d e0e4 1b3c
000003f0: ce6b 37bd 1c29 39bd 4c28 ff3c 775e 423d
-0.014365038 -0.027185211 -0.102791786 0.03745756 0.024885181 -0.012881236 0.056559257 -0.028792463
0.053881437 -0.030288657 0.00278321 -0.045729555 0.05435914 0.063623585 0.016833507 0.018752934
0.051955618 -0.09911414 -0.029733134 0.02132802 -0.005576632 -0.03049505 0.00216709 -0.018324066
-0.08281036 0.024033338 0.0261638 -0.0018215101 -0.08907149 -0.08141795 -0.057506796 -0.014766366
-0.0061379974 -0.031088095 -0.060103375 -0.07048644 0.013874672 -0.07243926 -0.071452565 0.07756223
-0.017976148 -0.007334924 -0.032132793 -0.005181165 -0.00031811453 0.08150995 -0.049947374 0.013208952
0.0028444128 -0.0817075 0.019284027 0.073567465 0.028569229 -0.0060631623 0.046290193 -0.06938676
-0.0068556177 -0.029575583 -0.034776907 0.048890624 -0.0125633655 -0.014952868 -0.06238063 -0.08523577
-0.024667984 -0.06758997 0.079034716 0.01868919 0.04791133 -0.023935705 0.011295742 0.019016493
0.10117096 0.09090875 -0.025063928 -0.050372344 -0.041523945 -0.019951548 0.055148985 0.026817806
0.0263321 0.035565548 -0.006713204 -0.06030425 0.06402322 0.062519945 -0.017877555 -0.023472635
0.104092896 0.015441595 0.035617635 -0.0058323247 -0.0071129007 -0.08164535 -0.09446362 0.0013902287
-0.00055697386 -0.06164471 0.04885988 0.0078853695 0.041730765 -0.043669727 0.025405372 -0.07368031
-0.022706851 -0.008577728 -0.034404144 -0.0013589547 -0.037775464 0.06839818 0.016022002 -0.037945073
-0.060314056 -0.10885101 -0.062200557 -0.08621299 -0.009636528 -0.03066724 -0.025587358 -0.014315124
0.022716166 0.02323405 -0.022654101 -0.012327558 0.058936637 0.048608683 -0.079434305 -0.0319159
-0.014597072 -0.04357777 0.060917795 -0.035750385 0.050776105 -0.014607037 0.059750617 -0.0019191357
-0.06960313 0.044326305 0.03776419 0.026738402 0.10134377 -0.056621823 0.0033838656 0.07151044
-0.023787376 0.0475285 0.004613685 -0.05659617 -0.054765902 -0.013069279 0.0019786812 0.015225243
0.069624454 0.022542562 -0.01188717 0.02086879 -0.081311785 -0.06902471 -0.028743448 -0.032116525
0.035968345 0.006174208 -0.02199331 -0.037231058 0.047358073 -0.09756029 -0.030860726 -0.050810635
-0.02192539 -0.02152246 -0.096245795 -0.046975616 0.061266672 -0.040031094 -0.027536381 0.018690104
0.047915988 -0.023567975 0.018845432 0.055937152 0.00815971 -0.021605995 -0.05475912 0.049892537
0.020162966 -0.047396373 -0.09467072 0.022537539 0.0032167318 -0.046689108 0.023626525 0.038940713
-0.013993317 -0.010870615 0.077647105 -0.016018819 -0.10755371 -0.010359138 0.009485731 -0.014829275
-0.05584187 0.048158765 0.051209215 -0.006764167 -0.0116500035 -0.013185356 0.026418136 0.0049570147
-0.052956276 0.016766414 0.0059334566 0.003033138 -0.034786146 0.012227785 -0.06476847 0.0075275637
0.03868973 0.0022744979 -0.06004264 -0.010313581 -0.0088464925 -0.07569754 -0.043131646 0.04685368
0.05182605 0.018451666 0.040597416 0.030777799 0.05432634 0.059664477 -0.025489582 0.02330474
0.045547634 -0.021018906 -0.03856203 -0.04384756 -0.0060899663 0.03671759 0.047583975 -0.004971888
0.05715627 -0.06703003 -0.04400676 -0.09067959 0.022663442 0.0050432775 -0.026042895 0.024262069
-0.04323832 -0.059462383 0.06322836 0.009515017 -0.044780545 -0.04520522 0.031147145 0.04745337

weight f4 [100]
00000000: 2eaa 7c3f da54 783f 5d03 793f 9c1a 6f3f
00000010: 41ae 703f 1429 7c3f 2e18 773f 870b 7d3f
00000020: f3b2 703f 2f27 683f b494 753f 676f 6f3f
00000030: 6702 763f aa59 733f abf6 6f3f 0831 6c3f
00000040: 5056 6d3f 1cac 763f 2cac 783f 8a7a 6e3f
00000050: cda3 633f 79f2 713f f064 743f c10b 7a3f
00000060: 015f 7a3f 8e13 773f 5014 6d3f 89bc 783f
00000070: 7820 753f 86ec 7c3f e342 753f 535b 7a3f
00000080: 855e 733f be0c 723f da38 713f d7c2 733f
00000090: 24ea 793f b654 7a3f a897 713f 4675 753f
000000a0: 912e 813f 14ad 773f 2d65 793f 0127 7b3f
000000b0: d5dd 7a3f 363e 783f deb2 753f 888d 7a3f
000000c0: bc13 5f3f 6066 763f 5c9c 743f af86 723f
000000d0: b7a7 753f 7ae3 743f 2e9d 773f b55f 7a3f
000000e0: e2c9 733f ffe1 753f 96ed 743f 70b7 623f
000000f0: 8dee 743f eca8 6c3f d7c6 773f 5a89 673f
00000100: 9ce9 723f 24f8 753f 4c19 703f 00ee 763f
00000110: eabf 783f 736e 763f 3609 793f a014 7a3f
00000120: 1993 763f d094 5e3f 184e 6c3f 909a 733f
00000130: bcae 7c3f 47f0 763f bd1d 643f 670b 803f
00000140: 487f 793f 7792 723f 5e0a 773f 9a6b 723f
00000150: 0c6b 6e3f b80e 703f 8f54 6d3f ba84 793f
00000160: 9fe4 733f 440c 753f 99d2 733f 95ae 763f
00000170: 9ad9 753f f1d2 6a3f 2dad 6e3f 561f 773f
00000180: 0a0c 733f 3de3 733f 5203 723f 51f4 743f
0.98697174 0.97004473 0.97270757 0.9339998 0.9401589 0.9850018 0.9652127 0.98845714
0.94023055 0.9068479 0.9593003 0.9352936 0.96097416 0.9505869 0.9373576 0.92262316
0.9270983 0.9635637 0.97137713 0.9315573 0.88921815 0.9451061 0.9546652 0.97674185
0.97801214 0.96514213 0.9260912 0.9716268 0.9575267 0.98798406 0.95805186 0.977956
0.950661 0.94550693 0.94227374 0.95219177 0.97622895 0.9778551 0.94372034 0.9588207
1.0092336 0.9674847 0.97420007 0.9810639 0.9799474 0.96969926 0.95976055 0.9787221
0.8713949 0.9624996 0.95551085 0.9473676 0.9595904 0.956596 0.9672421 0.9780229
0.95229924 0.9604797 0.9567503 0.88561153 0.956765 0.92445254 0.9678778 0.90443957
0.9488771 0.9608176 0.937886 0.9645691 0.9716784 0.9626228 0.9727968 0.9768772
0.96318203 0.8694582 0.9230666 0.9515772 0.98704123 0.96460384 0.89107877 1.000348
0.9745984 0.9475474 0.96500194 0.94695437 0.9313209 0.9377246 0.9270715 0.9746815
0.95270723 0.9572184 0.9524322 0.9636014 0.9603516 0.9172812 0.93232995 0.9653219
0.94940245 0.95268613 0.94536316 0.956853

bias f4 [100]
00000000: 8ef7 1a3c 4996 2bbc a810 d83b 4094 843c
00000010: 5171 fdbc 0b2d 523c 9250 563c 556a adbb
00000020: bbcb 4c3c 1c55 a3ba 0a88 27bc 5227 89bc
00000030: 1c5e 633c 74f3 1439 feb4 e4ba 8452 2a3b
00000040: 5b0d 3bbc cefd 3b3c 319a dfbb d91f f13c
00000050: f379 2b3d 5ee4 6abc d725 70bb f8b1 d93b
00000060: 9414 393c a843 883b 70be 8db9 02f8 d9bb
00000070: e789 0cbc f37e 9bbc 6955 f03b 9329 b6bb
00000080: 1767 17bc c910 beba 58b5 363b f378 043b
00000090: ea96 963c e108 6cbc 22af 843b cd87 e7b9
000000a0: 3a38 c93c b075 db3b 61cf 1b3c 41c1 f03b
000000b0: 00a8 2639 79c4 7ebc b586 053a e6f8 d0bb
000000c0: 12b5 f1bb dd5e 0cbc 762e e73b 0f5b 8b3b
000000d0: 4805 a0ba 7d56 673c b868 c53a 5162 123b
000000e0: 1653 d0ba 0d24 1d3c e0c3 48bc 6d3c c13b
000000f0: 0010 d335 3655 953c d58a b93b 64fe 083c
00000100: 07dd 693c 499d aa3c bddb 32bc aad2 773c
00000110: df9f d9bb 0e5d 993b 8f5e 033c 3068 bd3a
00000120: b381 ac3b 900e 123d 5ad6 d93b 6c7f 5cba
00000130: bc21 47bc baec a739 0485 57ba 3177 8dbc
00000140: 363a 6a3b 79db 323b 5ec5 603c ece3 6eb9
00000150: fa23 e0bb 2fbb 5d3c 0aab 0f3b 88e5 dabb
00000160: f8a9 81bc 647e 463b dc1d 353c 987b b6bc
00000170: 9ed6 423b 5201 0fbc d034 a7bb dc7f 2a3b
00000180: c480 533c b37b 3e3c 56b6 053d 577d 41bc
0.009458436 -0.0104728425 0.0065937825 0.016183972 -0.030937823 0.012828122 0.013080733 -0.005292217
0.012499745 -0.0012461278 -0.010225305 -0.016742382 0.013877418 0.00014205073 -0.0017448959 0.0025989125
-0.011416758 0.011474086 -0.006823801 0.029434131 0.041864347 -0.014336674 -0.0036643648 0.00664353
0.01129641 0.004158456 -0.00027035503 -0.0066518793 -0.0085778 -0.018981433 0.0073344004 -0.0055591553
-0.009240887 -0.0014500852 0.0027879085 0.0020213693 0.018382508 -0.014406414 0.004049198 -0.00044160933
0.024562944 0.006697379 0.009509892 0.0073472564 0.00015893579 -0.015549772 0.000509362 -0.0063773273
-0.0073763216 -0.008567539 0.007055099 0.0042527984 -0.0012208605 0.0141197415 0.0015061116 0.0022336433
-0.0015893902 0.009591115 -0.0122537315 0.005897096 1.5725382e-06 0.018229108 0.005662302 0.008361433
0.014273888 0.020826953 -0.0109166475 0.01512591 -0.0066413726 0.0046802824 0.00801815 0.0014450606
0.005264485 0.03565842 0.006647867 -0.00084113213 -0.012154039 0.00032029097 -0.000822142 -0.017268749
0.0035740263 0.002729146 0.013718931 -0.00022782356 -0.0068402262 0.013533398 0.0021922016 -0.0066801943
-0.015828118 0.0030287737 0.011054482 -0.022275731 0.0029729973 -0.008728342 -0.0051027313 0.0026016152
0.012909118 0.011626172 0.032644592 -0.0118096685

running_mean f4 [100]
00000000: e361 0b3f 836a 223f 163c 173f 8c98 d63e
00000010: 0aba 0d3f 4788 193f 390e 183f 66ef f03e
00000020: f9d4 043f 387c 7d3f d97e 333f 730b 063f
00000030: 746a b93e 317b 013f 5103 133f 5502 373f
00000040: 1c72 053f cbcc 2a3f cca6 e03e 47e9 873f
00000050: 7384 353f 130b 3f3f 805b a63e 7a6c 613f
00000060: eb8c 173f 173f 003f 559b 5e3f 1c36 0c3f
00000070: 76c4 fa3e d870 0f3f 7b87 5b3f d7d5 323f
00000080: 7989 273f ac90 033f fb69 263f e868 4f3f
00000090: 6447 3c3f a3c2 423f bdd1 d03e 6ae2 383f
000000a0: d915 313f 82a8 ea3e 6388 133f 0740 c53e
000000b0: 6223 013f e3e7 d93e 085c 333f 435f d03e
000000c0: 3305 313f 6931 f93e 14bc 103f 4d1e dd3e
000000d0: 0b12 473f cd2d 473f 1a18 1e3f a6d6 303f
000000e0: a403 123f c421 f73e b75f 063f 0fb5 343f
000000f0: 8652 513f f990 133f dd36 323f 2068 cb3e
00000100: 9ed1 193f df92 aa3e 32b3 093f 0281 0f3f
00000110: 51d6 0c3f e85d 663f ad2b 263f 8ea3 d73e
00000120: 736a 043f b2ba 193f 5931 403f 1418 e53e
00000130: fb0f aa3e d62c fc3e fff4 5b3f c9be f93e
00000140: e99c 093f 1f3d dd3e 8e44 0f3f 3e27 f63e
00000150: cd6a 1f3f eab3 c13e d801 f83e 1c5a c93e
00000160: dd99 2d3f 5234 083f a0b0 233f 0e97 1d3f
00000170: 5f13 1e3f f82b 643f 9aa8 2e3f 1cbb 4b3f
00000180: 6533 083f 80d3 373f 01d5 923f e91c 483f
0.5444624 0.63443774 0.5907606 0.4191326 0.55362 0.5997357 0.593967 0.47057647
0.5188747 0.9901767 0.7011543 0.5236122 0.3621403 0.505786 0.57426935 0.71487933
0.5212724 0.6671874 0.43877256 1.0618066 0.70905226 0.7462627 0.32491684 0.8805615
0.591994 0.5009627 0.8695577 0.54770064 0.48978013 0.5603156 0.857536 0.69857544
0.6544414 0.51392627 0.65005463 0.8101945 0.73546433 0.7607824 0.40785018 0.7222048
0.6917396 0.45831686 0.57629985 0.3852541 0.50444615 0.42559728 0.70062304 0.4069768
0.6914856 0.4867051 0.56536984 0.4318718 0.77761906 0.7780426 0.61755526 0.6907753
0.57036805 0.4826795 0.524898 0.70588773 0.81766546 0.57643086 0.69614965 0.3972788
0.60085475 0.3331518 0.53789055 0.56056225 0.5501452 0.8998704 0.64910394 0.4211697
0.5172493 0.600505 0.750753 0.44744933 0.33215317 0.49252957 0.8592071 0.4877837
0.5375505 0.43210694 0.5596398 0.48076814 0.6227234 0.37832576 0.48438907 0.3932656
0.678129 0.53204834 0.63941383 0.61558616 0.6174831 0.8912959 0.68226016 0.7958238
0.5320342 0.718071 1.1471254 0.78169113

running_var f4 [100]
00000000: 8eb0 243f 8067 513f fe06 603f 8ea9 e63e
00000010: b395 3c3f 1422 8d3f 5943 b73f ae3a 433f
00000020: d289 893f e9e9 0e40 1935 343f 0a10 2c3f
00000030: ef4a ab3e 0094 503f 4570 433f 1cf6 953f
00000040: 6ce8 583f 6ba8 373f fb86 1a3f 239f 2040
00000050: 020f 343f 157d c03f cec2 b03e 7a4a fc3f
00000060: f889 8d3f 8d31 273f 21c3 1140 2f39 1b3f
00000070: 1d3e 843f a4ee 673f 0c24 b23f 176b 6c3f
00000080: be2c 4d3f e0da 1e3f af21 713f e36f 903f
00000090: 5f89 db3f 7a9b a73f 938b fa3e 48ad 8c3f
000000a0: 4dff 6e3f ae97 173f 54b6 823f c697 173f
000000b0: 84d7 2d3f 29f7 003f efa3 a83f 34b5 033f
000000c0: 2967 8e3f a1aa 3b3f aab7 3b3f 756c 2a3f
000000d0: 2758 0b40 f250 8d3f 08bb 983f 3e75 8c3f
000000e0: 9ab8 2c3f 5b9b 0f3f e239 0a3f 3812 cc3f
000000f0: 5c34 af3f 09a5 5e3f 25a3 8d3f a944 233f
00000100: dd2f 5f3f d833 993e 3ef3 603f f3e1 4c3f
00000110: 6e5d 303f 17d4 b93f 9ce3 783f a48e 223f
00000120: 9d7f 2e3f 5d1a 783f a525 5b3f 2ff7 093f
00000130: cd53 b63e 1111 793f c081 0540 8163 4a3f
00000140: 03ad 363f 0b4a cc3e 4437 853f 8b87 423f
00000150: c5c2 723f 429e da3e 9653 233f 8ee2 ce3e
00000160: 4c2d 923f 2604 3f3f 4c8c 933f 6f10 523f
00000170: 0aab 403f fffa 0b40 6367 753f 7cf5 b43f
00000180: eeb8 173f 288f 933f caa9 8c40 945d 933f
0.643319 0.81798553 0.8751067 0.45051235 0.7366592 1.1026025 1.4317428 0.76261413
1.0745184 2.2330267 0.7039352 0.67211974 0.33455607 0.8147583 0.76343185 1.1715732
0.8472965 0.7174136 0.60362214 2.509713 0.703354 1.5038172 0.34523624 1.9710228
1.105773 0.65309983 2.2775347 0.6063413 1.0331455 0.9059851 1.3917251 0.92350906
0.80146396 0.62052727 0.9419202 1.1284145 1.7151297 1.3094323 0.48934612 1.0990381
0.9335831 0.5921582 1.0211892 0.5921596 0.67906976 0.50377136 1.3175029 0.5144837
1.1125232 0.73307234 0.73327124 0.6657174 2.1772554 1.1040328 1.1932077 1.097328
0.6746918 0.5609643 0.5399457 1.594306 1.3687854 0.86970574 1.1065413 0.6377664
0.8718241 0.29922366 0.8787116 0.8003227 0.6889256 1.451785 0.97222304 0.634989
0.6816347 0.9691523 0.85604316 0.538928 0.3561081 0.97291666 2.0860443 0.7905808
0.71357745 0.3990024 1.0407491 0.7598807 0.94828445 0.42698866 0.63799417 0.40407223
1.1420074 0.74615705 1.152719 0.82056326 0.75260985 2.1871946 0.9586088 1.4137416
0.59266555 1.1528063 4.395726 1.1512933

weight f4 [1, 100]
00000000: 3d77 733d a291 b0bc 8dea 96bd b887 68bb
00000010: 6dc1 3fbc 5cee fd3c 5a59 2abd a7c1 4bbd
00000020: 18e6 cfba 4a80 613c 6bb9 2f3c 0a48 6b3b
00000030: 4fb0 fb3b 6759 07bd ebdd 15bd 9ba2 443c
00000040: 7f31 8b3b b2ca 613d e6cc 4bbd 5cfd 0c3b
00000050: 83a7 343b 7035 303c a9dc 22bc 4ac4 3d3c
00000060: 06c8 983c 9470 87bd 2eec 8b3c d5cc 95bd
00000070: 981e d9bc cc93 01bd 5296 263d 68d2 8d3d
00000080: cf85 c33c 6e7e 013c a36b d7bb f5cc 7abc
00000090: cf46 60bd 5f9c 233d 77de af3c e84b 3cbc
000000a0: 5aa0 8f3d 2047 10bd 4b98 c8bc b187 ad3c
000000b0: f306 3c3d 6e13 95bd 43c2 babb 6322 58bc
000000c0: d683 28b9 6e0e 623c 1b9b 21bd 8bb3 52bb
000000d0: cba3 21bd c534 943b 5d30 48bd a4ae 98bd
000000e0: d808 8e3c 60d4 50bd 73ab 333d 1acf a33a
000000f0: b663 4c3d 4874 513b 31ae f33c 949e 13bc
00000100: e25f 143d 028b d9bc 602f 853b 0055 02bd
00000110: 092b cc3c 762b 813d 6228 15bd bd5b 8dbd
00000120: 0786 ab3c 947f f2bb 2077 4db8 3caf c53a
00000130: b610 3d3d 755c 0dbc edc1 04ba f992 39bd
00000140: 3457 ca3c cd9f 59bc 48a8 483d dbb4 343c
00000150: f878 e93a f778 403b 58be 40ba 6289 0bbd
00000160: 5bdb 043d 31b1 ebbc 25ac 3c3d 20dd 35bc
00000170: 70e4 c3bc afc4 603c 73bb 71bb 3690 1cbd
00000180: cf86 dabb 1fea 6c3c 6565 e6bc 0433 5f3d
0.059439886 -0.021553818 -0.07368956 -0.0035481285 -0.011703831 0.030997448 -0.04158912 -0.04974523
-0.001586142 0.013763497 0.010725359 0.0035901093 0.0076809297 -0.033044245 -0.03658859 0.012001659
0.0042478438 0.055124946 -0.049755953 0.0021513319 0.0027565665 0.010754928 -0.009940305 0.0115824435
0.018650066 -0.066132694 0.017080393 -0.07314459 -0.026503846 -0.03163509 0.0406707 0.069248974
0.023867516 0.007903678 -0.0065741106 -0.015307655 -0.05475503 0.03994405 0.021468384 -0.011492707
0.070130065 -0.03522408 -0.024486681 0.021182867 0.045905065 -0.072790965 -0.0056994273 -0.013191792
-0.00016070841 0.013797386 -0.03945456 -0.0032150473 -0.039462846 0.004522892 -0.048874248 -0.07455185
0.017338201 -0.050983787 0.04386468 0.0012497634 0.04989978 0.0031960178 0.029746147 -0.009009976
0.036224253 -0.026555542 0.0040644854 -0.031819344 0.024922865 0.06307118 -0.036415465 -0.06902263
0.020937933 -0.0074004624 -4.8986753e-05 0.0015082131 0.046158515 -0.0086280005 -0.00050642976 -0.04530618
0.024699785 -0.013282728 0.04898861 0.011029447 0.0017812541 0.0029368976 -0.0007352582 -0.034066565
0.032435756 -0.028771015 0.046062607 -0.011100084 -0.023912638 0.013718768 -0.003688541 -0.038223468
-0.0066689025 0.014460116 -0.02812452 0.05449201
