Dry fermentation prediction and optimization system/predictor_digester/Predictor_Digester CH4/models/NeuralNetFastAI_BAG_L1/S1F4/model-internals.pkl (torch, 125091 bytes, 15 tensors)

weight f4 [10]
000000 3c 28 81 3f 8b 70 87 3f 23 12 85 3f 1c a7 7b 3f
       1.0090404 1.058122 1.039616 0.98301864
000010 1f b9 7a 3f a3 c4 7b 3f e9 56 7e 3f 26 65 75 3f
       0.9793872 0.9834692 0.99351364 0.95857465
000020 d6 74 80 3f 89 56 7d 3f
       1.0035655 0.9896017

bias f4 [10]
000000 8d 27 0d bd 90 84 00 bb a7 77 82 bc 62 9e 9e 3c
       -0.034461547 -0.0019610263 -0.015926195 0.019362632
000010 b6 6b 9e bb b8 66 25 3c 0d 00 f8 3b 9a e3 6f 3d
       -0.0048346175 0.010095291 0.0075683654 0.058566667
000020 94 19 87 3b 30 d7 70 3c
       0.004122922 0.014699742

running_mean f4 [10]
000000 06 2e 86 bc 91 cd dd ba 93 a6 03 bb b5 dc dd bb
       -0.016379368 -0.0016922225 -0.00200883 -0.006770695
000010 b5 dc dd bb 0d 24 c8 bb ad 7b 94 bc ce 53 32 bc
       -0.006770695 -0.006107813 -0.01812538 -0.010884238
000020 da 23 85 3c cf 32 01 bc
       0.016252447 -0.007885649

running_var f4 [10]
000000 17 0a 7e 3f cd 81 80 3f 0f 38 81 3f 87 68 81 3f
       0.99234146 1.0039612 1.0095233 1.0110024
000010 87 68 81 3f 8e 05 7f 3f 6a 5c 82 3f 2c 39 7a 3f
       1.0110024 0.9961785 1.0184453 0.9774349
000020 d3 3e 84 3f c2 b1 7c 3f
       1.0331672 0.98708737

weight f4 [200, 10]
000000 e0 81 07 bc 93 46 18 3e 38 bb 9b be a5 34 7e be
       -0.008270711 0.14870672 -0.30416274 -0.2482477
000010 16 db 0c be 63 9c a2 3d 9d 3c d7 bb 22 06 83 3e
       -0.1375545 0.07939985 -0.006568505 0.25590616
000020 07 5f 83 bc 37 22 f8 3c f9 ab 04 be 2a 3a b3 bd
       -0.016036524 0.030289752 -0.12956227 -0.08751328
000030 97 0d 94 be 9b 7a 68 be 24 8e 17 be 44 a3 c6 3c
       -0.28916618 -0.2270302 -0.14800316 0.024247773
000040 2b 79 20 3e 51 d7 2e 3e 05 84 43 be 63 47 c1 bd
       0.15671222 0.17074324 -0.1909333 -0.09437444
000050 40 88 cc 3d 3a 6c 88 3e 73 39 c4 bd 7e 42 67 3e
       0.09986925 0.2664507 -0.0958127 0.22583959
000060 eb e0 7c bd ff 12 40 3c 28 d5 97 3e 2b 5f 8b be
       -0.061737936 0.011723279 0.29654813 -0.27221045
000070 72 f2 5a be 80 0e f8 bd 44 b3 c0 bd d2 88 8f 3e
       -0.21381548 -0.12112141 -0.09409192 0.28034073
000080 d5 a7 4d be ee 4a 2d be 45 4c 7a be b5 2c 90 be
       -0.20083554 -0.16923115 -0.24443157 -0.2815911
000090 a6 55 1c be da b5 94 3e 3a 51 16 3e 17 5a 05 3e
       -0.15267047 0.29044992 0.14679423 0.13022648
0000a0 f9 dd 0a 3d 7f 82 31 be 7c a0 98 3d 60 b9 97 be
       0.033903096 -0.17334937 0.07452485 -0.29633617
0000b0 4b 22 6b be 4b 1f 1f be 54 a9 61 3e c5 f0 3a 3e
       -0.229623 -0.15539281 0.2203725 0.18255909
0000c0 9b 83 06 be 2b dc 2f 3b 21 48 63 3e c1 51 94 3e
       -0.13136141 0.0026834111 0.22195484 0.28968623
0000d0 84 05 09 3e 4e 2d 5a 3d 78 b3 63 3e 81 f8 47 be
       0.1338101 0.053265862 0.2223643 -0.1952839
0000e0 af a9 c5 3c 74 a5 69 be b2 4a 5e be d0 44 3a be
       0.024128763 -0.22817022 -0.21708182 -0.18190312
0000f0 93 70 3b 3e 17 f2 f9 3d b7 4c 22 be 14 f7 02 3e
       0.18304662 0.12204378 -0.15849577 0.12789565
000100 ae 97 52 3e fa ec a7 bd 3c 43 46 3d e8 32 cc 3d
       0.20565674 -0.081994966 0.048403963 0.09970647
000110 40 8b 39 3e 29 f2 88 3e 58 2f 6e be f9 ee f7 bd
       0.18119526 0.26747254 -0.23260248 -0.12106127
000120 70 22 0e 3e 49 f5 86 3e 3f 09 8e 3e cf a3 93 3e
       0.13880324 0.26359013 0.2774143 0.28835914
000130 cf 55 90 3d 48 94 94 be 65 07 37 bc 13 cb 21 be
       0.07047617 -0.2901938 -0.011171197 -0.15800123
000140 96 6d 99 be ae 05 99 3e d1 d4 6b 3e f3 00 96 be
       -0.2996642 0.29887146 0.23030402 -0.292976
000150 29 59 a6 3d f5 49 8c bd 01 0b 0f bd db 80 e6 bd
       0.08122475 -0.06850044 -0.034922604 -0.11255046
000160 b2 a8 03 3e 9d 9a 4d be e7 0b 1f 3e 24 e7 2c 3e
       0.12857321 -0.20078512 0.15531884 0.16885048
000170 0c 92 5a 3e 22 be b8 3d 81 41 ae be ef bf 45 be
       0.21344775 0.0902064 -0.3403435 -0.19311498
000180 47 f6 0d 3e 46 2a 90 3d 32 9f 61 be 46 61 3b be
       0.13863479 0.07039313 -0.22033384 -0.18298826
000190 eb 5f 7b 3e a7 07 6c 3e 1c 46 05 be 1e 4b 79 bd
       0.24548309 0.23049794 -0.13015026 -0.060862653
0001a0 ed 91 90 be 63 e5 86 bd ef 21 92 be d8 77 6b be
       -0.28236333 -0.06586721 -0.28541514 -0.22994936
0001b0 ec 6f 21 bd 29 9e 06 3a 98 ab f4 bd d7 49 4b 3e
       -0.039413378 0.0005135262 -0.119467914 0.19852386
0001c0 08 36 35 be 33 6f a1 3e 0a 6d 7b 3e ec 30 73 be
       -0.17696393 0.3153015 0.24553314 -0.23749131
0001d0 4a a9 c6 bd c2 9f 8b 3b 94 0d 7c 3d c0 b8 9c 3d
       -0.09700258 0.004260988 0.061536387 0.07652426
0001e0 26 68 e2 3d b8 a5 10 3d c3 ac 1e be 41 a9 2a 3e
       0.11055021 0.03531429 -0.15495591 0.16666128
0001f0 34 44 92 be 59 48 3e be 4c 27 c4 bd d9 8c 24 be
       -0.2856766 -0.18582286 -0.09577808 -0.16069354
000200 4e 04 e0 bd 27 ec 8c be b5 b2 dd bd b3 c6 58 3d
       -0.10938321 -0.2752392 -0.10825101 0.05292387
000210 10 ac 45 be 4c 23 ab bc 90 06 63 3e ff 76 18 bd
       -0.19303918 -0.020890854 0.22170472 -0.03722286
000220 59 7c 21 3b 58 91 60 bc f4 a3 77 3d c0 d5 57 3e
       0.0024640767 -0.013706528 0.060459092 0.21077633
000230 a3 e7 8d 3e 60 76 6a 3e 6f 8c af 3e 77 8c da bc
       0.27715787 0.22896719 0.3428683 -0.026678307
000240 91 36 93 be 06 34 f9 bd 12 c8 44 3e 34 b0 c7 bc
       -0.28752568 -0.12168126 0.19216946 -0.024376012
000250 d0 40 07 be 00 2a 8f be f7 71 ab be c5 dc 98 be
       -0.13208318 -0.2796173 -0.33485386 -0.29855934
000260 2c f5 a1 bc 7c 34 cb 3d ea 0d c6 3d 3c 74 96 be
       -0.019770227 0.0992212 0.09670623 -0.29385555
000270 d1 87 62 3e 43 24 88 be ca 1c 91 bd c4 33 09 be
       0.22122122 -0.26590165 -0.07085569 -0.13398653
000280 a5 c6 87 bd b3 59 c8 bd 22 75 94 be 7a 29 8a be
       -0.06629685 -0.09782734 -0.28995615 -0.2698477
000290 8e 10 3f bd 81 b0 a8 ba 39 93 2b be de 9b cc 3d
       -0.046646647 -0.0012869985 -0.1675538 0.09990667
0002a0 f4 b5 85 be 0b 93 44 bd 37 56 70 3e 90 e8 00 be
       -0.26115382 -0.047991794 0.23470388 -0.12588716
0002b0 1e 7c 98 3e 12 95 df 3d 1f 97 94 be fb 08 3f 3e
       0.29782194 0.10917105 -0.29021546 0.1865577
0002c0 83 88 a1 bd 9d 7b 1c be a1 c2 80 3e c8 5b aa be
       -0.07887366 -0.1528153 0.2514849 -0.3327315
0002d0 8a fb 5f bb 3d cd 35 bd ac 62 62 3e d5 fc ad 3d
       -0.0034177029 -0.044385184 0.22107953 0.084954895
0002e0 08 6f 18 3e 16 41 d6 3d 39 5b d9 bd ec c8 9a bd
       0.14886105 0.10461633 -0.106131025 -0.07557854
0002f0 16 55 8b be 4c 80 26 3e 19 6c 59 3e 42 1c 75 3e
       -0.27213353 0.16259879 0.21232642 0.23936561
000300 b0 ed 5d be fc 94 75 3c d4 ec 62 be 60 ba 41 be
       -0.21672702 0.014989134 -0.22160655 -0.18918753
000310 a5 ef 60 be b4 5f 96 3d 70 a8 31 be 19 71 11 bd
       -0.21966417 0.07342473 -0.1734941 -0.03550825
000320 9b 29 7b 3d 13 86 3a 3e a1 e5 6e be 94 59 5a be
       0.061318975 0.18215208 -0.23329784 -0.21323234
000330 f0 ee 37 be ed 97 44 3e 6c bb b0 bd a4 54 9c 3e
       -0.17962241 0.1919858 -0.08629498 0.30533326
000340 59 46 c8 3d 6f 91 f2 bb 8c f1 87 3d 8f c3 1c bd
       0.09779043 -0.007402591 0.06637868 -0.038272437
000350 fc 17 a5 3d 09 46 a0 bd 3b 3b 0a bc 2d 6d bb 3d
       0.08061215 -0.07825858 -0.008436973 0.09151683
000360 2e fd 4b be d9 cd 2f be 2f 5d 93 3e 0d d2 88 be
       -0.19920799 -0.17168368 0.2878203 -0.26722756
000370 3d d9 44 bd 0c 80 ad 3e 47 91 97 3d 15 b1 b3 bc
       -0.048058737 0.33886755 0.07400756 -0.021935025
000380 28 b5 9b be 0c 8c 16 3e 50 ac 4d be e2 13 73 bd
       -0.3041165 0.14701861 -0.20085263 -0.059345134
000390 6d d5 e1 bd 58 0d bf bd 25 b4 07 3d d8 88 60 3e
       -0.11027036 -0.09328717 0.033130784 0.21927202
0003a0 5e 7e bd 3c a1 ed a1 3e b3 b6 67 3e 24 8c 58 be
       0.023131546 0.3162661 0.22628288 -0.2114721
0003b0 1f 0a 2c 3e ef ef 52 be d7 45 17 be 4d 99 d7 3d
       0.16800736 -0.2059934 -0.14772736 0.10527287
0003c0 7a 75 71 3d 09 22 6b 3e 3e 92 ef bd 00 c6 23 bc
       0.058949925 0.22962202 -0.11697815 -0.009995937
0003d0 16 be 1b 3e 47 d7 9b be 4e f1 66 3e ab 3f 8e be
       0.15209231 -0.3043768 0.22552988 -0.2778295
0003e0 73 86 55 3d a3 4e 69 bd 67 22 31 be 71 31 77 3d
       0.052130174 -0.05695976 -0.1729828 0.060349885
0003f0 2d 8d 8c 3e 05 37 c8 bd b0 99 45 be cc cb d7 bd
       0.2745146 -0.09776119 -0.19296908 -0.10536918

weight f4 [200]
000000 fe 33 7a 3f 09 50 81 3f 0c d7 80 3f 0b 29 81 3f
       0.97735584 1.010255 1.0065627 1.009065
000010 99 09 7d 3f 1b 88 7d 3f 00 45 7d 3f a8 bc 83 3f
       0.9884277 0.99035805 0.9893341 1.0291948
000020 6e fe 83 3f 88 f1 7f 3f fe ab 83 3f e3 41 7f 3f
       1.0312021 0.9997792 1.0286863 0.9970991
000030 c5 15 7b 3f 58 69 7e 3f 0f 44 7f 3f d2 a9 81 3f
       0.9808009 0.9937949 0.99713224 1.012995
000040 3a 4f 80 3f 3e d1 80 3f f2 de 7f 3f 06 4e 74 3f
       1.0024178 1.0063856 0.9994956 0.95431554
000050 53 8d 7f 3f 9f 06 85 3f 5b 12 82 3f ff cf 7e 3f
       0.9982502 1.0392646 1.0161852 0.99536127
000060 75 a2 85 3f e6 a7 79 3f d8 62 84 3f 41 54 80 3f
       1.0440203 0.9752182 1.0342665 1.0025712
000070 f9 dd 7a 3f 50 90 81 3f 12 08 7c 3f 1f 0e 86 3f
       0.97994953 1.0122166 0.98449814 1.047306
000080 d0 31 7a 3f b8 11 81 3f a9 c4 81 3f f9 01 7d 3f
       0.9773226 1.0083532 1.0138141 0.98831135
000090 3c e0 7c 3f f9 29 81 3f a6 05 76 3f b2 32 80 3f
       0.98779655 1.0090934 0.9610237 1.0015471
0000a0 30 8e 7b 3f 83 0f 81 3f 52 f2 84 3f 20 57 80 3f
       0.98263836 1.0082859 1.038645 1.0026588
0000b0 23 f1 85 3f 67 9f 7e 3f 5e 6d 87 3f 12 3a 76 3f
       1.0464214 0.9946198 1.0580251 0.9618236
0000c0 e4 f1 7a 3f dd 2c 7a 3f af 11 80 3f f1 2a 81 3f
       0.98025346 0.97724706 1.0005397 1.009123
0000d0 26 44 7f 3f 04 a2 7d 3f d2 09 80 3f 9e ee 81 3f
       0.9971336 0.9907534 1.0002997 1.0150945
0000e0 79 7c 76 3f d3 3f 81 3f a5 27 81 3f 39 9e 7b 3f
       0.9628368 1.0097603 1.0090224 0.98288304
0000f0 07 45 80 3f 95 81 83 3f 56 e2 7d 3f e2 fd 79 3f
       1.0021065 1.027392 0.99173486 0.9765302
000100 65 38 80 3f b8 5f 7d 3f a5 c5 7e 3f 7b 46 82 3f
       1.001721 0.9897418 0.9952033 1.0177759
000110 e8 a7 82 3f 9f c9 82 3f 4b 84 82 3f 33 d3 7f 3f
       1.0207491 1.021778 1.0196623 0.9993164
000120 90 1c 80 3f b3 0e 7d 3f 01 66 87 3f fe 96 7b 3f
       1.0008717 0.98850554 1.0578004 0.9827727
000130 ef a5 7a 3f 2a 5b 7d 3f 72 9f 81 3f d6 69 7f 3f
       0.97909445 0.9896723 1.0126784 0.9977087
000140 1b ef 80 3f b5 09 80 3f 37 5b 82 3f 50 e8 81 3f
       1.0072969 1.0002962 1.0184087 1.0149021
000150 63 3d 7f 3f 82 b5 86 3f 40 90 7e 3f fe 10 7d 3f
       0.99703044 1.0524142 0.9943886 0.98854053
000160 ff dd 79 3f 3c c2 7f 3f 36 dc 82 3f 70 8c 80 3f
       0.97604364 0.99905753 1.0223453 1.0042858
000170 cd 54 80 3f 9b 66 83 3f d2 4e 76 3f 4a eb 80 3f
       1.0025879 1.0265688 0.9621402 1.0071805
000180 d8 21 7b 3f 17 e0 81 3f d8 90 81 3f 7c 46 77 3f
       0.98098516 1.0146512 1.0122328 0.96591926
000190 5f 3b 7b 3f 3e bf 88 3f 15 17 7c 3f 13 b7 73 3f
       0.9813747 1.0683362 0.9847272 0.95201224
0001a0 68 0b 86 3f d2 f6 76 3f df 4d 7b 3f 48 c4 7f 3f
       1.0472231 0.9647037 0.98165697 0.99908876
0001b0 2d 43 81 3f ba 5d 84 3f 6a ec 80 3f a7 60 83 3f
       1.0098625 1.0341103 1.0072148 1.0263871
0001c0 52 3e 77 3f b0 df 77 3f 96 e4 7e 3f 5b 49 80 3f
       0.9657947 0.96825695 0.99567544 1.0022386
0001d0 42 b9 7f 3f 63 20 7b 3f 55 40 7a 3f b9 1e 81 3f
       0.99892056 0.98096293 0.9775441 1.0087501
0001e0 86 39 7d 3f 64 fe 7f 3f 61 4d 84 3f 03 51 85 3f
       0.989159 0.99997544 1.0336114 1.0415348
0001f0 e4 ac 82 3f 66 33 7e 3f 19 b5 82 3f c5 48 7d 3f
       1.0209012 0.9929718 1.0211517 0.9893916
000200 c6 2a 79 3f e1 57 85 3f 71 7b 80 3f 94 a0 7e 3f
       0.9733089 1.0417444 1.0037671 0.9946377
000210 12 7b 75 3f 2e a1 83 3f a0 30 76 3f 52 23 80 3f
       0.95890915 1.0283563 0.96167946 1.0010779
000220 ad 17 83 3f fb ba 81 3f 27 48 78 3f 58 e1 7a 3f
       1.02416 1.0135187 0.96985096 0.980001
000230 f0 17 81 3f 5e 10 84 3f f2 09 7e 3f 3e 6f 7f 3f
       1.008543 1.0317495 0.99233925 0.9977912
000240 7e b7 7f 3f 13 3a 81 3f 39 34 80 3f 08 c6 7f 3f
       0.9988936 1.0095848 1.0015937 0.99911547
000250 a4 bd 7f 3f d2 1a 7b 3f c6 1d 7b 3f a9 0b 7e 3f
       0.99898744 0.980878 0.98092306 0.9923654
000260 1b 74 7c 3f 1b c6 7f 3f 16 d3 74 3f d4 86 83 3f
       0.9861466 0.9991166 0.9563459 1.0275521
000270 f7 99 84 3f 99 d2 7c 3f 4a d6 7b 3f 7e cf 83 3f
       1.0359486 0.98758847 0.98373854 1.0297697
000280 54 bd 80 3f 9f dc 7a 3f bf a0 7e 3f 70 ef 7f 3f
       1.0057778 0.9799289 0.9946403 0.9997473
000290 b2 a4 81 3f 88 84 80 3f 34 3e 78 3f f3 2d 7e 3f
       1.0128386 1.0040445 0.96969914 0.9928886
0002a0 ec 01 79 3f 19 36 7d 3f 31 f5 7e 3f f3 d6 80 3f
       0.9726856 0.9891067 0.9959288 1.0065597
0002b0 d8 a1 82 3f de cf 7d 3f 74 06 81 3f a3 40 82 3f
       1.0205641 0.99145305 1.0080094 1.0175976
0002c0 69 28 7e 3f 08 ad 79 3f f4 e9 82 3f c9 ae 84 3f
       0.9928041 0.9752965 1.0227647 1.036584
0002d0 ae 7f 84 3f b3 6c 81 3f 46 6e 75 3f e0 52 7c 3f
       1.0351465 1.0111297 0.9587139 0.9856396
0002e0 ea 2d 7d 3f a7 99 7b 3f 9c eb 82 3f df 59 83 3f
       0.98898184 0.9828133 1.0228152 1.0261801
0002f0 0c 7c 79 3f 58 0f 72 3f 16 3c 80 3f 56 4d 85 3f
       0.97454906 0.9455466 1.0018337 1.0414226
000300 94 33 7f 3f 54 f1 7e 3f c5 e9 83 3f 61 5a 81 3f
       0.99688077 0.9958699 1.0305716 1.0105706
000310 d9 63 7e 3f 61 73 7c 3f 05 0c 7b 3f f6 23 80 3f
       0.99371105 0.98613554 0.98065215 1.0010974

bias f4 [200]
000000 19 a1 ee bc 0a 08 b2 3c 34 ad ca 3c 3b 10 e7 bb
       -0.029129552 0.021732349 0.024740793 -0.0070514954
000010 fa 32 4e bc 30 61 0c bc 4a d4 10 3c ea 55 38 bc
       -0.012585396 -0.008568093 0.008839676 -0.011250952
000020 8a 05 45 3b d9 48 2c 3d 51 9f f9 3b 4f dd 24 bd
       0.0030063116 0.04206166 0.007617869 -0.04025012
000030 ae d0 ad 3c af 87 93 3c 6f 26 55 3d 1c 2c d7 3c
       0.02121767 0.018009035 0.052038606 0.02626615
000040 31 f7 ec 3c ad 29 7d bb e1 73 0c bd d4 e0 81 bc
       0.028926464 -0.0038629577 -0.0342902 -0.015854277
000050 42 87 a4 3c bc fc 70 bc 7c 9b fb bc 91 9c 1a 3c
       0.020084027 -0.014708694 -0.03071379 0.009436742
000060 78 71 d7 bc c0 af f3 3c 11 da a3 bc bc 96 fc 3b
       -0.026299223 0.02974689 -0.020001443 0.0077083986
000070 d9 7e e5 3c 74 ac 2d 3c fe 23 4a 3c 44 3f e8 bc
       0.028014587 0.010600198 0.012337683 -0.02835048
000080 a3 65 12 bd b1 07 a0 bc da 71 4f 3c c7 a5 74 3b
       -0.03574146 -0.019534918 0.012661422 0.0037330256
000090 cf 78 89 3c b4 3f bf bc ff da 26 3d ae a8 2b 3d
       0.016781239 -0.023345806 0.040736195 0.041908912
0000a0 e2 77 82 3c c3 9b 95 bc ee d5 17 bd ec 95 7a bc
       0.015926305 -0.01826275 -0.037069254 -0.015294533
0000b0 31 d4 43 bc 65 c5 8c 3c 26 a9 16 3d c1 ab 09 ba
       -0.011952446 0.017183969 0.036782406 -0.00052517286
0000c0 ee 54 3a 3c cc e1 cd bb 97 73 51 bc 86 0b 66 bc
       0.011372788 -0.0062830206 -0.012783906 -0.014040833
0000d0 03 9e 86 ba 7e 44 8a 3c c0 ac 4e bb 65 cf 40 3b
       -0.001027048 0.016878363 -0.0031536072 0.0029420492
0000e0 70 d0 e1 bc c6 ee 09 bb bf 97 33 bd 81 49 dc b9
       -0.027565211 -0.002104686 -0.04384589 -0.00042016435
0000f0 8f 82 8a 3c da 5e 5d bb 86 ea 09 bd 7d ca 23 bd
       0.016907958 -0.003377846 -0.033670925 -0.03998803
000100 28 97 ea 3a b3 fe c3 3b cc 11 2c bc 7a 96 49 3d
       0.0017897831 0.0059812902 -0.01050229 0.04921577
000110 62 20 21 bc 21 0c e8 bc 28 60 ba bb 85 27 d7 bc
       -0.009834381 -0.028326096 -0.0056877322 -0.026263962
000120 c0 af b8 ba 1f fb 44 bc 79 fc c9 3c e7 9b 48 bd
       -0.0014090464 -0.012022763 0.024656521 -0.048976805
000130 45 2a dc bc f4 46 1a 3c 79 cb 0c bd a4 52 87 3b
       -0.026875624 0.009416331 -0.034373734 0.0041297246
000140 2a 7a 39 3c c2 73 48 bb d4 bd 92 bc ad f7 f8 3c
       0.01132063 -0.0030586575 -0.017912783 0.030391539
000150 1b 07 1d bc 6e bb 7b 3c d7 bb 65 bb a5 3b 47 39
       -0.009584214 0.015364511 -0.0035054588 0.00019000338
000160 dc 2c 96 3c 47 64 73 3c e1 a2 8d bc 46 6c fc bc
       0.018331937 0.014855451 -0.01728958 -0.030813348
000170 75 82 ee 3c 55 9e 7b bd 5a 0a 01 bd 4d fd 6a bb
       0.029114941 -0.061430294 -0.031504013 -0.0035856545
000180 be 9a 07 bc 8b b7 93 3c 59 fa 06 bd a6 71 b5 bc
       -0.0082766395 0.018031856 -0.032953594 -0.022148918
000190 8c 57 50 bd f2 46 d8 3c f6 0b a0 3c b9 5b 0d bd
       -0.05086474 0.026401017 0.019536953 -0.0345113
0001a0 11 b4 ef bb c5 ac 15 3d 14 c7 d0 3a 75 da 04 3c
       -0.0073151668 0.03654172 0.001592847 0.008108725
0001b0 6e c6 62 bc 18 02 0b 3d 58 3d 21 3c 7a a9 a9 bc
       -0.013841255 0.033937544 0.009841286 -0.020710696
0001c0 0b fa 25 3d 67 f4 07 3b 6c a8 4f bd 9c ee e4 ba
       0.040521663 0.002074504 -0.05069773 -0.0017466131
0001d0 e5 94 9e 3c af 9f a9 3c 4c 18 15 3d 99 d2 d2 bc
       0.019358108 0.020706026 0.036400124 -0.025735186
0001e0 e2 7d 73 3c c1 13 e8 bc 24 74 87 3b 20 bc ba 3c
       0.014861556 -0.028329732 0.004133718 0.022794783
0001f0 d1 d9 93 bb 6a 69 54 bc 64 30 dd 3c d8 b2 df 3c
       -0.0045120497 -0.012964586 0.027000614 0.027306959
000200 c4 67 84 3d a5 db 31 bc 5c 36 d3 3b 61 5c e3 bc
       0.06465104 -0.01085559 0.006445689 -0.02775401
000210 bf 23 bb 3b e7 a2 41 3c 32 5f d0 3c 3b 62 88 bc
       0.0057110484 0.011818624 0.025436018 -0.016648402
000220 2d cd b2 3c ed c6 01 bd ab 3f 32 bd 28 ef 97 bc
       0.021826351 -0.03168385 -0.04351775 -0.018546656
000230 84 9e 0d bd 84 71 0a 3d f3 a5 36 bc 4b 36 37 3b
       -0.034575 0.033799663 -0.011147964 0.0027955945
000240 0f 6a 16 3d 53 c2 05 3d e3 84 18 bc 38 98 3e bd
       0.03672224 0.032656025 -0.009309026 -0.046531886
000250 99 19 44 bc f2 0f 1d bc 54 6c cd bc aa b7 7a 3c
       -0.011968994 -0.009586321 -0.025076069 0.015302578
000260 da 5c 0e 3c 72 8d 13 bc ea 37 00 3b 42 4c 67 bc
       0.00868913 -0.009005891 0.0019564577 -0.014117302
000270 3e 20 4f bd 52 b0 ad 3b c7 dc fe 3c 92 49 30 bc
       -0.050567858 0.00530056 0.031111134 -0.010759728
000280 e2 26 b2 3c 2a eb 50 3d 37 2d 66 ba 36 86 e2 bb
       0.021747056 0.05100552 -0.0008780541 -0.006912972
000290 0c de d5 bb a3 bf 09 3c cb 80 0a bc c9 8f 74 3b
       -0.006526714 0.008407506 -0.008453558 0.0037317148
0002a0 15 4e 8c 3c 41 dc c2 3c 71 dd e8 3c 82 2a 6d bc
       0.017127076 0.023786666 0.028425904 -0.014475467
0002b0 6a 2d e9 bb 5c 7d 20 3a 5a 75 69 3c 2d ca c2 3b
       -0.0071160095 0.00061221956 0.01424917 0.0059445114
0002c0 b7 11 b6 3c a1 27 ce 3c c8 ef 43 3c e1 cd 07 3d
       0.022225244 0.02516538 0.011959024 0.033155326
0002d0 f9 96 c9 bc 29 10 b9 3c d1 d3 40 3d 31 6d 95 3c
       -0.024608122 0.022590714 0.047077004 0.018240543
0002e0 49 3a ab bc 72 16 cc 3c 01 95 10 bc f5 de 85 3c
       -0.020901816 0.024913047 -0.008824588 0.016341666
0002f0 a4 7c a6 3c 00 02 8a 3c a4 1f 91 bc 62 97 57 3c
       0.020323105 0.016846657 -0.017715283 0.013158651
000300 9f 5d 8d 3c bf 35 a7 3b c7 4b ac bb 1f 43 84 bb
       0.017256556 0.0051028426 -0.005258057 -0.004036322
000310 b7 be f8 bc 8a 3e 59 3d aa 36 26 bb e3 8c 28 3c
       -0.030364377 0.053038158 -0.0025362172 0.010287496

running_mean f4 [200]
000000 02 3d 63 3e 49 a0 87 3e 7e dd 2f 3e 8c 40 90 3e
       0.22191241 0.26489475 0.17174336 0.28174245
000010 97 f9 8b 3e 8c e4 80 3e a1 1f 37 3e 30 a1 9e 3e
       0.2733886 0.25174367 0.17883159 0.3098235
000020 99 41 63 3e 6a 40 77 3e f3 1a 4c 3e 8f cb 83 3e
       0.22192992 0.24145666 0.19932155 0.2574124
000030 bf d3 33 3e f8 28 fc 3d 4f 48 8a 3e a0 8c 41 3e
       0.17561243 0.12312502 0.27008292 0.189013
000040 e4 b7 8a 3e bd 27 4a 3e 55 14 3f 3e b3 87 79 3e
       0.27093422 0.19741721 0.186601 0.24368171
000050 80 75 52 3e 0c c0 29 3e f9 0e 4e 3e 75 5c 80 3e
       0.20552635 0.16577166 0.20122899 0.2507054
000060 9b 1c ff 3d fe cf 8c 3e e2 b8 68 3e af a7 55 3e
       0.12456628 0.27502435 0.22726777 0.20864747
000070 dc 9e 41 3e 92 1a f3 3d e6 ee 24 3e 13 5e 10 3e
       0.18908256 0.11870302 0.16106758 0.14098386
000080 fc ae 58 3e 41 d0 8c 3e b2 25 6e 3e 7f 8b 2a 3e
       0.21160501 0.27502635 0.23256567 0.16654776
000090 c1 6f 92 3e 9f b8 8c 3e 05 77 b3 3e be d1 70 3e
       0.28600886 0.27484605 0.35051742 0.2351751
0000a0 0e 07 89 3e a2 1d 0e 3e 77 62 18 3e fb 4e 36 3e
       0.26763195 0.13878492 0.14881311 0.17803566
0000b0 48 be 4e 3e 72 27 95 3e 1b 01 28 3e 30 44 95 3e
       0.20189774 0.29131657 0.16406672 0.29153585
0000c0 79 f6 3a 3e 76 bc 55 3e 78 07 89 3e 06 02 1b 3e
       0.18258084 0.20872673 0.2676351 0.1513749
0000d0 eb 6f 31 3e 3d 2b 69 3e 02 dc 23 3e ab 35 56 3e
       0.1732785 0.227704 0.16001895 0.2091891
0000e0 d7 62 82 3e 0b b0 71 3e 93 0b 7e 3e fc 42 8b 3e
       0.25466034 0.23602311 0.24809103 0.27199543
0000f0 b1 ce 2a 3e ea 2c 89 3e 05 db 63 3e 6a b8 25 3e
       0.16680409 0.2679208 0.22251518 0.1618363
000100 d7 d5 14 3e d6 63 84 3e 00 1d 2f 3e eb 1f 42 3e
       0.14534698 0.2585742 0.17100906 0.18957488
000110 6b 8a 5d 3e 99 2c 2f 3e 2e f0 5e 3e 6b 21 58 3e
       0.21634834 0.17106856 0.21771309 0.21106498
000120 dd 6e 86 3e b7 87 46 3e 89 aa 51 3e 9a 63 53 3e
       0.26256457 0.19387709 0.2047521 0.20643464
000130 8a 7a 99 3e eb ce 80 3e b7 b1 64 3e f2 7f 3f 3e
       0.29976302 0.25157866 0.22333418 0.18701151
000140 1a 30 8c 3e 04 48 ff 3d 19 a4 15 3e fc ac 32 3e
       0.2738045 0.12464908 0.1461338 0.17448801
000150 ea 80 32 3e c9 2b 38 3e af aa 59 3e 28 41 59 3e
       0.1743199 0.17985453 0.21256517 0.21216261
000160 a6 3c a0 3e 11 9a 58 3e e0 86 a9 3e a4 9f 4c 3e
       0.3129627 0.21152522 0.33110714 0.19982773
000170 b6 b9 74 3e 79 40 aa 3e 5a 09 5e 3e b2 fc 62 3e
       0.23898968 0.33252314 0.21683255 0.22166708
000180 29 e4 68 3e 34 e3 96 3e bc 76 49 3e 7f 93 1c 3e
       0.22743286 0.29470217 0.196742 0.1529064
000190 fc 50 3c 3e af b3 54 3e 66 e6 4f 3e 09 01 0a 3e
       0.18390268 0.20771669 0.20302734 0.13476957
0001a0 ff e8 4a 3e 5d 38 17 3e 77 83 78 3e 22 4a 24 3e
       0.19815443 0.14767595 0.242689 0.16043904
0001b0 99 fb 2c 3e e4 54 15 3e fc cd 39 3e b8 4e 71 3e
       0.16892852 0.14583164 0.18144983 0.23565185
0001c0 bf 36 8b 3e 51 e6 6c 3e 00 4d 3d 3e 0f bc 7d 3e
       0.27190205 0.23134734 0.18486404 0.2477877
0001d0 59 fe 58 3e bf 3e 4e 3e cd 51 88 3e bf 12 46 3e
       0.21190776 0.20141123 0.2662491 0.19343089
0001e0 ba 45 9b 3e 07 71 a1 3e 0a 54 ec 3d d0 de 3c 3e
       0.30326635 0.31531546 0.11539467 0.18444371
0001f0 fe d0 9b 3e b2 c4 86 3e 4d 95 3c 3e 59 a8 62 3e
       0.30432886 0.26321942 0.18416329 0.22134532
000200 78 99 4d 3e 18 d2 25 3e cd d4 7b 3e e9 85 3e 3e
       0.20078075 0.16193426 0.24592896 0.1860577
000210 e7 b3 68 3e e7 0f 0e 3e d9 a5 2b 3e ce e5 90 3e
       0.22724877 0.13873254 0.16762485 0.28300327
000220 28 92 5e 3e 40 80 2b 3e 05 0c 6c 3e 98 81 91 3e
       0.21735442 0.16748142 0.2305146 0.28419185
000230 c8 25 49 3e 31 06 8b 3e 78 e0 90 3e 2c 4b 57 3e
       0.19643319 0.2715316 0.28296256 0.2102477
000240 82 95 53 3e 31 ae 61 3e cf f3 6c 3e ea 7a 4a 3e
       0.20662501 0.22039105 0.2313988 0.1977345
000250 72 ac 89 3e 3d 48 60 3e ef 53 59 3e 03 5d 80 3e
       0.26889378 0.21902557 0.21223424 0.25070962
000260 a6 8b 09 3e df 71 25 3e 16 67 6c 3e 20 90 72 3e
       0.13432178 0.1615672 0.23086199 0.23687792
000270 6e 7d f8 3d 95 ba 2c 3e d8 5e 30 3e ba d8 0c 3e
       0.12133299 0.1686805 0.1722368 0.1375455
000280 73 32 33 3e 2a 22 02 3e 44 35 a7 3e b2 13 2a 3e
       0.17499714 0.12708345 0.32657826 0.16609076
000290 d3 bb 67 3e 5c a6 3a 3e 6e 44 17 3e e9 e9 1d 3e
       0.22630243 0.18227524 0.14772198 0.15421261
0002a0 72 e4 9f 3e 25 35 8a 3e 4c 60 1e 3e a5 08 5e 3e
       0.31228977 0.2699367 0.15466422 0.21682985
0002b0 c9 91 42 3e f8 42 a3 3e 10 be 69 3e f6 6d 44 3e
       0.19000925 0.3188703 0.2282641 0.19182572
0002c0 21 46 3a 3e a9 3d 67 3e 97 23 12 3e a3 c7 81 3e
       0.18190815 0.22582115 0.14271389 0.25347623
0002d0 8d 5d 2e 3e 3a fb 71 3e 2e c3 86 3e ef 9f 88 3e
       0.17027874 0.23630992 0.26320785 0.2668452
0002e0 e7 70 44 3e a2 63 9b 3e 46 0d 80 3e e5 c9 c0 3d
       0.19183694 0.3034945 0.25010127 0.09413508
0002f0 55 6d 70 3e 43 63 3b 3e f4 c2 01 3e 9a ad 70 3e
       0.23479207 0.18299584 0.12672025 0.23503724
000300 eb fa 1f 3e 47 88 43 3e 2c 79 50 3e d4 ef 31 3e
       0.15623061 0.19094954 0.20358723 0.17376643
000310 6d 02 2b 3e 60 4c 3e 3e df da 4e 3e dc 90 1e 3e
       0.16700144 0.18583822 0.2020068 0.15484947

running_var f4 [200]
000000 a3 b9 52 3e 91 82 81 3e c3 5d b2 3d 21 00 67 3e
       0.20578627 0.25294927 0.0870929 0.22558643
000010 e3 ee be 3e 2e f6 0d 3e 2a af ec 3d 8b 26 f3 3d
       0.3729163 0.13863441 0.115568474 0.11872586
000020 25 07 38 3e ee 34 5c 3e 89 12 31 3e 65 7b 15 3e
       0.17971475 0.21504566 0.17292227 0.14597853
000030 0c 39 d6 3d 20 c8 c6 3d 60 b5 4d 3e 72 f8 1b 3e
       0.104600996 0.097061396 0.2008872 0.15231493
000040 d8 ec 7d 3e 2a d0 e2 3d 70 75 d8 3d 73 8e 35 3e
       0.2479738 0.110748604 0.105692744 0.17730121
000050 18 ce 38 3e f6 68 b4 3d e7 26 1a 3e a4 b7 d3 3d
       0.18047369 0.08809082 0.15053903 0.10337761
000060 5e d3 97 3d 4a 90 56 3e 78 38 09 3e 84 5f 1f 3e
       0.07413362 0.2095348 0.13400447 0.1556378
000070 32 87 d8 3d af 88 a5 3d 27 24 b9 3d fc 47 9a 3d
       0.105726615 0.08082711 0.09040099 0.07533261
000080 0c b0 07 3e a5 94 69 3e f6 43 09 3e c2 99 bd 3d
       0.1325075 0.2281061 0.13404831 0.092578426
000090 d6 5e 26 3e 11 13 6c 3e e6 b2 5e 3e e8 99 6d 3e
       0.16247115 0.23054148 0.21747932 0.23203242
0000a0 96 50 75 3e c7 5c 22 3e bd 64 ab 3d f7 6d 07 3e
       0.23956522 0.15855704 0.08368824 0.13225542
0000b0 fd 94 23 3e 9b 8d 31 3e 8d 28 a3 3d a3 05 73 3e
       0.15974803 0.17339174 0.07966719 0.23732619
0000c0 55 65 d0 3d 19 bc 1b 3e 52 ae 26 3e 0c 8a a2 3d
       0.101755776 0.15208472 0.16277435 0.079364866
0000d0 ae fb 20 3e 3f 64 85 3e 34 92 2e 3e bc 36 16 3e
       0.15721008 0.26053044 0.1704796 0.14669317
0000e0 7b ff 57 3e e4 b3 3e 3e e5 6b 44 3e fd c4 80 3e
       0.21093552 0.1862331 0.19181783 0.2515029
0000f0 98 ab f9 3d 81 34 30 3e 19 d1 48 3e 80 92 b1 3d
       0.12190932 0.17207529 0.19611014 0.08670521
000100 76 1d af 3d 54 85 d3 3e 3f 25 24 3e df b0 d5 3d
       0.08550541 0.4131266 0.16029833 0.10434126
000110 0b 9d fc 3d 75 6d bc 3d 70 59 12 3e 68 be 2c 3e
       0.12334641 0.09200565 0.1429193 0.16869509
000120 73 09 3f 3e 85 c0 d1 3d 06 57 d3 3d 1b 22 01 3e
       0.18655948 0.10241798 0.10319333 0.12610666
000130 96 f3 76 3e a3 aa 19 3e 22 e4 14 3e 5f b5 19 3e
       0.24116358 0.15006499 0.14540151 0.15010594
000140 46 5f 2d 3e 09 b5 b9 3d 02 fe 9e 3d 15 8f 0c 3e
       0.16930875 0.09067733 0.07763292 0.13726456
000150 44 8c ba 3d ca ad da 3d 19 13 e8 3d ef 2d 4d 3e
       0.09108785 0.10677679 0.113317676 0.20037054
000160 45 ad 90 3e 71 ba 04 3e a9 24 73 3e 07 16 c0 3d
       0.28257194 0.12961747 0.23744453 0.093792014
000170 c7 25 30 3e 34 a3 8a 3e f8 51 29 3e 1a 8e 1e 3e
       0.17201911 0.2707764 0.16535175 0.15483895
000180 fe 2d 86 3e 29 93 8e 3e 8b 35 15 3e fb d2 99 3d
       0.26206964 0.2784665 0.14571206 0.075109445
000190 4d 77 13 3e 74 49 ef 3d fa 97 3e 3e 4b 62 d1 3d
       0.14400978 0.11683932 0.18612662 0.10223826
0001a0 5e 8c 05 3e ac 7c bd 3d 9c 75 23 3e 76 ae 02 3e
       0.13041827 0.09252295 0.15962833 0.12761864
0001b0 e2 31 c7 3d f7 47 a6 3d 8d d3 be 3d 9c 71 5d 3e
       0.09726311 0.08119195 0.09317694 0.2162537
0001c0 81 c0 97 3e 89 fa 22 3e d5 ef d6 3d 8e d1 83 3e
       0.29639056 0.15915884 0.10494963 0.25745815
0001d0 7f 88 27 3e 38 f7 18 3e a3 7c 88 3e 43 09 b4 3d
       0.16360663 0.14938056 0.2665759 0.08790829
0001e0 73 d1 93 3e b2 3b d1 3e cd 2d 81 3d 79 90 e6 3d
       0.28870735 0.40865856 0.06307564 0.11258025
0001f0 ed c2 9f 3e f9 39 23 3e 2c 5f 1c 3e 37 83 28 3e
       0.31203404 0.15940084 0.1527068 0.16456304
000200 4c f1 02 3e 63 ba d3 3d 2d 82 00 3e 28 48 d4 3d
       0.1278736 0.10338285 0.12549658 0.10365325
000210 fd a4 89 3e de d9 ab 3d c3 88 3d 3e ae ed 29 3e
       0.2688369 0.08391164 0.18509202 0.16594574
000220 10 5d 05 3e 29 f2 be 3d f6 88 1d 3e ad 3b 12 3e
       0.13023782 0.09323532 0.15384278 0.14280577
000230 35 00 00 3e d9 62 0c 3e f9 f7 aa 3e a6 f1 3b 3e
       0.12500079 0.13709582 0.33392313 0.183539
000240 d1 53 2b 3e e0 cd 12 3e f4 cd 32 3e 84 b9 37 3e
       0.16731192 0.14336348 0.17461377 0.17941862
000250 11 81 08 3e b7 3d 19 3e 94 d7 50 3e c7 48 6d 3e
       0.13330485 0.14964949 0.20394737 0.23172294
000260 aa 79 c1 3d a8 92 d9 3d 03 4a 17 3e f6 b4 2e 3e
       0.09447034 0.106236756 0.14774327 0.17061219
000270 84 f2 98 3d 74 e5 13 3e ab 41 e5 3d 96 e9 9c 3d
       0.07468131 0.14442998 0.11194166 0.076617405
000280 2e 14 da 3d ea 13 b7 3d 46 28 7c 3e 05 8a f0 3d
       0.1064838 0.08939345 0.24624738 0.11745075
000290 be 7d 49 3e ca 4f da 3d ca 25 c2 3d 07 92 a7 3d
       0.19676873 0.1065975 0.09479864 0.081821494
0002a0 30 aa 4d 3e 5d b6 6d 3e d6 75 d4 3d a8 e5 e3 3d
       0.20084453 0.23214097 0.10374038 0.11127788
0002b0 5c 57 d0 3d 4c ac 10 3e e3 62 16 3e b2 84 0e 3e
       0.101729125 0.14128226 0.1468616 0.13917807
0002c0 60 a2 cc 3d 1e 16 30 3e ae e4 a1 3d 3d b6 f2 3d
       0.09991908 0.17195937 0.07904945 0.118511654
0002d0 43 f8 10 3e 9a 3f e3 3d c9 4c 8f 3e 0d 7a 75 3e
       0.14157204 0.110961154 0.2798827 0.2397234
0002e0 4c 24 10 3e 10 9e 49 3e 6a 6e 14 3e ab 93 7c 3d
       0.14076346 0.19689202 0.14495245 0.061664265
0002f0 97 bd 56 3e c8 bb 0b 3e 50 e9 ab 3d 57 46 50 3e
       0.2097076 0.13645852 0.0839411 0.20339333
000300 23 1c 95 3d b1 81 0a 3e 74 24 0f 3e 53 f6 d8 3d
       0.07280757 0.13526036 0.1397875 0.105938576
000310 b4 56 ec 3d 54 12 1f 3e ce 33 6f 3e 45 e9 2f 3e
       0.11539975 0.15534335 0.23359606 0.17178829

weight f4 [100, 200]
000000 b4 6b 2a 3d 3a 8f 7c 3c f1 4e 78 3c ef 1b 13 3d
       0.04160662 0.015415007 0.01515554 0.03591531
000010 05 94 55 3d c9 95 cf bc a3 5e 08 3c 0b 58 e8 3c
       0.052143116 -0.025339978 0.008323344 0.028362295
000020 04 65 0f bd 7d b2 90 3d 30 85 72 bd 82 05 3f 3d
       -0.035008445 0.07065294 -0.05920905 0.046636112
000030 25 e8 86 bd a4 cc 49 3d 22 13 7e 3d 88 05 08 3b
       -0.06587247 0.049267426 0.062029965 0.002075525
000040 72 ae f1 bb d9 0b 2f 3d 9f ad 5b bd 5e 3d 49 bd
       -0.007375532 0.04273591 -0.053632375 -0.04913079
000050 4f 3e 54 bd a8 ef 28 bd cf 5e 28 bc f3 1f b5 bc
       -0.051817235 -0.04124418 -0.01027651 -0.022109961
000060 1b 27 f0 3c cf 4f 9b 3c 6f 4a 9c 3d 05 ca 0a bd
       0.029315522 0.018958954 0.076313846 -0.033884067
000070 88 0b 94 bc 7a f2 68 3d 2f 5c 71 bc 45 eb 82 3d
       -0.018071905 0.05687187 -0.014731451 0.0639253
000080 a6 3f 41 bc d3 c8 07 bb 4e 8f 28 bc 28 3d 1f 3d
       -0.01179496 -0.0020719066 -0.010288073 0.038876683
000090 6b 14 76 3c 54 38 04 bd 4b 23 8d 3d 8e 53 e0 3b
       0.015019516 -0.03228028 0.06891497 0.006845898
0000a0 93 3f 48 bc 5a 8e 1d ba 87 98 0b 3d ba bc 8c 3d
       -0.0122221885 -0.0006010287 0.03408101 0.06871934
0000b0 93 47 6e 3b d6 40 e6 3c 6c 05 6a 3c 93 31 0a bd
       0.003635858 0.028107088 0.014283519 -0.033738684
0000c0 ae f2 7e bc 2a e2 e8 bb de 4d 56 bd 30 d6 9d 3d
       -0.015560789 -0.007107039 -0.052320354 0.07706869
0000d0 7a 34 53 3c 5d c8 ec bc 13 83 1e bc f4 1b 16 bd
       0.012890929 -0.028904134 -0.009674805 -0.036647752
0000e0 aa c4 6f 3d 8b 86 bb 3d ac 2d 46 bd 77 e7 d6 3c
       0.058537163 0.091565214 -0.0483834 0.026233418
0000f0 70 6a 00 3d 83 b0 52 3c 36 80 dc bb f5 14 bf 3b
       0.031351507 0.0128594665 -0.006729151 0.0058313557
000100 f2 c4 89 3c 2f 81 a0 3d fc 81 62 bd a2 ab 09 bb
       0.016817544 0.0783714 -0.055299744 -0.0021006842
000110 b6 91 3f bd a6 67 8d bd 2e 2e 76 3c 44 da 27 3d
       -0.04676982 -0.06904535 0.0150256585 0.04097964
000120 59 2c 54 bd 3c 0e 51 3d 0d 47 74 3d b0 93 e4 bc
       -0.051800106 0.051038966 0.05963807 -0.027902454
000130 f1 0b 32 3c 11 96 35 bd 7c 26 fe 3c e2 1e ba bc
       0.010867105 -0.044332568 0.03102421 -0.022719804
000140 4b 44 e7 bc 3c 4b 3a bd a2 3d 42 bd 13 a7 96 3d
       -0.028230807 -0.045481905 -0.04742206 0.07356086
000150 cf b3 b3 3a 41 5e 5e 3c e2 76 0e bd c7 ed 63 3d
       0.0013710203 0.013572277 -0.034781344 0.055646684
000160 7c 3c 3a bd b7 8e 1f bc dc 0f 49 bd b8 4f 57 bd
       -0.04546784 -0.009738616 -0.04908739 -0.05256626
000170 de 86 28 3d cd fb 3d bd 1a 52 10 bd a9 d6 47 bc
       0.041144244 -0.046382714 -0.03523455 -0.012197175
000180 9a df 23 3c df 09 cc 3c dc 76 55 bd 2d e7 94 3d
       0.010002041 0.02490705 -0.052115306 0.07270656
000190 63 5d f8 bd a7 05 ec 3c b7 c1 a4 3a df b1 79 bc
       -0.12127187 0.028811289 0.0012569939 -0.015240162
0001a0 b8 45 31 3d 52 02 a4 3d bc 7b d6 3c 99 b7 8b bc
       0.04327938 0.08008255 0.026182048 -0.01705532
0001b0 73 49 60 3d a9 75 9f 3d c2 2f 89 3b 9b 58 47 bc
       0.054757547 0.07786114 0.0041866014 -0.012167121
0001c0 fc 30 8b bc b3 3d 99 3d d4 5d 7c 3c d3 6b 32 bc
       -0.016991131 0.07482471 0.01540323 -0.010889965
0001d0 ae 84 6f bd 00 78 1b bd 8d 61 6b 3d c9 3a 29 3c
       -0.058476143 -0.037956238 0.05746608 0.010328957
0001e0 65 65 c9 bb 98 67 0b 3d 62 f7 98 bc 17 59 cb bb
       -0.0061461204 0.03403434 -0.018672649 -0.0062056887
0001f0 c8 db 87 39 53 98 50 3d 84 fb 8c 3d 73 2e 83 3d
       0.00025912956 0.050926518 0.0688391 0.06405344
000200 05 6d 6c 3d df 4e a0 bd c7 c7 02 bd 83 ae 96 3c
       0.057721157 -0.078275435 -0.031928804 0.01839376
000210 8e e9 a9 bd 08 21 9a bc 93 33 25 bd 76 d7 32 3d
       -0.082965 -0.018814579 -0.040332388 0.04366251
000220 78 0f ac 3d 23 69 2b bd d4 7a 9b 3d ae a7 2d 3d
       0.08401388 -0.041848313 0.07591787 0.04239624
000230 49 9e ba bd 5c 58 70 3d 96 36 5a bd 0a da 58 bd
       -0.09112222 0.058678016 -0.053274713 -0.052942313
000240 08 a3 55 bd e4 d2 2a bc e7 b5 ac 3c 19 e5 20 bc
       -0.05215743 -0.010426257 0.021082832 -0.009820246
000250 32 bc 70 bd a0 4d 5b bb 60 3f 6e 3d 84 cc 68 3d
       -0.058773227 -0.0033463016 0.058165908 0.056835666
000260 75 4e 0f 3d 1c 77 20 3c 00 71 2a 3c 22 00 78 bd
       0.03498693 0.009794023 0.010402918 -0.060547
000270 01 1c c5 3c 05 e5 ba bd 7d a9 06 bc 80 da a6 ba
       0.024061205 -0.09125713 -0.00821912 -0.0012729913
000280 0d eb 1c 3d f1 c1 43 3c 5a 52 d1 bc 81 2d 80 3c
       0.0383101 0.011948095 -0.025551964 0.015646698
000290 7b fd 5b bd a4 d2 21 3c 47 27 e0 3c 09 15 9a 3b
       -0.053708535 0.009876881 0.027362479 0.0047022146
0002a0 83 45 ab bb 75 19 74 3d 6c 0f 67 bd fb ba 76 bc
       -0.0052267923 0.05959459 -0.05641119 -0.015059228
0002b0 d4 43 a1 3d 58 09 c8 3c ea 16 31 bb 44 4b fb 3c
       0.07874265 0.024418518 -0.0027021714 0.030675538
0002c0 4f 3b 3e 3d db 26 cf bc 6c e7 de bc ae a4 b0 3c
       0.04644328 -0.025287082 -0.02720996 0.0215629
0002d0 e7 4b 08 3d 9c fd c4 3b c7 a2 39 3d aa de 51 bd
       0.03327551 0.006011678 0.045321252 -0.05123774
0002e0 7e 49 b1 bc 37 27 88 3d 80 3a ab 3c 1e c7 6b 3b
       -0.02164149 0.06648105 0.020901918 0.0035976837
0002f0 a1 d3 f2 3c ca 26 33 bc c5 aa e1 bc 99 47 5b 3c
       0.029641928 -0.010934541 -0.02754725 0.013383769
000300 cf 5f 1f bd fb fd a1 bc 94 26 d7 3c b4 02 a1 3c
       -0.03890973 -0.019774428 0.026263513 0.01965461
000310 52 5c 66 bc 26 d0 29 bd a4 3c 60 bc 1c fa 63 bd
       -0.014060097 -0.04145827 -0.013686333 -0.055658445
000320 5c 85 5a 3d 8d 5d 10 bd 96 4b 5e 3d 1a ef 52 3d
       0.053349838 -0.035245467 0.054271303 0.051497556
000330 7d 71 48 bd 09 fe 40 3d 77 52 8c bd 98 92 43 bc
       -0.048936356 0.047117267 -0.068516664 -0.011936806
000340 2c 06 f5 bc f8 65 90 bd 5c 4b ae 3c 0f 73 c3 bc
       -0.02991017 -0.07050699 0.021276169 -0.023858575
000350 9f f5 6d 3d a2 2e 1b bd e6 eb 1e 3d 38 c5 4d 3d
       0.05809557 -0.03788627 0.03879919 0.05023691
000360 b6 d4 a0 3d 00 d0 10 bd 30 8d 44 bd 13 00 35 bd
       0.078530714 -0.035354614 -0.04798621 -0.044189524
000370 7e 0c 87 3d bd 99 09 bd ec 25 1c bc 08 e4 86 bb
       0.065941796 -0.033593882 -0.009530526 -0.004116539
000380 5c 7a e6 3b f3 99 06 bd 44 0b 88 3d c7 61 33 bd
       0.0070336293 -0.03286166 0.06642774 -0.04379442
000390 a0 45 a1 3d d7 0e 0c bc f1 26 fd bc 53 fe a2 3c
       0.07874608 -0.00854846 -0.030902358 0.019896662
0003a0 77 24 a2 ba 7e 8b 19 bc d6 00 bf bd 98 6c 96 3d
       -0.0012370487 -0.009371636 -0.09326331 0.07344931
0003b0 61 a0 af 3d a5 e0 28 3d 38 fd 97 3d e6 97 28 3d
       0.08575512 0.041229863 0.074213445 0.041160487
0003c0 98 30 54 bc 08 36 03 bc 6f f3 61 bd 16 9a f4 bc
       -0.012951039 -0.0080084875 -0.055163797 -0.02985863
0003d0 42 a8 48 bc 17 ea 9f 3c 72 c5 9f bb bf 1c d1 bc
       -0.012247147 0.019520802 -0.0048758322 -0.025526403
0003e0 f5 a3 1c 3a dc 1c 13 bc 0e 29 db 3a b0 c4 ae 3d
       0.0005975359 -0.008979049 0.0016720609 0.08533609
0003f0 ed bc 6f 3d 12 6c 80 3d 35 bd 0c 3d 99 8f 43 3c
       0.058529783 0.06270613 0.03436013 0.011936092

weight f4 [100]
000000 7e f8 7a 3f 3f c3 76 3f 45 6c 75 3f 18 8e 77 3f
       0.9803542 0.9639167 0.9586833 0.9670119
000010 c9 4c 6a 3f 3c 30 78 3f 19 7e 7a 3f 9b bf 75 3f
       0.91523415 0.969486 0.9784866 0.9599549
000020 68 dd 7e 3f e3 8d 7f 3f 60 03 7a 3f a0 a2 76 3f
       0.9955659 0.99825877 0.976614 0.96341896
000030 96 3e 77 3f e9 52 76 3f 71 d9 79 3f 84 05 7a 3f
       0.96579874 0.9622026 0.97597414 0.97664666
000040 9c 49 79 3f 11 58 80 3f 36 23 80 3f 01 4c 77 3f
       0.97377944 1.0026876 1.0010746 0.9660035
000050 e3 a9 7a 3f a4 ff 76 3f 21 44 79 3f eb 47 71 3f
       0.97915477 0.96483827 0.9736958 0.94250363
000060 b3 d5 73 3f 92 27 78 3f a5 3f 78 3f 06 f1 77 3f
       0.95247954 0.9693538 0.96972114 0.9685215
000070 4e 4f 7d 3f e7 1f 7f 3f 91 ae 71 3f e3 69 73 3f
       0.98949134 0.99658054 0.9440699 0.95083445
000080 1e c3 79 3f d8 9f 7e 3f 29 2a 7d 3f 80 46 7a 3f
       0.9756335 0.9946265 0.98892456 0.97763824
000090 4d 49 7d 3f 19 b6 7b 3f 71 99 69 3f af 37 76 3f
       0.98939973 0.98324734 0.9124976 0.96178716
0000a0 3e 36 7c 3f 48 39 77 3f b5 9f 79 3f 41 a0 7b 3f
       0.98520267 0.9657178 0.9750932 0.98291403
0000b0 9c 2c 78 3f 3f 8b 7a 3f 75 9c 7f 3f 7d 5e 7c 3f
       0.9694307 0.9786872 0.9984811 0.9858168
0000c0 cd b5 7b 3f 20 38 7b 3f af 04 78 3f 2a 83 77 3f
       0.9832428 0.98132515 0.96882147 0.96684515
0000d0 2f 48 70 3f fb 8b 7a 3f c6 53 76 3f b0 7a 6b 3f
       0.93860143 0.97869843 0.9622158 0.9198408
0000e0 cf a8 78 3f ac 8a 73 3f c8 b9 74 3f cb 37 7d 3f
       0.9713258 0.9513347 0.9559598 0.9891326
0000f0 85 9b 74 3f 11 12 76 3f 49 00 7b 3f fe 28 7b 3f
       0.95549804 0.9612132 0.9804731 0.98109424
000100 c8 7f 76 3f ec 9b 78 3f e3 55 75 3f 8e bb 7b 3f
       0.9628873 0.9711292 0.9583418 0.9833306
000110 79 ed 6f 3f fa 61 80 3f 34 11 79 3f ca 00 7c 3f
       0.9372173 1.00299 0.97291875 0.98438704
000120 1d 30 79 3f 70 af 7a 3f 1f 9e 79 3f 65 45 79 3f
       0.9733904 0.97923946 0.975069 0.9737151
000130 65 fb 7b 3f e0 96 77 3f ae 9a 74 3f 16 bf 75 3f
       0.9843047 0.9671459 0.9554852 0.959947
000140 03 0a 79 3f f4 7f 7d 3f 72 b9 7a 3f 1b 57 7a 3f
       0.972809 0.99023366 0.9793922 0.9778916
000150 d5 27 75 3f 69 b1 78 3f 25 8c 77 3f 7a f4 78 3f
       0.95763904 0.97145706 0.9669822 0.9724804
000160 10 c3 7d 3f 72 3c 76 3f ff c1 79 3f 5c 22 7a 3f
       0.99125767 0.9618598 0.9756164 0.9770868
000170 c5 dc 77 3f c4 3a 80 3f 9c ba 7a 3f d0 c3 76 3f
       0.9682124 1.0017934 0.97940993 0.96392536
000180 26 2b 7c 3f 96 b6 76 3f 3a ba 76 3f d7 ca 7d 3f
       0.9850334 0.96372354 0.9637791 0.99137634

bias f4 [100]
000000 81 1c 54 3c 0e 40 e1 3b c1 12 0d bc ae 04 89 3c
       0.012946249 0.006874091 -0.008610428 0.016725864
000010 30 d0 7d bc a2 ac 18 bc 50 48 8f 3c af 46 13 bc
       -0.01549153 -0.009318503 0.017490536 -0.00898902
000020 92 71 97 3c 17 07 9e 3c 2d a9 0b 3c 9f 9c b4 3b
       0.018486772 0.01929049 0.008524221 0.0055118348
000030 25 85 a2 bc df d2 8c bc 65 c8 5d 3c 96 f8 94 bc
       -0.019838879 -0.017190395 0.013536547 -0.018184941
000040 6d e1 9c bc d7 2b 67 3c 6d 88 77 3c b7 1d cf bc
       -0.01915046 0.014109573 0.01510821 -0.025282724
000050 80 4c 25 3c bb b6 82 3c 9b 6e 01 3c 93 78 9e bc
       0.01008904 0.015956273 0.007899906 -0.019344604
000060 fc 58 e9 bb a5 d7 89 bc 42 9d c0 ba c5 ed 63 bb
       -0.0071212035 -0.01682646 -0.0014695304 -0.0034779173
000070 a1 62 71 3c c9 6c 6d 3c 63 fd 70 3b 64 34 a5 bc
       0.014732988 0.014491268 0.0036772124 -0.020166583
000080 f3 70 b3 bc db e1 7a bc e1 9d 80 bc a7 f3 a5 bc
       -0.021904444 -0.015312637 -0.015700283 -0.020257784
000090 9e 65 97 ba 84 18 a7 bb a9 8b 27 bc eb 9b ac bb
       -0.001155067 -0.005099358 -0.010226169 -0.0052676103
0000a0 6e 44 d8 3a c7 0b b0 bc 72 51 be bb 38 3c 26 3c
       0.0016499886 -0.02148999 -0.005808049 0.010146193
0000b0 ba 51 1f 3c 62 7a c1 bc d7 7f c3 3c 37 83 30 bc
       0.009724075 -0.023617927 0.02386467 -0.010773472
0000c0 25 63 48 bb 8f 8e 33 bc ed c9 85 bb 1d dd 9a bc
       -0.0030576673 -0.010959282 -0.0040829093 -0.018904263
0000d0 20 45 00 3c 0e 9a 87 bc c6 97 24 ba a1 39 02 3d
       0.007828981 -0.016552951 -0.00062787195 0.03179324
0000e0 ef bd 89 3c b5 6b a4 bc 17 65 eb bc 7d bd 94 bb
       0.0168142 -0.02007089 -0.028734727 -0.0045391903
0000f0 21 77 ea b9 21 bb b0 3c 7f 78 bd 3c 3a b8 e1 3b
       -0.00044720716 0.021573605 0.023128746 0.0068884166
000100 fa 3e 16 3c b3 5e 18 3c 70 6e 72 bc b9 56 ae 3b
       0.009170288 0.009299922 -0.014796838 0.0053203967
000110 fc 11 05 3c ee 9a 8c bb 48 08 b7 bb 36 a0 6a 3c
       0.008121964 -0.00429093 -0.005585704 0.014320424
000120 82 95 3e 3b eb 6d e6 bb 34 09 7b bb 60 e9 91 3c
       0.0029080813 -0.007032146 -0.0038305046 0.017811477
000130 34 09 8c 3a 4a 0b 45 3c 4b 91 bc b9 71 6c fb 3c
       0.0010683895 0.012026617 -0.00035966406 0.030691357
000140 da 02 bc bc 4d 35 d6 3b 2d f1 d4 3b 4f 86 8c 3c
       -0.022950578 0.0065371157 0.006498477 0.017153887
000150 71 0b b4 3c 95 c4 c1 3b 80 2a 87 bc 29 a7 e3 ba
       0.021978112 0.005913327 -0.016499758 -0.0017368543
000160 53 17 07 3c b6 f5 33 bc 1f 9f 3f bc 83 69 3f 3c
       0.008245307 -0.010983875 -0.011695652 0.011682871
000170 26 19 29 3c 14 82 83 bc fd d1 a4 3c 70 ca 7b 3c
       0.010320937 -0.016053237 0.020119661 0.015368089
000180 50 b8 1c 3b da 68 de 39 6c c3 ef bc 00 a5 88 bc
       0.002391357 0.0004242126 -0.02926799 -0.01668024

running_mean f4 [100]
000000 f0 15 a9 3e d0 f8 ef 3e 1b 5b d5 3e 16 17 14 3f
       0.3302455 0.46869516 0.4167107 0.57847726
000010 2d 17 ed 3e cc 0b 07 3f a2 87 12 3f d1 43 bc 3e
       0.46306744 0.52752376 0.5723821 0.3677049
000020 bb f3 f2 3e 10 01 ea 3e 12 08 02 3f ec 73 de 3e
       0.47451577 0.45703936 0.50793564 0.43447816
000030 1a 66 ac 3e 7c 56 0b 3f 40 fa ff 3e 3f d0 ec 3e
       0.33671647 0.5442884 0.49995613 0.4625263
000040 33 07 d7 3e ad 70 f7 3e d3 98 f8 3e 64 85 f2 3e
       0.4199768 0.48328152 0.48554096 0.47367394
000050 a8 25 cf 3e 64 bf ca 3e bc 9a b9 3e a2 5c e7 3e
       0.40458417 0.39599144 0.36250865 0.4518786
000060 f1 dc 16 3f 0f 1d b1 3e 40 b0 be 3e d9 1b e0 3e
       0.5893088 0.34592482 0.37243843 0.43771246
000070 fc 08 cf 3e 3a 3b 07 3f 9a 04 d9 3e 04 ed 00 3f
       0.40436542 0.5282475 0.42386323 0.5036166
000080 81 71 f8 3e c2 8e c5 3e a3 a8 9d 3e f9 9c de 3e
       0.48524097 0.38585478 0.30792722 0.43479136
000090 eb ca cd 3e bb 97 a5 3e c3 d1 1d 3f 2c e5 07 3f
       0.40193877 0.32342324 0.61648196 0.53084064
0000a0 2f 91 1f 3f 7e 99 a4 3e 80 81 a8 3e e2 62 9b 3e
       0.6233091 0.32148355 0.329113 0.3034888
0000b0 e7 86 b9 3e 0a 25 c1 3e 1b fa 0d 3f d1 63 04 3f
       0.36235735 0.3772357 0.55459756 0.5171481
0000c0 4e e9 fe 3e 72 f4 b4 3e 35 dc f8 3e 70 6b 0a 3f
       0.49787372 0.35342747 0.48605505 0.54070187
0000d0 55 8b 8d 3f 9d 15 a8 3e 3c a2 17 3f 84 bf 2a 3f
       1.1058146 0.3282899 0.59231925 0.6669848
0000e0 21 5a cb 3e e1 25 fa 3e 92 24 16 3f 06 02 b1 3e
       0.397172 0.48857024 0.5864955 0.34571856
0000f0 e8 84 d1 3e 47 3d 0e 3f 91 28 bf 3e 55 ca 07 3f
       0.40921712 0.5556225 0.37335637 0.5304311
000100 fd 30 10 3f 02 05 fa 3e 37 f2 f8 3e d7 0a d3 3e
       0.5632475 0.48831946 0.48622295 0.41219208
000110 a7 f0 09 3f 7d 04 b3 3e e7 98 18 3f 13 66 16 3f
       0.5388283 0.34964362 0.5960831 0.587495
000120 a7 df 35 3f 1d b4 bc 3e 62 f4 25 3f e1 f1 d8 3e
       0.7104439 0.36856166 0.64826024 0.4237204
000130 11 be e6 3e 63 56 0b 3f eb ff ea 3e 55 04 35 3f
       0.45066884 0.5442869 0.45898375 0.70709735
000140 1b ca e3 3e 1f 42 99 3e 0f 43 bd 3e 33 26 fa 3e
       0.44490132 0.2993326 0.36965224 0.4885727
000150 d0 d2 bb 3e 7c 46 d6 3e 29 fc e0 3e f9 0f cc 3e
       0.36684275 0.4185065 0.43942383 0.39855936
000160 ef e3 27 3f de 3a c5 3e cf e3 0e 3f 1d fd 24 3f
       0.65582174 0.38521475 0.5581636 0.6444872
000170 07 da 0b 3f ae 09 e5 3e 86 0a f2 3e b5 c2 ae 3e
       0.5462956 0.44733948 0.47273654 0.34132925
000180 2b 20 8d 3e 19 0a ba 3e 8b fb 14 3f 65 5c 1c 3f
       0.27563605 0.3633583 0.58196324 0.6107848

running_var f4 [100]
000000 4b 4e 6f 3e 86 33 1e 3f 02 36 ba 3e 1e 0a 9b 3f
       0.2336971 0.6179737 0.3636933 1.2112463
000010 87 2e 22 3f 1e a5 84 3f b7 a4 74 3f 08 c7 a5 3e
       0.63352245 1.036289 0.95563835 0.3237841
000020 c5 85 54 3f 2c aa 32 3f 7a 22 1f 3f a1 63 2b 3f
       0.83016616 0.6979091 0.6216198 0.66948897
000030 6a bb ca 3e a0 4c 6e 3f a2 42 36 3f 6e dd 1b 3f
       0.3959611 0.9308567 0.71195424 0.6088475
000040 07 df c0 3e de e7 5c 3f b9 e8 ca 3e 84 04 2e 3f
       0.37670156 0.862913 0.39630678 0.6797564
000050 5f 4d 56 3f d7 36 1d 3f cc ca 95 3e 58 0f 44 3f
       0.8371181 0.61411804 0.29256284 0.7658591
000060 06 1c e2 3e 6c 72 c9 3e 7b ae 89 3f 4b 57 18 3f
       0.44162005 0.3934511 1.0756372 0.595082
000070 7c e9 d1 3e ed 98 a7 3f 11 76 f5 3e 24 32 6a 3f
       0.40998447 1.3093544 0.4794164 0.9148276
000080 f8 3e 4c 3f 48 1d 0b 3f 72 4d d2 3e 01 56 81 3f
       0.7978358 0.54341555 0.4107471 1.0104371
000090 36 d5 19 3f c9 cc 21 3f 33 86 bc 3f b6 9e 56 3f
       0.6009096 0.632031 1.4728454 0.83835924
0000a0 e8 91 0e 3f 70 3d 81 3e 82 ff db 3e 11 4a 87 3e
       0.55691385 0.25242186 0.42968374 0.26423696
0000b0 88 16 b9 3e 7b 8f 7b 3f 2d 56 8b 3f 33 51 0f 3f
       0.36150002 0.9826581 1.0885674 0.55983275
0000c0 3f 4c 55 3f 80 3f b9 3e 7c d9 5b 3f 43 f9 3c 3f
       0.8331947 0.3618126 0.8587873 0.73817843
0000d0 95 e8 eb 3f ea ac aa 3e 69 1b 66 3f 83 a5 b0 3f
       1.8430353 0.33335048 0.89885575 1.380051
0000e0 b9 4f 27 3f cf 99 75 3f d7 50 64 3f 09 d8 0e 3f
       0.6535602 0.9593782 0.8918585 0.55798393
0000f0 30 fc d0 3e c3 a1 6e 3f 66 64 dd 3e 06 13 53 3f
       0.40817404 0.9321558 0.4324066 0.824509
000100 54 02 25 3f 4d d5 35 3f d9 37 42 3f d3 3d 29 3f
       0.6445668 0.71028596 0.75866467 0.6610996
000110 8e 5b 1d 3f 2b 17 c4 3e 11 f2 37 3f c6 e3 2f 3f
       0.61467826 0.38298926 0.7185374 0.6870693
000120 d1 02 8b 3f 31 7d 3e 3f 34 01 be 3f 7c 90 07 3f
       1.0860234 0.74409777 1.4844117 0.5295484
000130 63 01 1a 3f 04 5b 86 3f 46 02 85 3f e2 1b 93 3f
       0.60158366 1.0496526 1.0391319 1.1492884
000140 63 7c da 3e b3 7b 98 3e 52 25 0e 3f c6 2b 2f 3f
       0.42673025 0.29781875 0.55525696 0.6842617
000150 20 aa c8 3e f5 76 0d 3f 8d 61 07 3f 98 43 dc 3e
       0.39192295 0.5525964 0.52883226 0.4302032
000160 77 4e 01 3f 4e e0 c9 3e 34 0b 3b 3f ad db 8d 3f
       0.5051035 0.39428943 0.7306397 1.1082665
000170 ec 4a 37 3f 32 4a 29 3f 58 14 46 3f f4 6c cd 3e
       0.71598697 0.6612884 0.7737479 0.40122187
000180 ac da 60 3e 10 4c a8 3e 62 54 08 3f b4 d3 2b 3f
       0.21958417 0.3287053 0.5325376 0.6711991

weight f4 [1, 100]
000000 6c be d3 bb e0 a0 1c bd d8 ba f3 bb c7 d6 78 bd
       -0.006461909 -0.03823936 -0.007438045 -0.060751703
000010 04 0f 18 bc a2 95 42 3d 6b cd 1c bd df e0 37 bd
       -0.009280924 0.047505982 -0.03828184 -0.04489219
000020 00 9a 95 bd 7b 31 1a bd ff 26 18 3d 81 cf 42 bd
       -0.07304764 -0.037644845 0.037146565 -0.047561172
000030 32 4c de bb e9 a5 2a 3d 30 1b 88 bd b5 f0 61 bd
       -0.0067839855 0.04166213 -0.066458106 -0.055161197
000040 3e ca 87 3d 53 f7 59 bd e3 79 25 bd ff af 2a 3d
       0.066303715 -0.053214382 -0.040399443 0.04167175
000050 7d b0 84 bb 3f 8b 29 3b 7e f7 14 bc be 80 d3 3c
       -0.0040493594 0.002587035 -0.00909221 0.025818225
000060 66 73 02 3d 57 04 34 ba d5 e1 8d 3d 1c d4 30 bc
       0.031848334 -0.0006867102 0.0692784 -0.010792758
000070 97 b9 7e bd f4 17 35 bd 52 7b 0f bc f3 c7 97 bb
       -0.06218871 -0.044212297 -0.008757429 -0.00463199
000080 26 d1 5b 3d 42 c8 41 3d c3 aa b8 3c 8f 85 ed 3c
       0.053666256 0.04731012 0.022542363 0.02899435
000090 7e 60 59 bd 00 d4 35 bd 01 3b 55 bc 7a d5 c3 bc
       -0.053070538 -0.044391632 -0.013014556 -0.023905504
0000a0 84 b1 88 3d 23 37 c0 3b a7 ce 14 3d 03 93 1a bd
       0.066744834 0.005865948 0.03632989 -0.037737858
0000b0 b0 54 a5 bc fd 49 9b 3d 40 ac 96 bd d9 a0 94 3c
       -0.020181984 0.075824715 -0.07357073 0.018143104
0000c0 d9 8f 6f 3d 3c 06 21 3d 28 1a 27 bc 1e 4f 67 3d
       0.058486793 0.039312586 -0.010199107 0.056471936
0000d0 f6 41 aa bc 96 3e 6c 3d a4 3d 8e 3c fa 4d b9 bb
       -0.020783406 0.057676874 0.017363377 -0.0056550475
0000e0 f0 fa b7 3b 3e c9 13 bb a5 3b 5d 3d 27 04 d0 3c
       0.005614631 -0.002255037 0.05401196 0.025392605
0000f0 b7 07 1d bc 9a 87 68 bd 2b 9b 61 bd ba 5c 81 bd
       -0.009584359 -0.056769945 -0.05507962 -0.06316514
000100 54 bf cb 3c f8 35 94 bb bb 8a 81 3c 14 e2 df ba
       0.024871506 -0.004523035 0.015813222 -0.0017080926
000110 0c bf d3 bc 78 d3 24 bd a5 84 95 3c 51 b7 3d bc
       -0.025847934 -0.040240735 0.018251726 -0.011579351
000120 34 07 53 3d 9f ec 14 3d 41 38 92 3d 21 45 5a bd
       0.05152054 0.036358472 0.07139636 -0.053288583
000130 fa 41 79 3d 53 c2 c8 bc 68 68 4e 3d c8 bf 65 3c
       0.060853936 -0.024506724 0.05039254 0.014022775
000140 65 d8 72 3d b3 1b 10 bd bb 76 a3 3b be 42 13 bd
       0.0592884 -0.035182666 0.004988519 -0.035952322
000150 33 cf 9d bc 18 07 d5 3c 55 fd 37 3d be 59 52 3d
       -0.01926384 0.02600436 0.04491933 0.051355116
000160 c3 0f 46 3d 2f 1e da bb df b2 40 bb b9 06 90 bc
       0.048354875 -0.00665643 -0.002940349 -0.01758133
000170 9d 7c 65 3d 40 e7 8b bd 6f f6 01 3c 3d 3e 8c 3a
       0.056027044 -0.06831217 0.0079322895 0.0010699701
000180 10 46 1c bc 96 bd 0d bd 01 f8 66 3a 23 45 21 3c
       -0.009538189 -0.03460463 0.0008810759 0.009843144
