Dry fermentation prediction and optimization system/predictor_digester/Predictor_Digester CH4/models/NeuralNetTorch_BAG_L1/S1F1/net.params (torch, 209927 bytes, 9 tensors)

weight f4 [128, 10]
000000 ec 5f da bc 7b 85 14 3e a5 f8 89 be 15 e5 89 be
       -0.026657067 0.14504044 -0.26947513 -0.26932588
000010 58 56 27 be bd 2d 62 3d 02 d2 12 bd d5 12 8c 3e
       -0.16341531 0.0552194 -0.03584481 0.27358118
000020 c8 74 ae bd 5b db 4f 3d cc bb 14 be 43 43 a3 bd
       -0.08518368 0.050746303 -0.14524764 -0.079718135
000030 1e 33 ad be 02 aa 82 be 70 57 20 be 5b 7c d1 bb
       -0.33828062 -0.2552033 -0.15658355 -0.006392998
000040 ca f2 da 3d fd c2 16 3e f8 34 5d be 85 72 03 be
       0.106908396 0.1472282 -0.21602237 -0.12836654
000050 b4 76 3c 3e f6 8d 80 3e 94 c8 84 3b 9d ca 91 3e
       0.18404657 0.25108308 0.004052231 0.28474894
000060 3a c6 e6 bc 5e fe fd 3c cf 58 91 3e 94 fd 68 be
       -0.028170694 0.03100508 0.28388068 -0.22752982
000070 f0 cf 2c be d5 a2 ab bd 54 57 09 be b1 a5 86 3e
       -0.16876197 -0.08380667 -0.1341222 0.26298288
000080 91 01 82 be ca 59 c4 bd e7 80 46 be a4 cc 97 be
       -0.2539182 -0.095874384 -0.1938511 -0.29648316
000090 ba 59 3d be 4d 16 74 3e 15 0a df 3d 43 77 4a 3e
       -0.18491259 0.23836632 0.10890595 0.19772057
0000a0 e7 c4 53 bd 9c c7 6f be 5d c8 5e 3d 90 2b ae be
       -0.051701453 -0.23415989 0.0543903 -0.3401761
0000b0 57 b8 5f be ba 4e 2b be 25 f0 47 3e 8b 70 38 3e
       -0.21847664 -0.1672925 0.19525202 0.18011682
0000c0 2c ec 10 be 5d 25 ec bb 30 cc 52 3e 6b f5 92 3e
       -0.14152592 -0.0072066025 0.20585704 0.28702864
0000d0 65 88 80 3e 81 31 0d 3d 26 73 65 3e 20 99 4b be
       0.2510406 0.03447104 0.22407207 -0.19882631
0000e0 ee a0 3d 3d a2 b6 64 be ec 25 4d be d9 a1 5b be
       0.046296053 -0.22335294 -0.20033997 -0.21448459
0000f0 97 0a 16 3e 3a a6 51 3e 5d de 8c be 5e b2 a7 3d
       0.14652477 0.20473567 -0.275134 0.08188318
000100 c5 e7 4b 3e 40 1b 36 bd 1e ab f6 3b 17 79 90 3d
       0.19912632 -0.04445958 0.007527723 0.07054346
000110 26 5a 51 3e 16 1a 97 3e 85 4a 59 be 67 da da bd
       0.20444545 0.2951209 -0.21219833 -0.10686188
000120 c6 43 1b 3e e1 cb 80 3e aa 14 8b 3e d7 7f 80 3e
       0.15162572 0.25155547 0.27164203 0.25097534
000130 d4 e1 0e 3d 11 35 87 be 0a bf 98 3d e8 1f 42 be
       0.034883335 -0.26407674 0.07458313 -0.18957484
000140 e8 be 71 be cd c5 88 3e f8 fb 99 3e d9 00 8c be
       -0.23607981 0.2671341 0.3007505 -0.27344397
000150 56 5d fb 3c d8 c0 97 bd 6e 3a 95 bd 4f 1e 17 be
       0.030684154 -0.07409829 -0.07286535 -0.14757656
000160 c8 c0 02 3e 39 02 61 be 35 d3 a3 3d d3 b8 2b 3e
       0.12768853 -0.21973504 0.07999269 0.16769724
000170 2c 06 86 3e 6b 25 94 3d 05 d7 c3 be a3 e8 4f be
       0.26176584 0.072336994 -0.38249984 -0.20303588
000180 35 d6 23 3e 70 81 56 3d 30 bf 3e be 4c 40 86 be
       0.15999682 0.052369535 -0.1862762 -0.2622093
000190 21 99 8c 3e 03 7d 48 3e 41 02 66 be 1e 8e dc bd
       0.27460578 0.19578938 -0.22461797 -0.10769294
0001a0 c7 65 a1 be f9 ed 81 bb 9e 17 72 be 13 ed 6f be
       -0.31522962 -0.003965136 -0.23641822 -0.2343028
0001b0 74 d1 42 3a 0a b3 16 3c f1 b2 57 bd 89 7a 46 3e
       0.00074317236 0.00919796 -0.052660886 0.19382681
0001c0 ad 94 61 be ef fe a2 3e 83 c3 73 3e 44 79 86 be
       -0.22029372 0.31835124 0.2380505 -0.26264393
0001d0 81 f1 98 bd 89 f8 7c 3c f2 31 23 3d ca 71 5a 3d
       -0.07467938 0.015440115 0.039842553 0.053331174
0001e0 2f 2f 32 3e 4c 5c dc 3c 41 f0 46 be 00 2a 2c 3e
       0.17400812 0.02689948 -0.19427587 0.16812897
0001f0 92 c6 8b be fd 4f 47 be 17 e4 b0 bd 63 46 0b be
       -0.27299935 -0.19464107 -0.08637255 -0.13601069
000200 ad 01 ee bd 21 67 99 be 66 f2 28 bc 61 77 a5 3d
       -0.116214134 -0.29961494 -0.010311699 0.0807941
000210 ef 8e 81 be 6d d5 12 3d 0a f9 8d 3e b2 39 32 b9
       -0.25304362 0.03584807 0.27729064 -0.00016996896
000220 a7 74 28 3d 18 07 82 3c dd 82 a3 3d 61 fb 59 3e
       0.041126873 0.015872523 0.079839446 0.212873
000230 5c e4 a6 3e 76 ea 60 3e 47 15 bf 3e 38 cf 08 3c
       0.325961 0.2196444 0.3732092 0.008350186
000240 39 4d 8e be 03 ab 13 be c1 55 62 3e 9f c6 24 bc
       -0.2779329 -0.14420705 0.22103025 -0.010057121
000250 9c 51 27 be 77 24 86 be 3f 95 c1 be ed 7a 9d be
       -0.16339725 -0.26199695 -0.37809178 -0.30757847
000260 30 05 be bd 6d 43 01 3e e0 51 3b 3e 41 20 8d be
       -0.09278333 0.12623377 0.18292952 -0.2756367
000270 b7 09 68 3e 18 4d 8a be fc e7 87 bd fb e9 db bd
       0.22659956 -0.27011943 -0.066360444 -0.107379876
000280 28 2b 23 be 35 ea 0f bd 20 27 90 be e5 b5 b3 be
       -0.15934432 -0.035135467 -0.2815485 -0.35099712
000290 aa af f1 bd 49 f8 cb 3b 55 ea 10 be a2 50 ed 3d
       -0.118010834 0.0062246663 -0.1415189 0.11587645
0002a0 fb e8 83 be a1 7f 81 bd 84 3e aa 3e e0 de f9 bd
       -0.25763687 -0.063231714 0.3325082 -0.12200713
0002b0 5a 58 8f 3e 50 72 22 3e 26 71 82 be 78 88 4b 3e
       0.27997094 0.1586392 -0.2547695 0.19876277
0002c0 d3 d8 1a bd 66 92 fb bd b6 4d 8b 3e 6b 6e 8a be
       -0.037804436 -0.12283783 0.27207726 -0.27037367
0002d0 0f ac b9 3d 64 dd ad bd 17 7c 85 3e 3f 73 38 3e
       0.09066021 -0.084894925 0.26071236 0.18012713
0002e0 17 30 2d 3e c8 b2 bb 3d 37 c2 c4 bd c0 3f 3f bd
       0.16912876 0.09164959 -0.09607356 -0.046691656
0002f0 69 7e 88 be fe 06 52 3e f5 41 94 3e 9f 12 6b 3e
       -0.26658943 0.2051048 0.2895657 0.22956322
000300 43 78 7c be a7 b4 ef 3c c7 90 51 be df f5 36 be
       -0.24655251 0.029260946 -0.20465384 -0.1786723
000310 eb 64 41 be b9 0e d5 3d 25 c3 47 be b3 ea f4 bc
       -0.18886153 0.10403199 -0.19508035 -0.02989707
000320 0d e0 61 bd 43 f2 44 3e bc 30 41 be 03 58 8d be
       -0.055145312 0.1923304 -0.18866247 -0.2760621
000330 26 47 4b be 35 98 42 3e dc 74 14 be 6d 5f 89 3e
       -0.1985136 0.19003375 -0.14497703 0.26830617
000340 65 aa cb 3d 4e 79 8d 3b ec 92 f7 bc 96 48 ca bd
       0.099446096 0.004317439 -0.030221425 -0.09877126
000350 8f 87 3b 3d 4c 26 b1 bd 99 62 7b bb 65 8d 56 3d
       0.045783576 -0.08649883 -0.003835833 0.052380938
000360 1c f8 70 be 95 f0 3a be d8 e2 5d 3e 96 02 a7 be
       -0.23532146 -0.18255837 0.21668565 -0.3261916
000370 11 f2 de 3c 9d 8c b2 3e 4d 03 52 3e 80 ee 6a 3c
       0.027215036 0.34872904 0.20509072 0.014339089
000380 e9 f4 97 be 02 af 3a 3e 52 60 4c be da 39 3d bd
       -0.2967904 0.18230823 -0.19958618 -0.04619775
000390 05 df 8a bd df 06 75 bd 0a 3b ea bc 4d 30 bc 3e
       -0.06780819 -0.059821006 -0.028592605 0.367556
0003a0 8b ae d4 3d f1 75 97 3e f9 68 68 3e eb 5c 38 be
       0.10384854 0.2958217 0.22696294 -0.18004195
0003b0 73 97 25 3e a7 9f 69 be c5 2e 2a be e1 48 c3 3d
       0.16171055 -0.22814809 -0.16619404 0.09535385
0003c0 90 3a ee 3d f1 f4 76 3e 2b 63 14 be c9 84 8f 3c
       0.11632264 0.24116875 -0.14490955 0.017519372
0003d0 88 7a 89 3e 00 b3 9d be ac df 67 3e 49 e6 77 be
       0.26851296 -0.3080063 0.22643918 -0.2420894
0003e0 41 81 f0 bc df 7d da bd f7 c6 f0 bd 5a b4 4d 3d
       -0.029358508 -0.10668539 -0.117566995 0.050220825
0003f0 e8 97 61 3e d3 c1 8a bd 06 d2 52 be a1 2c 06 be
       0.22030604 -0.0677525 -0.2058793 -0.13102962

bias f4 [128]
000000 ad af 85 be 45 96 8c bd fc cf 1c 3d de 8b a4 3d
       -0.26110592 -0.06864599 0.038284287 0.0803449
000010 56 12 16 3e 46 68 17 be 05 2a 95 bd f7 9c 61 3e
       0.14655432 -0.14785871 -0.07283405 0.22032534
000020 18 e9 f9 bd aa d1 6e be 3f 33 68 3e f2 17 61 3e
       -0.12202662 -0.23322168 0.22675799 0.2198179
000030 8f 14 bf bd 2b 00 23 bd f0 b7 81 be c1 af 7f be
       -0.09330093 -0.039795082 -0.25335646 -0.24969389
000040 86 29 e2 3d 25 64 09 be a5 f9 7e 3e e1 8f 79 be
       0.11043076 -0.13417108 0.2489992 -0.24371292
000050 e8 6d 88 bd a6 9d 09 3d eb e9 26 3e a0 83 88 3e
       -0.06661588 0.03359761 0.1630017 0.26662922
000060 6e b6 6a 3e 1a 8c 1b 3e 1d 6f f6 bd 3b bb 73 be
       0.22921154 0.15190163 -0.12032912 -0.23801892
000070 ba 72 9d be 96 be dc 3a 1f 20 9a 3e 9f 79 73 bd
       -0.30751592 0.0016841467 0.3010263 -0.05944216
000080 ee 0b f6 bc e7 7b 83 be c9 b7 92 3d ec b5 5c 3e
       -0.030034985 -0.25680467 0.071639605 0.21553773
000090 67 91 a6 be d2 fd 80 be 12 1c 58 3e 24 a4 44 3d
       -0.32532808 -0.2519365 0.21104458 0.0480081
0000a0 64 17 1c 3d 70 2c 82 3d 9c 80 e3 bc 62 0a 82 be
       0.038108245 0.06356132 -0.027771287 -0.25398546
0000b0 d7 8b 97 be cd 45 42 3e 2c 43 88 bd cc 67 07 be
       -0.29598877 0.1897194 -0.06653437 -0.13223189
0000c0 ef 4a e3 bd 0b a0 44 be 3f 5b 2e bd 60 74 99 be
       -0.11098277 -0.19201677 -0.042567488 -0.299716
0000d0 ec aa 62 3e 39 ff 08 3e c3 af 26 be 1e 61 6c bd
       0.22135514 0.1337861 -0.16277985 -0.057709806
0000e0 80 54 f4 3d fa c0 e2 bd ff 54 90 3d df 94 37 3d
       0.119301796 -0.110719636 0.07047462 0.04481971
0000f0 75 d7 3f be ae 11 29 3d b9 5b 65 3c 1c 1a 85 3e
       -0.18734534 0.041276626 0.013998919 0.25996482
000100 93 da f6 bd 08 81 92 bd 58 2f 85 3e 27 1c 8c be
       -0.120534085 -0.07153517 0.26012683 -0.2736523
000110 41 2c 4a bb c9 16 89 3e c2 94 00 be db 02 ae 3e
       -0.0030849131 0.26775196 -0.12556747 0.33986554
000120 7c 4b 85 3e c8 30 86 3e 73 67 4a bd f3 14 84 3e
       0.26034153 0.26209092 -0.049415063 0.25797233
000130 bb 92 ed bd c7 5e f3 bd 75 4b db 3d 96 38 8f 3d
       -0.11600252 -0.11883312 0.10707752 0.06993215
000140 a6 d6 1d 3e 47 82 97 3e 90 06 60 be 67 01 ff 3d
       0.15413913 0.2959158 -0.21877503 0.12451439
000150 6c 24 dd 3d 65 8e 22 3e 55 c8 39 3e ae 95 1c be
       0.107979625 0.15874632 0.18142827 -0.15291473
000160 48 1a 94 be b4 cf 86 3e 9a 76 4d be 4d 48 69 3e
       -0.289263 0.2633034 -0.20064774 0.22781487
000170 26 a3 a3 be 24 57 93 bd c3 76 85 3a 95 06 ea 3c
       -0.3196041 -0.07194355 0.0010182488 0.028567592
000180 be 18 e2 bb 4d 1e e2 3d 5a 46 42 bd b8 3b 74 3d
       -0.006899922 0.11040936 -0.047430374 0.059627265
000190 7f ea 99 3e af 82 5b be 18 a6 ea bc f5 38 b6 bd
       0.3006172 -0.2143657 -0.028643653 -0.088975824
0001a0 42 50 8d 3e b5 37 84 3e 94 86 95 ba dc 7f 01 be
       0.27600294 0.2582375 -0.0011407905 -0.1264643
0001b0 35 b9 5c be 21 ef 4e 3e 67 06 d4 bb 91 b4 94 3e
       -0.21555026 0.20208408 -0.00647049 0.2904401
0001c0 8b 72 33 3e 64 47 93 3e 0f 35 84 3e fb f9 54 be
       0.17524163 0.28765404 0.2582173 -0.20798485
0001d0 2c 95 e7 3d a2 a8 0a be 2e b5 12 3e 1a f8 01 bc
       0.11307749 -0.13540891 0.14326927 -0.007932687
0001e0 25 d6 71 3d cf 3e 3a be 85 d3 ab be fa be 2f 3e
       0.059042115 -0.18188022 -0.33559814 0.17162696
0001f0 9f 5b 59 3d 80 b9 46 3c 03 be 4b 3e 93 a9 0e be
       0.053065892 0.012129188 0.19896702 -0.13931875

weight f4 [128, 128]
000000 8a b7 83 3c 0f 00 22 bd 44 92 a7 3c c6 e3 12 bd
       0.01607873 -0.039550837 0.020455487 -0.035861753
000010 fa e0 a0 3d 5f 35 09 3e 0f 7a 38 3d 64 5f 26 3c
       0.07855411 0.13399266 0.04503828 0.010154579
000020 48 7b aa 3d 50 75 87 3c ee d7 2e bd a9 e9 f2 3c
       0.08324295 0.016535431 -0.042686395 0.029652433
000030 ab 3a f0 3c 46 f6 8b bd ce aa 04 3d 66 65 16 bd
       0.02932485 -0.06834082 0.032389455 -0.036717795
000040 93 6b b8 bd 25 68 11 3d 0b 60 88 3d c7 3e 5d 3d
       -0.09004893 0.03549971 0.06658944 0.054014947
000050 3b ab 68 bd 15 e3 cb bb 9f fd b8 bc ed 42 bb b9
       -0.056803923 -0.0062221386 -0.022581873 -0.00035717283
000060 e5 a0 96 3d 2e 62 6c bc 2c 92 96 bd 93 6a 92 bd
       0.07354907 -0.014427705 -0.07352099 -0.07149234
000070 47 0f ec bc e0 66 93 bd 19 75 56 bd 36 d6 a4 3d
       -0.028815879 -0.07197356 -0.052357767 0.0804867
000080 06 26 41 bd 6c d8 d4 bc 70 93 89 bc 30 69 a4 bd
       -0.047155403 -0.025982104 -0.016793936 -0.080278754
000090 63 09 9f bc 3d c6 f8 3c 29 fb 2d bd 48 c2 13 bc
       -0.019413656 0.030367965 -0.042475853 -0.009018488
0000a0 5a 7c e4 3b be 0e 2b be 7e ba 78 3d 0a c6 e5 3d
       0.0069728317 -0.16704842 0.060724728 0.112194136
0000b0 40 b6 aa 3d 4a 9a fe bb 6c 10 62 3d c6 42 a7 bd
       0.08335543 -0.0077698575 0.055191442 -0.08167033
0000c0 8d 73 ba bc cb 7e 25 bd 2e 42 21 bd 39 f8 ce 3c
       -0.022760177 -0.040404122 -0.039369754 0.025264846
0000d0 14 eb 80 bc 07 61 16 bd c3 c8 87 bd 64 50 bb bd
       -0.015737094 -0.036713626 -0.06630089 -0.09146193
0000e0 95 11 2a bd 10 03 d3 bd c8 a3 a6 3c da c9 3a 3c
       -0.041520674 -0.103033185 0.020341769 0.011400664
0000f0 89 a5 9d 3d 5c 04 be bc 9b c8 9f 3c 87 20 cf 3c
       0.07697589 -0.023195438 0.019504836 0.025284065
000100 80 cb f6 3d 32 a5 35 3d ad 36 5d bd 5f 26 9c bd
       0.12050533 0.044346996 -0.05400722 -0.07624506
000110 09 aa d3 bd 46 c5 8d bd 30 a8 2b 3d d8 3e 5c 3c
       -0.10335166 -0.069223925 0.041908443 0.0134427175
000120 96 cd b1 3d 5f e4 97 3d 2f 46 6d 3c b2 6d 39 3d
       0.086817905 0.07416605 0.014482065 0.04527063
000130 79 0c a0 3d 69 89 d0 3d c7 ba 0f 3d 07 ea 2c bd
       0.07814879 0.10182459 0.035090234 -0.042215373
000140 8b 16 97 3d 70 23 fd bc 5d 2c be 3c 45 e8 0b 3d
       0.073773466 -0.030900687 0.023214513 0.034157056
000150 72 f6 31 3d 04 63 9c bc 86 66 8e b9 7b c0 4d 3d
       0.04344792 -0.019090183 -0.00027160736 0.05023239
000160 07 d3 5a bd c9 33 f2 bd cf a7 2c 3d 8b 32 da 3c
       -0.053423908 -0.118262835 0.042152222 0.026635429
000170 61 1c 75 3d 3d 0f 84 bd 78 da 2a 3d a8 b8 08 bd
       0.059841517 -0.06448219 0.041712254 -0.033379227
000180 05 54 02 bd 70 f7 b9 3b ac de 42 bd 18 91 84 3d
       -0.03181841 0.005675249 -0.047575638 0.06472987
000190 43 5c f1 3b 0d b0 7a 3d 70 00 5a 3c 2d aa 7c bd
       0.007365735 0.06120305 0.013305768 -0.06168573
0001a0 4f dc 5c bd 72 97 5e bd 91 ad 7b bd 5c da a6 bd
       -0.05392104 -0.05434365 -0.061444823 -0.081471175
0001b0 9a b9 62 3b 80 3f 64 ba 87 47 cf bb 98 a2 07 bd
       0.003459549 -0.0008706972 -0.0063256654 -0.033114046
0001c0 71 ae 84 3d c4 81 e6 3d 20 13 ce 3c 73 f1 14 bd
       0.064785846 0.112552196 0.025155604 -0.036363076
0001d0 e9 15 91 3d d9 07 ac 3d 3c 46 6a bd 8c c9 36 3c
       0.07084257 0.08399934 -0.057195887 0.011156451
0001e0 e0 37 61 3a a3 33 c3 bd 90 3b 3a 3d 83 b6 e2 3c
       0.0008591395 -0.09531333 0.04546696 0.027674919
0001f0 9a 26 90 3d 44 e3 81 bc f9 ed a7 bc 75 4a df bd
       0.07038613 -0.015855439 -0.020499216 -0.109028734
000200 07 c8 72 bd 90 e0 62 3c 0a 71 0e 3d c5 89 15 bc
       -0.059272792 0.013847485 0.03477577 -0.009127085
000210 df 73 48 3d 9d ad 13 bd 66 29 be 3c 35 d6 96 3d
       0.04893863 -0.036054242 0.0232131 0.073650755
000220 f5 ae af bc cd eb ef 3d c6 af 01 bd c6 a1 9a bd
       -0.02144573 0.11714897 -0.03166177 -0.07550387
000230 5f 6d 7b bd 79 ac ad 3d 40 20 cb bc 64 5f 08 bd
       -0.0613836 0.08480162 -0.024795651 -0.033294097
000240 4c b5 76 b8 e3 fb ef 3c 0b ec a4 bc d1 a9 95 3c
       -5.8819816e-05 0.029294914 -0.020132085 0.018269451
000250 c3 97 47 bd 27 c2 4d bd 23 08 9d bd 5b 8e e0 bd
       -0.048728716 -0.050233986 -0.076675676 -0.10964652
000260 ea df b3 bb 51 e1 ed 3b 22 6f 3c bd 62 64 f9 bd
       -0.005489339 0.007259526 -0.046004422 -0.121773496
000270 db 98 9c 3d 85 96 9d bd ef b9 15 bd 62 2b 05 be
       0.07646342 -0.07694725 -0.036554273 -0.1300483
000280 35 3b 69 bd eb 75 07 3d ae d6 b8 bd fe 15 6a bd
       -0.05694123 0.03307144 -0.09025322 -0.05714988
000290 f3 b6 75 3d 9c 75 82 bd a3 9d 2c bd 5b 92 08 bd
       0.059988927 -0.063700885 -0.04214252 -0.0333427
0002a0 e5 59 74 3d 6c c6 c1 bb 54 af c5 b8 a7 9a 4a 3d
       0.059656043 -0.0059135463 -9.4263494e-05 0.049463894
0002b0 e6 85 d2 bc c5 dd 59 3c 6d 39 c8 bd 0e 8c 14 3d
       -0.025698613 0.013297503 -0.09776578 0.03626638
0002c0 3a 93 fe 3c 9e d5 8b bc b4 26 e6 bd 89 d1 5c 3c
       0.031076062 -0.017069634 -0.11237851 0.013477691
0002d0 e0 49 34 3d db f8 7b bd bd dc 6f 3c 9d bc 77 bd
       0.044015765 -0.061516624 0.01464003 -0.06048261
0002e0 0c 67 29 bd e0 7b f6 3a 65 c9 2f 3d 6f 11 20 bd
       -0.04135804 0.0018805228 0.042916674 -0.039079126
0002f0 08 ea c1 bd 50 02 28 bc 63 54 31 3c a4 5a 14 bd
       -0.09468466 -0.010254458 0.010823342 -0.036219254
000300 86 5f 8f bd 97 5c 27 3d e1 d5 fd 3c 89 67 bb bc
       -0.070006415 0.040859785 0.030985774 -0.022876518
000310 95 df b2 3c 6b a1 99 3b 25 ce 91 3c 0d 60 44 b9
       0.021835128 0.004688432 0.017798493 -0.00018727798
000320 34 79 53 bd a1 35 2b 3c 12 5a a0 bb 8e ef 8c 3d
       -0.05162926 0.010449798 -0.0048935497 0.06881629
000330 b6 d2 28 be 92 5f bb 3c 8e 40 c0 bd 47 ef 58 3c
       -0.1648663 0.02287272 -0.09387313 0.013240642
000340 79 fc 1c 3d 18 ec 38 bd bf dd 01 be 45 17 af bb
       0.038326714 -0.04514703 -0.12682246 -0.00534335
000350 56 00 4d 3c 68 35 8d bd 46 0f 98 bd fc 33 a3 3d
       0.012512287 -0.06894952 -0.07424788 0.079688996
000360 73 8c 8b 3d e6 31 bb 3d d8 13 69 3d 4a 88 df 3c
       0.06813898 0.09140377 0.05690369 0.027286667
000370 82 a8 a1 3c 58 18 4f 3d 8f e1 2c bd 90 29 78 bc
       0.019733671 0.050560325 -0.042207297 -0.015146628
000380 fb 35 3e 3d 3a 3c 69 39 bc ca 85 bd 71 fe 99 bd
       0.0464382 0.00022243048 -0.06532809 -0.07519234
000390 63 cd 79 3b bc ab 62 3d 8e 0c 79 3d ad 1c 20 bc
       0.0038116805 0.05533956 0.06080299 -0.009772462
0003a0 ee 81 4e 3d c5 99 ad bd 1c 73 81 bd e5 dd bf bd
       0.05041688 -0.08476595 -0.063207835 -0.09368495
0003b0 e9 06 84 3d d8 dd 1c bd f6 a5 87 bd f9 05 7e bc
       0.064466305 -0.038297504 -0.066234514 -0.015504354
0003c0 0c bd a2 bd ed 49 9f bc 30 35 b6 3b 1f 3f 16 3c
       -0.07946214 -0.01944443 0.0055605397 0.009170323
0003d0 ea 2d 95 bd a8 02 92 bd 06 fb 9c 3b 72 53 b0 3d
       -0.07284148 -0.07129413 0.0047906665 0.08609666
0003e0 f7 f7 22 bc 5d 0e 27 bb 57 13 7c 3b 4d c6 8a 3c
       -0.009946815 -0.002549074 0.0038463676 0.01694026
0003f0 f3 ab b2 bd ae 72 88 bd 9c ce 5f 3c 4a fa 5b 3d
       -0.08724203 -0.066624984 0.013660099 0.05370549

bias f4 [128]
000000 b9 3d 79 bd 58 5d 91 3d ff cd e4 bc 01 76 11 bd
       -0.06084988 0.07097882 -0.027930258 -0.035512928
000010 6e cc 4c 3c 6b 67 87 3d 32 19 8c 3d e4 91 8c 3d
       0.012499912 0.06611522 0.06840743 0.06863764
000020 d5 e5 6c bc 48 6f 0e 3d 02 48 ae 3d 55 84 54 3d
       -0.014459093 0.034774095 0.08509828 0.051884014
000030 7a 5b ae 3d 48 09 a4 3c 54 33 8d bd fe 6b 30 3d
       0.085135415 0.020023957 -0.06894556 0.04307174
000040 9d ec 58 3c fd 41 93 3c dc b8 1a 3d 77 8e 3f 3d
       0.013240007 0.017975802 0.037773952 0.046766724
000050 0a cc 8c bc 93 f4 47 bd 85 35 bf 3d 8b 91 f0 3c
       -0.017187137 -0.04881723 0.0933638 0.029366275
000060 f6 1f 5b 3d ab a5 20 3d a0 94 6e bc db e7 7b bd
       0.053497277 0.039220493 -0.014561802 -0.06150041
000070 e0 86 83 3d 30 29 bc 3d 06 35 a2 3c 9a 8d c0 bc
       0.0642221 0.091875434 0.019800674 -0.02350502
000080 1e d7 23 3d 6f 97 bc bd 27 30 71 3b 7f 2e a8 3d
       0.040000074 -0.09208571 0.0036802383 0.082119934
000090 7a 38 6b bc ef 56 7a bc 52 89 32 3d 7c 57 dc 3b
       -0.014356727 -0.015279516 0.04358799 0.006724296
0000a0 4e b8 7c bb 2e d8 0b 3d bf 7e 77 3b e1 89 80 3c
       -0.0038562003 0.034141712 0.0037764756 0.015690746
0000b0 3c ff f7 3b 62 4a 78 3d 9d d7 ac 3d fc 4d b9 3c
       0.007568268 0.060617812 0.084395625 0.022620194
0000c0 48 93 79 3b 07 fb 7e bd 47 73 0c 3d 08 8d 1e 3d
       0.0038082171 -0.062251117 0.034289625 0.038708717
0000d0 e8 e1 79 bd 1b 74 62 3d 88 31 df 3c 9e 9d 26 bd
       -0.061006457 0.055286508 0.027245298 -0.04067766
0000e0 94 4e d8 bb 8e db 90 bd 02 db 83 3c 91 50 59 3d
       -0.006601164 -0.07073127 0.016095642 0.05305535
0000f0 62 cf 82 bd c0 c5 56 3b 6e 65 af 3d a6 4f 90 3d
       -0.063872114 0.0032771677 0.08564268 0.07046442
000100 ec b1 94 3d 13 5a 58 bd 3c 25 d9 3b ba 2d 4b bd
       0.072604984 -0.052820276 0.006626753 -0.049604155
000110 ce 45 b3 3d a9 69 62 3c 38 b0 7b bd 18 2f 72 bc
       0.087535486 0.013819137 -0.061447352 -0.014781736
000120 21 46 66 3c 69 de 24 3d 0c e9 26 3c a6 6d a0 3a
       0.014054806 0.04025117 0.010187399 0.0012239709
000130 d3 24 94 bd 4a f5 a6 bc bb fa 5b 3d f8 8a 57 3d
       -0.07233586 -0.020380635 0.053705912 0.052622765
000140 54 91 db 3d 7d 59 99 3d 2e ef 5c 3d 67 45 0f bd
       0.107210785 0.07487772 0.053939037 -0.034978297
000150 7b 39 be 3d 05 f1 7b 3d 1a c8 d6 bc 21 29 07 bd
       0.09288307 0.06150915 -0.026218463 -0.032998208
000160 6a 93 33 bd 60 59 40 bd 2f 84 26 3d 7a 8c 17 bd
       -0.043841757 -0.046960235 0.040653404 -0.036999203
000170 9c 18 bb 3d 35 00 42 3d 42 56 64 3c b0 c0 17 3d
       0.09135553 0.04736348 0.013936581 0.037048995
000180 2a aa 28 3d b6 95 8d b9 5e 13 6d bd 3c 01 db bd
       0.041177906 -0.0002700516 -0.057879798 -0.10693595
000190 34 e3 b2 3d f4 05 b1 3d 18 7a 41 bc 13 f5 c7 3d
       0.08734742 0.086437136 -0.011808895 0.09763541
0001a0 ef d2 64 3d b2 cd 8c bd 1a 3f a1 bc 9e c0 82 bd
       0.055865224 -0.06875171 -0.01968341 -0.06384395
0001b0 cd be 7c 3d a0 15 bd 3c c5 c4 75 3d 8c 94 5c 3c
       0.0617054 0.0230816 0.060002107 0.013463151
0001c0 6b 7f c2 3c 2a 54 42 bd e0 b9 82 bd a8 79 86 bc
       0.023742398 -0.047443546 -0.06383109 -0.016415432
0001d0 8a 77 3d 3d d3 6d a2 bc 97 fe ae bb 41 c0 31 bd
       0.04625658 -0.019827759 -0.005340408 -0.04339624
0001e0 cb 74 41 bd 98 cb 38 bd 01 91 c9 3a 6f 2d b9 3d
       -0.047230523 -0.045116037 0.0015378298 0.09041869
0001f0 5c a6 1c bd 57 03 87 bc ac ea 0f bd e6 06 61 bd
       -0.03824459 -0.016481085 -0.03513591 -0.05493822

weight f4 [128, 128]
000000 6f 74 d3 bd c5 99 6d bd a2 b1 bf bc 7a 13 33 bc
       -0.10324942 -0.058007974 -0.023400132 -0.010929937
000010 6a 17 93 bd 62 13 a2 3c b7 e7 8d 3d 46 0c 7b bd
       -0.071822 0.019784633 0.06928962 -0.061291
000020 e3 98 93 3d d6 21 91 bd 2f 22 05 bb 73 69 59 3b
       0.07206895 -0.07086532 -0.0020314564 0.0033174425
000030 c3 22 81 bd a7 a2 06 bd 5a 23 dc 39 15 e1 8e bd
       -0.063054584 -0.03286996 0.0004198801 -0.06976525
000040 5a f0 10 3d df c3 91 bd 68 bc 9b 3d 5e 5d b6 bc
       0.035385467 -0.071174376 0.07604295 -0.022261318
000050 00 c1 1d bd 71 ba 0d bd eb f2 a0 3d 21 a8 57 bd
       -0.038514137 -0.034601633 0.07858833 -0.052650575
000060 3f ae e9 3b b7 f3 89 3d 50 62 91 bd 06 93 ba 3d
       0.0071313675 0.06735938 -0.0709883 0.09110074
000070 0b af 87 bd b1 f7 a1 bd 37 b1 82 3d 23 ea c3 bd
       -0.06625184 -0.079085715 0.06381457 -0.095661424
000080 bb f3 47 bd 66 95 7e bd 2f 4d 27 3d 63 8c d0 3b
       -0.048816424 -0.062154196 0.040845092 0.0063643917
000090 3d a1 a1 3d e6 f5 32 bd 05 8f 60 3c 6a 83 80 3d
       0.07892082 -0.04369154 0.0137059735 0.06275065
0000a0 2c 0c a1 bc 2d 2f 58 bc f5 13 20 bd 83 a4 81 3d
       -0.019659124 -0.013194841 -0.039081533 0.06330206
0000b0 a2 81 11 3d e7 6e 88 bc 42 13 33 bd d1 ca 84 3d
       0.035524018 -0.016654445 -0.043719538 0.06483997
0000c0 81 b4 c8 bd 4a c8 48 3d 6f 97 91 3d 58 59 3a bd
       -0.098000534 0.049019136 0.07108962 -0.04549536
0000d0 52 84 f1 3d f1 9f 06 3d 7d d4 1f 39 3e 0d 32 bd
       0.11792816 0.032867376 0.0001524258 -0.04346966
0000e0 d3 d4 b1 bb aa e7 aa bb bb 24 08 3d 19 6a a0 bd
       -0.005426982 -0.005215605 0.033238154 -0.078327365
0000f0 7f 4f 63 3c 2a 9e e9 3c fb be 1c 3d f2 44 5a bd
       0.013873934 0.028517801 0.03826807 -0.053288408
000100 10 fb fc bc 30 e6 72 3d 7d ff 69 3d a5 f4 a8 3d
       -0.030881435 0.059301555 0.05712842 0.08249787
000110 57 5b 9e bc d2 3e 0d 3d 95 48 cc bb 70 d4 d6 3c
       -0.019330664 0.03448374 -0.0062342384 0.026224345
000120 25 47 19 bc 32 10 60 bd 0f 51 59 3d 6c ec 1c 3d
       -0.009355341 -0.054702945 0.05305582 0.038311407
000130 3a 46 a3 bd 59 fd 3b 3c 62 bc 0b 3d 2f 5c 9f 3d
       -0.07972379 0.011473977 0.034115203 0.077812545
000140 86 01 b0 3d 1f ac 5f bc 86 20 b3 bc 59 a8 11 bc
       0.085940406 -0.013651877 -0.021866094 -0.008890235
000150 6d ae 45 bd 93 06 29 3d 2a c8 b0 3d ed 66 5f 3d
       -0.04826205 0.041266035 0.08631928 0.054541517
000160 3c 20 7d bd 9d 85 ee bd cd 5e 56 bd f9 0a d0 ba
       -0.06179832 -0.116465785 -0.052336503 -0.0015872411
000170 6d d9 98 bc e0 f2 49 bd ee 3d 8a bd 65 c6 93 bd
       -0.018658364 -0.04930389 -0.067500934 -0.07215575
000180 d2 ff 87 bc 44 33 4d bc 7a 51 b9 3d 01 9a 7f bd
       -0.016601477 -0.01252443 0.090487435 -0.06240273
000190 87 f8 b6 3d 7f 18 ef bc cd a0 b6 3d 6a 14 69 bd
       0.089341216 -0.029186485 0.08917389 -0.056904234
0001a0 10 42 12 bd 4b 98 b4 bc 8e 4b c1 3c 5e 99 60 bd
       -0.035707533 -0.022045275 0.023595598 -0.054833762
0001b0 d6 00 f5 ba cb 77 99 bd 57 ad 96 3d 12 60 27 bd
       -0.0018692266 -0.07493552 0.07357281 -0.040863104
0001c0 06 a3 86 bc b5 9d 9d bd 8f 77 40 3d 3f b3 cb 3d
       -0.016435158 -0.07696096 0.04698902 0.09946298
0001d0 bb 02 1e 3d a0 36 1d 3d fe ed 3c 3d 79 e2 98 bb
       0.038576823 0.038382173 0.046125405 -0.0046656695
0001e0 e1 2b 75 bc 77 0a b7 3d 7f 22 55 3c 21 f1 c6 bd
       -0.014964075 0.08937543 0.013008713 -0.097139604
0001f0 93 50 14 3c 53 0a 57 3d 85 72 41 3d f8 a6 96 3d
       0.0090524135 0.05250008 0.047228355 0.073560655
000200 30 32 46 3d 52 87 28 bb 28 f5 84 3d eb e2 7f bd
       0.048387706 -0.0025715423 0.06492072 -0.062472265
000210 f5 c6 c2 ba 05 62 89 3d c2 ed 83 3d 52 02 92 bd
       -0.0014860319 0.06708149 0.06441833 -0.07129349
000220 aa b1 f2 3d 6d bf 84 3c f6 e7 c5 bc e7 44 bb 3a
       0.11850293 0.01620456 -0.02415846 0.0014287502
000230 6f fd c7 3b 87 be 91 bc c0 fa 03 3e 15 74 1f 3c
       0.0061032097 -0.017791046 0.12888622 0.009732266
000240 8e f7 48 3c 1b 61 8e bd 5e 2d 06 3d 28 be 50 3d
       0.012266053 -0.06952115 0.03275811 0.050962597
000250 6d 4d 25 3d ba 46 d2 3d 4a 74 0b bd 19 2d 92 bd
       0.040357042 0.10267396 -0.03404645 -0.07137508
000260 54 a7 9e 3c 7a 14 2e 3d ce 75 60 bc 4d e8 6e 3d
       0.019366898 0.042499997 -0.013699962 0.058327008
000270 f7 58 3f 3d 87 2f ae 3c a5 c1 b0 3d b0 5f 10 bc
       0.046715703 0.021262897 0.08630685 -0.008811876
000280 2e 39 dc bc 11 28 b3 bd 44 43 fd bb 70 9f a1 bd
       -0.026882734 -0.087478764 -0.007728966 -0.078917384
000290 45 eb 61 bd f8 d9 c6 bc 8c 80 86 3d 68 cf 7a bd
       -0.05515601 -0.024273857 0.06567487 -0.061232954
0002a0 be 91 80 3d 59 b1 6a bd 05 d2 a6 bd 8e d1 b1 bc
       0.06277798 -0.05729804 -0.08145527 -0.021706369
0002b0 54 1b ac bd fb 8b 8e 3d 7a fb 9a 3d a9 58 d9 3d
       -0.0840365 0.06960293 0.075674966 0.10612614
0002c0 00 79 70 bd ed 8d b6 bd 05 c5 26 bd 7e 99 41 3d
       -0.058709145 -0.08913789 -0.040715236 0.047265522
0002d0 b1 32 05 3e 0b 42 87 bd 7e 35 28 bd 9f 71 5d 3b
       0.13007618 -0.066043936 -0.04106664 0.0033789647
0002e0 82 9c b7 3d 3c e2 1e bd a6 13 51 3d 75 21 91 3d
       0.08965398 -0.038789973 0.05104413 0.070864595
0002f0 f3 3a 12 bd a1 52 a7 bd d2 41 f2 bc ce 4f bd 3d
       -0.03570075 -0.08170057 -0.029572401 0.09243737
000300 7f 58 b7 bd fb dc 94 3d 62 f6 c8 3d da a1 73 bd
       -0.08952426 0.07268711 0.09812619 -0.059480526
000310 b7 2f 3f bc 62 0f 6e 3d 8c 2b 37 bd 45 57 7c 3d
       -0.011669091 0.05812014 -0.044719264 0.061606664
000320 b9 62 8b bb 68 38 39 bd 24 ef a8 3d ed 2d 39 3c
       -0.004253712 -0.04521981 0.082487375 0.0113024535
000330 51 82 bb bc c3 3d 25 3d 18 49 ce bb f9 68 03 bb
       -0.022889288 0.040342104 -0.0062953345 -0.0020051582
000340 de f4 db bc dd 48 96 bd e3 05 80 bd 17 b2 50 3a
       -0.02685016 -0.07338116 -0.06251123 0.0007961108
000350 aa 37 97 bd 58 69 85 bc fa cd 8e bc dc 02 33 bd
       -0.07383664 -0.016285583 -0.017432202 -0.0437039
000360 13 30 f6 bb e1 22 59 bd 19 81 81 3d 90 b0 92 3d
       -0.007513055 -0.05301178 0.063234515 0.07162583
000370 db 3e 7f 3d 5f 1c cf 3c 0f 84 81 3d e4 51 50 bc
       0.062315803 0.025282083 0.06324016 -0.012714837
000380 47 48 91 ba b9 c3 d3 bd b9 db 0f 3c 2c b4 2e 3d
       -0.0011084162 -0.103400655 0.008780413 0.042652294
000390 38 16 d5 3b 97 c3 00 bd e3 5e 93 bd 35 9c a2 3d
       0.006502893 -0.03143653 -0.071958326 0.079399504
0003a0 74 1f 45 39 0b 61 04 3d 25 84 8e 3b 49 75 77 3d
       0.00018799101 0.03231911 0.004349249 0.060414586
0003b0 d5 44 25 3b 76 6d 9f 3c 53 74 ba bc 11 4f a7 bd
       0.002521803 0.019461375 -0.022760546 -0.081693776
0003c0 03 47 ac 3d c9 d0 8a bd 2b a8 f8 3c 88 9f a5 bd
       0.08411982 -0.06778104 0.030353626 -0.08087069
0003d0 93 d0 16 bd 91 12 89 3c c7 22 c5 3c 35 7d 61 3d
       -0.036820006 0.016732486 0.024064435 0.055051047
0003e0 9d 28 da 3c 40 c7 17 bc 37 19 5b 3d d8 d6 84 3c
       0.026630694 -0.0092638135 0.053490844 0.016215727
0003f0 94 a8 0b 3d 4e c1 e5 ba de 87 05 3c d7 d3 9c 3d
       0.034096316 -0.0017528923 0.008150069 0.07657593

bias f4 [128]
000000 5f e7 2e 3d 97 cd ba 3d ee 7f d3 bc f4 68 a2 3d
       0.04270112 0.091212444 -0.025817838 0.079301745
000010 e8 54 06 bd 66 b1 6f 3d aa 70 bc bd 14 ea 23 3d
       -0.032795817 0.05851879 -0.092011765 0.040018156
000020 4d 85 0f bd cf 1f a1 3d 60 cb d7 3c 39 79 48 bd
       -0.035039235 0.07867395 0.026342094 -0.048943732
000030 14 dd 0e bc cb eb 1f bd 17 d5 7b 3c bf 72 38 bd
       -0.008719701 -0.03904323 0.015370629 -0.045031305
000040 93 3c 95 bc c9 4e 53 bd 03 5f c9 3c cb 0b 91 bd
       -0.01821736 -0.051588807 0.024581438 -0.070823275
000050 0b 83 0c 3d 54 46 90 3d 9c 34 c9 3d f7 1d 8d bd
       0.03430466 0.07044664 0.098244876 -0.06890481
000060 d3 75 5b bc af d3 4d 3d ce 2f b6 3c ad 2f c8 3d
       -0.013394791 0.050250705 0.022239592 0.097747184
000070 ec 6e c1 3c 7b 4c 7e bd 72 d9 20 3c a5 45 de 3d
       0.023612462 -0.062084656 0.009817468 0.108531274
000080 05 a8 9a 3d b5 82 da bc a4 0d 46 bd d2 52 7a 3d
       0.075515784 -0.026673654 -0.048352852 0.06111414
000090 b1 20 1e 3c c1 ea 6a 3d 63 6a 96 bd 36 72 5a bd
       0.009651349 0.057352785 -0.073445104 -0.053331576
0000a0 eb 07 79 bd 51 c1 0f bd 49 6e a5 3d 59 8d 9d 3d
       -0.060798567 -0.03509647 0.08077676 0.076929756
0000b0 4c 01 93 bb 8a 6d 7e bd bd f1 c8 3b 61 89 63 3d
       -0.0044862386 -0.062116183 0.006132333 0.055550937
0000c0 2a af 19 bd b0 7f 87 bc 78 75 ec 3c 9b 80 a4 bc
       -0.037520565 -0.016540378 0.028864607 -0.020080855
0000d0 a7 91 87 3d 8c 81 ad 3d 59 7b af 3c d0 25 43 bd
       0.06619578 0.08471975 0.021421121 -0.047643483
0000e0 b6 7c 02 bc a8 97 61 3d 4f e9 1b bd f8 c5 0a bc
       -0.007964304 0.05507627 -0.038064297 -0.008470051
0000f0 26 cc b5 3d 6d 18 89 3c ae 41 33 3d 02 53 53 3c
       0.08876829 0.01673528 0.04376381 0.012898209
000100 01 5a a2 ba a6 25 0c 3b ac 98 86 3d f4 f1 ab 3d
       -0.0012386442 0.0021384745 0.065720886 0.08395758
000110 50 93 a1 3d d3 47 4f 3d 2b 7a c5 3d 7b 2d 52 bd
       0.07889426 0.050605606 0.09642442 -0.051312905
000120 dd 97 54 3d 8c ad 82 bc 2f dc c5 3c b8 03 db 3d
       0.05190264 -0.015951894 0.024152843 0.10694069
000130 d1 5d f6 bc da 45 94 3c 1d f2 8c 3c 4a 19 71 3d
       -0.030074032 0.018099714 0.017205292 0.05886201
000140 d7 12 0f 3d 3b 21 a3 bd 9c 42 4a 3d 3a be bd bd
       0.034930076 -0.079653226 0.04937993 -0.092647985
000150 2d 15 a3 bc cf d0 a7 bc 73 a1 ee bc aa eb 00 3d
       -0.019907558 -0.02048531 -0.02912972 0.031474747
000160 c3 80 16 bd eb 91 90 bd 67 47 c0 bc 03 1a b9 3c
       -0.03674389 -0.07059082 -0.023471547 0.022595411
000170 ac 80 98 bd 2c 08 23 bd ed a4 27 bd 26 e1 09 bd
       -0.07446417 -0.039802715 -0.04092877 -0.033661984
000180 97 c1 9d bd 7c 18 98 3d d3 f1 82 bd 66 d4 ae 3d
       -0.0770294 0.07426545 -0.063937806 0.085366055
000190 69 65 d7 3d 7a 4b 0d bd c6 a9 45 3d 9f 07 60 3d
       0.10517389 -0.03449581 0.04825761 0.054694768
0001a0 73 27 96 3c 36 5f 3f bd 35 16 a8 3d b2 cb 8b 3d
       0.018329358 -0.04672166 0.08207361 0.06825961
0001b0 1e 7b f8 bc 10 6d a1 3c 17 39 6a 3d c2 c4 c1 bd
       -0.030332144 0.019705325 0.05718335 -0.09461357
0001c0 c8 56 d6 3d bb 58 43 3d cc 28 ae bd 09 6e 25 3d
       0.10465771 0.04769204 -0.08503875 0.04038814
0001d0 65 15 3c 3a e3 99 68 3d 4a 80 8d 39 b0 35 d6 bc
       0.0007174819 0.056787383 0.00026989199 -0.026148647
0001e0 11 fa 98 ba f3 0f b0 bc 5b 92 a6 3d 28 b0 6f bd
       -0.0011671205 -0.02149198 0.08133384 -0.058517605
0001f0 1d 78 09 bc 5e 35 81 bd eb aa 5e bd dd 3f f9 bb
       -0.008390454 -0.06309007 -0.05436222 -0.00760649

weight f4 [128, 128]
000000 94 13 a3 3d dd 2e 8c 3d 2a be 00 bd 30 f5 b1 bd
       0.079627186 0.06844876 -0.031431355 -0.08689344
000010 7a ab fd bb dc 7e f0 3c b3 e5 28 3d 98 e5 ae 3d
       -0.007741389 0.029357366 0.041234683 0.08539885
000020 a1 26 c1 bb 3a 7b cf bc ae 69 66 bd 5f e3 96 bd
       -0.0058944975 -0.025327314 -0.056253128 -0.07367586
000030 a4 9d 02 bd 9b 34 d5 3c 20 f4 8a bd bc 42 aa bd
       -0.03188862 0.02602606 -0.067848444 -0.0831351
000040 37 3d a1 ba 00 5a 99 bd 64 e2 b4 3c 98 fb 6b bd
       -0.0012301569 -0.07487869 0.022080608 -0.057612985
000050 49 18 44 3d 20 60 29 3d b0 79 40 3d 85 0a 57 bb
       0.047874723 0.041351438 0.04699105 -0.0032812667
000060 b7 d4 99 bc c1 88 b5 bb 4a 8a ad bc 7d 2d e5 bc
       -0.018778188 -0.005539984 -0.021184105 -0.027975792
000070 64 d3 83 bd da a7 35 bd 14 26 46 bb ab 51 0c 3d
       -0.06436804 -0.04434953 -0.0030235099 0.034257572
000080 bc 22 be 3d 84 1d b9 3c 9c 47 e3 3c 7b b3 e9 3b
       0.09283969 0.022597082 0.027744107 0.0071319914
000090 0b ef a1 bc 45 bf 27 3d 3a 0d 9d 3b b2 ba 0b 3d
       -0.019767305 0.040953893 0.0047928365 0.034113593
0000a0 f7 fc 6e 3d ed 8c 16 3d 9a d4 8b 3d ff f9 7a bd
       0.058346715 0.03675549 0.0682766 -0.06127357
0000b0 8d 87 04 bd 9a fe 8a bc 3b 90 a1 3d f8 9e 8f bd
       -0.032355834 -0.016967107 0.07888838 -0.07012743
0000c0 47 b6 ab bd a4 17 73 bd f2 ef 78 3d 44 99 72 3d
       -0.08384376 -0.059348717 0.060775705 0.059228197
0000d0 3c 14 a8 bc 92 8e 32 bb a8 38 aa 3d c2 d2 c1 bb
       -0.020517461 -0.0027245623 0.083115876 -0.005915017
0000e0 6f 2c 04 3d bb ab 4b bd ba 3e c8 bd ef 8c 73 bd
       0.032268938 -0.04972432 -0.09777589 -0.059460577
0000f0 1e 45 13 3b 8d fd 32 3d 3b 4f 8a 3d 59 5c 6d 3c
       0.0022471617 0.043698836 0.06753393 0.014487349
000100 aa f0 aa 3d 09 6b 03 3d 22 5c 26 3c f6 4f e4 3d
       0.08346684 0.0320845 0.010153802 0.11148064
000110 1e ea bf 3d 68 90 a1 3d dc 8a 61 3d c1 78 07 3b
       0.09370826 0.078888714 0.055064067 0.002067134
000120 64 c9 3c bd a9 6f 81 bd b6 c0 ae bd 97 3e 9c 3c
       -0.0460905 -0.063201256 -0.085328504 0.019072814
000130 57 c9 e4 bb e8 46 21 3c 4c b9 c0 3c 4b 5c c4 bb
       -0.0069820094 0.0098435655 0.023525856 -0.0059924475
000140 f0 ce 23 3d ed 06 2d 3c 2d 6c 2e bd 60 80 09 3b
       0.039992273 0.010560733 -0.042583633 0.0020981058
000150 7b ce 07 3d a8 d3 db bc ab a2 8a 3c d4 9d a5 bd
       0.0331559 -0.026834324 0.01692327 -0.08086744
000160 a1 83 d2 3d e1 7b 0b 3d 12 85 a0 3d 78 88 8d bd
       0.102790125 0.034053687 0.07837881 -0.06910795
000170 45 4b 76 bd f7 d3 8f bd 94 dd 1c bd 2a c4 3f bb
       -0.060130376 -0.07022851 -0.03829725 -0.002926121
000180 5a 61 5d bd 88 51 b2 3d 0b fc 61 3c a0 0e da 3d
       -0.05404792 0.08706957 0.013793002 0.10647321
000190 66 ee 86 bc 38 87 91 bd 41 21 01 bd b6 d3 91 bd
       -0.0164711 -0.07105869 -0.031525854 -0.07120459
0001a0 19 ac a1 bc 7e 7c ab bd ee 37 1f bd 23 9f c0 3d
       -0.019735383 -0.083733544 -0.038871698 0.09405353
0001b0 10 fa fc 3c 67 9e 9b 3c 71 87 df bd f4 db 6e 3b
       0.030880958 0.01899643 -0.10914505 0.003644702
0001c0 4c 5c 3a bd 5b c6 06 bd 1b 84 98 bc 54 a0 66 bd
       -0.045498177 -0.03290401 -0.01861768 -0.056305245
0001d0 b8 ec ab bc c7 e8 63 bd 0e a2 56 3d ca 2c 15 bd
       -0.0209869 -0.055641916 0.05240064 -0.036419667
0001e0 2b d6 71 bb 6f 30 09 3d 1a 15 be 3d 14 48 46 bd
       -0.0036901336 0.033493455 0.092813686 -0.048408583
0001f0 d7 b7 ab bb 0a 84 7b bd f2 a6 96 bc 9f 90 ab bd
       -0.0052404213 -0.06140522 -0.018390153 -0.08377194
000200 c2 5b 87 bd 78 7f 6d bd 1b 89 9c bd 73 93 a8 3c
       -0.06609298 -0.05798289 -0.07643338 0.020578122
000210 33 42 82 bd cb 82 4f bc b1 88 e4 3c e0 dd 21 bd
       -0.06360283 -0.012665461 0.02789721 -0.039518237
000220 93 8c 0b bd 8d 3d 99 3c df bf be 3c b1 b9 2b bd
       -0.03406961 0.018706108 0.02328485 -0.041925136
000230 5b 26 36 3c d0 4c a2 bd 05 cf ba bc fe 5d a9 bc
       0.011117543 -0.07924807 -0.022803793 -0.020674702
000240 96 c6 83 3d e7 e6 3f 3d c5 2c 6b bd 8d 5e c3 3c
       0.06434362 0.046851065 -0.057415742 0.023848796
000250 6d d1 1a 3d 70 30 10 bd 33 0f 79 3d 5a ac ad 3d
       0.03779738 -0.035202444 0.06080551 0.08480139
000260 f4 ae 3b 38 e6 ad 83 bc ca c4 e5 3c 3f a8 01 bd
       4.4747212e-05 -0.016074132 0.028047938 -0.031654593
000270 1f 32 14 3d 81 5c b8 bc 7d 63 4a bd db d4 a3 bd
       0.03618061 -0.022505047 -0.049411286 -0.07999583
000280 8c 1c 0c 3d 98 b0 4d bd 37 09 41 bd cf 65 bd 3d
       0.034206912 -0.05021724 -0.04712793 0.09247934
000290 c4 d6 b5 3c 17 51 9b 3d cb c9 9b bd 3a 18 1d bd
       0.022197135 0.07583826 -0.07606848 -0.038353182
0002a0 e9 4b 73 3d 0c 57 87 3c 4d d0 c1 3b 5b 26 73 3d
       0.059398565 0.016521 0.005914724 0.05936275
0002b0 33 f1 00 bd 9f ae d7 bc 38 65 a4 bd cf 5c ad bd
       -0.031480026 -0.026328383 -0.080271184 -0.084649675
0002c0 9b 52 bf 3c 66 68 38 bd f7 78 60 bd 48 78 fd 3b
       0.023354819 -0.045021437 -0.05480286 0.007735286
0002d0 5a b7 b2 3d 0c 9d 6f 3b e4 c9 5b bd 7e eb fd bd
       0.08726378 0.0036562113 -0.053659335 -0.12398432
0002e0 7b 49 2d 3d 68 d8 c3 3c b2 6d df bc a0 04 0b bd
       0.042306405 0.023906901 -0.027273986 -0.033939958
0002f0 99 d2 8a 3d d2 fb a2 bd d1 c7 28 bd 26 55 a9 3d
       0.067784496 -0.07958187 -0.041206185 0.08268194
000300 bc bb a3 3d a1 d6 a7 3d 24 bf 52 3d 81 7f 93 bc
       0.07994792 0.08195234 0.051451817 -0.018005135
000310 a3 c6 9b 3d 6f 2f 0e bd 50 96 fd ba 54 96 66 bd
       0.07606246 -0.034713205 -0.0019347165 -0.056295708
000320 9d b5 bc bd 45 53 3c 3d 35 b3 e5 bc 64 7f 99 3d
       -0.092143275 0.04597785 -0.028039554 0.07495001
000330 fb b9 8e bd e9 e5 af 3d 2d 3b a9 3d 77 da df bb
       -0.06969067 0.08588774 0.0826324 -0.006831463
000340 d8 71 65 3d 13 63 6e 3d 8c 55 7c 3c 65 14 38 bd
       0.056016773 0.058199953 0.015401255 -0.044941325
000350 dc 10 4d 3c a8 21 84 3d b1 de 8f 3d 8c 89 47 3d
       0.012516227 0.06451732 0.07024897 0.04871516
000360 a1 6b 87 3d e0 74 05 3d 1c 51 80 3c a3 06 7c bc
       0.066123255 0.032582164 0.015663676 -0.015382442
000370 29 11 5b bd 43 0c ab bd 5d f6 2d bd e6 a6 be 3d
       -0.053483162 -0.08351948 -0.04247128 0.09309177
000380 6a 7b 30 bd 5f 64 e4 3d 3a dd e5 bc cf 7f bb 3d
       -0.043086447 0.11151957 -0.02805959 0.09155237
000390 a6 80 6d 3d 31 2d 8d bd 61 ca 9e bc fc 9b 87 bd
       0.057984017 -0.06893385 -0.019383611 -0.066215485
0003a0 a3 03 0d 3d 4e 4c b5 bc 31 94 b5 3d 6c 99 61 3d
       0.034427296 -0.022131111 0.08866156 0.055077955
0003b0 f8 15 d7 3c 5d 9f 2f bd 0b 22 c9 bc 09 c3 95 bd
       0.026255593 -0.04287659 -0.024552366 -0.07312591
0003c0 8e d6 7e 3d 4a b5 30 bd f2 82 4c 3d f4 fa 22 bd
       0.062216334 -0.04314164 0.049929567 -0.03979011
0003d0 bd 20 b3 3b 1b af 7e 3d d9 bf 8b bd a0 ae c1 3c
       0.005466549 0.062178712 -0.068237014 0.023642838
0003e0 0e fc 9a 3d 16 37 c6 bc 06 71 4f bd 74 a1 b8 3d
       0.07567607 -0.024196189 -0.050644897 0.0901517
0003f0 10 46 5c 3d f7 2e 13 bd dc 18 30 3d 82 83 4e bd
       0.053777754 -0.03593346 0.042992458 -0.050418384

bias f4 [128]
000000 8f 17 0a bb f2 8a a7 3d 26 1d ae 3d 06 b0 15 bd
       -0.002107117 0.081807986 0.085016534 -0.036544822
000010 b2 2f 4e 3d d2 2d a0 3d bd f2 8c bd a6 4e 00 3b
       0.050338455 0.078212395 -0.06882236 0.0019578128
000020 a9 0f 9a 3d 30 ab 9f 3d 0b b4 ae 3c 36 a4 8f ba
       0.07522518 0.07796323 0.021326086 -0.0010958973
000030 0c 1f a2 3d 3e 9e 8b 3c de 77 e0 bc 18 e7 f4 3c
       0.07916078 0.01704323 -0.027400907 0.02989535
000040 b9 68 73 3d 0d c6 93 3d 38 b3 95 bb 04 ca 92 3c
       0.059426043 0.072155096 -0.0045684837 0.017918594
000050 8b 21 e3 3c 11 e6 25 3d 77 d9 60 bd bd 1c 83 bc
       0.027725955 0.04050261 -0.05489489 -0.016004914
000060 68 d6 b7 3d a8 16 5d bd 4b e1 e5 3d b7 f7 ce 3d
       0.089764416 -0.053976685 0.11224612 0.101058416
000070 6a d8 46 3d 12 02 03 bc 5e 38 64 3d d7 f8 e9 3d
       0.048546232 -0.007996099 0.05571782 0.114244156
000080 aa c3 a5 3d bc f8 2d bd b0 b3 ce 3d 20 8d 80 ba
       0.080939606 -0.04247354 0.100928664 -0.0009807684
000090 c6 0b 32 3d 73 dc 8c 3d 77 cc 9c bd 9f a2 ae 3d
       0.04346826 0.06877985 -0.07656186 0.08527111
0000a0 ed 40 bb 3d b3 4e a6 3d 27 10 77 bd 6f 3d ed 3d
       0.09143243 0.081204794 -0.06031814 0.11583983
0000b0 da 37 8f bd 2b 05 db bc 76 d0 be bc 14 45 a6 3d
       -0.06993075 -0.026735863 -0.023292761 0.08118644
0000c0 28 01 b8 bc cb b9 5c 3b 8f 1f 78 bd 06 d5 d5 3c
       -0.022461489 0.0033680077 -0.06057697 0.026102554
0000d0 4e 67 04 3d c8 e2 b7 bd b0 d7 32 3d 86 82 67 bc
       0.03232508 -0.08978802 0.043662727 -0.01413024
0000e0 d8 c1 d8 3d 1e 42 0e bd 42 70 49 bd 77 19 3e bc
       0.10583848 -0.034731023 -0.049179323 -0.011602751
0000f0 5a 40 2a 3d 40 4f 61 3d 50 a0 7f 3d 0d 14 0c bd
       0.041565277 0.05500722 0.062408745 -0.03419881
000100 fb 22 e8 bb b1 cd 96 ba eb 08 e6 3d f4 01 a9 bc
       -0.007084248 -0.0011505393 0.1123217 -0.020630814
000110 63 34 8a 3c 48 e9 b0 3d b4 57 64 bd d7 29 d8 3d
       0.016870683 0.08638245 -0.055747703 0.10554855
000120 a6 01 2c bc 83 e6 10 bb 3d 2e 77 3d b3 ab 82 bb
       -0.01049844 -0.0022110052 0.06034683 -0.0039877533
000130 2d be 94 3c 34 b6 7b bc 37 f6 4d 3d cc 37 f4 3c
       0.01815709 -0.015363265 0.050283637 0.029811762
000140 f9 65 24 bc 79 fe d5 bc 07 6c e2 3c bf 96 4b 3d
       -0.010034078 -0.026122319 0.027639402 0.04970431
000150 8b 18 f4 3c ad 93 ad 3d c8 9e 23 3b 9d ae 37 3d
       0.02979686 0.084754325 0.0024966467 0.04484426
000160 29 b0 e2 bc 21 c5 bb 3c ed 47 22 3d 82 6a 45 bb
       -0.02767189 0.022921147 0.039619375 -0.0030123298
000170 28 ed 9b bc 49 36 c8 3c 13 f1 c2 3d ca 63 46 bd
       -0.019033983 0.024439948 0.095186375 -0.04843501
000180 ec 24 a5 bd ed 4b e3 3c 4b 1d 18 bd 73 b6 1b bd
       -0.08063683 0.027746165 -0.03713731 -0.038015794
000190 29 ac af 3d 7c 5a 31 bd 00 75 3b 3d 2e 10 ac 3d
       0.08577759 -0.043299183 0.045765877 0.084015235
0001a0 3a 64 bf 3d 2b ba 2f bd f9 47 d8 ba 55 a3 63 3d
       0.093452886 -0.042902153 -0.0016500942 0.055575687
0001b0 7b 57 a5 bd 1d 4d d3 3d 6e b3 69 bc 48 89 95 bc
       -0.08073326 0.103174426 -0.014263971 -0.018253937
0001c0 eb 72 ac 3d d2 6a aa bd c7 74 f4 3d 15 51 69 bc
       0.08420356 -0.083211556 0.11936336 -0.014240523
0001d0 e5 3e 08 bd ec a4 d1 3d 54 06 1a 3d e1 4f 69 bd
       -0.033263106 0.102365345 0.03760369 -0.056960944
0001e0 cc 71 be bc a1 19 a3 3c 98 00 7d 3d d7 25 1d 3a
       -0.023247622 0.019909682 0.061768144 0.0005994713
0001f0 5e 2c 89 3d d5 45 85 3d 1a 63 d2 3c 2a a4 68 bd
       0.066979155 0.0650746 0.025682021 -0.056797184

weight f4 [1, 128]
000000 1e 2b ad bd bb 52 14 3d 07 7d b4 bd 04 63 05 bd
       -0.084554896 0.03621171 -0.088129096 -0.03256513
000010 0d cc b1 bd 84 96 41 3d 57 01 9c 3d ab 18 47 3d
       -0.08681498 0.047262684 0.07617443 0.04860751
000020 83 fd d9 bd 13 94 b2 bd b1 b6 c6 3b 14 41 4e bd
       -0.10644057 -0.08719649 0.006064259 -0.050355032
000030 58 d3 28 bd 15 b0 d5 3d 5d df 96 3b c8 7a 9c bd
       -0.041217178 0.104339756 0.0046042637 -0.07640606
000040 dc 7e 78 3d 1f 9d aa 3d 23 f6 14 bd ac bb ce 3d
       0.060667858 0.0833075 -0.036367547 0.10094389
000050 ec 66 93 3c f8 20 a3 3d 4e c8 8b bd 9a 57 4c 3d
       0.017993413 0.07965273 -0.068253145 0.04988823
000060 f7 c0 50 bd 76 f7 4e bc 2e ba 9e 3d 83 32 96 3c
       -0.050965276 -0.0126322415 0.07750355 0.018334633
000070 2a 3d b8 3d d7 ca fe 3b 1d 1c a5 bd bf 01 a3 3c
       0.08996041 0.0077756452 -0.08062003 0.019898294
000080 94 8e c4 bd 62 13 3b bd 9b 1a a6 3d 54 a9 ad 3d
       -0.09597507 -0.04567278 0.08110543 0.084795624
000090 bf 91 a4 bd 56 f5 a1 bd 6c 2f 33 bd 08 a2 98 bd
       -0.08035611 -0.07908122 -0.043746397 -0.0745278
0000a0 7c b4 45 3d c5 e0 b1 3d 05 f0 a2 bd 42 88 eb 3c
       0.048267826 0.086854495 -0.07955936 0.028751496
0000b0 07 5b be bd 72 02 1b 3d 66 e6 39 bd d1 34 a5 3c
       -0.09294706 0.03784413 -0.04538574 0.020166786
0000c0 00 2f 97 3d 9b 27 aa 3d b5 ca 44 bc 0d 71 37 3d
       0.073820114 0.083083354 -0.01201122 0.044785548
0000d0 12 43 7c 3c 9a 93 9e 3b 5e 0e 05 bd a4 b2 62 bd
       0.01539685 0.004839373 -0.032484405 -0.055346146
0000e0 88 f4 bd 3d ce 4d ea 3c fc 66 f7 bc 50 bb 98 bd
       0.09275156 0.028601553 -0.030200474 -0.07457602
0000f0 02 f2 b4 bd 62 76 15 bc 76 c8 a5 3c f6 44 31 bd
       -0.08835222 -0.009122463 0.020237189 -0.043278657
000100 12 6f ce 3d b0 9a 35 3d 10 52 8a 3d d5 80 cc bd
       0.10079779 0.044336975 0.067539334 -0.0998551
000110 ab 79 f8 bc db a1 b4 3d a0 90 1b 3d fc 09 35 3d
       -0.030331453 0.08819934 0.037979722 0.044198975
000120 80 81 fc bc c0 14 3d 3c 22 b2 1a 3d 8b ef 3b 3c
       -0.03082347 0.011540592 0.037767537 0.011470686
000130 d8 a2 e1 3c e3 4b 30 3d db 9a 9a 3c f3 b2 2f 3d
       0.02754347 0.04304112 0.018872669 0.04289527
000140 a3 9c b0 3c 85 4f d8 bd eb ad 43 bd c0 25 ad 3d
       0.021559065 -0.10562042 -0.047773283 0.08454466
000150 ed 5e 95 bd a2 83 a1 3c 20 95 3d 3d 7d df b9 bd
       -0.07293496 0.019716088 0.046284795 -0.0907583
000160 e3 80 ba bd 7c 97 76 bc 9a 0d cb 3d 1b ff 81 3d
       -0.091066144 -0.015050765 0.09914704 0.06347486
000170 3d 89 40 bc d3 e4 cc bd 4d c8 58 bd 21 6e 57 3c
       -0.01175147 -0.10004582 -0.052925397 0.013148815
000180 66 9f 20 ba 73 84 b4 bd d3 b9 9c bd eb fb 6c 3d
       -0.0006127268 -0.08814325 -0.07652631 0.057857435
000190 cc 7f 84 bd 0d f1 8f 3d 17 73 86 3d 79 42 30 bd
       -0.06469688 0.07028399 0.065649204 -0.043032143
0001a0 35 ef 80 3d f1 4d d2 bd 56 16 fb bb ed 8d 47 3c
       0.06295625 -0.102687724 -0.0076625748 0.012179834
0001b0 8b 25 56 bd 6c 3b a9 3d 99 f0 15 bd f1 ee ac 3d
       -0.052281898 0.08263287 -0.036606405 0.08444012
0001c0 83 33 9e bd 04 56 30 bd 7e 33 2f 3d 20 db 70 3c
       -0.07724669 -0.04305078 0.042773716 0.014700681
0001d0 40 6b c2 bc 33 be e8 bd 64 12 60 bd 2b fc 69 bc
       -0.023732781 -0.113644026 -0.05470504 -0.014281313
0001e0 4f eb c4 3d 9b 85 c4 3d 36 7f af bc 99 92 93 3d
       0.09615194 0.09595796 -0.021422964 0.07205696
0001f0 90 e6 ae bd 56 bb 17 bd 61 e6 b7 bc 44 40 cf bc
       -0.0854007 -0.03704389 -0.02244872 -0.025299199
