Dry fermentation prediction and optimization system/optimize_digester/Predictor_Digester Biogas Production/models/NeuralNetTorch_BAG_L1/S1F2/net.params (torch, 207367 bytes, 9 tensors)

weight f4 [128, 5]
000000 71 75 92 3c ae 5f 5b 3e b6 36 c5 be d1 6a aa be
       0.017878266 0.21423218 -0.38518304 -0.3328462
000010 e5 31 34 be 53 f8 f5 3d c2 dc 88 3c 05 ae 10 3f
       -0.17597158 0.12010255 0.016706828 0.5651553
000020 8b cc 05 bd 66 5e 00 3e ab 72 84 bd 28 c0 02 be
       -0.03266577 0.1253601 -0.06467184 -0.12768614
000030 bf ed c9 be ea 9d 9a be 57 b8 42 be 6b c6 5b bd
       -0.39439198 -0.30198604 -0.19015633 -0.053656023
000040 9a 91 65 3e 0a fd a3 3e bf 67 8d be b8 c4 2b be
       0.22418824 0.3202899 -0.27618214 -0.16774261
000050 60 58 58 3e 8a 46 f9 3e 51 b7 fd bd 76 3d a7 3e
       0.21127462 0.4868663 -0.123884805 0.32664078
000060 10 0a a4 bd 32 e5 7e 3d 08 8b bb 3e db 6a e0 be
       -0.08009732 0.062230296 0.3662951 -0.43831524
000070 7f 89 93 be 38 6e f5 bd 34 b0 30 be 2a e1 be 3e
       -0.2881584 -0.11983913 -0.17254716 0.37281162
000080 40 3b af be 0d 61 4c be 55 c1 9c be ac c3 d3 be
       -0.34224892 -0.19958897 -0.3061625 -0.41360223
000090 48 b7 8e be 0a 90 e9 3e e1 80 2a 3e 09 1d 3c 3e
       -0.27874207 0.45617706 0.16650726 0.18370451
0000a0 7a a6 f9 3c b6 36 86 be a3 15 68 3d 68 bb d4 be
       0.03047489 -0.26213616 0.05666126 -0.4154923
0000b0 a9 63 a4 be a8 9c a6 be 71 9f 8e 3e a6 04 ab 3e
       -0.32107285 -0.32541394 0.2785602 0.33401984
0000c0 03 8c 43 be 59 95 0f bc f7 16 c0 3e 05 55 fe 3e
       -0.19096379 -0.008763635 0.3751752 0.4967424
0000d0 7d d8 7d 3e ae c8 d9 3c d0 33 88 3e ab 31 65 be
       0.24789615 0.02658495 0.2660203 -0.22382228
0000e0 bb 95 8b 3d 63 87 b3 be dc a9 9c be a5 7f 68 be
       0.06815668 -0.3506423 -0.30598342 -0.22704943
0000f0 d7 ba 8b 3e 67 7e 92 3e e1 49 99 be e1 1e c7 3d
       0.27290985 0.28612062 -0.29939178 0.097226866
000100 81 9c 54 3e bc 06 3e 3c 6f 05 8d 3c 24 87 eb 3d
       0.20762827 0.011598285 0.017214505 0.115003854
000110 d1 8b 71 3e 12 95 c6 3e f9 56 b0 be 6c 55 3d be
       0.23588492 0.38785607 -0.34441355 -0.18489617
000120 ab c0 23 3e 47 62 a7 3e 27 ec b0 3e a7 7b d7 3e
       0.15991466 0.32692167 0.3455517 0.42086527
000130 35 39 81 3d d4 bb e3 be 8a 69 3c 3d 4c c2 8c be
       0.063097395 -0.4447924 0.045999087 -0.27491987
000140 24 6d e7 be e8 36 ce 3e 3d c2 a6 3e 22 ca e5 be
       -0.45200455 0.40276265 0.32570067 -0.44880778
000150 db e5 a5 3d b1 21 a8 bd 38 26 a0 bd 7e 02 a2 be
       0.08100482 -0.08209551 -0.0781979 -0.31642526
000160 cf 4e 3b 3e 63 05 82 be 97 8f 16 3e 07 64 89 3e
       0.18291782 -0.25394735 0.14703213 0.26834127
000170 64 ea c7 3e b5 c5 4f 3e f8 59 d0 be c0 3f 98 be
       0.39046013 0.20290263 -0.4069364 -0.29736137
000180 2a b6 56 3e d1 b0 0f 3e d9 dd aa be f5 30 78 be
       0.20967928 0.14032294 -0.3337238 -0.24237426
000190 5a 7a f0 3e cd c5 96 3e 6a 25 47 be dc de d3 bd
       0.46968347 0.29447785 -0.19447866 -0.103452414
0001a0 22 75 d5 be 60 77 30 bd 3a f1 a1 be f2 fc c5 be
       -0.41690928 -0.043082595 -0.31629354 -0.38669544
0001b0 3c 9d 53 bd a3 59 24 3d 30 ba 05 be e8 ed a6 3e
       -0.051663622 0.040124547 -0.13059306 0.32603383
0001c0 a1 9d cd be d5 3a ba 3e b4 61 87 3e dd 4a e4 be
       -0.40159324 0.3637301 0.2644173 -0.44588366
0001d0 cb 99 e9 bd 25 52 80 bc 7d 2c 2b 3d ee 2e a9 3d
       -0.11406287 -0.01566417 0.041790474 0.08260904
0001e0 79 f4 49 3e 9b 98 61 bc 5f 87 77 be 24 87 51 3e
       0.19722165 -0.013769294 -0.24172734 0.20461708
0001f0 c3 39 df be cc e4 8c be da 85 26 be 5a 74 85 be
       -0.43598756 -0.27518308 -0.16261998 -0.26065332
000200 35 5b 15 be 35 3f b6 be 29 c8 bc bd 64 64 f3 3d
       -0.14585574 -0.35595098 -0.09217865 0.11884382
000210 85 1b bf be 7f 92 68 bd 09 97 92 3e d3 22 a0 bc
       -0.37325683 -0.056780335 0.28630856 -0.019547855
000220 0e 9a 4d 3d 72 5f fa bd 0c 19 8a 3d 5f c6 85 3e
       0.050195746 -0.12225236 0.067430586 0.26127908
000230 ae 99 ed 3e 9e e6 7e 3e c3 4d cd 3e 37 d4 13 bd
       0.4640631 0.24892661 0.4009839 -0.036091056
000240 26 9c cf be 5f 38 5f be 9c 68 a5 3e 06 e3 9b 3c
       -0.4054882 -0.21798848 0.32306373 0.019029152
000250 74 7b 4d be 3d 65 a4 be 65 84 cd be 75 4f d3 be
       -0.20066625 -0.3210849 -0.40140072 -0.41271558
000260 52 bb f1 bd 04 63 64 3e b1 d4 60 3e eb 60 e6 be
       -0.11803307 0.22303396 0.21956135 -0.44995818
000270 76 9e 8a 3e 5e bc ae be 8c fd ba bd 9a 5d 36 be
       0.2707402 -0.34128088 -0.091303915 -0.17809144
000280 0f c8 9d bd 42 47 ce bd f3 28 e0 be 05 1c c6 be
       -0.07704174 -0.10072185 -0.43781242 -0.38693252
000290 48 f1 90 bd 91 77 a2 3c ee 76 65 be 47 63 32 3e
       -0.07077271 0.019832404 -0.2240865 0.17420684
0002a0 b6 17 c3 be 24 9a 0e bc 7d 6e 06 3f e8 9b 7a be
       -0.38104028 -0.008703742 0.5251234 -0.24473536
0002b0 ef 05 a6 3e 61 11 2e 3e 5f 87 ca be 24 43 ad 3e
       0.32426402 0.16998817 -0.39556405 0.33840287
0002c0 3e 73 f9 bd f1 1c 13 be d9 8b bb 3e cf 95 b4 be
       -0.12180184 -0.14366509 0.36630133 -0.35270545
0002d0 84 34 7a 3d 1f 91 91 bd bf 24 da 3e f6 9b c9 3d
       0.06108524 -0.07107758 0.4260616 0.098442
0002e0 47 04 41 3e 36 69 4e 3e 92 f6 0d be e6 dd ef bd
       0.18849288 0.20157322 -0.1386359 -0.11712246
0002f0 e8 d2 ba be 83 df 7b 3e 70 76 dd 3e 9d 5b c5 3e
       -0.36489034 0.24596982 0.43254423 0.38546458
000300 9e 3c c7 be 4f 99 90 3d 34 79 87 be 09 43 6f be
       -0.38913435 0.07060491 -0.26459658 -0.23365416
000310 55 20 9b be 5b 96 1c 3e 5a 41 85 be e0 c2 66 bb
       -0.30298105 0.15291731 -0.26026422 -0.003521137
000320 c5 97 c8 3c ec 19 7d 3e 24 56 bc be 46 d3 9e be
       0.024486432 0.2471692 -0.3678447 -0.31020564
000330 9c 96 86 be 21 eb b2 3e d2 3d 1e be 5c 54 f9 3e
       -0.2628678 0.34945014 -0.1545327 0.48697174
000340 9d a9 1f 3e 3f 37 50 3d 0e 73 27 3c 92 50 d8 bd
       0.15592046 0.050833937 0.010220302 -0.105622426
000350 5a ce 59 3d a1 53 d4 bd b9 f6 99 bb c7 c8 be 3c
       0.053175308 -0.103675134 -0.004698601 0.023289097
000360 f0 5f cb be f4 85 7a be 06 6e a9 3e 7b 49 c9 be
       -0.39721632 -0.24465162 0.33091754 -0.39313874
000370 1f a4 31 bd 9e 50 e9 3e d0 f1 5b 3e 71 b1 fc 3c
       -0.04336941 0.4556932 0.21478963 0.03084633
000380 9e 1e bd be 3b 59 8c 3e 1b 53 b2 be 0e 5e bb bd
       -0.36937422 0.27411827 -0.3482903 -0.09148799
000390 b5 bb 10 be 1c 9a 6b bd 30 fc bc 3d 4d 13 eb 3e
       -0.14134105 -0.057520017 0.092277884 0.45913163
0003a0 81 69 6c 3d 45 ee b6 3e 35 d0 6b 3e 99 93 ae be
       0.057717804 0.3572866 0.23028643 -0.34096983
0003b0 28 d4 86 3e 36 94 ae be 04 93 4d be 29 6a f6 3d
       0.26333737 -0.3409745 -0.20075613 0.12031967
0003c0 37 8c 7a 3e 53 37 ec 3e 02 34 11 be 31 cb c8 bc
       0.2446755 0.4613596 -0.14179996 -0.024510952
0003d0 e2 ed 51 3e a1 85 fa be 8f 16 7f 3e c1 da f0 be
       0.20500901 -0.48930076 0.24910949 -0.47041896
0003e0 fe c5 87 3c b2 65 86 bd 41 55 93 be b4 68 3f 3d
       0.016573902 -0.065623656 -0.2877598 0.046730712
0003f0 9c 72 c4 3e a4 02 de bd 91 04 79 be 93 24 20 be
       0.3836869 -0.108403474 -0.24318148 -0.15638952

bias f4 [128]
000000 c4 10 8d be b1 cc 59 3d f0 fd 14 3e f6 d4 b0 3c
       -0.27551854 0.053173725 0.14549994 0.021585923
000010 c6 8e 98 be 0f 2a d5 3e 30 aa 91 be 24 4c a3 3e
       -0.29796427 0.4163365 -0.28450155 0.31894028
000020 35 64 c0 be ab 7c 95 bd 94 d2 5f 3e 34 20 52 be
       -0.37576452 -0.07299169 0.21857673 -0.20520097
000030 df b1 b2 3e 76 d8 b2 be d8 9d d6 be ce b1 73 be
       0.3490133 -0.34930772 -0.419173 -0.23798296
000040 57 7d c4 3d 81 6b dc 3e ec 8e 68 be b0 33 2c 3e
       0.09594219 0.4305077 -0.2271077 0.16816592
000050 e2 99 07 be e9 c4 c0 bd 8a 33 8e 3e d7 7a bc be
       -0.13242295 -0.09412558 0.27773696 -0.3681247
000060 7a 0d 0f 3d fa a5 d7 3e 78 0a f1 bd 67 55 a5 3e
       0.03492496 0.42118818 -0.11769575 0.3229172
000070 45 8c 08 be 84 17 b2 3e 97 c0 ec be f0 4d 77 bd
       -0.13334759 0.34783566 -0.46240684 -0.06037706
000080 8a c9 d4 bd e2 e9 f7 3d f5 e8 46 3e 2f c6 a9 3e
       -0.10390003 0.121051565 0.19424804 0.33159015
000090 69 d8 d8 bd 55 ea 6d bd 30 f9 a0 3e 66 c2 08 be
       -0.10588152 -0.058084805 0.31440115 -0.13355407
0000a0 cc 03 bf 3e bf 1d 9c be 9a 01 8e bd 7f 90 85 bd
       0.37307584 -0.30491444 -0.06933899 -0.06521701
0000b0 6b 5d 58 3e 8f fc 90 3e 07 cf e9 bd e1 a7 c0 be
       0.21129386 0.28317687 -0.114164405 -0.3762808
0000c0 46 aa 59 3e 47 35 13 3e 49 2a 41 3e 50 8a 94 be
       0.2125636 0.14375792 0.18863787 -0.29011774
0000d0 39 61 76 3e ac c6 c0 3e 7a 65 22 3d 1d de cc be
       0.24060525 0.37651575 0.039647557 -0.4001321
0000e0 f4 b7 8b 3e 25 09 a1 be 63 90 cd 3d 79 8e 93 3d
       0.27288783 -0.3145229 0.10037305 0.07204909
0000f0 cf ca 71 be 05 ea 0a 3e 6e 20 ce be fa f8 9a 3d
       -0.23612522 0.13565834 -0.40259117 0.0756702
000100 37 76 a0 be 21 f9 5e bd 24 83 fd 3c 25 8c a7 3e
       -0.3134019 -0.054436807 0.030946322 0.3272411
000110 31 99 64 be bd 22 a5 3e ed f4 8f bd f3 58 79 be
       -0.22324063 0.32253066 -0.07029138 -0.24350338
000120 b0 81 e0 be e6 95 d6 be d7 9f d4 3e e5 fb 17 be
       -0.43848944 -0.41911238 0.41528198 -0.14842184
000130 27 f9 58 bc 21 5a f7 3d 9c fe 86 3e dc 53 cc 3e
       -0.013242996 0.120777376 0.26366127 0.3990773
000140 af e6 a6 3e 71 ab a1 be 6f d9 9d bd 96 46 a1 be
       0.32597873 -0.31576112 -0.07707488 -0.31499165
000150 35 e4 90 be a0 61 d9 3d fe e3 dc 3e e2 3d c1 be
       -0.28299108 0.106143236 0.43142694 -0.37742525
000160 1d f9 98 3e 26 54 86 be 84 b0 a1 bd 4a 9d a0 3e
       0.29877558 -0.26236075 -0.07894996 0.31370002
000170 1e f9 d1 bd 21 9e 69 3c d2 d6 96 be cf 4c c8 3e
       -0.102525935 0.014258892 -0.2946077 0.391211
000180 8b a2 9a bd e4 bd 9c be ae 4d d6 3d df e6 bc be
       -0.07550534 -0.30613625 0.10464035 -0.3689489
000190 f9 ac d0 be 99 1b 10 3d d6 c4 be 3e d7 ea 31 be
       -0.40756968 0.03518257 0.3725955 -0.1737474
0001a0 04 b3 45 3e 41 08 d5 3e d3 d7 98 3e 5a 6f 89 be
       0.1930657 0.4160786 0.2985216 -0.26842767
0001b0 39 1d fb bc cc 76 25 be 3f 86 b9 be f1 ed c1 bc
       -0.030653583 -0.16158599 -0.36235234 -0.02367303
0001c0 76 01 af 3e 17 69 a0 3e bf 24 3b 3b f5 db 62 3d
       0.34180802 0.31330177 0.0028555838 0.05538555
0001d0 af bb 47 be 28 8d 88 3e 5a b4 77 be 81 bf ba be
       -0.1950519 0.26670194 -0.24189892 -0.3647423
0001e0 da 80 c0 3c e3 45 84 3e d4 cc cd be c0 a7 bb 3e
       0.023498941 0.2583457 -0.40195334 0.3665142
0001f0 de b9 4b 3e 7f 96 a7 be 35 d2 c9 bd 58 2a dd 3e
       0.19895121 -0.32732007 -0.09854547 0.43196368

weight f4 [128, 128]
000000 fd 9d 64 bd b0 b3 d2 bc f2 50 db 3c da 64 6e bd
       -0.055814732 -0.025720447 0.026771996 -0.05820165
000010 94 f5 c2 3c 7c 70 48 3d 71 c4 84 3d a3 92 7a bd
       0.023798741 0.0489354 0.06482781 -0.061175
000020 61 89 d6 3d 5c 78 33 bd 5f 3f 84 3d e7 a2 a0 bd
       0.10475422 -0.043815956 0.064573996 -0.07843571
000030 ff e8 b9 bd 5b cf 4a 3d b0 52 56 3c 41 ce 14 3d
       -0.090776436 0.049514156 0.013081238 0.03632951
000040 b8 70 4e bd 3c 87 be bd ef a1 dc bb ae 5d a5 bd
       -0.050400466 -0.09303138 -0.006733171 -0.080745086
000050 bd e8 ec 3c cd 1b 11 3d e1 c3 0a bc fe 01 ee 3c
       0.028919572 0.035426904 -0.008469553 0.029053684
000060 53 91 d3 3d e4 72 9b 3c 14 fb 25 bd 12 6a 42 bd
       0.10330453 0.018975683 -0.04052265 -0.047464438
000070 f6 84 cd bc 00 50 5b bd 3f 8b 13 bc c0 ac 86 bc
       -0.025087815 -0.05354309 -0.009005367 -0.016439795
000080 1d 78 31 3d 7f cc fc bc 96 7b 8f 3d af a9 60 bd
       0.04332744 -0.03085923 0.07005994 -0.054849323
000090 4b 7d b7 bb 38 ca c2 3d 99 79 93 3d 5d cb 2b bd
       -0.005599653 0.095112264 0.07200927 -0.04194199
0000a0 54 89 c3 3c 1b bf a9 3c d0 9a e8 bc 8f 5d 9b 3c
       0.023869194 0.020721009 -0.028394133 0.01896551
0000b0 f1 20 3b 3d 32 95 92 bd 74 5f 18 ba 05 95 63 bd
       0.045685712 -0.07157363 -0.00058125635 -0.055562038
0000c0 d8 37 6b bd a0 7b 1d bb bf 2e 8b bc 1f 0d 5e 3d
       -0.057426304 -0.0024029985 -0.016990064 0.054211732
0000d0 7c a9 8e 3d 3f 66 e0 bc 8d 01 18 3d 53 70 96 bd
       0.0696592 -0.027392505 0.037110854 -0.07345643
0000e0 39 29 8f bc bd 1b be bd a0 a0 e0 bb 60 ba ac bd
       -0.017475711 -0.092826344 -0.0068550855 -0.08433986
0000f0 dd 15 1a 3c eb 3d be ba 17 64 a0 3d 77 27 6e bc
       0.009404627 -0.0014514303 0.078315906 -0.014535776
000100 ab b4 5c 3b 31 04 08 be 9e 02 84 bc 1c 00 c2 3c
       0.0033677022 -0.13282849 -0.01611453 0.023681693
000110 c2 30 38 bd 01 21 f4 bd cc 31 51 bd 8f cf 7a 3d
       -0.044968374 -0.119203575 -0.05107288 0.0612331
000120 d1 9a 8f bc 39 28 b5 3d f8 9e da ba 0f 13 38 3c
       -0.017529877 0.088455625 -0.0016679456 0.011235013
000130 b6 60 01 3d 8c b7 32 bd ad e8 19 3d a8 b6 38 3d
       0.03158637 -0.043632075 0.037575413 0.04509607
000140 fe 01 a2 bb 87 71 c6 3b c2 86 07 3c 36 79 68 3d
       -0.004944085 0.006056014 0.008271875 0.05675622
000150 1c 16 39 bd 09 12 d4 bd d8 17 39 3c 86 cb 92 bd
       -0.0451871 -0.103550024 0.011297189 -0.07167725
000160 ae 03 66 3b f9 7d 65 bc 21 46 68 bd 17 cb 91 bd
       0.0035097408 -0.014007085 -0.056707505 -0.071188144
000170 de 07 44 3d bd e9 db 3d 35 b6 9a bc 23 f3 74 3c
       0.047859065 0.107379414 -0.018885711 0.014950546
000180 8c 30 d2 3d 6f ac 03 be 69 a1 6d bc c9 a0 41 bd
       0.10263166 -0.12858747 -0.014503815 -0.047272477
000190 a8 89 b2 bc cf b4 7e 3b 1f 9c 29 bd e5 e4 36 bb
       -0.021794155 0.0038865095 -0.041408654 -0.0027907428
0001a0 df 63 96 bd 5a f0 85 3c 18 e0 23 3c cc 1d a6 3c
       -0.07343268 0.01634996 0.010002159 0.02027788
0001b0 09 f8 6f 3d 67 c3 b8 3d eb b9 6f bd c9 c9 37 bb
       0.058586154 0.09021645 -0.058526915 -0.0028043857
0001c0 ce 54 92 bd f7 f2 b2 bd 27 d3 2d bd 81 89 a2 3d
       -0.071450815 -0.08737748 -0.0424377 0.07936383
0001d0 06 e6 2f 3d 28 0d 1d 3d 2e b8 5a 3d a2 0c 99 bd
       0.042943977 0.038342625 0.053398304 -0.07473113
0001e0 13 20 61 3c fe a6 a9 3d 4b a1 cb 3b 03 ef 69 3d
       0.013740557 0.08283804 0.006214296 0.057112705
0001f0 ec 61 09 3d 97 e1 8b 3d f2 7a 59 bd 93 04 07 bc
       0.03354065 0.06830137 -0.053095765 -0.008240837
000200 15 d3 9a bd 4d 1d ae bd 9b b3 18 3d 90 6c 3e 3d
       -0.07559792 -0.085016824 0.03728066 0.046490252
000210 9a c7 87 3d 90 34 a2 3d d0 26 9e 3d 2c 45 82 3d
       0.06629868 0.07920182 0.07722247 0.0636085
000220 26 ca 9c 3d eb b8 e0 bb b8 b7 8d bd d7 d7 e0 bc
       0.07655744 -0.0068579814 -0.06919807 -0.02744667
000230 26 b6 18 bc 99 4d 49 bd a5 c6 33 3d b3 c5 90 3d
       -0.009320771 -0.04914627 0.043890614 0.07068958
000240 0a c5 83 3c 15 5d 49 3d 5a 15 96 3d e1 bb 10 3d
       0.016085166 0.049161036 0.07328291 0.035335425
000250 c9 96 7d bd c5 1f 6c bd f0 a9 13 3d a2 fb 02 3d
       -0.061911378 -0.057647485 0.036050737 0.031978257
000260 0f ab 84 3d 13 b1 a5 bd f8 9d a8 bd 4f 39 67 3d
       0.06477939 -0.08090415 -0.08233255 0.056451138
000270 07 6a 93 3d a5 a9 90 bd b3 2a 3f 3d 7b 26 8e bd
       0.071979575 -0.07063607 0.04667158 -0.06940933
000280 5a db 9a 3d d3 3f 2c 3d c9 b4 d7 3d 7b 8b df bd
       0.07561369 0.042053055 0.10532529 -0.10915276
000290 78 74 bc bd 83 54 bf 3d 99 3b bc 3d e1 41 a4 3d
       -0.09201902 0.09342291 0.09191055 0.08020378
0002a0 94 a0 8c 3d b5 bb 20 be 3a 89 bf 3d eb 9b 36 bd
       0.06866565 -0.15696605 0.09352346 -0.04458229
0002b0 2c 0f c1 3c 5a 6d 2e bd ae 92 16 bd a5 d1 af 3b
       0.023566805 -0.042584755 -0.03676098 0.0053655677
0002c0 1c 26 2b bd 42 a1 ea 3c 21 58 ae bd 9a b1 67 bd
       -0.04178439 0.028641347 -0.08512903 -0.05656586
0002d0 ba ea 1e 3d 84 6a 2a bd bb 59 f1 bc 6f 0d 0f 3c
       0.03879807 -0.041605487 -0.029461732 0.00873123
0002e0 de 3f 9a bd 2c cf 0c bd 14 e2 52 3d 4d 28 9b 3d
       -0.07531713 -0.034377262 0.051485136 0.07576046
0002f0 25 21 e6 3c c1 05 11 bd 1d 09 ca 3d 3d fa 4c bc
       0.028091976 -0.035405878 0.098650195 -0.012510833
000300 4a e5 5b bd ea 9e 4b 3d 66 0f d9 3d 24 b8 91 bd
       -0.053685464 0.0497121 0.1059864 -0.071152
000310 77 d9 24 be e0 8d f1 3c e8 8d 96 3d 96 19 f0 bc
       -0.16098581 0.029486597 0.07351285 -0.029309075
000320 f6 35 e5 3c 25 6e a2 3d aa 6f e1 3c 77 94 d8 3c
       0.027979832 0.07931165 0.027519066 0.026437981
000330 cb fb 92 3d 36 8c 93 3c dc 59 40 bd df de 47 bc
       0.07176932 0.018011194 -0.046960697 -0.012199133
000340 e8 e3 31 3d 32 a0 a0 3d 3e 9b a3 bd 7f fe 32 3d
       0.04343024 0.07843055 -0.079885945 0.043699738
000350 4e b2 84 bc 7c 8e 5c bd 18 2f 17 3b 50 16 16 bd
       -0.016198304 -0.05384682 0.0023068842 -0.036642373
000360 35 28 22 3d e4 a8 27 bd 23 9b 3e bd e7 b5 b9 3b
       0.039589126 -0.04093255 -0.04653467 0.0056674364
000370 ea 21 c1 3b 4e 8c 68 3d 49 10 68 bd b5 47 b7 3d
       0.0058939354 0.05677443 -0.056656156 0.08949224
000380 c2 17 e9 3c 65 a6 f1 bc 3d dc dc 3c 1a d8 e2 3b
       0.028453711 -0.029498288 0.026960487 0.006922734
000390 02 8a 07 3c 11 3b 5b bd 96 45 9f 3c 76 56 fb bc
       0.00827265 -0.053523127 0.01944236 -0.030680876
0003a0 0b 60 ae 3b 4f 87 83 bd c2 17 06 3c 73 af de 3a
       0.005321508 -0.064222924 0.008184375 0.0016989544
0003b0 2d e5 79 bc 94 c2 eb 3c 3c a6 2f bd 26 63 59 bd
       -0.015252394 0.028779306 -0.042883143 -0.05307307
0003c0 0b b5 e4 3b e2 1b ea bc f9 cb d6 3c 3b 3d 9e 3b
       0.00697959 -0.028577749 0.026220309 0.0048290766
0003d0 ea 0f 81 3d 44 46 77 bd 00 f8 ea 3a a7 6d 37 3d
       0.063018635 -0.060369745 0.0017926693 0.044782307
0003e0 3f 14 b6 3d a2 a2 85 bb 85 c3 77 bd ea 01 74 3c
       0.088905804 -0.004078225 -0.060489196 0.0148930345
0003f0 15 99 5e 3d 03 5b 4d bd 3f 51 b6 bd b9 da 62 3d
       0.05434521 -0.050135624 -0.08902215 0.05538437

bias f4 [128]
000000 f4 50 5c 3d de b7 e6 bc fa 5d 42 bb 76 0f 2b 3d
       0.05378814 -0.028163847 -0.0029658065 0.04176279
000010 96 97 87 bb 50 f3 87 bd 07 bc 94 bd ee d6 1e bc
       -0.0041379435 -0.06638205 -0.07262426 -0.009694798
000020 3e 82 bb 3c 8b b3 7c 3d b0 0c 1d 3d 18 02 9d 3d
       0.022889253 0.061694663 0.038342178 0.07666415
000030 de c1 3b 3d 41 5a 0b 3d ea 95 9b 3d f6 5e 12 bd
       0.045839183 0.03402162 0.07596953 -0.035735093
000040 22 79 16 3d c5 5d f2 bc bf 13 b1 3c e1 52 44 3d
       0.036736615 -0.029585728 0.021615861 0.047930602
000050 98 bd b8 bd 61 0f 48 3d 9c f9 cc 3b 0c bb e1 bc
       -0.09020537 0.04884279 0.0062553417 -0.027555011
000060 9f 5d 14 bd 9f c9 99 bc 8a 10 32 3d 6c a5 6d bc
       -0.036222097 -0.018772898 0.043472804 -0.014504772
000070 b0 bc 95 3c e1 7c aa bc ad 78 63 bc 2b 15 8e 3d
       0.01827845 -0.0208115 -0.013883752 0.06937631
000080 2c c9 c6 bd f0 f5 86 bc 99 8a 41 3d 34 92 2a 3d
       -0.09706339 -0.016474694 0.047251318 0.041643336
000090 3f 5f c5 3c d0 61 14 3d cf cf a8 bd 1d 39 86 bd
       0.024093268 0.036226094 -0.08242761 -0.06553862
0000a0 57 82 c4 bd 86 da 96 3d 3e 8d 7e 3d ae 59 41 3d
       -0.09595173 0.07365899 0.062146418 0.047204666
0000b0 38 67 9f 3d 9e eb 05 bd ed 37 99 3d 3c f6 08 3d
       0.07783359 -0.032695405 0.0748137 0.033437952
0000c0 a2 8d 92 3c 0b 35 c1 bc 39 ac d9 bc d4 67 51 bd
       0.017889801 -0.023584863 -0.02657138 -0.05112441
0000d0 48 aa da 3c 10 e4 80 3d 10 5f 34 bd 36 33 33 bd
       0.026692525 0.062934995 -0.04403597 -0.04375001
0000e0 e4 d7 79 bc b1 82 aa bd cb ed c2 bb e9 7f 81 3c
       -0.015249226 -0.08325709 -0.0059487573 0.015808063
0000f0 22 93 37 bc 45 5c 92 bc 0d 44 59 3d e1 58 6e bd
       -0.011204513 -0.017866263 0.053043414 -0.05819023
000100 62 82 f0 bc 4d f6 d5 bc ee ed 1b 3d 39 9b dd 3c
       -0.029359046 -0.026118422 0.038068704 0.027051555
000110 e6 f8 9f bd ef 5f 64 bc 7a 29 ad bd bc 20 01 bd
       -0.078111455 -0.013938888 -0.08455177 -0.03152536
000120 3d 42 11 3c a0 d3 63 bd 7d c1 63 3d a3 c5 49 bd
       0.00886589 -0.055621743 0.055604447 -0.049260747
000130 b0 00 65 bc 23 2f 32 3d f3 23 46 3d c6 fd ed 3b
       -0.013977215 0.043501984 0.048374128 0.007262918
000140 07 d2 03 ba 20 0a 85 bc a8 fb 61 bd bb d9 9c 3d
       -0.000502855 -0.01624018 -0.05517164 0.07658716
000150 2c 28 8f 3d e6 3a 36 bd e5 80 60 3d ad 38 a6 3c
       0.06990084 -0.044489764 0.054810423 0.020290697
000160 0b 48 82 bd 2f 89 1d bd b2 d6 72 bc 56 4c 36 bd
       -0.06361397 -0.038460907 -0.014821695 -0.044506393
000170 6c b2 58 bd 78 b2 a6 ba 7f 41 98 bd d2 e3 6c bd
       -0.05290453 -0.0012717983 -0.074343674 -0.057834454
000180 94 1e c1 3c f5 cd 42 bc 1d 25 ff 3c f4 1d 66 3d
       0.023574151 -0.011889924 0.031145627 0.05618091
000190 42 4c 62 3d 7c 1b 17 bd 92 d8 f8 39 4f 2d 5d bd
       0.055248506 -0.036891446 0.00047463604 -0.053998288
0001a0 ce d4 c1 3c ee fa cc bd 57 68 9e 3d c7 0a 80 3d
       0.023661043 -0.100087985 0.07734745 0.062520556
0001b0 a3 62 70 bc 9f f3 f1 bc e4 26 90 3d 43 d9 5b 3d
       -0.014671954 -0.029535113 0.07038668 0.053673994
0001c0 da a9 ad 3d be a7 53 bd 1f b3 a5 bd d2 d4 a0 bd
       0.08479662 -0.051673643 -0.08090805 -0.07853092
0001d0 58 5d aa bb 8b b2 98 bb c8 9d 93 3d ae ae 50 bd
       -0.0051991157 -0.004659956 0.07207829 -0.050947838
0001e0 61 ec 9b bd 9a 46 90 bc 5a 20 8a 3c 32 26 8c 3c
       -0.07613445 -0.01761179 0.01686113 0.017108057
0001f0 76 47 10 bd d3 32 6a bd 72 30 b3 bd 89 70 c5 3d
       -0.0352244 -0.057177376 -0.087494746 0.09640605

weight f4 [128, 128]
000000 e1 7f b6 bc f8 ef ae 3b cc f1 8c 3d 9a 20 ac bd
       -0.022277774 0.005338665 0.068820566 -0.08404656
000010 52 3d 8e bd 26 84 75 bd 7f a3 10 3d 87 83 58 3d
       -0.0694529 -0.05994048 0.035312172 0.05285981
000020 f2 cf 2b 3d f1 75 ef bc f8 b8 80 3c 8f 6a 92 bc
       0.04194636 -0.029231044 0.0157132 -0.017873077
000030 8d 96 fa 3c 0c e5 e7 bd 4f 7f 8e 3d de 25 82 3c
       0.030589366 -0.11322984 0.06957876 0.015887197
000040 c1 c8 e3 3d fc 02 99 bd ae 15 87 bd 98 2b d5 bd
       0.11122275 -0.07471272 -0.06595932 -0.104087055
000050 28 10 7d bc 62 55 8d 3d 65 eb 27 3d f7 4f c5 3d
       -0.0154457465 0.06901051 0.040995974 0.09634393
000060 93 d4 77 3d 44 74 3c bd b8 7a a3 3c 41 25 46 3c
       0.06050546 -0.046009317 0.019955978 0.012093843
000070 ad 97 01 bd 8b 83 d3 bc 4b 0e 79 3d cc ac ea bc
       -0.03163879 -0.02581956 0.060804646 -0.02864685
000080 23 ae 37 bd 4c cb bb 3b 19 77 39 3d e6 90 86 3c
       -0.044843804 0.005731022 0.045279596 0.016426515
000090 60 ea cb 3d 0f d2 70 bd 7f fc ab 3d 8e 2e dd 3d
       0.09956813 -0.058794077 0.08397769 0.10799895
0000a0 84 29 9d 3d 14 4a c8 3b 67 82 7b bc 50 d0 4d bd
       0.07673934 0.0061123464 -0.015350915 -0.05024749
0000b0 e0 56 71 3b 70 19 0e 3d d5 f0 c3 bc ac ed cb 3d
       0.0036825463 0.034692228 -0.023918549 0.09957442
0000c0 ad d5 51 bd 32 00 43 bd 73 72 01 bd 64 b7 84 bb
       -0.051229168 -0.04760761 -0.031603288 -0.004050182
0000d0 0e 24 c4 3d a8 f9 3c 3d e3 46 b0 bd 3d 3f 17 3d
       0.095771894 0.04613653 -0.086072706 0.036925543
0000e0 70 e5 a1 3c df 75 8b 3d cc 01 94 3c 8d 29 b1 3d
       0.019762725 0.068095915 0.018067263 0.08650503
0000f0 61 9e 21 3d a6 dd 1a bd eb 58 b6 3d d3 2f 29 bd
       0.039457683 -0.037809037 0.089036785 -0.041305374
000100 df 7f cb bd c6 2c 91 3d 61 5b 1d bd 2b d9 27 bc
       -0.09936499 0.07088618 -0.038417224 -0.010244648
000110 17 59 a5 3d 2a e5 8d bd a7 57 a1 3d d7 6e b5 3d
       0.08073633 -0.06928475 0.078780465 0.08859032
000120 db c9 0c 3d 2f ba 16 3c 77 1b d7 bd b5 2e 11 bd
       0.034372192 0.009199663 -0.105032854 -0.035444934
000130 5c fb 16 bd b7 87 a6 3d 60 09 3c 3c a9 11 8b 3d
       -0.03686081 0.08131354 0.011476845 0.06790478
000140 7c 9c 22 3d ad e5 1d bc 2a 3e a3 3d ea b6 8d 3d
       0.039700016 -0.0096372785 0.07970841 0.06919654
000150 7c bd 4e 3d a2 a5 18 3c 7f b6 5e 3c 9c c8 9d bd
       0.050473675 0.009316834 0.013593315 -0.07704279
000160 4c 54 ac bc 4e 60 c3 bb 40 79 88 bd a1 3b b8 3c
       -0.02103629 -0.005962408 -0.066637516 0.02248937
000170 b6 6f 9a 3d 99 ea 26 3d e0 61 c5 bb da a5 ca bc
       0.075408384 0.040751074 -0.0060236305 -0.024737287
000180 c5 85 12 bd d5 82 6b bd c6 9a 88 bc 43 41 64 bd
       -0.035772104 -0.057497818 -0.016675364 -0.0557263
000190 2a c5 51 bd 95 21 c7 bc 33 98 6c bd ae da 0c 3d
       -0.05121342 -0.024308005 -0.057762336 0.034388237
0001a0 74 49 95 3d 43 ea 59 bd 30 f2 61 3d 80 f6 20 bd
       0.07289401 -0.053201925 0.05516261 -0.03929758
0001b0 94 37 c5 bd 4f 38 a2 3d 50 30 17 bc 32 00 eb 3d
       -0.09629741 0.07920896 -0.009227827 0.11474647
0001c0 28 1d ae 3d 16 56 32 3d 9d 92 55 bd 71 44 2f 3c
       0.08501655 0.04353913 -0.052141774 0.01069747
0001d0 bc 2e fd 3c 65 54 45 3c a6 9f a6 3a 4d 89 96 3d
       0.030906074 0.012044047 0.0012712374 0.07350407
0001e0 cd 9a 28 bc 82 2c a2 3d 5c c7 3e bd 87 29 19 bd
       -0.010290814 0.079186454 -0.046576843 -0.03739312
0001f0 3b 1b a7 3d 13 82 b0 bc a4 f2 27 3d c5 fb 1d bd
       0.08159491 -0.0215464 0.041002885 -0.038570184
000200 74 3d 49 3d 76 ac 60 bd 67 f8 07 3d 77 5b 3d bc
       0.049130872 -0.05485197 0.03319588 -0.011557451
000210 0a 15 2d 3b 03 8f e2 3c c3 a0 98 3d 7c 32 d1 3d
       0.0026410245 0.027656084 0.07452538 0.10214707
000220 50 a0 87 bd ac da 1e 3b 3f b1 3c 3d ff 14 fb 3c
       -0.06622374 0.0024239225 0.046067473 0.03064966
000230 3b f7 86 bd 80 70 11 bd 20 c9 b6 3c 97 98 9d 3c
       -0.06590124 -0.03550768 0.0223127 0.0192378
000240 b9 04 de 3d e0 a8 f8 3c 6f 22 c3 bd cd cb c4 3c
       0.108407445 0.030353963 -0.09528052 0.024022961
000250 ba b6 0e bd 75 77 dc 3d 10 fd 90 3c f0 87 94 3c
       -0.03484223 0.10764972 0.017698795 0.018131226
000260 a5 77 9b 3c ef d2 b3 3d 73 d3 42 bd 65 a6 46 3d
       0.01897795 0.08780467 -0.047564935 0.04849853
000270 e7 b8 07 3e af 61 d7 bb 29 06 39 3d fc ac 13 bc
       0.13254128 -0.006572924 0.04517189 -0.009013411
000280 18 66 0a bd fb b1 fe bc ca 36 21 3d 4c 0f 8e 3d
       -0.03378877 -0.031090727 0.03935889 0.069365114
000290 a1 cf 2d bc 17 35 3c 3b e6 b9 7f bd 00 22 1d 3e
       -0.010608585 0.0028718167 -0.062433146 0.15345001
0002a0 c8 10 42 3d 00 85 db ba 12 e2 5a bd 77 ef 33 3d
       0.047379285 -0.0016748011 -0.053438254 0.043929543
0002b0 aa 22 40 bd 00 23 bd 3d 1b 3b a7 bd 68 a3 a8 3d
       -0.04690806 0.09235191 -0.0816557 0.08234292
0002c0 24 49 69 bd 86 63 5a 3c 22 aa d7 3d 15 26 41 3d
       -0.056954518 0.013329392 0.10530497 0.04715546
0002d0 e7 d6 40 bd 28 52 8c 3c d2 fd 5a 3c fa 5b 4a bd
       -0.047079947 0.017129019 0.01336618 -0.049404122
0002e0 45 25 fd 3c b6 bd b2 3d 45 db 9a bc b4 f1 7b bd
       0.03090156 0.08727591 -0.018903384 -0.061509803
0002f0 61 fc 40 bd 0d 27 6c 3c ee 6d b2 3c 6b f7 28 3c
       -0.047115687 0.014413607 0.021780934 0.010312895
000300 ea d4 ec bc be 85 10 bd 56 70 55 3c 02 62 7a 3c
       -0.02891012 -0.035283796 0.013027271 0.015282156
000310 75 e8 a2 3d ec 8c 9e bd 32 c6 65 3d 2c ac 0e 3e
       0.07954494 -0.077417225 0.056097217 0.13932866
000320 d7 2b d8 bc 23 74 17 bd 31 00 9e 3d 37 4e e9 bb
       -0.026388092 -0.03697599 0.0771488 -0.0071199196
000330 e6 f4 a0 3d 96 1a 92 3c e3 e4 27 bd a7 48 bf 3c
       0.07859211 0.017834943 -0.040989768 0.023350073
000340 14 c6 68 3d b9 21 58 bd a5 c2 8f 3c 56 df 89 bc
       0.056829527 -0.052766535 0.017548868 -0.016830128
000350 d7 4b 38 bc 37 7e de ba c6 d5 b9 bd 33 ac 8c bd
       -0.01124855 -0.0016974871 -0.09073977 -0.06868782
000360 33 33 8b bb 47 5a 8a bd b2 66 df 3c c0 03 b4 3d
       -0.004248047 -0.067555 0.027270649 0.08789778
000370 9f 09 6e 3d 3d f7 02 be ce ce e7 bd 6f 73 73 3d
       0.058114644 -0.12789626 -0.11318742 0.059436258
000380 e0 82 22 3d 2c 71 90 bd 60 07 b0 bc 11 db f1 3c
       0.039675593 -0.07052836 -0.021487892 0.029523404
000390 45 e7 ad 3c 6b f6 16 3d 9e b3 97 3d 41 71 99 ba
       0.021228442 0.036856096 0.07407306 -0.0011706726
0003a0 3c 31 8d ba b7 09 9c bd 1f 17 a1 3d a2 e4 7b 3d
       -0.0010772119 -0.076190405 0.07865738 0.061497338
0003b0 01 93 3a bd 91 92 21 bc 1b 75 ae bc 71 09 1a 3d
       -0.04555035 -0.009861604 -0.021296075 0.03760666
0003c0 df f2 87 3d 57 fb 42 3d 58 05 38 3d bd 90 d0 bb
       0.06638121 0.047602978 0.04492697 -0.0063649104
0003d0 cf 69 78 3d 8a c4 bf 3d f3 62 97 bd 42 86 1a bd
       0.060647782 0.09363659 -0.0739192 -0.037725694
0003e0 c1 82 c1 3d 94 c4 d3 3d da 39 88 3c b5 1c 96 3d
       0.094487675 0.10340229 0.016629148 0.07329694
0003f0 e6 b4 e5 3b 40 f2 e8 3b bd 33 28 3d 5b 8c bb 3d
       0.00701009 0.0071089566 0.041064966 0.0915763

bias f4 [128]
000000 5c c8 05 3d ea 67 ce 3b 4d bc 87 bd a8 b8 1c bc
       0.03266178 0.0062990086 -0.066277124 -0.00956551
000010 1b 67 e5 bb 7c a2 07 bc f0 2e a8 3c 52 aa b0 bd
       -0.0070008165 -0.008278485 0.020530194 -0.08626236
000020 52 05 82 bd 6e 78 92 3d 76 34 c7 bc f3 c4 fd bc
       -0.06348671 0.071518764 -0.024317008 -0.030977702
000030 56 5b c3 3c b7 15 b7 bd e3 ee 36 bc 93 a6 22 3d
       0.023847263 -0.08939689 -0.0111653535 0.03970964
000040 a1 f9 18 3d 61 c2 73 bd 35 b3 3a 3c 47 0f 1a 3d
       0.03734744 -0.059511546 0.011395265 0.037612226
000050 04 dd a0 3d ce 62 ed bc 3e 90 36 bd 10 32 8d bd
       0.078546554 -0.028977778 -0.044571154 -0.06894314
000060 0a 87 32 3d 50 d4 35 3d 39 d5 4a bd 75 7b 3d 3d
       0.043585815 0.04439193 -0.04951975 0.046260316
000070 70 97 d9 3c 61 65 96 3b 1c 22 79 3d d0 6b ed bb
       0.026561469 0.004589722 0.060823545 -0.0072455183
000080 49 67 12 bd f7 eb 4b bd 7c e0 86 3d 67 b6 30 3d
       -0.03574303 -0.04978558 0.06585786 0.043142702
000090 6c a0 aa 3d bb a6 2d bd 08 07 93 bc fb c4 ee 3c
       0.08331379 -0.042395335 -0.017947689 0.029146662
0000a0 61 5c b4 bd 89 4d 96 bd 75 86 87 bc bb fc 55 bd
       -0.088066824 -0.073390074 -0.016543606 -0.052242976
0000b0 4e a5 aa 3d 7e 66 84 3d 4a 05 23 bd 89 1c 9c bd
       0.083323106 0.06464861 -0.039799966 -0.0762263
0000c0 c7 7a b4 bd b0 b5 48 bc e8 8f 82 bd d3 86 40 bd
       -0.088124804 -0.012250349 -0.06375104 -0.04700358
0000d0 2c 72 ea 3c 21 c0 de bc dc 3d e4 bc 71 dc 9b bc
       0.028618895 -0.027191224 -0.027861528 -0.019026013
0000e0 c1 b4 b3 3d 9f 45 20 3d 2b 8b a3 3c 39 5d 67 3d
       0.087747104 0.039128896 0.019963821 0.05648539
0000f0 43 7e 08 bc fb eb a9 bc d2 45 ba bc 91 8b a5 3b
       -0.008330884 -0.020742407 -0.022738371 0.005052038
000100 ae 47 c5 bc bc 8d 5e 3d 71 0a 85 3d f3 93 b6 3d
       -0.024082031 0.054334387 0.06496132 0.08914938
000110 db 25 96 bd 10 8b 8e bd 1f 56 08 bd d7 9d 9d ba
       -0.07331439 -0.06960118 -0.033285256 -0.0012025189
000120 5c 8a 97 3c 81 e4 8d 3d d7 c2 9d bd 16 98 79 bd
       0.018498592 0.06928349 -0.077031784 -0.060936056
000130 b4 c1 51 3d 4e bb ce bc 94 4b 84 bd 29 b7 b6 bd
       0.05121012 -0.025235798 -0.06459728 -0.08921654
000140 46 0b c2 3d 08 a5 fd 3b 88 50 40 3d c5 a3 b9 bd
       0.094748065 0.0077406205 0.0469518 -0.0906444
000150 cd c3 6f bb 81 07 0a 3d 3a 2d ab bd 89 16 d6 3c
       -0.0036585212 0.033698563 -0.08358236 0.026133792
000160 48 83 40 bd 76 54 9a bd b9 35 82 3c c7 f8 66 3d
       -0.0470002 -0.07535641 0.015894758 0.056389596
000170 fc 16 e2 3b a0 05 54 bc 4b a8 3b 3d 4b fa 48 3d
       0.0068997126 -0.012940794 0.045814794 0.049066823
000180 3b 70 71 3b 63 6d 80 3d 53 25 00 bd 4a 22 6b bd
       0.0036840576 0.06270864 -0.031285595 -0.057405747
000190 7e 4a 67 3c e0 4a 3c bd cc 62 38 3d da 78 9b bc
       0.014116881 -0.045969844 0.045016095 -0.018978525
0001a0 4c 79 7a ba 52 83 56 bd 57 de ac bb 2d d1 35 3c
       -0.0009554818 -0.05237133 -0.0052755284 0.011097235
0001b0 11 53 8d 3d 1c 17 83 bd 44 76 52 bc 02 c0 5c bd
       0.06900609 -0.06400892 -0.01284558 -0.05389405
0001c0 40 f5 34 bc 77 82 ab bc ed d3 1f 3d 48 b8 82 bb
       -0.0110448 -0.020936234 0.039020468 -0.003989253
0001d0 c7 72 c1 3c 1b ed 5c 3d f4 28 a2 bd 95 31 d3 3c
       0.0236143 0.05393706 -0.079179674 0.025780478
0001e0 17 7f 60 bc b0 9c 5e 3b b9 0c 75 3b f2 ea 5e 3d
       -0.013702176 0.0033967905 0.0037391616 0.05442328
0001f0 11 33 02 bd f7 6f a3 bd 11 1f d6 ba a4 e9 fb bb
       -0.031786982 -0.0798034 -0.0016336163 -0.0076877642

weight f4 [128, 128]
000000 23 8e ff bc 7a ff 40 bd f1 d8 97 bd f4 4a cc bb
       -0.031195706 -0.04711864 -0.07414425 -0.006234521
000010 ad e8 c5 3d 0c 81 a4 bd 72 4c 6a 3d 24 20 dc 3c
       0.0966352 -0.08032426 0.05720181 0.026870795
000020 c7 e0 82 bd 22 26 95 3d 3b 25 18 be ad 4b 30 bc
       -0.06390529 0.07282664 -0.14857952 -0.01076023
000030 46 6f c5 3c 44 f7 4f 3d 27 59 98 bd ab e7 53 3d
       0.02410091 0.05077292 -0.074388795 0.051734608
000040 c6 9c 9f bc 6b fe 31 bd 41 0f 71 bd e4 77 dc bb
       -0.019483935 -0.043455523 -0.058852438 -0.0067281593
000050 0a a9 7e bd 15 35 85 3d 0b 3b 52 bd 27 ba 8a bd
       -0.062172927 0.06504265 -0.05132584 -0.06773787
000060 8b 7d 53 bc dd 37 94 3d f8 01 05 3d db 2e fd bc
       -0.01290835 0.072372176 0.03247258 -0.030906131
000070 74 5e c4 ba 01 42 d6 bc 1f 66 18 bd 97 48 ce 3d
       -0.0014981763 -0.02615452 -0.037206765 0.10072439
000080 ba 8a dd bd ca 43 c2 3d a2 f3 d5 bd e9 09 08 bd
       -0.108174756 0.09485586 -0.1044686 -0.033212576
000090 fc c5 08 bd c1 a9 a8 3d 02 8f 88 bc 0d 02 00 3c
       -0.033391938 0.08235503 -0.016669754 0.007812989
0000a0 70 30 73 3d 68 22 62 bb 3c 92 8a bd 28 29 73 3c
       0.059372365 -0.003450537 -0.06766173 0.014841355
0000b0 7d 3d 38 bc a2 2d 46 bb 15 a8 5b bd 56 70 65 3c
       -0.011245129 -0.0030239602 -0.053627092 0.014003834
0000c0 ce 4d 92 3c f8 df a9 bd 20 d2 d8 bc 24 57 1b 3d
       0.017859366 -0.08294672 -0.026467383 0.0379249
0000d0 15 0b bc bd 0d d5 b6 3d 2a 5a 9d 3d d0 18 a7 bc
       -0.09181801 0.08927355 0.07683213 -0.020397574
0000e0 f6 ca 56 3d 5e 45 58 bd 76 37 94 3c 8b 16 1b bd
       0.052439652 -0.05280053 0.018092852 -0.037863296
0000f0 c7 71 5c 3d ea 68 7b 3d 4a 7e 01 bd bd 50 3b bd
       0.053819444 0.06137935 -0.03161458 -0.045731295
000100 3f 61 88 3d 24 b0 18 3d 3e f8 87 bd f5 8f 5a bc
       0.06659173 0.037277356 -0.06639145 -0.013339986
000110 06 49 85 bc ba 41 7f 3c 70 e6 59 bd 6a 2b 53 3d
       -0.016270172 0.015579635 -0.053198278 0.051555075
000120 f7 a4 ad bc 56 db d4 3d 28 90 99 bc b5 9e 3c bd
       -0.021196825 0.103933975 -0.018745497 -0.046049792
000130 2f d7 fc bc 0b c9 c7 3d 70 f1 be 3c 89 58 93 bc
       -0.030864326 0.09755143 0.023308486 -0.017986553
000140 f0 84 09 bd ea 5b 60 bc f7 c2 7a 3d c2 ea fd 3c
       -0.033574045 -0.013693789 0.06122109 0.03099573
000150 84 ae 95 3d 00 74 86 3d 6f f5 12 bc 5c 87 7f bd
       0.07308677 0.06565094 -0.008969649 -0.062384948
000160 db af cb 3d 91 1c 14 bd e5 ca 05 3d ca e3 37 bd
       0.09945651 -0.036160056 0.0326642 -0.04489497
000170 1d db f4 3a 74 85 48 3b 44 34 85 bd e1 e3 92 3d
       0.0018681024 0.0030597122 -0.065041095 0.07172371
000180 80 62 89 bd 1f 80 51 bd 05 79 73 bd 6b 3c 8d 3d
       -0.067082405 -0.051147576 -0.059441585 0.068962894
000190 53 87 c0 3d 22 b8 b1 3d bf 03 9d 3d c2 8b 89 bd
       0.09400811 0.08677699 0.0766673 -0.0671611
0001a0 5e f9 92 bd 76 9d 8b 3d 23 89 85 bd 1b 55 bf bc
       -0.07176469 0.06817143 -0.065202974 -0.023356011
0001b0 08 00 fd 3a 99 ef 07 bc e4 8b 38 bd 8b 9d 59 bc
       0.0019302377 -0.008296871 -0.045055285 -0.01328219
0001c0 07 b6 a3 3d d9 80 ab 3d 10 e5 db 3c 81 2c 8e bd
       0.07993703 0.08374185 0.026842624 -0.06942082
0001d0 ed e6 49 bd 10 84 97 bc 84 3b a9 3c 69 1b 6a bd
       -0.049292494 -0.01849559 0.020658262 -0.057155047
0001e0 f6 a2 ae 3d dc 9b dd bc 9d 16 54 bd ef 41 99 bd
       0.08527176 -0.027051859 -0.05177938 -0.07483279
0001f0 c6 d5 85 bd 3a a0 f0 3b 3f d4 41 bd ed cc a6 bd
       -0.06534915 0.0073433192 -0.047321554 -0.08144555
000200 f5 9d 0f 3d 01 f2 a8 3d 00 9d 90 3d c1 81 90 3d
       0.03506275 0.082492836 0.070611954 0.070559986
000210 a4 aa 5c 3a 4c d2 81 bd e8 23 aa 3c c3 03 81 3c
       0.00084177614 -0.06338939 0.020769075 0.015748864
000220 dc 74 4e bd 9a c7 5b 3c b9 10 be 3d 6d b5 3c bd
       -0.050404415 0.013414288 0.09280533 -0.04607146
000230 32 fc aa 3d b9 60 6f 3d 63 b7 45 bd 5a 76 c0 3d
       0.08348884 0.05844185 -0.048270594 0.09397574
000240 1d 35 21 3d 40 5d ab 3c d3 75 2f bc d7 1d 2b bd
       0.039357293 0.020918489 -0.010709244 -0.041776504
000250 5e 15 73 3d d1 eb 79 bd d3 1e e5 39 a6 ad 6c bd
       0.05934655 -0.061015908 0.0004370125 -0.05778279
000260 c7 58 34 3d 57 0c 42 3d 64 8a a2 3d 99 aa f7 3d
       0.044029977 0.04737505 0.07936552 0.12093086
000270 15 6d b8 bd 84 ff b7 3d e6 29 6f 3d 30 73 a5 bd
       -0.09005181 0.089842826 0.058389567 -0.08078611
000280 a2 c7 a6 3d 32 31 74 bd 06 91 a2 3d 97 7d 47 3d
       0.08143546 -0.05961723 0.07937817 0.048703756
000290 8e ef 6c bd af 8c 17 3c 60 9a 35 bd 6d 6e 94 bd
       -0.057845645 0.00924985 -0.044336677 -0.072476245
0002a0 61 fa 6b 3d 2b d5 33 bd 7b e6 ab bd 6a 69 a6 3d
       0.057611827 -0.043904465 -0.0839357 0.08125575
0002b0 99 5e ae bc 7e b3 05 3d 53 86 11 3b 8b a2 fd bc
       -0.021285342 0.03264188 0.0022205308 -0.030961296
0002c0 af 61 82 3d a6 88 5a 3d da 3e 5f bd 65 6d 86 3c
       0.06366288 0.053352974 -0.0545033 0.016409585
0002d0 f9 ea 2b 3d e8 37 f8 bc 29 e1 8b bc 7b 15 a5 3d
       0.041972134 -0.030300096 -0.017075138 0.08060738
0002e0 3f ad c3 3d bf d0 e9 3c a0 9a 8e 3d 1d 71 7b bd
       0.095545284 0.02854192 0.06963086 -0.06138717
0002f0 10 1c ec bc b2 9f ec 3d 3d 49 6d bd 3b 4a 26 bd
       -0.028821975 0.11553897 -0.057931174 -0.040598135
000300 f4 a4 a5 bd cd a5 27 bd 6d 45 b8 3d 57 f4 ce bd
       -0.08088103 -0.040929604 0.08997617 -0.10105198
000310 35 d4 0a 3d 36 23 2f bb d2 3a a7 bd 03 7e 71 bd
       0.033893783 -0.0026723868 -0.08165516 -0.058958065
000320 ea 7f 73 bd fc 9b 68 3d e9 a6 a9 3d 95 bc 0e 3d
       -0.05944816 0.056789383 0.08283789 0.034847815
000330 84 ab 1e bc 94 f5 1f bc a2 a6 10 bd 06 13 b2 3d
       -0.009684447 -0.00976314 -0.035315163 0.08695035
000340 fb 67 cb 3c f3 46 ae 3c af 82 4a 3d 2c 21 c0 3d
       0.024829855 0.021274066 0.049441036 0.09381327
000350 09 c2 95 bd 57 2a 9b bc f9 86 c7 3a be ae 09 bd
       -0.073124 -0.018941088 0.001522272 -0.033613913
000360 d1 08 99 bc f9 e8 f0 3d fb 19 c3 3c cd 47 e6 bc
       -0.018680962 0.11763186 0.0238161 -0.02811041
000370 0f 13 8b bd 3c c0 90 bc f0 c2 81 3d e4 09 59 3d
       -0.067907445 -0.01766979 0.063360095 0.052987948
000380 b0 cd 3b bd 1c 9d 42 3d 69 fc 97 bd c0 eb 64 bb
       -0.045850456 0.047513112 -0.0742119 -0.0034930557
000390 1f cd 8f bd 82 a3 0e bd bc 01 d6 bc ca a9 6f bd
       -0.070215456 -0.034823902 -0.026123874 -0.058511533
0003a0 2c df 85 bd e4 21 83 3d 87 ad ef bc 05 1a ca 3c
       -0.06536707 0.064029485 -0.029257549 0.02467061
0003b0 ee 28 9d bd 86 64 d8 bb 90 64 8f 3d aa 85 7a 3c
       -0.07673822 -0.00660378 0.07001603 0.015290657
0003c0 33 c6 1d 3d 15 0b 33 bc 05 03 4a 3d 8b f3 24 bd
       0.038519096 -0.010927935 0.049319286 -0.040271323
0003d0 9c d7 84 3d 84 8c 21 bd e4 07 f4 3c 76 dd 80 3c
       0.06486437 -0.039440647 0.029788919 0.0157306
0003e0 ba 5b 0d 3d 44 3e 4f 3c 4d 11 ac 3d 21 86 59 3d
       0.034511305 0.012649123 0.08401737 0.05310643
0003f0 e3 17 3b 3d 20 bc f3 3c 1c 2b 4b 3c e7 29 03 3c
       0.045677077 0.02975279 0.012400415 0.008005596

bias f4 [128]
000000 e7 7c b5 3d 22 18 67 3d 7e 2c 07 bd 72 d6 6d 3d
       0.08861714 0.0564195 -0.033001415 0.05806584
000010 5f 56 91 3c 81 1e d2 3c 90 2d 8f 3c 50 60 62 bd
       0.01774138 0.025649311 0.01747778 -0.055267632
000020 6f 86 67 3d 76 95 9f bb 22 fa ff 3c d0 12 7b 3d
       0.05652469 -0.004870112 0.031247202 0.061297238
000030 db c7 7d 3d b3 8b 6e 3d 34 3a 8e bc 69 37 1e bc
       0.061958175 0.058238696 -0.017361738 -0.0096567655
000040 93 7e 54 3d 2f 20 94 bd 99 5f 3b bd 35 da 8c bc
       0.051878523 -0.07232701 -0.045745466 -0.017193893
000050 74 26 88 bd 44 a0 d6 bc 2a f5 1d bd b2 67 82 3c
       -0.06647959 -0.026199467 -0.038563885 0.015918586
000060 5c 1c b5 bd c6 15 14 bd 2e 56 94 3d 9f 2d 05 3d
       -0.088433 -0.036153577 0.07243 0.03251421
000070 69 1b fe bc 29 09 52 bd da fd 0b bd a5 ff ac bd
       -0.03101893 -0.051278267 -0.03417764 -0.08447198
000080 b0 16 76 3b cf 1a 85 3d 6a 32 ca 3c 28 35 43 3d
       0.0037550144 0.06499254 0.024682242 0.047658116
000090 7c 28 0e 3d 4e 8b 98 bd 8d 27 a2 bd 45 aa 54 3d
       0.034706578 -0.07448445 -0.079177 0.051920194
0000a0 22 45 c9 bd 36 e0 87 bc 58 ab 7a 3d 78 c2 03 3c
       -0.09827639 -0.016586404 0.061198562 0.00804197
0000b0 f3 19 8a 3d e9 a6 cb 3d 9f 39 94 bd 85 6d 11 3d
       0.06743231 0.09943945 -0.07237553 0.035504837
0000c0 52 a4 62 bc 97 89 9d bb c2 1c 2a bc c7 02 a6 3d
       -0.013833122 -0.0048076618 -0.010382833 0.081059985
0000d0 57 0c 47 bb 92 a6 35 bd 69 47 77 3d b0 2b cb bd
       -0.0030372345 -0.044348307 0.060370836 -0.09920442
0000e0 9a c7 9e bd de 4e 9e 3b de e8 a5 3d cb cc b6 bc
       -0.07752915 0.004831179 0.081010565 -0.02231445
0000f0 84 0d 5f 3d 6b ad bc bc 98 33 08 3d 7c 64 59 3d
       0.05445625 -0.02303191 0.03325233 0.053074345
000100 da 2a 24 bd 3f ff ad bc 44 1a 39 bd f7 cb cd 3c
       -0.04007993 -0.021239875 -0.045191064 0.025121672
000110 f1 71 f8 3c 9a ee f1 bc cb 40 96 bc bf ba bf 3c
       0.030327769 -0.02953272 -0.018341443 0.023404477
000120 72 de 9a bc d5 ce 86 3d fc a0 5c bb e4 22 50 3d
       -0.018904898 0.06582419 -0.003366529 0.050814524
000130 8b 70 85 bd 55 48 03 bd 02 81 e4 3c 50 3d 99 3d
       -0.065156065 -0.032051403 0.027893547 0.074823976
000140 6d fa 4b 3d 9a 54 81 bc b2 8f 46 3d 07 0e f1 bb
       0.04979937 -0.015787411 0.048476882 -0.0073564085
000150 9e fd 6b bd 92 4f 27 bd 5a 7d a1 3d 62 77 0b bd
       -0.057614915 -0.04084737 0.07885237 -0.0340494
000160 15 6f b0 3b 93 d0 f6 3c f1 a6 24 bc e9 69 a5 3d
       0.0053843358 0.030128753 -0.010049568 0.080768414
000170 b5 2a 36 3d f7 d1 b4 3c 9f 70 02 3d 0c 10 4f bd
       0.044474322 0.022072775 0.031845685 -0.050552413
000180 6b 69 91 3c a6 2c ec bc 16 0d c7 bc fe c9 c0 3d
       0.017750463 -0.028829884 -0.024298232 0.09413527
000190 ae a5 06 bc 18 c0 b6 3d 47 7e 78 3b 87 97 54 3d
       -0.008218212 0.08923358 0.0037917064 0.05190232
0001a0 6c a0 03 3c 6d 2d 8d 3d a4 98 7c 3d 06 3f db bc
       0.008033853 0.0689343 0.061669007 -0.02676345
0001b0 8a 78 6a 3d df 93 93 bd 9b 5e 87 3d 34 8d 5d bd
       0.05724386 -0.072059385 0.066098414 -0.05408974
0001c0 5d 2c 0e 3d 07 f3 6c bd 10 9a fa bb 4f 47 8f bd
       0.034710277 -0.057848956 -0.00764776 -0.06996023
0001d0 b0 cb a1 3c 7e cf 22 bd d3 d1 14 bb f3 12 3f bd
       0.019750446 -0.03974866 -0.0022708073 -0.04664893
0001e0 b0 c4 1a bc f4 cf 38 bc a6 88 54 bd 8b d4 c0 3d
       -0.009446308 -0.011280049 -0.05188813 0.09415539
0001f0 a9 12 91 3d 11 36 d4 bb 26 c1 9b 3d 02 ee 51 bc
       0.07083637 -0.006476172 0.076051995 -0.012813093

weight f4 [1, 128]
000000 11 31 83 3d 44 52 60 bd db 60 78 bd e9 24 8a 3d
       0.06405843 -0.054765955 -0.060639244 0.06745321
000010 9c 95 c2 3d b3 9f c5 3d a6 03 b7 3d f3 a2 a1 3d
       0.09501192 0.09649601 0.08936243 0.07892408
000020 64 ac 89 bd 4d 9e 51 3d 73 3b ae bd 68 b2 b2 bd
       -0.06722334 0.051176358 -0.08507433 -0.087254345
000030 d9 bb cf bc df 96 ab bd 15 1d 42 3d 00 33 c2 3c
       -0.025358127 -0.08378386 0.047391016 0.02370596
000040 b3 e5 1f 3d 83 30 88 bd c4 fb 10 3d a5 66 4c bd
       0.039037418 -0.06649878 0.035396352 -0.049902577
000050 90 89 45 bd 67 f2 be bd 8f 98 f4 3c 43 25 d9 3c
       -0.048226893 -0.09323578 0.029857902 0.026507026
000060 47 ce 55 bd 41 f1 a0 3d 06 9a 88 bc 10 f7 73 bd
       -0.052198675 0.078585155 -0.016675007 -0.05956179
000070 2e 92 0e bd 12 84 68 3d db ea a0 bd 29 04 99 3d
       -0.034807377 0.056766577 -0.07857295 0.074714966
000080 f6 f5 5a 3d 7b 36 6b bd 79 7d b0 bc ac 90 e0 3d
       0.053457223 -0.057425003 -0.021544205 0.10965094
000090 bc 27 00 3e 81 6f a8 bd dc 83 69 bc 8d d8 a5 3d
       0.12515157 -0.08224393 -0.014252629 0.080979444
0000a0 6f 49 1f bd 42 b8 a2 bd c4 13 e5 bc f2 bf f2 3b
       -0.03888839 -0.07945301 -0.027963527 0.0074081356
0000b0 77 39 f0 3c ed 24 47 3d 80 52 b0 bc 23 3d 91 bd
       0.029324276 0.0486192 -0.021523714 -0.07091739
0000c0 88 7f 77 3d 87 f0 bf 3d ab 5b c4 bb f3 f5 bc bc
       0.060424358 0.09372049 -0.005992373 -0.023066496
0000d0 c9 49 87 3d fe 90 28 3c 9a e9 d8 3d 22 92 20 bd
       0.0660587 0.010288475 0.10591431 -0.039201863
0000e0 14 98 07 be b3 9b 4e 3d 39 26 a7 bc 42 37 78 3d
       -0.13241607 0.050441455 -0.020403968 0.060599573
0000f0 64 ef 11 bd 36 02 f6 bc 78 fb 95 bd d5 e7 c5 bc
       -0.03562869 -0.030030351 -0.073233545 -0.024158398
000100 1e f6 22 bd 8d 64 0f bd 2d fb 94 bd 8a 5f a0 bb
       -0.039785497 -0.035008002 -0.072744705 -0.0048942016
000110 d9 77 b7 3d 0d 03 bb bd ed 18 b1 bc e1 7b 8b bd
       0.08958406 -0.09131441 -0.02161833 -0.068107374
000120 eb b7 90 3d 7c 30 86 3d c7 31 84 bd 08 d4 ac bc
       0.070663296 0.065522164 -0.06454807 -0.021097198
000130 f4 1f 89 bd 46 e6 83 3d 00 59 90 39 06 24 b9 3d
       -0.06695548 0.064404055 0.0002753213 0.09040074
000140 f9 6c 16 bd 31 5c 91 3c b8 21 70 bd c1 db 47 bd
       -0.03672502 0.017744156 -0.058625907 -0.048793558
000150 19 c9 82 3d ca 08 ae 3d 7f ab 9a 3d b1 3a 84 3d
       0.063860126 0.0849777 0.075522415 0.06456507
000160 80 94 6a bc ec bc 67 bd 9d 87 e3 3d de 88 e8 3d
       -0.014317632 -0.056576654 0.111098506 0.1135423
000170 a7 f6 d3 3d 1f b5 88 bd 04 89 b8 3d 42 a8 7c bd
       0.103497796 -0.06675171 0.09010509 -0.0616839
000180 e6 35 81 bd 6b d7 4f 3d bb 76 58 bd 5e 65 0b 3e
       -0.063091084 0.050742548 -0.052847605 0.13612887
000190 8f d3 63 3d 23 cc e2 3d 2f d5 68 3d 99 d9 96 bd
       0.05562168 0.11074092 0.056843933 -0.07365722
0001a0 b8 d6 83 3d 50 e7 d5 3d fd 6a 74 3d 91 0e c4 bd
       0.06437439 0.1044451 0.059672344 -0.09573091
0001b0 ff 6d b7 3d 7d eb 6c bd 7e fe 92 3d 22 07 07 3d
       0.08956527 -0.057841767 0.07177447 0.032965787
0001c0 f7 84 a1 3d ce bc 6f 3c 22 51 26 3c e2 f9 ea bd
       0.07886689 0.014632417 0.0101511795 -0.114734426
0001d0 13 04 b2 bd 11 d0 01 3d 81 5e 34 bd 4a a0 d2 bc
       -0.08692183 0.03169257 -0.04403544 -0.025711197
0001e0 1d 89 e0 3c e7 8b 27 bc d4 a8 13 3d 78 46 71 bd
       0.02740913 -0.010226226 0.03604968 -0.058905095
0001f0 50 b3 e5 3d 99 40 0d 3d 0e c4 a2 3c 0f 93 f1 3c
       0.11215842 0.034485433 0.019868877 0.029489068
