Dry fermentation prediction and optimization system/optimize_digester/Predictor_Digester CH4/models/NeuralNetTorch_BAG_L1/S1F4/net.params (torch, 207367 bytes, 9 tensors)

weight f4 [128, 5]
00000000: caf1 edbc f86d 553e 8118 b8be 7ada acbe
00000010: 1911 39be 28cb 2f3e 51d4 55bd 2216 d63e
00000020: 3b2e 28bd eb8b ef3d 3802 2fbe fe2f 3fbd
00000030: 9d58 dbbe 065a 94be c430 36be e852 7c3b
00000040: 982e 593e cba1 933e 74b6 9dbe 3d62 4cbe
00000050: 191c 7c3e 17dd b83e 6d96 9abd c4f5 ae3e
00000060: ad28 85bd 4c7f 6c3d 6a12 d43e 6734 c9be
00000070: 2714 91be 6d99 ebbd 25f8 2dbe 4f01 c53e
00000080: 3cb1 90be 7af5 55be 968b a1be 99d3 c1be
00000090: 8063 83be 6ac5 e73e b739 2d3e ddd5 3e3e
000000a0: 3b72 073b de0e 56be 6997 a83d 5d2f d6be
000000b0: a9d7 a5be 5f20 2ebe 3f68 8e3e 6137 8d3e
000000c0: f14a 58be 73c4 edbc 74fb b53e 2ef5 e33e
000000d0: 7e21 4d3e 8de9 533d 6a14 953e d850 7fbe
000000e0: e668 9c3d c51a a9be 27fa 9dbe 3f20 6bbe
000000f0: 470f 8a3e 26e9 3b3e 85bf 88be 2cdd f53d
00000100: 8afb 6b3e 92fc b4bd bbb5 1b3d 21d7 dd3d
00000110: efed 843e 0abd d23e 2153 d2be d497 12be
00000120: d924 4d3e f19c ac3e d026 b63e 67c1 d43e
00000130: 883e e83d 633a b7be a9f0 193d 0a11 91be
00000140: 6582 d2be 1269 c23e 344d 9e3e 992d ebbe
00000150: 2556 903d 76d6 1abe 074e c3bd 3661 6cbe
00000160: 7de5 3c3e f539 81be bf2d 013e 9578 843e
00000170: 4e9a a33e 112f 383e 8124 dcbe bb19 8ebe
00000180: 5071 743e 5a8b f63d 5e8f b4be 00ca 85be
00000190: a0f6 cc3e d79f b33e 48a3 27be 4950 f7bd
000001a0: 4451 debe 568a ccbd f15f aabe 91b3 bebe
000001b0: 853d 8dbc 03ac 983d 598b 5abe 758d 963e
000001c0: 8399 86be d0b0 c33e bbd7 903e 5bf8 ecbe
000001d0: 9050 c4bd 1b0d cb3c daee 283d 1610 a83d
000001e0: 54a8 393e add4 063b 3f57 64be 03b7 733e
000001f0: e720 cebe 8be2 89be 2c45 0cbe 94f4 6dbe
00000200: 4892 07be 855a afbe 7879 f3bd 78bf ae3d
00000210: 2c8c 8abe 5193 1dbd e8f6 9b3e 35c0 8dbc
00000220: 80b6 903c 150c 4ebc bf54 923d 48d5 873e
00000230: e864 d83e 397f 8c3e 43dd d53e 04fa 4ebd
00000240: 8800 d7be c7a1 6abe 435b 9a3e 21eb 89bc
00000250: bb89 59be 3a6c aabe 0e96 e6be 87a0 b9be
00000260: df25 09bc 3e19 633e ea8a 5f3e fb15 e2be
00000270: 5357 7b3e 9824 b7be aa5b adbd 7e8c 2fbe
00000280: 7298 d5bd 2eb3 68bd 3665 d5be ce5f c2be
00000290: ab00 82bd f0ab 2a3d 1571 62be 25d7 443e
000002a0: 4ae0 cebe 4fee 01bd b31f e03e d5f6 4ebe
000002b0: 5e09 ed3e bda2 523e 483e b8be 2bc1 bb3e
000002c0: da2a 1dbd 95f1 4bbe 4c16 b83e 370b b8be
000002d0: e5fb f63d 02d8 d9bd 71ff ae3e c0bf e53d
000002e0: 2d16 4f3e ac84 3e3e 3ff0 f0bd bffc a5bd
000002f0: b887 bdbe b673 763e c96f d23e 3e94 a33e
00000300: 0a29 c4be e9c5 9d3d a32d 84be 286d 7dbe
00000310: 9ddd 88be f1a8 1d3e 600a 89be 57d6 32bc
00000320: f849 0d39 e5ac 943e d720 aebe bfcd 98be
00000330: 2091 80be 97c6 c23e e3a0 4ebe cbf7 c63e
00000340: cf53 243e a1df 623d 8581 c13c d6cc c7bd
00000350: e799 893d e293 e4bd 3a00 4fbc 655f 413d
00000360: 3381 bbbe d621 78be ac78 b03e a33e c2be
00000370: 61ed e8bb 30ac fb3e 07d1 423e c4d5 ab3b
00000380: 353a cabe 65c5 9d3e 5406 b0be 50d8 b5bd
00000390: 110c e8bd 3b88 f1bc f598 8c3d fc15 ba3e
000003a0: c0c4 c03d 05cd c53e edc6 843e 82b6 c8be
000003b0: d305 343e b891 96be 8692 0abe 6a35 3e3e
000003c0: 9846 693e c651 b13e aaaa 0bbe 695d c03a
000003d0: f287 6c3e 5c15 07bf 5722 913e b9c6 c1be
000003e0: 861e bf3c fe1e 71bd 98fd 7dbe c5cf c63d
000003f0: 73d4 c43e 84e7 0cbe 6975 8bbe 457d 1bbe
-0.029045958 0.20842731 -0.35956195 -0.33760434 -0.18072928 0.17167342 -0.052204434 0.4181376
-0.041059714 0.11696609 -0.1709069 -0.04667663 -0.42841044 -0.28974932 -0.1779204 0.0038501564
0.2120918 0.28834376 -0.30803263 -0.1995935 0.24620093 0.36106178 -0.07548223 0.3417188
-0.06501899 0.057738587 0.414203 -0.39297792 -0.28335688 -0.11503873 -0.16989191 0.3847756
-0.2826022 -0.20894423 -0.31551808 -0.3785675 -0.2566185 0.45267802 0.16916548 0.1863627
0.0020667452 -0.20904109 0.08232004 -0.4183301 -0.32391098 -0.17004536 0.27813908 0.27581313
-0.21122338 -0.029024338 0.35543406 0.44522995 0.20032308 0.051736403 0.29117137 -0.24933183
0.07637195 -0.33028236 -0.30854914 -0.2296152 0.2696478 0.18350658 -0.26708618 0.12005076
0.23045173 -0.088372365 0.03801511 0.10832048 0.2596278 0.4115985 -0.41079047 -0.1431573
0.20033588 0.33713487 0.35576487 0.41553804 0.11340052 -0.35786733 0.037583027 -0.28333312
-0.41115108 0.37970787 0.30918276 -0.45933226 0.07047681 -0.15120873 -0.09536367 -0.23083958
0.18446918 -0.2523953 0.12615107 0.25873247 0.31953663 0.17986704 -0.429966 -0.27754006
0.2387135 0.12038298 -0.3526563 -0.26130676 0.4003191 0.35082886 -0.1637088 -0.1207586
-0.43421376 -0.09987323 -0.33276322 -0.37246373 -0.017241249 0.07454684 -0.2134222 0.29404798
-0.26288995 0.38220835 0.2828959 -0.4628323 -0.095856786 0.024786523 0.04124341 0.08206193
0.18130618 0.0020573542 -0.22298907 0.23800282 -0.40259477 -0.2693065 -0.13698262 -0.2323783
-0.13239396 -0.34248748 -0.11888403 0.085326135 -0.27060068 -0.03847057 0.30461812 -0.017303566
0.017665148 -0.012576123 0.0714507 0.26529908 0.42264485 0.27440813 0.41770372 -0.050531402
-0.41992593 -0.22913276 0.30147752 -0.016835751 -0.21243946 -0.33285695 -0.45036358 -0.36255285
-0.008370846 0.22177598 0.21830335 -0.44157395 0.2454503 -0.35770106 -0.08464749 -0.17143437
-0.10429467 -0.056811504 -0.4167878 -0.37963718 -0.06347784 0.04166788 -0.2211345 0.19222696
-0.40405494 -0.03172141 0.43774185 -0.20211346 0.4629621 0.20569892 -0.35985017 0.36670813
-0.038370945 -0.19916375 0.3595451 -0.35946056 0.12059764 -0.10636903 0.3417926 0.11218214
0.20223303 0.18605298 -0.11764573 -0.08104848 -0.37017608 0.24067578 0.4110091 0.31949037
-0.3831256 0.07703764 -0.25816068 -0.24748671 -0.26731578 0.15396477 -0.26765728 -0.01091536
0.00013474363 0.29038158 -0.3400943 -0.29844472 -0.25110722 0.38042137 -0.20178561 0.38860926
0.16047595 0.05538905 0.02362133 -0.09755866 0.06718808 -0.11161019 -0.012634331 0.047210116
-0.3662201 -0.24231657 0.34467065 -0.37938413 -0.007108376 0.49154806 0.1902505 0.0052439887
-0.39497533 0.30814663 -0.34379828 -0.08879149 -0.113304265 -0.029483905 0.06865112 0.36344898
0.09412527 0.3863298 0.25933018 -0.39201742 0.17580347 -0.2940805 -0.13532457 0.18575063
0.22780836 0.346327 -0.13639322 0.0014676276 0.23098734 -0.52766967 0.28346512 -0.37846926
0.023329984 -0.058867447 -0.2480377 0.09707598 0.38443336 -0.13760191 -0.27238014 -0.15184505

bias f4 [128]
00000000: 4044 8cbe 7830 8b3d e24c c43d 0f81 14bc
00000010: 4ad6 90be f424 d13e f3ee 92be ca5e a83e
00000020: 8e8e cabe 183e 06be 921b 6f3e 4d7b 31be
00000030: 5aa8 b53e d9af a6be bd62 d1be 4a54 65be
00000040: 503f 7d3d 2b04 e53e 3982 74be 3793 0d3e
00000050: d72e 1cbe 718b 93bd ef16 9d3e 97f7 b7be
00000060: b7ef 473d cf9b dc3e a346 a5bd f353 a63e
00000070: fea5 f4bd 61eb b23e 7e5b efbe 573a 1bbd
00000080: e9e9 05be 2d64 1d3e d57e 423e 2cb9 ac3e
00000090: 43fe 9fbd 238c 9abc ea35 aa3e 8bc9 14be
000000a0: ec12 c73e d788 99be d4a1 51bd 4a5e f4bc
000000b0: f777 183e 26b4 a43e 9353 aebd 5cf4 a1be
000000c0: b5c5 653e 1025 203e d58f 073e 2e45 80be
000000d0: dd9e 873e 48d0 cb3e 4065 c33d aecb d4be
000000e0: e90b a73e 8322 96be fcc6 123e 45c6 7f3d
000000f0: c26a 67be 0828 fe3d 3505 bebe b1cb bd3d
00000100: 4f56 97be 0226 efbc 22dc d53d ab6e bc3e
00000110: 4339 5cbe fb01 9a3e 605d 80bd 35de 55be
00000120: eaf4 cbbe 60aa d3be 3b13 db3e e5e3 00be
00000130: bc25 2b3c ec3f 053e f6d5 a43e 29a3 c83e
00000140: 778c ae3e 5c51 aabe 028f bebd 24d4 93be
00000150: 1ea9 89be b98f ef3d 7a3e d73e 66d5 bbbe
00000160: 1d4f 933e 20d9 6dbe 17aa 88bd ae25 953e
00000170: 09db fdbd fb7a ab3c 3d60 9ebe f328 cc3e
00000180: 7504 45bd 0974 8cbe bec4 0d3e e252 adbe
00000190: 6271 c3be 5dc7 833d 6c36 ba3e 557b 09be
000001a0: 2383 4c3e 7e86 c63e 9870 8c3e 0417 5abe
000001b0: f853 88bd 0170 12be 0e85 bebe eb21 55bc
000001c0: a31e a53e aa85 b23e 7cc3 843c 219a 973d
000001d0: e8d9 3dbe 0e96 a43e 46d4 4ebe 550f a8be
000001e0: f227 903d 602f 8e3e 5f11 c5be 3cd1 c63e
000001f0: a7d6 0d3e 2af2 a2be a27f d7bd 0ec9 db3e
-0.2739582 0.06796354 0.09584977 -0.009063973 -0.2828849 0.40848505 -0.2869793 0.32884818
-0.39561886 -0.13109624 0.23350361 -0.17332192 0.35480005 -0.32556036 -0.40895644 -0.22395435
0.061827958 0.44729742 -0.23877801 0.1382569 -0.15252243 -0.07204331 0.3068156 -0.35931084
0.048812594 0.43087623 -0.080701135 0.32485923 -0.11945723 0.34945205 -0.4674949 -0.037897434
-0.13077511 0.15370245 0.18993695 0.33735025 -0.078121684 -0.01886565 0.33244258 -0.14530008
0.38881624 -0.29987213 -0.051179722 -0.029830117 0.14889513 0.32168692 -0.08512034 -0.31631744
0.224387 0.15639138 0.13238461 -0.2505278 0.2648839 0.39807343 0.09540796 -0.41561645
0.32626274 -0.29323205 0.14333719 0.062444944 -0.22599319 0.12409979 -0.37113348 0.09267367
-0.29558036 -0.029192928 0.104423776 0.36803183 -0.21506219 0.30079636 -0.0626781 -0.20885547
-0.39835292 -0.41340923 0.4278811 -0.12586935 0.010446008 0.13012666 0.3219449 0.3918698
0.3409154 -0.33265197 -0.0930462 -0.28872788 -0.2688684 0.11697335 0.42039853 -0.36686248
0.28771296 -0.23227358 -0.06673067 0.2913031 -0.12395293 0.020932665 -0.309328 0.39874992
-0.048099954 -0.27432278 0.13844582 -0.33852297 -0.38172442 0.0643451 0.36369646 -0.13425954
0.199719 0.38774484 0.27429652 -0.21297842 -0.06656641 -0.14300539 -0.37210888 -0.013008575
0.32249936 0.34867603 0.016206495 0.07402445 -0.18540156 0.32145733 -0.20198163 -0.32824197
0.07038869 0.2777052 -0.38489816 0.38831508 0.13851415 -0.31825382 -0.10522391 0.4292683

weight f4 [128, 128]
00000000: e35f 9fbd 429f f33a 1b43 913c e8f0 a9bd
00000010: 5712 1a3d 7f80 1a3d 0a4f 3f3d 5eac 47bd
00000020: 0217 a43d 791b 66bd 5bba a43d df21 c4bd
00000030: e082 b5bd 7b80 5f3d eaa7 803c d855 5238
00000040: 4458 63bd cb8f 9fbd 1cd8 efbc e99a bebd
00000050: 38fe 2ab9 ed37 023c 8662 1cba df86 263d
00000060: 2435 993d 35a9 4a3c e231 1ebd cb5f 17bd
00000070: 5fe6 67bd e567 91bd 7bcb 69bc 1433 efbc
00000080: 355e e13c d0bb 44bd a193 0b3c 9277 a2bd
00000090: 6379 8d3b b37e 8a3d 5800 443d 43d3 83bd
000000a0: 6144 e83b 6897 8e3c 5d25 4fbd b420 11bd
000000b0: 6891 a73c e5e6 b4bd 0771 3e3c b6e7 9abb
000000c0: 92e3 26bd 7f96 0b3d 68c6 3ebc 2d17 fa3c
000000d0: 6011 a63d c730 b7bc dba0 2a3d 60de 62bd
000000e0: 44f4 a4bc 1607 ccbd 7e1b 3c3d 011e 82bd
000000f0: 44f1 693c 2626 8d3c 0305 7e3d 7545 abbc
00000100: 926e a93b e058 efbd bf7b 04bd e30e fb3c
00000110: 5ec9 a43d 7ce0 f6bd e647 07bd 04ea 913c
00000120: 56a9 a3bc b1b1 5c3d ea2f dbbb 67bb fb3c
00000130: 96ca 073d 16b0 eebc 4390 dc3c c201 5a3d
00000140: 3aed cdb6 b930 213d 78fe 52bb 0959 883d
00000150: 5195 1ebd cdd8 acbd 4b9e 993d 51d2 aebd
00000160: 48ae 1dbd 6e1f 46bd 33d9 20bb 81ab b5bd
00000170: 9033 263d 854b a33d e677 083c ed20 253c
00000180: b02c a63d ee3c e8bd 909d 333c e790 2fbd
00000190: 9111 3abc fdac e13c be36 8eba 95a1 4abc
000001a0: 9394 c8bd 621c e23b 12d1 f2bb 0264 283d
000001b0: be6d 653d f29c ab3d 1b15 6fbd b2f4 feba
000001c0: 7ef5 93bd 54e6 a4bd 2d6e 81bd 8e0d 9f3d
000001d0: 4c2c 343d 261c 3b3d 77d4 563d 75f8 8abd
000001e0: 3410 273c 66fd 8b3d 1011 98bc b8c2 943d
000001f0: cc07 9e3c 999b 653d ff20 10bd d4c5 ec3c
00000200: b9fb 9dbd cd68 34bd 55c5 8d3c fd1c dc3c
00000210: 3847 563d eb17 b83d 6fc1 973d bffd 8b3d
00000220: 8be3 423d f7a1 79bc 8e58 96bd 4526 39bd
00000230: fb9e 48bc c8ec 37bd 9064 2a3d 9305 1d3d
00000240: bbcd 873c 0ace 0f3d 075b 9c3d 17de fe3c
00000250: 04ca a0bd 5a99 39bd 4ff0 133d 819d 153d
00000260: 8d14 2e3d 5df5 c6bd f44f acbd 7b26 593d
00000270: 8f87 643d 0d04 93bd 2f41 3e3d 6cdd 98bd
00000280: b4a1 543d c1b8 893c 4017 b13d 864e f8bd
00000290: 88dc b0bd 9a21 5f3d 53d3 ad3d 0e18 033d
000002a0: c4c6 563d bdf9 e2bd fb96 303d d604 bcbd
000002b0: 4372 bf3c 9c01 9dbd a165 01bd 5a72 473d
000002c0: f600 3ebd 1aa0 943c 86e0 aabd c084 e3bd
000002d0: aa8f 083d 500d 2abd c4de 22bd cbc7 41bb
000002e0: f6e2 96bd 5d51 35bd de4f ae3d 6deb 843d
000002f0: e43e b13c 0ce3 c8bc 0376 d23d f877 81bc
00000300: 98fd 82bd 37fe 923d f1cc e33d 8767 a4bd
00000310: 0455 06be e828 a03c 0da3 8f3d 8059 87bd
00000320: af1c 0c3d 488e 833d 3a17 bd3c 052a dd3c
00000330: ba07 a23d 0b1b 953d 9488 78bd f243 abbc
00000340: 5485 373d 259b b93d 8061 cbbd 8d10 463d
00000350: 9ae0 c4bc 7e5f 61bd 2811 733d bdac 8abd
00000360: a7cf 153d f1b3 86bd 1515 5abd 977a 1ebc
00000370: 21da 69bd 13f3 4c3d d788 f63b 4a7c cd3d
00000380: b46c e93c ef06 033c ec4f 913d dee7 043c
00000390: a0c8 a53c 9a30 50bc 3575 c63c 539f 08bd
000003a0: ee70 22bc c287 8abd eba2 ed3a 60d4 e5bd
000003b0: 086b efbc 001a 963c 7fe0 b6bd 40cc 7dbd
000003c0: 7616 123c eea0 e6bc 6d4a a73c b569 063c
000003d0: 7437 773d 5df2 6bbd 257e 19bc f3fb 3f3d
000003e0: ead3 a43d 12a4 1ebc c9c5 afbd 0791 8b3c
000003f0: 7f4c 463d c39b 77bd be4a bbbd 1501 5b3d
-0.07781961 0.0018586891 0.017732194 -0.08297902 0.037615146 0.0377202 0.046706237 -0.048748367
0.08012201 -0.056178544 0.08043357 -0.09576773 -0.08862853 0.054565888 0.015705068 5.014785e-05
-0.0555041 -0.07791098 -0.029277854 -0.093068905 -0.00016307167 0.007947904 -0.0005965609 0.040655967
0.07480839 0.012369444 -0.03862179 -0.03695659 -0.056616183 -0.070998944 -0.014269705 -0.02919916
0.027510742 -0.048030674 0.008519084 -0.079329625 0.004317449 0.06762447 0.04785189 -0.06436779
0.0070882295 0.01740618 -0.05057274 -0.03543158 0.020455077 -0.08833102 0.0116236275 -0.004727329
-0.04074437 0.03407907 -0.011643983 0.03052863 0.08108783 -0.022362126 0.04165731 -0.055387855
-0.020136006 -0.09962289 0.045924656 -0.06353379 0.014278714 0.017230105 0.0620165 -0.020907143
0.0051706517 -0.116868734 -0.032344576 0.030646747 0.0804622 -0.12054536 -0.033027552 0.017811783
-0.019978207 0.053880397 -0.0066890614 0.030729009 0.033152185 -0.029136699 0.026924258 0.053224333
-6.137093e-06 0.039353106 -0.0032195132 0.06657607 -0.038716618 -0.08439789 0.07500895 -0.085362084
-0.038496286 -0.048369817 -0.0024543523 -0.088706024 0.040576518 0.079733886 0.008329367 0.010078651
0.08113992 -0.113397464 0.010962859 -0.0428628 -0.011356727 0.027548308 -0.0010850055 -0.012367626
-0.09793963 0.006900356 -0.007410177 0.041111 0.05601286 0.08379544 -0.058369737 -0.0019451587
-0.07224558 -0.08051744 -0.063198425 0.07766257 0.043987557 0.04568114 0.052448716 -0.06785671
0.010196734 0.06835441 -0.018562824 0.07263702 0.019290827 0.056056593 -0.035187718 0.028902926
-0.07714028 -0.04404526 0.01730601 0.026869291 0.052314013 0.08988937 0.074099414 0.068355076
0.047580283 -0.015236369 -0.07341109 -0.045202512 -0.012244935 -0.044903547 0.04159981 0.038335394
0.016577592 0.035108604 0.076345496 0.03111176 -0.078510314 -0.045312263 0.036117848 0.03652716
0.042500068 -0.09714768 -0.08413687 0.053015213 0.05579334 -0.07178507 0.046448883 -0.07464108
0.051912025 0.01681173 0.08647013 -0.12124352 -0.08635813 0.054475404 0.084875725 0.032005362
0.05243565 -0.1108279 0.043112736 -0.0918061 0.023369914 -0.076663226 -0.03159106 0.04869304
-0.046387635 0.018142749 -0.08343606 -0.111093044 0.033340134 -0.041516602 -0.039763227 -0.0029568549
-0.07367508 -0.044267047 0.08511327 0.064902164 0.021636434 -0.024522327 0.10276415 -0.015804276
-0.063960254 0.07177394 0.11123074 -0.08027559 -0.13118368 0.019550756 0.07013521 -0.06608868
0.034207042 0.06423622 0.023082364 0.026997576 0.0791163 0.07280549 -0.060677126 -0.020906422
0.044804886 0.090627946 -0.09930706 0.048355628 -0.02403288 -0.05502271 0.059342533 -0.067712285
0.036574986 -0.0657729 -0.05324276 -0.009672782 -0.05709279 0.0500365 0.007523637 0.10033472
0.028494217 0.007997259 0.07095322 0.008111922 0.020237267 -0.0127069 0.02422581 -0.03335507
-0.00991462 -0.06764175 0.0018130218 -0.11222148 -0.029225841 0.018322945 -0.08929538 -0.061962366
0.008916488 -0.02815291 0.020421231 0.008203913 0.06035562 -0.057604183 -0.009368454 0.046871137
0.08048232 -0.009682672 -0.085826464 0.017036928 0.048412796 -0.06045128 -0.09145115 0.05346783

bias f4 [128]
00000000: dc68 803d 82e5 d4bc 6c9d 603c 7c36 153d
00000010: a5f7 a1bb c589 abbd 67a2 5abd 08ef 903c
00000020: 4b74 323d 1cd7 6d3d 13cf 7d3c 30dd bd3d
00000030: 288e 493d 0333 103d 1612 b83d d526 26bd
00000040: 245a 433d 285d bbbc 45bd 943c 644a 0f3d
00000050: 5149 a0bd 0f80 9d3d e8b4 233d 28af 26bd
00000060: ea21 19bd cac1 babc 21f1 233d 383b 57bc
00000070: 89a2 b33c 64e1 0bbd 98a7 9c3b 2954 ac3d
00000080: 2e64 c4bd a2c1 d0bb 3fbb 443d 2b39 613d
00000090: 21a1 233d d2c9 293d d545 87bd a5ac 89bd
000000a0: f6ba 98bd 728b 993d 7bb1 7e3d 1e0e 873d
000000b0: 8efb 7e3d ab8d 0fbd f65a ac3d 63f9 d13b
000000c0: c7e1 8c3c 5c51 0ebd 270c a0bc 8120 47bd
000000d0: 47e9 313d 2b8b 813d 8d58 4abd a29f 4abd
000000e0: 7026 8cbc 1828 adbd 1884 41ba 4682 ff3c
000000f0: 666c 98bc 5905 ddbb fa6e 543d 1ea4 a7bd
00000100: 3270 eabc 1502 febc 0944 703c 0338 703c
00000110: 9961 56bd 6980 6dbc 298f 97bd 4bb3 5bbd
00000120: b1d4 d03c 9eeb 50bd f31c 853d ec99 4bbd
00000130: e7c1 16bc 62d6 b13c 77a6 213d 386f fe3c
00000140: 9d9e bf3b 1546 20bc cab0 f4bc 9888 b23d
00000150: 2cd1 953d 1706 39bd 9895 213d 76d7 d93c
00000160: 49e0 98bd 060f 48bd 70fd 54bc 32da 60bd
00000170: 90c9 acbc 4119 69bc 9d88 87bd 0186 2dbd
00000180: c8ec 923c 2e83 06bc 02a1 453d 1a42 583d
00000190: dae6 793d 71bb 0dbd 04d3 0fbc 6f91 88bb
000001a0: 7cd9 df3c c815 b2bd 8324 a53d e35b 4b3d
000001b0: ecd4 1dbc 115e f0bc 624f d33d 61ac a03d
000001c0: 4446 d63d 5154 b2bc 8d7f a6bd b2f6 9cbd
000001d0: 2734 513c 0d50 8d3b 372a 863d 29a6 38bd
000001e0: 5298 bcbd a408 85bc 44a1 9a3c 231b cf3c
000001f0: 6c49 39bd d858 75bd c74f 74bd 97fa c13d
0.0627 -0.025988344 0.013709407 0.036428913 -0.0049428516 -0.08375887 -0.053377535 0.017692104
0.043567937 0.058066472 0.015491265 0.09270704 0.049207836 0.0352049 0.089878246 -0.040564377
0.047693387 -0.022871569 0.018156657 0.034983054 -0.07826484 0.07690441 0.039967448 -0.040694386
-0.03738586 -0.022797484 0.04002488 -0.013136677 0.021928089 -0.034150496 0.004780721 0.0841449
-0.0958942 -0.006370739 0.048030134 0.05498616 0.039948586 0.041452236 -0.06605116 -0.067223825
-0.07457535 0.074973 0.062180977 0.065944895 0.06225162 -0.035047214 0.08415787 0.006407903
0.017197503 -0.03474556 -0.019537045 -0.048614983 0.04343536 0.06325372 -0.049400855 -0.049468644
-0.017108172 -0.08454913 -0.0007382049 0.031190049 -0.018606376 -0.0067450223 0.051863648 -0.081856
-0.028617952 -0.031006852 0.014664658 0.014661792 -0.05233917 -0.014495947 -0.074003525 -0.053637784
0.025492044 -0.051005952 0.06499662 -0.04970734 -0.009201503 0.021708671 0.039465394 0.031058893
0.0058477656 -0.009782334 -0.029869456 0.087174594 0.07315287 -0.045171823 0.039449304 0.026591998
-0.07464654 -0.048842452 -0.012999877 -0.054895587 -0.021092206 -0.014227212 -0.06617854 -0.042364124
0.017935172 -0.008209987 0.048249252 0.052797414 0.061011173 -0.034602586 -0.008778337 -0.0041677277
0.027325384 -0.08695561 0.08063605 0.049648177 -0.009633284 -0.02934173 0.103178754 0.07845379
0.10462621 -0.02176872 -0.08129797 -0.07664241 0.012768782 0.0043125213 0.065510206 -0.045080338
-0.0920874 -0.016239472 0.018875726 0.025281494 -0.045236036 -0.05989918 -0.059646394 0.09471624

weight f4 [128, 128]
00000000: 3d09 39bc b2de ab3c 4324 813d 7b70 84bd
00000010: 2e14 8dbd c4af cebd 8e7b f23c cec3 593d
00000020: 2b00 733d 04d9 29bd f8bb 313c 8ce9 083c
00000030: b373 463d e3ab 96bd 99f9 cd3d 6915 bbbc
00000040: 6f40 473d c8fb 76bd 6350 23bd 09ca 6dbd
00000050: 243f 8bbc 786d 8cbd b8b7 293d 4a18 af3d
00000060: be12 983d d6b8 72bd d2a2 663c e164 96bc
00000070: 87fa 00bd 0043 3dbd 5679 773c 65dc 4fbc
00000080: 6ac7 83bd 88aa 033d 8994 c03d 8f96 643c
00000090: 0d74 f43d d711 53bd 887b bd3d 12dc 713d
000000a0: 3273 a63d 973b 723c 04ae 97bb 57f0 25bd
000000b0: 7471 9cbc 6eee ee3c 3c11 6f3b 1f3f ae3d
000000c0: 9804 17bb 4611 35bd 71a8 46bd 7e7a e83c
000000d0: 7f6b db3d 91d8 b53c e108 87bd 4bbc 263d
000000e0: 8727 8d3c 17fb 793d 394a 333d 400a b23d
000000f0: 9a59 003e 9a93 46bd 0ec1 953d 129c 14bd
00000100: 2151 bcbd b3fc b33d 16db 2abd 13ea eebb
00000110: e7b9 c73d edef cdbc 02b7 963d 860f 5c3d
00000120: 195e 023c d2ab bb3c 8ab4 7abd d4a9 d5bc
00000130: 7284 61bd 8631 7f3d c7d7 2bbd b0ac b43d
00000140: bc84 023d 8c79 513c c470 ea3d 252d 193d
00000150: b701 903d 4406 0e3c bf3c 0a3d be5d 91bd
00000160: dcd1 2c3b eec1 ed3a 3725 a8bd d0c4 5dbc
00000170: 9e04 3d3d cd63 643d d089 623c 5a5b 37bc
00000180: 7cbf 07bd 80f9 1fbd 97f2 203c 4e17 12bd
00000190: 9151 6cbd 5184 903c 2562 28bd 2e83 d33c
000001a0: f1bb 933d 3156 6ebd 0548 313d d9e5 53bd
000001b0: ee98 a0bd ef86 913d f797 c9bc 1276 c13d
000001c0: 94a9 cc3d 393c 513d 58f1 11bd aaff 053d
000001d0: af09 523d 9c96 0b3d 0aa7 8d3c 3e6c d33d
000001e0: df8e fa3b ca0e 2e3d 905e 1abd e7bf a3bc
000001f0: 6169 9c3d 0367 4abc b823 6c3d 8253 e0bc
00000200: 600f b13c 305a 8cbd 9b11 cd3c c57e 243c
00000210: b5eb 12bc 0d7d 2c3d dd0e 4e3d 7d9f 753d
00000220: 0281 b2bd 4d80 063b cb0c 643d 169f 843d
00000230: 2507 77bd f81b e5bc c9e8 8dba e8aa c73a
00000240: d175 193d b1bf 643d 3107 95bd 29dc c23c
00000250: de1d 6cbd 47de fbbc 7c49 22bc 3383 c23c
00000260: 1e2a 32bc c510 ae3d 307a adbd e3e4 363d
00000270: 2f10 d53d cbc9 dbbc 1c86 403d 6b4d 2dbd
00000280: 8103 23bd 4b2a 1dbd 0dc1 7d3d 627e 763d
00000290: 59d0 a7bc dd86 3bbc 5ff0 5ebd 6727 4d3d
000002a0: e45e 803d 3c2f bc3b a255 4bbd c0f5 653d
000002b0: a30c 67bd baf3 4f3d 7330 77bd f04d 3e3d
000002c0: 1a67 48bd 1b78 373c e1b9 c33d 3a81 913d
000002d0: 1324 92bd 5569 8fbd 0e1c c63c baba f2bc
000002e0: 226d f13b 72bb 8c3d bdf3 76bd 5a02 87bd
000002f0: d8b0 55bd b97f 67bc 8e57 76bc 817d 033d
00000300: 95fd 5abd 7668 f7bc 528a d2bc 3e66 253d
00000310: 887e af3d 99f3 8fbd b616 5b3d e5f0 573d
00000320: 1f79 f4bd 3642 d2bc c88c 323d 0364 a1bc
00000330: 2394 d13c affd fe3b ce37 b8bd 38f5 503d
00000340: 4cc1 6a3c 14b0 2ebd 8db1 ea3c 2355 0dbd
00000350: 9217 e4bc 772d a1bc fe8d 98bd 70bd 95bd
00000360: f541 983b 98c7 5dbd 73e9 0c3d 9347 7f3d
00000370: f9e5 653c 5433 93bd fa83 aabd f6fb 683d
00000380: 4564 673c 9ca3 7ebd 8c4d 40bd 0866 0b3d
00000390: f2df 953c c03c 653d 4607 c63d b8c1 5bbc
000003a0: 2851 ebbc 32a0 a9bd be67 da3d 5028 903b
000003b0: ef0a 33bc 2759 33bc 75cd 40bd c730 10bd
000003c0: 4d6f 823d f841 3f3d 1ab7 e83c 06cf a5bc
000003d0: 4763 3a3d e9b6 c03d e7ee abbd 17ac 25bd
000003e0: 29bf c43d 048a 9e3d 53fd 123d 304b ac3d
000003f0: b42b 803b 44bc c33c b76e 8a3d a033 c63d
-0.0112937065 0.020980213 0.063057445 -0.064667664 -0.068886146 -0.100921184 0.029599931 0.05316525
0.059326332 -0.041466728 0.010848038 0.008356463 0.048450183 -0.073570035 0.100573726 -0.022837358
0.048645433 -0.06029871 -0.039871585 -0.058054004 -0.016997881 -0.06856817 0.041434973 0.08549555
0.0742545 -0.059258305 0.014076905 -0.01835865 -0.03148892 -0.046206474 0.015104612 -0.0126868235
-0.064345196 0.032145053 0.09403331 0.013951912 0.119361974 -0.051530685 0.09252077 0.059047766
0.081274405 0.014784715 -0.0046288986 -0.04051241 -0.019097067 0.029166427 0.0036478778 0.08508133
-0.002304351 -0.044205926 -0.048500482 0.028378721 0.10713863 0.022197993 -0.065934904 0.040706914
0.017230762 0.061030474 0.043771956 0.08693361 0.1253418 -0.048480608 0.07312213 -0.036281653
-0.091951616 0.08788433 -0.041712843 -0.0072910874 0.09752255 -0.02513882 0.07359125 0.05372574
0.007957005 0.022909079 -0.06120733 -0.026081957 -0.05505795 0.06230309 -0.04195383 0.08822
0.031864867 0.012785327 0.114472896 0.03739657 0.07031577 0.008668486 0.03374934 -0.07097958
0.0026370203 0.0018139461 -0.08210223 -0.013535693 0.04614698 0.05575924 0.013826802 -0.0111912135
-0.033141598 -0.0390563 0.009823463 -0.035666756 -0.057694975 0.017641218 -0.041109223 0.025819387
0.07213581 -0.058187667 0.043281574 -0.05173287 -0.07841669 0.07105815 -0.024608595 0.09446348
0.09993282 0.051082823 -0.035630554 0.032714523 0.051278766 0.03407918 0.017291564 0.1032338
0.007646426 0.042494573 -0.037687838 -0.019988967 0.07637287 -0.0123536615 0.05765125 -0.02738357
0.021613777 -0.068531394 0.025032809 0.01003999 -0.00896733 0.042111445 0.050307143 0.059966553
-0.087160125 0.002052325 0.055676263 0.06475656 -0.060309548 -0.027967438 -0.0010826822 0.0015233429
0.037465874 0.055846874 -0.07276762 0.023786621 -0.05764567 -0.030745639 -0.009905215 0.023744201
-0.010874299 0.08499292 -0.08470571 0.044651877 0.104034774 -0.02682962 0.047002897 -0.04231016
-0.039798263 -0.03837041 0.061951686 0.06017912 -0.02048509 -0.011445728 -0.054428454 0.050086405
0.06268099 0.0057429355 -0.049642213 0.05614257 -0.056408536 0.050769545 -0.06034894 0.046461046
-0.04892645 0.011198069 0.09556938 0.07104726 -0.07135787 -0.07002512 0.0241833 -0.029630054
0.007367746 0.0687169 -0.06029104 -0.065922454 -0.052170604 -0.014129573 -0.015035523 0.03210211
-0.05346449 -0.030201178 -0.025700722 0.04038071 0.08569056 -0.070288844 0.053488456 0.05271997
-0.119371645 -0.025666337 0.04359129 -0.01970101 0.025583332 0.0077817063 -0.08995019 0.05101511
0.014328312 -0.04264839 0.028649116 -0.03450502 -0.02784327 -0.019675 -0.07448958 -0.07311523
0.0046465346 -0.054145426 0.034402322 0.062324118 0.014031881 -0.071875244 -0.08325954 0.056880914
0.014123027 -0.06216775 -0.046948954 0.03403285 0.018295262 0.05596614 0.09669356 -0.013412885
-0.028725222 -0.08282508 0.106643185 0.004399337 -0.0109279 -0.010946549 -0.04707094 -0.035202768
0.06368885 0.046693772 0.028407622 -0.020240318 0.045504835 0.09409887 -0.083951764 -0.04044732
0.096067734 0.07741168 0.03588612 0.084127784 0.00391146 0.023893483 0.067593984 0.096778154

bias f4 [128]
00000000: 1b4f 9a3d a810 f7bb a430 9ebd 72c5 053c
00000010: db1d 973b 4b53 82bb ad66 c23c 6fe9 8abd
00000020: 2b6d 3fbd 7690 c93d 9b49 b63b 1979 0cbd
00000030: be91 953c 34f1 96bd f0ec 873b a5d5 813d
00000040: e997 243d d5e1 81bd 3b25 023d 48a8 763d
00000050: 7e66 873d 018f e8bc fdda 30bd 3893 48bc
00000060: b5c6 2c3d 6fb6 b43d 9aaa 15bd 8d6a 213d
00000070: 3f12 5b3d a22b 9d39 9190 983d 3bb3 9c3b
00000080: f4e7 c2bc c4ad 3dbd 7998 9c3d ae00 873d
00000090: a72d ad3d 9020 60bd c93c e6bb c552 2e3d
000000a0: 7018 93bd 7921 86bd 68eb f3bc 6fa1 8abd
000000b0: 1c89 b93d 504e 633d 0631 25bd d6b3 94bd
000000c0: 9108 0dbd fa6e 3bbc 739b 7ebd 6377 2dbd
000000d0: b9b2 8d3d 9565 03bd 2336 f3bc 83fa b6bc
000000e0: 3846 df3d d4fb ab3d 586f e03c 130e 953d
000000f0: eb5b a5bb 4e8d 4dbc a4bb 49bc e40f a43c
00000100: e516 babc f316 ba3d 43a5 e93c 688e df3d
00000110: b9f2 4cbd 2bb9 1ebd 1c25 0bbd 5d68 833a
00000120: 8d58 403c 8d81 8a3d 90dd a4bd f87f 04bd
00000130: ec52 803d a642 cfbc ea21 8bbd 9f25 84bd
00000140: 0cb6 aa3d 7b37 243c 58d4 683d 6b13 bbbd
00000150: 3c97 9f3c 4628 383d 47c3 21bd d21f 493d
00000160: ddf1 6abd ddea 85bd 378f b83c b817 993d
00000170: bb8b 373c d123 2ebc c37a 673d 0e20 b93d
00000180: 5332 57bc 4080 5d3d 6b68 b5bc 1620 a6bd
00000190: d23f 873c 8e4b 1bbd c573 603d 6be8 573c
000001a0: 72bb 913a 0477 35bd 30ee 2ebc 8dcf 563c
000001b0: 4800 8d3d 6f66 7abd c58e 5ebc 5c33 35bd
000001c0: 77f1 173c 9e7e e1bb 11e6 5d3d 8955 bb3b
000001d0: 7e3a 503d 62fc 733d 97b9 50bd d1f9 063d
000001e0: 87b8 63bc 8cd0 7a3b a9b9 753c 4ee7 673d
000001f0: d056 b73b 0ba0 7bbd 7b49 cf3c 5f3a 4dbd
0.075346194 -0.0075398274 -0.07724121 0.00816475 0.0046117133 -0.0039772145 0.0237306 -0.06782805
-0.04673497 0.09842007 0.0055629737 -0.034295175 0.018257972 -0.073702246 0.004148118 0.063395776
0.040183935 -0.06341902 0.031773787 0.06021908 0.06611346 -0.028388502 -0.043177593 -0.012242131
0.04218169 0.08823859 -0.03653965 0.039408255 0.053484198 0.00029977883 0.07449449 0.004782108
-0.023792244 -0.046308294 0.07646269 0.065919265 0.08455973 -0.054718554 -0.007026289 0.042559404
-0.071823955 -0.06549353 -0.029775336 -0.06769072 0.09059355 0.055494606 -0.040329956 -0.072608635
-0.034431998 -0.011440033 -0.062159967 -0.042350184 0.06918854 -0.032079298 -0.0296889 -0.02233625
0.10902065 0.08397642 0.027396843 0.07278075 -0.005046358 -0.012545897 -0.012312803 0.020027108
-0.022715995 0.090864085 0.028521186 0.10915834 -0.050036166 -0.03875081 -0.033970937 0.001002561
0.011739862 0.06762991 -0.08050072 -0.032348603 0.06265816 -0.025300335 -0.06793578 -0.06452488
0.08335504 0.010022993 0.05684313 -0.09134563 0.019481294 0.044960283 -0.03949287 0.04910261
-0.057359565 -0.06538937 0.022529228 0.07475227 0.011202748 -0.0106286565 0.05651356 0.09039317
-0.013134557 0.054077387 -0.022144517 -0.08111589 0.016509924 -0.03791385 0.054797906 0.013177971
0.0011118485 -0.044302955 -0.0106769055 0.013111007 0.06884819 -0.061132845 -0.013583844 -0.044238433
0.009273878 -0.006881549 0.054174487 0.0057169837 0.050837032 0.059566863 -0.050958242 0.032953087
-0.013898975 0.0038271276 0.014997878 0.056617074 0.0055950657 -0.061431926 0.025303593 -0.050104495

weight f4 [128, 128]
00000000: dcd1 103c 4217 72bd 6ed3 28bd 9332 cf3b
00000010: 9500 d03d ed5c babd e464 813d 61ab 1f3d
00000020: 4a90 b1bd db66 333d 8348 a6bd 94b8 62bc
00000030: cd30 863c a456 5d3d ed04 57bc 9cbe b73d
00000040: cd62 8fbc 7b11 5ebd 9117 67bd 31e6 133c
00000050: 0447 62bd 2f76 913d 3a38 69bd f991 0d3c
00000060: f1a9 08bc 2035 1b3d e0ad e73c d9a4 493b
00000070: 0654 183c aab1 95bc 1477 68bd 8f9f c03d
00000080: a5e8 9cbd de73 c73d 6dfd 81bd 3fff 54bb
00000090: fab0 fbbc c343 b03d 3856 22bd 5595 9e3b
000000a0: ad0f 9c3d 281c 20bc f9e3 97bd edcf 713d
000000b0: 13a5 2c3c adec 88ba 7f6a b9bc 470b cebb
000000c0: 2e51 4a3d 1e38 5dbd 5c24 acbc 17c6 113d
000000d0: 682e e3bd c6fd 9b3d 5ae9 bb3d f528 53bc
000000e0: 4b6d e13c 4c0f 8abd c8d7 853c bf1d 44bd
000000f0: 9676 2c3d 73b1 683d a641 66bd 8b7d acbd
00000100: 24c6 703d 8fdf a83c d402 97bd 27ff 8abc
00000110: d53e c8bd 187f 9e3c d51d 48bd afd1 593d
00000120: 46ff 96bc 2c22 ca3d 0643 d3bc 1256 1bbd
00000130: e8de 16bd 60e1 a43d 1687 1a3d 5701 ebbb
00000140: b087 36bd a6e8 10bc b36e 9d3d 7aff c33c
00000150: 2c1f 953d 4cb8 a13d b1b6 63bd ca33 c6bd
00000160: 2b73 b33d 950b 43bd 237d ee3c ddad 43bd
00000170: 9038 ae3c 4b9b 39bc dc01 6cbd eaa7 823d
00000180: 3cce dabc 3465 4cbd c4d6 71bd 3c70 b33d
00000190: dd98 b03d ef32 a93d 62c0 ae3d f0e7 64bd
000001a0: 7812 afbd 1799 923d 442d 75bd 8e6f 76bc
000001b0: 0cd6 bb3b 9974 05bd 11f6 19bd 7e89 7cbc
000001c0: ebd7 873d 76fa c33d 6e9b f3bc 1c64 88bd
000001d0: bd16 ffbc a546 13bc 8898 8bbb 73d9 68bd
000001e0: e180 b73d 3147 d8bc cb16 41bd 871f 98bd
000001f0: acb5 4fbd ee5e 13bc 7991 63bd 1d47 9ebd
00000200: e37d cd3c 8307 913d bba4 2a3d 8e87 8c3d
00000210: 4dc6 833b 3c1a 10bd 35fe 863c 2343 a03c
00000220: 0dad 31bd c376 803c 4d99 b43d d29e 58bd
00000230: 1bf2 623d df8d 373d 9115 66bd 47d8 763d
00000240: 0c13 453d 9d60 3d3c e1e1 8dbb c7b7 32bd
00000250: 113f a63c bc8c 93bd 46be 343c 21a7 4bbd
00000260: c042 413c 74fa 713d 76ee 933d 34e1 663d
00000270: 7c1d b9bd 89e0 a03d a9ad 883d b398 59bd
00000280: ca8c d33d 47a4 9ebd 843e 5c3d 71a3 643d
00000290: ae33 abbd f30b d73b 6c21 22bd dffe 83bd
000002a0: caf2 ae3c 830a 44bd 5c26 63bd 9bc5 443d
000002b0: 4542 d0bc 86c2 d03c f2f1 3fbd 74c9 1dbd
000002c0: 8e26 483d 3642 1a3d 1491 95bd 149d 6b3a
000002d0: 6947 813d d54e c9bc fa0d 74bd 6c3f 8b3d
000002e0: 84f4 c43d 4c48 133d 582f 593d 83b3 66bd
000002f0: ccec 05bd c291 c33d 0911 4cbd 34e5 06bc
00000300: 0131 70bd 2d0f 01bd 5617 923c ae84 a3bd
00000310: 955d e13d 2c18 5abc 2014 b3bd 40b0 89bd
00000320: e30c 7fbd 649f 693d 4d07 8c3d d890 f43c
00000330: 333c 8f3b 61a6 b7b9 b7a4 3dbd bd1c 673d
00000340: 654d 013d 8a6f 973c 1a79 2b3d 7777 a23d
00000350: 16e3 5dbd a8f0 20bd 4414 61bc 8567 cfbc
00000360: cccf a6bb ded6 d03d 5a12 3f3d 51ff 37bd
00000370: 993a bdbd 066d 6ab9 6b46 553d 4748 9d3d
00000380: 8c48 6cbd 36cb 373d 0362 a1bd 0b4b 423a
00000390: d7a7 c7bd 0519 48bd 1002 3fbd acbf 7bbd
000003a0: 548b 57bd f58e 223d 0210 6abd 1457 2bbc
000003b0: 55ee debd df8b a93c dc49 2b3d ed46 3f3c
000003c0: f10a 343d ef5f 26bd f39f 803d 6d22 0ebd
000003d0: 46f8 633d 9199 ffbc 075d 3d3d e7ee 98bc
000003e0: 155f 9c3c 5798 d3bb 1d3f 903d 4ef8 183d
000003f0: 2538 673d ad42 003d 6719 033d 0532 99bd
0.008839097 -0.05910421 -0.04121726 0.0063231676 0.10156361 -0.090997554 0.063180715 0.0389818
-0.08670099 0.043799262 -0.08119299 -0.013837952 0.016380692 0.054037705 -0.013123733 0.08971903
-0.017503167 -0.05421589 -0.05641896 0.00902705 -0.055243507 0.0710262 -0.056938387 0.00864076
-0.008341298 0.03789246 0.028281152 0.0030768423 0.0092973765 -0.018273193 -0.056754187 0.094054334
-0.07661561 0.09738897 -0.06347165 -0.0032500771 -0.030724037 0.086066745 -0.039633006 0.004839579
0.076201774 -0.009772338 -0.07416529 0.059036184 0.010537404 -0.0010446511 -0.02263379 -0.0062879655
0.049393825 -0.054008596 -0.021013431 0.035589304 -0.11092836 0.07616763 0.09175368 -0.012888183
0.027517935 -0.06741199 0.016338244 -0.04787993 0.04210528 0.056809854 -0.05621495 -0.08422383
0.05878271 0.020614414 -0.07373586 -0.01696737 -0.09777609 0.019347712 -0.048856575 0.053178485
-0.01843227 0.09869799 -0.025788795 -0.03792388 -0.036833674 0.08050799 0.037726484 -0.0071717906
-0.044562995 -0.00884453 0.0768713 0.023925532 0.07281336 0.0789648 -0.05559415 -0.09677847
0.08762201 -0.047618467 0.029112404 -0.04777323 0.021267205 -0.011328529 -0.05761896 0.06379683
-0.026709668 -0.049901202 -0.059042707 0.087616414 0.08622906 0.08261668 0.08532788 -0.055885255
-0.085484445 0.07158106 -0.05985762 -0.015041245 0.0057323035 -0.0325819 -0.037588183 -0.01541364
0.0663298 0.09569256 -0.0297372 -0.06659719 -0.031138772 -0.008989011 -0.0042601265 -0.056848
0.089601286 -0.026401134 -0.047140878 -0.07427888 -0.050710365 -0.008994801 -0.055558655 -0.077284075
0.025084442 0.07081511 0.041661005 0.068617925 0.004021442 -0.03518127 0.016478637 0.019563263
-0.043377925 0.01568163 0.08818302 -0.052885838 0.05540667 0.044813033 -0.05617291 0.060264852
0.048113868 0.011558679 -0.0043299054 -0.043632295 0.020293744 -0.07204577 0.011031693 -0.049719933
0.0117957 0.05907674 0.07223217 0.056367114 -0.09038827 0.07855327 0.06673748 -0.05312414
0.10329588 -0.07746177 0.053770557 0.055819932 -0.083594665 0.0065627038 -0.039582655 -0.06445097
0.021356005 -0.047861587 -0.055456504 0.048040014 -0.025422225 0.025483381 -0.046861596 -0.0385222
0.048864894 0.0376608 -0.07303062 0.0008987945 0.063124485 -0.024573723 -0.05958364 0.06799206
0.0961695 0.03595762 0.053023666 -0.05632354 -0.03269653 0.095492855 -0.049820933 -0.008233357
-0.058640484 -0.031508613 0.017833393 -0.07984291 0.110041775 -0.013311427 -0.08744073 -0.0672307
-0.06226815 0.057036772 0.0683733 0.029854223 0.00437119 -0.00035028442 -0.046299662 0.05642389
0.03156795 0.018485803 0.04186354 0.07932942 -0.054171644 -0.039292008 -0.013737742 -0.025317917
-0.0050906893 0.10197233 0.04664836 -0.044921223 -0.09239692 -0.00022356593 0.05206911 0.076798014
-0.057686374 0.04487153 -0.078800224 0.0007411695 -0.0974881 -0.048851985 -0.046632826 -0.06146209
-0.052623108 0.039687116 -0.057144172 -0.010457773 -0.10885302 0.020696579 0.041818485 0.011674625
0.043955747 -0.040618833 0.06280508 -0.0347008 0.055656694 -0.031201156 0.046231296 -0.018668605
0.019088307 -0.0064573693 0.07043288 0.037346177 0.056450028 0.031313587 0.032006647 -0.074802436

bias f4 [128]
00000000: 52cc c63d 449e 583d bc7d cbbc dfac 853d
00000010: a99e 1f3d f1ea a93b af65 0e3c 5075 72bd
00000020: 0a24 a43d 4c66 053b eb79 413d 81f3 823d
00000030: c062 853d 116d a93d e184 a43a c680 02bc
00000040: 01cd 573d c58e 1ebd afd1 82bd d142 8c3c
00000050: 926e a4bd 2e6b 0dbb afca 88bd 3ff7 533c
00000060: 73c1 c6bd f60c d1bc 2a3a e23d 8817 613d
00000070: aca2 92bc d854 89bd 327f 1fbd 073b 7dbd
00000080: 1b08 173c d9b9 cd3d ab55 f13c 0a14 3a3d
00000090: 7c4e 053d 6978 76bd 7511 b1bd 984e 5e3d
000000a0: f6d4 bfbd a2c5 a63a 047e 813d 9952 e83c
000000b0: eb19 913d b237 cf3d cda4 90bd d80e 843d
000000c0: 033b 21bc cfca 5cbb 16eb 65bd 698b c13d
000000d0: b8f1 5f3c 1dcf 33bd 3575 7a3d e724 bebd
000000e0: ced6 cbbd 6cdb 24bc 2083 c13d 314e a6bc
000000f0: 1e53 9d3d c4ae 1ebd cbc3 4e3d 1b5b c33d
00000100: 90f8 25bc f3a9 843c c497 42bd f466 013d
00000110: f1e7 0d3d ced8 97bc 6560 623a 1a3f 103d
00000120: d45b a2bc 7ee6 8f3d 5391 803c 62ef aa3d
00000130: a652 a7bd 79d3 54bd 953d 223d 4ebc 9c3d
00000140: 606e 9f3d a3aa 4e3c de07 c73d a673 22bd
00000150: 1129 5cbd 2e97 1bbd 9ab0 a53d 8459 6ebd
00000160: 8f2e a73c 3dd9 843d ebe3 01bc b786 a33d
00000170: e746 4b3d fd49 4f3d b750 133d affc e7bc
00000180: b543 5c3c 70da e8bc bdf1 30bb 2b48 b33d
00000190: b234 11bc fed5 943d e496 363a bb9a 753d
000001a0: e1aa 873c 3113 983d dced b03c 92f2 b6bb
000001b0: 2121 723d 7e0b 2bbd cf43 713d 7895 a4bd
000001c0: 359e 123d 9482 44bd ade4 8b3c 32d9 b3bd
000001d0: 5735 393d 4183 0bbd 78a8 88bc 104f 5dbd
000001e0: b763 6fbb 8dd0 5bbc d8d4 8dbd 902a d53d
000001f0: e58a 843d 1879 e7bc 3403 aa3d 26bc 0bbc
0.0970694 0.05288531 -0.024840228 0.06527113 0.03896967 0.005185478 0.008691235 -0.05919391
0.080146864 0.0020355163 0.04723541 0.06394101 0.06512976 0.08272756 0.0012551808 -0.007965272
0.05268574 -0.038710374 -0.0638765 0.017121704 -0.08028902 -0.0021578777 -0.06679284 0.012937366
-0.09704866 -0.025518876 0.1104625 0.05495408 -0.017899834 -0.06705636 -0.038939662 -0.06182387
0.009218241 0.10045213 0.029459795 0.045429267 0.03254555 -0.060173426 -0.08645908 0.05427417
-0.09366791 0.0012723694 0.06322864 0.028359698 0.070850216 0.10118045 -0.07062683 0.06448144
-0.00984073 -0.003369022 -0.0561324 0.094504185 0.01366847 -0.04389869 0.061146934 -0.09284382
-0.0995308 -0.01006208 0.09448838 -0.020300956 0.07681869 -0.03874089 0.05047969 0.09538861
-0.010130063 0.01619432 -0.047508016 0.031592324 0.034645025 -0.018535998 0.000863558 0.03521643
-0.019819178 0.07026385 0.015694296 0.0834644 -0.08170061 -0.05195949 0.03960951 0.07653104
0.07784724 0.012613925 0.097182974 -0.039661072 -0.0537501 -0.037985973 0.08090325 -0.058190838
0.020407943 0.064867474 -0.007927875 0.07984679 0.049628165 0.05060767 0.035965648 -0.028318731
0.013443877 -0.028424472 -0.0026999556 0.08753999 -0.008862661 0.07267378 0.00069652335 0.059962016
0.016560974 0.074255355 0.021597795 -0.005583116 0.059113625 -0.041759007 0.058902558 -0.080363214
0.03579541 -0.04797609 0.017076815 -0.08781661 0.045216884 -0.03406072 -0.016681895 -0.054030478
-0.003652794 -0.013416422 -0.06925362 0.10408509 0.064718045 -0.028255984 0.08301392 -0.008528745

weight f4 [1, 128]
00000000: 5912 a13d 1926 f1bc 5287 9ebd 0aeb 7c3d
00000010: a5dd b63d 1573 923d fa09 653d 4670 593d
00000020: 06d8 bdbd a699 193d 7f79 d0bd 5667 90bd
00000030: d400 d5bc 34b8 d9bd 068a 823d 80c8 17bc
00000040: 907f 043d 3912 63bd 5907 943c b354 8dbd
00000050: 0944 98bc 5080 cdbd dbd8 853c 490f a13c
00000060: 3b80 2abd 1a71 9f3d 36f9 08bd 6cca a9bd
00000070: dc92 83bc 10ff 043d b067 88bd dfcf b23d
00000080: 4287 313d 5d04 9abd 6bb6 afbc 778a 973d
00000090: a9b3 ce3d 3b93 7fbd 1eaf c6bc 86d3 9f3d
000000a0: 1aae 24bd 8950 9bbd 0bef d9bc ea2b 123c
000000b0: 64cf f13c fa1f 253d 1461 35bb 0adb ddbd
000000c0: 94d3 663d c899 ba3d 34ce 1d3c e0a8 82bc
000000d0: a872 6e3d 7dd8 943c 6c6e 953d 8dd6 2abd
000000e0: 02bd 90bd a84a 6d3c bfd0 33bd 6f5f 4c3d
000000f0: 1b42 18bd f87b 43bc 6421 acbd 1348 43bd
00000100: 73de 82bd e995 85bd 36b5 76bd ac29 85bc
00000110: 03c6 ac3d 2ee0 bbbd 8f84 0dbd 95bc acbd
00000120: 891a b83d d331 7c3d fcaf 68bd 6407 3fbd
00000130: 8763 5ebd 0b15 453d e929 32bb b0d0 ad3d
00000140: 73c0 4ebd 7d64 593d 08a6 b7bd b436 32bc
00000150: 7e7c 863d 16cd 953d e65b 8c3d 090b e0bb
00000160: ff14 febc f01f 68bd e1ad c23d 8abf a83d
00000170: ea5d c13d 726b d6bd 77a9 a83d 4a83 3ebd
00000180: 0ba7 7dbd 5a84 1e3d 0c9f 8ebd 8573 ca3d
00000190: beca 623d e459 8a3d 6a34 503d 2f67 a4bd
000001a0: 81e0 843d d55c c33d 0fca 123c 6f50 9abd
000001b0: 0981 ba3d 678d 51bd 69cf 5d3d ef72 453c
000001c0: 4e58 933d e0ba 443c f1d9 d9bb f1a0 a0bd
000001d0: 1416 c6bd e7fa a13c 62ef debc 1e3c abbc
000001e0: 3d62 653d fbc9 b6bb e5b1 653c 26bc 55bd
000001f0: 19d3 b23d 1877 a13c b71a 863c b78d f33c
0.07864828 -0.029437112 -0.07740654 0.06174759 0.08928994 0.071508564 0.055917718 0.053085588
-0.09269719 0.037500046 -0.101794235 -0.0705096 -0.026001371 -0.10630837 0.06373982 -0.0092641115
0.032348216 -0.0554373 0.01806991 -0.06900921 -0.01858713 -0.10034239 0.016338756 0.019660609
-0.041626196 0.07785244 -0.03344079 -0.08290562 -0.016061239 0.03246981 -0.06660402 0.087310545
0.043341883 -0.075203635 -0.021449288 0.07399457 0.10092861 -0.06239627 -0.024253424 0.07804017
-0.0402051 -0.0758372 -0.026603242 0.008921603 0.029517837 0.0403137 -0.0027676271 -0.10832794
0.05635412 0.09111363 0.009631682 -0.015949667 0.058214813 0.018169636 0.07296452 -0.041708518
-0.070673004 0.0144831315 -0.043900248 0.0498957 -0.037172418 -0.011931412 -0.08404806 -0.047676157
-0.06390085 -0.06522734 -0.06023141 -0.016255222 0.08436205 -0.09173618 -0.034550246 -0.08434407
0.08989436 0.061570954 -0.056808457 -0.046637908 -0.054294135 0.04811577 -0.0027185625 0.084870696
-0.050476503 0.05307435 -0.08967215 -0.0108773 0.06566714 0.07314508 0.06853466 -0.006837253
-0.031015871 -0.056671083 0.09505821 0.08239658 0.09441741 -0.10469712 0.08235448 -0.046511926
-0.061926883 0.03870044 -0.069639295 0.09885315 0.05536913 0.067554265 0.050831236 -0.08027493
0.06488133 0.09539191 0.008959307 -0.07534873 0.09106643 -0.051160242 0.05415288 0.012051328
0.07194577 0.012007445 -0.006648295 -0.07843197 -0.0967218 0.01977296 -0.027213756 -0.02090269
0.05600189 -0.005578277 0.014019464 -0.052181385 0.0873167 0.019710109 0.01637016 0.02973066
