Dry fermentation prediction and optimization system/predictor_digester/Predictor_Digester CH4/models/NeuralNetTorch_BAG_L1/S1F3/net.params (torch, 209927 bytes, 9 tensors)

weight f4 [128, 10]
-0.061938133 0.14763065 -0.25167587 -0.28603706 -0.13909899 0.07588227 -0.015182006 0.2583439
-0.050287005 0.03442019 -0.14408252 -0.07186757 -0.31372574 -0.24694571 -0.14207914 -0.006588534
0.106713034 0.17034392 -0.21796305 -0.14605339 0.16854675 0.24882635 -0.029111229 0.270404
-0.04733303 0.043352857 0.29622823 -0.25904474 -0.18514125 -0.08204686 -0.13653556 0.26895675
-0.22813766 -0.14407748 -0.21973993 -0.30188343 -0.19031216 0.25929642 0.1314073 0.14351654
-0.04168968 -0.20131071 0.047390625 -0.34851637 -0.22903347 -0.16864061 0.19390413 0.18615165
-0.12899736 -0.026962463 0.2080221 0.31126055 0.19305676 0.016081223 0.2167718 -0.19408146
0.051041156 -0.23178235 -0.20218933 -0.20475985 0.13476263 0.1588646 -0.24761935 0.101554
0.18879382 -0.031856578 0.02013082 0.057169 0.18628371 0.31565964 -0.25442567 -0.12198785
0.1433301 0.23003925 0.28486124 0.24974053 0.033648733 -0.26571998 0.03724914 -0.22504188
-0.2589141 0.28866696 0.26522586 -0.3022591 0.04816535 -0.06866046 -0.06742754 -0.1515504
0.11550798 -0.22459246 0.10509212 0.15746537 0.2652994 0.09613337 -0.31543055 -0.20535615
0.1576768 0.037511833 -0.24250403 -0.22548382 0.28561205 0.18264201 -0.16880588 -0.11207169
-0.31575933 0.004135877 -0.22831786 -0.23569562 -0.009560923 0.022231214 -0.1006299 0.18829821
-0.21227656 0.28002498 0.21277156 -0.27180418 -0.083839096 0.02956083 0.05306085 0.0515946
0.16086617 0.020589437 -0.17264065 0.15137038 -0.28004396 -0.19477357 -0.08650483 -0.1422789
-0.12052262 -0.27822992 -0.021245962 0.053551294 -0.23663801 0.001474573 0.23170295 -0.009021919
0.032274965 0.006385573 0.08352862 0.20934819 0.31701612 0.21343593 0.3381676 -0.008478293
-0.27916175 -0.14605056 0.21918687 -0.008444254 -0.16379727 -0.27350926 -0.36512145 -0.29826847
-0.10470708 0.12420406 0.14136994 -0.28232417 0.21991248 -0.27757892 -0.070371844 -0.11291122
-0.10341222 -0.051330477 -0.28749746 -0.31341982 -0.06481998 0.018131075 -0.12961271 0.11492516
-0.27798173 -0.055999354 0.32332548 -0.10572531 0.28832707 0.13713482 -0.27309722 0.20784919
-0.028718146 -0.13388716 0.25796363 -0.28802451 0.09936638 -0.10241109 0.24884076 0.13819805
0.14677846 0.100552626 -0.087170675 -0.034815766 -0.25525352 0.20599905 0.28344852 0.20034574
-0.25376508 0.017729864 -0.21194355 -0.18475585 -0.19494513 0.102051534 -0.19611965 -0.029541457
-0.045985017 0.17493221 -0.21416779 -0.2648585 -0.19940272 0.195671 -0.13934001 0.27682167
0.10831188 0.027558234 -0.026616817 -0.07247937 0.044783548 -0.112215586 0.009166123 0.051795084
-0.23590775 -0.17650813 0.23280486 -0.31961167 0.011268134 0.33701503 0.1486127 0.0104306415
-0.2873327 0.1544306 -0.22746426 -0.06694707 -0.07029899 -0.07593737 -0.013156405 0.29840234
0.049301594 0.29333195 0.21586855 -0.18124999 0.16050272 -0.23352662 -0.13248976 0.09663183
0.13382083 0.24286124 -0.10653015 0.011908873 0.18824361 -0.30790237 0.22654425 -0.23672225
0.01414727 -0.08279625 -0.1670119 0.037098948 0.24480674 -0.08940794 -0.1977715 -0.11626477
00000000: d7b2 7dbd 7d2c 173e a9db 80be 7373 92be
00000010: f76f 0ebe 2a68 9b3d f3bd 78bc a745 843e
00000020: bff9 4dbd 2ffc 0c3d 5e8a 13be 4e2f 93bd
00000030: a9a0 a0be 56df 7cbe 327d 11be a1e4 d7bb
00000040: 5d8c da3d a36e 2e3e b531 5fbe 058f 15be
00000050: 8597 2c3e 56cc 7e3e ac7a eebc 6572 8a3e
00000060: 47e0 41bd c492 313d 3aab 973e 83a1 84be
00000070: ab95 3dbe 2f08 a8bd facf 0bbe b3b4 893e
00000080: eb9c 69be 0c89 13be 8103 61be 7790 9abe
00000090: 31e1 42be 80c2 843e a38f 063e 00f6 123e
000000a0: ccc2 2abd 6524 4ebe ac1c 423d bd70 b2be
000000b0: c087 6abe 20b0 2cbe ce8e 463e 8a9e 3e3e
000000c0: e217 04be 62e0 dcbc bf03 553e 8b5d 9f3e
000000d0: acb0 453e c5bc 833c 6df9 5d3e 4abd 46be
000000e0: 8810 513d 5a58 6dbe b80a 4fbe 91ac 51be
000000f0: 37ff 093e 67ad 223e ed8f 7dbe 8bfb cf3d
00000100: 2b53 413e 0b7c 02bd 64e9 a43c 0b2a 6a3d
00000110: 28c1 3e3e 249e a13e 1544 82be c4d4 f9bd
00000120: 20c5 123e 698f 6b3e 55d9 913e fbbb 7f3e
00000130: 41d3 093d 730c 88be 8e92 183d 6171 66be
00000140: 6490 84be 28cc 933e afcb 873e b4c1 9abe
00000150: 0849 453d db9d 8cbd 7317 8abd 0730 1bbe
00000160: 738f ec3d 91fb 65be 8a3a d73d 9a3e 213e
00000170: 53d5 873e 93e1 c43d 1d80 a1be e248 52be
00000180: 0776 213e 02a6 193d fa52 78be 3be5 66be
00000190: be3b 923e 8206 3b3e 73db 2cbe d885 e5bd
000001a0: 35ab a1be 4086 873b 28cc 69be 315a 71be
000001b0: 6ba5 1cbc 3c1e b63c 0d17 cebd 3fd1 403e
000001c0: 075f 59be 6f5f 8f3e cae0 593e eb29 8bbe
000001d0: d5b3 abbd 8e29 f23c 5556 593d dc54 533d
000001e0: 1aba 243e 2eab a83c b6c8 30be d600 1b3e
000001f0: ec61 8fbe b972 47be 7229 b1bd 8fb1 11be
00000200: 90d4 f6bd 2774 8ebe 030c aebc 9a58 5b3d
00000210: 3c51 72be 7646 c13a 8a43 6d3e acd0 13bc
00000220: c132 043d 123e d13b 0e11 ab3d 5f5f 563e
00000230: f04f a23e f38e 5a3e 4e24 ad3e 8ae8 0abc
00000240: 4aee 8ebe 478e 15be 8672 603e c559 0abc
00000250: 79ba 27be 6809 8cbe 33f1 babe a5b6 98be
00000260: aa70 d6bd b35e fe3d 48c3 103e cb8c 90be
00000270: bd30 613e d31e 8ebe 1d1f 90bd ff3d e7bd
00000280: c9c9 d3bd e83f 52bd de32 93be 9078 a0be
00000290: 56c0 84bd 9f87 943c 32b9 04be e25d eb3d
000002a0: 9f53 8ebe 945f 65bd eb8a a53e 8386 d8bd
000002b0: 9b9f 933e 126d 0c3e 66d3 8bbe 6bd6 543e
000002c0: 5142 ebbc b719 09be cf13 843e f377 93be
000002d0: 9a80 cb3d e8bc d1bd 1dd0 7e3e ca83 0d3e
000002e0: 184d 163e 89ee cd3d 8a86 b2bd fa9a 0ebd
000002f0: 97b0 82be 6af1 523e 2a20 913e 6f27 4d3e
00000300: 7fed 81be 383e 913c bb07 59be a330 3dbe
00000310: b29f 47be 6500 d13d 97d3 48be ed00 f2bc
00000320: c95a 3cbd 6e21 333e cd4e 5bbe 899b 87be
00000330: 3a30 4cbe fb5d 483e 26af 0ebe 92bb 8d3e
00000340: 9ed2 dd3d cec1 e13c 830b dabc 1070 94bd
00000350: f46e 373d 49d1 e5bd 822d 163c 1527 543d
00000360: cd91 71be 8cbe 34be 6664 6e3e 24a4 a3be
00000370: fb9d 383c 3c8d ac3e ed2d 183e 48e5 2a3c
00000380: 461d 93be 0e23 1e3e 64ec 68be 8c1b 89bd
00000390: ebf8 8fbd 0d85 9bbd f68d 57bc 31c8 983e
000003a0: 78f0 493d 9b2f 963e a50c 5d3e 9999 39be
000003b0: d35a 243e 9a21 6fbe 65ab 07be e9e6 c53d
000003c0: 5408 093e 9eb0 783e 7b2c dabd 6f1d 433c
000003d0: efc2 403e 61a5 9dbe 37fb 673e 5167 72be
000003e0: f3c9 673c 1591 a9bd 2b05 2bbe 11f5 173d
000003f0: 9eae 7a3e 831b b7bd 9d84 4abe 391c eebd

bias f4 [128]
-0.23695521 -0.05848009 0.054493297 0.08687116 0.16449822 -0.14507906 -0.076343134 0.23909312
-0.099435724 -0.22587812 0.22701192 0.21349795 -0.10767539 -0.03132668 -0.23145992 -0.2460094
0.13289599 -0.12565368 0.23774189 -0.23793942 -0.058402434 0.03657547 0.15500337 0.2807202
0.22385344 0.13437569 -0.1349234 -0.23380539 -0.3022954 0.032341234 0.29054964 -0.057328165
-0.021077303 -0.25089258 0.090724185 0.21448559 -0.31743824 -0.23604542 0.23112336 0.06503644
0.03763394 0.05383717 -0.05069385 -0.2417314 -0.28913015 0.21345487 -0.05884344 -0.11286293
-0.10382893 -0.17954564 -0.051906403 -0.26258925 0.23092578 0.12699078 -0.15323748 -0.062993094
0.13397054 -0.10663902 0.080708444 0.07999038 -0.18258926 0.0617985 0.021574631 0.2598661
-0.11827011 -0.08229297 0.27711678 -0.27735874 0.018620934 0.2860252 -0.14392775 0.31857997
0.2799795 0.27094764 -0.037928797 0.28043994 -0.1313118 -0.10508833 0.12282397 0.07232871
0.16624714 0.3023119 -0.2009427 0.15773225 0.09920917 0.1738585 0.1626279 -0.12756859
-0.2507526 0.24585801 -0.17195028 0.21851046 -0.30045852 -0.05932217 0.016464535 0.043202605
0.00714133 0.11932548 -0.049531896 0.086714976 0.3020488 -0.20623668 -0.02927678 -0.106139176
0.27520207 0.2739832 -0.008792969 -0.12391889 -0.19213066 0.2235206 -0.009056425 0.30978695
0.18790321 0.2762567 0.2507564 -0.20759773 0.12090106 -0.14292899 0.15431784 -0.012366817
0.019391473 -0.19246465 -0.29048282 0.16541807 0.06001103 0.023918482 0.20763874 -0.121118926
00000000: 63a4 72be d288 6fbd 5d34 5f3d 82e9 b13d
00000010: 3972 283e 9b8f 14be ca59 9cbd d4d4 743e
00000020: f5a4 cbbd 984c 67be d075 683e 359f 5a3e
00000030: ea84 dcbd 6850 00bd d403 6dbe e3e9 7bbe
00000040: e315 083e 5cab 00be 9c72 733e 64a6 73be
00000050: 6437 6fbd 29d0 153d 34b9 1e3e 8fba 8f3e
00000060: d639 653e c899 093e 5c29 0abe ae6a 6fbe
00000070: 76c6 9abe 3e78 043d ecc2 943e f0d0 6abd
00000080: 4faa acbc fe74 80be 9acd b93d 1ca2 5b3e
00000090: 4487 a2be e4b5 71be 9aab 6c3e d331 853d
000000a0: 0c26 1a3d 5d84 5c3d 5ba4 4fbd 7088 77be
000000b0: de08 94be ea93 5a3e d205 71bd ae24 e7bd
000000c0: 43a4 d4bd d0da 37be cf9b 54bd 1972 86be
000000d0: cf77 6c3e df09 023e 49ea 1cbe 8602 81bd
000000e0: 932f 093e 8f65 dabd 784a a53d ffd1 a33d
000000f0: aef8 3abe 6d20 7d3d 48bd b03c 2b0d 853e
00000100: 9937 f2bd 3789 a8bd 40e2 8d3e f701 8ebe
00000110: ee8a 983c e571 923e cc61 13be ea1c a33e
00000120: 7959 8f3e a6b9 8a3e 3a5b 1bbd d395 8f3e
00000130: 9a76 06be 8d38 d7bd 228b fb3d 1321 943d
00000140: b13c 2a3e a0c8 9a3e ecc3 4dbe 9084 213e
00000150: 2d2e cb3d f607 323e ee87 263e 57a1 02be
00000160: a562 80be 34c2 7b3e bc13 30be 35c1 5f3e
00000170: b3d5 99be cefb 72bd a2e0 863c 37f5 303d
00000180: d101 ea3b eb60 f43d f5e1 4abd 9f97 b13d
00000190: 24a6 9a3e b52f 53be dcd5 efbc 7f5f d9bd
000001a0: 49e7 8c3e 8747 8c3e 6310 10bc 30c9 fdbd
000001b0: e6bd 44be 96e2 643e 6661 14bc 659c 9e3e
000001c0: b369 403e 8571 8d3e 2563 803e 8094 54be
000001d0: fa9a f73d fa5b 12be 7f05 1e3e 319e 4abc
000001e0: deda 9e3c 7415 45be 2aba 94be 5b63 293e
000001f0: 20ce 753d b1f0 c33c 409f 543e 330d f8bd

weight f4 [128, 128]
-0.0049810596 -0.043694906 0.013748753 -0.016586784 0.07355909 0.10784011 0.068209425 0.014987607
0.09727115 -0.045574278 -0.060768485 0.024593286 0.00781083 -0.075282395 -0.005976496 -0.060601525
-0.11258545 0.032233763 0.052796517 0.050200842 -0.06579416 -0.01824988 -0.054700464 -0.021092758
0.058903612 -0.01986423 -0.044711478 -0.07774204 -0.016783858 -0.073967196 -0.06783765 0.09643232
-0.0409292 -0.040762596 -0.025538495 -0.08862605 -0.020849947 0.008011394 -0.043265514 -0.018655827
-0.006637978 -0.10701422 0.06410376 0.10964169 0.08705146 -0.021092106 0.05338121 -0.054301295
-0.01732826 -0.020552283 -0.04652813 0.026634242 -0.022795424 -0.040127646 -0.041503884 -0.08839043
-0.043505058 -0.10381717 0.039875194 0.03982522 0.048813127 -0.027234124 0.014780938 0.0056387666
0.101075396 0.0749171 -0.05292864 -0.06378528 -0.10164483 -0.06283721 0.060257915 0.019499885
0.08849823 0.069417104 0.008504973 -0.0047068913 0.092674434 0.10763275 0.027258566 -0.036789574
0.07345948 -0.014598169 0.039031465 0.024135556 0.027967215 -0.03514253 -0.038565956 0.0490015
-0.046560563 -0.07824846 0.10486052 0.00066357275 0.05265253 -0.065385155 0.034507845 -0.035723463
-0.043561224 -0.028598307 -0.033744797 0.06333973 -0.009956692 0.066848174 0.024135694 -0.024102341
-0.055897564 -0.06916892 -0.04297461 -0.072467186 0.00088793767 -0.017922068 -0.031067548 -0.05674982
0.04021892 0.10438384 0.002509497 -0.044903666 0.049277097 0.092628 -0.03809274 0.0015422376
0.014753904 -0.023738809 0.06723761 0.028506937 0.07951626 -0.009217484 -0.0194107 -0.093471184
-0.045222968 0.011899792 0.038009875 -0.0036902102 0.065169744 -0.038518738 0.044922635 0.081167415
-0.017656604 0.10122216 -0.02470843 -0.070466384 -0.053772464 0.060832374 -0.01348824 -0.03666869
0.042360548 0.03863419 -0.0018525278 0.022902856 -0.056049813 -0.046683792 -0.054829516 -0.1017255
0.0016293997 0.011668877 -0.04492655 -0.13134316 0.06897247 -0.07137975 -0.018153884 -0.116244726
-0.05298736 0.03497097 -0.07881604 -0.0466413 0.06230893 -0.052426077 -0.029159756 -0.028168498
0.060250632 -0.033126067 0.0040179687 0.045656465 -0.020087859 0.029683195 -0.07915954 0.039679095
0.03675224 -0.006750111 -0.09969814 0.02289816 0.053434446 -0.048880555 0.02259973 -0.035688564
-0.043819316 0.0009180294 0.062636785 -0.010775825 -0.107008845 -0.0010100433 0.023649704 -0.032809913
-0.049729545 0.053313363 0.042964622 -0.023838729 0.018393649 -0.009697873 0.024785217 -0.0058417264
-0.054732542 0.01682191 -0.0006628187 0.03613454 -0.063089035 0.031847976 -0.08984592 0.024997659
0.043358542 -0.032676436 -0.10837228 0.0011754973 0.010728625 -0.06008839 -0.058741894 0.08798375
0.06679675 0.06107407 0.06122038 0.02828685 0.028386157 0.05887244 -0.053039026 -0.019737277
0.054212287 0.012342467 -0.06369315 -0.063656434 0.011138974 0.068094194 0.059409905 0.013274503
0.06086497 -0.07538947 -0.06553983 -0.098684914 0.07578049 -0.028581964 -0.06366177 -0.007721275
-0.08234922 -0.02527187 0.027862478 0.007941726 -0.10171205 -0.07894757 0.01089582 0.089225
-0.006868466 -0.03092586 0.01952363 0.028244397 -0.08604831 -0.05770185 0.018954184 0.050343957
00000000: 2838 a3bb 6ef9 32bd 7342 613c 02e1 87bc
00000010: 26a6 963d 47db dc3d 62b1 8b3d 948e 753c
00000020: 1936 c73d 18ac 3abd 60e8 78bd dc77 c93c
00000030: fef1 ff3b a82d 9abd 7bd6 c3bb 4e39 78bd
00000040: 3393 e6bd 8d07 043d 2941 583d 669f 4d3d
00000050: 17bf 86bd c680 95bc 980d 60bd b8ca acbc
00000060: ea44 713d 4fba a2bc 6223 37bd 3837 9fbd
00000070: 4d7e 89bc 1d7c 97bd 77ee 8abd 4f7e c53d
00000080: 60a5 27bd aef6 26bd 1b36 d1bc 9381 b5bd
00000090: 82cd aabc 3942 033c 2e37 31bd 1bd4 98bc
000000a0: 6583 d9bb 452a dbbd d548 833d d38b e03d
000000b0: 0948 b23d 5ac9 acbc 41a6 5a3d 096b 5ebd
000000c0: fff3 8dbc 435d a8bc 4894 3ebd 0e30 da3c
000000d0: 78bd babc e35c 24bd faff 29bd 0b06 b5bd
000000e0: 5c32 32bd 199e d4bd 2c54 233d c51f 233d
000000f0: 46f0 473d 191a dfbc bf2b 723c 67c5 b83b
00000100: 9e00 cf3d 236e 993d b4cb 58bd dba1 82bd
00000110: 2a2b d0bd ccb0 80bd 01d1 763d 39be 9f3c
00000120: 8f3e b53d 8e2a 8e3d 7158 0b3c 443c 9abb
00000130: 18cc bd3d 8f6e dc3d 5b4d df3c aab0 16bd
00000140: ed71 963d 292d 6fbc 75df 1f3d eeb7 c53c
00000150: 801b e53c 9df1 0fbd 56f7 1dbd ccb5 483d
00000160: 4ab6 3ebd bb40 a0bd 1dc1 d63d 9df3 2d3a
00000170: 2eaa 573d a7e8 85bd 1958 0d3d c452 12bd
00000180: 416d 32bd ff46 eabc fc37 0abd 43b8 813d
00000190: 6521 23bc b2e7 883d 38b8 c53c 4672 c5bc
000001a0: d8f4 64bd 6fa8 8dbd 2506 30bd ad69 94bd
000001b0: 7dc4 683a 4dd1 92bc 5f81 febc 8072 68bd
000001c0: 98bc 243d 32c7 d53d 6076 243b e8ec 37bd
000001d0: c8d6 493d c0b3 bd3d 2207 1cbd e824 ca3a
000001e0: 5cba 713c e477 c2bc dfb3 893d 6187 e93c
000001f0: 6cd9 a23d ee04 17bc 3003 9fbc d26d bfbd
00000200: b83b 39bd 58f7 423c 3eb0 1b3d 74d7 71bb
00000210: b777 853d d3c5 1dbd cc00 383d 1a3b a63d
00000220: 95a4 90bc 904d cf3d 5569 cabc ae50 90bd
00000230: 8440 5cbd 5e2b 793d c7fd 5cbc e931 16bd
00000240: 4182 2d3d e23e 1e3d 85d0 f2ba c59e bb3c
00000250: 7d94 65bd 8137 3fbd ea94 60bd 7555 d0bd
00000260: 9591 d53a d12e 3f3c e704 38bd d27e 06be
00000270: 7041 8d3d 8c2f 92bd 74b7 94bc b711 eebd
00000280: 4609 59bd b83d 0f3d 4e6a a1bd f30a 3fbd
00000290: a637 7f3d babc 56bd 71e0 eebc 9fc1 e6bc
000002a0: 5ec9 763d 33af 07bd 2aa9 833b 4602 3b3d
000002b0: 4b8f a4bc 2c2a f33c 661e a2bd 8c86 223d
000002c0: 8489 163d 0930 ddbb 8a2e ccbd ec94 bb3c
000002d0: 14de 5a3d fa36 48bd 1223 b93c 2c2e 12bd
000002e0: e27b 33bd e9a7 703a b747 803d 168d 30bc
000002f0: 7427 dbbd 6e63 84ba 06bd c13c b063 06bd
00000300: 35b1 4bbd 1d5f 5a3d acfb 2f3d 7049 c3bc
00000310: 47ae 963c d4e3 1ebc 5e0a cb3c f46b bfbb
00000320: 3b2f 60bd 1ace 893c 03c1 2dba d001 143d
00000330: d334 81bd 0673 023d 2301 b8bd e4c7 cc3c
00000340: ba98 313d bad7 05bd 49f2 ddbd 2513 9a3a
00000350: 1dc7 2f3c 3e1f 76bd 579b 70bd d330 b43d
00000360: bccc 883d ce28 7a3d 39c2 7a3d d3b9 e73c
00000370: 168a e83c 3a24 713d 733f 59bd 12b0 a1bc
00000380: b40d 5e3d 0f38 4a3c 8e71 82bd 4e5e 82bd
00000390: 3e80 363c f874 8b3d cd57 733d 4d7d 593c
000003a0: 8c4d 793d cb65 9abd bf39 86bd 511b cabd
000003b0: cd32 9b3d b924 eabc 1a61 82bd c002 fdbb
000003c0: b5a6 a8bd f406 cfbc da3f e43c 031e 023c
000003d0: 684e d0bd 43af a1bd 6284 323c 99bb b63d
000003e0: de10 e1bb 3b58 fdbc 05f0 9f3c cb60 e73c
000003f0: 193a b0bd c658 6cbd ce45 9b3c 7735 4e3d

bias f4 [128]
-0.07825717 0.07402586 -0.023299066 -0.031033967 0.017787283 0.055655062 0.06926518 0.062958255
-0.019589797 0.032718435 0.09266928 0.052277904 0.0911004 0.025433106 -0.071733035 0.02781139
-0.0054288227 0.018490894 0.03011497 0.04812319 -0.027535265 -0.048879232 0.08634792 0.016222259
0.04112609 0.040933933 -0.01492611 -0.066003054 0.069883056 0.08707585 0.0013233805 -0.020678468
0.045556463 -0.076420136 0.007978456 0.08121849 -0.019737497 -0.011537633 0.046015844 -0.010049992
0.003955309 0.034433592 -0.0034292974 0.006433883 0.004433956 0.058207482 0.07968674 0.012235707
0.0072042304 -0.061817523 0.041545052 0.04254873 -0.055871535 0.044888478 0.029235203 -0.049678214
-0.008231278 -0.07792972 0.019834401 0.04743331 -0.060938355 -0.0014613593 0.088991255 0.07652576
0.06736594 -0.04835666 0.01000567 -0.030132463 0.08626202 0.012474106 -0.04954399 -0.0076926467
0.013628705 0.027999701 -0.0030267567 0.007503785 -0.080187246 -0.041080378 0.05551814 0.042675596
0.089705884 0.07946834 0.049409762 -0.041720312 0.09395845 0.056761835 -0.022628726 -0.03247732
-0.044807725 -0.043570634 0.038980354 -0.041490953 0.08320414 0.03544386 -0.00010631922 0.03753344
0.04307094 0.0010807549 -0.060869925 -0.101122715 0.07902758 0.08952892 -0.024516515 0.08922509
0.047869734 -0.06785307 0.001958828 -0.06890626 0.054005593 0.023238175 0.04812768 0.01019768
0.016903078 -0.056980427 -0.07329079 -0.023246938 0.036161125 -0.009826298 -0.0069573587 -0.03562849
-0.032655988 -0.044751696 -0.0072349487 0.079225995 -0.02632993 -0.020207066 -0.04324483 -0.057695843
00000000: 4c45 a0bd df9a 973d afdd bebc f23a febc
00000010: a3b6 913c 90f6 633d e7da 8d3d 42f0 803d
00000020: c87a a0bc c403 063d 64c9 bd3d 5b21 563d
00000030: d992 ba3d 1759 d03c c5e8 92bd b6d4 e33c
00000040: 44e4 b1bb 377a 973c abb3 f63c d21c 453d
00000050: a391 e1bc 9735 48bd 2ed7 b03d 8be4 843c
00000060: d573 283d 57aa 273d a58c 74bc 9c2c 87bd
00000070: d91e 8f3d d354 b23d 4875 ad3a e465 a9bc
00000080: 6a99 3a3d 2982 9cbd 12b8 023c e155 a63d
00000090: 88b0 a1bc 5708 3dbc 1c7b 3c3d b9a8 24bc
000000a0: 899b 813b 3d0a 0d3d 10be 60bb 53d3 d23b
000000b0: b84a 913b f86a 6e3d cd32 a33d 4678 483c
000000c0: 7711 ec3b 5f34 7dbd 252b 2a3d 9447 2e3d
000000d0: 8dd9 64bd fbdc 373d aa7e ef3c 627b 4bbd
000000e0: 7bdc 06bc 9e99 9fbd c17b a23c 6e49 423d
000000f0: 7f9a 79bd 158b bfba 0c41 b63d 8ab9 9c3d
00000100: 27f7 893d a211 46bd d2ee 233c 5bd8 f6bc
00000110: 24aa b03d 3160 4c3c a4ee 4abd 9912 fcbb
00000120: ef4a 5f3c a15f e53c 8d5c 46bb 50e2 f53b
00000130: 3639 a4bd e643 28bd fd66 633d 9bcc 2e3d
00000140: b8b7 b73d 4cc0 a23d e461 4a3d ebe2 2abd
00000150: 4a6d c03d 197f 683d e15f b9bc f006 05bd
00000160: 4e88 37bd 1f77 32bd dda9 1f3d 6bf2 29bd
00000170: ef66 aa3d 952d 113d b2f7 deb8 aabc 193d
00000180: 276b 303d 1ea8 8d3a be52 79bd 6d19 cfbd
00000190: 36d9 a13d f05a b73d dcd6 c8bc a5bb b63d
000001a0: 0e13 443d 8df6 8abd ae5f 003b ba1e 8dbd
000001b0: f834 5d3d fc5d be3c 8821 453d 2c14 273c
000001c0: 5378 8a3c 4f64 69bd 7b19 96bd 5d70 bebc
000001d0: b01d 143d 7bfe 20bc 8efa e3bb 2eef 11bd
000001e0: 49c2 05bd 8e4d 37bd 2613 edbb 3d41 a23d
000001f0: deb1 d7bc 4a89 a5bc 7e21 31bd 7a52 6cbd

weight f4 [128, 128]
-0.07818043 -0.045870923 -0.016497057 0.001812808 -0.07349835 0.013177686 0.07940796 -0.052329756
0.056594744 -0.06784316 0.008477533 0.00970196 -0.071953475 -0.026732503 -0.002940582 -0.04934699
0.0041838456 -0.075420454 0.07080793 0.0020190834 -0.045137186 -0.018541658 0.08303752 -0.022605728
0.023863023 0.0770323 -0.031768914 0.10115686 -0.05374105 -0.08290993 0.055715196 -0.072686575
-0.055662837 -0.07613097 0.031711612 0.0064359717 0.082962014 -0.039375775 -0.01630877 0.051361088
-0.0028007978 -0.025876105 -0.04621051 0.07025494 0.0344005 -0.002967164 -0.023489963 0.058392093
-0.08601525 0.049392134 0.05575274 -0.038540307 0.059783258 0.039539304 0.012724704 -0.030149857
-0.0014299947 -0.001167494 0.027574582 -0.07157167 0.009388373 0.03369561 0.046961058 -0.03781577
-0.016758567 0.06049351 0.041877914 0.10284647 -0.021468751 0.042481143 0.008703884 0.0030996955
-0.0011179325 -0.081551775 0.04714877 0.028587755 -0.08100306 -0.009139854 0.048995193 0.07616114
0.08436065 -0.007720655 -0.010958337 -0.006333321 -0.05332908 0.04389322 0.098968096 0.0684038
-0.049899887 -0.09529553 -0.058631748 -0.016978988 0.0016181141 -0.049117308 -0.071612686 -0.068575546
-0.031764694 -0.007936933 0.07492901 -0.08672056 0.07006517 -0.018377671 0.06482428 -0.063578926
-0.06789254 -0.015250265 0.0031702935 -0.06804578 -0.015429785 -0.093021795 0.07112065 -0.03832902
-0.030998599 -0.07377766 0.05698644 0.087621406 0.023832824 0.053216234 0.057334397 -0.0076473
-0.01574354 0.08396477 0.012734104 -0.055144317 0.0029009534 0.03918586 0.022590004 0.0693715
0.08960716 -0.0059929406 0.060256828 -0.06405097 0.0027469622 0.05810995 0.069620155 -0.08691794
0.057240296 0.0018828352 -0.017871685 0.003055316 4.5434495e-05 -0.01876622 0.09321624 0.01883611
-0.0030985533 -0.072911605 0.034770645 0.061775465 0.04304686 0.06764176 -0.023324013 -0.051620398
0.03239563 0.037415035 -0.008380158 0.044169433 0.051115245 0.02516682 0.046728414 0.002248254
-0.033796314 -0.081503436 -0.019157665 -0.07870683 -0.053332724 -0.032581154 0.0542815 -0.09590505
0.05821468 -0.06136236 -0.08421348 -0.044145387 -0.07185811 0.08276516 0.072386995 0.079304405
-0.066518895 -0.08706997 -0.044654123 0.059548505 0.05517756 -0.070004 -0.03690748 -0.004085375
0.08893278 -0.058084495 0.048839442 0.06212981 -0.036300194 -0.07294052 -0.03661713 0.08716883
-0.08643025 0.06019061 0.08098455 -0.046227317 -0.002376866 0.05857705 -0.01593251 0.025905784
-0.015507658 -0.04280349 0.06324673 0.007867797 -0.024886364 0.02461127 -0.02355279 -0.017502096
-0.037226032 -0.06417592 -0.059873573 -0.006705675 -0.073301196 -0.01372322 -0.012799215 -0.02614711
-0.02280692 -0.059134174 0.069014944 0.035569027 0.07685459 -0.0063645164 0.05723202 -0.005020475
-0.015612218 -0.09967292 0.019210305 0.031464852 -0.022351746 -0.035291128 -0.07073221 0.06550971
-0.02511108 0.03855992 -0.0054945424 0.059835896 -0.010155656 0.024063094 -0.037332844 -0.07236207
0.07134476 -0.06638055 0.019043358 -0.09063216 -0.050058387 0.018311186 0.034066167 0.03841241
0.018575767 -0.026609857 0.054445736 0.031197332 0.03242718 0.005066954 0.000605854 0.08069547
00000000: 101d a0bd 26e3 3bbd d624 87bc be9b ed3a
00000010: 4e86 96bd 39e7 573c a4a0 a23d ba57 56bd
00000020: e4cf 673d 5bf1 8abd 5ae5 0a3c f8f4 1e3c
00000030: 585c 93bd 1ffe dabc c8b6 40bb 1220 4abd
00000040: a418 893b 0a76 9abd bf03 913d 9952 043b
00000050: c5e1 38bd ade4 97bc 930f aa3d a62f b9bc
00000060: 637c c33c 1cc3 9d3d 1f20 02bd 542b cf3d
00000070: 931f 5cbd aecc a9bd 9e35 643d b3dc 94bd
00000080: b7fe 63bd 8eea 9bbd 09e4 013d d8e4 d23b
00000090: fde7 a93d 7e48 21bd f899 85bc 0160 523d
000000a0: 978d 37bb 20fa d3bc 3b47 3dbd d2e1 8f3d
000000b0: 8ae7 0c3d c074 42bb 066e c0bc 8c2c 6f3d
000000c0: c328 b0bd 684f 4a3d fc5c 643d 71dc 1dbd
000000d0: 4adf 743d f7f3 213d 477b 503c d5fc f6bc
000000e0: a96e bbba 9906 99ba 17e4 e13c 2b94 92bd
000000f0: b1d1 193c 6804 0a3d 3d5a 403d b5e4 1abd
00000100: 4349 89bc 0bc8 773d 2d88 2b3d 2ca1 d23d
00000110: 3cdf afbc b500 2e3d bc9a 0e3c 4324 4b3b
00000120: 9787 92ba 9e04 a7bd 121f 413d de30 ea3c
00000130: efe4 a5bd 54bf 15bc 2faf 483d 5ffa 9b3d
00000140: 47c5 ac3d 8cfd fcbb 998a 33bc bf87 cfbb
00000150: 986f 5abd 61c9 333d c9af ca3d 4b17 8c3d
00000160: d363 4cbd 4e2a c3bd d827 70bd 8517 8bbc
00000170: e616 d43a 3b2f 49bd aca9 92bd 5671 8cbd
00000180: b21b 02bd e909 02bc 6174 993d 8d9a b1bd
00000190: 547e 8f3d c58c 96bc 98c2 843d ab35 82bd
000001a0: 3e0b 8bbd 3fdc 79bc b3c4 4f3b 965b 8bbd
000001b0: 35cd 7cbc 3682 bebd b4a7 913d e4fe 1cbd
000001c0: c6f0 fdbc be18 97bd 9d6a 693d da72 b33d
000001d0: 0e3d c33c 44f9 593d 79d7 6a3d 3496 fabb
000001e0: 99f8 80bc b9f5 ab3d b4a2 503c 02df 61bd
000001f0: ec1d 3e3b 5a81 203d ac0e b93c a512 8e3d
00000200: f583 b73d 6e60 c4bb ddcf 763d 282d 83bd
00000210: 6106 343b b304 6e3d 0395 8e3d 0802 b2bd
00000220: cd74 6a3d 77c9 f63a a467 92bc b23b 483b
00000230: eb90 3e38 9ebb 99bc 28e8 be3d 304e 9a3c
00000240: 1911 4bbb ae52 95bd aa6b 0e3d 4508 7d3d
00000250: e751 303d c387 8a3d 0012 bfbc e96f 53bd
00000260: 48b1 043d 8240 193d ee4c 09bc 02eb 343d
00000270: 385e 513d a62a ce3c 4b66 3f3d 7157 133b
00000280: 016e 0abd 46eb a6bd 89f0 9cbc 0c31 a1bd
00000290: 6a73 5abd d173 05bd 4756 5e3d de69 c4bd
000002a0: 8472 6e3d 1957 7bbd 1e78 acbd cbd1 34bd
000002b0: 582a 93bd c880 a93d a23f 943d 596a a23d
000002c0: 0f3b 88bd be51 b2bd 3ee7 36bd 22e9 733d
000002d0: dd01 623d 425e 8fbd 4c2c 17bd 9cde 85bb
000002e0: 6422 b63d 02ea 6dbd de0b 483d d47b 7e3d
000002f0: 83af 14bd d761 95bd d8fb 15bd 9285 b23d
00000300: 5802 b1bd 6e8a 763d 3adb a53d db58 3dbd
00000310: 32c5 1bbb 7dee 6f3d e584 82bc 5e38 d43c
00000320: d513 7ebc b652 2fbd 8087 813d efe7 003c
00000330: 7dde cbbc 939d c93c c8f1 c0bc 8e60 8fbc
00000340: 537a 18bd aa6e 83bd fe3d 75bd 47bb dbbb
00000350: f01e 96bd 5bd7 60bc ccb3 51bc 7732 d6bc
00000360: 94d5 babc ad36 72bd b557 8d3d d4b0 113d
00000370: f065 9d3d 6f8d d0bb 1f6c 6a3d cc82 a4bb
00000380: 63ca 7fbc 5121 ccbd ee5e 9d3c 4ae1 003d
00000390: 021b b7bc 6e8d 10bd 0ddc 90bd f429 863d
000003a0: c0b5 cdbc 02f1 1d3d 900b b4bb 7c16 753d
000003b0: e963 26bc f71f c53c 53ea 18bd 9132 94bd
000003c0: 341d 923d 87f2 87bd d100 9c3c 5b9d b9bd
000003d0: 060a 4dbd 5701 963c f788 0b3d 5556 1d3d
000003e0: 352c 983c eafc d9bc 7e02 5f3d 8c91 ff3c
000003f0: 5dd2 043d b108 a63b 2cd2 1e3a ab43 a53d

bias f4 [128]
0.041556478 0.0718536 -0.028392904 0.06728674 -0.052477576 0.05185318 -0.07877528 0.016319389
-0.025327759 0.06132809 0.028214091 -0.053966604 -0.0142890895 -0.048345756 0.004436638 -0.04560488
-0.02519033 -0.05983219 -0.0009463138 -0.063711286 0.03478292 0.061828952 0.07114253 -0.06932521
-0.017079595 0.039521452 0.012555707 0.087807655 0.01955311 -0.058674626 0.0046471423 0.102520585
0.062731825 -0.03772161 -0.06109535 0.05585472 0.008438415 0.050656248 -0.09238074 -0.061617978
-0.06337198 -0.044779137 0.06255688 0.069335744 -0.02163772 -0.055353243 0.0026354704 0.04350969
-0.04340363 -0.03350906 0.013555314 -0.024585525 0.060488995 0.0626735 0.023908686 -0.047653563
-0.002658754 0.05984366 -0.04625357 -0.015575282 0.08342142 0.03213415 0.037421204 0.015562929
-0.012898256 -0.01786472 0.055524845 0.07755109 0.060818322 0.036370564 0.091291286 -0.060456984
0.049431432 -0.024787193 0.015367369 0.10022975 -0.027125672 0.019395033 -0.00073034264 0.053032774
0.017838353 -0.06979782 0.048044205 -0.08730096 -0.013900083 -0.02699337 -0.02828847 0.024545448
-0.04373475 -0.07010881 -0.039743163 0.02061848 -0.062656626 -0.03527747 -0.030852487 -0.048180964
-0.08461564 0.075187236 -0.07170175 0.08331214 0.09388142 -0.047205765 0.04636709 0.043174632
0.02760885 -0.062848344 0.080957115 0.05061973 -0.0325766 0.024326896 0.060894933 -0.08750249
0.082769245 0.03718663 -0.073837966 0.03547645 -0.01893121 0.050471228 -0.0079887975 -0.032260578
0.007324853 -0.035614826 0.08888007 -0.07341228 -0.00744028 -0.06741768 -0.0599957 -0.016667478
00000000: 2037 2a3d fb27 933d 3c98 e8bc a1cd 893d
00000010: baf2 56bd 0064 543d ef54 a1bd 3db0 853c
00000020: 297c cfbc 2a33 7b3d 3d21 e73c 160c 5dbd
00000030: c91c 6abc 3306 46bd 3861 913b 2fcc 3abd
00000040: f35b cebc 9912 75bd 0b12 78ba 107b 82bd
00000050: 8978 0e3d 5b40 7d3d 2db3 913d 60fa 8dbd
00000060: 82ea 8bbc 3fe1 213d 74b6 4d3c 80d4 b33d
00000070: d82d a03c ce54 70bd 0e47 983b 50f6 d13d
00000080: 8b79 803d fa81 1abd 1e3f 7abd ebc7 643d
00000090: 4741 0a3c ed7c 4f3d 1d32 bdbd 2263 7cbd
000000a0: 2bc9 81bd 546a 37bd d21d 803d e6ff 8d3d
000000b0: 9641 b1bc 15ba 62bd dbb7 2c3b 3737 323d
000000c0: 01c8 31bd cc40 09bd 1c17 5e3c 9567 c9bc
000000d0: 4fc3 773d f75a 803d 26dc c33c 6230 43bd
000000e0: 7d3e 2ebb a01e 753d 6274 3dbd 782f 7fbc
000000f0: d9d8 aa3d 199f 033d fa46 193d a8fb 7e3c
00000100: 3553 53bc 0959 92bc 056e 633d 1bd3 9e3d
00000110: a21c 793d 4df9 143d edf6 ba3d bea1 77bd
00000120: 9d78 4a3d 830e cbbc 6bc7 7b3c 4145 cd3d
00000130: a836 debc 55e2 9e3c 7774 3fba e538 593d
00000140: bd21 923c 29f2 8ebd 00ca 443d d9ca b2bd
00000150: 2cbd 63bc 3321 ddbc 39bd e7bc 8913 c93c
00000160: 3623 33bd 3595 8fbd bac9 22bd 16e8 a83c
00000170: 1e52 80bd 1c7f 10bd 5bbe fcbc 6759 45bd
00000180: f74a adbd c4fb 993d 5ed8 92bd 8e9f aa3d
00000190: e744 c03d d55a 41bd 6beb 3d3d e2d7 303d
000001a0: f42b e23c a2b6 80bd d8cc a53d a256 4f3d
000001b0: 0a6f 05bd 3349 c73c f76c 793d 8134 b3bd
000001c0: ec82 a93d 0251 183d 5c38 97bd c14f 113d
000001d0: a015 9bbc ebba 4e3d 72e3 02bc ab23 04bd
000001e0: 5205 f03b dae0 11bd c106 b63d 2d59 96bd
000001f0: 98cd f3bb 4812 8abd 0dbe 75bd 3c8a 88bc

weight f4 [128, 128]
0.0687185 0.04864271 -0.045257278 -0.08807061 -0.023922395 0.03921987 0.041021634 0.08827182
-0.003783864 -0.016198441 -0.028187506 -0.0617193 -0.03379535 0.0025337222 -0.069409356 -0.061075397
0.006769225 -0.05896715 -0.010978072 -0.057287943 0.04845285 0.040400133 0.027440554 0.00029545193
-0.0014836459 0.005147298 -0.008390967 -0.03067967 -0.052607622 -0.053834513 -0.014047603 0.032556962
0.09001794 0.028276175 -0.007562025 0.0053852843 -0.011061698 0.056267247 0.02966281 0.046169635
0.06631052 0.033473007 0.06870949 -0.0511267 -0.029421255 -0.01565708 0.07371442 -0.060620926
-0.08135684 -0.05952139 0.04716333 0.06106129 0.014631782 -0.022096949 0.0863078 -0.0126736285
0.07240325 -0.049670808 -0.087001204 -0.059829764 0.024188142 0.043839123 0.07061869 0.009264153
0.08386263 0.035308294 0.024019826 0.110311545 0.07879048 0.080813155 0.0609812 0.00039322863
-0.052681457 -0.05419591 -0.079268426 0.008838076 -0.009265697 0.011551079 0.04239163 -0.004485331
0.043037757 0.0028941194 -0.041013926 0.007307532 0.0478768 -0.027170844 0.0084678605 -0.08056561
0.10441243 0.03972398 0.066696495 -0.083844855 -0.048719443 -0.062826894 -0.037612535 -4.1328276e-05
-0.043034475 0.08326095 0.0076910285 0.105706945 -0.011662668 -0.07231283 -0.038749944 -0.07580694
-0.011061121 -0.0716209 -0.042130962 0.099748485 0.02391182 0.035037126 -0.07853657 0.00018334044
-0.053326033 -0.025969032 -0.006079388 -0.056419753 -0.018882573 -0.044445597 0.05054571 -0.036726825
0.002582068 0.03191258 0.087601125 -0.041618768 0.014264619 -0.065604225 -0.009601107 -0.072087504
-0.047467127 -0.0663828 -0.054291673 0.004021686 -0.05899581 -0.026703812 0.017818054 -0.048999574
-0.03884364 0.014633911 0.0104573555 -0.052894007 -0.010485985 -0.044201776 -0.03036643 0.023181992
0.06867838 0.035780653 -0.07248195 0.049688295 0.07419745 -0.048854608 0.0693489 0.09993724
-0.013598492 -0.03166244 0.01557808 -0.023533305 -0.0025991886 -0.04710529 -0.03934174 -0.059705522
0.019619858 -0.06198654 -0.042746067 0.068177 0.069372974 0.058534488 -0.081035756 -0.045272946
0.089040324 0.011897469 -0.019171387 0.04421198 -0.048812516 -0.0129273115 -0.053312253 -0.08271075
0.011811786 -0.05558721 -0.09103329 0.00055560743 0.06753001 0.008163404 -0.029499553 -0.06136841
0.08850924 0.026107203 -0.04175837 -0.044387557 0.0441024 -0.059247255 -0.03746319 0.083430246
0.05523462 0.039865732 0.053883646 -0.021902895 0.04331563 -0.04144934 -0.008810739 -0.066989355
-0.084441125 0.042434406 -0.033926215 0.045214888 -0.07811361 0.081337534 0.07277929 -0.0071125343
0.009948735 0.06294563 0.009404004 -0.060891904 0.056064058 0.042568702 0.02503077 0.016109968
0.049851425 0.055738032 -0.04118739 -0.057679772 -0.03487469 -0.077667885 -0.038277205 0.07356041
-0.08070376 0.08877716 -0.016834214 0.07928799 0.03932275 -0.068656325 -0.0031570178 -0.082152575
0.031525664 -0.029048782 0.06287065 0.048300926 0.035302944 -0.03680943 -0.0074529564 -0.06610133
0.042096015 -0.051844873 0.054302976 -0.038003813 -0.020419061 0.060305994 -0.04689588 0.016033093
0.06617994 -0.057469994 -0.017575849 0.02338041 0.08651646 -0.041552164 0.0499074 -0.06325125
00000000: 49bc 8c3d 943d 473d b25f 39bd 5d5e b4bd
00000010: e6f8 c3bc 04a5 203d 4d06 283d dbc7 b43d
00000020: b4fa 77bb 98b2 84bc 7ce9 e6bc 60cd 7cbd
00000030: fe6c 0abd ce0c 263b 7e26 8ebd 322a 7abd
00000040: 60d0 dd3b 8a87 71bd 5fdd 33bc c3a6 6abd
00000050: 7f76 463d 9c7a 253d 03cb e03c e3e6 9a39
00000060: e576 c2ba aaaa a83b 447a 09bc ee53 fbbc
00000070: 177b 57bd 9481 5cbd eb27 66bc 735a 053d
00000080: 535b b83d 70a3 e73c ddca f7bb 0a77 b03b
00000090: 203c 35bc 7c78 663d 6cff f23c 5f1c 3d3d
000000a0: cfcd 873d fe1a 093d 90b7 8c3d 3b6a 51bd
000000b0: d804 f1bc 4743 80bc 96f7 963d a64d 78bd
000000c0: 6a9e a6bd b3cc 73bd 562e 413d 671b 7a3d
000000d0: 24ba 6f3c a904 b5bc 25c2 b03d 0da5 4fbc
000000e0: 2848 943d 9e73 4bbd b02d b2bd 0e10 75bd
000000f0: 3626 c63c a790 333d 88a0 903d adc8 173c
00000100: 2cc0 ab3d 6e9f 103d 3ac5 c43c 05eb e13d
00000110: e75c a13d 5e81 a53d 6cc7 793d 412a ce39
00000120: 83c8 57bd 88fc 5dbd 7c57 a2bd 94cd 103c
00000130: 26cf 17bc bd40 3d3c d9a2 2d3d aff9 92bb
00000140: 5c48 303d 44ab 3d3b 38fe 27bd 0574 ef3b
00000150: 771a 443d 6495 debc c8bc 0a3c 95ff a4bd
00000160: 2fd6 d53d 9db5 223d 2c98 883d dab6 abbd
00000170: 0a8e 47bd 63ab 80bd 9a0f 1abd e657 2db8
00000180: eb44 30bd b884 aa3d 0605 fc3b e27c d83d
00000190: c614 3fbc c018 94bd 43b8 1ebd ab40 9bbd
000001a0: b439 35bc faad 92bd 8491 2cbd ef48 cc3d
000001b0: b9e2 c33c 1783 0f3d c8d7 a0bd 133f 4039
000001c0: 666c 5abd 02bd d4bc 9a35 c7bb 6618 67bd
000001d0: a0af 9abc 960c 36bd 0509 4f3d de6e 16bd
000001e0: ea37 293b c4b6 023d 3868 b33d 7178 2abd
000001f0: 26b6 693c 825b 86bd f64d 1dbc 9da2 93bd
00000200: e46c 42bd b5f3 87bd f260 5ebd 59c8 833b
00000210: 97a5 71bd f4c1 dabc 2bf7 913c c7b3 48bd
00000220: 821a 1fbd 12c3 6f3c 5455 2b3c 63a7 58bd
00000230: 69cd 2bbc ec0c 35bd 05c3 f8bc 29e8 bd3c
00000240: 40a7 8c3d bc8e 123d 6b71 94bd f485 4b3d
00000250: d5f4 973d c51b 48bd cc06 8e3d e5ab cc3d
00000260: 36cc 5ebc 7ab0 01bd 343b 7f3c ebc8 c0bc
00000270: 2657 2abb 7af1 40bd ce24 21bd c78d 74bd
00000280: d3b9 a03c 99e5 7dbd 8016 2fbd 62a0 8b3d
00000290: 6b13 8e3d dcc1 6f3d 13f6 a5bd 2070 39bd
000002a0: c65a b63d 9aed 423c 500d 9dbc 9f17 353d
000002b0: a2ef 47bd 13cd 53bc f35d 5abd 4164 a9bd
000002c0: 3986 413c 6aaf 63bd a96f babd 2fa6 113a
000002d0: 2d4d 8a3d ccbf 053c 0ca9 f1bc 715d 7bbd
000002e0: 5544 b53d c6de d53c d30a 2bbd bacf 35bd
000002f0: b8a4 343d 40ad 72bd 0073 19bd 7add aa3d
00000300: b23d 623d 404a 233d 19b5 5c3d b36d b3bc
00000310: bb6b 313d c8c6 29bd eb5a 10bc b731 89bd
00000320: 78ef acbd b3cf 2d3d 37f6 0abd 3f33 393d
00000330: 07fa 9fbd 4b94 a63d 4f0d 953d 4310 e9bb
00000340: 0500 233c a3e9 803d 4013 1a3c ca69 79bd
00000350: 6da3 653d 855c 2e3d 540d cd3c 0df9 833c
00000360: 0231 4c3d 904d 643d 1cb4 28bd a041 6cbd
00000370: c3d8 0ebd 5710 9fbd 8fc8 1cbd d7a6 963d
00000380: 0348 a5bd cdd0 b53d e8e7 89bc be61 a23d
00000390: e410 213d b09b 8cbd f8e5 4ebb 9c3f a8bd
000003a0: 0e21 013d b6f7 edbc 54c2 803d 31d7 453d
000003b0: d299 103d 7cc5 16bd ee37 f4bb 2260 87bd
000003c0: df6c 2c3d 4a5b 54bd cc6c 5e3d e3a9 1bbd
000003d0: e045 a7bc 6b03 773d e515 40bd d557 833c
000003e0: 5989 873d a865 6bbd 3afb 8fbc 4688 bf3c
000003f0: 8b2f b13d 9a32 2abd b46b 4c3d df89 81bd

bias f4 [128]
-0.0073593035 0.060872283 0.08170159 -0.03620213 0.06911736 0.06421387 -0.07486566 -0.01581417
0.07390432 0.06971176 0.017905138 -0.0077765035 0.072951294 0.001966203 -0.02877735 0.0007843879
0.04848453 0.055301912 -0.008113589 0.0013977702 0.010728491 0.025744041 -0.039315943 -0.03262052
0.078600466 -0.041731436 0.09908527 0.08334669 0.026902596 -0.0027933314 0.05292124 0.09516012
0.082228296 -0.045826536 0.08281102 -0.018703721 0.041808423 0.0672819 -0.07306571 0.0839695
0.076056115 0.06332527 -0.07066979 0.0805683 -0.07451263 -0.03570484 -0.03676201 0.06535608
-0.036167033 -0.017075034 -0.060812563 0.011187266 0.035926193 -0.08519993 0.047415443 -0.018971704
0.08944012 -0.05070454 -0.043310765 -0.013223825 0.039177768 0.05784755 0.04740055 -0.04230247
-0.019450856 -0.017475707 0.09082115 -0.021565335 0.013739458 0.07095593 -0.061749503 0.0860338
-0.012363603 -0.019783134 0.043530416 -0.0068924176 -0.0025597103 -0.032977723 0.034624662 0.016527602
-0.025747325 -0.036817864 0.01457288 0.03252528 0.02611597 0.06488698 -0.0120988665 0.04285084
-0.034079045 0.026210606 0.019305114 -0.017082265 0.0054077203 0.017994931 0.07354538 -0.0768154
-0.069837816 0.021550322 -0.038997624 -0.040897116 0.08616716 -0.043971412 0.028320547 0.07359121
0.07645649 -0.048826292 -0.0016336555 0.035762534 -0.0917039 0.073253036 -0.03204131 -0.032633923
0.07888782 -0.07787039 0.09630044 -0.009883872 -0.025630381 0.10193524 0.028028376 -0.05978813
-0.040422972 -0.00058549264 0.061022338 -0.017861053 0.062031213 0.06184006 0.037306257 -0.040787663
00000000: 5026 f1bb 3755 793d 2a53 a73d af48 14bd
00000010: 678d 8d3d 9082 833d 2b53 99bd b88c 81bc
00000020: 265b 973d 0ac5 8e3d ccad 923c 0ad2 febb
00000030: 7d67 953d 6adb 003b 7abe ebbc 629f 4d3a
00000040: b797 463d 4284 623d dcee 04bc 6335 b73a
00000050: 8dc6 2f3c 2be5 d23c c109 21bd 189d 05bd
00000060: 48f9 a03d 95ee 2abd 38ed ca3d abb1 aa3d
00000070: d562 dc3c 5310 37bb f1c3 583d 4fe3 c23d
00000080: 4f67 a83d 9bb4 3bbd d398 a93d 8c38 99bc
00000090: 4f3f 2b3d 18cb 893d 7aa3 95bd 34f8 ab3d
000000a0: 4fc3 9b3d aeb0 813d 53bb 90bd fe00 a53d
000000b0: 149a 98bd 3d3f 12bd c393 16bd 69d9 853d
000000c0: e223 14bd f1e0 8bbc 9816 79bd cb4a 373c
000000d0: 5827 133d 4d7d aebd b236 423d 8c6a 9bbc
000000e0: 622c b73d 90af 4fbd a166 31bd bea8 58bc
000000f0: de78 203d 8df1 6c3d 1427 423d 5b45 2dbd
00000100: 6757 9fbc 3729 8fbc 7000 ba3d c9a9 b0bc
00000110: 771b 613c 5851 913d 0ced 7cbd 7d32 b03d
00000120: b690 4abc 3d10 a2bc f34c 323d cad9 e1bb
00000130: d0c0 27bb a613 07bd 97d2 0d3d e564 873c
00000140: 0eec d2bc 54ce 16bd 17c3 6e3c 3a39 053d
00000150: 29f1 d53c 77e3 843d 533a 46bc 5d84 2f3d
00000160: 7896 0bbd a0b7 d63c c225 9e3c 1bf0 8bbc
00000170: 3f33 b13b 1b6a 933c f69e 963d 6451 9dbd
00000180: 2107 8fbd 4d8a b03c f9bb 1fbd bc83 27bd
00000190: 6878 b03d 5e1b 34bd 7e00 e83c fdb6 963d
000001a0: 3895 9c3d 14fe 47bd 6220 d6ba bc7b 123d
000001b0: 41cf bbbd b005 963d c03d 03bd 26ab 05bd
000001c0: f08f a13d 837a 9fbd 2a39 c53d f7ef 21bc
000001d0: cef6 d1bc 6cc3 d03d c49b e53c 66e4 74bd
000001e0: 8f92 25bd bf7b 19ba 8ff2 793d 5851 92bc
000001f0: 7114 7e3d 014c 7d3d 72ce 183d f710 27bd

weight f4 [1, 128]
-0.081775025 -0.016772326 -0.08952503 -0.031808794 -0.07569516 0.039033365 0.06520725 0.04370917
-0.10525835 -0.0831098 0.0015307041 -0.04817944 -0.03363176 0.09754088 0.008468205 -0.052095376
0.043553766 0.07597554 -0.04765873 0.09801235 0.016277682 0.06363593 -0.07800571 0.047887675
-0.04103288 -0.02004872 0.075205415 0.014483744 0.084195234 -3.6481285e-09 -0.077378176 0.0146556245
-0.09756895 -0.045228023 0.076568015 0.08161014 -0.08503406 -0.08299337 -0.056866102 -0.07207391
0.044032864 0.0834196 -0.063621275 0.0080941385 -0.08395441 0.034720417 -0.047180377 0.01676398
0.06961712 0.08344406 -0.0074467883 0.04058608 0.017219605 0.0030869057 -0.04074634 -0.060310334
0.08837198 0.016811216 -0.03337801 -0.07593683 -0.08110388 -0.012288264 0.019999487 -0.046144944
0.085319735 0.0309967 0.034557477 -0.10183963 -0.03617057 0.07968886 0.03165065 0.038487844
-0.030110998 0.010775686 0.029910563 0.008289861 0.023734681 0.04199285 0.014565595 0.042002495
0.018831188 -0.0894109 -0.054644145 0.082622424 -0.08187808 0.016483195 0.049082916 -0.09340386
-0.094026886 -0.035764806 0.09736838 0.073556304 -0.03781786 -0.091571696 -0.036964215 0.002893231
-0.007853853 -0.086606294 -0.08251426 0.056812778 -0.054333672 0.08223737 0.061736338 -0.03485344
0.048831668 -0.10066218 -0.008973582 0.00026438336 -0.0556139 0.07015519 -0.012910329 0.073806
-0.074935384 -0.050966986 0.028570766 0.009671929 -0.03348452 -0.1072731 -0.043135785 -0.019454373
0.090417355 0.094020806 -0.023911783 0.065312095 -0.079749465 -0.03560253 -0.024354579 -0.0119645335
00000000: aa79 a7bd 1e66 89bc e658 b7bd f049 02bd
00000010: 1006 9bbd 73e1 1f3d 618b 853d 6308 333d
00000020: b191 d7bd 7935 aabd e8a1 c83a ce57 45bd
00000030: 75c1 09bd 83c3 c73d 3abe 0a3c f661 55bd
00000040: 6f65 323d 1099 9b3d cd35 43bd b3ba c83d
00000050: c658 853c 8e53 823d 75c1 9fbd de25 443d
00000060: 1812 28bd 373d a4bc 4c05 9a3d 3a4d 6d3c
00000070: 8d6e ac3d 8eb2 7ab1 7378 9ebd 251e 703c
00000080: 3bd2 c7bd 0541 39bd b1cf 9c3d 3823 a73d
00000090: 5626 aebd 6ef8 a9bd 6eec 68bd 7c9b 93bd
000000a0: ce5b 343d e5d7 aa3d df4b 82bd 479d 043c
000000b0: 4af0 abbd ff36 0e3d 3640 41bd 9d54 893c
000000c0: 6c93 8e3d b8e4 aa3d 3004 f4bb 973d 263d
000000d0: 2110 8d3c af4d 4a3b a2e5 26bd f807 77bd
000000e0: 5efc b43d adb7 893c 61b7 08bd c584 9bbd
000000f0: cb19 a6bd b754 49bc f7d5 a33c 7b02 3dbd
00000100: 1dbc ae3d cbec fd3c 248c 0d3d 4c91 d0bd
00000110: 9727 14bd ea33 a33d 1da4 013d 6ea5 1d3d
00000120: 57ab f6bc 818c 303c ff06 f53c 32d2 073c
00000130: 3c6f c23c b200 2c3d 89a4 6e3c cf0a 2c3d
00000140: dd43 9a3c 101d b7bd 8ad2 5fbd f235 a93d
00000150: b2af a7bd c407 873c 2b0b 493d 864a bfbd
00000160: 2b91 c0bd 1e7e 12bd 1369 c73d b0a4 963d
00000170: e6e6 1abd f189 bbbd ca67 17bd 5d9c 3d3b
00000180: 72ad 00bc a45e b1bd 3dfd a8bd 84b4 683d
00000190: fc8c 5ebd 116c a83d 3edf 7c3d 7bc2 0ebd
000001a0: b703 483d f927 cebd ee05 13bc ef9c 8a39
000001b0: 67cb 63bd 86ad 8f3d d885 53bc 9a27 973d
000001c0: b977 99bd c2c2 50bd 3d0d ea3c 0377 1e3c
000001d0: 1027 09bd 00b2 dbbd 26af 30bd c75e 9fbc
000001e0: bc2c b93d fb8d c03d a5e2 c3bc 59c2 853d
000001f0: b053 a3bd f5d3 11bd 4183 c7bc e406 44bc
