Dry fermentation prediction and optimization system/predictor_digester/Predictor_Digester CH4/models/NeuralNetTorch_BAG_L1/S1F2/net.params (torch, 209927 bytes, 9 tensors)

weight f4 [128, 10]
0	0xbcf4f998	-0.029904172
1	0x3df81ac8	0.12114483
2	0xbe80e543	-0.25174913
3	0xbe844f2f	-0.25841662
4	0xbe15d299	-0.14631118
5	0x3d6cab18	0.057780355
6	0xbd0854ac	-0.033283874
7	0x3e8ab8dd	0.27094164
8	0xbd963f0b	-0.07336243
9	0x3d448e63	0.047987353
10	0xbe16483f	-0.14675997
11	0xbd8afd37	-0.06786578
12	0xbe9b85ab	-0.30375418
13	0xbe74987c	-0.23886293
14	0xbe06d529	-0.13167252
15	0xbb90e90e	-0.0044223135
16	0x3ddefc27	0.10887938
17	0x3e28a423	0.16468863
18	0xbe6bad44	-0.23015314
19	0xbe0d1c37	-0.13780294
20	0x3e3d481c	0.18484539
21	0x3e835c3c	0.25656307
22	0xbc909e8b	-0.017653724
23	0x3e956559	0.29178885
24	0xbd558dcb	-0.052137177
25	0x3d0e5414	0.034748152
26	0x3e934364	0.28762352
27	0xbe7dccb6	-0.24785122
28	0xbe3f811b	-0.18701594
29	0xbd80a078	-0.06280607
30	0xbde80cf8	-0.113305986
31	0x3e8e6b14	0.2781607
32	0xbe6d77c8	-0.23190224
33	0xbe035840	-0.12826633
34	0xbe5b493d	-0.21414657
35	0xbe96987d	-0.29413214
36	0xbe3af152	-0.18256119
37	0x3e83bfba	0.25732213
38	0x3e04aaad	0.12955733
39	0x3e2d0baa	0.1689898
40	0xbd175fd1	-0.036956612
41	0xbe614a23	-0.22000937
42	0x3d3ca389	0.046054397
43	0xbeb03c37	-0.3442094
44	0xbe60c7ce	-0.2195122
45	0xbe23e432	-0.16005018
46	0x3e4f5abd	0.20249458
47	0x3e407d03	0.18797688
48	0xbe0a417b	-0.13501541
49	0xbcd8de5e	-0.02647322
50	0x3e60d4bb	0.2195615
51	0x3e95f643	0.29289445
52	0x3e553b02	0.20823291
53	0x3ceefbcf	0.029172806
54	0x3e64b393	0.22334127
55	0xbe42fd37	-0.19041906
56	0x3d6010a6	0.054703377
57	0xbe67d2a8	-0.22638953
58	0xbe5c0523	-0.21486335
59	0xbe54f1a4	-0.20795304
60	0x3e03bfa9	0.12866081
61	0x3e2fd3f7	0.17170702
62	0xbe79b946	-0.24387082
63	0x3dcf796e	0.10130583
64	0x3e506f1c	0.20354885
65	0xbccba5d0	-0.024859339
66	0x3cde3bb1	0.027128072
67	0x3d6e7226	0.05821433
68	0x3e429a3c	0.19004148
69	0x3e9abe00	0.30223083
70	0xbe7ae7a8	-0.24502432
71	0xbe072069	-0.13195957
72	0x3e06c9a1	0.13162853
73	0x3e6953d7	0.22785889
74	0x3e8df337	0.2772462
75	0x3e826f78	0.2547567
76	0x3d1e5f32	0.038665004
77	0xbe87f2ff	-0.2655258
78	0x3d4c6019	0.049896333
79	0xbe458d9d	-0.19292302
80	0xbe7bbd04	-0.24583822
81	0x3e908fda	0.2823475
82	0x3e975ca0	0.29562855
83	0xbe946c67	-0.28988954
84	0x3d220557	0.039555874
85	0xbd98994e	-0.074511155
86	0xbd9612e4	-0.07327822
87	0xbe0cbb19	-0.13743247
88	0x3e048475	0.12941153
89	0xbe5fcf56	-0.21856436
90	0x3dc4df4d	0.09612904
91	0x3e1d9bd2	0.15391472
92	0x3e9495fe	0.29020685
93	0x3dba497a	0.09096046
94	0xbeb01966	-0.34394377
95	0xbe4ea18c	-0.20178813
96	0x3e251d57	0.16124474
97	0x3d0b1d6c	0.033963606
98	0xbe6dbb83	-0.23216061
99	0xbe6c8596	-0.23097834
100	0x3e8e1f67	0.27758333
101	0x3e43d7fd	0.19125362
102	0xbe3fc358	-0.18726861
103	0xbde9cea2	-0.11416365
104	0xbea7d1f0	-0.32777357
105	0x3c6eb7ad	0.014570159
106	0xbe5f1cdb	-0.21788351
107	0xbe7e4a94	-0.24833137
108	0xbc07217c	-0.008247729
109	0x3cd225a4	0.025652714
110	0xbdbd2876	-0.09236233
111	0x3e3c6e14	0.18401366
112	0xbe5d440a	-0.21607986
113	0x3e909fcc	0.28246915
114	0x3e66f8f3	0.22555904
115	0xbe8916e9	-0.26775292
116	0xbda367d9	-0.07978792
117	0x3cb5a731	0.02217445
118	0x3d38bac3	0.045099985
119	0x3d4e7f25	0.050414223
120	0x3e24cfbf	0.16094874
121	0x3cebe793	0.028796947
122	0xbe33b493	-0.17549352
123	0x3e132400	0.14369202
124	0xbe938895	-0.2881514
125	0xbe41392c	-0.18869466
126	0xbda4b63c	-0.08042571
127	0xbe106773	-0.14101963
128	0xbde9f50c	-0.11423692
129	0xbe920113	-0.28516445
130	0xbbe17ab8	-0.0068810843
131	0x3d95d382	0.073157325
132	0xbe85e2d2	-0.26149613
133	0x3c6bd1fc	0.014393326
134	0x3e786196	0.24255976
135	0xbc3b2018	-0.011421226
136	0x3cf4bdda	0.029875685
137	0x3bac8c73	0.0052657663
138	0x3dc04eec	0.09390053
139	0x3e54c00f	0.2077639
140	0x3e9a1a29	0.30098084
141	0x3e60d1c6	0.21955022
142	0x3eb9f345	0.36318412
143	0xbc093206	-0.008373743
144	0xbe92723c	-0.2860278
145	0xbe16f59b	-0.14742129
146	0x3e5f0b2c	0.21781605
147	0xbc553465	-0.01301298
148	0xbe271383	-0.16316037
149	0xbe88d1fc	-0.26722705
150	0xbebe9d07	-0.37229177
151	0xbe9c3947	-0.3051245
152	0xbdcf7524	-0.10129765
153	0x3df345f3	0.11878576
154	0x3e1aee2e	0.15129921
155	0xbe8f030b	-0.2793201
156	0x3e644459	0.22291698
157	0xbe8a15e3	-0.26969823
158	0xbda529e4	-0.08064631
159	0xbde94938	-0.113909185
160	0xbe000a85	-0.12504013
161	0xbd48eb83	-0.049052726
162	0xbe909092	-0.28235298
163	0xbeab3881	-0.33441547
164	0xbd95c92b	-0.0731376
165	0x3ca8bf3d	0.020599002
166	0xbe02323d	-0.12714477
167	0x3df24756	0.118300125
168	0xbe87539b	-0.26430973
169	0xbd8a2648	-0.06745583
170	0x3ea168cb	0.31525263
171	0xbdda494f	-0.10658514
172	0x3e943d46	0.28952998
173	0x3e0e4ab4	0.13895684
174	0xbe8e31ec	-0.27772462
175	0x3e58341c	0.21113628
176	0xbcd054ec	-0.025431119
177	0xbe0cb2bf	-0.13740061
178	0x3e863580	0.26212692
179	0xbe89bdb0	-0.26902533
180	0x3dbefa92	0.09325136
181	0xbdcf3800	-0.10118103
182	0x3e84018c	0.2578243
183	0x3e20e854	0.15713626
184	0x3e168b52	0.14701584
185	0x3dc1ff2d	0.09472499
186	0xbdbe75d1	-0.092998154
187	0xbd393dc8	-0.045224935
188	0xbe870e53	-0.26378116
189	0x3e63081c	0.22171062
190	0x3e8daa0a	0.27668792
191	0x3e5f7724	0.21822792
192	0xbe81e51d	-0.25370112
193	0x3c9f1c20	0.01942259
194	0xbe56efda	-0.20989934
195	0xbe3b5eae	-0.18297836
196	0xbe45cdbc	-0.19316763
197	0x3dd268a6	0.10273866
198	0xbe498054	-0.1967786
199	0xbce0ac55	-0.027425924
200	0xbd0acf32	-0.033889003
201	0x3e29f46b	0.16597144
202	0xbe4e7f32	-0.20165709
203	0xbe86967c	-0.26286685
204	0xbe456e48	-0.1928035
205	0x3e4b3553	0.1984456
206	0xbe0bd7c9	-0.13656534
207	0x3e901caa	0.2814687
208	0x3ddfd0b0	0.10928476
209	0x3cad428a	0.021149892
210	0xbc638742	-0.013887228
211	0xbd9b9b70	-0.07598007
212	0x3d367aae	0.04455059
213	0xbddf7e14	-0.10912719
214	0x3bc1002a	0.005889912
215	0x3d507b76	0.05089899
216	0xbe727cb3	-0.23680381
217	0xbe289b6f	-0.16465543
218	0x3e6e9c87	0.23301898
219	0xbea28811	-0.31744435
220	0xbc48598d	-0.012228382
221	0x3eb1e54a	0.34745246
222	0x3e2f6ee6	0.17132148
223	0xbb05b227	-0.0020400377
224	0xbe923669	-0.28557137
225	0x3e39185d	0.180757
226	0xbe4df70a	-0.20113769
227	0xbd85e9b0	-0.06538713
228	0xbdafc6b6	-0.08582823
229	0xbd8e1991	-0.0693847
230	0xbcb28f3b	-0.021796813
231	0x3eb18587	0.34672186
232	0x3da5a0c5	0.08087305
233	0x3e924352	0.28566986
234	0x3e60db6a	0.219587
235	0xbe3b6058	-0.18298471
236	0x3e229408	0.15876782
237	0xbe751cc4	-0.23936754
238	0xbe06dc85	-0.13170059
239	0x3daa0c98	0.08303183
240	0x3d9aedaf	0.07564866
241	0x3e859efc	0.26097858
242	0xbe049890	-0.12948823
243	0xbb87759e	-0.004133894
244	0x3e720614	0.23635131
245	0xbe9f54b0	-0.311193
246	0x3e649cac	0.2232539
247	0xbe8058b8	-0.25067687
248	0xbcf7f73e	-0.030269261
249	0xbd936f76	-0.07198994
250	0xbdf96b26	-0.1217864
251	0x3d6623a4	0.056186333
252	0x3e7dd530	0.24788356
253	0xbd7590fa	-0.059952714
254	0xbe4b21ac	-0.19837064
255	0xbdf324c4	-0.11872247

bias f4 [128]
0	0xbe870150	-0.2636819
1	0xbd83c729	-0.06434471
2	0x3d372155	0.044709522
3	0x3db2bc51	0.08727325
4	0x3e261837	0.16220175
5	0xbe12aca1	-0.14323665
6	0xbd9f4b81	-0.07778073
7	0x3e6d6447	0.23182784
8	0xbdecc5b4	-0.115611464
9	0xbe66fa79	-0.22556485
10	0x3e718ef9	0.23589696
11	0x3e5d4daf	0.21611665
12	0xbdda4129	-0.106569596
13	0xbd0aebb2	-0.033916183
14	0xbe6ebf69	-0.23315205
15	0xbe7e27e5	-0.24819906
16	0x3e0c9efb	0.13732521
17	0xbe003fe2	-0.1252437
18	0x3e7843c9	0.24244608
19	0xbe79bf48	-0.24389374
20	0xbd888831	-0.066666014
21	0x3d2ee2af	0.04269665
22	0x3e352fdb	0.17694037
23	0x3e8ab58e	0.2709164
24	0x3e6d9a57	0.23203407
25	0x3e005ccb	0.12535398
26	0xbe035c07	-0.12828074
27	0xbe7bed99	-0.24602355
28	0xbe995a1a	-0.29951555
29	0x3c65d454	0.014027674
30	0x3e92e572	0.28690678
31	0xbd7c848f	-0.061649855
32	0xbc974332	-0.018464658
33	0xbe81353c	-0.25235927
34	0x3dc28557	0.09498089
35	0x3e50eaa5	0.2040201
36	0xbea1e89a	-0.31622773
37	0xbe734170	-0.23755431
38	0x3e678235	0.22608264
39	0x3d8b5ff6	0.068054125
40	0x3c8778f1	0.016537162
41	0x3d743cb9	0.059628222
42	0xbd7ceeb6	-0.06175109
43	0xbe76a8f1	-0.24087884
44	0xbe903c6b	-0.28171095
45	0x3e50a2bb	0.20374577
46	0xbd68d9d0	-0.056848347
47	0xbdf7153a	-0.120645955
48	0xbdc02477	-0.09381955
49	0xbe3a8ae4	-0.18217045
50	0xbd58f24a	-0.05296544
51	0xbe8f8ab0	-0.28035498
52	0x3e66b9ec	0.22531861
53	0x3e0bf27c	0.13666719
54	0xbe1d7778	-0.15377605
55	0xbd7f9c1b	-0.062404733
56	0x3e049d1c	0.12950557
57	0xbddf9b99	-0.1091835
58	0x3db79f03	0.08965876
59	0x3d851952	0.0649897
60	0xbe434164	-0.19067913
61	0x3d7317e1	0.059348945
62	0x3ca18b3f	0.019719718
63	0x3e809b8a	0.25118667
64	0xbde118d5	-0.109910645
65	0xbd9e1833	-0.077194594
66	0x3e8a86a2	0.27055842
67	0xbe8b32ec	-0.27187288
68	0x3c498c8f	0.012301578
69	0x3e97ddeb	0.29661497
70	0xbdf8a54b	-0.12140902
71	0x3ea53880	0.3226967
72	0x3e8d19c1	0.2755871
73	0x3e8b7e12	0.27244622
74	0xbd18f9f1	-0.037347738
75	0x3e88ff4a	0.2675727
76	0xbddb35fa	-0.107036546
77	0xbdef1abb	-0.1167502
78	0x3e00843b	0.12550442
79	0x3da0b13f	0.07846307
80	0x3e26895d	0.16263337
81	0x3e9b7cfc	0.30368793
82	0xbe540a5d	-0.20707078
83	0x3e15b907	0.14621364
84	0x3ddc8455	0.10767428
85	0x3e2df516	0.16988024
86	0x3e30ca19	0.17264594
87	0xbe09e9f6	-0.13468155
88	0xbe88b561	-0.2670088
89	0x3e847e7a	0.25877744
90	0xbe412ea3	-0.18865447
91	0x3e605097	0.21905743
92	0xbea2e77c	-0.31817234
93	0xbd799cba	-0.06094048
94	0x3c84a111	0.016190084
95	0x3d2bb589	0.041921172
96	0xbb2ba9d4	-0.0026193755
97	0x3dfde30f	0.123968236
98	0xbd50a44e	-0.050937943
99	0x3dc78577	0.09742253
100	0x3e990b0c	0.2989124
101	0xbe546fe5	-0.2074581
102	0xbca2a30d	-0.01985314
103	0xbdfc7163	-0.12326314
104	0x3e89d48a	0.26919967
105	0x3e889dc9	0.2668288
106	0xbb02e06d	-0.0019970194
107	0xbdf6e28f	-0.12054931
108	0xbe533315	-0.20624955
109	0x3e5b9aef	0.21445821
110	0x3b560396	0.0032655946
111	0x3e971628	0.2950909
112	0x3e4a39b7	0.19748579
113	0x3e943992	0.28950173
114	0x3e855639	0.26042345
115	0xbe499fc8	-0.19689858
116	0x3dd49449	0.10379846
117	0xbdf05a0c	-0.11735925
118	0x3e0a96a4	0.13534027
119	0xbae2360a	-0.0017258537
120	0x3cdd29a2	0.026997391
121	0xbe437a9a	-0.19089738
122	0xbe992e18	-0.2991798
123	0x3e22ecb8	0.15910614
124	0x3d6cb8b6	0.05779334
125	0x3c8bd1d3	0.017067825
126	0x3e587845	0.21139629
127	0xbe110b61	-0.14164497

weight f4 [128, 128]
0	0x3c686d4b	0.014186214
1	0xbd5138f3	-0.0510797
2	0x3bfa9fbc	0.0076484364
3	0xbc661d2c	-0.014045041
4	0x3d5c9ea2	0.05386222
5	0x3deb1c3e	0.11479996
6	0x3d6f0b74	0.058360532
7	0x3b9cf68d	0.0047901333
8	0x3dbcbaad	0.09215293
9	0xbcb973e1	-0.022638263
10	0xbd54c533	-0.051945876
11	0x3cec38bf	0.028835652
12	0x3c628617	0.013825915
13	0xbd66a989	-0.056314025
14	0xba286b84	-0.00064247125
15	0xbd71dbed	-0.05904763
16	0xbdacdb54	-0.08440271
17	0x3cc7ce36	0.024390321
18	0x3d262bc8	0.040569097
19	0x3d5892d7	0.052874412
20	0xbd74e9f6	-0.059793435
21	0xbcb9fa24	-0.022702284
22	0xbd6c0ec4	-0.05763127
23	0xbcce6ebf	-0.025199292
24	0x3d825d96	0.06365506
25	0xbc93e6fa	-0.018054474
26	0xbd633d61	-0.055478457
27	0xbd8a833f	-0.067633145
28	0xbca6f138	-0.020378694
29	0xbd987889	-0.07444865
30	0xbd56ebb9	-0.052470896
31	0x3da120e6	0.07867603
32	0xbd55919b	-0.052140813
33	0xbd02d381	-0.031939987
34	0xbcd093d4	-0.025461115
35	0xbdcb8b6a	-0.099387005
36	0xbd05d2c6	-0.032671712
37	0x3c8c68ec	0.017139874
38	0xbd3b96d0	-0.045798123
39	0xbcbfd1a7	-0.0234154
40	0xbc175b40	-0.009238064
41	0xbdf9116b	-0.12161525
42	0x3d4c92ee	0.04994481
43	0x3dd8c4f6	0.10584442
44	0x3d929ade	0.07158445
45	0xbc94c64c	-0.018160962
46	0x3d3798d4	0.044823483
47	0xbda23d98	-0.07921904
48	0xbd06a5d3	-0.032872986
49	0xbcf47a1e	-0.029843386
50	0xbd8fdcd1	-0.07024539
51	0x3cd70ae8	0.026250318
52	0xbcbdd321	-0.023171963
53	0xbcb2eeb9	-0.021842347
54	0xbd52aa2d	-0.051431824
55	0xbdc759b1	-0.09733904
56	0xbd3ba2ae	-0.04580944
57	0xbdceeb5d	-0.10103486
58	0x3d06cdc2	0.03291107
59	0x3cd2b6ec	0.02572199
60	0x3d56dc38	0.05245611
61	0xbd14162b	-0.036153954
62	0x3c4b4391	0.012406246
63	0x3b38fc78	0.0028226655
64	0x3dc338b0	0.09532297
65	0x3d8906a5	0.066907205
66	0xbd61d714	-0.055136755
67	0xbdb39c57	-0.08770054
68	0xbdd087d1	-0.10182155
69	0xbd963591	-0.07334436
70	0x3d845d17	0.06463068
71	0x3c8dc840	0.0173074
72	0x3da50c0b	0.08058938
73	0x3d878817	0.06617754
74	0x39fb62c0	0.00047948025
75	0x3c070d02	0.008242847
76	0x3ddd6704	0.10810664
77	0x3dc72f2c	0.09725794
78	0x3cd4d318	0.025979564
79	0xbd4b35e4	-0.04961194
80	0x3d834ff7	0.064117365
81	0xbd0761c2	-0.033052213
82	0x3d33106c	0.043716833
83	0x3cc6cd20	0.024267733
84	0x3ce7ced6	0.02829687
85	0xbca2a87c	-0.01985573
86	0xbd1048b3	-0.03522558
87	0x3cf2c545	0.029635081
88	0xbd538aa8	-0.051645905
89	0xbdc681e9	-0.09692747
90	0x3d6b6be5	0.057475943
91	0xbb1c3a69	-0.0023838526
92	0x3d732db3	0.059369754
93	0xbd8cc948	-0.06874329
94	0x3d23e02d	0.040008713
95	0xbd12f1ba	-0.03587506
96	0xbd259e0f	-0.04043394
97	0xbcf91d20	-0.030409396
98	0xbd053e84	-0.032530323
99	0x3d77593e	0.060387842
100	0xbb59747a	-0.0033180998
101	0x3d7880e6	0.060669802
102	0x3ca24b83	0.019811397
103	0xbd3b32ff	-0.04570293
104	0xbd8985f0	-0.06715
105	0xbd9c7a9c	-0.076405734
106	0xbd70c1ff	-0.05877876
107	0xbd953bf2	-0.07286824
108	0xbbf0cc6a	-0.007348587
109	0xbc51620c	-0.012779724
110	0xbcf1dc51	-0.029524
111	0xbd303bc6	-0.043025754
112	0x3d563a88	0.052301913
113	0x3de74289	0.112919874
114	0x3c830219	0.015992211
115	0xbd30ff32	-0.043212123
116	0x3d9210b2	0.07132091
117	0x3db1e0fa	0.08685489
118	0xbd59b75d	-0.053153384
119	0x3bbbab9d	0.005727245
120	0x3caf9733	0.021434402
121	0xbcf03236	-0.029320817
122	0x3d752fc3	0.059860002
123	0x3d11687e	0.035500042
124	0x3da20e54	0.07912889
125	0xbc7a53e4	-0.01527879
126	0xbcbc46b3	-0.02298293
127	0xbdbb07a5	-0.091323175
128	0xbd4f90af	-0.05067509
129	0x3c3a6961	0.011377663
130	0x3d112a66	0.035440825
131	0xbbfadeff	-0.0076559777
132	0x3d714b27	0.05890956
133	0xbd2946e1	-0.04132736
134	0x3d39851b	0.045292955
135	0x3d9e7e3f	0.07738923
136	0xbcbeea5f	-0.023305116
137	0x3de2d613	0.11075988
138	0xbd178113	-0.03698833
139	0xbd99243c	-0.07477614
140	0xbd631424	-0.05543913
141	0x3da0ac18	0.07845324
142	0xbc9454dd	-0.018106872
143	0xbd111d2e	-0.03542822
144	0x3d00419f	0.03131258
145	0x3cdc67e2	0.026905004
146	0xbbbe3521	-0.0058046733
147	0x3cb2bf11	0.021819623
148	0xbd707bd3	-0.058711838
149	0xbd4d4b4f	-0.050120648
150	0xbd97c805	-0.074111976
151	0xbdde76c2	-0.10862495
152	0xbc8c7da5	-0.017149756
153	0x3c03a5b9	0.008035117
154	0xbd2caad3	-0.0421551
155	0xbe0becd5	-0.13664563
156	0x3d97e199	0.07416076
157	0xbdad7f8c	-0.08471593
158	0xbcfebb13	-0.031095063
159	0xbddf8330	-0.10913694
160	0xbd5342b7	-0.051577296
161	0x3d0a0133	0.03369255
162	0xbda77a00	-0.081775665
163	0xbd4964ee	-0.04916852
164	0x3d7faa3b	0.062418204
165	0xbd8106e8	-0.063001454
166	0xbd0ad393	-0.03389318
167	0xbd0291fc	-0.031877503
168	0x3d7824b2	0.06058187
169	0xbce7b0ec	-0.028282605
170	0x3b0005d7	0.001953473
171	0x3d1cdbfb	0.038295727
172	0xbcdb0445	-0.026735434
173	0x3cc66d7b	0.024222126
174	0xbdb8b334	-0.09018555
175	0x3d24e00c	0.04025273
176	0x3d011b78	0.031520337
177	0xbc5bcb9c	-0.0134152435
178	0xbde8a796	-0.113600895
179	0x3c88e027	0.016708447
180	0x3d36942c	0.0445749
181	0xbd650690	-0.05591446
182	0x3ca499e6	0.020092916
183	0xbd3271bc	-0.043565497
184	0xbd246da9	-0.040143643
185	0xbb0fa3cd	-0.0021917701
186	0x3d52dd01	0.051480297
187	0xbd063290	-0.032763064
188	0xbdcb17e4	-0.09916666
189	0xbc1882f2	-0.009308564
190	0x3c70351a	0.014661098
191	0xbd0a98c0	-0.03383708
192	0xbd5069c8	-0.05088213
193	0x3d552bd5	0.052043755
194	0x3d29c72c	0.04144971
195	0xbcec44b2	-0.02884135
196	0x3c6d314e	0.014477087
197	0xbd0b9259	-0.034075115
198	0x3d0c1b3a	0.034205653
199	0xbc3add98	-0.011405371
200	0xbd67414e	-0.056458764
201	0x3c40523e	0.011738358
202	0xbbd0df0b	-0.006374245
203	0x3d5e4a66	0.05427017
204	0xbd8e1ddf	-0.06939291
205	0x3cb41f3d	0.021987552
206	0xbdd35520	-0.10318971
207	0x3cd51a81	0.026013615
208	0x3d0f2813	0.034950327
209	0xbd31430b	-0.043276828
210	0xbddd3fa5	-0.10803155
211	0xbbcb4186	-0.0062028794
212	0x3bd0a06f	0.0063667814
213	0xbd74b59c	-0.05974351
214	0xbd7afbbd	-0.061275233
215	0x3dae1973	0.08500948
216	0x3d89b461	0.06723858
217	0x3d4c0e9a	0.049818613
218	0x3d7adcc5	0.0612457
219	0x3cec00ec	0.028809033
220	0x3d0b1fbc	0.03396581
221	0x3d5641f1	0.05230898
222	0xbd483f10	-0.048888266
223	0xbcae931f	-0.021310387
224	0x3d38e134	0.045136645
225	0x3c6bd140	0.014393151
226	0xbd848274	-0.064701945
227	0xbd86b473	-0.06577387
228	0x3ae6613b	0.0017576584
229	0x3d860b74	0.06545153
230	0x3d6f9e86	0.05850079
231	0x3c260617	0.010133288
232	0x3d5b0e33	0.05348034
233	0xbdacd050	-0.0843817
234	0xbda86ea3	-0.08224227
235	0xbdbff328	-0.0937255
236	0x3d92899c	0.07155153
237	0xbd1680b0	-0.03674382
238	0xbd8ee793	-0.06977763
239	0xbc02fd7e	-0.007995008
240	0xbda10638	-0.07862514
241	0xbd14bc91	-0.036312643
242	0x3c3bc09f	0.011459499
243	0x3c2743eb	0.010209064
244	0xbdbb05b2	-0.09131946
245	0xbda4f680	-0.08054829
246	0x3c2ed26e	0.010670288
247	0x3dac1c3f	0.08403825
248	0xbbde24fc	-0.006779311
249	0xbc8de639	-0.017321693
250	0x3c6337e3	0.013868305
251	0x3cc0e7d8	0.023548052
252	0xbdace035	-0.084412016
253	0xbd85d06f	-0.06533896
254	0x3c348569	0.011018136
255	0x3d4d03cb	0.050052445

bias f4 [128]
0	0xbd98e322	-0.07465197
1	0x3d8df0b4	0.06930676
2	0xbcd7eb03	-0.02635718
3	0xbd06d7b2	-0.032920547
4	0x3c1bb210	0.009502903
5	0x3d7306b5	0.05933257
6	0x3d8d1742	0.06889202
7	0x3d85e984	0.0653868
8	0xbca94c80	-0.02066636
9	0x3d00605e	0.031341903
10	0x3db853ec	0.09000382
11	0x3d4e1033	0.050308418
12	0x3da98f2a	0.082792595
13	0x3cb22cf1	0.021749945
14	0xbd93ab48	-0.07210404
15	0x3d050c9a	0.03248272
16	0x3a967f59	0.0011482044
17	0x3bcc0858	0.0062265806
18	0x3d29920b	0.041399043
19	0x3d259753	0.040427517
20	0xbcd8f7ad	-0.026485289
21	0xbd7c7c7e	-0.061642163
22	0x3dbb6f05	0.09152035
23	0x3ca9baa3	0.020718878
24	0x3d3d08a8	0.046150833
25	0x3d3a043d	0.0454142
26	0xbc45e416	-0.012078306
27	0xbd664a48	-0.056223184
28	0x3d875c39	0.06609387
29	0x3db49dba	0.088191465
30	0x3bae316d	0.0053159506
31	0xbca9cbcd	-0.020727063
32	0x3d3b70ad	0.045761753
33	0xbd927e66	-0.07153015
34	0xba2b6a47	-0.0006538969
35	0x3da80c37	0.08205455
36	0xbc7f563d	-0.015584526
37	0xbc130c8b	-0.008975158
38	0x3d51cd0a	0.05122093
39	0xbb81eab9	-0.0039647487
40	0xbb640e00	-0.0034798384
41	0x3d0096d9	0.03139386
42	0x3b378ace	0.0028006318
43	0x3ab79620	0.0014006533
44	0x3c10be3f	0.008834421
45	0x3d7972cd	0.0609005
46	0x3da4deea	0.0805033
47	0x3caec122	0.021332327
48	0x3b7bde9f	0.0038432253
49	0xbd771601	-0.06032372
50	0x3d1f9729	0.038962517
51	0x3d43d4d4	0.04781039
52	0xbd6048a4	-0.054756775
53	0x3d4321ad	0.047639538
54	0x3d010ed3	0.031508278
55	0xbd737ad9	-0.05944333
56	0xbc4ae6ff	-0.012384175
57	0xbd843f91	-0.06457437
58	0x3c67895f	0.014131873
59	0x3d595530	0.053059757
60	0xbd7c2aa9	-0.06156412
61	0x3b260c94	0.0025337087
62	0x3db0d161	0.08633686
63	0x3d9696c8	0.07352978
64	0x3d988fb5	0.07449285
65	0xbd511326	-0.051043652
66	0x3c19c28b	0.009384762
67	0xbcb4a1f4	-0.022049882
68	0x3db077a8	0.086165726
69	0x3c276fd7	0.010219536
70	0xbd6b86da	-0.05750165
71	0xbbd5508a	-0.006509845
72	0x3c50e712	0.012750404
73	0x3d13ba61	0.036066417
74	0xbb3d2004	-0.0028858194
75	0x3bbdccda	0.0057922425
76	0xbda0d705	-0.07853512
77	0xbd290fd8	-0.041274875
78	0x3d77e79e	0.06052362
79	0x3d36e233	0.044649314
80	0x3dcd461e	0.100231394
81	0x3d9e52bf	0.07730626
82	0x3d452a26	0.0481359
83	0xbd3d8a58	-0.046274513
84	0x3db265b6	0.08710806
85	0x3d689435	0.056781966
86	0xbcd6f18f	-0.026238231
87	0xbd1ac5c5	-0.037786264
88	0xbd4581c5	-0.04821946
89	0xbd300e24	-0.042982236
90	0x3d301a32	0.04299373
91	0xbd0dc17d	-0.034608353
92	0x3db36963	0.08760335
93	0x3d031046	0.03199794
94	0x3c20caa1	0.0098139355
95	0x3d02c184	0.031922832
96	0x3d3f65d6	0.046727978
97	0xba87d305	-0.0010362571
98	0xbd749559	-0.05971274
99	0xbdd5d012	-0.10440077
100	0x3dace5ff	0.08442306
101	0x3dbbf93f	0.09178399
102	0xbcb884d8	-0.022524282
103	0x3dbf0f66	0.09329109
104	0x3d1992fa	0.037493683
105	0xbd89ac38	-0.06722301
106	0xbc3370cc	-0.010952186
107	0xbd9060f5	-0.07049743
108	0x3d51cd80	0.05122137
109	0x3c7e49ff	0.015520572
110	0x3d5782f3	0.052615117
111	0x3c5be2c1	0.013420762
112	0x3c8a3d48	0.016874924
113	0xbd45733a	-0.04820559
114	0xbd94c069	-0.07263262
115	0xbcc905ad	-0.02453884
116	0x3d251b3d	0.04030918
117	0xbc42ff60	-0.011901706
118	0xbbcbf8ea	-0.006224741
119	0xbd26fd1e	-0.040768735
120	0xbd1b6524	-0.037938252
121	0xbd418658	-0.04724726
122	0xba948e44	-0.0011333902
123	0x3db1f6bf	0.08689641
124	0xbd173142	-0.03691221
125	0xbccb2c76	-0.024801474
126	0xbd411815	-0.047142107
127	0xbd4fb4b0	-0.050709426

weight f4 [128, 128]
0	0xbd5a7d7f	-0.05334234
1	0xbd46cd64	-0.04853572
2	0xbc0419a1	-0.008062751
3	0xbcb1d1c4	-0.02170647
4	0xbd504be8	-0.05085364
5	0x3cb45fa9	0.02201827
6	0x3d9e280f	0.07722484
7	0xbd363403	-0.044483196
8	0x3d8adcf4	0.06780425
9	0xbd5e84d3	-0.05432589
10	0x3c752916	0.014963409
11	0x3c2563b5	0.010094573
12	0xbd647323	-0.055773865
13	0xbd2de0c5	-0.042450685
14	0xbc27bec3	-0.010238352
15	0xbd81e8fa	-0.06343265
16	0x3a7f576d	0.00097405055
17	0xbdac5580	-0.08414745
18	0x3d9e7125	0.07736424
19	0x3b633522	0.003466912
20	0xbd62af9a	-0.055343248
21	0xbc718a9b	-0.014742519
22	0x3da7d24f	0.0819441
23	0xba6779a0	-0.0008830074
24	0x3d19dd94	0.03756483
25	0x3d9ac5a3	0.075572275
26	0xbd1551f9	-0.03645513
27	0x3dd04799	0.10169906
28	0xbd3b99c9	-0.045800958
29	0xbda670ce	-0.081269845
30	0x3d8390e4	0.0642412
31	0xbd914624	-0.070934564
32	0xbd3b0851	-0.045662228
33	0xbd9077e0	-0.07054114
34	0x3d28b591	0.04118878
35	0x3c8d9eb2	0.017287586
36	0x3db71aa4	0.08940628
37	0xbd30f7a0	-0.043204904
38	0x39413802	0.00018426779
39	0x3d8fa3d8	0.070136726
40	0xbcc74c15	-0.02432827
41	0xbb7ced0d	-0.0038593442
42	0xbd243c83	-0.04009677
43	0x3d95cc22	0.07314326
44	0x3d2e98d5	0.04262622
45	0xbc00446d	-0.007828814
46	0xbd07ab23	-0.033122193
47	0x3d858f79	0.06521506
48	0xbda77cb6	-0.081780836
49	0x3d791f71	0.060821
50	0x3d684c2d	0.056713272
51	0xbcff3ffb	-0.031158438
52	0x3d91bf87	0.07116609
53	0x3d239374	0.039935544
54	0x3c57411e	0.013138084
55	0xbcd1b589	-0.025599258
56	0xbc10a8c5	-0.0088293
57	0xb9f1f034	-0.00046146067
58	0x3d2df2b5	0.04246779
59	0xbd9ece55	-0.077541985
60	0x3c8c56ba	0.017131198
61	0x3d1a551c	0.037678823
62	0x3d10879e	0.035285585
63	0xbd387fc1	-0.04504371
64	0xbcae2ab7	-0.021260602
65	0x3d895247	0.06705146
66	0x3d11f37a	0.035632588
67	0x3dc93a9f	0.09825634
68	0xbbfbdaf0	-0.0076860115
69	0x3d48c4f1	0.049015943
70	0xbba7d218	-0.0051214807
71	0x3cab6fd9	0.020927357
72	0xbc411f15	-0.011787196
73	0xbd3d4fbe	-0.046218626
74	0x3d552988	0.05204156
75	0x3d2bc181	0.041932587
76	0xbd816032	-0.06317176
77	0x3a8b0ddd	0.001060899
78	0x3d0bf730	0.034171283
79	0x3db3b195	0.087741055
80	0x3dc4779e	0.09593128
81	0xbbc7e148	-0.0060998537
82	0xbb2ec282	-0.0026666229
83	0xb9fb4fb5	-0.00047933837
84	0xbd34a93e	-0.044106714
85	0x3d88eecb	0.06686171
86	0x3dc62e6f	0.09676825
87	0x3daa0495	0.08301655
88	0xbd79a39b	-0.060947042
89	0xbdabb8a0	-0.08384824
90	0xbd5b98b0	-0.05361241
91	0x3acfaa50	0.0015843604
92	0xbb02da9b	-0.0019966725
93	0xbd8b6455	-0.06806246
94	0xbd7b6e5b	-0.06138454
95	0xbd93ac1b	-0.07210561
96	0xbd03cc55	-0.032177288
97	0xbb92a15b	-0.0044748015
98	0x3dc6a1b7	0.096988134
99	0xbda59caa	-0.08086522
100	0x3da3792e	0.079820976
101	0xbc60277d	-0.01368129
102	0x3db956f4	0.09049788
103	0xbd3b7ba4	-0.04577221
104	0xbd5030cc	-0.050827786
105	0xbc8682be	-0.016419765
106	0x3ce82d08	0.028341785
107	0xbd4a4819	-0.049385164
108	0xbc8d6de5	-0.017264316
109	0xbd921303	-0.071325324
110	0x3d97ca1e	0.07411598
111	0xbd23c71f	-0.03998482
112	0xbc5359a6	-0.012899792
113	0xbd5edfd3	-0.054412674
114	0x3d2fafb5	0.042892177
115	0x3dd22c84	0.10262397
116	0x3cc2f51c	0.023798518
117	0x3d6d617a	0.05795429
118	0x3d80ea94	0.06294742
119	0xbc042c09	-0.008067139
120	0x3a440796	0.0007477937
121	0x3dad7a68	0.08470613
122	0xbc0a7b4c	-0.008452248
123	0xbd1b5a43	-0.037927877
124	0x3c057bfc	0.008147236
125	0x3d15ad6c	0.03654234
126	0x3d63408a	0.05548147
127	0x3d9f4da4	0.07778481
128	0x3dc59f22	0.09649493
129	0x3a32ec80	0.00068254024
130	0x3d487f77	0.048949685
131	0xbd865f1c	-0.065611094
132	0x3c17b3bb	0.00925916
133	0x3d87e4d9	0.06635446
134	0x3d58ae8e	0.052900843
135	0xbd9a5ee6	-0.07537632
136	0x3dcc1e96	0.09966771
137	0x3b2556a6	0.0025228648
138	0xbcb73ee5	-0.022368858
139	0x3c02ce08	0.007983692
140	0x3b8507ad	0.004059753
141	0xbcd5fecd	-0.026122475
142	0x3dbebfae	0.09313904
143	0x3be67b66	0.007033753
144	0x3b8ed788	0.0043591894
145	0xbda78ea1	-0.08181501
146	0x3d2e7569	0.04259244
147	0x3d88048d	0.06641493
148	0x3d07daf1	0.033167783
149	0x3db037a5	0.08604363
150	0xbc705259	-0.014668071
151	0xbd5eedd1	-0.05442602
152	0x3d0896eb	0.03334705
153	0x3ca6284b	0.020282885
154	0xbb80c671	-0.003929906
155	0x3d2d5808	0.04232028
156	0x3d7e19aa	0.062036194
157	0x3ce691ea	0.02814575
158	0x3d501d30	0.050809085
159	0x3c654c17	0.013995192
160	0xbcd7fb80	-0.026365042
161	0xbd8a25f4	-0.0674552
162	0xbc899bbf	-0.016797898
163	0xbd91b6bf	-0.07114934
164	0xbd482d3b	-0.04887126
165	0xbcaf691b	-0.021412423
166	0x3d649839	0.055809233
167	0xbdb1369b	-0.08652993
168	0x3d81505a	0.06314154
169	0xbd7dec8c	-0.061993167
170	0xbdc80651	-0.0976683
171	0xbd27cdf3	-0.040967893
172	0xbd879cab	-0.06621679
173	0x3db27bf0	0.087150455
174	0x3d8a7a5c	0.067616194
175	0x3dc34781	0.09535123
176	0xbd49a5fe	-0.049230568
177	0xbd8e86db	-0.069593154
178	0xbd14c488	-0.03632024
179	0x3d6e28b5	0.05814429
180	0x3d8afffc	0.067871064
181	0xbd8494d6	-0.06473701
182	0xbcd43b20	-0.0259071
183	0x3b337d22	0.0027387817
184	0x3dc0a946	0.09407286
185	0xbd46514f	-0.048417386
186	0x3d541a6e	0.051783018
187	0x3d767d87	0.060178306
188	0xbd352cbc	-0.044232115
189	0xbd93db9c	-0.072196215
190	0xbd0526ff	-0.032507893
191	0x3d9c99ca	0.076465204
192	0xbda84207	-0.08215719
193	0x3d810d62	0.06301381
194	0x3db341ed	0.08752809
195	0xbd54dc10	-0.05196768
196	0xbbfabd50	-0.0076519623
197	0x3d70e250	0.05880958
198	0xbcfdd093	-0.030983245
199	0x3d609421	0.054828767
200	0xbb4b8fa6	-0.0031060963
201	0xbcdeb1aa	-0.027184326
202	0x3d89ef3d	0.06735084
203	0x3cb423df	0.02198976
204	0xbcb49d5a	-0.022047687
205	0x3d015d26	0.031582974
206	0xbc675045	-0.014118259
207	0xbc3f1a75	-0.011664023
208	0xbd1a05d7	-0.037603226
209	0xbd7ca922	-0.061684735
210	0xbd6964d7	-0.056980934
211	0xbad0a168	-0.0015917243
212	0xbd954488	-0.07288462
213	0xb9accc9e	-0.00032958848
214	0xbc4ffbcf	-0.012694313
215	0xbccbc106	-0.024872314
216	0xbcc228d1	-0.023701103
217	0xbd710819	-0.058845613
218	0x3d90eca7	0.07076388
219	0x3d8076a1	0.06272627
220	0x3da1c583	0.078990005
221	0x398ea94d	0.0002721049
222	0x3d857e3c	0.06518218
223	0xbab8a06e	-0.0014085898
224	0xbb2fe4ea	-0.0026839324
225	0xbdb4d7a3	-0.08830192
226	0x3cf6d8c4	0.030132659
227	0x3d3bca9c	0.04584752
228	0xbc3b8285	-0.0114446925
229	0xbd29c09f	-0.041443463
230	0xbd4ff61d	-0.05077182
231	0x3db22eb6	0.08700316
232	0xbc713970	-0.014723167
233	0x3d2f0bad	0.042735744
234	0x3c51faf3	0.012816179
235	0x3d7d7afc	0.061884865
236	0xbb3bc1d6	-0.002864947
237	0x3c97c7dc	0.018527918
238	0xbd06b7c3	-0.032890093
239	0xbd8c430f	-0.06848728
240	0x3d95fac7	0.073232226
241	0xbd507cd9	-0.050900314
242	0x3c33de79	0.010978335
243	0xbdace035	-0.084412016
244	0xbd243973	-0.04009385
245	0x3c13689d	0.00899711
246	0x3d2b2081	0.041779045
247	0x3d5c1832	0.053734012
248	0x3d199001	0.03749085
249	0xbc68871f	-0.014192372
250	0x3d5de9ca	0.054178037
251	0x3cf679ea	0.03008743
252	0x3ce4db56	0.027936619
253	0x3bb974a1	0.005659655
254	0x3cd44cf0	0.025915593
255	0x3db8fdb5	0.09032766

bias f4 [128]
0	0x3d4b6de8	0.04966536
1	0x3da3a4b0	0.07990396
2	0xbce5b33b	-0.028039565
3	0x3d897c33	0.06713142
4	0xbd19d436	-0.037555896
5	0x3d5b43bd	0.053531397
6	0xbdb8048e	-0.08985244
7	0x3c9b6e16	0.018973392
8	0xbd0c5f9b	-0.034270864
9	0x3d8b9733	0.06815948
10	0x3cfe85ad	0.031069601
11	0xbd486a97	-0.048929777
12	0xbbc3b1c6	-0.00597212
13	0xbd535cdf	-0.05160224
14	0x3c0c99b4	0.008581568
15	0xbd16d586	-0.036824726
16	0xbcc3c9cc	-0.023899935
17	0xbd66e1ec	-0.0563678
18	0xbb823840	-0.0039739907
19	0xbd4d158b	-0.050069373
20	0x3d0f539e	0.034991853
21	0x3d72dbab	0.059291523
22	0x3dc21946	0.09477477
23	0xbd811378	-0.063025415
24	0xbcc93c36	-0.024564844
25	0x3d352d8f	0.0442329
26	0x3c86f191	0.01647261
27	0x3daa93b1	0.08328951
28	0x3c5824a0	0.013192326
29	0xbd754788	-0.05988267
30	0x3c31a8cf	0.01084347
31	0x3ddf5761	0.10905338
32	0x3d8f8044	0.070068866
33	0xbd240bc0	-0.04005027
34	0xbd82bc92	-0.06383623
35	0x3d7606e9	0.060065184
36	0x3ca855aa	0.02054866
37	0x3d692550	0.05692035
38	0xbdc31986	-0.095263526
39	0xbd47c010	-0.04876715
40	0xbd755f78	-0.0599055
41	0xbd479d71	-0.048734132
42	0x3d8f2432	0.069893256
43	0x3d90b1a1	0.0706513
44	0xbc6967cd	-0.014245939
45	0xbd7cb66e	-0.061697416
46	0x3b082d01	0.0020778778
47	0x3d4556a0	0.048178315
48	0xbd26a5a6	-0.04068532
49	0xbce43370	-0.027856559
50	0x3c85d273	0.016335702
51	0xbcb0c204	-0.021576889
52	0x3d736449	0.05942181
53	0x3d90c893	0.070695065
54	0x3cad78c7	0.021175755
55	0xbd286d26	-0.041119717
56	0xbb5fa05e	-0.0034122686
57	0x3d772963	0.060342204
58	0xbd1dfbbc	-0.03857015
59	0xbc3f8f9a	-0.011691952
60	0x3d93b92b	0.07213052
61	0x3cedfcf6	0.029051285
62	0x3d22d414	0.039753035
63	0x3c529392	0.012852566
64	0xbc20f181	-0.009823204
65	0xbc1d9080	-0.009616971
66	0x3d5b765a	0.053579666
67	0x3d9f5a74	0.077809244
68	0x3da2417e	0.07922648
69	0x3d209702	0.039206512
70	0x3dbe2607	0.09284597
71	0xbd6622c8	-0.056185514
72	0x3d5a0bf3	0.053234052
73	0xbcd2fed9	-0.025756286
74	0x3c996c5f	0.018728433
75	0x3dd3a6d3	0.103345536
76	0xbced7c7d	-0.028990025
77	0x3c8bb165	0.017052362
78	0x3b1e79ab	0.0024181406
79	0x3d6222c7	0.055208948
80	0x3cdd2624	0.026995726
81	0xbd39278c	-0.04520373
82	0x3d2c7d31	0.04211158
83	0xbdb47cb8	-0.08812851
84	0xbcc25148	-0.023720399
85	0xbcd9eb56	-0.026601475
86	0xbc4bdc6d	-0.01244269
87	0x3cfb37b8	0.030666217
88	0xbd143aa7	-0.036188748
89	0xbd92a736	-0.07160799
90	0xbd1bfbf4	-0.038082078
91	0x3c565b38	0.013083272
92	0xbd4cc2a9	-0.04999033
93	0xbd1d00ca	-0.03833083
94	0xbc9a28fa	-0.018818367
95	0xbd30bf9e	-0.04315149
96	0xbd8a52ff	-0.067541115
97	0x3da019e5	0.07817439
98	0xbd980162	-0.07422139
99	0x3d9eb46b	0.07749256
100	0x3dc9400d	0.0982667
101	0xbd24ffc5	-0.040282983
102	0x3d2e160c	0.042501494
103	0x3d0a17f2	0.033714242
104	0x3c9aec92	0.018911634
105	0xbd3e1420	-0.04640591
106	0x3daa3217	0.08310335
107	0x3d6aebad	0.057353664
108	0xbd019dce	-0.031644635
109	0x3c9bc216	0.019013446
110	0x3d6a8ad7	0.057261314
111	0xbdb41914	-0.08793846
112	0x3dc183fa	0.09449001
113	0x3d281a59	0.041040752
114	0xbda1010c	-0.07861528
115	0x3d15c3b4	0.03656359
116	0xbc99237e	-0.018693682
117	0x3d5fb7f1	0.05461878
118	0xbbe6fffd	-0.007049559
119	0xbd238a9e	-0.039927118
120	0x3bbd002f	0.005767844
121	0xbd1c4fa4	-0.03816189
122	0x3db493b6	0.08817236
123	0xbd82c798	-0.06385726
124	0xbc6b8ede	-0.014377324
125	0xbd817c79	-0.063225694
126	0xbd6eadfc	-0.058271393
127	0xbc1b2382	-0.009468915

weight f4 [128, 128]
0	0x3d88de48	0.06683022
1	0x3d4892f1	0.04896826
2	0xbd5994ba	-0.053120352
3	0xbdb2012b	-0.08691629
4	0xbc73964f	-0.014867379
5	0x3d2bc545	0.041936178
6	0x3d3974b0	0.045277297
7	0x3dc0ee07	0.094204
8	0xbbec168b	-0.007204836
9	0xbca5a77f	-0.02022147
10	0xbcb6bb11	-0.022305997
11	0xbd949f39	-0.07256932
12	0xbd235268	-0.03987351
13	0x3ba71466	0.005098867
14	0xbd8e4d45	-0.06948332
15	0xbd4cf111	-0.050034586
16	0x3c289cbc	0.010291275
17	0xbd88c101	-0.066774376
18	0xbca8c38a	-0.020601053
19	0xbd60b16f	-0.054856714
20	0x3d48e1a2	0.049043305
21	0x3d2ebe39	0.04266188
22	0x3d11a6c6	0.03555944
23	0xbb430055	-0.0029754837
24	0xbb752683	-0.0037406988
25	0x3c31ec11	0.010859505
26	0xbc8c0d7d	-0.017096275
27	0xbd08475a	-0.03327117
28	0xbd4b80a5	-0.04968323
29	0xbd4eb730	-0.05046767
30	0xbbc31edf	-0.005954608
31	0x3d0f7ea3	0.03503288
32	0x3da89136	0.08230822
33	0x3cde4412	0.027132068
34	0xbc925719	-0.017863797
35	0xb96295bf	-0.00021608824
36	0xbcaaa2ea	-0.020829637
37	0x3d56f02d	0.052475143
38	0x3c487f0e	0.012237323
39	0x3d0e9bba	0.03481648
40	0x3d80c95b	0.062884055
41	0x3cfd59fa	0.030926693
42	0x3d8e25c0	0.06940794
43	0xbd1b38af	-0.037895855
44	0xbce708f0	-0.028202504
45	0xbcd40b64	-0.025884338
46	0x3d8e0cee	0.0693606
47	0xbd82d8c0	-0.06388998
48	0xbda9d0dd	-0.08291791
49	0xbd585e8d	-0.052824546
50	0x3d74fca3	0.059811246
51	0x3d5efc3f	0.05443978
52	0xbbf2400a	-0.007392888
53	0xbc9e0206	-0.019288074
54	0x3dabd0b1	0.08389414
55	0xbc085078	-0.0083199665
56	0x3d82b7a0	0.0638268
57	0xbd5638e3	-0.052300345
58	0xbdc2b9b5	-0.09508077
59	0xbd823961	-0.063586004
60	0x3c4dced2	0.012561517
61	0x3d334f8a	0.043777026
62	0x3d962e19	0.07333011
63	0x3c382272	0.011238681
64	0x3db1c689	0.08680446
65	0x3d1f7cc3	0.03893734
66	0x3c93c294	0.018037118
67	0x3de1e77e	0.11030482
68	0x3da3b346	0.07993178
69	0x3da61a8d	0.08110533
70	0x3d909927	0.070604615
71	0x3b3cc83c	0.0028805872
72	0xbd574440	-0.052555323
73	0xbd78002c	-0.06054704
74	0xbdb97c4e	-0.09056912
75	0x3c6ba1d6	0.014381846
76	0xbc2667eb	-0.010156612
77	0x3be0b1e1	0.0068571423
78	0x3d367d33	0.044552993
79	0xbbcc56d4	-0.0062359367
80	0x3d316e15	0.043317873
81	0x3cee13d2	0.029062185
82	0xbd27b322	-0.04094232
83	0x3bde4bbb	0.00678393
84	0x3cf61347	0.030038489
85	0xbcc94712	-0.024570022
86	0x3c8946d2	0.016757403
87	0xbd9abcc0	-0.075555325
88	0x3dcdbce3	0.10045793
89	0x3d122d8d	0.03568797
90	0x3d9935ac	0.0748094
91	0xbd963ddd	-0.07336018
92	0xbd4af8ff	-0.049553867
93	0xbd86519c	-0.065585345
94	0xbd006e3e	-0.031355135
95	0xbc19d4ef	-0.009389146
96	0xbcfed4bb	-0.031107297
97	0x3db49904	0.08818248
98	0x3991f474	0.00027838687
99	0x3de0e353	0.10980859
100	0xbc6508c2	-0.013979139
101	0xbd8565fa	-0.06513591
102	0xbd02a3e8	-0.031894594
103	0xbdac55e4	-0.0841482
104	0xbcd4fb84	-0.025998838
105	0xbd65d03c	-0.05610679
106	0xbd4427e6	-0.047889613
107	0x3dccae61	0.09994198
108	0x3c8e446d	0.017366612
109	0x3cb30ced	0.02185675
110	0xbdaa697d	-0.083209015
111	0x3640ae7d	2.8711795e-06
112	0xbd3f3202	-0.04667855
113	0xbcda95d3	-0.02668277
114	0xbc53585a	-0.012899483
115	0xbd7144fe	-0.058903687
116	0xbc84eba8	-0.01622565
117	0xbd42895a	-0.04749427
118	0x3d20f7a5	0.039298672
119	0xbd2a0df1	-0.0415172
120	0xbb0a449d	-0.0021098026
121	0x3cd3263a	0.025775064
122	0x3db343e9	0.08753187
123	0xbd05bf8b	-0.032653373
124	0xbcb28a2f	-0.021794407
125	0xbd8b77fb	-0.06809994
126	0xbc6be0ee	-0.014396889
127	0xbd8ef7d2	-0.06980862
128	0xbd5a8d18	-0.053357214
129	0xbd868303	-0.06567957
130	0xbd7067ca	-0.05869273
131	0x3cb17111	0.02166036
132	0xbd495f4b	-0.049163144
133	0xbb27e504	-0.0025618682
134	0x3b934474	0.004494244
135	0xbd893b2b	-0.067007385
136	0xbcac9dbb	-0.021071305
137	0x3cb4b360	0.022058189
138	0xbc871a9a	-0.016492177
139	0xbccf4484	-0.025301225
140	0xb992e7b6	-0.00028019928
141	0xbd9f3f0d	-0.07775698
142	0xbc60fdcc	-0.013732385
143	0x3cf0fa52	0.029416237
144	0x3da52810	0.08064282
145	0x3d557ce6	0.052121066
146	0xbd963377	-0.07334035
147	0x3d5365d9	0.0516108
148	0x3d6dcf39	0.05805895
149	0xbd24e076	-0.040253125
150	0x3d8db39f	0.06919026
151	0x3db05a2c	0.08610949
152	0x3c66cc72	0.0140868295
153	0xbca0dc83	-0.019636398
154	0x3d0bcd36	0.03413125
155	0xbd62cfe4	-0.05537404
156	0x3d0b82cb	0.03406028
157	0xbc763039	-0.015026146
158	0xbd6b7f8f	-0.057494696
159	0xbd956d54	-0.07296243
160	0x3d38a90d	0.045083094
161	0xbd497e0f	-0.049192484
162	0xbce8335c	-0.028344803
163	0x3dbf04a3	0.09327056
164	0x3da5461f	0.08070015
165	0x3daa2e59	0.08309621
166	0xbdb0b8bf	-0.086289875
167	0xbd0319d7	-0.032007065
168	0x3da55431	0.08072699
169	0x3c74bfef	0.014938339
170	0x3bd85b62	0.0066026906
171	0x3d27a34d	0.04092722
172	0xbd847bc4	-0.06468919
173	0x3a45ceda	0.0007545777
174	0xbd79885b	-0.060921054
175	0xbdaecf12	-0.08535589
176	0x3cd8db30	0.026471704
177	0xbd51ec00	-0.051250458
178	0xbd9c0f0b	-0.07620057
179	0x3c9f6b38	0.019460306
180	0x3d4f15fa	0.050558068
181	0x3c98c339	0.018647777
182	0xbd27f3bf	-0.04100394
183	0xbdb02d7f	-0.08602428
184	0x3d4ac178	0.049500912
185	0x3cd7f3b0	0.026361316
186	0xbc86745b	-0.016412904
187	0xbd13f261	-0.036119822
188	0x3d3c71d4	0.046006992
189	0xbd4f482f	-0.05060595
190	0xbd325ddf	-0.043546554
191	0x3d97457f	0.07386302
192	0x3da061e7	0.078311734
193	0x3d8ce4c1	0.06879569
194	0x3d60bcce	0.05486756
195	0xbcb31d14	-0.021864451
196	0x3d17caa2	0.03705848
197	0xbd16d623	-0.03682531
198	0xbc1b9364	-0.00949559
199	0xbd688dad	-0.056775738
200	0xbd96426a	-0.07336886
201	0x3d703709	0.058646236
202	0xbcb63308	-0.02224113
203	0x3d121e9f	0.035673734
204	0xbd694a58	-0.056955665
205	0x3db26470	0.08710563
206	0x3d68fa34	0.056879237
207	0x3bafe91d	0.0053683654
208	0x3d060b81	0.032725815
209	0x3d41d782	0.047324665
210	0x3cdb9efb	0.026809206
211	0xbd19aaac	-0.03751628
212	0x3d00ee89	0.031477485
213	0x3d12b1a0	0.035813928
214	0x3d38110d	0.044938136
215	0x3d1fc711	0.039008204
216	0x3d5ceb2d	0.05393522
217	0x3d5d3cb8	0.054012984
218	0xbca0b237	-0.01961623
219	0xbc66dd3d	-0.014090833
220	0xbd229003	-0.03968812
221	0xbd8e56c1	-0.06950141
222	0xbd80160e	-0.062542066
223	0x3db7a8d7	0.089677505
224	0xbd8361f2	-0.06415166
225	0x3da4dfb9	0.08050484
226	0xbcbfaba5	-0.023397276
227	0x3d876c5a	0.06612463
228	0x3d294abf	0.04133105
229	0xbd6a1612	-0.057149954
230	0xbc7f02b1	-0.0155646065
231	0xbd8d105d	-0.06887887
232	0x3d2d6ac1	0.042338137
233	0xbc9f139c	-0.01941853
234	0x3da45c06	0.080253646
235	0x3d39a9e6	0.045328043
236	0x3d07a703	0.03311826
237	0xbd1488e1	-0.03626335
238	0xbc7a8f3a	-0.015292937
239	0xbdc2517a	-0.09488197
240	0x3d5e6fbf	0.054305788
241	0xbd518ad3	-0.051157784
242	0x3d85b16d	0.06527982
243	0xbd10ffac	-0.035400078
244	0xbc94ed1c	-0.018179469
245	0x3d923f46	0.07140975
246	0xbd594af7	-0.053050008
247	0xbabc319b	-0.0014358045
248	0x3d831667	0.06400757
249	0xbd002738	-0.031287402
250	0xbd057013	-0.032577585
251	0x3d4496af	0.047995266
252	0x3d9a5717	0.07536142
253	0xbd03c9de	-0.032174937
254	0x3d7443a7	0.05963483
255	0xbd281ed7	-0.041045036

bias f4 [128]
0	0xbc145090	-0.009052411
1	0x3d87d262	0.06631924
2	0x3da5db65	0.08098487
3	0xbd14307f	-0.036179062
4	0x3d873d1d	0.06603453
5	0x3d86ca42	0.06581546
6	0xbd8180aa	-0.06323369
7	0xbc2fb1ed	-0.010723573
8	0x3d9a077b	0.07520958
9	0x3d90e642	0.07075168
10	0x3ca170fc	0.019707195
11	0xbc082240	-0.008308947
12	0x3d94094e	0.07228337
13	0x3c01280f	0.007883086
14	0xbd4d0ac8	-0.05005911
15	0x3c90fa4a	0.017697472
16	0x3d4438e6	0.047905825
17	0x3d7935b4	0.06084223
18	0xbd275fda	-0.040862896
19	0x3bf8d260	0.007593438
20	0x3c7a098e	0.015261067
21	0x3cdd8a27	0.027043415
22	0xbd55e158	-0.052216858
23	0xbcd9f285	-0.0266049
24	0x3da3c896	0.07997243
25	0xbd332f99	-0.043746565
26	0x3dd42871	0.10359276
27	0x3db874c2	0.09006645
28	0x3d0f69ea	0.035013117
29	0xb9789352	-0.00023706004
30	0x3d4cf5df	0.05003917
31	0x3dca362a	0.09873612
32	0x3da3bb1c	0.07994673
33	0xbd3d2302	-0.046175964
34	0x3db585af	0.08863389
35	0xbc33cc57	-0.010974011
36	0x3d2bde51	0.041960064
37	0x3d83fa52	0.06444229
38	0xbd52f75f	-0.051505443
39	0x3da9ccec	0.08291039
40	0x3daacbbc	0.083396405
41	0x3d8cd351	0.06876243
42	0xbd9173c2	-0.07102157
43	0x3da73560	0.08164477
44	0xbd9249ab	-0.07142957
45	0xbd0bcc41	-0.03413034
46	0xbd134bcb	-0.035960954
47	0x3d9025d7	0.070384674
48	0xbd0b8cb7	-0.034069743
49	0xbc070a2c	-0.008242171
50	0xbd7bf02c	-0.061508343
51	0x3c6e52ac	0.014546078
52	0x3d145ff3	0.036224317
53	0xbdaa6afc	-0.08321187
54	0x3d2a9546	0.041646264
55	0xbc7f049b	-0.015565063
56	0x3dbff83a	0.09373517
57	0xbd2c2865	-0.04203071
58	0xbd3149f5	-0.04328342
59	0xbc46d3f0	-0.012135491
60	0x3d3e51f7	0.046464887
61	0x3d6306bd	0.055426348
62	0x3d525203	0.051347744
63	0xbd2e852f	-0.042607483
64	0xbc4ae256	-0.012383064
65	0xbc4e8298	-0.012604378
66	0x3dd1e5ac	0.102488846
67	0xbc9efff0	-0.01940915
68	0x3c601985	0.013677959
69	0x3d9e2ea8	0.07723743
70	0xbd4aaa97	-0.049479093
71	0x3dbcd9d7	0.09221237
72	0xbc6bcb44	-0.014391724
73	0xbc775be5	-0.015097593
74	0x3d404a84	0.046946064
75	0x3bd59416	0.0065178974
76	0x3ba2b3e8	0.004965294
77	0xbcda67e8	-0.026660874
78	0x3d27cd49	0.04096726
79	0x3ca82ae8	0.020528272
80	0xbcbd7e1b	-0.02313142
81	0xbcd5272f	-0.02601966
82	0x3c4cefc4	0.012508336
83	0x3d1d0e3e	0.03834366
84	0x3cc445ca	0.02395906
85	0x3d948556	0.07251994
86	0xbd005c09	-0.03133777
87	0x3d317810	0.04332739
88	0xbd7970f6	-0.060898744
89	0x3b6ddb7b	0.003629415
90	0x3cd946f4	0.02652309
91	0xbca0b8fd	-0.01961946
92	0xbbf418a7	-0.007449228
93	0x3c90ade5	0.017661044
94	0x3dbf8f15	0.093534626
95	0xbd9ef71a	-0.07761975
96	0xbd94534c	-0.0724245
97	0x3cc01439	0.023447143
98	0xbd1dd16e	-0.038529806
99	0xbd25c69d	-0.040472616
100	0x3dba2932	0.09089889
101	0xbd28eef5	-0.041243512
102	0x3d004b0b	0.031321567
103	0x3d98d9ea	0.07463439
104	0x3da6ee85	0.08150963
105	0xbd4e5f53	-0.050383877
106	0xbac78176	-0.0015221077
107	0x3d2b2945	0.041787405
108	0xbdbc369c	-0.091901034
109	0x3db18cc3	0.08669426
110	0xbce443bd	-0.027864331
111	0xbccda897	-0.025104804
112	0x3da47514	0.080301434
113	0xbd804b37	-0.06264346
114	0x3dd081c8	0.10181004
115	0x3c63fedd	0.013915745
116	0xbcbb07e0	-0.022830904
117	0x3dd2f2d4	0.10300222
118	0x3d088b00	0.033335686
119	0xbd42c92b	-0.04755513
120	0xbd13f151	-0.03611881
121	0x3bd5c4e3	0.006523715
122	0x3d5c0aee	0.05372136
123	0xbc9386d9	-0.018008636
124	0x3d7d1e95	0.061796743
125	0x3d6bae86	0.057539485
126	0x3cfe5692	0.03104714
127	0xbd427cbf	-0.04748225

weight f4 [1, 128]
0	0xbda8eca8	-0.082482636
1	0x3c8da20a	0.01728918
2	0xbda1f380	-0.07907772
3	0xbd0424dd	-0.032261718
4	0xbda36dbf	-0.07979917
5	0x3d2f4ed3	0.042799782
6	0x3d87dc2c	0.06633791
7	0x3d45ab6d	0.048259187
8	0xbdd8dada	-0.105886176
9	0xbdaa9e0c	-0.08330926
10	0x3ba236bb	0.004950372
11	0xbd422d88	-0.047406703
12	0xbd0ddb18	-0.034632772
13	0x3dc96085	0.09832863
14	0x38ff7462	0.000121810255
15	0xbd81b13e	-0.063326344
16	0x3d45b500	0.04826832
17	0x3da13b25	0.07872609
18	0xbc53d31d	-0.012928751
19	0x3dca748e	0.09885512
20	0x3c7a3660	0.015271753
21	0x3d8d0d94	0.068873554
22	0xbd8c6d15	-0.06856743
23	0x3d44c462	0.048038848
24	0xbd338972	-0.04383225
25	0xbc8b12d0	-0.016976744
26	0x3d973371	0.073828585
27	0x3c81c38e	0.015840318
28	0x3dae6b2a	0.08516534
29	0xaa00bcca	-1.1434183e-13
30	0xbd9bddae	-0.076106414
31	0x3c7bba73	0.015364277
32	0xbdcab8de	-0.09898542
33	0xbd27e645	-0.040991087
34	0x3d9d699f	0.07686161
35	0x3da82b2c	0.082113594
36	0xbda55013	-0.080719136
37	0xbd97a9f9	-0.074054666
38	0xbd70bc5c	-0.058773383
39	0xbd83c38e	-0.064337835
40	0x3d404b1c	0.04694663
41	0x3dabc461	0.08387066
42	0xbd6eecfa	-0.058331467
43	0x3c41c849	0.011827537
44	0xbda546cf	-0.08070146
45	0x3d219620	0.03944981
46	0xbd18e6ae	-0.03732937
47	0x3c93edda	0.018057752
48	0x3d865b12	0.06560339
49	0x3da775ed	0.081767894
50	0xba63c1b8	-0.0008688229
51	0x3d2c93a5	0.042132992
52	0x3c9179a9	0.017758207
53	0x3a9e020f	0.0012055057
54	0xbcfb1e42	-0.030654076
55	0xbd860305	-0.06543545
56	0x3db317d7	0.087447815
57	0x3ca7b711	0.020473035
58	0xbd0f453f	-0.034978148
59	0xbd89ee89	-0.0673495
60	0xbdb27be1	-0.08715034
61	0xbc38f4f5	-0.011288871
62	0x3c933859	0.017971205
63	0xbd24477c	-0.040107235
64	0x3dc9262e	0.09821735
65	0x3d0ccaaa	0.034372963
66	0x3d445d02	0.04794026
67	0xbddcc246	-0.10779242
68	0xbcf6e02a	-0.030136187
69	0x3da68dc2	0.08132507
70	0x3cff891e	0.031193312
71	0x3d25d136	0.040482722
72	0xbcedd916	-0.029034179
73	0x3c2b2c4b	0.010447572
74	0x3cf67576	0.030085307
75	0x3c81bbb4	0.015836574
76	0x3cc69076	0.024238806
77	0x3d223f27	0.039611008
78	0x3c82aab5	0.01595054
79	0x3d2d0c66	0.042248152
80	0x3c806713	0.01567415
81	0xbdcc0a99	-0.09962959
82	0xbd297314	-0.041369513
83	0x3da9fecc	0.08300552
84	0xbda04738	-0.07826084
85	0x3c8d75b8	0.017268047
86	0x3cad4b13	0.021153962
87	0xbdc0b57f	-0.09409618
88	0xbd93bfa0	-0.07214284
89	0xbc39c1d5	-0.011337717
90	0x3dca09e4	0.09865168
91	0x3d856c80	0.06514835
92	0xbcc0f44b	-0.023553988
93	0xbdcbac81	-0.09945012
94	0xbd6afe06	-0.057371162
95	0x3b987b20	0.0046533495
96	0x3bba1095	0.0056782463
97	0xbda5e1ec	-0.08099732
98	0xbdb66f95	-0.08908001
99	0x3d61d751	0.055136982
100	0xbd755859	-0.059898708
101	0x3d9ce11f	0.07660126
102	0x3d7dc38d	0.06195407
103	0xbd1cd83c	-0.038292155
104	0x3d5ef771	0.054435197
105	0xbdc5cf2a	-0.09658654
106	0xbbfe3d53	-0.0077587753
107	0x3bcb8024	0.006210344
108	0xbd616a2f	-0.055032905
109	0x3d9fa0d3	0.07794347
110	0xbc98fbef	-0.018674819
111	0x3d991078	0.07473844
112	0xbd981c08	-0.074272215
113	0xbd70d433	-0.05879612
114	0x3d03f170	0.032212675
115	0x3d016067	0.031586077
116	0xbcedafb5	-0.029014448
117	0xbdd34ffa	-0.10317989
118	0xbd5a0ce9	-0.05323497
119	0xbcd1defe	-0.025619026
120	0x3dba1cee	0.09087549
121	0x3dc11d5b	0.09429427
122	0xbc173a2c	-0.009230178
123	0x3d94e565	0.07270316
124	0xbda67a88	-0.0812884
125	0xbd0401c0	-0.03222823
126	0xbccd5504	-0.025064953
127	0xbc518fe4	-0.012790654
