Dry fermentation prediction and optimization system/predictor_digester/Predictor_Digester Biogas Production/models/NeuralNetTorch_BAG_L1/S1F1/net.params (torch, 209863 bytes, 9 tensors)

weight f4 [128, 10]
000000 8d 16 0a bd a0 08 42 3e 03 d4 b1 be 35 36 81 be
       -0.033712912 0.18948603 -0.34732065 -0.2523667
000010 86 74 c5 bd 06 3f a5 3d 3a 07 2a bc dd af 7a 3e
       -0.09641366 0.080686614 -0.0103776995 0.24481149
000020 cb 21 9a bd a5 b3 41 3d 15 30 ef bd 81 74 09 bd
       -0.07525977 0.047290463 -0.11679093 -0.033558372
000030 bb 75 ab be 9b be 6a be 33 05 02 be a5 ad 16 3b
       -0.3348826 -0.22924273 -0.12697296 0.0022991684
000040 25 c0 ec 3d 5b e6 3b 3e a7 83 71 be 0e d0 11 be
       0.11560086 0.18349592 -0.23585378 -0.14239523
000050 71 f1 32 3e 5b 0d 81 3e a6 16 73 bd 71 16 85 3e
       0.17474915 0.25205502 -0.05934777 0.25993684
000060 6b f3 99 bd 25 56 ed 3c 51 4e 90 3e 70 58 86 be
       -0.075171314 0.028971741 0.2818475 -0.26239347
000070 03 dc 36 be 33 51 42 bd 70 ff 0a be 7c 5b 8c 3e
       -0.17857365 -0.04744072 -0.13574004 0.27413547
000080 03 7b 65 be 6e 36 20 be 63 c4 5c be 8e ec 9b be
       -0.22410206 -0.15645763 -0.2155929 -0.30453914
000090 4e 99 45 be 71 07 8b 3e f8 a7 12 3e aa fd 03 3e
       -0.19296762 0.27154115 0.14321887 0.12889734
0000a0 01 de 90 3b df 60 73 be f8 e8 a8 3c a3 23 9d be
       0.004420996 -0.23767422 0.0206189 -0.3069125
0000b0 d9 74 6a be bc ab 2a be 41 93 48 3e fe e2 3d 3e
       -0.22896136 -0.16667074 0.19587423 0.18543622
0000c0 ff dc 0e be ba e1 1e bd cb df 54 3e 89 6e aa 3e
       -0.13951491 -0.03878949 0.20788495 0.33287457
0000d0 10 00 29 3e 9e cc 2f 3d 4a ad 63 3e e5 94 51 be
       0.1650393 0.042919748 0.22234073 -0.20466955
0000e0 74 b2 25 3d a1 0e 7a be f8 4d 5b be b6 54 19 be
       0.04045339 -0.24419643 -0.21416461 -0.14973721
0000f0 e2 7b 18 3e 02 ae 1c 3e 0c 1e 59 be 81 1b d6 3d
       0.14891008 0.15300754 -0.21202868 0.10454465
000100 37 1a 2e 3e 92 89 09 bd 89 ce 96 3c 88 bc 61 3d
       0.17002188 -0.033578463 0.01840903 0.055111438
000110 85 0f 52 3e 9a 52 97 3e aa d3 80 be 16 b3 b8 bd
       0.20513733 0.29555207 -0.25161487 -0.09018533
000120 67 d7 a3 3d bc 5c 83 3e 51 b3 a1 3e be b6 7b 3e
       0.08000069 0.25656688 0.3158212 0.2458143
000130 35 7c f3 3c 44 e3 83 be 9f 7e ff 3b aa cf 32 be
       0.029722312 -0.25759327 0.007797077 -0.1746203
000140 4c 9c a0 be 1a ee a5 3e f3 08 81 3e f2 0e a4 be
       -0.31369245 0.3240822 0.2520214 -0.32042652
000150 18 04 0e 3d cd 86 a5 bc 2c 6d 9b bc 5a b4 3c be
       0.034671873 -0.02020588 -0.018972956 -0.18428174
000160 29 ff e9 3d 60 d1 2a be d6 65 f3 3d 83 0b 17 3e
       0.11425621 -0.16681433 0.11884658 0.14750485
000170 07 b9 4a 3e 2b ba 13 3e aa 4f ad be b5 c1 73 be
       0.19797145 0.14426486 -0.3384984 -0.23804362
000180 85 fa ff 3d 8f fc d0 3d 97 e1 70 be 45 45 35 be
       0.12498955 0.10204422 -0.23523556 -0.17702205
000190 7a d4 93 3e db 6f 3c 3e ba 9a 20 be 00 db b5 bd
       0.28873044 0.18402044 -0.15684023 -0.088796616
0001a0 14 51 95 be 6c 72 d8 bc 60 8b 84 be 16 ac 6e be
       -0.2916342 -0.026421748 -0.25887585 -0.23307833
0001b0 f9 a9 87 bc ae 42 e0 3c da d3 07 be 78 23 35 3e
       -0.016560541 0.027375545 -0.13264409 0.17689312
0001c0 4f 0b 3a be e0 69 8a 3e 6e 58 65 3e a0 a3 91 be
       -0.18168376 0.270339 0.22397014 -0.28445148
0001d0 5f 9a c5 bd 93 56 1f 3d e1 aa 81 3d 57 72 46 3d
       -0.096485846 0.038900923 0.06331421 0.048448887
0001e0 4f f9 d8 3d cb 21 71 3c 0b 2f 3f be f3 54 ee 3d
       0.10594427 0.0147175295 -0.18670289 0.116372965
0001f0 9e dd 96 be db 54 3f be 85 ed a0 bd 68 c6 29 be
       -0.29465955 -0.18684714 -0.07857803 -0.16579592
000200 d0 36 d5 bd 46 31 9f be 37 72 66 bd d3 eb a7 3d
       -0.10410845 -0.3109228 -0.056261268 0.08199277
000210 94 b4 68 be 76 a9 00 3b bc 4c 89 3e 9d f2 e7 bb
       -0.22725135 0.0019632257 0.26816356 -0.0070784823
000220 a2 28 0c 3d 20 af 1c bc 6c 02 ac 3d c3 2a 6a 3e
       0.034218438 -0.009563237 0.083988994 0.22867875
000230 7e 3f a9 3e 34 12 6e 3e 62 30 d5 3e a8 44 00 3d
       0.33056253 0.23249131 0.41638476 0.031315476
000240 35 dd 8c be f5 5d 0a be dd a2 6b 3e e5 53 93 3b
       -0.27512518 -0.13512404 0.23011346 0.004496085
000250 73 da 30 be 2e 92 43 be 36 3c 9d be 7f 89 a9 be
       -0.17270832 -0.19098732 -0.3071 -0.33112714
000260 15 65 e8 bd 92 00 2d 3e ec d2 59 3e 00 66 89 be
       -0.11347405 0.16894749 0.21271867 -0.26835632
000270 70 7e 6f 3e ed 19 76 be fe a2 55 bd 28 a0 13 be
       0.23388076 -0.24033327 -0.052157395 -0.14416564
000280 7c db b4 bd 4c e5 84 bd 4f eb a2 be 87 bd 9f be
       -0.08830926 -0.064890474 -0.3182015 -0.31199285
000290 40 6a 64 bd e3 7b 03 3d 68 d6 ec bd 10 52 02 3e
       -0.05576539 0.03210057 -0.11564332 0.12726617
0002a0 25 08 8e be 98 68 82 bd 09 f0 8f 3e 14 d8 df bd
       -0.2774059 -0.06367606 0.2811282 -0.109298855
0002b0 df dd b1 3e c3 2c 18 3e de fd 91 be 37 9b 50 3e
       0.34739587 0.14860825 -0.28513998 0.2037171
0002c0 ed 8d 06 bd ea c6 10 be ff 6e 79 3e 3a 9b 66 be
       -0.032850195 -0.1413838 0.24358748 -0.22520152
0002d0 6f a2 83 3d d9 93 b4 bc 05 b9 98 3e 89 1f f5 3d
       0.06427466 -0.022043156 0.2982866 0.119689055
0002e0 05 8b 16 3e 34 43 04 3e 82 dd 6f bd 3e 68 55 bd
       0.14701469 0.12916261 -0.058560856 -0.052101366
0002f0 eb f8 73 be 7b f8 42 3e f3 36 75 3e 30 28 6b 3e
       -0.23825423 0.190401 0.23946743 0.22964549
000300 b9 ad 5d be 8b a4 87 3c 6d 88 52 be 01 2f 3c be
       -0.21648301 0.016557952 -0.20559855 -0.18377306
000310 11 9e 46 be e0 4d d2 3d 66 ae 44 be 20 ee 28 bd
       -0.19396235 0.1026876 -0.19207153 -0.04124272
000320 9f fa 25 3c 5d 39 15 3e d5 63 9e be f2 a8 6c be
       0.0101305535 0.14572664 -0.3093554 -0.23111323
000330 b4 c3 2e be e2 e9 52 3e 45 23 04 be 12 d6 84 3e
       -0.17066842 0.20597032 -0.1290408 0.25944573
000340 7a cf fa 3d 22 3e e7 3c 96 af 7b bc 07 18 97 bd
       0.12246604 0.02822787 -0.015361687 -0.0737763
000350 be 25 1d 3d e2 97 a5 bd 71 04 58 3c 1f 7c ea 3c
       0.038366072 -0.0808561 0.013184653 0.028623639
000360 18 a6 84 be 1f dc 28 be aa a9 7d 3e 0b 59 88 be
       -0.2590797 -0.1649022 0.24771753 -0.26630434
000370 be 8c 46 bc 48 1f c2 3e a5 51 05 3e c8 5a d3 3c
       -0.0121185165 0.3791449 0.13019426 0.025800124
000380 8e 39 8b be 30 d1 28 3e 51 3e 5e be d8 13 41 bd
       -0.27192348 0.16486049 -0.2170346 -0.047138065
000390 6d 71 e9 bd ba 30 5f bc e0 a6 b4 bc 9c a6 66 3e
       -0.113985874 -0.013622457 -0.022052228 0.22524494
0003a0 7f d5 f9 3b 04 a1 9a 3e 56 99 59 3e 78 ec 3b be
       0.0076243277 0.3020097 0.212499 -0.18351924
0003b0 08 08 22 3e 80 91 66 be bb 6d 22 be 18 b3 e1 3d
       0.15823376 -0.22516441 -0.15862171 0.110204875
0003c0 2e 40 9c 3d 19 f7 7d 3e 9c a7 17 be 1e 16 f6 b9
       0.07629429 0.24801292 -0.14810032 -0.00046937255
0003d0 ca 8a 65 3e c9 d7 9d be dc 96 67 3e 40 f1 76 be
       0.22416225 -0.30828694 0.22616142 -0.24115467
0003e0 6d aa 6c bd 7e f5 77 bd 1d da 34 be 4f 1c 37 3d
       -0.05777972 -0.060536854 -0.17661329 0.04470473
0003f0 de f5 95 3e bc 85 c0 bd 9c aa 2c be ba 4c e1 bd
       0.29289144 -0.09400508 -0.16861957 -0.110009626

bias f4 [128]
000000 89 ba 74 be 45 19 90 bd 06 1c 2b 3d e9 98 a7 3d
       -0.23899283 -0.0703607 0.041774772 0.08183462
000010 b4 77 23 3e 67 f4 0e be 40 e2 c1 bd 8b 53 6f 3e
       0.15963632 -0.1396042 -0.09466982 0.23371713
000020 2b b4 63 bd f0 62 69 be e0 61 5a 3e 25 fa 59 3e
       -0.055591743 -0.22791648 0.21326399 0.21286829
000030 a5 76 aa bd e1 91 fb bc b2 23 65 be b7 f9 74 be
       -0.08323411 -0.030709209 -0.22376898 -0.23923384
000040 03 ae 1a 3e 62 f2 04 be 8e dd 89 3e 11 7e 85 be
       0.15105443 -0.12983087 0.26926845 -0.26072744
000050 c3 85 59 bd dd 8f fe 3a f9 1b 29 3e 9d 09 94 3e
       -0.05310608 0.0019421537 0.16514577 0.28913584
000060 7f 51 68 3e 7d 4d e8 3d 1c e1 07 be ce e4 60 be
       0.22687338 0.11342905 -0.13269466 -0.21962282
000070 f5 d4 8f be 5c 2d 92 3b d1 e9 99 3e 43 0e 8c bd
       -0.2809216 0.0044609737 0.300612 -0.06838658
000080 1f 52 21 bd 2a 5c 7b be 8a 19 a2 3d 2a 03 66 3e
       -0.039384957 -0.24546877 0.079150274 0.22462144
000090 7a ac ad be de 89 67 be 61 4b 5c 3e dd e9 8b 3d
       -0.33920652 -0.22611186 0.2151313 0.06831715
0000a0 7b 2c 0a ba a2 33 9c 3d 4f 2e 51 bd 30 4c 5f be
       -0.00052709103 0.07627036 -0.051069554 -0.21806407
0000b0 33 0f a9 be 1e 40 51 3e d0 28 63 bd ee 5d db bd
       -0.3301941 0.20434615 -0.055458844 -0.10711275
0000c0 83 ab fb bd 25 37 3a be 7f 1c 54 bd ef e5 7d be
       -0.12288573 -0.18185098 -0.05178499 -0.24794744
0000d0 17 ee 5f 3e 5b ad 15 3e ce 9a 1b be 6e de b3 bd
       0.21868168 0.14616911 -0.15195772 -0.087826595
0000e0 8d a1 f9 3d ec a9 dd bd 42 24 bc 3d 1e 1e 9d 3d
       0.121890165 -0.10823426 0.09186603 0.0767176
0000f0 e5 13 43 be 5f 6e 4a 3d 7b da 31 bc 41 17 85 3e
       -0.19050558 0.049421664 -0.010855312 0.25994304
000100 86 69 09 be 45 19 61 bd 81 f5 86 3e 47 58 8d be
       -0.1341916 -0.05495574 0.2635918 -0.27606413
000110 bc 17 39 3c b6 73 9e 3e 8a f4 19 be 8d 73 97 3e
       0.011297163 0.30947655 -0.1503469 0.29580346
000120 99 88 81 3e 7a da 90 3e 6a a0 2a bd cf 0d 8e 3e
       0.25299528 0.28291684 -0.04165689 0.2774491
000130 1d 57 ee bd 73 61 f6 bd b2 6b e8 3d ab dd 58 3d
       -0.11637709 -0.12030306 0.11348666 0.052945774
000140 67 42 20 3e d2 86 8d 3e 73 f9 46 be 7c e4 14 3e
       0.1565033 0.27641922 -0.19431095 0.14540285
000150 de 47 01 3e a9 70 1d 3e 0c d5 2e 3e 54 3f 15 be
       0.12625071 0.15375008 0.17073458 -0.14574939
000160 04 54 7e be 5f c0 86 3e db 5d 26 be a0 ab 5a 3e
       -0.24836737 0.26318642 -0.1624674 0.21354532
000170 6f 8f 89 be c8 8a 7d bd 20 10 ca 3c 01 6b 19 3d
       -0.26867244 -0.06189993 0.024665892 0.037455563
000180 8d d8 2f 3c 6c 9f f8 3d 29 cd 54 bd ae d1 8c 3d
       0.010732782 0.12139782 -0.05195347 0.06875931
000190 c4 a6 9f 3e 26 30 59 be 84 dd f6 bc 8d e1 01 be
       0.3118192 -0.21209773 -0.030134924 -0.12683697
0001a0 1a 4d 90 3e 3e e1 8a 3e c7 12 56 3b 53 d4 03 be
       0.28183824 0.2712497 0.0032665 -0.12873964
0001b0 73 93 4b be 3f 73 66 3e 3f fd 33 3c 52 53 9f 3e
       -0.19880466 0.225049 0.010985672 0.31118256
0001c0 cb dd 4a 3e aa 96 91 3e 46 2b 7c 3e 7d 33 59 be
       0.1981117 0.2843526 0.24625883 -0.21211047
0001d0 13 cf d3 3d 3a 7b fc bd 4e 0e 25 3e 70 70 f1 bb
       0.10342231 -0.12328191 0.16118738 -0.00736814
0001e0 84 ac 01 3d 80 b0 4d be 4f bc 8b be 00 5f e1 3d
       0.031658664 -0.2008686 -0.27292106 0.11004448
0001f0 62 cb 5e 3d 8b 45 51 3c a1 26 54 3e f2 56 06 be
       0.05439318 0.012772928 0.20717861 -0.13119105

weight f4 [128, 128]
000000 88 f9 50 3b 04 eb 77 bd e8 40 74 3c 46 9e 83 bc
       0.0031887013 -0.060526863 0.014908053 -0.016066682
000010 f5 a5 3d 3d d2 2d ab 3d a8 f9 8b 3d 15 93 57 ba
       0.046300847 0.08358349 0.068347275 -0.0008223516
000020 9c 2b 5b 3d c0 ca b1 bd 0a d2 3d bd 7e 0e 78 3c
       0.053508386 -0.086812496 -0.046342887 0.015140174
000030 6b b0 77 bc 38 80 82 bd dc 4b 18 bd e4 13 71 bd
       -0.015117745 -0.06372112 -0.03718172 -0.05885686
000040 3e 80 e0 bd 01 f8 bd 3b 83 c8 58 3d 78 b1 0b 3d
       -0.1096196 0.0057973866 0.052925598 0.034104794
000050 17 97 7a bd 38 b4 ab bd 30 4d 7d bd 09 a6 e3 b9
       -0.061179247 -0.083839834 -0.06184119 -0.0004342052
000060 df 61 83 3d 51 35 06 bd c6 28 a4 bc b8 3a 3a bd
       0.06415152 -0.03276569 -0.020038974 -0.045466155
000070 db 45 0e bd df bc a7 bd df fd 98 bd 91 0f aa 3d
       -0.034734588 -0.08190321 -0.07470297 0.0830375
000080 6a 76 38 bd 8b 4f 13 bd 1f 2f 05 bd 3b 99 a8 bd
       -0.045034803 -0.03596453 -0.03251564 -0.082323514
000090 0e c6 b4 bc 81 94 a9 3c 96 4d 2e bd 8c 1e 34 bc
       -0.022067096 0.020700695 -0.04255446 -0.010993611
0000a0 60 8a 5e bb 68 06 a7 bd d6 cf 83 3d 95 45 9c 3d
       -0.003395699 -0.08155519 0.06436126 0.07630459
0000b0 11 53 4e 3d d1 60 da bc 0b 4a 35 3d d7 b6 af bd
       0.050372187 -0.026657494 0.044260066 -0.08579796
0000c0 39 c6 03 bd 42 d2 22 b9 57 10 23 bd 4e 7c 0f 3d
       -0.03217146 -0.00015527851 -0.039810505 0.035030656
0000d0 26 91 2b bd a7 ee d0 bc 82 ae 09 bd f6 a4 fb bd
       -0.04188647 -0.025504423 -0.03361369 -0.12287323
0000e0 4d 17 f9 bc db d4 aa bd ad ee 26 3d 26 60 2d 3d
       -0.030406618 -0.0834138 0.040754963 0.042328022
0000f0 f9 e5 91 3d 94 3f 03 bd bd c4 dd 3b 25 0c 3e 3c
       0.07123942 -0.032043055 0.006767838 0.011599575
000100 f7 bf a8 3d bd 05 98 3d 83 01 3e bd 74 46 9f bd
       0.082397394 0.074229695 -0.04638816 -0.0777711
000110 b7 49 ad bd d0 25 41 bd c6 d4 85 3d 3c b8 9d 3c
       -0.084613256 -0.0471552 0.06534724 0.019252889
000120 0a 7a a0 3d 5c 32 78 3d 0e 95 ca 39 bf aa 43 bd
       0.07835777 0.0605949 0.00038639497 -0.047770258
000130 e1 d2 a6 3d a9 45 94 3d cb fb 1f 3d d7 ae 3c bd
       0.08145691 0.07239849 0.039058488 -0.046065178
000140 5f f8 82 3d 42 78 73 bb 69 ba 34 3d 7d 41 00 3d
       0.06395029 -0.0037150537 0.044123087 0.031312454
000150 e7 83 35 3d 7f 54 99 bd 04 b5 83 bd 60 9e 1f 3d
       0.044315245 -0.074868195 -0.0643101 0.038969398
000160 e4 cf 93 bc 37 f2 d6 bd b7 9f a6 3d 40 5f 3b ba
       -0.018043466 -0.104954176 0.08135932 -0.0007147677
000170 de 1a 8d 3d 57 c7 a0 bd bd 61 03 3d c3 2d 17 bd
       0.0688989 -0.07850521 0.032075632 -0.036908876
000180 2a d5 09 bd 32 59 bb bc 48 c3 ec bc 18 61 4d 3d
       -0.033650555 -0.02286968 -0.028901711 0.050141424
000190 ce 0e c3 bc 99 a4 81 3d 3e 0c bd 3c 84 9d 7b bc
       -0.02381077 0.06330223 0.023077127 -0.015357379
0001a0 27 78 56 bd 94 a1 b2 bd be d9 d6 bc 6d 88 9d bd
       -0.05236068 -0.08722225 -0.026226874 -0.07692037
0001b0 fd f8 a0 bc 80 00 c5 3b b1 1a 04 bc 7b 0f 18 bd
       -0.019649977 0.0060120225 -0.008063004 -0.03712414
0001c0 85 04 dc 3c be 89 64 3d 71 45 ae bc ac f2 f5 bc
       0.026857624 0.055795424 -0.021273347 -0.030022942
0001d0 da b3 dd 3c 31 bb 99 3d 3d 40 ce bd 29 d4 78 bc
       0.027063299 0.07506407 -0.10070846 -0.015187302
0001e0 fd f5 89 3c 5d d5 ea bc ca 43 66 3d 5b 61 88 bb
       0.01684093 -0.028666193 0.056216992 -0.0041619963
0001f0 bc 0d 99 3d 77 67 da bb d9 30 41 bc 88 39 9c bd
       0.07473323 -0.006665166 -0.011791431 -0.07628161
000200 fe 46 0b bd 07 0b 3d 3c 11 e7 33 3d 17 4a 6d 3b
       -0.03400325 0.011538274 0.043921534 0.003620749
000210 42 40 87 3d 8b dc 2e bd b0 b7 36 3d 30 42 9c 3d
       0.06604053 -0.042690795 0.04460877 0.07629812
000220 24 4a f5 ba c1 6f 98 3d cd bb a7 3c 05 72 93 bd
       -0.0018714112 0.0744319 0.020475293 -0.07199482
000230 43 79 c2 bd 50 0c 30 3d 5b 69 f0 bc 2f 1b b5 bc
       -0.09495785 0.042980492 -0.029347112 -0.022107689
000240 5c 60 33 3d bd 63 d6 3c 74 36 42 bc 3c 04 14 3d
       0.043793067 0.026170606 -0.011853803 0.03613685
000250 3a 18 3f bd 22 01 97 bd 32 f6 4b bd 19 48 a4 bd
       -0.046653964 -0.07373263 -0.049795337 -0.08021564
000260 6b 5f 43 3c bd a9 9c 3c 11 7a 0a bd 7d d0 ce bd
       0.011924605 0.019123906 -0.033807818 -0.1009836
000270 32 bf 2a 3d 44 84 20 bd e4 78 db bb 41 69 cf bd
       0.041686244 -0.03918864 -0.006697761 -0.101274975
000280 e4 20 43 bd 25 aa 13 3d e5 36 ad bd 9b 47 47 bd
       -0.04763879 0.036050934 -0.08457736 -0.048652273
000290 c1 41 82 3d ab 5a 3a bd d8 f0 20 bd 24 d4 db bc
       0.06360198 -0.045496624 -0.039292186 -0.026834555
0002a0 36 a4 49 3d 8b 02 51 bd 50 71 bb 3b 9b 93 3a 3d
       0.04922887 -0.051027816 0.005720295 0.045550924
0002b0 1c 7c 07 bd 68 db ba 3c 7d 0c 91 bd e9 56 14 3d
       -0.033077344 0.0228097 -0.0708246 0.036215696
0002c0 0f 9e fb 3c 46 2e b8 bb 29 5c 08 be 06 e3 67 3d
       0.030715017 -0.0056207506 -0.13316406 0.05661299
0002d0 29 d3 59 3d 0d a5 7d bc 82 fa 23 3d 55 74 4a bd
       0.053179894 -0.015481246 0.040033825 -0.04942735
0002e0 17 09 17 bd 21 a9 33 3c be a3 96 3d 06 84 7e bb
       -0.036873903 0.010965616 0.0735545 -0.0038836016
0002f0 17 f0 b5 bd 5f 4f 99 bb 64 72 5c 3d a5 22 6c bc
       -0.08883684 -0.004678651 0.05382003 -0.014412557
000300 f3 98 61 bd 0a fb 82 3d b4 b1 30 3d b0 5c 7f bc
       -0.055077504 0.06395538 0.04313822 -0.015586063
000310 b7 eb 95 3c 45 67 55 bc c6 5f 8b 3c 83 22 26 bc
       0.018300874 -0.01302511 0.017013442 -0.010140064
000320 f6 d1 52 bd e4 f5 8d 3c 98 36 40 3b 56 1c ba ba
       -0.051469766 0.017329164 0.0029329415 -0.0014199119
000330 7a 22 e9 bd ab dd 23 3c 03 a2 6c bd d3 1c d6 3b
       -0.11383529 0.01000158 -0.057771694 0.006534198
000340 fe ec 3d 3d e7 6a 6f bc 5a f0 ad bd 38 8d 23 3c
       0.04636859 -0.01461289 -0.08493109 0.0099824
000350 1b 19 fc 3b e5 e2 ae bd ff 56 f8 bd 5c 26 97 3d
       0.0076934225 -0.085393704 -0.12125968 0.07380363
000360 19 da 92 3d 84 ca 1c bd 51 20 93 3d 0f 7e 13 3c
       0.07170505 -0.03827907 0.07183898 0.009002223
000370 8d 08 a1 3c d9 fa 52 3d 15 f2 55 bd 47 45 5f bc
       0.019657398 0.05150876 -0.05223282 -0.013627357
000380 9e 94 94 3d 79 e8 1f ba fc f2 8d bd d4 0a 79 bd
       0.07254909 -0.000610001 -0.06931111 -0.060801342
000390 cb a8 dc 3c c1 64 93 3d e4 56 a3 3d a2 a1 a7 b9
       0.026935956 0.07196952 0.079755574 -0.00031973148
0003a0 57 49 86 3d 0c 97 a7 bd 29 72 d3 bc 59 d2 a8 bd
       0.06556957 -0.08183107 -0.025811272 -0.08243246
0003b0 d9 83 8e 3d d9 b1 9e 3b e2 be 02 bd 26 e4 93 3b
       0.06958742 0.0048429784 -0.03192032 0.0045132814
0003c0 00 18 a7 bd f0 05 28 bd ab 20 aa 3c aa 6e d0 3c
       -0.081588745 -0.041021287 0.02076753 0.025443394
0003d0 a3 53 e8 bd 1d f9 76 bd 78 e0 0d 3d d7 90 c1 3d
       -0.113440774 -0.060296167 0.0346379 0.09451454
0003e0 4e 89 c5 3c 5a 8e b8 bc f6 af 07 3d 1f 37 b0 3c
       0.024113324 -0.022528816 0.033126794 0.021510659
0003f0 e4 2f 95 bd a9 78 3d bd d3 79 b7 3c 6d 61 75 3d
       -0.07284525 -0.04625765 0.022396958 0.059907366

bias f4 [128]
000000 8a a2 a7 bd cc de 9a 3d e0 f1 04 bd 6e 23 40 bd
       -0.08185299 0.075620264 -0.032457232 -0.04690879
000010 b1 af 72 3c 93 23 67 3d 16 96 7f 3d 6c 30 80 3d
       0.014812396 0.05643041 0.062398992 0.06259236
000020 46 f8 db bc 45 2c 17 3c c1 29 9b 3d 0d 59 55 3d
       -0.026851784 0.009226863 0.07576323 0.05208688
000030 54 20 ae 3d 97 3b ff 3c b1 20 a7 bd 6f 08 27 3d
       0.0850226 0.031156344 -0.08160532 0.040779527
000040 f9 96 cd b9 80 87 b7 3c 7a 7e 24 3d 6b 23 3c 3d
       -0.0003921313 0.022403479 0.04015968 0.045932215
000050 76 76 29 bd ed ce 95 bd 63 ec af 3d bf ae cc 3c
       -0.04137274 -0.073148586 0.08590009 0.02498567
000060 de c5 64 3d 1e 41 fd 3c c5 c2 ad bc 1a 20 a3 bd
       0.055852763 0.03091484 -0.021211037 -0.07965107
000070 5c 80 a9 3d 5c c7 9f 3d d6 0c 39 bc 3a e7 68 bc
       0.08276436 0.07801697 -0.011294564 -0.014215285
000080 f9 41 16 3d 77 70 9f bd 96 7a 33 3c 2b 0f a3 3d
       0.03668401 -0.07785123 0.01095452 0.079618774
000090 de ed b6 bc 21 8a 99 3b 95 79 4c 3d 38 32 e4 3b
       -0.02233022 0.0046856557 0.049920637 0.0069639944
0000a0 84 b7 5a bb ad 4c e3 3c 25 a7 34 bb d5 bd 97 bb
       -0.0033373544 0.027746523 -0.0027565446 -0.004630784
0000b0 3f 78 a4 3b e8 ea 4e 3d 42 7f 9f 3d c6 50 61 3b
       0.0050192173 0.050516993 0.077879444 0.003438042
0000c0 33 c0 86 3c fd aa 58 bd da f6 13 3d dc d5 35 3d
       0.01644907 -0.052897442 0.036124088 0.044393405
0000d0 c3 ee 9c bd 4e 38 5e 3d 0d c0 db 3c cb 54 7e bd
       -0.07662728 0.054252915 0.026824975 -0.062092584
0000e0 a5 2b ae bc 3d a5 93 bd c3 49 6b 3c 6d a2 17 3d
       -0.021261046 -0.07209251 0.014360848 0.037020136
0000f0 cf ab 82 bd 82 03 54 3a 74 f9 a2 3d d0 1f 81 3d
       -0.06380426 0.0008087681 0.07957736 0.06304896
000100 1c ac 7f 3d bb ea 4a bd ea ca a8 3b ba e0 26 bd
       0.062419996 -0.049540263 0.0051511424 -0.04074166
000110 6f 1b ba 3d 3d 91 0e 3c e7 f1 62 bd 67 0d 12 bc
       0.09087264 0.00870162 -0.055406477 -0.008914328
000120 6c 6e 41 3c 0d c5 a1 3c 59 b1 82 bc a9 b6 36 3c
       0.011806112 0.019747281 -0.015953707 0.011151948
000130 42 6d a1 bd b6 4f 27 bd 41 1e 2d 3d de 08 e6 3c
       -0.078821674 -0.040847503 0.04226518 0.0280804
000140 c2 7b c4 3d 9e 7c 9f 3d 87 fc 16 3d 95 f2 66 bd
       0.095939174 0.07787441 0.036861923 -0.056383688
000150 1b 66 b2 3d 4f 74 54 3d 87 e2 0a bd af 12 a8 bc
       0.08710881 0.051868733 -0.03390744 -0.020516722
000160 dd 9c 56 bd f6 0f 43 bd 77 2a 36 3d c5 0c 69 bd
       -0.05239569 -0.047622643 0.04447409 -0.056896944
000170 b0 34 a3 3d 91 d1 b1 3c 09 14 d0 bb 8a 32 0c 3d
       0.07969034 0.021706374 -0.0063500446 0.034227885
000180 f3 f4 39 3d ad 5c d7 3b 5a 32 65 bd c9 79 b5 bd
       0.045399617 0.006572327 -0.055956222 -0.08861119
000190 87 fb 97 3d 50 cb c2 3d 88 fe a5 bc 85 97 9b 3d
       0.07421022 0.09511435 -0.020262972 0.075972594
0001a0 8c a3 19 3d ac d0 89 bd fb c0 af bb 77 26 93 bd
       0.037509486 -0.06729254 -0.0053635812 -0.07185071
0001b0 0c 24 1b 3d 7e 10 6e 3c 36 bd 4d 3d 3c 50 cf 3b
       0.037876174 0.014530299 0.050229274 0.0063267034
0001c0 8b 9b 94 3c 5c 38 5e bd 42 61 ae bd 2f 39 0f bd
       0.018140575 -0.054252967 -0.08514644 -0.034966644
0001d0 22 64 08 3d 02 d8 e3 bc e6 cb 03 bc 7a 58 3e bd
       0.03329862 -0.027812961 -0.008044219 -0.046471097
0001e0 10 ef 33 bd a2 1c 2d bd 1d 57 14 bc d0 a4 88 3d
       -0.04392916 -0.042263635 -0.009053973 0.066720605
0001f0 f8 ed 5c bc 75 2e 34 bc b9 3c 32 bd 23 75 81 bd
       -0.013484471 -0.010997404 -0.04351494 -0.0632117

weight f4 [128, 128]
000000 df e1 a0 bd 37 5c 85 bd 79 ff e6 bc 4c 4c 9b bc
       -0.078555815 -0.06511729 -0.02819799 -0.01895728
000010 bf db 85 bd 01 2c 24 bc 6e 3a 8e 3d 06 43 9b bd
       -0.06536054 -0.010020257 0.06944738 -0.07581143
000020 ce 79 33 3d 2c 52 9c bd 40 9d f6 37 01 52 58 bb
       0.043817334 -0.076328605 2.939871e-05 -0.0033007863
000030 51 6e 98 bd 4a 7d 88 bd b9 c0 13 bd c0 1a 8f bd
       -0.07442916 -0.06664522 -0.036072467 -0.06987524
000040 b5 53 91 a2 33 36 9c bd 0d 40 99 3d c6 a2 d3 ba
       -3.9390957e-18 -0.07627525 0.0748292 -0.0016146533
000050 8a b3 a2 bd 25 a7 0b bd 47 3f 8c 3d e4 5b 81 ba
       -0.079444006 -0.03409495 0.06848007 -0.0009869304
000060 22 ce 2e 3d e6 54 5d 3d a5 ca a5 bc 87 80 a0 3d
       0.042677052 0.054036044 -0.02023823 0.07837015
000070 a7 85 74 bd e0 0a 94 bd cb 12 32 3d ac 24 88 bd
       -0.059697773 -0.07228637 0.043474954 -0.066476196
000080 98 1d 81 bd 5a 49 5a bd e8 db b2 3c 93 15 98 bc
       -0.06304473 -0.05329261 0.021833375 -0.018564975
000090 4a 76 92 3d 7c 0b 31 bd 1b 10 ad bb 8f 71 02 3d
       0.07151468 -0.043223843 -0.005281461 0.03184658
0000a0 a7 b3 b2 bc ec ac a0 bb 29 f6 5a bd a6 ab 4c 3d
       -0.02181418 -0.0049034264 -0.053457413 0.049968384
0000b0 d8 9c 02 3d cc cd a1 bc 0d ad 2f bd 57 50 40 3d
       0.03188786 -0.019751452 -0.042889643 0.046951618
0000c0 f9 9d bd bd 97 26 37 3d 10 aa 59 3d e7 c0 01 bd
       -0.092586465 0.044714537 0.0531407 -0.031678107
0000d0 0e 8f 0c 3d ef b3 17 3c 27 d6 28 3a e3 d6 5a bd
       0.034316115 0.009259208 0.00064406026 -0.05342759
0000e0 d4 24 81 bc a7 b3 97 bc 2f 5e 02 3d 22 6e cf bd
       -0.015764631 -0.018518282 0.0318281 -0.10128428
0000f0 db 28 27 bc fc 1c aa 3c 74 ca 17 3d e2 a4 8b bd
       -0.010202612 0.020765774 0.03705831 -0.06818558
000100 0b ac 1a bd d9 b5 39 3d 00 16 ba 3b 0c 64 c2 3d
       -0.03776173 0.04533944 0.005678892 0.09491739
000110 61 fe ed bc 1c 42 60 3d a6 01 96 bb b0 bc b2 3c
       -0.029051961 0.054750547 -0.004577833 0.021818489
000120 c4 e6 14 bc 98 9b b5 bd 8c 61 e9 3c fd 69 50 3c
       -0.009088222 -0.08867568 0.028488897 0.012720582
000130 58 68 a0 bd 08 9b 0c bc 01 87 60 3c 30 54 7a 3d
       -0.07832402 -0.008581884 0.013704062 0.061115444
000140 66 b6 9b 3d 7c 13 b4 bc 16 2b 7b bc aa f8 bc bc
       0.07603149 -0.021981947 -0.015330097 -0.023067791
000150 b8 98 8b bd 46 b5 20 3d f5 fe a2 3d 5f 7d 5c 3d
       -0.06816238 0.039235376 0.079587854 0.0538305
000160 18 45 bc bd a2 07 bc bd b5 a6 84 bd 07 42 5d bc
       -0.09192866 -0.09181143 -0.06477109 -0.013504512
000170 56 30 dd bc 7b 10 a9 bd 86 c1 a2 bd 74 6b ab bd
       -0.027000587 -0.082550965 -0.07947068 -0.083701044
000180 6b 99 d9 bc f3 23 5c bc 2c 62 ad 3d 63 47 ca bd
       -0.026562413 -0.013436305 0.084659904 -0.09876897
000190 d0 a9 3c 3d 3c de 42 bd 91 c8 a8 3d 9b 87 9d bd
       0.046060383 -0.04757522 0.0824138 -0.0769188
0001a0 2b db 9d bd cf 95 21 bd df 73 c4 3b 46 8f 98 bd
       -0.077078186 -0.03944951 0.005995258 -0.07449202
0001b0 e6 06 9b bc 55 d0 93 bd 9e 0a 5e 3d da 48 66 bd
       -0.018924188 -0.072174706 0.054209344 -0.05622182
0001c0 c4 7b 5b bd 51 e1 a2 bd ba 32 c0 3c f2 aa 91 3d
       -0.05358483 -0.07953132 0.023461688 0.07112683
0001d0 80 5e 8c 3c ad 66 0c 3d b3 25 72 3d 6f 11 88 bc
       0.017134905 0.034277607 0.059117984 -0.016609875
0001e0 f0 c8 b8 bb 00 92 93 3d 38 4e 2d bd 5d ba 97 bd
       -0.005639188 0.07205582 -0.042310923 -0.07408593
0001f0 4e 1b 73 3b 77 03 c4 3c 25 30 09 3d a1 1e 7a 3d
       0.0037095132 0.023927433 0.03349318 0.061064366
000200 11 d1 9b 3d 7b 32 c3 3b cf fd 88 3d 36 44 a0 bd
       0.076082356 0.0059569455 0.06689035 -0.0782551
000210 25 76 b1 bb ba 75 8b 3d ef eb a4 3d 8f 27 ae bd
       -0.0054156953 0.06809564 0.08052813 -0.08503639
000220 e4 2b a7 3d af b7 04 3c 47 97 e2 3c f5 a2 22 bb
       0.08162668 0.008100434 0.027660025 -0.0024816368
000230 e6 c6 ab 3b bb 32 5f bd c7 de d1 3d 93 f4 fc 3c
       0.0052422164 -0.05449174 0.102475695 0.03087834
000240 5f 97 6a bc 0d 45 b9 bd df 52 14 3d d2 a4 9b 3d
       -0.014318316 -0.090463735 0.036211845 0.07599796
000250 ed 9d 44 3d a8 e0 ba 3d be 01 57 bb 63 b7 42 bc
       0.048002172 0.09124881 -0.0032807435 -0.011884543
000260 fd 58 06 3d 9f 22 c2 3c 00 37 b0 3c 06 e0 8a 3c
       0.03279971 0.02369815 0.021510601 0.016952526
000270 e3 7d 80 3d 5a 5a 32 3d 97 9b 84 3d 88 ac 98 3b
       0.06274011 0.043543197 0.06474989 0.004659239
000280 86 81 e5 bc e3 4d 17 bd 42 e7 d3 bc 5a 30 a0 bd
       -0.028015863 -0.036939513 -0.025867108 -0.07821722
000290 8b 58 42 bd 6a 4e d9 bc f1 98 9e 3d fc ec c0 bd
       -0.047447722 -0.026526649 0.07744015 -0.09420201
0002a0 f5 b0 4d 3d 77 9b 36 bd 0b e7 a2 bd 93 0e 04 bd
       0.050217588 -0.044581857 -0.07954224 -0.03224046
0002b0 59 14 8a bd 44 d6 cf 3d 2e 52 a7 3d 52 22 99 3d
       -0.06742162 0.1014829 0.081699714 0.07477249
0002c0 6e 50 30 bd 7e c0 9a bd 65 e6 7f bc 8e 5b a0 3d
       -0.043045454 -0.07556246 -0.015618895 0.07829963
0002d0 66 8d 3b 3d 68 5c 74 bd c9 8d e2 bc 58 55 db 3b
       0.045789145 -0.059658438 -0.027655499 0.0066935234
0002e0 3c d0 d5 3d 7f ce 3d bd 0d d0 7e 3d 6f fd 83 3d
       0.10440108 -0.04633951 0.06221013 0.06444823
0002f0 2b 34 05 bc 86 5e 94 bd a9 34 45 bd b3 81 c4 3d
       -0.008130114 -0.072445914 -0.048145924 0.09595051
000300 5e 38 ca bd 77 ee 3b 3d 72 81 ab 3d 73 35 c2 bd
       -0.098740324 0.045881715 0.08374299 -0.09482851
000310 c5 ff 95 bb ea f8 5f 3d 34 24 cf bc d1 58 3e 3d
       -0.0045776092 0.054680742 -0.025285818 0.04647142
000320 dd 68 87 3a 2c a0 31 bd cb bf 87 3d 0f 59 88 3c
       0.0010330934 -0.043365642 0.066283785 0.016644029
000330 00 6f 27 3c c9 2d e2 3c 0c e4 dc 3b 59 6d 7a bb
       0.010219336 0.027609723 0.0067410525 -0.003821215
000340 57 9c 34 bd d7 28 2e bd 6c f0 28 bd d8 df 13 3c
       -0.04409441 -0.042519417 -0.04124491 0.0090255365
000350 16 79 66 bd d1 05 16 bc 2f 31 ef bb 25 e1 16 bd
       -0.05626782 -0.00915666 -0.0072995643 -0.03683581
000360 ac 81 4a bc 09 ea 8b bd fd 5e a8 3d 59 9a f7 3c
       -0.012360018 -0.06831748 0.082212426 0.030224966
000370 7f 4f ba 3d 9c 27 a0 3c 50 4d 91 3d 01 c7 93 bb
       0.09097194 0.019550137 0.07094824 -0.004509807
000380 70 77 ff 3b df 1d a2 bd 9d 6e 0f 3d ba bb 52 3d
       0.0077962205 -0.07915854 0.0350176 0.05144856
000390 e4 8d 66 bc a4 c1 83 bd e2 ad bd bd a8 a9 6d 3d
       -0.014071915 -0.064334184 -0.09261681 0.058023125
0003a0 7d 7e 5c bc ad 93 f1 3c 03 7b 64 3d 69 b5 8c 3d
       -0.0134578915 0.029489363 0.055781376 0.06870539
0003b0 9c e6 97 3c 05 8e cb 3c e7 9c 11 bd 97 ce 98 bd
       0.01854258 0.024847994 -0.035550024 -0.07461279
0003c0 75 83 a5 3d cf a4 2b bc e4 c9 9c 3c d0 5e b0 bd
       0.08081714 -0.010476305 0.019139238 -0.08611834
0003d0 a8 36 bc bc dc bf 3d bc 5c 7b 92 3d 86 a8 46 3d
       -0.02297528 -0.011581387 0.07152435 0.04850056
0003e0 86 99 1f bc 6f 4c 06 bd d2 82 8a 3d 39 86 30 3d
       -0.009741193 -0.032787737 0.06763233 0.043096755
0003f0 1e b7 bf 3c 47 cf 25 3d 81 fb 7d bb cf 98 b7 3d
       0.023402747 0.04048088 -0.0038754644 0.08964693

bias f4 [128]
000000 fb 55 a6 3c a6 11 8c 3d 98 cb e3 bc 3e 9f 8b 3d
       0.02030467 0.06839304 -0.027807042 0.068174824
000010 ba c8 38 bd 03 66 39 3d 3c c4 ad bd d5 97 59 3c
       -0.045113303 0.0452633 -0.08484694 0.0132808285
000020 81 f2 0f bd 8c f5 9a 3d 20 e2 01 3d f4 54 53 bd
       -0.03514338 0.075663656 0.03170979 -0.05159469
000030 93 ad fc bc 51 6a 67 bd 08 fe 30 3c e4 99 16 bd
       -0.030844485 -0.056497876 0.010802753 -0.036767855
000040 1a 71 bb bc bb 32 94 bd ed 24 f2 3b a4 1e 29 bd
       -0.02288108 -0.072362386 0.007389656 -0.041288987
000050 ae e5 69 3c de 05 6f 3d 04 31 a4 3d d1 cf 8d bd
       0.014275951 0.058355205 0.080171615 -0.069244035
000060 77 c3 a0 bc 55 1d 2d 3d 09 8b d9 3c 02 65 c2 3d
       -0.019624455 0.0422643 0.026555555 0.09491922
000070 18 c8 03 bc 38 67 54 bd 55 18 33 bc 73 5d b9 3d
       -0.008043312 -0.05185625 -0.010931094 0.09051027
000080 8c 76 48 3d 6d 60 08 bd 29 5c a6 bd 83 41 69 3d
       0.04894118 -0.033295084 -0.08123047 0.056947242
000090 3e c7 1b 3c 11 79 50 3d cd 9b c7 bd 52 dd 49 bd
       0.009507952 0.050896708 -0.097465135 -0.049283333
0000a0 ce 2c 95 bd 9f 9d 27 bd eb b4 85 3d e6 f7 86 3d
       -0.072839364 -0.040921804 0.06528648 0.065902516
0000b0 e4 07 af bc 5d 0c 8a bd 6a d0 2d bc e1 42 d0 3c
       -0.021366067 -0.06740639 -0.010608772 0.025422515
0000c0 26 ba 3f bd 88 5d fb bc b6 ab 16 3c fa 0e ba bc
       -0.046808384 -0.030684248 0.0091962125 -0.02271222
0000d0 96 ef 80 3d 87 8b a3 3d e1 cb 8b 3b 9b 36 81 bd
       0.062956974 0.07985597 0.0042662476 -0.06309243
0000e0 26 25 a6 ba 92 21 82 3d 20 cf 49 bd aa 49 00 bb
       -0.0012675866 0.06354059 -0.049269795 -0.0019575157
0000f0 61 59 af 3d 03 10 9d 3c b6 43 23 3d af b2 01 bc
       0.085619695 0.019172674 0.039859496 -0.007916137
000100 83 21 73 bc d1 11 da bc d4 5f 81 3d c4 4f 74 3d
       -0.014839533 -0.026619824 0.06317106 0.059646383
000110 7a 36 44 3d 0a c4 32 3d 69 92 ab 3d 06 25 7a bd
       0.047903515 0.04364399 0.08377535 -0.061070465
000120 12 e7 3c 3d 21 3c 89 bc ee 43 89 3c 06 cf 9e 3d
       0.046118803 -0.016752305 0.016756024 0.0775433
000130 6f 9c 33 bd 8e fa 95 3b 43 ab b9 bb 93 8b 5c 3d
       -0.04385036 0.0045769876 -0.005666168 0.053844046
000140 5c 16 75 3c bd cb 83 bd 30 44 28 3d f3 a9 9c bd
       0.014958944 -0.06435344 0.041080654 -0.07649603
000150 3a 60 86 bc ff 2a 00 bd 5e bf 20 bd 8e 36 94 3c
       -0.016403306 -0.031291004 -0.039245002 0.01809242
000160 b6 d2 90 bd d5 c4 9f bd 1a 3d 7e bd 0f 8d 60 3c
       -0.0707144 -0.078012146 -0.06206999 0.013705506
000170 b3 2e 8a bd 3a 35 09 bd 00 a3 ea bc e8 b1 37 bd
       -0.067471884 -0.033498026 -0.028642178 -0.0448474
000180 b9 12 97 bd 0f c7 62 3d 01 78 99 bd 05 2e 7b 3d
       -0.07376618 0.05536562 -0.07493592 0.061323185
000190 2d 6a bb 3d b9 d9 40 bd d9 8a da 3c dc 0b 44 3d
       0.09151111 -0.047082637 0.026677536 0.047862872
0001a0 3f 88 8f 39 37 d9 44 bd 00 05 a4 3d b9 28 2e 3d
       0.00027376597 -0.048058715 0.08008766 0.042519305
0001b0 0f 40 85 bd b1 e9 85 3c f4 31 75 3d 64 e9 a2 bd
       -0.06506359 0.016346784 0.059862092 -0.07954672
0001c0 00 5e b5 3d ac ab 1d 3d 2a cb 9b bd a8 24 0b 3d
       0.0885582 0.038493797 -0.0760711 0.033970505
0001d0 ff bf b6 bc 3b 30 39 3d fa c6 4f bc 74 30 3d bd
       -0.022308348 0.04521201 -0.012681717 -0.046188787
0001e0 5f 79 c0 bb 8b 13 42 bd c1 31 8e 3d b6 55 ae bd
       -0.0058738436 -0.04738192 0.069430836 -0.08512442
0001f0 fa 1b 4f bc 26 82 67 bd 83 77 5d bd 01 de 11 bc
       -0.0126409475 -0.056520604 -0.054069053 -0.0089030275

weight f4 [128, 128]
000000 00 9b 2b 3d 43 6e 20 3d ee bd 21 bd 81 28 95 bd
       0.041895866 0.039167654 -0.03948777 -0.07283116
000010 68 64 b8 bc 94 8f 42 3d d6 c1 56 3d ae 6a 92 3d
       -0.022508815 0.047500208 0.05243095 0.07149254
000020 5f 8a ba bc fd a9 3d bc a5 3e f6 bc 3a 7c 63 bd
       -0.022771059 -0.011576173 -0.030059168 -0.055538394
000030 7a 62 00 bd a1 6f af bb 8a ae 7e bd 2f 66 25 bd
       -0.031343915 -0.0053538834 -0.062178172 -0.040380653
000040 54 51 ca 3c 71 36 2f bd 9b be 62 bc 50 ad 89 bd
       0.024696983 -0.04277653 -0.013839389 -0.0672251
000050 af 53 62 3c 9b 4f 3d 3d 44 a3 13 3d 08 09 d1 bc
       0.013813897 0.046218496 0.036044374 -0.025517002
000060 dc b2 66 3c cf 22 d8 3c da f7 77 3b a3 f5 74 bd
       0.014080729 0.026383786 0.003783694 -0.05980457
000070 bf ab 1b bd b5 62 8c bd 5a 1b 29 bd ff 4d 1f 3c
       -0.038005587 -0.06854764 -0.04128585 0.009723186
000080 04 50 ad 3d 42 f2 14 3d d2 bd 83 bc c0 f8 99 3c
       0.084625274 0.036363848 -0.016081724 0.018795371
000090 18 09 d7 bc 08 b1 75 3d b7 c0 a8 3c 48 b2 6f 3d
       -0.026249453 0.059983283 0.020599706 0.05851963
0000a0 d1 a7 0c 3d 67 16 25 3d 1d 13 97 3d 48 f8 7a bd
       0.03433973 0.040304568 0.073766924 -0.061271936
0000b0 ec 48 4c bd 1e 1f 99 bb a5 51 59 3d bf e0 7e bd
       -0.04987423 -0.004672899 0.053056378 -0.062226053
0000c0 33 a2 86 bd 0a 0d 3f bd e9 69 61 3d 94 21 83 3d
       -0.06573906 -0.046643294 0.055032644 0.06402889
0000d0 ae 28 f3 bb 57 d8 6b bd 1f cf 8f 3d ae 64 43 bd
       -0.007420621 -0.057579365 0.07021927 -0.047703438
0000e0 ad fc 4e 3d 19 1f 95 bd a9 1d ab bd 27 b5 7f bd
       0.05053394 -0.07281322 -0.083552666 -0.06242862
0000f0 19 f9 25 3d 35 04 e0 3c db d3 8a 3d ae 5e 9f bc
       0.04052076 0.027345756 0.067786895 -0.019454326
000100 4b 6e b0 3d dc ec 01 3d 82 45 34 3c 7b a8 d9 3d
       0.08614787 0.031720027 0.0110029 0.10627838
000110 bb 2f bd 3d f8 30 b3 3d ea db 5c 3d 48 8b 94 ba
       0.092376195 0.087495744 0.053920664 -0.0011333013
000120 b1 b6 2f bd ee eb 33 bd 9d cf a1 bd 0c 1f d3 3a
       -0.042898837 -0.043926172 -0.07900927 0.0016107275
000130 c9 11 1a bb 84 88 94 bc 3d 95 07 3d ac f8 e8 3b
       -0.0023509136 -0.018131502 0.03310131 0.007109722
000140 f9 8a 38 3d 9d f3 57 bc 35 d6 f6 bc b1 19 9e 3c
       0.04505441 -0.0131806405 -0.030131439 0.01929936
000150 c5 40 2f 3d af fb 3a bc 21 a0 d7 3c 7a ee 5b bd
       0.04278638 -0.011412545 0.026321473 -0.053694226
000160 32 b4 b2 3d 0a 83 c5 3c 8b 15 b7 3d e8 32 98 bd
       0.08725776 0.024110336 0.08939656 -0.074315846
000170 6e 4c 95 bd 95 43 54 bd 11 2a 46 bd ca 65 a7 3a
       -0.072899684 -0.051822264 -0.04837996 0.0012771424
000180 a9 3c 06 bd 10 ac 85 3d df ec 57 3b 24 22 9d 3d
       -0.032772694 0.06526959 0.0032947583 0.076725274
000190 94 0c b1 bc 9e 95 9f bd 35 3c 61 bd a2 7e 84 bd
       -0.021612443 -0.07792209 -0.05498906 -0.06469466
0001a0 c0 a2 f0 bc af 69 9a bd 3d b5 14 bd 1a a6 d3 3d
       -0.02937448 -0.07539689 -0.036305655 0.10334416
0001b0 d6 eb 11 bc fb 7b 9b bc 20 95 8c bd e9 37 f7 3c
       -0.008906325 -0.018980017 -0.06864381 0.030178027
0001c0 ea 84 4b bd 0d 4f 85 bc 29 48 77 bc 3d 6c 63 bd
       -0.049687304 -0.016273046 -0.015092888 -0.055523146
0001d0 ab 45 bf bc a8 66 11 bd ae b7 31 3c cb 8c 32 bd
       -0.02334865 -0.03549829 0.010847015 -0.043591302
0001e0 1e db a7 bc 2a b5 18 3d c6 c4 91 3d 15 04 01 bd
       -0.020490225 0.037282147 0.0711761 -0.031498034
0001f0 63 96 b5 bc 78 97 5f bd ba b5 41 bc 3c c9 a0 bd
       -0.022166437 -0.05458781 -0.011823112 -0.078508824
000200 d3 76 86 bd 2a 61 a3 bd 3a 74 40 bd 00 18 9c 3b
       -0.06565633 -0.07977517 -0.046985842 0.004763603
000210 16 38 85 bd fa 53 92 bc c9 9e 8a 3b 84 44 bb bd
       -0.06504838 -0.017862309 0.0042303544 -0.09143928
000220 a4 76 1f bd dc c3 08 3c 3a c7 28 bc 85 24 42 bd
       -0.038931504 0.008347478 -0.010301406 -0.04739811
000230 6a b1 c5 b9 10 f2 87 bd 56 0e 0d bd ac c6 8a 3c
       -0.00037706952 -0.06637967 -0.0344375 0.016940437
000240 55 95 8b 3d 4b 40 2a 3d 80 d2 76 bd 02 75 5d 3d
       0.06815592 0.04156522 -0.060259342 0.054066665
000250 68 1d 4d 3d b8 fa 35 bd ff d5 4a 3d 70 f9 99 3d
       0.050076872 -0.044428557 0.04952049 0.075182796
000260 39 ee cb bb b5 1d fe bc a2 87 92 3b 1d 07 98 bd
       -0.0062234667 -0.031020025 0.004471735 -0.07423232
000270 92 ae 3d 3c b8 b5 40 bd 23 e1 91 bd b3 53 c4 bd
       0.011577265 -0.0470483 -0.071230195 -0.09586277
000280 7a 89 b8 3c fb 0d 9a bd 3a 4a 15 bd a8 4d 97 3d
       0.022526491 -0.07522198 -0.03644774 0.07387859
000290 09 82 7d 3d 49 5c 77 3d f4 13 a9 bd d5 32 5b bd
       0.06189159 0.060390744 -0.08255759 -0.053515274
0002a0 2d c1 7a 3d 43 99 d4 3c fe 28 0e bd e1 fd 3e 3d
       0.061219383 0.025951987 -0.034707062 0.046628837
0002b0 69 bc 8f bd 88 8b 38 3c 3f 86 95 bd 70 c6 59 bd
       -0.07018358 0.011263736 -0.07300996 -0.05316776
0002c0 b5 43 2c 3c 1a 81 6e bd 0b 7f a7 bd 89 f0 ab 3b
       0.0105141895 -0.05822859 -0.081785284 0.00524718
0002d0 bb 7b 3b 3d 48 fc e3 bb b5 11 84 bd 73 9c aa bd
       0.045772295 -0.0069575645 -0.0644869 -0.083306216
0002e0 aa c3 5b 3d c8 54 52 3c 9b 14 26 bd fe 7e 25 bd
       0.053653397 0.012837596 -0.040546995 -0.040404312
0002f0 18 86 57 3d 2a a9 1b bd 27 bb 41 bd 4b 89 89 3d
       0.052618116 -0.038003124 -0.047297623 0.0671564
000300 33 f9 59 3d 81 18 1b 3d dc 24 41 3d d4 17 e4 bc
       0.05321617 0.037865166 0.047154292 -0.027843393
000310 e7 db ac 3c 43 28 3b bd 9f 9e e4 bc 03 f6 98 bd
       0.021100951 -0.045692693 -0.027907668 -0.07468798
000320 4e 74 cf bd be 33 12 3d 14 e3 20 bd b5 d3 97 3c
       -0.10129605 0.035693876 -0.03927906 0.018533567
000330 8b 93 8d bd b5 8d 8e 3d da c0 73 3d eb 5d 1a bc
       -0.06912907 0.06960622 0.05951009 -0.009421806
000340 6f 32 e3 3b 75 98 05 3d 46 ad 17 3c 34 c4 7f bd
       0.0069335024 0.032616097 0.00925762 -0.062442973
000350 d2 20 36 3d 57 02 41 3d 97 5c 43 3d b2 8f 9a 3c
       0.044464894 0.047121372 0.047695722 0.018867347
000360 ac 4a f3 3c 65 3a 2b 3d 79 5c d9 bc 58 5f 34 bd
       0.029698692 0.041803736 -0.026533352 -0.04403624
000370 26 09 50 bd 63 95 92 bd dd 0f 55 bd f9 9d 87 3d
       -0.050789975 -0.071573995 -0.05201708 0.06621928
000380 5e 4a ad bd ff b1 93 3d 98 a6 f1 bc 0d 11 6a 3d
       -0.0846145 0.072116844 -0.029498383 0.057145167
000390 ae 11 00 3d 51 df 99 bd f3 a3 da bc a5 66 c8 bd
       0.03126686 -0.07513297 -0.026689505 -0.09785203
0003a0 b4 a3 73 3d 6a bd 26 bd bd ba 8f 3d 04 e3 04 3d
       0.05948229 -0.040707983 0.070180394 0.03244306
0003b0 4d 93 f4 3b f6 9b 7b bd bb 7d 03 3b 95 45 80 bd
       0.0074638487 -0.061428033 0.0020063955 -0.06263272
0003c0 ed 72 2b 3d 0d 05 72 bd 9b dd a0 3d 3c 6b 56 bd
       0.04185765 -0.059086848 0.07854768 -0.05234836
0003d0 21 bd e4 bc 42 a9 3e 3d 06 ea 9b bd 9c ca 80 3c
       -0.027922215 0.046548136 -0.07612996 0.015721612
0003e0 54 b1 2f 3d 6b df 90 bd 20 e7 9f bc 1d 23 08 3d
       0.042893723 -0.070738636 -0.019519389 0.03323661
0003f0 65 06 30 3d eb 47 69 bd 81 64 6d 3d cc b3 77 bd
       0.04297485 -0.056953352 0.057957176 -0.060474202

bias f4 [128]
000000 21 d3 c0 bc 5b b7 34 3d c8 96 78 3d 39 0d 0c bd
       -0.023538174 0.044120174 0.06069067 -0.034192298
000010 50 91 8e 3d c1 6f 8b 3d 02 6f c1 bd 9d 05 44 bc
       0.0696131 0.06808425 -0.09445001 -0.011964229
000020 7e 59 76 3d f2 15 63 3d 4f d6 04 3d ca 5b bb bc
       0.06014394 0.05544085 0.032430943 -0.022870917
000030 bb 71 89 3d 98 67 c5 3b 16 c0 47 bd 45 c7 04 3c
       0.067111455 0.006024312 -0.04876717 0.00810415
000040 e0 3b b8 3c 59 c0 82 3d b0 48 12 bd 34 7e 16 3c
       0.022489488 0.06384344 -0.03571385 0.009185363
000050 ab eb 61 3c e5 03 ef 3b d7 75 1e bd 3f 7a e7 bc
       0.013789098 0.0072941654 -0.0386866 -0.028256534
000060 fd bd 86 3d 67 9b 3e bd e0 62 d3 3d 07 ac b4 3d
       0.06579206 -0.046534922 0.10321593 0.08821874
000070 d1 85 75 3c e4 64 2d bd 76 d9 2a 3d 26 89 cb 3d
       0.014985518 -0.042332545 0.041711293 0.09938268
000080 d6 41 99 3d 43 f3 6f bd 71 ff ba 3d e4 99 b1 bc
       0.0748326 -0.0585816 0.09130753 -0.021679826
000090 3b 4b f2 3c c2 74 5a 3d 65 94 91 bd 65 45 8a 3d
       0.029576888 0.053334005 -0.07108382 0.06751517
0000a0 e0 9d a6 3d 79 19 8d 3d b6 37 81 bd 43 00 af 3d
       0.08135581 0.06889624 -0.06309454 0.08544972
0000b0 23 b3 c3 bd b6 4a a2 bc 22 f8 28 bd 42 b4 91 3d
       -0.09555652 -0.019811016 -0.041252263 0.071144596
0000c0 3c 56 1c bd 4c cd a5 bc 7a 61 75 bd 95 24 2d 3c
       -0.038168177 -0.020239495 -0.059907414 0.010567804
0000d0 ff f5 13 3d ee e9 a8 bd 19 db 01 3d 11 c6 06 bd
       0.036123272 -0.082477435 0.03170309 -0.032903735
0000e0 1a 6b c7 3d 01 df 67 bd b0 91 18 bd c7 60 c5 bc
       0.09737225 -0.056609157 -0.037248313 -0.024093999
0000f0 0d e8 f7 3c d0 b4 4e 3d ee ee 37 3d 05 89 58 bd
       0.030262018 0.050465405 0.044905595 -0.052865047
000100 02 e2 95 bc 94 cb 96 bc 46 a3 c5 3d 91 06 e2 bc
       -0.018296245 -0.01840762 0.096502826 -0.027591022
000110 3f 9d e4 ba 7e 52 9d 3d b7 4d a4 bd 3e 5e b4 3d
       -0.0017441883 0.0768175 -0.080226354 0.08807038
000120 22 7f 03 bc b6 5c 8e bc 2c fd 40 3d 17 45 90 bc
       -0.008025916 -0.017378192 0.047116444 -0.01761107
000130 ef be 89 bb 28 c0 d1 bc 92 63 08 3d c6 00 ce 3c
       -0.0042036693 -0.025604323 0.033298083 0.025146853
000140 b1 d6 c9 bc 07 94 5e bd b9 ca 2d bc 8d 94 29 3d
       -0.024638506 -0.05434039 -0.010607415 0.041401435
000150 6a 15 6b 3c 8b e0 87 3d 6f 6c ea bc e7 89 d6 3c
       0.014348367 0.06634625 -0.028616158 0.026188804
000160 51 39 d2 bc a6 c5 39 3b d6 c5 de 3c 23 05 b6 bc
       -0.025662096 0.0028346567 0.027193945 -0.022219246
000170 f8 36 35 bc bf 70 27 3b 71 2d a9 3d 00 57 8e bd
       -0.011060469 0.002554938 0.082606204 -0.06950188
000180 9a 79 97 bd eb 06 46 3c 3b ff 86 bd 1a 44 1e bd
       -0.073962405 0.01208661 -0.0659165 -0.038639165
000190 72 91 a8 3d b3 dc 5d bc 58 9b 07 3d 5b 8e 67 3d
       0.082308665 -0.013541388 0.03310713 0.056532245
0001a0 11 ae a6 3d fd df 6c bd 4a f3 51 bc a7 d7 3c 3d
       0.08138669 -0.0578308 -0.012814352 0.0461041
0001b0 29 5a ab bd 41 42 a1 3d 4d 4c 13 bd 05 27 df bc
       -0.08366806 0.07873965 -0.035961438 -0.027240286
0001c0 33 ab 92 3d 35 d8 84 bd 14 b2 c1 3d c5 10 99 bc
       0.0716156 -0.06486551 0.09457794 -0.018684754
0001d0 66 53 e2 bc fb 18 b7 3d cf 1f aa 3c 14 3e 68 bd
       -0.027627658 0.089403115 0.02076712 -0.056699827
0001e0 97 c8 17 bd 4c 20 8d 3b 4c 3a 48 3d 99 cb 9a bc
       -0.03705653 0.0043068286 0.04888372 -0.018895911
0001f0 b7 ad 40 3d 90 68 5a 3d de cc f1 3c c6 0b 31 bd
       0.047040667 0.053322375 0.029516634 -0.04322412

weight f4 [1, 128]
000000 2a 4b 88 bd b9 c5 96 bc 1d d1 82 bd 05 52 27 bd
       -0.066549614 -0.018404828 -0.063875414 -0.040849704
000010 82 06 94 bd 47 7e 20 3d 29 64 29 3d 89 cd 43 3d
       -0.07227804 0.039182927 0.041355286 0.047803435
000020 4e e0 ad bd 8d fe 72 bd 76 04 58 3c 3a f2 12 bd
       -0.08490048 -0.05932479 0.013184657 -0.035875537
000030 d2 21 30 bd 79 a0 c6 3d fd f9 54 ba 72 55 77 bd
       -0.043001004 0.096985765 -0.00081244094 -0.06038422
000040 d1 15 21 3c 9f 01 b4 3d 33 62 37 bd 04 7e d8 3d
       0.009831862 0.08789372 -0.044771384 0.105709106
000050 c7 6d ac 3c 45 74 83 3d 77 a7 b9 bd 1c 31 10 3d
       0.02104844 0.06418661 -0.090651445 0.035203084
000060 36 2f c3 bc 50 25 a0 bc 65 49 a9 3d 9c 85 a3 3c
       -0.023826223 -0.019549042 0.08265952 0.01996117
000070 cb eb 98 3d 3c 40 8d bc 54 8e 89 bd 53 df a2 3c
       0.07466849 -0.017242543 -0.067166 0.01988188
000080 2c 76 c2 bd ac ef 28 bd 86 04 ac 3d de 3c b0 3d
       -0.09495196 -0.041244194 0.083993 0.086053595
000090 b0 c3 94 bd 72 a4 85 bd ab ea 79 bd b8 47 21 bd
       -0.07263887 -0.06525506 -0.061014812 -0.039375037
0000a0 02 f2 59 3d db 5a b1 3d 8f 35 a5 bd 8b 9a bd 3c
       0.053209312 0.086599074 -0.08066856 0.02314498
0000b0 f0 9f a5 bd ba 53 3a 3d db 71 2d bd e6 f4 a4 3c
       -0.08087146 0.045490004 -0.04234491 0.020136308
0000c0 71 24 9e 3d 0e 89 b5 3d 97 85 8f bc 0d 73 45 3d
       0.077217944 0.08864032 -0.017519755 0.048205424
0000d0 4b 9f 8c 3c a3 26 f1 bb 95 69 c8 bc 6f f0 84 bd
       0.0171658 -0.007359342 -0.024464408 -0.064911716
0000e0 5b 2a bb 3d cd 04 00 3c 18 9a 5b bd 44 91 8a bd
       0.09138938 0.007813645 -0.053613752 -0.067659885
0000f0 d8 86 90 bd 4d 37 1b bc 0a 71 d5 3c a4 fc 3c bd
       -0.070569694 -0.009473634 0.026054878 -0.046139374
000100 f6 b5 d6 3d 56 80 e0 3c a3 63 3e 3d 33 a2 c7 bd
       0.10483925 0.027404945 0.04648174 -0.09747734
000110 de e2 85 bb 33 73 a7 3d b7 cb 84 3b 1f c7 32 3d
       -0.0040858826 0.081762694 0.004052605 0.043646928
000120 a8 f7 3b bd f0 87 b1 3c b0 ef a0 3c a6 3c 7a bc
       -0.04589048 0.021671265 0.019645542 -0.015273249
000130 ec 6e b0 3c 05 8a 48 3d 2c bd dc 3c 9f 75 4d 3d
       0.021537267 0.04895975 0.026945673 0.050161
000140 69 00 f7 3c 58 4c b3 bd d5 71 a0 bc c0 54 be 3d
       0.030151563 -0.08754796 -0.01958553 0.092935085
000150 54 32 96 bd 96 f9 c0 3c c8 8c a0 3c 36 1f 92 bd
       -0.07333818 0.023556512 0.01959838 -0.07134859
000160 4a d7 3b bd dd 0b 99 bc 7a 9d d5 3d dc ca 6c 3d
       -0.045859613 -0.018682415 0.10430427 0.05781065
000170 9e 25 53 bd f8 9b b1 bd f8 d7 4a bd 75 8d e3 ba
       -0.051549546 -0.08672327 -0.04952237 -0.0017360883
000180 3e ec e6 bb c5 17 84 bd 5c 27 53 bd 87 7a 80 3d
       -0.007047205 -0.06449846 -0.051551208 0.0627337
000190 9f 0e 8b bd 1d 46 ee 3d 2b a8 88 3d 9f 98 91 bc
       -0.06789898 0.11634467 0.066727005 -0.01777297
0001a0 cb ac ab 3d d4 84 b9 bd b3 62 8b bc 82 d6 81 3b
       0.08382567 -0.09058538 -0.017014837 0.003962339
0001b0 44 4b 94 bd 95 92 b3 3d 29 a0 50 bd 5b 59 8f 3d
       -0.07240918 0.08768193 -0.05093399 0.06999465
0001c0 40 73 8c bd 65 21 85 bd 5e 09 25 3d b3 0a c4 3b
       -0.0685792 -0.0650051 0.040292136 0.0059827208
0001d0 4e 1b 23 bd e1 20 bc bd 18 77 1d bd c3 d8 fe bc
       -0.03982096 -0.09185959 -0.038443655 -0.03110922
0001e0 0b 8d d1 3d 67 09 cb 3d 84 1b 3c bc 75 db b0 3d
       0.1023198 0.09913903 -0.01148117 0.08635608
0001f0 77 bf 91 bd c8 6a a8 bc 62 14 a8 bc 01 80 53 3a
       -0.07116597 -0.02055873 -0.020517532 0.00080680853
