Dry fermentation prediction and optimization system/predictor_percolate_tank/Predictor_Percolate Tank Biogas Production/models/NeuralNetTorch_BAG_L1/S1F3/net.params (torch, 208391 bytes, 9 tensors)

weight f4 [128, 7]
00000000: b4a7 1cbd 3c5c 5b3e 359f 9abe 64c9 89be
00000010: 762c 21be d918 be3d 16bb 16bb 458e 9a3e
00000020: aa90 e8bc 47b4 d73d 2d73 ccbd 996a 04be
00000030: b960 b3be 1333 7fbe 7198 2cbe ea4c e4bb
00000040: 5fd1 2a3e 3b2b 723e 96ca 88be 901d 24be
00000050: 463d e83d e751 af3e 21d2 b8bd c2ba 883e
00000060: b931 aabd 3a07 ec3c 5fae ad3e 29d3 b3be
00000070: 2dff 73be 2b85 f4bd 8cd8 0bbe 2997 a93e
00000080: c444 80be d2d1 31be 4014 8abe 802c c2be
00000090: 8d43 8ebe 325b 9a3e c8a6 153e 29ae 1c3e
000000a0: c6f4 673c 92e2 32be a96f bd3d 1555 b2be
000000b0: bd73 94be a93d 5dbe 9e7c 803e 4a0c 5b3e
000000c0: 6aa8 1fbe 6249 b0bc 4ab7 8b3e 16c4 c33e
000000d0: 4f74 193e 3c6d fe3c a449 783e 100f 67be
000000e0: e14b d23d f252 9ebe be0d 90be ed87 5fbe
000000f0: 7d98 2a3e 19a0 213e 7370 58be b27f d73d
00000100: 45e8 5c3e 19fd 4dbd bc4a a53c 8727 ce3d
00000110: e7e2 703e b95e b63e aba9 8bbe 2d0a 01be
00000120: f92c 0c3e 01ff 9e3e 4ecc b03e 09ac a13e
00000130: 28e4 a93d 7ee6 abbe 4a73 afbb 0f93 89be
00000140: 04a0 c3be 18df 9d3e 0864 8d3e 9c71 babe
00000150: 640b c63d 895d a9bd bde0 adbd 63c7 4ebe
00000160: 1dc7 023e 814a 5abe f24a 053e 0aef 3e3e
00000170: 54e6 983e aca0 263e 7cff b8be 5e21 8abe
00000180: bc03 4c3e e2e9 9e3d 0d22 a5be ed34 7abe
00000190: b2ee b63e 8133 833e 0dd8 2ebe b2d9 d2bd
000001a0: 477f b7be 21a3 d9bc 48c6 92be 48e6 89be
000001b0: cbce cbbc ca09 583d 6501 28be 1724 633e
000001c0: a464 62be f902 b53e d3cd 863e da23 a1be
000001d0: 9bdf c3bd 8174 ad3c 28a0 3b3d 2ba0 d43d
000001e0: 2250 043e 387d 303a 82df 5abe e1b7 433e
000001f0: c8b6 adbe 274e 58be 068b e6bd 3b8b 6dbe
00000200: 9ac4 19be 6b75 a8be 3eac ebbd 4de9 8a3d
00000210: 7338 62be 75fe 55bc 072f 8a3e def2 4cbd
00000220: 7192 023d 886d bdbc 8596 953d 6cf6 703e
00000230: 83ee b93e db9d 803e 0664 be3e e511 d7bc
00000240: 5a0b bbbe 3522 28be 29ed 7e3e 897f 05bd
00000250: 52c2 65be 1b4a 96be 0f2e bcbe a87a b1be
00000260: 0d26 babd 65d6 5a3e a799 4f3e b177 c9be
00000270: 36dd 573e 2fd7 a7be 7926 d7bd 606e 06be
00000280: d216 95bd 1de3 91bd 3c7a bbbe 4da5 a3be
00000290: 1d23 82bd fb7d 813c ad9c 33be f19c 063e
000002a0: 6e70 a4be 8445 8abb c9fe ab3e 81f8 1dbe
000002b0: 2b5b b83e c0c8 023e 5317 b3be 609e 823e
000002c0: f651 acbd b18e 5cbe f8d9 833e 36d0 acbe
000002d0: 5763 7a3d 1674 c5bd 3501 893e 824d ef3d
000002e0: 9427 363e 48ff 023e 1f1b dbbd 5159 acbd
000002f0: 14bc a0be 1ffc 523e 781b 9b3e 0ced 893e
00000300: 2ca1 84be 3efc 45bc cc35 7dbe 2915 5bbe
00000310: fefb 6fbe e25d 103e 791c 61be 236e 3f3b
00000320: c52b ab3c 1d78 823e 498c 90be 738c 83be
00000330: 3276 84be 4a6a 6d3e deed 28be 751d a73e
00000340: 4152 283e e9e8 113d 953b 573c f6ae 7bbd
00000350: 724d 5d3d 14ef afbd cec2 5fbc 2aab 193d
00000360: 4af7 9abe e1af 37be a778 a33e f92a a4be
00000370: dbca 1ebb 9d2d cf3e 4f79 cc3d fcfb 003d
00000380: b0c0 babe b8c5 303e 28f0 78be d82b e1bd
00000390: 0ce6 0fbe 33a9 98bd 2c78 1b3c 696e a73e
000003a0: ca78 e23c 04ae ac3e 51ac 643e 62f1 90be
000003b0: 8871 263e d153 89be 54bb 1fbe 4cbe a53d
000003c0: a56c e13d 8495 943e 33c6 06be 65ce 293a
000003d0: b78c 3c3e 3dc4 c9be fdb3 673e c10a a3be
000003e0: 3bd8 f8bc a123 c1bd 5d81 58be a792 813d
000003f0: 4d2a a93e 7e7c ffbd b430 83be 1499 2ebe
-0.03824587 0.21421903 -0.3019959 -0.2691146 -0.15739617 0.09282083 -0.0022999696 0.30186668
-0.028389294 0.10532432 -0.099829055 -0.12931289 -0.3503473 -0.24921827 -0.16855027 -0.0069671767
0.16681431 0.23649304 -0.2671706 -0.16026902 0.11339812 0.34242174 -0.09024454 0.26704985
-0.08310265 0.02881204 0.33922097 -0.3512204 -0.2382781 -0.11939462 -0.13656825 0.3312314
-0.25052464 -0.17365196 -0.26968575 -0.37924576 -0.27785912 0.30147702 0.14614403 0.15300812
0.01415748 -0.17469242 0.09249813 -0.34830537 -0.2899455 -0.21605553 0.25095075 0.21391407
-0.15591589 -0.021519367 0.27288276 0.3823554 0.14985774 0.031057946 0.24246842 -0.2256434
0.10268379 -0.30922657 -0.28135484 -0.21829195 0.16659732 0.15783729 -0.21136646 0.10522403
0.21572979 -0.0502902 0.020177238 0.10066133 0.23524056 0.35619143 -0.27277884 -0.12601538
0.1368903 0.31053928 0.34530872 0.31576565 0.082954705 -0.3357429 -0.0053543197 -0.2687001
-0.3820802 0.3083427 0.2761538 -0.36414802 0.09670141 -0.082697935 -0.08490131 -0.20193247
0.12771268 -0.21317483 0.1301687 0.18645874 0.29863226 0.16272229 -0.3613242 -0.26978582
0.199233 0.07759453 -0.3225254 -0.24434252 0.35728985 0.25625232 -0.17074604 -0.10295428
-0.35839292 -0.026567044 -0.28666902 -0.26933503 -0.02487888 0.05274371 -0.16406782 0.22181736
-0.22108704 0.3535383 0.26328906 -0.31472665 -0.09564134 0.021173717 0.045807034 0.10382112
0.12921193 0.0006732526 -0.21374324 0.19113113 -0.33928514 -0.21123563 -0.11256985 -0.23197643
-0.15016404 -0.32902083 -0.11507462 0.0678278 -0.22091846 -0.013061156 0.26989004 -0.050036304
0.03187794 -0.023123518 0.073041 0.23531502 0.36314783 0.25120434 0.37185687 -0.02625365
-0.36532098 -0.16419299 0.24895157 -0.03259233 -0.22437409 -0.29353413 -0.3675389 -0.34663892
-0.09089289 0.21370848 0.20273457 -0.3934913 0.21080479 -0.3278136 -0.10505385 -0.13128042
-0.07279743 -0.071233965 -0.36616695 -0.31962052 -0.063543536 0.015807142 -0.17540236 0.13145806
-0.32117027 -0.0042197127 0.33592823 -0.15426828 0.36007056 0.12771893 -0.34978732 0.25511456
-0.0841407 -0.21538807 0.25752234 -0.33752602 0.061129894 -0.09641282 0.26758733 0.11684705
0.17788535 0.12792695 -0.10698532 -0.08415473 -0.31393492 0.20603989 0.30294394 0.26938665
-0.25904214 -0.012084065 -0.24727553 -0.2139479 -0.23435971 0.14098313 -0.21983518 0.0029209934
0.020894894 0.25482264 -0.2823203 -0.25693092 -0.25871426 0.23185077 -0.16496989 0.3263966
0.16437627 0.03562251 0.013136764 -0.061446153 0.054028936 -0.085905224 -0.013657285 0.03751675
-0.30266792 -0.17938186 0.31927988 -0.32064036 -0.0024229798 0.40464488 0.09984075 0.03149031
-0.36475134 0.17262924 -0.24310362 -0.10994691 -0.140526 -0.07454147 0.0094891 0.32701424
0.027645487 0.33726513 0.22331358 -0.2830916 0.16254246 -0.2682176 -0.15598804 0.08092937
0.110070504 0.2902032 -0.13161545 0.00064775936 0.18413053 -0.3940753 0.22627254 -0.31844142
-0.030376544 -0.09430624 -0.21143098 0.063268 0.33040085 -0.12474917 -0.25623095 -0.17050582

bias f4 [128]
00000000: 990b b0be 1d20 c0bc fb31 fe3d 597a 133e
00000010: 5369 a23e df5d be3e 34f3 b53e 6786 903e
00000020: 013f 8f3e 23f0 48bd 2c9e 97be 4c09 f5bd
00000030: 7be7 9cbc 5e72 4ebe 6685 553e 651e 003e
00000040: b540 933d 8f2c cc3d 8241 b23e 924d 0e3e
00000050: bd05 a4be d3d6 81be 08ca 293e ce9d 6b3d
00000060: 06b5 453e b68c b6be c415 b7be 769e 6a3e
00000070: d216 613e 2ac0 a3be 38f6 233e 96b5 90be
00000080: 7d62 863e 06f8 1e3e 719a bf3e d939 b1be
00000090: 19aa b2be 9956 713e edec a83e 1ac1 803e
000000a0: 7d71 8c3e 4726 9abe c3f7 903e 6983 b4be
000000b0: 1341 db3d 11c8 74be 87b2 1dbe 2037 813d
000000c0: 3136 13be b854 79bd 827b b5be 5418 adbe
000000d0: 4173 0a3e 3c28 15be 365b 59be 49cd 0dbe
000000e0: 2f1c 8bbe f753 9cbe c42b 813e e7d1 533e
000000f0: bf13 473d aa27 58be 5bad 093e beff 933c
00000100: 7cf2 86be 4376 ca3d d97e ba3e 0561 b3be
00000110: d0c2 c6be 0126 833d 977d 963e f236 72be
00000120: 67bf cb3d 3622 933e 0541 d93d 2dfc aa3d
00000130: e73f be3e 04c0 843e adc0 5abe aee7 1d3c
00000140: eacb 2e3e f340 a83e 58a0 b2be d248 553e
00000150: 20c7 93bd 2ba1 bcbe 4701 ba3d f370 37be
00000160: 5de7 5a3d 6f72 6dbe eff5 9bbe b1ee 20bd
00000170: c285 fcbd 0578 5c3e 14df 143d 8050 ab3e
00000180: 4a1a 883d 842b 0cbe 26b3 7c3e ac82 363d
00000190: cb97 653d 5d44 f2bd 537d e43c 274d cabd
000001a0: b5c9 84bc cf15 98be af84 6f3c f0b1 89be
000001b0: 0165 a1bd 73d5 7e3e 9d36 88be c6b3 71be
000001c0: 3bcd ddbd bc71 acbd 7ef9 873d 8ed8 873d
000001d0: 2e2d 5d3e ca42 8bbe 2935 95bc f2bd 373e
000001e0: e6df a73e d9b1 bfbc a242 77be 470a 043e
000001f0: afa6 423e 049d 64be bdd4 59be f47b 1c3e
-0.34383848 -0.023452813 0.12411877 0.1440214 0.3172098 0.37180993 0.35537112 0.2822754
0.27977756 -0.049057137 -0.29612863 -0.11964664 -0.019153347 -0.20160815 0.20851669 0.12511595
0.07190076 0.099694364 0.34815603 0.13896778 -0.32035628 -0.2535921 0.16580975 0.05752354
0.19307336 -0.3565423 -0.35758793 0.2291201 0.21981362 -0.31982547 0.16011894 -0.2826354
0.26247016 0.15524301 0.37422517 -0.34614447 -0.348954 0.2356819 0.3299326 0.25147325
0.27430335 -0.30107328 0.28314027 -0.35256508 0.10705771 -0.23904444 -0.15400134 0.063093424
-0.14376141 -0.06087181 -0.3544579 -0.33807623 0.13520528 -0.1456613 -0.212262 -0.13847841
-0.2716994 -0.3053281 0.25228703 0.2068554 0.048602816 -0.2110888 0.13445036 0.018066283
-0.26356876 0.09885838 0.36424902 -0.35034958 -0.38820505 0.06403733 0.29392692 -0.23653772
0.099486165 0.28737038 0.106081046 0.0834888 0.3715813 0.25927746 -0.21362562 0.009637756
0.17069975 0.32862052 -0.34887958 0.2082856 -0.072157145 -0.3684171 0.09082275 -0.1791418
0.0534433 -0.23188184 -0.3046107 -0.039290134 -0.123302 0.21530159 0.036345556 0.33459854
0.06645639 -0.13688475 0.24677715 0.044558212 0.056052964 -0.118294455 0.02789179 -0.09877997
-0.016209463 -0.2970414 0.014619037 -0.26893568 -0.07880593 0.24886112 -0.26604167 -0.23603734
-0.1083016 -0.084201306 0.06639384 0.066331014 0.21599266 -0.27199394 -0.018213825 0.17943552
0.32788008 -0.023400234 -0.24146512 0.12894545 0.19008897 -0.22325522 -0.2127256 0.1528166

weight f4 [128, 128]
00000000: 1456 2ebc 55e3 b6bd 6550 61bd e2cf 173d
00000010: b9b6 02bd a374 5a3d 3e7d b83d 7163 e13b
00000020: af90 733c 6d2c b4bc 48d7 03bc 0f87 853c
00000030: d66d 4bbd c146 10bd 9045 a7bd 0d0e a43d
00000040: 32e5 94bd a125 a13d 1a5d 853b 1e44 2abd
00000050: d099 0b3d 1023 353d 9065 ae3d f4c6 733d
00000060: 40ee bcbd 4764 bf3d d17e 7abc 0ec2 3ebd
00000070: 755d 5d3d af92 653d 5330 8bbd a4f0 e3b9
00000080: 0fbf 9f3d f142 f83c 084b 963d 91ef 3fbd
00000090: a2b2 b5bc feda 913d 0f82 f33c 1132 e23d
000000a0: 8e3c dbbc e0b6 23bd 02c3 c739 21fa 8cbd
000000b0: 12c2 803d 57ce 973d 6d4c d33c ca8f 55b8
000000c0: 08c0 643d 2b33 54bd ad40 b33d 189b a1bd
000000d0: 31db b2bd 0b5b 173c 7b47 913d 4f83 7f3c
000000e0: b9d5 c33c eac8 87bd 5f49 4b3d 8d9d 9f3c
000000f0: dd00 113d e8d0 463d 3a47 093d 0e9e aabc
00000100: 2c5a 1bbc 875f 32bd 20e6 c3bc 5150 643d
00000110: 1184 10bd bb09 643d 3789 01bd 34b5 f2bc
00000120: 141c ce3b 7553 6dbd f822 213b 1ee9 a3bc
00000130: 6cde 363c d29e 033c a65e 813d 2782 703d
00000140: 85c8 7bbd 9783 2e3d cde3 a1bd ff44 87bd
00000150: 0c1d 103d 1174 dcbb 0f72 55bd 4f7c a1bd
00000160: de24 18bd adac b13c d1da a5bd 1345 b5bd
00000170: 4c7a 943c 2d90 15bd 9bd5 9bbd 1221 d0bc
00000180: 8e81 fcbb 3274 babd 0649 40bd 963b 013d
00000190: 1233 9fbd 9331 06bc 1cf0 34bd 8fbd 84bd
000001a0: 2c62 283d 57eb 66bd 8fa4 76bd 7a5d 623d
000001b0: 4f05 0c3c d74e c93d d835 47bc a12c 4bbd
000001c0: 29cb 633c f03f 5bbc 0169 923d d0f3 97bd
000001d0: 4fcd ceb9 29ed 843d 7ccd 23bd 69f4 29bd
000001e0: 2ea4 603d 6078 a1bd 04b9 083d 0db1 76bd
000001f0: 8dd5 623d 8a99 a0bd 7ecb 603d 0680 9ebd
00000200: ab96 52bd 1c7d deb9 bf63 853d e820 a5bd
00000210: 50ad 35bd 48ec 913d 5df9 8dbc 48fc f03c
00000220: 2006 b1bd 2e36 1fbd a5fe 4ebd ff00 883d
00000230: 3e5b 043d e3b1 80bd 60e0 1e3c 5cce febb
00000240: 5dc1 15bd d2d0 5abd 7258 f4bc c08f 833d
00000250: 0230 84bd 309a 9dbd d645 ccbc 57b7 95b9
00000260: c633 873c ed99 ccbb 1d45 e2bc 6cc6 54bd
00000270: 43d9 bebc 1cf4 29bd d569 763d a733 b4bd
00000280: c3a5 76bd 1c70 a7bd a120 bebc 519a 893d
00000290: e8e3 cc3c ac93 b1bd 93f8 92bb b94d 323d
000002a0: da8f 1c3d 6732 cb3c 07ce a23b 87d9 82bd
000002b0: 8f75 4f3d 6494 0fbd f48f 1c3d eea7 c5bc
000002c0: 93cc 093d 78e1 9d3d 8f92 993d d084 a1bd
000002d0: 670f 7ebd 3cdb 15bd b09b 7fbd 2177 993d
000002e0: 6e71 40bc 7f49 7ebd 4115 3fbd cffe 66bd
000002f0: d664 0a3d e0d1 9fbd 4477 a6bd 5dd9 9cbd
00000300: 53fd 033d cd36 373d db1d 6dbd 8b83 3a3c
00000310: 2ca4 853d 4229 173c 1097 c2bc 65d6 a1bb
00000320: 2511 37bc b7df 213d cd45 78bd 743c 193d
00000330: f8e3 553d 0d0e 7ebd c0cc 8f3d 9b7a a23d
00000340: ebbb 32bd 8148 f2bc cbb6 203d 352d a1bd
00000350: 3af0 013d 7579 a03c b80d 623d e885 afbd
00000360: 69ee 9fbd d8e7 223d cb91 c53c 7827 bcbd
00000370: 71a1 69bd 9215 b7bd 1807 8cbd b7df 34bd
00000380: 9d6d 893d e48b ccbc daaf 3e3d 466f 953d
00000390: 33b8 e43c e854 a1bd 549b 193d 89e1 db3c
000003a0: ea43 8a3d 0ae0 c4bd 8705 4b3d 0466 893d
000003b0: 8c4a b5bd d7e7 9f3b aa72 933d e05b 75bd
000003c0: 707a 0b3d 983b 233d a5bf a13c 7319 a73d
000003d0: 65cc 903d d39f 853d 5b70 69bc 6843 9c3d
000003e0: db1c b5bd 794a 48bd de77 9cbc f3fe 0fbd
000003f0: b652 973d acb3 243d 3bdf 673d ec8a 683d
-0.01064064 -0.08930079 -0.05500831 0.037063487 -0.03191254 0.05333389 0.09008263 0.0068783094
0.014866038 -0.02199384 -0.0080469325 0.016299753 -0.049665295 -0.035223726 -0.08167565 0.080104925
-0.07270278 0.07868505 0.0040699365 -0.041568868 0.034082234 0.04422289 0.08515465 0.05951591
-0.0922513 0.09345298 -0.015289024 -0.046571784 0.054044206 0.05604809 -0.067963265 -0.00043476105
0.078001134 0.030305358 0.0733853 -0.046859328 -0.022179905 0.071218476 0.029725103 0.11044706
-0.026762273 -0.039969325 0.0003810153 -0.06883646 0.06287016 0.07412403 0.025793279 -5.091707e-05
0.055847198 -0.05180661 0.0875257 -0.0789091 -0.08733214 0.009238015 0.07093712 0.015595271
0.023905622 -0.06630118 0.04963052 0.019484306 0.035401214 0.048539072 0.033515193 -0.02082732
-0.009481948 -0.043548133 -0.023913443 0.05574066 -0.0352822 0.055673342 -0.031625 -0.02962742
0.0062899683 -0.05794092 0.0024587493 -0.02000862 0.011161428 0.008033471 0.06316881 0.058717873
-0.061470527 0.042605963 -0.07904778 -0.06604957 0.03518395 -0.0067277034 -0.052110728 -0.07885038
-0.037144534 0.021688784 -0.080983765 -0.088510655 0.018124722 -0.03651445 -0.076091014 -0.025406394
-0.007705874 -0.09104194 -0.04694464 0.031550966 -0.07773413 -0.00819053 -0.0441743 -0.06481468
0.04110925 -0.05637678 -0.06021553 0.055264927 0.008546188 0.09829491 -0.012158833 -0.04960311
0.013903418 -0.013381943 0.07148934 -0.074195504 -0.0003944435 0.06490547 -0.039990887 -0.041492853
0.054844074 -0.07884288 0.03337957 -0.060227443 0.05537944 -0.07841785 0.054881565 -0.07739262
-0.05141322 -0.00042436353 0.06513166 -0.08062917 -0.044354737 0.07125145 -0.01733082 0.029417172
-0.086437464 -0.03887003 -0.050535817 0.06640815 0.032313578 -0.06283929 0.00969705 -0.007776065
-0.03656136 -0.053421803 -0.02982733 0.064239025 -0.06454469 -0.076954246 -0.024935644 -0.00028556093
0.01650418 -0.0062439353 -0.027620846 -0.051947042 -0.023296958 -0.041492566 0.060159523 -0.087989144
-0.060216676 -0.0817568 -0.023208918 0.06718887 0.025011018 -0.08670744 -0.0044851988 0.043531153
0.038223125 0.024804307 0.004968408 -0.06389146 0.050649222 -0.035053626 0.038223222 -0.024127927
0.033642363 0.077090204 0.07498657 -0.0788666 -0.062026408 -0.03658603 -0.062404335 0.07493425
-0.011745794 -0.06208181 -0.04665113 -0.05639535 0.03378757 -0.07803702 -0.08128217 -0.07658646
0.03222401 0.044729996 -0.0578898 0.011383901 0.06525454 0.009226145 -0.023753673 -0.004938888
-0.011173521 0.03951999 -0.060613442 0.03741117 0.05221936 -0.06202512 0.07021475 0.079335414
-0.043636244 -0.029575588 0.039236825 -0.07869951 0.03172324 0.019589165 0.055188864 -0.085704625
-0.07809145 0.039771885 0.024117371 -0.091872156 -0.05703873 -0.08939661 -0.068372905 -0.044158664
0.0671036 -0.024969049 0.046554424 0.07296614 0.027919864 -0.07877523 0.037501648 0.026840942
0.06751235 -0.096130446 0.04956582 0.06708911 -0.08852109 0.0048799324 0.07199605 -0.059902072
0.034052312 0.039851755 0.019744704 0.08159151 0.07070235 0.06524625 -0.014247979 0.07630044
-0.08843394 -0.048899148 -0.019100126 -0.035155248 0.07388823 0.04021041 0.056609374 0.05677311

bias f4 [128]
00000000: a9ac 203d 6b7d 99bd 7aba 9a3c 988a f33c
00000010: 003a 733c 0b45 673d 76a2 663d c9c4 603d
00000020: 08c8 80bd 7d67 3e3c 92c7 2b3d 2c44 7f3d
00000030: cdd8 48bd ca43 63bb 5c3d 6bbc b6eb 35bc
00000040: 6afc 543d cb18 6f3d 90d0 88bd dcf4 ae3b
00000050: db39 4fbd e895 353d f5cf dfbb 59f0 163d
00000060: 37db 1a3c 381b 9f3d e3c8 83bd 790e 693d
00000070: 64a4 e13d 33e0 96bc 4d0d 043d 7087 2dbd
00000080: ae2e ecbc 1b58 07bd a6be 403d 177a 743d
00000090: 0394 abbc e8e6 113b 14ea 8abd 0fc1 7a3d
000000a0: 416d 363d d14e 8a3c a389 19bd 6b47 623d
000000b0: 5f0e 4ebd 04c0 8b3d e43f 81bd 7ce5 3d3d
000000c0: 3e5f 93bd 28dc b43c 999f b63d 220f 803d
000000d0: 52c9 65bd 6023 07bc 6990 2d3c 9e22 1fbd
000000e0: 449f 98bb a27e b33d a6ff 6ebd 07f4 aebd
000000f0: 88dc 75bd 1679 bcb9 6df2 7bbc 86d7 043d
00000100: 38b3 24bd 7cb0 26bd 9caa 49bd caba 253d
00000110: 4faa 943d b8fe aebd a198 303d c1c1 843d
00000120: 347b 93bd 1244 14bd 7f8f 7c3d a602 f7bc
00000130: 9a62 5a3d f71c c8bb 2f7f 99bd 959f 5b3d
00000140: 6002 0b3c ed1b 34bd 2ccb dd3c 6f43 74bc
00000150: 4f9e f8bc fe5b 19bd 44ce 8bbd cce9 85bd
00000160: f190 a53a bc7d 19bd e9a8 be3c 1782 943d
00000170: 3a01 84bc 22b5 8bbd d514 99bd 8644 533d
00000180: ea80 2cbb 90a4 7fbd f40a 32bd c4d5 043d
00000190: 4845 733c 51b0 3e3d 9676 be3d 9f4f 38bd
000001a0: 66c3 d1bb cdb1 80bd 0174 bd3d 8fa6 94bc
000001b0: 8c7f 5bbc bfe0 4f3c a45a c2bc f837 a93c
000001c0: 6666 963d b071 0e3d e851 153d 8974 07bd
000001d0: 04d0 4a3d 51d1 d43d 6431 90bd c2f4 d1bc
000001e0: 7403 ca3d 8c12 ac3d 6665 c63c 8372 a43d
000001f0: 1099 20bc 5fbe 323d 5eb1 113d ffc5 b53d
0.03922716 -0.07494625 0.018887747 0.029729173 0.014845371 0.05646233 0.05630728 0.05487517
-0.06288153 0.011621353 0.041938372 0.062320873 -0.049034882 -0.0034677857 -0.014357891 -0.011103561
0.051998533 0.058373254 -0.06680405 0.005339248 -0.050592285 0.044332415 -0.0068302103 0.036850307
0.009451679 0.077688634 -0.064348005 0.056898568 0.11017683 -0.018417453 0.032239247 -0.04236549
-0.028830852 -0.03304301 0.047056817 0.059686746 -0.0209446 0.0022262875 -0.06782928 0.06121927
0.044537786 0.016883286 -0.037484776 0.05524389 -0.050306674 0.068237334 -0.06311014 0.04636143
-0.071959004 0.022077635 0.089171596 0.06252886 -0.056100197 -0.00824818 0.010593512 -0.038851373
-0.004657658 0.08764388 -0.058349274 -0.08542638 -0.060024768 -0.0003594837 -0.015377623 0.0324321
-0.04020998 -0.040695652 -0.04923497 0.04046134 0.07259046 -0.085446775 0.04311431 0.06482268
-0.072012335 -0.03619773 0.061660286 -0.03015263 0.05331669 -0.0061069685 -0.074949615 0.053618986
0.008484453 -0.043971945 0.027074419 -0.014908656 -0.030348925 -0.037441246 -0.068264514 -0.06538734
0.0012631697 -0.037473425 0.023273902 0.07251375 -0.016113866 -0.06821658 -0.074746765 0.05157902
-0.0026321956 -0.0624128 -0.043467477 0.032430425 0.014848061 0.046554867 0.09299962 -0.044997808
-0.006401467 -0.06283913 0.092506416 -0.018145828 -0.013397109 0.012687861 -0.023724861 0.02065657
0.0734375 0.03477639 0.036455065 -0.03307012 0.049514785 0.103914864 -0.070406705 -0.025629405
0.0986394 0.08401975 0.024218272 0.08029654 -0.009802118 0.043638583 0.03556954 0.088756554

weight f4 [128, 128]
00000000: b80b 8bbd 7da5 8c3c 1052 223d 72fd f5bc
00000010: 68d4 e9bc 3e80 063d b812 88bd 1588 533d
00000020: efbf 893d bf42 2b3d df4b 0abd 9f17 a03d
00000030: bb8e 2c3d 3274 9dbd 5511 babd e8fc ec3c
00000040: c425 023d 99d9 aa3d abc4 b63d 5216 ed3b
00000050: 16e4 0ebd 2017 d53a ef4f 7bbd 1748 c43b
00000060: 8c16 0d3d 9afb ec3c 4e92 133c 3e7f d53b
00000070: 7e0b 4e3c ed93 91bd e20e 28bd 719f b2bc
00000080: be53 023d 0c9e b73b d395 1cbd e221 4bbd
00000090: 5d21 01bd e5d4 a13d 4979 503d 8ff8 88bd
000000a0: 47a3 48bd 9b42 f13c 2086 9cbc ebcf d9bc
000000b0: 751b c1bd 5bd6 313c daf2 0f3c 1b4e 9a3d
000000c0: 6f51 ffbc fce0 3fbd edf6 383c dfd2 843c
000000d0: 738d 483b c78f a2bd 1ed8 563d 02e7 fbba
000000e0: e1d5 c2bc 5a83 84bc 91d9 9cbd ce87 02bd
000000f0: fcd4 d9bd 1ace f63c 9bf0 3cbd 376f adbd
00000100: 4fcf cabc 74b4 083d ed0d 46bd bbd9 8abd
00000110: bf12 00bd b951 943d 7141 3a3d 671b 103d
00000120: edf7 a3bc bebd 15bd b2fb 883b 6e36 893d
00000130: bf78 a1bd 96e3 903d a438 b6bd d4f6 bcbd
00000140: 6353 b9bd 5356 9d3c d3d6 b1bb 4e92 d83c
00000150: 5c9c 88bd e345 59bd de76 e03c 5d71 563d
00000160: 126a a5bd d227 363c 709d bebc 3f23 febc
00000170: 4d00 1f3d fbca 99bd a53a d13c fb2a 2fbd
00000180: b474 953d b4c0 06bd 3e02 363d 3165 99bd
00000190: 8e06 afbd bdf6 b63d c1f7 0cbd 9eb6 5cbb
000001a0: 5075 633d 1057 b93d b1a9 0e3c 9ad8 afbd
000001b0: 3d7e 10bd 4cab 853d b8d1 0e3d 452b 853d
000001c0: f54a 94bc bd23 a3bd 4cff 0fbd 3b33 823c
000001d0: 4bac 803d 3c34 4abd dbf1 3dbd 6e01 a43d
000001e0: ce00 9b3d 2f2b a93d c718 8b3d 4c6e 143d
000001f0: b179 0e3c 39f2 70bd 1c39 10bd 53bc a7bd
00000200: 55fb 7b3d 57fc 823d e3b2 223d 0e93 2fbb
00000210: 337f a9bd 4e3f 913d 5761 963c b321 ca3b
00000220: 8f0e 5abc 4e63 85bd ac6b 683b c6ec 8abc
00000230: efa2 bc3d dca0 8b3c 161d c93c 12ab 5e3d
00000240: 1c99 3fbd 9adf 973d b1e9 2b3b eae7 91bd
00000250: 5648 333d fd1e 71bd aa91 543d 569b ad3d
00000260: 6561 833b ec07 1cbd b03d 54bc fdbc 863d
00000270: 7dc9 6a3d 4698 8a3d a148 993c 5137 93bd
00000280: ad15 1a3d 09ac 783c 30c8 303c b105 993d
00000290: 889d 1cbd ac78 9e3d 3268 4ebd 71a6 78bd
000002a0: 6f72 4f3d 1f94 833d 8aa8 02bd 1571 a73c
000002b0: 7c6e 363c 83df 103d a24a 92bc 5f88 a5bd
000002c0: c284 c33c 7e93 bdbd 976c 89bd ac30 8abd
000002d0: 55ff 1d3d dfae 2a3d abe3 7abd b40f 9a3d
000002e0: 8ad1 73bd 0a23 8a3d 6dc8 fb3c 3c9f 02bd
000002f0: 883e 943d d39a 583d 0929 8a3d 35cf 94bd
00000300: df60 e0bc e152 99bd f939 843d 22b9 c83c
00000310: fabe 5bbd f3d0 b3bc 1023 5d3d d9ac c13d
00000320: 0969 013b 12a8 a1bd 41d3 28bd aab5 6a3d
00000330: 95ec 80bb d980 493d dc44 883d 1e07 04bd
00000340: 7f6c 3b3d ecda 033c 9135 4cbd 7d18 5fbd
00000350: 9a31 bf3c 8375 853b c778 463d 9b5c a03d
00000360: f5b7 a8bd a52c e5bb 0144 59bd 62c2 183d
00000370: 8edd 033d be3e ab3d b825 703d 4063 583d
00000380: 550e 9dbd 8c78 86bd 3136 c3bd 125f 6abd
00000390: bb9d 64bd 30cc 9d3d d23a 2fbd a296 823d
000003a0: 33bd 933d c0fa 553d 1dea 5b3d fa30 413d
000003b0: 804f b53c 000b 32bd 2f40 953d 7393 a03d
000003c0: e2d5 7d3d fe9e 87bd 771b 20bc 51be 3d3d
000003d0: 154f 85bb c4b9 1abc 79e1 52bd b079 483d
000003e0: 8ebb 2b3d ad46 bbbc b328 7d3d b763 11bd
000003f0: e16a 1c3d f049 07bb 4bf9 57bd 1283 673c
-0.067893445 0.017168755 0.039629042 -0.030028079 -0.028543666 0.032837145 -0.06644195 0.05164345
0.067260616 0.0418117 -0.033763763 0.07817005 0.042128306 -0.07688178 -0.09085337 0.028929189
0.031774297 0.08342285 0.0892423 0.007235327 -0.03488549 0.0016257502 -0.061355527 0.005990039
0.03444533 0.028928567 0.00900705 0.0065154126 0.012575982 -0.07108293 -0.04102982 -0.021804543
0.031818144 0.0056035575 -0.03822882 -0.04959286 -0.03152596 0.079019345 0.050896917 -0.06688034
-0.04898384 0.029450705 -0.019106925 -0.0265884 -0.09429065 0.010854329 0.008785928 0.07534429
-0.03116676 -0.04684542 0.01128934 0.016213832 0.0030601888 -0.079375796 0.0524522 -0.0019218626
-0.023783626 -0.016175915 -0.07658685 -0.031867795 -0.10636327 0.030127574 -0.046127897 -0.08468478
-0.024757056 0.03337522 -0.048353124 -0.0677981 -0.031267878 0.0724215 0.045472566 0.035182383
-0.020015681 -0.036557905 0.004180395 0.06699835 -0.078843586 0.070746586 -0.08897522 -0.09226766
-0.09049108 0.019206202 -0.0054272204 0.026436951 -0.06670448 -0.053045165 0.02740043 0.052354205
-0.08076872 0.011117892 -0.023268431 -0.031022666 0.038818646 -0.075094186 0.02554066 -0.0427656
0.0729765 -0.03289862 0.044435732 -0.07490004 -0.08546172 0.0893378 -0.034415964 -0.0033678184
0.0555318 0.09049809 0.00870745 -0.08586235 -0.03527664 0.06526813 0.034867972 0.06502394
-0.018102149 -0.07965801 -0.03515558 0.01589357 0.06282862 -0.04936622 -0.04637323 0.08008085
0.07568513 0.0826019 0.06791835 0.036238 0.008696006 -0.05882475 -0.035210714 -0.08190217
0.061518986 0.06395786 0.03972138 -0.0026790532 -0.082762145 0.070921525 0.018356962 0.006168568
-0.013309135 -0.065130815 0.0035464568 -0.016958605 0.092107646 0.017044477 0.024550002 0.054362364
-0.046776876 0.074156955 0.002623182 -0.07124312 0.043770157 -0.058867443 0.05189673 0.084768936
0.004009413 -0.038093492 -0.012954161 0.065790154 0.05732106 0.06767325 0.01871139 -0.07188285
0.037618328 0.015177735 0.010789916 0.07471789 -0.03823617 0.0773786 -0.050392337 -0.060705606
0.05064624 0.06424736 -0.031899013 0.020439664 0.01113474 0.035369407 -0.017857853 -0.08082651
0.023867015 -0.092566475 -0.06710165 -0.06747565 0.03857358 0.041670676 -0.061252277 0.075225264
-0.059526004 0.067449644 0.030735219 -0.03189014 0.072384894 0.052882027 0.06746108 -0.07266084
-0.027389942 -0.07486511 0.0645637 0.02450234 -0.053648926 -0.02195022 0.053988516 0.09456796
0.0019746444 -0.07893385 -0.041217092 0.057302155 -0.003934453 0.049195144 0.06653759 -0.03223335
0.045757767 0.0080478005 -0.049855772 -0.054466713 0.023339082 0.0040728464 0.048455026 0.07830163
-0.08238212 -0.0069938474 -0.05304337 0.037294753 0.032193713 0.083615765 0.05862972 0.052829027
-0.07668749 -0.06565961 -0.095318206 -0.057219572 -0.055814486 0.07704961 -0.042780705 0.06376387
0.07213821 0.052241087 0.053690065 0.04716585 0.022132635 -0.04346752 0.07287633 0.07840624
0.061971553 -0.06622122 -0.009772173 0.046324078 -0.004068265 -0.009443704 -0.05148456 0.048944175
0.041926913 -0.02286085 0.061806392 -0.035495486 0.038187865 -0.0020643435 -0.05272798 0.014130371

bias f4 [128]
00000000: 6bbf 9a3c 4b6b aa3d dbc6 d33c b302 9c3d
00000010: 0db7 833c 4db0 e4bc 317c 193d 3611 6f3d
00000020: 5049 0cbd 0795 933c 0a56 7b3d 5492 53bd
00000030: d7bd 9e3d 377a 913d 491b 85bc eefc 6b3d
00000040: 0af1 a43d 1025 163c db66 a5bc 6224 6abd
00000050: 91ed 393d 9587 98bd 36d1 353b 4f49 81bd
00000060: 98a5 a53c ad83 703d 7f99 833d 85f1 a93d
00000070: 39d5 abbd 93ff 9c3d 8751 603d ff0b 5bbd
00000080: fbb2 ae3d 18ce 3fbd dc92 b53d 5a8e 183d
00000090: a36b 8abd d52f 6d3c 888c 26bd fed3 bbbd
000000a0: 98fe 353d d102 1cbd 48e6 34bd 4d47 103d
000000b0: 7d7e 29bc 7e69 4d3d cf1e 00bd 6df4 58bd
000000c0: 32af 773d 2498 843d be73 5ebd 3306 d33c
000000d0: 2a36 443d 92fc 23bd 9fe4 49bd 647c b33d
000000e0: a005 b43d 6879 b63c ac6f a13d 2cf3 3ebd
000000f0: 160c ac39 3899 9f3d 84ff 14bd b364 81bc
00000100: f7dc 21bd 143c 37bd 908a 563d 502d a4bd
00000110: 77e6 ca3d 137c eb39 b798 57bd 2f0f 6cbd
00000120: 5afc 82bd bac5 a03d e2fb c33d 4f57 543d
00000130: dda4 ab3b 60a6 f1bb 2611 eabc 0059 b93d
00000140: 8a69 7b3d 84e3 aa3c 27ed 063d 1902 9f3d
00000150: 96b2 5ebd 5054 f2bb fbd4 1fbd 14d1 10bd
00000160: 1dac 8c3b 489e ce3d 1841 823d b56d a9bc
00000170: a2d1 a6bd 2135 053c 9724 603d a4f4 a93d
00000180: 4b97 45bd de9a 913d cd00 4abd ef56 103c
00000190: 5721 a2bd f034 12bd 368e 2dbd a4e5 84bd
000001a0: e4ab 56bd 84f3 893d 7348 eabc 0f5f fd3c
000001b0: eca3 88bd 1980 0f3d 6a60 673d 2398 063d
000001c0: 0147 573d 7be6 cabb 3655 b33c 8d27 aabb
000001d0: 6af8 6d3d 3d33 2abd fb0f 243d e0d8 d9bb
000001e0: f266 273d 1fe2 563c 37f1 c13d e6df 2b3d
000001f0: c7a7 793d 3054 c63c d2fa 063d 4eb9 39bd
0.018890103 0.08321246 0.025851658 0.07617702 0.016078496 -0.027916098 0.037471954 0.058366023
-0.034249604 0.018015398 0.06136135 -0.05165322 0.07751053 0.07103389 -0.016248362 0.05761426
0.08053787 0.00916411 -0.020190647 -0.057163604 0.045392577 -0.07447735 0.0027743108 -0.06312811
0.020220563 0.058719326 0.064257614 0.08298019 -0.08390278 0.076659344 0.05476525 -0.053478237
0.085302316 -0.046827406 0.08865902 0.037245132 -0.06758811 0.014476736 -0.040661365 -0.09171294
0.044432253 -0.038088623 -0.044164926 0.035224248 -0.010345099 0.050149433 -0.03127938 -0.052967478
0.060469814 0.06474331 -0.0543096 0.025759792 0.047903217 -0.04003579 -0.049290296 0.0876396
0.087901354 0.022274688 0.07882628 -0.046618626 0.000328154 0.07792896 -0.03637649 -0.015795087
-0.03951737 -0.04473503 0.052378237 -0.08016455 0.09907239 0.00044915135 -0.052635875 -0.057631668
-0.063957885 0.07850213 0.09569527 0.051841076 0.005238159 -0.00737457 -0.02857263 0.090501785
0.061379947 0.020860441 0.03294101 0.07764072 -0.05436953 -0.0073953047 -0.039021473 -0.035355642
0.0042929784 0.100887835 0.06360072 -0.020682195 -0.08145453 0.008130343 0.054722395 0.082986146
-0.048239987 0.07109617 -0.04931717 0.008809789 -0.07916515 -0.035695016 -0.04237195 -0.06489113
-0.05241002 0.067359 -0.028599 0.030929117 -0.066718906 0.035034273 0.056488432 0.032859933
0.05255795 -0.006192026 0.021891218 -0.005192703 0.058098234 -0.04155277 0.040054303 -0.006648168
0.04086966 0.013115435 0.09469836 0.041961573 0.06095102 0.024210066 0.032954045 -0.045342736

weight f4 [128, 128]
00000000: 7436 093d 4973 803c 311d e8bc b6fd 093b
00000010: 509e a83c 859a 9f3d 9b13 3c3d e805 58bd
00000020: 7b65 8f3d 4683 f4bb 307c 933d 0042 4ebd
00000030: 23c6 8cbc 1b77 3abc 8a8a 8a3d 346c 45bd
00000040: af1b 82bd 0f88 87bd c7ef ae3d d251 8b3d
00000050: 14c2 f1bb 2b64 443d eb89 94bc 9c6b 31bd
00000060: dacd acbd 3f57 8dba 34fb 393d 11a0 883b
00000070: 9455 be3d 4c14 b0bd 51cd aabd ca57 a53d
00000080: fd3c 9d3c 0af7 223c d0da 9fbd 1f60 973d
00000090: def2 a53d 7e57 5bb9 86b2 6a3d fdbf 613d
000000a0: 6254 a6bb 923e 68bd f596 51bc 459e 903d
000000b0: ec97 fabc 0e69 54bd c282 9ebd 3c18 943d
000000c0: d065 823d 1dbb 873d 38f9 9dbc d387 443d
000000d0: c79a 96bd 9109 7a3d 7f21 033c 21fe 3bbd
000000e0: 960e 8bbd a3f9 4dbd bdf2 95bd 72e8 213d
000000f0: 5348 103c 79a6 5b3d d499 82bd 7295 85bd
00000100: 9f6a 90bc 3c40 953d 10cf 0abd adac c63d
00000110: b890 8f3d 6fe4 423d fa30 9a3d ee8c b6bd
00000120: b37d 443d 1a01 a0bd c74d a6bd e9b8 653c
00000130: 1d81 863c a8a8 45bd 821d 8a3d c032 203d
00000140: dc2d 33bd ef7d a53d 266c 883d 78cb 91bd
00000150: 9172 f8bc 52a4 71bd da26 7f3d 049e d03c
00000160: ac10 a5bc 9958 bc3b 0d53 8bbd 8fa6 2fbd
00000170: 0893 333d 77c2 57bc 083e b33b 8116 e73c
00000180: 913c 423d 5043 26bc e21a 823d edb6 4fbc
00000190: f14a 6cbd 0459 1b3d 3105 c6bc c926 80bd
000001a0: 10d9 67bc 4528 92bd 956b 2b3d 7717 763d
000001b0: ce66 433d 0f7e 333d 964a 863d 591d d03c
000001c0: b9e6 0d3d d349 8b3d be5e 20bd 9c85 10bd
000001d0: 00e3 cf3c 9c61 283d f73c 813d 4884 9b3d
000001e0: bdc3 adbd 1c84 c3bd 1c9d 693d 99a1 93bd
000001f0: 7a6f 233d c517 5b3c b6f8 ce3d 72f0 a1bb
00000200: 660f a03d ec8b 3e3d 2be6 28bd 25ab 1ebd
00000210: c564 7bbd 2be3 2c3d 4edb 34bd b36f 15bd
00000220: c5a7 b03c 9ccf 9d3d 6468 9bbd 7f82 17bd
00000230: 1e64 3abd b187 5ebd 719f 00bd 0b40 6e3d
00000240: 7cf4 56bc 7fc2 f7bc be33 e739 fd57 32bd
00000250: f146 c63d fb4f d5bc cfd0 91bd 8013 bcbc
00000260: b1c2 2c3d 12d9 9abd f61b 8d3d 40dc d4bb
00000270: 3ed8 5dbd 54e5 1ebd 3172 a93d 3853 d4bc
00000280: 5db7 0abd 8d1c 053d 8aea d73d f16a 3e3d
00000290: 7704 733d bac2 9cbd 408a 83bc 51e7 9bbc
000002a0: b87a ae3d 9d48 9c3d 24e8 f6bc 3aa4 84bd
000002b0: d6b4 a63d adc2 f6bc f693 69bd a5c1 9c3d
000002c0: ba87 9b3d 720c e73c cdb0 c3bc 030f 8f3d
000002d0: e785 98bd 03c6 bc3c c125 9cbc 1917 1dbb
000002e0: 41ef 0f3d af92 3f3d b7a7 abbc b10d 8d3c
000002f0: 2860 58bc b41c 80bd 279d 9dbd 97e9 a0ba
00000300: 1d67 4fbd 58d3 883d c022 233d 8807 69bd
00000310: 9a79 95bc 4c8e 93bd 8432 803d 8846 873d
00000320: 3a5b f23c 6357 85bd f0da a93d f887 9abc
00000330: 29ff 70bd 6358 3e3c e48b b03d 79b2 21bc
00000340: 7338 fd3c 61b4 5f3d 9e02 0b3d 1289 2f3c
00000350: 0c61 903c 38b4 573d 788c c63c f899 8f3d
00000360: ddd8 9dbc 1edf f03c b636 c33d 88cd a63d
00000370: d3fe 26bc 0bdf 81bd 4784 6ebd e230 c33c
00000380: 86be 05bd ce28 c03d 4320 373d 50a1 aebd
00000390: 8014 843c 9093 5d3c fac1 91bd 5e0a cabb
000003a0: 1528 9d3d 1cb9 b43d 47aa 8fbd 940f 4a3d
000003b0: 945e e8bc 2e57 db3c 49ec f33c 1cf4 3b3d
000003c0: 5b36 af3d db4b ae3d b133 b03d c623 6f3d
000003d0: d9d9 20bd be66 9d3d 6934 a2bd 8d48 583d
000003e0: cca6 d6bc edc4 9a3d 80f9 c33c 09ad ac3d
000003f0: 5e32 323d 93fc dbbc 309f 9539 35fb 42bd
0.033499196 0.015679972 -0.028334232 0.0021055765 0.020583302 0.07793144 0.045917135 -0.052740008
0.07001778 -0.007461938 0.07201421 -0.05035591 -0.017184323 -0.011380936 0.067647055 -0.048198894
-0.063529365 -0.06617748 0.08541828 0.06802715 -0.0073778722 0.04794709 -0.01813217 -0.043315515
-0.084377006 -0.0010783448 0.04540558 0.004169472 0.092936665 -0.08597621 -0.08339942 0.08073385
0.01919412 0.009946594 -0.07805407 0.073913805 0.08102964 -0.00020918061 0.05729916 0.055114735
-0.005075977 -0.056700297 -0.012792339 0.070614375 -0.03059002 -0.051858 -0.07739784 0.07231185
0.063670754 0.06627486 -0.019283876 0.047981095 -0.0735374 0.06104428 0.008003592 -0.045896653
-0.067898914 -0.0502869 -0.07321689 0.039528318 0.008806306 0.053625558 -0.06376997 -0.06522645
-0.017628966 0.07287642 -0.033888876 0.09700904 0.07010025 0.047581133 0.07528873 -0.08913599
0.04797144 -0.0781271 -0.081203036 0.014021137 0.016418988 -0.048256546 0.067439094 0.0391109
-0.043744907 0.080806606 0.06661253 -0.07118887 -0.030328067 -0.0589946 0.06229291 0.025465973
-0.020149551 0.0057478664 -0.0680295 -0.042883452 0.04384139 -0.013168923 0.005470041 0.028208973
0.047421042 -0.0101478845 0.06352784 -0.01267789 -0.057688657 0.03792669 -0.024172397 -0.06257398
-0.014150873 -0.07136587 0.041850645 0.06008097 0.047705464 0.04382139 0.06557195 0.025404619
0.034643862 0.0680119 -0.039152853 -0.03528367 0.025376797 0.041108713 0.06310456 0.0759359
-0.084846 -0.09546682 0.057034597 -0.07208557 0.039901234 0.013372366 0.101060316 -0.0049419934
0.07815437 0.04652016 -0.04123513 -0.038737435 -0.0613754 0.04220883 -0.044154458 -0.036483478
0.021564374 0.07705614 -0.0758827 -0.036989685 -0.045505635 -0.054328624 -0.031402055 0.058166545
-0.013119813 -0.03024411 0.00044098304 -0.043540943 0.096815 -0.026039114 -0.07119905 -0.022958517
0.04217786 -0.07560934 0.06890099 -0.0064959824 -0.054161303 -0.038792923 0.082737334 -0.025918588
-0.033866275 0.03249793 0.10542782 0.046488706 0.05933043 -0.07654329 -0.016057134 -0.019031199
0.085195005 0.076310374 -0.03013999 -0.06476636 0.081399605 -0.030122126 -0.057025872 0.07654122
0.07594247 0.028204177 -0.023888016 0.06985285 -0.07447415 0.023043638 -0.019060971 -0.0023970066
0.03514028 0.046770748 -0.020953996 0.017218443 -0.013206519 -0.06255475 -0.0769599 -0.0012276646
-0.050635446 0.066809356 0.039828062 -0.056891948 -0.01824646 -0.07204875 0.06259635 0.0660525
0.029584516 -0.06510808 0.08293712 -0.018863663 -0.05883709 0.011617753 0.08620432 -0.009869211
0.030910706 0.054615382 0.033938043 0.010713832 0.0176244 0.052662104 0.024236903 0.07011789
-0.019268448 0.029403266 0.0953192 0.08144671 -0.010192591 -0.0634137 -0.05823162 0.02382702
-0.0326524 0.09382783 0.0447085 -0.08526862 0.016123056 0.013523951 -0.07117076 -0.0061657866
0.07673661 0.08824369 -0.070149 0.049331263 -0.02836541 0.026774969 0.029775755 0.045887098
0.08555289 0.08510562 0.08603609 0.058383726 -0.039270256 0.07685612 -0.07920153 0.052803565
-0.026202582 0.07557092 0.023922682 0.08431441 0.043505065 -0.026853835 0.000285381 -0.04760285

bias f4 [128]
00000000: f354 47bd 0c01 0c3d 9e26 063d 276f 0bbd
00000010: df27 02bd a542 b5bd bd1b ca3c 3c9a 86bc
00000020: e55a 26bd 52f0 7d3d 787e aebd 4e08 4ebd
00000030: 613a 7f3d 848a 0d3c caa7 56bd 7562 a63d
00000040: 9b1e 07bd 5e92 46bd 0b47 4f3d 59d5 f43c
00000050: 3927 ab3d a2e3 8f3c 5d4b 6fbc ee7a a8bc
00000060: 3490 913d 67ef 993d 45db 4b3d 0e43 683d
00000070: 97d4 033d f667 05bd 30f9 d4bc 0726 edbb
00000080: e1cd 24bd a380 cb3d f00e a63d f38e 27bd
00000090: 4912 3b3d e252 a1bb 381a 9c3d d1ee e9bc
000000a0: ec4f c53d 0006 07bc d8e1 7d3d 2fda 8c3d
000000b0: d2d9 f53a ce47 263c 0a7b 433a 9b1e 85bd
000000c0: cc96 e53c a70d 113d 7ce2 b1bc 7864 793c
000000d0: bfa8 a03d 733c 84bd fb17 a73d 6118 ab3c
000000e0: 1162 613d 6add 113d 920c 893d 7db7 a53d
000000f0: 6a2b 213d d375 4dbc ace1 65bc e610 9cbd
00000100: 0685 bcbd 97ab acbd 8cdc c03d 54a7 9ebd
00000110: 2874 5a3d 95ab bcbd b53b be3d 5794 213d
00000120: 5aef 093d 82d7 ddbb 4863 58bc 5f73 bd3d
00000130: 36eb 7d3c 5d87 53bb 1e3e 093d d32e a53d
00000140: 800e c6bc 43bd 613d 72fa 2abb 757f 28bd
00000150: def3 e43c 399e 153d bd32 24bd a8ef 36bd
00000160: 85bf 68bd 3872 69bd a99b b33d 8b39 9c3d
00000170: 8844 9dbd 9adf aa3d bdc5 25bb 3afa 4939
00000180: decd 513d 005c 923d ec38 2f3b 2566 fb3c
00000190: e4ef cb3c 085f 94bd 0511 a53c aaba a6bd
000001a0: 3185 ad3d 3085 6fbd 8ba8 1a3d 446b b53d
000001b0: dd28 943d eec9 85bd e623 84bc 0aeb 8a3d
000001c0: 25cd 1dbd b1d5 b23c 4de4 34bd 11c5 b43c
000001d0: bd6c 283d 5cfe 163d 6a4e 3e3d fca9 c3ba
000001e0: b161 98bd 3077 863d 5877 913d 9cef 8f3d
000001f0: 9851 97bd f7c1 81bc c23f 89bd b9f7 4abd
-0.048665 0.034180686 0.032751672 -0.03404155 -0.031776305 -0.08850602 0.02467143 -0.016430967
-0.040614028 0.061996765 -0.08520216 -0.05030089 0.062311534 0.008638982 -0.05240611 0.08124248
-0.032988172 -0.04847943 0.05060486 0.029886888 0.083570905 0.017564598 -0.01460537 -0.02056643
0.07107583 0.075163655 0.04976966 0.056704573 0.032185163 -0.032569848 -0.025997728 -0.007237199
-0.040235404 0.09936645 0.08108318 -0.04090781 0.045671735 -0.0049232105 0.07622188 -0.02855626
0.096343845 -0.008241177 0.06198296 0.06877553 0.0018756932 0.0101489555 0.0007456994 -0.06499978
0.028026007 0.03541341 -0.021714441 0.0152217075 0.07844686 -0.06456842 0.08158871 0.020885648
0.055025164 0.035611548 0.06691851 0.08091638 0.039348044 -0.0125402985 -0.014030855 -0.076204106
-0.0920506 -0.08431166 0.09417066 -0.07746759 0.05333343 -0.09212414 0.09288732 0.03944811
0.03367553 -0.0067700753 -0.013207264 0.09250521 0.015497973 -0.0032276728 0.033506505 0.08065572
-0.024176836 0.055112135 -0.0026089218 -0.041137177 0.027948316 0.036527846 -0.04008745 -0.044662148
-0.056823272 -0.056993693 0.08769924 0.07628163 -0.07679087 0.0834343 -0.0025294863 0.0001926207
0.05122172 0.07146454 0.002673681 0.030688355 0.024894662 -0.07244688 0.020149717 -0.08141072
0.0847267 -0.058476627 0.03775839 0.0885835 0.072343566 -0.06532656 -0.016130399 0.067831114
-0.03852572 0.021830412 -0.044163037 0.022066625 0.041119326 0.03686367 0.0464615 -0.0014927979
-0.07440508 0.06565702 0.07102841 0.07028124 -0.0738861 -0.01583956 -0.06701614 -0.049552653

weight f4 [1, 128]
00000000: 010a a0bd 8dbe 6d3d a84d 7e3c 952a 873c
00000010: c71b d2bd 936a 273d 7f8b 3d3c ceb1 163c
00000020: 98a4 1ebb f87c f6bc ad7f 223d 1b18 063d
00000030: 76ac bebc 8747 833d 241b 9c3d 03b7 fe3c
00000040: 41fa 193d 209d 00bd aecb 2dbd ff49 84bd
00000050: 0055 573d 3233 243d bf08 d0bd b6a5 0ebd
00000060: 4dd8 9c3d 974d b43d 205c 2f3d dd33 5d3c
00000070: 855d 80bd 8100 20bd 9a59 80bc ba35 b5b8
00000080: 3337 81bd da8e d13d 9e8b 593d d619 503d
00000090: 991a 95bd 6e70 a83c eae9 853d f9a5 323d
000000a0: 51f2 b43d 6a13 2cbd eb67 7cbd 2c5b 48bd
000000b0: 93af dabd 38a9 b33d eb5c 7abd 15db 743d
000000c0: 8025 663d 001c ea3c 715d d63c f683 93bd
000000d0: 08c5 8c3c 965b 37bd 5ba6 b83c a284 3d3d
000000e0: a84c 0a3d fae9 9e3d 02ec 18bb 2969 b63d
000000f0: 7a5d 91bd 0bd4 d2bd 6d6d ca3c 386d 733d
00000100: 4147 493d 387f 0f3d 3dba b33d d27a bf3c
00000110: dd15 10bd f3fd 0dbd bb3c 213d 3060 213d
00000120: 4219 253d 9096 69bd 8d52 e6bc b5fc 113d
00000130: 30d4 0d3d 0756 9dbc 9add 7dbd 1bba 6a3d
00000140: 632c 23bd d4c8 1a3d 81f3 cabd f818 7e3d
00000150: 1bdc 2dbd 8431 c6bd c551 c73c 3039 793c
00000160: 3c97 863b 403f a8bd 0227 50bd 7b21 b13d
00000170: f9a8 033d 51f8 423d b978 b03d 4335 b3bc
00000180: 977f d8bd b112 1cbd f1f2 9ebd 39fa 9f3c
00000190: 99eb 813d babd b53d fe91 fc3c 028c b23c
000001a0: 7ec3 0d3d df5b 9a3d c142 f33c 3c1f 123d
000001b0: 721a 74bd d78b d73b 4431 d9bd 7e77 6a3d
000001c0: 91ce 4cbb fd2a 843d ea99 86bd f6b1 a03d
000001d0: 2904 d0bc b226 3c3d 0a28 b73c 634a 4b3d
000001e0: d5ea 7a3d 51ee c33d adcd a3bd f805 d6bd
000001f0: 656d a6bd bece 163d 0db0 85bd 6082 da3b
-0.07814408 0.05804305 0.015521444 0.016499797 -0.10259204 0.04087312 0.011568903 0.009197665
-0.0024206992 -0.030088887 0.039672542 0.032737833 -0.023275595 0.06410127 0.07622364 0.031093126
0.037592176 -0.031399846 -0.042430572 -0.06459426 0.052571297 0.040087886 -0.10157918 -0.034826003
0.076584436 0.088038616 0.042812467 0.013501135 -0.062678374 -0.03906298 -0.015667725 -8.64076e-05
-0.063093565 0.10232325 0.053111665 0.05080589 -0.07280464 0.020561423 0.06538756 0.043615315
0.08835281 -0.042010702 -0.06162254 -0.048915073 -0.106780194 0.0877251 -0.06112377 0.059779245
0.056188107 0.028577805 0.026167603 -0.07202904 0.017183796 -0.044765078 0.022540262 0.046269067
0.03376451 0.07759471 -0.002333403 0.089067765 -0.07097907 -0.1029435 0.024710381 0.05943033
0.04914022 0.035033435 0.087757565 0.023373995 -0.0351771 -0.034666013 0.039364558 0.039398372
0.04030729 -0.057028353 -0.028115535 0.03564139 0.034626186 -0.01920606 -0.061978914 0.05730639
-0.039837252 0.03778918 -0.09909726 0.06203553 -0.042446237 -0.09677413 0.024330983 0.0152113885
0.004107384 -0.08215189 -0.05081845 0.08648964 0.032143567 0.047600094 0.08616776 -0.021875983
-0.10571211 -0.038103763 -0.07761181 0.019528495 0.06343765 0.08874078 0.030831333 0.021795277
0.034610264 0.07537054 0.029694917 0.03567432 -0.059595533 0.0065779495 -0.106051 0.057242863
-0.0031251053 0.06453512 -0.065723255 0.07846443 -0.025392609 0.04593534 0.02235796 0.049631488
0.06125911 0.095669396 -0.07998214 -0.10450357 -0.08126334 0.03681826 -0.0652772 0.006668374
