Dry fermentation prediction and optimization system/optimize_digester/Predictor_Digester CH4/models/NeuralNetTorch_BAG_L1/S1F2/net.params (torch, 207367 bytes, 9 tensors)

weight f4 [128, 5]
0	0xbcadd071	-0.021217557
1	0x3e41ce42	0.18926337
2	0xbec79343	-0.3897954
3	0xbeacf937	-0.33783886
4	0xbe394eaf	-0.18096422
5	0x3e2da06c	0.16955727
6	0xbd4eb67f	-0.05046701
7	0x3ed5fced	0.4179453
8	0xbd29d287	-0.04146054
9	0x3deeb9c0	0.11656523
10	0xbe37ced5	-0.17949994
11	0xbd1da1d5	-0.038484413
12	0xbedd7e96	-0.4326064
13	0xbe9243bc	-0.28567302
14	0xbe32043c	-0.17384428
15	0xbca8eb2e	-0.020619955
16	0x3e4c7244	0.19965464
17	0x3e7671c7	0.2406684
18	0xbea23d2f	-0.31687304
19	0xbe556f8c	-0.20843333
20	0x3e83305d	0.25622836
21	0x3eb861d2	0.3601213
22	0xbdad7b92	-0.08470835
23	0x3eabb9eb	0.33540282
24	0xbd921840	-0.071335316
25	0x3d3c506e	0.04597514
26	0x3ed761d9	0.4206684
27	0xbed146e1	-0.4087439
28	0xbe8d7093	-0.2762495
29	0xbddd0aca	-0.107930735
30	0xbe101abe	-0.14072701
31	0x3ec6dae4	0.38838875
32	0xbe940e37	-0.28917095
33	0xbe514418	-0.20436132
34	0xbe9f32dc	-0.3109349
35	0xbecedcf1	-0.4040294
36	0xbe776ab1	-0.24161793
37	0x3ee5b602	0.44865423
38	0x3e336be1	0.17521621
39	0x3e450807	0.19241343
40	0x3c350700	0.011049032
41	0xbe5bd8e6	-0.21469459
42	0x3d9ce929	0.07661659
43	0xbed71198	-0.4200561
44	0xbea6b9f3	-0.32563743
45	0xbe30316d	-0.17206354
46	0x3e9f8c1f	0.3116159
47	0x3e94d722	0.29070383
48	0xbe407cb6	-0.18797573
49	0xbbbd4da8	-0.0057770796
50	0x3eb8a959	0.36066702
51	0x3edf8571	0.43656495
52	0x3e47685f	0.19473408
53	0x3d4a30ed	0.049363066
54	0x3e93dd5f	0.2887983
55	0xbe7fca09	-0.24979414
56	0x3dc1ac12	0.09456648
57	0xbea908ec	-0.3301462
58	0xbe9ba7d3	-0.30401477
59	0xbe667bbc	-0.22508138
60	0x3e87608c	0.26440847
61	0x3e52e871	0.20596482
62	0xbe8a20e8	-0.2697823
63	0x3deb0803	0.114761375
64	0x3e6690f9	0.2251624
65	0xbcc2a4c8	-0.023760214
66	0x3d13bcf1	0.03606886
67	0x3e03cf77	0.1287211
68	0x3e82398c	0.2543453
69	0x3ed008aa	0.4063161
70	0xbeba8b43	-0.36434373
71	0xbe301348	-0.17194855
72	0x3e4a7c06	0.19773874
73	0x3eb0ec05	0.3455507
74	0x3eba75e4	0.36418068
75	0x3ecc9c9d	0.39963236
76	0x3d9c918f	0.076449506
77	0xbecacea7	-0.39610788
78	0x3cec2801	0.02882767
79	0xbe958c92	-0.2920881
80	0xbeca9cad	-0.3957266
81	0x3ecfcb3c	0.40584743
82	0x3eb6fa9c	0.35738075
83	0xbee83255	-0.453509
84	0x3d9c4428	0.07630187
85	0xbe1d8f8f	-0.15386795
86	0xbdaecfd4	-0.08535734
87	0xbe787445	-0.24263103
88	0x3e3d3ba5	0.18479784
89	0xbe810ee4	-0.25206673
90	0x3e0e4ddd	0.1389689
91	0x3e8e33df	0.2777395
92	0x3eaf09a4	0.34187043
93	0x3e3b8042	0.18310645
94	0xbeda7bcd	-0.42672578
95	0xbe8d2c51	-0.27572873
96	0x3e7b9cb0	0.2457149
97	0x3dee53ea	0.11637099
98	0xbeb66052	-0.35620362
99	0xbe879af9	-0.26485422
100	0x3eccb135	0.39978948
101	0x3ead8685	0.33891693
102	0xbe3ca21d	-0.18421216
103	0xbdf5153a	-0.11966939
104	0xbeddc2a2	-0.43312556
105	0xbdd99e7b	-0.10625931
106	0xbea17502	-0.31534582
107	0xbeb8a4f7	-0.36063358
108	0xbc689f86	-0.01419819
109	0x3d9ee773	0.07758989
110	0xbe5ffde3	-0.21874194
111	0x3e92baf1	0.2865825
112	0xbe835f02	-0.25658423
113	0x3ebda39a	0.3703888
114	0x3e8aca81	0.27107623
115	0xbeed3212	-0.46327263
116	0xbdbed542	-0.093180194
117	0x3cabf3d7	0.020990295
118	0x3d443e31	0.047910873
119	0x3db5b7ba	0.08872934
120	0x3e3575cf	0.17720722
121	0xbbcac69a	-0.006188226
122	0xbe586726	-0.21133098
123	0x3e68f680	0.22750282
124	0xbed38121	-0.41309455
125	0xbe8e152c	-0.27750528
126	0xbdf1093a	-0.11769338
127	0xbe68657a	-0.2269496
128	0xbe0ba8bc	-0.13638586
129	0xbeb165c1	-0.34647945
130	0xbe06ea93	-0.1317542
131	0x3db956f3	0.09049787
132	0xbe849f4f	-0.25902793
133	0xbd33a819	-0.043861482
134	0x3e993447	0.29922697
135	0x3d0b369b	0.033987623
136	0x3b726238	0.0036984812
137	0xbc76c8c7	-0.0150625175
138	0x3d96bccf	0.07360231
139	0x3e88ef40	0.26745033
140	0x3ede9459	0.43472555
141	0x3e99f90e	0.30072826
142	0x3ee2bb04	0.44283307
143	0xbcdc4d5e	-0.02689236
144	0xbecae5eb	-0.39628538
145	0xbe728f23	-0.23687415
146	0x3e9efcd8	0.3105228
147	0xbc5cfbf8	-0.013487808
148	0xbe5f236e	-0.21790859
149	0xbead3925	-0.3383266
150	0xbee494b8	-0.44644713
151	0xbebe723c	-0.3719653
152	0xbcb5dd25	-0.022200176
153	0x3e610161	0.21973182
154	0x3e5d730d	0.2162592
155	0xbeefad7c	-0.46812046
156	0x3e85575b	0.2604321
157	0xbeb7c925	-0.3589565
158	0xbdb03d74	-0.08605471
159	0xbe30fd6c	-0.17284173
160	0xbdcb4cfd	-0.09926794
161	0xbd6d6242	-0.057955034
162	0xbed3cf61	-0.41369155
163	0xbec5cc85	-0.386326
164	0xbd8fb2d7	-0.07016533
165	0x3d25d196	0.04048308
166	0xbe65af28	-0.22430098
167	0x3e350f3d	0.17681594
168	0xbec9d723	-0.3942195
169	0xbcb34a17	-0.021885915
170	0x3ee07691	0.4384046
171	0xbe56fd9a	-0.20995179
172	0x3ed72866	0.4202301
173	0x3e4c8bb8	0.19975173
174	0xbebb49b9	-0.36579683
175	0x3ebb75d9	0.36613348
176	0xbda630cc	-0.08114776
177	0xbe29d863	-0.16586451
178	0x3ec102cb	0.37697443
179	0xbeaf1ec6	-0.34203166
180	0x3df4a089	0.11944682
181	0xbdda726b	-0.10666355
182	0x3eb07e5e	0.3447141
183	0x3df00692	0.11720003
184	0x3e5439b6	0.2072514
185	0x3e33948a	0.17537132
186	0xbdffece3	-0.124963544
187	0xbdbac7c2	-0.09120132
188	0xbebe2cae	-0.37143463
189	0x3e7529e5	0.23941763
190	0x3edd2743	0.43194017
191	0x3eaf386c	0.34222734
192	0xbe9e78f9	-0.3095167
193	0x3d9faf9b	0.07797166
194	0xbe83b359	-0.2572277
195	0xbe7270f9	-0.23675908
196	0xbe8e2081	-0.27759174
197	0x3e265774	0.16244298
198	0xbe835069	-0.25647286
199	0x398d1730	0.00026910892
200	0xbcb06fca	-0.02153768
201	0x3e8fe02f	0.28100726
202	0xbec0d9cb	-0.37666163
203	0xbe9b3ca6	-0.3031971
204	0xbe830010	-0.25585985
205	0x3ec96d9a	0.39341432
206	0xbe594a0b	-0.21219651
207	0x3ecfc170	0.4057727
208	0x3e1ab007	0.15106212
209	0x3d3c508c	0.045975253
210	0x3cc5a5cb	0.024126908
211	0xbda241a6	-0.07922678
212	0x3dac55b3	0.08414783
213	0xbde00e21	-0.10940195
214	0xbc2ad2bf	-0.010426222
215	0x3d885b88	0.06658083
216	0xbec67cdc	-0.38767135
217	0xbe677420	-0.22602892
218	0x3eb691ae	0.3565802
219	0xbebc2595	-0.36747423
220	0x3bbcd58a	0.0057627605
221	0x3ee3dc54	0.44504035
222	0x3e138efd	0.14410014
223	0xbbd868ce	-0.0066042906
224	0xbed04b4a	-0.4068244
225	0x3e7f317f	0.24921225
226	0xbeaf13c6	-0.34194773
227	0xbde0f0ff	-0.10983466
228	0xbe04c5be	-0.12966058
229	0xbd3bc372	-0.045840688
230	0x3d99d8c4	0.07512048
231	0x3eb728df	0.3577337
232	0x3db15e2d	0.08660541
233	0x3ec4348b	0.38321337
234	0x3e832e72	0.25621372
235	0xbea5192f	-0.32245776
236	0x3df30c27	0.11867552
237	0xbeacc8d9	-0.33746985
238	0xbe57a9bb	-0.21060841
239	0x3de23c43	0.1104665
240	0x3e6a87b8	0.22903335
241	0x3eace7e1	0.3377066
242	0xbe0b2520	-0.13588381
243	0xbbaa0c1e	-0.0051894328
244	0x3e65b6d7	0.22433029
245	0xbf08e51f	-0.5347461
246	0x3e92398e	0.28559536
247	0xbec47872	-0.38373142
248	0x3cc74eb6	0.024329524
249	0xbd6d06e9	-0.05786792
250	0xbe77eaaa	-0.24210611
251	0x3d819ca9	0.06328709
252	0x3ecad5d3	0.3961626
253	0xbe08a632	-0.13344648
254	0xbe8954d2	-0.26822525
255	0xbe21d5c1	-0.15804197

bias f4 [128]
0	0xbe76f8b6	-0.24118313
1	0x3d8f572e	0.0699905
2	0x3dc1ab1a	0.09456463
3	0x3c97c9a9	0.018528776
4	0xbe94122e	-0.2892012
5	0x3ecec922	0.40387827
6	0xbe890a74	-0.26765788
7	0x3ea7e73a	0.327936
8	0xbebfc013	-0.37451228
9	0xbe0cb47f	-0.13740729
10	0x3e6be3d5	0.2303613
11	0xbe3c6160	-0.1839652
12	0x3eaecbe9	0.34139946
13	0xbea9644c	-0.33084333
14	0xbecd138f	-0.40053985
15	0xbe32c2d7	-0.17457138
16	0x3d82a8d7	0.0637986
17	0x3ee51285	0.44740692
18	0xbe7366b4	-0.23769647
19	0x3e16bb75	0.14719947
20	0xbdfcae26	-0.12337904
21	0xbdb6fe03	-0.08935168
22	0x3e981873	0.29706153
23	0xbeb36d46	-0.35044307
24	0x3d564def	0.052320417
25	0x3ed1c586	0.4097101
26	0xbdb33b56	-0.08751552
27	0x3ea79928	0.32734036
28	0xbe10599f	-0.14096688
29	0x3eb2d58d	0.3492855
30	0xbef05e34	-0.4694687
31	0xbd5a567a	-0.053305127
32	0xbde861c8	-0.11346775
33	0x3e1b386e	0.15158245
34	0x3e579642	0.21053413
35	0x3eb8a509	0.36063412
36	0xbd9ab78e	-0.075545415
37	0xbbf68ba4	-0.0075239707
38	0x3ea0eaac	0.3142904
39	0xbe057ad7	-0.13035141
40	0x3ec4f53a	0.38468343
41	0xbea00788	-0.31255746
42	0xbd721c5f	-0.059109088
43	0xbca3ac6f	-0.019979684
44	0x3e4cac7b	0.19987671
45	0x3e9ed389	0.31020764
46	0xbdb4b550	-0.08823645
47	0xbeb034a8	-0.34415174
48	0x3e61ac45	0.22038372
49	0x3e190dc9	0.14946665
50	0x3e13d80a	0.14437881
51	0xbe83f9c1	-0.25776485
52	0x3e8b9c7e	0.27267832
53	0x3ecc98cf	0.39960334
54	0x3d3bb185	0.045823593
55	0xbed06e0f	-0.40708968
56	0x3ea39250	0.31947565
57	0xbea540c6	-0.3227598
58	0x3e157c70	0.1459825
59	0x3d7290af	0.059220012
60	0xbe783fe3	-0.24243121
61	0x3e06d05e	0.13165423
62	0xbebfa45e	-0.3743009
63	0x3dc53f69	0.09631235
64	0xbe96a260	-0.29420757
65	0xbcced18e	-0.025246408
66	0x3dc9f2d4	0.09860769
67	0x3ec08a7f	0.37605664
68	0xbe5fc2a8	-0.21851599
69	0x3e9f126e	0.31068748
70	0xbd8f449c	-0.06995508
71	0xbe5a7358	-0.21333063
72	0xbed3021c	-0.41212547
73	0xbed04ec3	-0.4068509
74	0x3edec734	0.43511355
75	0xbe02000d	-0.12695332
76	0x3c5a9de0	0.013343304
77	0x3e2df245	0.1698695
78	0x3ea05221	0.3131266
79	0x3ec734f2	0.38907582
80	0x3eac7d17	0.33689186
81	0xbea5e0cd	-0.32398072
82	0xbd93a556	-0.0720927
83	0xbe9547ab	-0.2915624
84	0xbe8a0c16	-0.26962346
85	0x3ddb55b1	0.10709704
86	0x3ecc69a3	0.39924344
87	0xbeb89f37	-0.3605897
88	0x3e978dfd	0.29600516
89	0xbe5656ab	-0.20931499
90	0xbd848779	-0.06471152
91	0x3ea2a031	0.3176284
92	0xbdb4fa03	-0.088367485
93	0x3c8bd4e0	0.01706928
94	0xbe8df887	-0.27728674
95	0x3ec50976	0.3848378
96	0xbd810224	-0.062992364
97	0xbea5dd12	-0.32395226
98	0x3e04a183	0.12952237
99	0xbeb305f2	-0.34965473
100	0xbec5fbc4	-0.38668644
101	0x3b846fe1	0.0040416573
102	0x3eb7b977	0.35883686
103	0xbe0f6190	-0.14002061
104	0x3e526355	0.20545705
105	0x3ec214fe	0.3790664
106	0x3e8fcefb	0.280876
107	0xbe779568	-0.24178088
108	0xbd4ab58a	-0.049489535
109	0xbe186fb8	-0.14886367
110	0xbeb915f3	-0.36149558
111	0xbc8822e3	-0.016618198
112	0x3ea3e811	0.3201299
113	0x3eb3a4d8	0.35086703
114	0x3d14a239	0.03628752
115	0x3d9cf49a	0.076638415
116	0xbe3deaa2	-0.18546537
117	0x3e9f0373	0.3105732
118	0xbe57c083	-0.21069531
119	0xbea7e0d3	-0.32788715
120	0x3d6be4ab	0.05759112
121	0x3e90205d	0.2814969
122	0xbebe8574	-0.37211192
123	0x3ec8c6ca	0.39214164
124	0x3e29d9ec	0.16587037
125	0xbe9ee15f	-0.3103132
126	0xbde61227	-0.11233931
127	0x3ed48194	0.4150511

weight f4 [128, 128]
0	0xbda267bc	-0.07929942
1	0xbc09a584	-0.008401278
2	0x3c6bd56f	0.014394148
3	0xbd9d17ab	-0.0767053
4	0x3d3128a8	0.043251663
5	0x3d07d9b1	0.03316659
6	0x3d38892c	0.045052692
7	0xbd4e886a	-0.050423063
8	0x3dae72bb	0.08517977
9	0xbd1abbe0	-0.037776828
10	0x3da65cde	0.08123182
11	0xbdc79cd4	-0.097467095
12	0xbda68c7a	-0.081322625
13	0x3d634813	0.055488657
14	0x3c7597b9	0.014989787
15	0x3b08b802	0.002086163
16	0xbd453397	-0.048144903
17	0xbd8504a8	-0.06495029
18	0xbcdf9c00	-0.027296066
19	0xbdc9e375	-0.09857837
20	0x3b0c3cc0	0.0021398515
21	0x3c6470fc	0.013942953
22	0x3aad3b9a	0.0013216615
23	0x3d42aba6	0.047526978
24	0x3d996dee	0.074916705
25	0x3bf08838	0.0073404573
26	0xbd20da23	-0.03927053
27	0xbd12aa87	-0.03580716
28	0xbd6711a2	-0.0564133
29	0xbd9aa6f4	-0.07551375
30	0xbc67c0ab	-0.014145057
31	0xbd047aec	-0.03234379
32	0x3cd7838e	0.026307847
33	0xbd2de136	-0.042451106
34	0x3bfb1015	0.0076618292
35	0xbdbd0dfb	-0.09231182
36	0xbb0e1cda	-0.0021684677
37	0x3d94d470	0.07267082
38	0x3d7a19fe	0.061059944
39	0xbd702421	-0.058628205
40	0x3ba50877	0.0050364095
41	0x3c406f0d	0.011745227
42	0xbd2e02cb	-0.042483132
43	0xbd27bc84	-0.040951267
44	0x3cc4e34f	0.02403417
45	0xbda31bd7	-0.079642944
46	0x3c099cbb	0.008399184
47	0x3c8e2e51	0.01735607
48	0xbd41999e	-0.04726564
49	0x3d580836	0.052742206
50	0xbc40f254	-0.0117765255
51	0x3cf11197	0.029427333
52	0x3dac48be	0.08412312
53	0xbcbfac6d	-0.023397649
54	0x3d0ae1e1	0.03390682
55	0xbd078b55	-0.03309186
56	0xbc952bc8	-0.018209353
57	0xbe11594f	-0.14194225
58	0x3da08e5f	0.07839655
59	0xbd50b587	-0.050954368
60	0x3cb1e710	0.021716624
61	0x3cb9d6c3	0.022685414
62	0x3ddb2cac	0.1070188
63	0xbd05680e	-0.032569937
64	0x3b157606	0.0022805943
65	0xbde77a45	-0.11302618
66	0xbd04b5a1	-0.032399777
67	0x3d0b9aca	0.034083165
68	0x3d06678f	0.032813605
69	0xbde6f683	-0.11277487
70	0xbceec0b8	-0.02914463
71	0x3cbd9448	0.023141995
72	0xbca80bcb	-0.020513436
73	0x3d5100af	0.051026043
74	0xbbf74534	-0.0075460915
75	0x3cf966d4	0.03044454
76	0x3cc30b30	0.023809046
77	0xbcf4cb4e	-0.0298821
78	0x3cd3dbc2	0.025861625
79	0x3d520699	0.051275823
80	0xbb248da6	-0.0025108843
81	0x3d1dc720	0.03851998
82	0xbbbf1985	-0.0058318996
83	0x3d82088b	0.06349286
84	0xbd344f1f	-0.04402077
85	0xbda90adb	-0.08254024
86	0x3df04ea2	0.11733748
87	0xbdce0e23	-0.1006129
88	0xbd119cd6	-0.03554996
89	0xbd19a9a1	-0.037515286
90	0xbc1be90b	-0.009516011
91	0xbda1f83e	-0.079086766
92	0x3d11a4b8	0.03555748
93	0x3da74091	0.08166612
94	0x3c64b3e9	0.01395891
95	0x3c8af2b2	0.01696143
96	0x3da89d79	0.082331605
97	0xbdb438a5	-0.087998666
98	0x3c0fb635	0.008771469
99	0xbd38757a	-0.04503391
100	0xbba40a8c	-0.00500614
101	0x3d9517a9	0.072799034
102	0x3c5b379f	0.01337996
103	0xbcc02b66	-0.023458194
104	0xbdbed352	-0.0931765
105	0xbc138ad6	-0.009005269
106	0xbbdf6d03	-0.006818415
107	0x3b92a4d3	0.004475215
108	0x3d4a71a9	0.0494248
109	0x3d938030	0.07202184
110	0xbd905236	-0.070469305
111	0xbbe53a73	-0.006995493
112	0xbd8e965d	-0.06962273
113	0xbdaa450e	-0.083139524
114	0xbd8db708	-0.06919676
115	0x3d991ab0	0.07475793
116	0x3d2ff025	0.04295363
117	0x3d3be15c	0.045869216
118	0x3d3594b0	0.044331253
119	0xbd90b51e	-0.07065795
120	0x3c6f8017	0.014617941
121	0x3d892adc	0.06697628
122	0xbd4b066c	-0.04956667
123	0x3d87230b	0.06598481
124	0x3c8ef237	0.017449481
125	0x3d7f9974	0.062402204
126	0xbd27b066	-0.04093971
127	0x3ce91c95	0.028456012
128	0xbdb1c186	-0.0867949
129	0xbbfb8558	-0.007675808
130	0x3c93729b	0.017998984
131	0x3c50b0f8	0.012737505
132	0x3d9466e2	0.07246186
133	0x3d97d0b9	0.074128576
134	0x3d903c45	0.070427455
135	0x3d716398	0.05893287
136	0x3d58d4ab	0.05293719
137	0xbcbeed24	-0.023306437
138	0xbd94c8da	-0.07264872
139	0xbd3c9446	-0.046039842
140	0xbc5c0fa0	-0.01343146
141	0xbd37293b	-0.044717055
142	0x3d2e6ad6	0.042582355
143	0x3ca4ecb6	0.020132404
144	0x3b5608b5	0.0032658998
145	0x3b9b93e6	0.0047478555
146	0x3d854818	0.065078914
147	0x3ca7ccfc	0.020483486
148	0xbdb67c7a	-0.08910461
149	0xbd90397f	-0.070422165
150	0x3d17ec3f	0.037090536
151	0x3c8e728f	0.01738861
152	0x3d08d08a	0.033402003
153	0xbdca6c11	-0.09883893
154	0xbdabbf95	-0.08386151
155	0x3d48bb85	0.049006958
156	0x3d33518a	0.043778934
157	0xbdbb3536	-0.091410086
158	0x3d03ebfa	0.032207467
159	0xbd9e6cc2	-0.07735588
160	0x3d658edf	0.056044456
161	0x3c8bdd96	0.017073434
162	0x3d98b108	0.07455641
163	0xbddc1bd8	-0.10747498
164	0xbdb95dd6	-0.09051101
165	0x3d484529	0.04889408
166	0x3d87b521	0.066263445
167	0x3d388679	0.045050118
168	0x3d458258	0.04822001
169	0xbdafadc9	-0.08578069
170	0x3d641502	0.055684097
171	0xbda6f988	-0.08153063
172	0x3c03d69a	0.0080467705
173	0xbd8c64d5	-0.0685517
174	0xbcefb98e	-0.029263284
175	0x3c0e20d2	0.008674817
176	0xbd1623c2	-0.036655195
177	0xbbe23cd4	-0.006904224
178	0xbdc24e64	-0.09487608
179	0xbdbe880b	-0.09303292
180	0x3d093a39	0.03350279
181	0xbd457299	-0.048204992
182	0xbd71bfe8	-0.059020907
183	0xbca1392e	-0.019680586
184	0xbda1726f	-0.078831546
185	0xbdac29bf	-0.084064
186	0x3d871337	0.06595462
187	0x3d5d1633	0.05397625
188	0x3c04119c	0.008060839
189	0xbd3cebfa	-0.046123482
190	0x3d3205ce	0.043462567
191	0xbc7d615a	-0.015465105
192	0xbd86ab8e	-0.0657569
193	0xbb96e106	-0.0046044616
194	0x3da95f6d	0.08270154
195	0xbdad0898	-0.08448905
196	0xbdd1a5eb	-0.102367245
197	0xbba03228	-0.0048887916
198	0x3d92a74e	0.07160817
199	0xbd833f9b	-0.06408616
200	0x3c8de484	0.017320879
201	0x3d4928b3	0.04911108
202	0x3c8abf5a	0.016936947
203	0x3c7e743e	0.015530644
204	0x3da61d57	0.08111065
205	0x3d779748	0.060447007
206	0xbd80d88a	-0.062913015
207	0x3ba18447	0.0049290988
208	0x3d1eada9	0.038739834
209	0x3dc514d3	0.096231125
210	0xbdc2e0bc	-0.09515521
211	0x3d40d000	0.047073364
212	0xbd100dbd	-0.03516935
213	0xbdb23201	-0.08700944
214	0x3cea735c	0.02861946
215	0xbd6c536c	-0.057696745
216	0x3bf4943e	0.007463961
217	0xbd8a9125	-0.06765965
218	0xbda7860d	-0.08179865
219	0xbc9c4a83	-0.019078499
220	0xbd3eb8ec	-0.046563074
221	0x3d1fc151	0.03900272
222	0x3ca224a9	0.019792872
223	0x3d8e89e9	0.06959898
224	0x3c4d6a78	0.012537591
225	0xbd2922d8	-0.041292995
226	0x3d71ae0d	0.05900388
227	0xbc0133aa	-0.007885853
228	0x3c76f414	0.015072841
229	0xbc48b9da	-0.012251342
230	0x3bd3e13b	0.0064660585
231	0xbcec05df	-0.028811393
232	0xbc951bc3	-0.018201714
233	0xbd9cd1d7	-0.07657211
234	0xbc3c1604	-0.011479858
235	0xbd9d0a02	-0.076679245
236	0xbcceee42	-0.025260095
237	0x3d01020d	0.031496096
238	0xbd80b48f	-0.06284439
239	0xbd7a7b8f	-0.06115299
240	0xbcc870bb	-0.024467817
241	0xbcfd959c	-0.030955128
242	0x3b1996a5	0.0023435738
243	0x3bf42e19	0.0074517843
244	0x3d140109	0.0361338
245	0xbd852571	-0.06501282
246	0xbc4b8797	-0.012422464
247	0x3d3ae755	0.04563077
248	0x3d993914	0.0748159
249	0xbc802b70	-0.015645713
250	0xbd7abcac	-0.061215088
251	0x3c92c5de	0.017916616
252	0x3d22253a	0.039586283
253	0xbd8826f4	-0.06648055
254	0xbd69205a	-0.05691562
255	0x3d0666b3	0.032812785

bias f4 [128]
0	0x3d80f9f2	0.06297673
1	0xbd02b9a0	-0.031915307
2	0x3c08a29a	0.0083395485
3	0x3d111337	0.035418715
4	0xbb3836e2	-0.0028108885
5	0xbd9116b9	-0.07084412
6	0xbd61a426	-0.055088185
7	0x3be63dfa	0.007026431
8	0x3cfe5884	0.031048067
9	0x3d7737aa	0.06035582
10	0x3d0d80b6	0.034546576
11	0x3db95fec	0.09051499
12	0x3d50c86d	0.05097239
13	0x3d287110	0.04112345
14	0x3dae4523	0.085092805
15	0xbd149240	-0.036272287
16	0x3d2be206	0.0419636
17	0xbcc5a404	-0.02412606
18	0x3c818a2c	0.015812956
19	0x3d062242	0.032747515
20	0xbdab6a1f	-0.0836985
21	0x3da5d22f	0.0809673
22	0x3d18cfa5	0.0373074
23	0xbd0af74a	-0.03392724
24	0xbd18f4f5	-0.037342984
25	0xbca82ed3	-0.02053014
26	0x3d16da7d	0.03682946
27	0xbc7ae2d9	-0.015312874
28	0x3cb9d4d3	0.02268449
29	0xbd032f7d	-0.03202771
30	0x3bdf30fb	0.006811259
31	0x3d944627	0.07239943
32	0xbdbdaab7	-0.09261077
33	0xbcc573e0	-0.024103105
34	0x3d4015cc	0.046895787
35	0x3d5d5c64	0.05404319
36	0x3c88fdc0	0.01672256
37	0x3d289416	0.04115685
38	0xbd88c9c7	-0.06679111
39	0xbd5b0d85	-0.05347969
40	0xbdae1972	-0.08500947
41	0x3d9528e0	0.07283187
42	0x3d80f18e	0.06296073
43	0x3d8a2411	0.0674516
44	0x3d8ff591	0.0702926
45	0xbcf86569	-0.030321794
46	0x3da86c7f	0.08223819
47	0x3b9bc55d	0.004753752
48	0x3c8bb845	0.01705564
49	0xbcddb323	-0.027062958
50	0xbcb43af3	-0.022000765
51	0xbd5eb321	-0.05437005
52	0x3d25f58c	0.040517375
53	0x3d8e7272	0.069554225
54	0xbd409af4	-0.047022775
55	0xbd51346b	-0.05107538
56	0xbc723d79	-0.014785164
57	0xbd9ecf5c	-0.077543944
58	0x3aa91e16	0.0012902643
59	0x3cd6874f	0.026187567
60	0xbc4b502e	-0.012409253
61	0x3b5fa046	0.003412263
62	0x3d3afd8f	0.04565197
63	0xbd7c12c7	-0.061541345
64	0xbd036d1a	-0.03208647
65	0xbcabc018	-0.02096562
66	0x3cc39c07	0.02387811
67	0x3d007d5c	0.031369552
68	0xbd86e71c	-0.06587049
69	0xbc59328e	-0.013256682
70	0xbd8f00df	-0.06982588
71	0xbd37ba51	-0.04485542
72	0x3cf5bfa0	0.0299986
73	0xbd4a4ab3	-0.049387645
74	0x3d6300b9	0.05542061
75	0xbd77d38c	-0.06050448
76	0xbcb9c98a	-0.02267911
77	0x3d33758d	0.043813277
78	0x3d1f5004	0.03889467
79	0x3cb373e3	0.021905845
80	0xbbc729b1	-0.006077968
81	0xbc6469d8	-0.013941251
82	0xbd2d8d75	-0.042371232
83	0x3dced975	0.101000704
84	0x3d90a30a	0.07062347
85	0xbd4f5cd6	-0.050625645
86	0x3d5542a2	0.0520655
87	0x3cee9ede	0.029128488
88	0xbd8d162a	-0.06888993
89	0xbd13e1f8	-0.036104172
90	0xbbaff94a	-0.0053702937
91	0xbd543e1b	-0.05181704
92	0xbc9b2353	-0.018937742
93	0xbb2625bd	-0.0025352084
94	0xbd8b551c	-0.06803343
95	0xbd5f710a	-0.05455116
96	0x3c984bf1	0.0185909
97	0xbc01dbcf	-0.007925942
98	0x3d2b5038	0.04182455
99	0x3d63992b	0.055565994
100	0x3d8af512	0.06785025
101	0xbd1744a1	-0.036930684
102	0x3b49ac41	0.0030772837
103	0xbc9ff797	-0.01952724
104	0x3d22715c	0.03965889
105	0xbdbdaa6b	-0.0926102
106	0x3d98bf38	0.07458347
107	0x3d57658f	0.05258709
108	0xbc434ada	-0.0119197015
109	0xbd2300eb	-0.039795797
110	0x3dcb0e9c	0.09914896
111	0x3da0836e	0.07837568
112	0x3dc10b9c	0.094260424
113	0xbd00d306	-0.031451248
114	0xbda01d12	-0.07818045
115	0xbda048eb	-0.07826408
116	0x3bcb013f	0.006195217
117	0x3bbe9d01	0.005817056
118	0x3da231cc	0.07919654
119	0xbd4d2621	-0.05008519
120	0xbdba96fb	-0.091108285
121	0xbbabb382	-0.005239905
122	0x3c943261	0.018090429
123	0x3d062557	0.032750454
124	0xbc1489e4	-0.009066079
125	0xbd78889c	-0.060677156
126	0xbd9c288d	-0.07624922
127	0x3dc0973b	0.09403845

weight f4 [128, 128]
0	0xbbf0a254	-0.00734357
1	0x3c8b8dc1	0.017035367
2	0x3d1b98f3	0.03798766
3	0xbd5e4628	-0.054266125
4	0xbd68ba52	-0.056818314
5	0xbdd10f2b	-0.10207971
6	0x3cf5e011	0.03001407
7	0x3d894f9b	0.06704637
8	0x3d8e7cc0	0.06957388
9	0xbd41fa65	-0.047357935
10	0xba1f695b	-0.0006081068
11	0x3c92b82a	0.017910082
12	0x3d5e09b6	0.05420848
13	0xbda19c74	-0.07891169
14	0x3db5ad5f	0.088709585
15	0xbd007336	-0.031359874
16	0x3d302b96	0.043010317
17	0xbd8274c1	-0.06369925
18	0xbd1a05e7	-0.037603285
19	0xbd586adc	-0.052836284
20	0xbc278ffd	-0.010227201
21	0xbd79aaac	-0.06095378
22	0x3d5f77ef	0.054557737
23	0x3d9820ca	0.07428129
24	0x3d954f3f	0.072905056
25	0xbd3de93e	-0.046365015
26	0x3c30bb5b	0.0107868565
27	0xbce4fe63	-0.027953332
28	0xbd1aef05	-0.037825603
29	0xbd46d711	-0.048544947
30	0x3cfc366f	0.030787675
31	0xbb814254	-0.0039446745
32	0xbd1cdc8d	-0.03829627
33	0x3c04fd78	0.008117072
34	0x3dbc5006	0.09194951
35	0x3ca4a5d5	0.020098606
36	0x3e059ad2	0.1304734
37	0xbd84d821	-0.06486536
38	0x3de2637f	0.110541336
39	0x3d63a706	0.055579208
40	0x3da720e1	0.08160568
41	0x3b8ef4ca	0.004362677
42	0xbb931323	-0.0044883653
43	0xbd15e8af	-0.036598857
44	0xbcb95654	-0.022624172
45	0x3d1f8d37	0.038953032
46	0xb896107d	-7.1556286e-05
47	0x3d9790f8	0.074006975
48	0xbcc3cb93	-0.023900783
49	0xbd2f1c00	-0.042751312
50	0xbd96a545	-0.073557414
51	0x3ca4de76	0.020125609
52	0x3dfbeb3c	0.12300727
53	0x3ce53ab0	0.027982086
54	0xbd7e98cd	-0.06215744
55	0x3d03589c	0.032066926
56	0x3c8512d4	0.01624433
57	0x3d758254	0.059938744
58	0x3d3ed880	0.04659319
59	0x3dad1498	0.084511936
60	0x3dec47b5	0.115371145
61	0xbd5db980	-0.054131985
62	0x3d99918d	0.07498465
63	0xbcace6e8	-0.021106198
64	0xbdc00d25	-0.09377507
65	0x3e049a79	0.12949552
66	0xbce6133e	-0.028085347
67	0xbc5e7281	-0.013577105
68	0x3db8a069	0.09014971
69	0xbcea4d75	-0.028601388
70	0x3dc5152f	0.09623181
71	0x3daa491e	0.08314727
72	0xbb916586	-0.0044371514
73	0x3d0c96af	0.03432339
74	0xbd5d0705	-0.053961772
75	0xbca41fd6	-0.020034712
76	0xbd815027	-0.06314116
77	0x3d89b5f6	0.067241594
78	0xbc2c5e80	-0.010520577
79	0x3db8b8f8	0.09019655
80	0x3d4a60bd	0.049408663
81	0x3c8ea6b4	0.017413475
82	0x3dcd13cb	0.10013541
83	0x3d0b141f	0.033954736
84	0x3d84fe6b	0.06493839
85	0x3c074cb7	0.008258036
86	0x3d072958	0.032998413
87	0xbd979507	-0.074014716
88	0xbc4b6fda	-0.012416804
89	0x3adac162	0.0016689713
90	0xbd891cf0	-0.066949725
91	0x3bd32afa	0.006444332
92	0x3d86e70a	0.06587036
93	0x3d6be4ae	0.057591133
94	0x3bb143e2	0.0054097036
95	0xbbaa8185	-0.005203428
96	0xbd2cd29d	-0.042193044
97	0xbd409923	-0.047021043
98	0x3c1e9df8	0.009681217
99	0xbd1f4a54	-0.038889244
100	0xbd45bbe1	-0.04827488
101	0x3c7d75f8	0.0154700205
102	0xbd4e8613	-0.050420832
103	0x3d42269d	0.047400106
104	0x3dcd21dd	0.100162245
105	0xbd68d6b6	-0.05684539
106	0x3d4944c3	0.049137842
107	0xbd22d72b	-0.03975598
108	0xbda9ea8e	-0.08296691
109	0x3dcc2f02	0.099699035
110	0xbcc066e4	-0.023486562
111	0x3dc1614c	0.09442386
112	0x3df60f16	0.12014596
113	0x3d89b94c	0.06724796
114	0xbcf75d4b	-0.030195853
115	0x3d0c996d	0.034326006
116	0x3d563a44	0.05230166
117	0x3ce49642	0.02790368
118	0x3ca6da0e	0.020367648
119	0x3dbc1a48	0.091847
120	0x3cbec80f	0.023288755
121	0x3d189ff1	0.037261907
122	0xbcba6596	-0.022753518
123	0xbcac6d02	-0.021048073
124	0x3da0c5fd	0.07850263
125	0xbc96a72e	-0.018390264
126	0x3d26024a	0.040529527
127	0xbd22715d	-0.039658893
128	0x3c940385	0.018068084
129	0xbd8064f7	-0.062692575
130	0x3cad9bb3	0.021192407
131	0x3b090d64	0.0020912522
132	0xbc8c5833	-0.0171319
133	0x3d16ab23	0.036784302
134	0x3d47eeab	0.048811596
135	0x3d3b640e	0.045749716
136	0xbd9a2ac9	-0.07527692
137	0xbc52dae0	-0.012869567
138	0x3d56af69	0.052413378
139	0x3d72b279	0.059252236
140	0xbd92d8c8	-0.07170254
141	0xbd33a587	-0.04385903
142	0xbca0cae7	-0.019628001
143	0xbc463b73	-0.012099135
144	0x3d32665f	0.04355466
145	0x3d2a6c17	0.04160699
146	0xbd997594	-0.074931294
147	0x3ca5e1f7	0.02024935
148	0xbd9ffef1	-0.07812298
149	0xba82839c	-0.0009957436
150	0xbc186ea1	-0.00930372
151	0x3ca5efbb	0.020255914
152	0xbbe6c26e	-0.007042221
153	0x3d989546	0.07450347
154	0xbd8be89e	-0.068314776
155	0x3d3e5da2	0.046476014
156	0x3dc39227	0.09549361
157	0xbcd3a00e	-0.025833156
158	0x3ce8076d	0.028323853
159	0xbd67b9de	-0.05657374
160	0xbd0d22ae	-0.0344569
161	0xbd352303	-0.044222843
162	0x3d551df1	0.052030507
163	0x3d7733ec	0.06035225
164	0xbceebbce	-0.029142287
165	0xbcbcb273	-0.02303431
166	0xbd94a401	-0.07257844
167	0x3d142b3a	0.036174037
168	0x3d4eec96	0.050518595
169	0xbc0096ec	-0.007848483
170	0xbd5ab1d7	-0.053392258
171	0x3d807711	0.0627271
172	0xbd4fa5c7	-0.050695207
173	0x3d50857a	0.050908543
174	0xbd8732fe	-0.06601523
175	0x3d49fa65	0.04931106
176	0xbd5d5432	-0.054035373
177	0x3c7eac9c	0.015544083
178	0x3d993ad7	0.07481926
179	0x3d7b9ad0	0.061426938
180	0xbda7d06c	-0.0819405
181	0xbd587018	-0.052841276
182	0x3cda49e2	0.026646558
183	0xbcd8a7ee	-0.026447263
184	0xbc2d10c7	-0.010563082
185	0x3d94ce14	0.07265869
186	0xbd822b3c	-0.063559026
187	0xbd8263b9	-0.06366677
188	0xbd92feca	-0.071775034
189	0xbc528afb	-0.012850518
190	0xbc971778	-0.018443808
191	0x3d1201a4	0.035646096
192	0xbd379ca5	-0.044827122
193	0xbd04f352	-0.03245861
194	0xbd202f43	-0.039107572
195	0x3d57d61d	0.05269443
196	0x3da79bdf	0.08184027
197	0xbda267f2	-0.07929982
198	0x3d4bd63d	0.04976486
199	0x3d65ef5f	0.056136485
200	0xbda2ee16	-0.079555675
201	0xbd51a261	-0.051180247
202	0x3d15a79c	0.036536798
203	0xbcbea73e	-0.023273107
204	0x3ca98c22	0.020696703
205	0x3bd92823	0.006627099
206	0xbd872338	-0.06598514
207	0x3d4f9c7d	0.05068635
208	0x3bf8ee85	0.007596793
209	0xbd54af01	-0.05192471
210	0x3ce4b429	0.027917938
211	0xbd00446f	-0.031315263
212	0xbd367c9d	-0.044552434
213	0xbc9fdd76	-0.01951478
214	0xbd85400f	-0.06506359
215	0xbdb71ff2	-0.0894164
216	0xb9a6b96b	-0.00031800134
217	0xbd60254d	-0.054723073
218	0x3d21ba2c	0.039484188
219	0x3d8d57f8	0.06901544
220	0xbbefbcb8	-0.007316198
221	0xbd8c51f0	-0.06851566
222	0xbdb3f9a4	-0.087878495
223	0x3d66e428	0.05636993
224	0xbb497f94	-0.0030746209
225	0xbd858e1f	-0.06521248
226	0xbd66ac5c	-0.05631672
227	0x3cf5e346	0.030015599
228	0x3c053ad4	0.0081317015
229	0x3d21acfd	0.039471615
230	0x3db39f9a	0.08770676
231	0xbd3db3e8	-0.04631415
232	0xbd0448a4	-0.032295838
233	0xbdabebdd	-0.08394597
234	0x3da00533	0.07813492
235	0x3a689432	0.00088721805
236	0xbcdfdf96	-0.027328294
237	0xbb069340	-0.0020534545
238	0xbd2c1898	-0.042015642
239	0xbbd4ea74	-0.0064976756
240	0x3d9f6f9a	0.07784958
241	0x3d19821d	0.0374776
242	0x3ca3a49f	0.019975958
243	0xbd2160d5	-0.039398987
244	0x3d120626	0.035650395
245	0x3db619b2	0.0889162
246	0xbd43fd0b	-0.047848742
247	0xbd6cb844	-0.057792917
248	0x3daf1f55	0.08550898
249	0x3d9f9361	0.07791782
250	0x3ccffd9b	0.025389483
251	0x3daddee9	0.08489782
252	0x3c307ae9	0.010771492
253	0x3cc3b80e	0.023891475
254	0x3d5fa3a7	0.05459943
255	0x3d92e261	0.071720846

bias f4 [128]
0	0x3d933428	0.071876824
1	0xbc07321e	-0.008251695
2	0xbda7d14e	-0.081942186
3	0x3c018680	0.007905602
4	0x3bf9a9ba	0.00761911
5	0x3bc36e5f	0.005964085
6	0x3ca02a84	0.019551523
7	0xbd7fe30c	-0.06247239
8	0xbd6faa1f	-0.05851185
9	0x3d8f9a00	0.07011795
10	0x394c4b76	0.00019483067
11	0xbd2f830e	-0.042849593
12	0x3c49e718	0.012323163
13	0xbd994550	-0.074839234
14	0xb8fb06dc	-0.0001196989
15	0x3d5bde61	0.053678874
16	0x3d35ef39	0.044417594
17	0xbd8d3e2f	-0.06896626
18	0x3c517017	0.012783072
19	0x3d4d0c29	0.050060425
20	0x3d8fbcfa	0.07018466
21	0xbc6133c5	-0.013745253
22	0xbd12546b	-0.03572504
23	0xbcb450be	-0.022011157
24	0x3d2d5035	0.04231282
25	0x3db71a07	0.08940511
26	0xbd29d4ee	-0.04146283
27	0x3d2dc3bf	0.042423006
28	0x3d279fa0	0.040923715
29	0xbb85d7d1	-0.004084565
30	0x3da3d09d	0.07998774
31	0x3c0493ab	0.008091847
32	0xbc0b39d2	-0.008497672
33	0xbd3f3d20	-0.046689153
34	0x3da433b1	0.08017672
35	0x3d8436f3	0.06455793
36	0x3db48311	0.088140614
37	0xbd60525f	-0.054766055
38	0xbc276c20	-0.01021865
39	0x3d0572d5	0.032580215
40	0xbd9c6c53	-0.07637849
41	0xbd8d7ded	-0.06908784
42	0xbcd0031b	-0.025392106
43	0xbd85e39e	-0.06537555
44	0x3dba85c3	0.09107544
45	0x3d79da91	0.060999457
46	0xbd557709	-0.052115474
47	0xbdae0fd2	-0.08499111
48	0xbd2ccf1a	-0.042189695
49	0xbca91bff	-0.020643232
50	0xbd7744c6	-0.06036832
51	0xbd3eb259	-0.046556804
52	0x3d79fa45	0.06102969
53	0xbcd11ffe	-0.02552795
54	0xbd06d113	-0.032914232
55	0xbd0b4a51	-0.03400642
56	0x3de11b9c	0.10991594
57	0x3d7fcd1e	0.062451474
58	0x3d08c0e0	0.033387065
59	0x3d9e4bfa	0.07729335
60	0xbbfdb5e2	-0.0077426294
61	0xbc3e1542	-0.011601748
62	0xbc16e18c	-0.009209048
63	0x3ce09ebf	0.027419446
64	0xbcb7a8ba	-0.022419322
65	0x3db3cfd9	0.08779878
66	0x3d472a61	0.0486244
67	0x3de4fead	0.11181388
68	0xbd90d4a6	-0.070718095
69	0xbd4200d2	-0.047364064
70	0xbd055b2f	-0.032557663
71	0x3c26faaf	0.010191604
72	0x3cdea126	0.027176451
73	0x3d84efa3	0.064910196
74	0xbda3f196	-0.08005063
75	0xbd301e02	-0.042997368
76	0x3d8ef983	0.06981184
77	0xbca5cbc6	-0.020238768
78	0xbd92416a	-0.07141383
79	0xbd9d2e48	-0.07674843
80	0x3da48ae2	0.08034302
81	0x3c1451e0	0.009052724
82	0x3d7d6d34	0.061871722
83	0xbdba3529	-0.09092171
84	0x3be0aa82	0.0068562636
85	0x3d1a131d	0.037615884
86	0xbd4dc2de	-0.050234668
87	0x3d350d4d	0.044202138
88	0xbd7e132f	-0.062030014
89	0xbda26496	-0.079293415
90	0x3cf2b70d	0.029628301
91	0x3d9c0b57	0.076193504
92	0x3c5c4dd2	0.013446288
93	0xbc0345ff	-0.008012294
94	0x3d576fc4	0.052596822
95	0x3db0d2e1	0.08633972
96	0xbc86ba03	-0.01644612
97	0x3d6136c1	0.054983858
98	0xbcf56b38	-0.029958352
99	0xbd5eea3b	-0.0544226
100	0x3c77337c	0.015087958
101	0xbd197e50	-0.037473977
102	0x3d4fd3c4	0.050739065
103	0x3b8e5985	0.0043441677
104	0x3b9db20a	0.0048124837
105	0xbd242729	-0.04007641
106	0xbc05a3d8	-0.008156739
107	0x3c2122ac	0.009834927
108	0x3d8de43f	0.069283
109	0xbd6b6ea3	-0.05747856
110	0xbb89462e	-0.0041892743
111	0xbd5302b0	-0.051516235
112	0x3c0e06f1	0.008668647
113	0xbc2a44d4	-0.0103923865
114	0x3d6e303b	0.058151465
115	0x3c405701	0.011739493
116	0x3d7288be	0.05921244
117	0x3d83469d	0.06409953
118	0xbd783908	-0.060601264
119	0x3d011e7c	0.031523213
120	0xbc487a72	-0.0122362245
121	0x3c061283	0.0081831245
122	0x3c45338f	0.012036218
123	0x3d578627	0.052618172
124	0xbcbf54b8	-0.023355827
125	0xbd875fb6	-0.06610052
126	0x3c908906	0.017643463
127	0xbd7e5993	-0.062097143

weight f4 [128, 128]
0	0x3cea86d0	0.028628737
1	0xbd834215	-0.064090885
2	0xbd2de6bc	-0.042456374
3	0x3cc0e354	0.023545898
4	0x3dbe251b	0.09284421
5	0xbda8dfb1	-0.08245791
6	0x3d7349e8	0.059396654
7	0x3cefac2f	0.029256908
8	0xbd9964f7	-0.07489961
9	0x3d978344	0.07398084
10	0xbd831562	-0.06400563
11	0xbb78511a	-0.0037890137
12	0x3c00d923	0.007864269
13	0x3d55b4e0	0.05217445
14	0xba539858	-0.0008071712
15	0x3dbef10f	0.09323322
16	0xbcb03f84	-0.021514662
17	0xbd805cdd	-0.06267712
18	0xbd8df16d	-0.06930814
19	0xbbf41a59	-0.00744943
20	0xbd7c6b1a	-0.061625578
21	0x3d8ff5f1	0.070293315
22	0xbdabd6fd	-0.08390615
23	0x3ccabc96	0.024748128
24	0xbc7dfe4e	-0.0155025255
25	0x3d2f9411	0.042865817
26	0x3d02f76f	0.031974252
27	0x3c06dea8	0.008231796
28	0x3c4b988b	0.012426506
29	0xbcf6a535	-0.030108074
30	0xbd515f73	-0.051116418
31	0x3d9e92b0	0.07742822
32	0xbd791869	-0.060814295
33	0x3dc3a873	0.095536135
34	0xbd6f81cd	-0.058473397
35	0x3c49de6c	0.012321096
36	0xbd2b1ac0	-0.041773558
37	0x3d9dc35f	0.0770328
38	0xbcab9bb3	-0.020948267
39	0x3c593af9	0.013258689
40	0x3da56c57	0.08077305
41	0xbca35c6c	-0.019941531
42	0xbd997a5a	-0.0749404
43	0x3d40d34e	0.047076516
44	0x3d018520	0.0316211
45	0x3a13f524	0.0005644134
46	0xbd09048c	-0.033451602
47	0x3cbd1ed7	0.023085995
48	0x3da095c2	0.07841064
49	0xbd0ebd5f	-0.034848567
50	0xbcbf61fe	-0.023362156
51	0x3ce4b5dd	0.02791875
52	0xbdb20668	-0.08692628
53	0x3dac5a80	0.08415699
54	0x3da37e1d	0.079830386
55	0xbcb30e29	-0.021857338
56	0x3d2ebb14	0.04265888
57	0xbd68f9e2	-0.05687893
58	0x3c44e989	0.01201857
59	0xbd3ca12d	-0.046052147
60	0x3d1669a5	0.036721844
61	0x3d539605	0.05165674
62	0xbda841c2	-0.08215667
63	0xbd4468c0	-0.04795146
64	0x3d60acb5	0.054852206
65	0x3c9a4f79	0.018836724
66	0xbd92cb1d	-0.07167647
67	0xbc491687	-0.012273437
68	0xbd3f3d20	-0.046689153
69	0x3ccf2da3	0.025290316
70	0xbd4e6e42	-0.05039812
71	0x3d497d64	0.049191847
72	0xbcaa402f	-0.020782558
73	0x3dacde1e	0.08440803
74	0xbd08b2ed	-0.033373762
75	0xbd05e0b1	-0.032684986
76	0xbd001347	-0.031268384
77	0x3db0388d	0.08604536
78	0x3d3f4a78	0.04670188
79	0xbc0b61d0	-0.008507207
80	0xbd5979cd	-0.053094674
81	0xbc881a50	-0.01661411
82	0x3da73640	0.08164644
83	0x3cae2ae4	0.021260686
84	0x3d9d13c7	0.07669788
85	0x3d961d10	0.07329762
86	0xbce22688	-0.027606264
87	0xbdaafa00	-0.08348465
88	0x3da05fc4	0.07830766
89	0xbb381f7e	-0.0028094943
90	0x3ce10b77	0.027471287
91	0xbd4c4adf	-0.04987609
92	0x3d4118be	0.047142737
93	0xbc805509	-0.015665548
94	0xbd8a5015	-0.06753556
95	0x3db1ed5b	0.0868785
96	0xbc96976c	-0.01838275
97	0xbd5d9f3f	-0.054106947
98	0xbd82dcb4	-0.06389752
99	0x3d657e27	0.05602851
100	0x3da0de49	0.078548975
101	0x3da7c060	0.081909895
102	0x3dd502d1	0.10400928
103	0xbd5ddc50	-0.054165184
104	0xbd979120	-0.07400727
105	0x3d866c4b	0.06563624
106	0xbd891758	-0.066939056
107	0xbc2c4d9a	-0.0105165485
108	0xbb9e0af3	-0.0048230826
109	0xbd0a72aa	-0.03380076
110	0xbd2b4167	-0.04181042
111	0xbcf7b31c	-0.030236773
112	0x3da575f9	0.08079142
113	0x3da2458a	0.0792342
114	0x3883cca4	6.284684e-05
115	0xbd9f1c4f	-0.07769071
116	0xbcf128ad	-0.029438341
117	0xbc99b716	-0.01876406
118	0x3c0903ba	0.008362705
119	0xbd472576	-0.04861971
120	0x3db261b6	0.08710043
121	0xbcf8e0cb	-0.030380627
122	0xbd5058d8	-0.050865978
123	0xbdb5ddb9	-0.08880181
124	0xbd80e87d	-0.062943436
125	0x3c11ffef	0.008911117
126	0xbd692f51	-0.05692989
127	0xbc66de0f	-0.014091029
128	0x3d055ee6	0.032561205
129	0x3d91b26b	0.07114109
130	0x3d09cc55	0.03364213
131	0x3d85dea4	0.06536606
132	0x3c16ee78	0.009212129
133	0xbd440215	-0.047853548
134	0x3cc00944	0.023441918
135	0x3cfc57ce	0.030803587
136	0xbce969d1	-0.02849284
137	0x3c17ed90	0.009272948
138	0x3dc586a9	0.09644825
139	0xbd5ab774	-0.05339761
140	0x3d9819c9	0.07426793
141	0x3d3cdb65	0.04610767
142	0xbd6f2903	-0.05838872
143	0x3d663b85	0.056209106
144	0x3d47b5ad	0.048757244
145	0x3bf680a2	0.0075226584
146	0xbc5fe2e9	-0.013664939
147	0xbd21a162	-0.039460547
148	0x3c715781	0.014730335
149	0xbda5a3b8	-0.080878675
150	0xbb05d9a0	-0.0020423904
151	0xbd3180d2	-0.043335743
152	0x3c09fd74	0.008422244
153	0x3da61267	0.08108979
154	0x3db6d1f2	0.08926763
155	0x3d8088a6	0.062760636
156	0xbdac4e52	-0.08413376
157	0x3d7fedb4	0.06248255
158	0x3dabe120	0.083925486
159	0xbd5cffd7	-0.053954925
160	0x3dbbf185	0.091769256
161	0xbd92ee58	-0.07174367
162	0x3d7347af	0.059394535
163	0x3d648be4	0.055797473
164	0xbdbc2e7b	-0.09188553
165	0x3b59492b	0.0033155184
166	0xbd07e840	-0.033180475
167	0xbd8d0331	-0.06885374
168	0x3cfca5bd	0.030840749
169	0xbd4fe78c	-0.05075793
170	0xbd6bdc28	-0.057583004
171	0x3d154340	0.036441088
172	0xbc8718b7	-0.016491277
173	0x3cd2e2a5	0.025742838
174	0xbd14d0b5	-0.03633185
175	0xbd1fd706	-0.03902342
176	0x3d523598	0.051320642
177	0x3d186486	0.03720524
178	0xbd8dba5e	-0.06920312
179	0x3bc791b0	0.0060903654
180	0x3d92a442	0.07160236
181	0xbd177b5c	-0.03698288
182	0xbd60c57a	-0.05487583
183	0x3d88ee8e	0.06686126
184	0x3ddd67b6	0.10810797
185	0x3d0531db	0.03251825
186	0x3d42e87a	0.04758499
187	0xbd8014bb	-0.06253954
188	0xbd1fbb33	-0.038996886
189	0x3de66e10	0.112514615
190	0xbd1312bc	-0.03590654
191	0xbbbfc379	-0.0058521596
192	0xbd840389	-0.06445987
193	0xbc96313b	-0.018334022
194	0x3d3c0c2a	0.045910038
195	0xbd9b6a92	-0.07588686
196	0x3dd3c6ec	0.10340676
197	0x3886b041	6.422448e-05
198	0xbdb28484	-0.087166816
199	0xbd8b52db	-0.06802913
200	0xbd82faa2	-0.06395461
201	0x3d55f110	0.05223185
202	0x3d935bc8	0.0719524
203	0x3d320f9e	0.043471925
204	0x3c04cf8e	0.0081061255
205	0xbc3ef87d	-0.011655924
206	0xbd381d23	-0.044949662
207	0x3d841121	0.064485796
208	0x3cdda493	0.027056014
209	0x3c8da8bb	0.017292371
210	0x3d553d09	0.05206016
211	0x3da836df	0.08213591
212	0xbd6fa0bb	-0.058502894
213	0xbd0997da	-0.033592083
214	0xbc0ff6b8	-0.00878685
215	0xbc60e5bb	-0.013726647
216	0xbb962434	-0.0045819525
217	0x3dabd572	0.08390321
218	0x3d4a061a	0.049322225
219	0xbd441c44	-0.04787852
220	0xbdb06d1d	-0.08614562
221	0xbc3eb3c6	-0.011639541
222	0x3d383194	0.044969156
223	0x3da3c874	0.07997218
224	0xbd6fa2b1	-0.058504764
225	0x3d400e98	0.046888918
226	0xbda38bef	-0.079856746
227	0x3c9443ba	0.0180987
228	0xbdcfc57b	-0.10145088
229	0xbd5292fd	-0.05140971
230	0xbd68a96c	-0.0568022
231	0xbd91827e	-0.071049675
232	0xbd3b0cbe	-0.04566645
233	0x3cc5dbb8	0.024152622
234	0xbd6a2a03	-0.05716897
235	0x3aff6987	0.0019486406
236	0xbdd5272b	-0.10407861
237	0x3c5acca8	0.013354458
238	0x3d01865f	0.031622287
239	0xb92d18f0	-0.00016507856
240	0x3d35970b	0.0443335
241	0xbd4d94c1	-0.05019069
242	0x3d54b42a	0.05192963
243	0xbd3cedfd	-0.0461254
244	0x3d9541fa	0.07287975
245	0xbcc5c3f0	-0.024141282
246	0x3d67d3bd	0.056598414
247	0xbc9cc9ab	-0.019139132
248	0x3c8d2198	0.017227933
249	0xbb6dde47	-0.0036295818
250	0x3d86d978	0.065844476
251	0x3ccfecdd	0.0253815
252	0x3cb30dd0	0.021857172
253	0x3d35c853	0.044380497
254	0x3cdb8f36	0.026801687
255	0xbdacbeb1	-0.08434809

bias f4 [128]
0	0x3db72246	0.08942084
1	0x3d4587e6	0.048225306
2	0xbcdb9730	-0.02680549
3	0x3d8eca88	0.069722235
4	0x3d236232	0.03988857
5	0x3c0aca70	0.008471116
6	0x3b003a9a	0.001956618
7	0xbd5456e5	-0.05184068
8	0x3d9cf9f1	0.0766486
9	0xb9c3bb38	-0.00037332787
10	0x3d45cbb3	0.048289966
11	0x3d907a83	0.07054617
12	0x3d84f754	0.064924866
13	0x3d9b0601	0.075695045
14	0x3b14d861	0.002271198
15	0x3b1f13d0	0.0024273284
16	0x3d54b0cb	0.051926415
17	0xbd562d12	-0.052289076
18	0xbd623f13	-0.055235934
19	0x3b9782b7	0.0046237367
20	0xbd8aeeff	-0.06783866
21	0xbc3e907b	-0.0116311265
22	0xbd83edbb	-0.06441828
23	0x3bfb549d	0.007669999
24	0xbdbf0dd8	-0.09328812
25	0xbcdbc5f6	-0.026827794
26	0x3dd4f40c	0.10398111
27	0x3d5eaad4	0.054362133
28	0xbca7b30a	-0.020471115
29	0xbd7ec9eb	-0.062204283
30	0xbd020786	-0.031745456
31	0xbd89b5d9	-0.06724138
32	0x3c327e5e	0.010894386
33	0x3db61c1c	0.0889208
34	0x3cf9b111	0.03047994
35	0x3d3310a8	0.043717057
36	0x3cfebbfc	0.031095497
37	0xbd80078b	-0.06251439
38	0xbdb9f246	-0.09079413
39	0x3d6536f3	0.055960607
40	0xbdc20a88	-0.09474665
41	0xbb879d8e	-0.004138655
42	0x3d7e0934	0.062020496
43	0x3d1b58c0	0.037926435
44	0x3d90c60b	0.07069024
45	0x3dd195ca	0.10233648
46	0xbd93b22c	-0.07211718
47	0x3d71f436	0.05907079
48	0xbc1ddda6	-0.009635365
49	0xbb14aba8	-0.0022685323
50	0xbd5d3fae	-0.054015808
51	0x3dc77df3	0.0974082
52	0x3c5395d8	0.0129141435
53	0xbd7f65e5	-0.062353034
54	0x3d6fadbd	0.0585153
55	0xbdbf5b04	-0.09343532
56	0xbdd3ce96	-0.103421375
57	0xbbb23ee4	-0.005439626
58	0x3db84667	0.08997803
59	0xbc9c2e36	-0.019065004
60	0x3d883b13	0.066518925
61	0xbd2a3af2	-0.04156012
62	0x3d2e514d	0.042558003
63	0x3da49704	0.080366164
64	0xbcb87e7b	-0.022521248
65	0x3bd3d989	0.006465141
66	0xbd50f4f6	-0.051014863
67	0x3d06e3e1	0.032932166
68	0x3d13595e	0.0359739
69	0xbcde1a95	-0.027112285
70	0xbc0165c4	-0.007897798
71	0x3ceebc57	0.029142542
72	0xbc813667	-0.015773011
73	0x3d914350	0.07092917
74	0x3c66f4b6	0.01409643
75	0x3d92cd3e	0.07168053
76	0xbda72981	-0.08162213
77	0xbd362d60	-0.044476867
78	0x3d104a85	0.035227317
79	0x3d9f6b9c	0.07784197
80	0x3d8dc512	0.06922354
81	0x3c2e523f	0.010639726
82	0x3db96d8d	0.09054098
83	0xbcf139cd	-0.029446507
84	0xbd5b38d5	-0.053520996
85	0xbd21e6a3	-0.039526593
86	0x3da72343	0.081610225
87	0xbd39afa1	-0.04533351
88	0x3c163205	0.009167199
89	0x3d1b085e	0.037849776
90	0xbbedfa85	-0.0072625303
91	0x3da47822	0.08030726
92	0x3d4ed8d3	0.05049975
93	0x3d2abe7d	0.04168557
94	0x3d155244	0.036455408
95	0xbcd0d70f	-0.025493173
96	0x3c72ef49	0.014827558
97	0xbccf1082	-0.025276426
98	0xbbfc80aa	-0.0077057676
99	0x3db6cf87	0.089263014
100	0xbc5614f2	-0.013066517
101	0x3d936d06	0.07198529
102	0x3b1080fb	0.0022049535
103	0x3d5ce7b2	0.0539319
104	0x3c967bbf	0.018369554
105	0x3d9ad5bf	0.075603
106	0x3c894a51	0.01675907
107	0xbc9185f3	-0.017764067
108	0x3d820292	0.063481465
109	0xbd599312	-0.053118773
110	0x3d781295	0.060564596
111	0xbd6b56a5	-0.057455678
112	0x3d1617bf	0.03664374
113	0xbd460d01	-0.048352245
114	0x3d048ab8	0.032358855
115	0xbdbfe6bc	-0.09370181
116	0x3d1e7e90	0.03869492
117	0xbcdb42e3	-0.026765293
118	0xbc6ec4b1	-0.014573262
119	0xbd2b9c7e	-0.04189729
120	0xbb04f579	-0.0020287915
121	0xbc23d574	-0.009999622
122	0xbd88510c	-0.066560835
123	0x3dcd0e24	0.10012463
124	0x3d8d9fb9	0.0691523
125	0xbcd6d842	-0.026226167
126	0x3daa5fc3	0.08319046
127	0xbbde792a	-0.006789346

weight f4 [1, 128]
0	0x3d952c3a	0.07283826
1	0xbd0471bc	-0.032335028
2	0xbd9b05f5	-0.075694956
3	0x3d83cf50	0.06436026
4	0x3dbe550e	0.09293567
5	0x3d8a7b44	0.06761792
6	0x3d4a9e62	0.049467452
7	0x3d7a9271	0.061174814
8	0xbdbc7a5f	-0.09203028
9	0x3d196777	0.037452187
10	0xbdc59009	-0.09646613
11	0xbd99e7c1	-0.07514907
12	0xbd0ee881	-0.0348897
13	0xbddbf2bc	-0.10739657
14	0x3d906ffd	0.0705261
15	0xbc33db9e	-0.010977654
16	0x3cf85a9b	0.030316642
17	0xbd8e94d9	-0.06961984
18	0x3caf5519	0.021402882
19	0xbd9f01b6	-0.07763998
20	0xbd1a42d4	-0.03766139
21	0xbdd7f1f7	-0.10544198
22	0x3c744398	0.014908694
23	0x3c02dad6	0.007986745
24	0xbcd14219	-0.025544213
25	0x3d98f2b7	0.07468169
26	0xbcea5d96	-0.028609078
27	0xbda8f9f3	-0.08250799
28	0xbc89118f	-0.016732005
29	0x3cecf7b4	0.028926708
30	0xbd944f62	-0.072417036
31	0x3db87a4d	0.09007702
32	0x3d31fcf3	0.04345412
33	0xbd9bd1f8	-0.07608408
34	0xbcc52d72	-0.024069522
35	0x3da54360	0.080694914
36	0x3dc4c5b3	0.09608021
37	0xbd8d52a0	-0.06900525
38	0xbc67a1aa	-0.014137665
39	0x3d970d47	0.07375579
40	0xbd2cb24f	-0.042162236
41	0xbda390fb	-0.07986637
42	0xbcab6f50	-0.020927101
43	0x3c74f6be	0.014951406
44	0x3ce2ef31	0.027701946
45	0x3d26b3ae	0.0406987
46	0xbc22b112	-0.009929912
47	0xbde017d2	-0.10942043
48	0x3d5206ca	0.051276006
49	0x3db68fd8	0.08914155
50	0x3c8bd9fa	0.017071713
51	0xbcbada2d	-0.022809112
52	0x3d73ce62	0.059522994
53	0x3cbd41cb	0.023102662
54	0x3d96ec3d	0.073692776
55	0xbd2d1124	-0.042252675
56	0xbd8251b0	-0.06363237
57	0x3c7cdbf2	0.015433298
58	0xbd36ff7c	-0.044677243
59	0x3d4b32e2	0.049609073
60	0xbd26daed	-0.040736128
61	0xbc14b676	-0.009076705
62	0xbdb28e94	-0.08718601
63	0xbd3e3c36	-0.04644414
64	0xbd841d74	-0.0645093
65	0xbd6b4ca1	-0.057446126
66	0xbd7176d0	-0.0589512
67	0xbca78816	-0.020450633
68	0x3daab367	0.083349995
69	0xbdb4ed20	-0.088342905
70	0xbcf9f2a9	-0.030511217
71	0xbda003b6	-0.07813208
72	0x3da06b42	0.07832958
73	0x3d723952	0.059136696
74	0xbd4dbad0	-0.050226986
75	0xbd3f1f11	-0.046660487
76	0xbd5df151	-0.054185215
77	0x3d7d16b0	0.061789215
78	0x3af684f4	0.0018807934
79	0x3dabba5b	0.08385154
80	0xbd470ff2	-0.04859919
81	0x3d4d120f	0.05006605
82	0xbdc5f691	-0.096661694
83	0xbc3e25f8	-0.011605732
84	0x3d778a81	0.060434822
85	0x3d946ff6	0.07247917
86	0x3d89ba01	0.067249306
87	0xbcbfc98a	-0.023411531
88	0xbcf7233b	-0.030168166
89	0xbd293712	-0.041312285
90	0x3dbec0a1	0.09314085
91	0x3da9a967	0.08284264
92	0x3db946a0	0.09046674
93	0xbdc5505c	-0.09634468
94	0x3dacbbca	0.084342554
95	0xbd6a5490	-0.05720955
96	0xbd72af08	-0.059248954
97	0x3d0ffe92	0.035154887
98	0xbd8fd144	-0.07022336
99	0x3dc7081e	0.09718345
100	0x3d5dc882	0.054146297
101	0x3d93b9e3	0.072131895
102	0x3d4eb704	0.050467506
103	0xbd996278	-0.074894845
104	0x3d6e7f6b	0.058226984
105	0x3dbf0e51	0.093289025
106	0x3c075fa3	0.008262548
107	0xbda81249	-0.082066126
108	0x3dbc8db0	0.09206712
109	0xbd5f1283	-0.054461014
110	0x3d51c831	0.051216308
111	0x3ce30111	0.02771047
112	0x3d8f1d3c	0.06987998
113	0x3c1e761c	0.009671714
114	0xbceab366	-0.028649997
115	0xbd80bdbd	-0.0628619
116	0xbdd3f3da	-0.10349245
117	0x3ca8503d	0.020546073
118	0xbcf0c85a	-0.02939241
119	0xbb97d44e	-0.004633463
120	0x3da43022	0.08016993
121	0xbc517068	-0.012783147
122	0x3c692c34	0.01423173
123	0xbd57d077	-0.052689042
124	0x3dadae9d	0.084805705
125	0x3c0a88e3	0.008455488
126	0x3c8d0ee0	0.017219007
127	0x3cee6c8e	0.029104497
