Dry fermentation prediction and optimization system/predictor_percolate_tank/Predictor_Percolate Tank Biogas Production/models/NeuralNetTorch_BAG_L1/S2F1/net.params (torch, 208391 bytes, 9 tensors)

weight f4 [128, 7]
000000 dc d0 00 bc 85 30 43 3e 50 ab a5 be 76 74 94 be
       -0.007862296 0.19061477 -0.32357264 -0.28995103
000010 01 3e 1a be 2f 5a 03 3e 32 21 36 bc 5c 6f a1 3e
       -0.15062715 0.12827371 -0.011116313 0.31530273
000020 6c 50 24 bd 24 4a a7 3d 12 57 ec bd 3e ea cf bd
       -0.04011576 0.08168438 -0.11540045 -0.101521
000030 ce 98 b5 be c1 32 79 be 48 3f 34 be ef 1a 15 bc
       -0.35468143 -0.24335767 -0.17602265 -0.00910066
000040 68 9e 2b 3e 93 bc 6e 3e 76 e7 84 be fb 4f 26 be
       0.16759646 0.23314123 -0.2595784 -0.16241448
000050 24 49 e7 3d c2 17 ae 3e 87 f5 cc bd dc 34 84 3e
       0.11293247 0.340025 -0.10007768 0.25821579
000060 a5 fb b4 bd 01 8a 13 3d 5b f6 ab 3e 9c f1 b1 be
       -0.0883706 0.036020283 0.33586392 -0.34754646
000070 27 cd 6f be 20 a8 fc bd bc 53 09 be 92 fc af 3e
       -0.23418103 -0.12336755 -0.13410848 0.34372383
000080 01 c1 7a be 00 b5 36 be a3 f1 86 be 7b f1 c2 be
       -0.24487688 -0.17842484 -0.2635623 -0.3807486
000090 af 48 8b be 57 2e 96 3e 7c 83 11 3e d4 85 17 3e
       -0.2720389 0.2933223 0.14210314 0.14797145
0000a0 30 9b 9f 3c b3 25 32 be 08 50 b3 3d f3 40 b1 be
       0.019483179 -0.17397194 0.08755499 -0.34619865
0000b0 85 aa 92 be bd 33 56 be b0 38 7a 3e bc f0 55 3e
       -0.2864572 -0.20918174 0.24435687 0.20892614
0000c0 18 80 1d be ed 1a 88 bc 9e 52 8b 3e 20 ef c7 3e
       -0.15380895 -0.016614402 0.2721147 0.39049625
0000d0 d6 6f 24 3e 80 07 dd 3c 42 ad 73 3e 0a 17 64 be
       0.16058287 0.026981115 0.23796561 -0.22274414
0000e0 41 b7 c7 3d a1 24 a3 be 47 4c 8d be 0b fd 57 be
       0.0975175 -0.31863883 -0.27597257 -0.21092622
0000f0 df df 28 3e 90 55 14 3e e8 36 5b be e7 4b e0 3d
       0.1649165 0.14485765 -0.21407664 0.10951977
000100 e1 8f 48 3e cd 8d 3a bd 0f 47 2b 3c e4 d3 ef 3d
       0.19586135 -0.045545388 0.010453953 0.11710337
000110 4f 21 7a 3e f8 56 b4 3e 11 b8 85 be 6d bd da bd
       0.24426769 0.35222602 -0.26116994 -0.10680661
000120 21 1e 13 3e 90 0d aa 3e 3c 99 b0 3e b4 e0 aa 3e
       0.14366962 0.33213472 0.3449191 0.3337456
000130 34 9c ad 3d 7b 87 ac be ee 8e 01 bc 70 09 7b be
       0.08477059 -0.33697113 -0.007907612 -0.24515319
000140 15 f5 b9 be ff a3 a1 3e a3 06 98 3e ba 7c bb be
       -0.36319795 0.31570432 0.29692563 -0.36618596
000150 05 06 f3 3d e0 b7 b6 bd d8 97 be bd b8 36 49 be
       0.118663825 -0.0892179 -0.09306306 -0.1964978
000160 e5 7a 0c 3e f9 2d 5b be 88 48 05 3e 06 a0 38 3e
       0.13718756 -0.21404256 0.1301595 0.18029794
000170 28 92 a4 3e 63 28 30 3e f1 8f b4 be dc c2 7e be
       0.32142758 0.17202906 -0.3526607 -0.2487902
000180 99 8b 4c 3e f0 51 ac 3d e7 79 a3 be 30 da 5d be
       0.19975127 0.08414066 -0.31928942 -0.21665263
000190 e0 97 c3 3e 22 f8 91 3e 5e e4 29 be 2d 34 dd bd
       0.3820181 0.28509623 -0.16591021 -0.10800967
0001a0 45 44 bb be 57 df 14 bd e1 82 8e be 5c 8c 87 be
       -0.36575523 -0.036345806 -0.27834228 -0.26474273
0001b0 d3 10 0b bc 8b d0 2a 3d 04 79 31 be 79 cf 71 3e
       -0.008487898 0.04170279 -0.1733132 0.23614301
0001c0 35 2b 6f be 5e 87 ab 3e fa 27 85 3e ca 96 a1 be
       -0.23356326 0.33501714 0.26007062 -0.31560355
0001d0 51 51 c5 bd bb 22 89 3c 46 58 35 3d 45 80 ef 3d
       -0.096346505 0.016740194 0.044273637 0.11694387
0001e0 36 1e 0d 3e 87 22 49 3c 33 fc 46 be 40 05 4a 3e
       0.13781056 0.012276298 -0.19432144 0.19728565
0001f0 a7 58 b7 be 19 31 55 be f9 96 ea bd 23 dd 67 be
       -0.35809824 -0.2081951 -0.11454577 -0.2264295
000200 17 db 11 be ee b7 a6 be cc 5f ef bd 29 f8 9e 3d
       -0.14243732 -0.32562202 -0.11688194 0.077621765
000210 fa 8c 55 be b9 5d d0 bc 09 4f 88 3e 0e 4e dd bc
       -0.2085456 -0.025435315 0.266228 -0.027014758
000220 c1 0e 28 3d ef 87 00 bd 75 8a ac 3d 30 ae 6a 3e
       0.041029695 -0.031379636 0.08424846 0.2291801
000230 d8 94 bf 3e bc 18 74 3e 61 19 c1 3e 6e 81 03 bd
       0.37418246 0.2383756 0.37714675 -0.032105856
000240 b5 8a bb be 52 91 2c be 79 61 83 3e 15 2d 14 bd
       -0.36629263 -0.1685231 0.25660303 -0.036175806
000250 2b 93 67 be c6 ea 8e be 5b 73 b9 be bd 6b b2 be
       -0.22614734 -0.27913493 -0.36220822 -0.34847823
000260 fc 0e ab bd 94 e6 4f 3e 0a 7d 49 3e 02 05 cd be
       -0.083524674 0.20302802 0.19676605 -0.40042883
000270 c6 5d 5f 3e 4b 57 aa be af a9 e3 bd 34 4c fe bd
       0.21813115 -0.33269724 -0.11116349 -0.12416878
000280 7e 76 c9 bd a1 3e 85 bd 95 11 b9 be 19 e8 ab be
       -0.09837054 -0.06506086 -0.36146227 -0.33575514
000290 48 e7 82 bd aa 2f 85 3c 92 7f 24 be 7b bc ff 3d
       -0.0639177 0.01625808 -0.16064289 0.12487122
0002a0 11 dc a1 be 37 04 6c bc a4 69 a7 3e de 42 26 be
       -0.3161321 -0.014405302 0.32697785 -0.16236445
0002b0 7e 41 b4 3e e7 4a 03 3e 30 bf b0 be 9f 58 81 3e
       0.35206217 0.12821542 -0.34520864 0.25262925
0002c0 64 45 a4 bd 7f da 4b be 7c ab 84 3e 44 a0 b3 be
       -0.08021048 -0.19907568 0.25912082 -0.3508321
0002d0 92 5e 80 3d 3b 51 cc bd 18 d1 88 3e cf 47 04 3e
       0.06268038 -0.09976431 0.26722026 0.12918018
0002e0 d8 71 2d 3e ab 82 00 3e 9c 62 dc bd 9b 27 b3 bd
       0.16937959 0.12549846 -0.10760996 -0.087477885
0002f0 40 25 9b be d5 bf 4e 3e 63 be 95 3e f3 a7 8e 3e
       -0.30301857 0.20190366 0.29246816 0.2786251
000300 b6 95 8d be 49 65 ad bc 85 b4 80 be 1d 02 61 be
       -0.27653283 -0.02116646 -0.25137725 -0.21973462
000310 4f 7b 59 be d6 71 1e 3e c8 1d 53 be ed 34 4a 3c
       -0.21238445 0.15473112 -0.2061683 0.01234172
000320 0e d6 03 3d 6f 63 83 3e 7a 2d 9d be 49 97 8a be
       0.03218656 0.256618 -0.30698758 -0.27068546
000330 47 f0 7e be fb 9a 78 3e 5a 83 1d be 07 ef a0 3e
       -0.24896346 0.2427787 -0.15382138 0.31432363
000340 35 05 26 3e 0c 5c 28 3d 49 b6 6c 3c 3d c8 80 bd
       0.16212924 0.041103408 0.014447757 -0.062881924
000350 19 a4 3e 3d 8e 37 b9 bd 74 a3 08 bc ba 74 1a 3d
       0.046543214 -0.09043799 -0.0083397515 0.037708975
000360 71 94 98 be 11 24 3f be 8b d3 aa 3e 86 fc a9 be
       -0.29800752 -0.18666102 0.3336452 -0.33200473
000370 5b 80 0a bc 21 5a c2 3e 07 c2 da 3d 3d a9 12 3d
       -0.008453454 0.37959388 0.10681539 0.03580593
000380 0a a0 b7 be 61 8d 2a 3e 5e 64 78 be 3b 7a e0 bd
       -0.35864288 0.16655494 -0.24257037 -0.109608136
000390 91 77 0c be 46 f6 88 bd 38 13 c7 3b a3 87 ab 3e
       -0.13717486 -0.06687598 0.006075289 0.3350192
0003a0 53 b7 0b 3d 41 d3 b1 3e 42 7c 75 3e f2 42 92 be
       0.03411038 0.34731486 0.23973182 -0.285667
0003b0 5c 13 1b 3e c9 57 85 be f4 d5 26 be bb 27 9d 3d
       0.15144104 -0.26043537 -0.16292554 0.076735936
0003c0 89 f7 f5 3d 01 cf 93 3e 1a bf 02 be 23 b8 21 3c
       0.12010104 0.2886887 -0.12768212 0.009870562
0003d0 3e d9 34 3e 42 bd c7 be 2e 4a 71 3e 26 34 9a be
       0.17660996 -0.3901158 0.23563454 -0.3011791
0003e0 19 7b a1 bc 50 a5 be bd 33 00 5d be 2d 6f 91 3d
       -0.019712018 -0.093088746 -0.21582107 0.07101283
0003f0 5f 06 b3 3e 29 b6 0b be f2 f5 89 be 3f d6 3a be
       0.34965798 -0.13643707 -0.26945454 -0.18245791

bias f4 [128]
000000 ee 91 a7 be 3f aa bc bc f2 bf 07 3e 67 46 15 3e
       -0.32728523 -0.023030398 0.13256815 0.14577638
000010 b0 3e 9e 3e 41 d6 c0 3e dd 03 b4 3e 21 a7 8d 3e
       0.30907202 0.37663463 0.35159197 0.27666572
000020 45 25 8b 3e 11 24 86 bd ef fd 91 be 85 c5 ef bd
       0.27176872 -0.06549848 -0.28514048 -0.11707596
000030 d3 fb ad bc 87 34 55 be bb b5 4b 3e 7d 7c 02 3e
       -0.021238243 -0.20820819 0.19893543 0.12742801
000040 6c b2 6c 3d a3 a8 c8 3d bb d0 b4 3e 76 47 0e 3e
       0.057787344 0.0979779 0.353155 0.13894448
000050 64 ab a4 be ba 33 87 be 1e a1 27 3e ee bd 8d 3d
       -0.3216201 -0.26406652 0.16370055 0.06920992
000060 bf 3c 4f 3e 7e 5a b8 be 8a 38 bb be d2 0b 67 3e
       0.20238017 -0.3600654 -0.36566573 0.22563103
000070 4b e1 64 3e b8 58 a6 be 3a ce 22 3e 13 7f 8d be
       0.22351567 -0.32489562 0.15898982 -0.27636012
000080 66 05 89 3e ca 36 1b 3e b1 98 c2 3e 3d a8 b3 be
       0.2676193 0.15157619 0.3800712 -0.35089293
000090 17 0a aa be 38 02 74 3e da 44 a6 3e 49 b7 81 3e
       -0.33210823 0.23828971 0.32474405 0.25335148
0000a0 01 bc 8a 3e 22 aa 9c be d4 1b 8f 3e 72 46 b0 be
       0.2709656 -0.3059855 0.2795092 -0.34428746
0000b0 68 51 da 3d 43 b6 83 be a7 54 10 be 3f 9b 72 3d
       0.10660058 -0.25724992 -0.14094792 0.059230085
0000c0 60 13 0e be 98 16 96 bd be 29 ba be eb 57 a7 be
       -0.13874578 -0.07328528 -0.36359972 -0.32684264
0000d0 ca da 0e 3e 4f 7c 18 be 8b 4c 55 be f4 37 12 be
       0.13950649 -0.1489117 -0.2082998 -0.14279157
0000e0 9a 67 8b be ee d9 a3 be a4 3e 7a 3e e7 6e 4e 3e
       -0.2722748 -0.32002205 0.24437958 0.20159493
0000f0 78 1a 71 3d 87 0a 55 be 72 5a 07 3e c0 d5 4d 3c
       0.058863133 -0.20804797 0.13218096 0.012563169
000100 36 e0 88 be 19 90 a9 3d 7f b3 b8 3e ff 30 b2 be
       -0.2673356 0.082794376 0.36074445 -0.34803006
000110 66 89 c3 be 79 20 83 3d 56 6f 97 3e 44 95 6f be
       -0.38190764 0.06402678 0.2957713 -0.23396784
000120 2c a9 d6 3d 8a b3 95 3e 93 db be 3d ed c6 a2 3d
       0.10481486 0.2923854 0.09319224 0.07948098
000130 9d b5 bb 3e 80 76 80 3e 8e b6 59 be b7 83 11 bc
       0.36661997 0.25090408 -0.21261045 -0.008881501
000140 e5 52 30 3e d7 b9 a4 3e c7 d8 b4 be 09 ef 55 3e
       0.17219122 0.32173035 -0.35321638 0.20891966
000150 f2 26 8b bd 64 6d bf be 8a 76 ac 3d 65 db 3d be
       -0.067945376 -0.37388146 0.08421047 -0.18540724
000160 6c 28 49 3d 8b 6d 76 be 26 20 9d be 26 63 27 bd
       0.049110815 -0.24065225 -0.3068859 -0.04086604
000170 63 92 07 be 12 5f 55 3e af 8f 05 3d 34 9a a6 3e
       -0.13239436 0.20837048 0.03260773 0.32539523
000180 38 7e 99 3d 47 10 0d be 24 4e 7a 3e 71 61 64 3d
       0.074947774 -0.1377574 0.24443871 0.05575699
000190 46 c1 6e 3d 16 1a 05 be a6 7a c1 3c 31 07 ce bd
       0.05828979 -0.12998232 0.023618054 -0.100599654
0001a0 ad 81 c6 bc 65 fd 9f be b3 d6 78 3c b5 cc 8c be
       -0.024231756 -0.31248012 0.015187907 -0.2749993
0001b0 fc d0 b0 bd 5a ae 72 3e c7 5b 8c be e7 5f 6b be
       -0.086336106 0.23699322 -0.2741377 -0.22985803
0001c0 ff ad d7 bd 00 c3 c3 bd ed 0a 5e 3d ae 47 92 3d
       -0.10531234 -0.09558678 0.05420964 0.07142578
0001d0 81 b5 5c 3e 1f 7c 88 be 1e fe d3 bb 08 3c 37 3e
       0.21553613 -0.26657197 -0.006469502 0.17893994
0001e0 2a c2 a3 3e 57 ac 18 bd 39 29 57 be 51 99 06 3e
       0.31984073 -0.03727373 -0.21011819 0.13144423
0001f0 23 2a 44 3e 34 35 61 be b9 c1 57 be a5 02 12 3e
       0.19156699 -0.21992952 -0.21069993 0.14258821

weight f4 [128, 128]
000000 e2 77 0c bb 44 f4 b2 bd 5a f9 49 bd 3d 3d 23 3d
       -0.002143376 -0.08737996 -0.049310066 0.039853323
000010 23 e0 b7 bc 36 c7 80 3d 46 09 a1 3d 39 bf 86 3c
       -0.022445744 0.062879965 0.07863097 0.016448604
000020 9c b4 24 3c 16 4c 59 bc 5d c5 96 3b 49 cf 1d 3c
       0.010052826 -0.013262769 0.0046011643 0.00963194
000030 f6 25 63 bd 3b 03 3a bd 2e c5 9a bd 48 d0 8e 3d
       -0.055456124 -0.045413237 -0.0755714 0.0697332
000040 10 75 87 bd 23 7b 99 3d 1f 97 48 ba a1 6e da bc
       -0.06614125 0.074941896 -0.00076519133 -0.02666408
000050 55 53 27 3d 62 62 1c 3d 35 6f aa 3d 94 fe 52 3d
       0.040850956 0.038179763 0.08321992 0.051512316
000060 a6 0f b5 bd db 8a e1 3d 7d 87 6f bc e5 d4 11 bd
       -0.08840875 0.11012813 -0.014619705 -0.035603423
000070 08 05 54 3d 5e 8b 51 3d 04 7f 85 bd 37 c4 ba 3b
       0.05176261 0.0511583 -0.06518367 0.00569966
000080 50 e9 8a 3d e1 3d 26 3d 70 01 b1 3d 6c 9d 20 bd
       0.06782782 0.040586356 0.08642852 -0.03921263
000090 b9 60 c8 bc 8a 94 a0 3d 9e ce 2d 3d 5f 10 d3 3d
       -0.024460183 0.078408316 0.042433374 0.10305857
0000a0 a5 4b d7 bc 4c 46 0a bd 8e 12 03 ba ff d4 88 bd
       -0.026281187 -0.033758447 -0.0005000018 -0.06681251
0000b0 e7 ca 6d 3d 22 8a 8f 3d 43 2c 20 3d 44 c1 0b bc
       0.05805483 0.070087686 0.03910471 -0.008529965
0000c0 23 67 88 3d ed f4 5e bd 25 92 d2 3d a2 48 af bd
       0.06660297 -0.0544328 0.10281781 -0.085587755
0000d0 82 4c a9 bd 84 d4 c9 3b fa a3 a1 3d 18 2a 94 3c
       -0.08266546 0.006159367 0.07892604 0.018086478
0000e0 40 4c 10 3c 41 aa 93 bd 28 e4 70 3d ec b4 32 3c
       0.008807242 -0.07210208 0.058811337 0.010907393
0000f0 63 bd fa 3c 99 be 31 3d 2d 86 ed 3c 61 40 ad bc
       0.030607885 0.04339466 0.028994644 -0.021148862
000100 6a 5d 89 bb e7 1e 4c bd d0 b8 ca bc 87 32 7f 3d
       -0.004192044 -0.04983416 -0.024746329 0.062304046
000110 f7 76 32 bd 0d b0 80 3d 2d 2b d6 bc 62 7f cf bc
       -0.043570485 0.06283579 -0.026143635 -0.025329296
000120 00 94 75 3c eb dd 7b bd d3 5c 3b b8 5c 82 b3 bc
       0.014988899 -0.061490934 -4.4670724e-05 -0.021912746
000130 6a cc 97 bb c7 7a b2 3b 67 d6 66 3d 2a d8 55 3d
       -0.0046325224 0.005446765 0.056356814 0.052208103
000140 1f 62 84 bd 33 df 60 3d 1d 17 ad bd be 2f 92 bd
       -0.064640276 0.05490036 -0.08451674 -0.07138012
000150 f4 8f f6 3c 1b d7 af bb 10 43 30 bd 35 2e c1 bd
       0.03009794 -0.0053662187 -0.043032706 -0.094326414
000160 80 df 0e bd 50 38 67 3c 50 61 98 bd eb 96 c8 bd
       -0.034881115 0.014112547 -0.07440436 -0.0979441
000170 82 48 db 3c fe 33 24 bd ff 8a a4 bd 2e b3 f2 bc
       0.026767973 -0.040088646 -0.08034324 -0.029626455
000180 8f 14 67 3b 2e 69 c1 bd de d2 5a bd 21 c5 1f 3d
       0.0035260057 -0.094438896 -0.053423755 0.039006356
000190 db 91 9b bd 90 a5 22 bc 6f 18 18 bd 3d ca 93 bd
       -0.07596179 -0.0099271685 -0.037132677 -0.07216308
0001a0 6a 12 37 3d 79 83 82 bd be eb 6f bd 62 6c 63 3d
       0.044695295 -0.06372733 -0.05857443 0.055523284
0001b0 2f 33 e9 3b 83 1c b9 3d 46 8b d3 bc 6d ed 59 bd
       0.0071166973 0.09038641 -0.025823247 -0.053204942
0001c0 dc c7 f2 3b c3 8d 2a bb b1 d4 88 3d 0c fe 90 bd
       0.007409079 -0.0026024438 0.06681193 -0.070797056
0001d0 03 c7 68 3b cd b9 ad 3d f7 30 29 bd 2d 8d 2d bd
       0.003551901 0.08482704 -0.041306462 -0.042370964
0001e0 a3 88 7f 3d 55 b9 9c bd 95 ed 02 3d fd 3f 44 bd
       0.062386166 -0.07652537 0.031964857 -0.047912586
0001f0 e2 7f 64 3d df 23 92 bd 76 5d 8c 3d 9f e3 87 bd
       0.05578602 -0.07135748 0.06853764 -0.06635212
000200 06 3f 82 bd 63 ab 4f bc 49 8a 78 3d 61 3e a9 bd
       -0.06359677 -0.012675139 0.060678754 -0.08263851
000210 25 02 48 bd 79 62 95 3d 25 cc b6 bb 50 81 11 3d
       -0.04883017 0.07294173 -0.005578535 0.035523713
000220 67 3d b2 bd 88 82 d7 3a 12 9c 20 bd d7 35 a7 3d
       -0.08703118 0.00164421 -0.03921134 0.08164566
000230 2c eb 05 3d 7f 10 44 bd 8c 80 45 3b d3 28 af ba
       0.03269498 -0.047867294 0.0030136434 -0.0013363607
000240 9f 85 1b bd ce 80 56 bd 83 d1 78 bb c5 65 bc 3d
       -0.037969228 -0.05236893 -0.0037966676 0.091990985
000250 e3 c8 98 bd bd 8d 77 bd 97 02 0b bd 99 7f 18 bc
       -0.07460191 -0.060437907 -0.033938017 -0.009307765
000260 e4 ab ac 3c e1 4a 43 bc 6c 66 ed bc 0c 12 5f bd
       0.021078058 -0.011919708 -0.028979503 -0.05446057
000270 87 97 ba bc c3 f6 16 bd 19 8b 87 3d b4 17 64 bd
       -0.022777332 -0.036856424 0.06618328 -0.055686668
000280 5b f7 5a bd f3 4b a8 bd 30 b3 1b bc 52 2f 8a 3d
       -0.053458553 -0.08217611 -0.009503171 0.06747307
000290 e8 73 b8 3d 0e 33 91 bd 3f bb 2e bc 01 86 44 3d
       0.09006482 -0.07089816 -0.01066476 0.04797936
0002a0 3e 73 40 3d 80 4b 20 3d 27 95 a2 bb be 60 5f bd
       0.046984904 0.039134502 -0.004961628 -0.05453562
0002b0 b8 ce 75 3d b7 66 16 bd 6d 4d 6b 3d c2 d3 c8 bc
       0.060011595 -0.03671905 0.057446886 -0.024515036
0002c0 db 09 2a 3d 1a ad a2 3d 00 7a a4 3d 6a 2c b0 bd
       0.041513305 0.07943173 0.08031082 -0.08602221
0002d0 03 aa 78 bd 04 cd a3 bc 9e c9 07 bd b1 c8 e5 3d
       -0.06070901 -0.01999522 -0.03315126 0.112199195
0002e0 fb 1a 98 bc 6d 5b 6b bd 33 88 14 bd 92 61 41 bd
       -0.018567553 -0.057460237 -0.036262702 -0.04721219
0002f0 06 7d 03 3d 84 dc 91 bd c7 4a bb bd 10 2c b7 bd
       0.032101654 -0.07122138 -0.09145122 -0.08943951
000300 76 90 07 3d 2c 5d 02 3d 1f 60 6a bd b1 ad 87 3c
       0.033096753 0.031827137 -0.057220574 0.016562315
000310 14 5c 85 3d 7d 6f ad 3c 50 f0 71 bc f5 f5 bb 3c
       0.06511703 0.021171326 -0.014766768 0.02294443
000320 27 cb 71 bc fa 13 33 3d 19 c5 7e bd 2f 24 70 3d
       -0.014757908 0.043720223 -0.062199686 0.058628257
000330 0e 68 26 3d a9 37 74 bd b5 04 85 3d c0 5f cf 3d
       0.040626578 -0.059623394 0.064950384 0.10125685
000340 03 61 0d bd cc 65 96 bc a3 ec 5e 3d f1 8d 82 bd
       -0.034516346 -0.018359087 0.054424893 -0.063747294
000350 e5 f7 3f 3d a2 9a 82 3c 3e bd 81 3d 73 b7 a1 bd
       0.04686727 0.015942875 0.06334923 -0.07896318
000360 45 fa a7 bd 77 65 04 3d c1 76 01 3d b4 d9 8d bd
       -0.08202032 0.032323327 0.031607393 -0.06926289
000370 82 ea 3f bd bb 18 96 bd 7e a1 79 bd 5d c8 28 bd
       -0.046854503 -0.07328936 -0.060945027 -0.041206706
000380 cd 6e a2 3d b7 37 a7 3b 66 b9 5b 3d e2 fc 9a 3d
       0.0793129 0.0051030773 0.053643607 0.07567765
000390 39 53 29 3d 09 bb b7 bd dd 1d 89 3d 96 8e 22 3d
       0.041339133 -0.08971221 0.06695149 0.03968676
0003a0 f4 ca 69 3d 68 a6 c2 bd f9 c4 60 3d 5c 4b a2 3d
       0.057078317 -0.09504396 0.054875348 0.0792453
0003b0 fc df 96 bd 4c 89 23 3c 3b 94 95 3d 6f d8 3d bd
       -0.073669404 0.009981465 0.07303663 -0.046348985
0003c0 45 c5 6a 3d 0d dc 19 3d 4f 96 9e 3c 20 96 b3 3d
       0.057317037 0.037563372 0.019358782 0.087688684
0003d0 22 71 8a 3d 4a b2 a4 3d 48 00 a7 bb ca ec 88 3d
       0.067598596 0.080418184 -0.005096469 0.06685789
0003e0 fa d9 9c bd 6e 3b 45 bd 7e 58 c5 bc 42 90 f6 bc
       -0.07658763 -0.04815238 -0.024090048 -0.030098084
0003f0 e5 b3 9b 3d 59 17 24 3d ec 75 7b 3d 31 13 80 3d
       0.076026715 0.04006133 0.061391756 0.062536605

bias f4 [128]
000000 11 ee 34 3d 01 8c 7c bd 59 3b a3 3c 1b ce de 3c
       0.04417235 -0.061656956 0.01992576 0.027197888
000010 44 0c 90 3c 93 00 74 3d d5 95 79 3d 15 33 52 3d
       0.017583974 0.05957086 0.060933907 0.051318247
000020 92 d4 88 bd 8b 47 54 3c 4f 4d 28 3d 3e dd 8c 3d
       -0.066811696 0.01295651 0.041089352 0.06878136
000030 a6 b3 46 bd cb cc 2d bb 2f bc 56 bc 01 32 96 bc
       -0.04851117 -0.0026519771 -0.01310639 -0.01833439
000040 ab 47 49 3d 4f 06 63 3d 5f 1f 9e bd ce 76 b4 3c
       0.049140614 0.05542594 -0.07720827 0.022029307
000050 a6 d4 4e bd 09 47 40 3d a8 ed da 3a 8f 4f 23 3d
       -0.050495766 0.046942744 0.0016702907 0.039870795
000060 72 ba d1 3b 1e c1 a3 3d 2a 91 8d bd f5 35 65 3d
       0.0064004 0.079958186 -0.069124535 0.05595966
000070 18 d7 e5 3d 55 f6 98 bc 21 3f df 3c da cb 3a bd
       0.112226665 -0.018672148 0.027251782 -0.045604564
000080 6c f9 b8 bc 47 26 d6 bc 30 43 31 3d cd c9 6e 3d
       -0.022579871 -0.026141299 0.043276966 0.05829792
000090 53 b7 a8 bc 90 ef 2d b9 9d a5 80 bd c0 a3 89 3d
       -0.020595228 -0.0001658781 -0.06281588 0.06720686
0000a0 95 38 44 3d 61 ce 81 3c 38 d2 04 bd e3 2d 40 3d
       0.047905523 0.01584548 -0.032427043 0.04691876
0000b0 f6 4d 49 bd fd be 8a 3d 69 1a 7b bd b5 b3 46 3d
       -0.049146615 0.067747094 -0.061304484 0.048511226
0000c0 f3 90 91 bd a1 2b 87 3c 10 bb c3 3d ca aa 80 3d
       -0.07107725 0.016500296 0.09557164 0.062825754
0000d0 ee d7 71 bd 5d 6c 10 bc e5 ea 70 3c ff 93 19 bd
       -0.059043817 -0.008814898 0.014704441 -0.037494656
0000e0 59 48 3b bb cc 6a b1 3d 61 4e 4f bd bd fe b9 bd
       -0.0028577058 0.08662948 -0.050611857 -0.090817906
0000f0 9f 37 65 bd d1 9a 24 bc c5 1a 38 bc 1a c8 17 3d
       -0.055961248 -0.010046677 -0.011236851 0.037056066
000100 84 7c 22 bd cc e9 46 bd 68 97 54 bd 78 0e 2c 3d
       -0.03966953 -0.04856281 -0.051902205 0.042005986
000110 9e 11 8c 3d e8 a0 9a bd 90 27 62 3d 31 de 6a 3d
       0.06839298 -0.07550222 0.05521351 0.057340804
000120 fb 05 87 bd d8 3a 04 bd 79 67 8e 3d 8a d4 06 bd
       -0.065929376 -0.03228268 0.069533296 -0.032917537
000130 2d 00 1c 3d 1f 41 f7 bb 2c 65 90 bd 41 a2 5a 3d
       0.038086105 -0.007545605 -0.07050547 0.053377394
000140 be 69 96 3c 36 4a 37 bd 7c d4 15 3d 4a 9e 33 bc
       0.018360969 -0.044748507 0.036579594 -0.010963032
000150 95 56 e2 bc e9 24 16 bd 4e 7b 8a bd d5 29 88 bd
       -0.027629176 -0.036656294 -0.067618 -0.06648604
000160 f6 b5 f6 bb 13 79 23 bd e2 59 05 3d 30 ec 9d 3d
       -0.0075290157 -0.039910387 0.032556422 0.07711065
000170 73 84 5d bc d7 c5 87 bd 61 47 a4 bd a0 dd 52 3d
       -0.013520348 -0.06629532 -0.08021427 0.05148089
000180 b6 a6 3a 3b 48 b1 77 bd d0 97 38 bd 59 c9 ec 3c
       0.0028480715 -0.060471803 -0.045066655 0.028904604
000190 79 e9 7f 3c 84 ee 4d 3d 93 69 bf 3d dd 07 44 bd
       0.015619629 0.050276294 0.093463086 -0.04785906
0001a0 02 21 62 bc 33 4d 87 bd 43 f6 bf 3d 4c 78 9e bb
       -0.013801815 -0.066065215 0.093731426 -0.004836118
0001b0 28 30 e1 bc 3c 7c 7a 3c 2e 4b 9e bc a7 9c c1 3c
       -0.027488783 0.015288409 -0.019322958 0.023634268
0001c0 b2 4c a8 3d 63 53 0f 3d 58 31 1e 3d 41 f4 39 bd
       0.082177535 0.034991633 0.038621277 -0.045398954
0001d0 33 ed 1d 3d fb 5f da 3d 6b 7b a4 bd e9 f4 e9 bc
       0.03855629 0.10662838 -0.080313526 -0.028559165
0001e0 00 ac bc 3d 06 10 a3 3d d0 69 30 3c 46 8c ae 3d
       0.09212494 0.079620406 0.010767415 0.08522849
0001f0 72 48 74 bc e9 a9 3c 3d 59 a8 0f 3d ca e2 bb 3d
       -0.01490985 0.046060476 0.03507266 0.09174116

weight f4 [128, 128]
000000 d1 5d 54 bd 73 43 64 3a c0 f7 63 3d 63 2f d2 bc
       -0.051847283 0.00087075605 0.055656195 -0.025657361
000010 72 83 fb bc 3e ac 0a 3d 4a d7 92 bd 0e b0 1f 3d
       -0.030702326 0.03385567 -0.071699694 0.03898626
000020 78 9d 88 3d b9 cd 61 3d e2 f8 19 bd 84 80 a6 3d
       0.0667066 0.055127833 -0.03759087 0.08129981
000030 bb 2f 43 3d c3 13 94 bd c5 cc c0 bd f9 81 0d 3d
       0.04765294 -0.07230332 -0.09414057 0.03454778
000040 93 5b ab 3c 3b ca a9 3d ff 88 92 3d 37 74 42 3c
       0.02091769 0.082905255 0.07155036 0.011868528
000050 f2 5b 73 bc 4c b3 03 3c 03 08 75 bd cc cf ed 3a
       -0.014853464 0.008038353 -0.059822094 0.0018143593
000060 a9 72 1e 3d 28 4f 26 3d 5e d9 ec 3c 82 70 82 3c
       0.038683567 0.040602833 0.028912243 0.015922789
000070 4b 6d d2 3c f1 77 82 bd f0 e4 39 bd 71 08 e4 bc
       0.02568688 -0.06370533 -0.045384347 -0.027836056
000080 0b 6d 2b 3d 5e 49 50 3c b0 9f 0a bd 4b 3d 40 bd
       0.04185204 0.012712805 -0.033843696 -0.046933454
000090 0d 9e c3 bc 76 34 b7 3d f9 62 94 3d 6d 98 7e bd
       -0.023879075 0.08945553 0.0724544 -0.062157083
0000a0 ac 79 97 bd 81 7e 13 3d a3 90 cb bc 52 44 b2 bc
       -0.07396254 0.036009315 -0.024849242 -0.021761093
0000b0 8d 1c d2 bd 62 e1 7d 3c c7 9c 2b bb 9e 18 aa 3d
       -0.10259352 0.01549563 -0.0026185976 0.083054766
0000c0 5f e0 51 bd 65 86 6b bd 10 24 b8 ba 41 2e 29 3d
       -0.051239368 -0.057501215 -0.0014048833 0.041303877
0000d0 4f 63 0d bc ca d8 9e bd 02 e0 6b 3d 78 a3 70 3a
       -0.008629634 -0.07756193 0.057586677 0.0009179632
0000e0 31 43 08 bd b6 cf 84 bc 39 75 9d bd 0e 5f 04 bd
       -0.033267204 -0.016212326 -0.07688374 -0.032317214
0000f0 99 a6 f4 bd d7 b0 09 3d 20 d3 2f bd 9b 54 a0 bd
       -0.119458385 0.033615913 -0.042925954 -0.07828637
000100 e3 f6 f6 bc 4b ac f1 3c 14 9f 3b bd c7 87 a8 bd
       -0.030147022 0.029501101 -0.045806006 -0.082290225
000110 bd 23 bb bc 5f 4b a9 3d 2e 82 ef 3c ac 23 0e 3d
       -0.02284419 0.08266329 0.02923688 0.034701988
000120 70 f7 b0 bc f0 6d 01 bd bc 20 ee 3c c6 b7 55 3d
       -0.021602362 -0.031598985 0.029068343 0.052177213
000130 78 52 80 bd 2c 3f 96 3d 6d b1 93 bd 56 2f c5 bd
       -0.0626573 0.07336268 -0.07211576 -0.09628169
000140 3b 69 c8 bd 82 89 87 3c 1b 23 ff 3a 05 85 f2 3c
       -0.09785696 0.016545061 0.0019465418 0.029604444
000150 44 0b 74 bd 6d 40 e3 bc 51 b3 0f 3d 38 62 49 3d
       -0.059581056 -0.027740682 0.03508312 0.049165934
000160 a3 39 ac bd 0b 8c 75 3c e2 fd fd bb cd d4 2d bc
       -0.08409431 0.014987002 -0.0077512125 -0.010609818
000170 36 b4 4d 3d 0d a6 b7 bd d9 48 ae 3c f4 f6 56 bd
       0.05022069 -0.089672185 0.02127497 -0.052481607
000180 3e bc 76 3d 46 34 c3 bc 8c b6 1c 3d 23 ff 84 bd
       0.060238115 -0.023828637 0.038260028 -0.06493976
000190 7a 0a da bd d7 12 ce 3d d5 b2 07 bd 6e 77 24 3c
       -0.106465295 0.10062187 -0.033129532 0.01003824
0001a0 3d b6 8b 3d ca e9 bd 3d 08 d9 dd b9 3f ba aa bd
       0.068218686 0.09273107 -0.00042314106 -0.08336305
0001b0 c6 7a 1d bd 52 63 93 3d 6f 5d 01 3d 7d fa 5d 3d
       -0.038447164 0.07196678 0.031583246 0.054193962
0001c0 e0 3e 80 bc 07 b6 a0 bd c5 c0 ce bc 6d 98 aa 3c
       -0.015654981 -0.07847219 -0.025238404 0.020824635
0001d0 cd 09 63 3d 4a 55 47 bd db 36 3b bd e2 75 b3 3d
       0.05542927 -0.048665322 -0.04570661 0.08762719
0001e0 fe 9f 8a 3d 90 d9 ae 3d 70 89 7f 3d f7 0b 29 3d
       0.06768797 0.085375905 0.06238693 0.041271176
0001f0 8c a8 dc 3b b0 7e 7d bd 88 a0 4d bc f5 a2 a8 bd
       0.0067339595 -0.061888397 -0.012550481 -0.082342066
000200 1c f1 88 3d 82 11 92 3d 0b a6 2c 3d 95 85 56 bb
       0.06686613 0.071322456 0.04215054 -0.003273343
000210 84 41 aa bd 6c 88 9c 3d 4a ef ae 3c c4 e1 80 3c
       -0.08313277 0.07643208 0.021354336 0.015732653
000220 90 c8 9c bc dd 73 5a bd 4b 35 24 3c e2 56 3a bc
       -0.019138604 -0.053333152 0.010022472 -0.011373254
000230 df be bf 3d 31 4b a4 3c 37 bc 9b 3c de 53 67 3d
       0.09362578 0.020055385 0.019010646 0.056476466
000240 99 0c 33 bd 8a e9 a6 3d 3f 9a ef 3a 3c df 80 bd
       -0.043713186 0.08150013 0.0018280222 -0.062925786
000250 84 75 49 3d 9d fb 63 bd 8d 6a 5e 3d 56 e8 a5 3d
       0.049184337 -0.05565988 0.054300833 0.08100955
000260 ae 08 76 39 9a 33 08 bd 80 aa 7e bb dc 08 8e 3d
       0.00023463622 -0.033252336 -0.003885895 0.069352835
000270 9a 5d 83 3d 96 41 95 3d 72 26 1c 3c 29 a5 95 bd
       0.064143375 0.072879 0.00953065 -0.073068924
000280 fe 69 32 3d 5f a3 91 3c ee 26 9a 3c 33 07 99 3d
       0.043558113 0.017778097 0.018817391 0.07472076
000290 80 cc d7 bc a2 00 a0 3d 37 70 46 bd a3 43 5f bd
       -0.02634263 0.07812621 -0.04844686 -0.054507863
0002a0 ae eb 40 3d d6 fa 8c 3d 0c b7 d7 bc 6b ee 87 3c
       0.04709976 0.06883781 -0.0263324 0.016593179
0002b0 32 f6 0e 3c 30 2e 26 3d 4c d1 99 bc 17 b4 9d bd
       0.00872569 0.04057139 -0.018776558 -0.07700365
0002c0 32 f7 20 3c a0 d8 bb bd d1 0d 8f bd 67 af 5f bd
       0.009824561 -0.09172177 -0.06985057 -0.054610636
0002d0 4c 88 0b 3d 4a 45 33 3d e1 5c 54 bd 11 23 88 3d
       0.03406553 0.04376725 -0.05184639 0.066473134
0002e0 93 10 83 bd cb 17 79 3d 03 c1 01 3d 63 d1 f1 bc
       -0.06399646 0.060813706 0.03167821 -0.029518789
0002f0 e5 2b 91 3d a1 cb 53 3d 5d f0 8a 3d f3 f7 90 bd
       0.0708845 0.051707868 0.06784127 -0.070785426
000300 f3 0c a9 bc 30 b7 8e bd 98 0b 88 3d 5e d2 b4 3c
       -0.020636057 -0.06968534 0.06642836 0.022072967
000310 27 ee 3a bd d6 bd ae bc 67 1a 87 3d 6f c1 c7 3d
       -0.045637276 -0.021330755 0.06596833 0.097536914
000320 37 de ac bc e7 4e 9e bd 54 3b 20 bd 0b ee 6a 3d
       -0.021102054 -0.07729893 -0.03911908 0.05735592
000330 a6 2c 43 3c 81 86 50 3d 24 d4 97 3d 7a 04 ec bc
       0.0119125005 0.050909523 0.074135095 -0.028810728
000340 a9 65 47 3d de f2 14 3b f1 33 43 bd 4a 94 55 bd
       0.048680935 0.0022727768 -0.047656957 -0.052143373
000350 2c 93 c9 3c 04 8a 2e 3c 35 73 49 3d 19 39 aa 3d
       0.02460631 0.010653023 0.049182136 0.08311672
000360 2a 32 9a bd c5 19 17 bc e1 c7 a3 bc 80 00 29 3d
       -0.07529099 -0.0092224525 -0.01999277 0.041260242
000370 3f d8 ec 3c a6 de c6 3d 39 ab 53 3d 78 29 7a 3d
       0.028911708 0.097104356 0.051676963 0.061074704
000380 65 b1 9f bd 5b c8 86 bd b8 93 af bd 56 f7 5c bd
       -0.07797507 -0.065811835 -0.08573097 -0.053946815
000390 74 a1 3e bd 27 c6 9a 3d 50 a8 2b bd 73 fe 84 3d
       -0.046540692 0.07557326 -0.041908562 0.06493845
0003a0 5b b5 a0 3d 1a a6 5f 3d f7 72 4b 3d a4 49 8c 3d
       0.07847091 0.054601766 0.049670186 0.06849983
0003b0 3e 4a 7f 3c 41 fd 2c bd 49 ed 97 3d 7d 26 96 3d
       0.015581666 -0.04223371 0.074183054 0.0733156
0003c0 af f7 85 3d 05 90 83 bd 10 b0 74 bc 5a 00 34 3d
       0.065413825 -0.06423954 -0.014934555 0.043945648
0003d0 56 95 2d bb 47 5a c8 bb 99 21 58 bd 15 16 56 3d
       -0.0026486716 -0.0061142775 -0.052766416 0.052267153
0003e0 85 aa 1c 3d 7c 96 99 bc 5d 00 6f 3d a4 fb 01 bd
       0.038248558 -0.018748514 0.058349956 -0.031734124
0003f0 99 c3 32 3d da cc da bb 8c e7 2a bd 54 59 93 3c
       0.043643568 -0.0066772522 -0.041724727 0.01798693

bias f4 [128]
000000 64 e2 d8 3c cf 9a b8 3d b3 a6 e5 3c 2d fb a2 3d
       0.026475139 0.090139024 0.02803359 0.07958064
000010 c4 75 89 3c 7a 0e 04 bd f3 37 2a 3d ef f3 80 3d
       0.016779788 -0.03224037 0.041557264 0.06296527
000020 7d 32 21 bd 3a ce 94 3c 7b b6 80 3d 5a dc 60 bd
       -0.03935479 0.018164743 0.062848054 -0.054897644
000030 fb 7f a9 3d e3 6f 98 3d f1 c8 77 bc 90 4f 8b 3d
       0.082763635 0.07443216 -0.015123592 0.06802285
000040 a1 b1 a2 3d 02 db df 3c bc a6 4c bc 66 e4 6b bd
       0.07944036 0.02732611 -0.012490924 -0.057590865
000050 9d 3e 14 3d 93 ad 93 bd ff 5e 66 3a 37 45 a0 bd
       0.036192525 -0.07210841 0.0008787959 -0.07825702
000060 02 f2 86 3c ed d4 68 3d 97 a4 82 3d bd 08 a9 3d
       0.01647282 0.056843687 0.06379049 0.0825362
000070 e5 fd c1 bd 01 a0 a7 3d 04 bf 7d 3d 0c 55 3f bd
       -0.09472255 0.08184815 0.061949745 -0.046711966
000080 d1 f6 a9 3d 33 2a 42 bd 2f 2c b5 3d 11 9b 0f 3d
       0.082990296 -0.047403526 0.08846318 0.035059992
000090 0a 2b 96 bd 81 8c f2 3b 57 27 33 bd 54 bf 8e bd
       -0.07332428 0.0074020033 -0.04373869 -0.06970087
0000a0 69 19 1e 3d 3a fe 13 bd d9 3c 34 bd 11 01 0b 3d
       0.03859845 -0.03613112 -0.04400334 0.033936564
0000b0 a3 0d 09 bc 02 85 4f 3d c8 b2 a7 bc af 5c 48 bd
       -0.008365068 0.050663956 -0.020470992 -0.048916515
0000c0 69 63 83 3d b5 eb 7e 3d 17 95 82 bd 1d 38 1e 3d
       0.06415445 0.062236506 -0.06376093 0.038627733
0000d0 e3 d8 44 3d dc e0 50 bd 81 68 51 bd 79 3e b3 3d
       0.0480584 -0.050995693 -0.051125053 0.0875215
0000e0 91 91 bb 3d 66 d4 e1 3c 24 55 a6 3d 30 d6 5c bd
       0.09158624 0.0275671 0.08121708 -0.053915203
0000f0 83 5d 68 3b 40 7a a2 3d 7b 88 17 bd 68 b1 61 bc
       0.0035456128 0.079334736 -0.036995392 -0.013775207
000100 44 99 04 bd fd 22 3e bd a7 19 55 3d ae 7e a5 bd
       -0.032372728 -0.046420086 0.052026417 -0.08080803
000110 84 ed ce 3d b9 e4 c8 3b 01 56 4f bd de bf 64 bd
       0.10103896 0.0061307815 -0.05061913 -0.05584704
000120 42 8c 87 bd d7 df a4 3d 89 ad d0 3d 55 9e 64 3d
       -0.06618549 0.080505066 0.10189349 0.05581506
000130 57 0d 54 3c a0 32 32 bc e0 34 d4 bc 15 f5 bb 3d
       0.012942634 -0.010876328 -0.025904119 0.09177605
000140 5b fe 7c 3d 2e 7d 81 3c 1b 33 19 3d ff 29 98 3d
       0.06176601 0.01580676 0.037402254 0.07429885
000150 07 4f 29 bd c0 22 7e bb 01 22 41 bd 67 4c 0e bd
       -0.041335132 -0.0038778037 -0.04715157 -0.03474083
000160 c5 40 84 3b 4a 79 d1 3d 80 2b 84 3d 53 d0 c3 bc
       0.0040360414 0.10228212 0.064536095 -0.023903048
000170 04 a7 bc bd d8 af ff 3b f2 dd 7a 3d ed c0 a4 3d
       -0.09211543 0.0078029446 0.06124682 0.0804461
000180 73 32 54 bd e7 71 a6 3d e1 62 4c bd 93 7c 44 3c
       -0.051805925 0.08127194 -0.049898986 0.011992591
000190 89 16 a2 bd ec 92 0b bd 19 f4 25 bd 5a ec 85 bd
       -0.079144545 -0.034075662 -0.040515993 -0.06539221
0001a0 04 07 4b bd 60 b9 92 3d ec 7a ea bc 5e fa 03 3d
       -0.049567237 0.07164264 -0.028623067 0.03222119
0001b0 75 83 75 bd b2 75 1c 3d b9 db 3f 3d 27 46 1a 3d
       -0.05993982 0.03819818 0.046840403 0.03766456
0001c0 b8 f2 68 3d e0 86 37 bb 67 8b 24 3d 9d 95 3b 3a
       0.0568721 -0.0028003976 0.040172007 0.0007155778
0001d0 c8 a2 5c 3d 38 36 1a bd e6 e2 22 3d e0 af 1e 3b
       0.053866178 -0.037649363 0.03976717 0.0024213716
0001e0 cf 48 28 3d 4f f5 52 3c 86 bf cd 3d a4 6a 0d 3d
       0.04108506 0.012875869 0.10046296 0.03452553
0001f0 84 3e 80 3d 51 1f c9 3c a1 c5 e0 3c 67 98 2c bd
       0.06261924 0.024551066 0.027437987 -0.04213753

weight f4 [128, 128]
000000 0c f2 08 3d 5d 6c a1 3c c5 69 cb bb 2a a3 9c 3b
       0.03343396 0.019704992 -0.006207677 0.004780193
000010 47 b5 04 3d bc 78 8f 3d 08 82 49 3d 7f 69 09 bd
       0.032399442 0.0700545 0.049196273 -0.033547875
000020 90 3a ac 3d 08 28 03 bc 23 06 b5 3d 9f 22 4a bd
       0.084096074 -0.00800515 0.08839061 -0.049349423
000030 5a 44 00 bc cb 30 39 bc a3 da 7b 3d 44 fc 15 bd
       -0.007828796 -0.011303137 0.061487805 -0.036617532
000040 69 f9 53 bd 34 aa 44 bd cd 90 95 3d 91 d9 cb 3d
       -0.051751528 -0.04801388 0.07303009 0.09953607
000050 e9 96 85 bc 9a f2 7d 3d c6 8a 58 bb 55 9d 47 bd
       -0.016307311 0.06199894 -0.00330417 -0.048734028
000060 b5 64 74 bd ca fd e9 38 1b 34 55 3d ba 52 f6 ba
       -0.059666354 0.00011157578 0.052051645 -0.0018792965
000070 f6 24 aa 3d 38 bd ce bd 99 9b c3 bd be 83 d4 3d
       0.08307831 -0.10094684 -0.09551162 0.1037669
000080 49 c2 1d 3d 54 f2 d9 3b 7c c0 ab bd 5a c4 9b 3d
       0.038515363 0.006651202 -0.08386323 0.076058105
000090 18 43 ae 3d 65 4c 98 3c 3e 5f 84 3d f1 81 af 3d
       0.08508891 0.018591115 0.064634785 0.08569706
0000a0 ef 35 88 bc 54 11 91 bd 63 b6 67 bc 13 0f a1 3d
       -0.01662728 -0.07083383 -0.0141426055 0.07864203
0000b0 68 d7 f6 bc a5 6f 34 bd 16 5e a8 bd e4 be c6 3d
       -0.03013201 -0.044051785 -0.082210705 0.09704378
0000c0 74 3b 7b 3d ae e4 90 3d 95 df 79 3b 31 e2 75 3d
       0.061335996 0.07074867 0.003812765 0.060030166
0000d0 c3 e3 84 bd 31 04 b6 3d e9 9b b7 3b 78 37 3a bd
       -0.064887546 0.08887518 0.0056033027 -0.045463055
0000e0 cb 75 85 bd 9b 99 0f bd 6c b7 a2 bd 9a a4 09 3d
       -0.06516608 -0.0350586 -0.07945141 0.033604242
0000f0 5d 62 ab 3b bf 14 6e 3d 69 94 55 bd 9c fe 1e bd
       0.0052302317 0.058125254 -0.052143488 -0.038817033
000100 cc 91 a9 3b a5 68 ac 3d 18 40 4a bd f7 38 d8 3d
       0.005174851 0.08418397 -0.04937753 0.1055774
000110 e6 99 98 3d 18 67 42 3d c0 d0 8f 3d e8 61 97 bd
       0.07451229 0.0474616 0.07022238 -0.07391721
000120 4b 44 5b 3d 6b 4f 9e bd 80 03 b5 bd 13 5b 22 3c
       0.053531926 -0.077299915 -0.08838558 0.009909409
000130 22 16 91 3c 58 2a 36 bd 70 08 6d 3d a9 ea 4b 3d
       0.017710749 -0.044473976 0.057869375 0.049784336
000140 a0 9d 23 bd 2b 88 d5 3d 5f 41 82 3d 88 7b 71 bd
       -0.039945245 0.104263626 0.06360125 -0.0589557
000150 5a f7 f0 bc 6c 81 89 bd 37 88 80 3d cd 95 1c 3d
       -0.029414821 -0.067141384 0.06275981 0.0382288
000160 d4 cf e5 bc 35 56 d4 3b 5e 63 8a bd 5b 45 25 bd
       -0.028053202 0.0064800032 -0.06757234 -0.040349346
000170 de 85 2c 3d bd 04 41 bc 50 a4 9f 3c be 75 04 3d
       0.042119853 -0.011780915 0.01948753 0.03233885
000180 c7 67 3e 3d bc 26 91 bc 98 fb 89 3d 4a 04 57 bc
       0.04648569 -0.017718665 0.06737441 -0.013123581
000190 10 1c 15 bd d3 2a 81 3d c3 d7 08 bd dc 44 61 bd
       -0.036403716 0.06306996 -0.03340889 -0.05499731
0001a0 1c cf 92 bb 8a bb 9e bd b7 cd 3e 3d 46 9b 70 3d
       -0.004480256 -0.07750614 0.046582904 0.05874183
0001b0 20 1e 45 3d 56 ba 56 3d 0e 33 8e 3d db 81 cd 3c
       0.048124433 0.052423798 0.06943332 0.025086334
0001c0 6a ef 16 3d 04 ec 69 3d 89 71 0b bd b5 90 54 bd
       0.036849417 0.057109848 -0.034043822 -0.051895816
0001d0 fe 1d f5 3c 08 48 4b 3d 07 ab 7d 3d 31 52 a7 3d
       0.029921528 0.04962924 0.061930683 0.08169974
0001e0 51 2c b0 bd 63 75 91 bd 70 3b 6c 3d b6 6a 42 bd
       -0.08602203 -0.07102468 0.05767387 -0.04746505
0001f0 5e 33 21 3d 3d 7c 15 3c df ee e2 3d 33 d6 b7 bc
       0.03935563 0.009123859 0.11080717 -0.022441005
000200 be 98 bb 3d fa 32 48 3d b3 f3 18 bd c6 a0 06 bd
       0.09159993 0.04887674 -0.037341785 -0.03286817
000210 49 19 77 bd 69 b6 1e 3d 61 5a 4a bd 1a ba 28 bd
       -0.06032685 0.03874818 -0.0494026 -0.041193105
000220 b5 d5 2e 3c 07 40 90 3d 53 f1 9a bd e7 09 32 bd
       0.010671069 0.07043462 -0.0756556 -0.043466475
000230 7d f2 33 bd ed e6 57 bd e1 20 c0 bc 3d 9b 62 3d
       -0.043932427 -0.052710462 -0.023453178 0.055323828
000240 d2 a5 8e bb 99 80 de bc 86 31 35 3c ba 88 68 bd
       -0.0043532634 -0.02716093 0.011059171 -0.056771018
000250 a7 69 c7 3d 55 cd b6 bc 78 b3 82 bd d6 90 91 bc
       0.097369485 -0.022314707 -0.06381887 -0.017769258
000260 5d e8 10 3d f3 56 9a bd b1 5e 98 3d 33 c7 f7 ba
       0.03537785 -0.075361155 0.07439936 -0.001890397
000270 0a 1f 20 bd 36 2a d8 bc 22 9a ab 3d 16 54 cc bc
       -0.0390921 -0.026387315 0.08379008 -0.024942439
000280 5c 8f f6 bc c3 77 13 3d d2 03 d1 3d 1c 07 62 3d
       -0.030097656 0.036002886 0.10205807 0.05518256
000290 30 4d 77 3d d1 b3 a4 bd c8 63 ae bc 51 d1 f4 bc
       0.060376346 -0.0804211 -0.021287814 -0.029884966
0002a0 49 c8 bc 3d 26 71 bc 3d d8 44 df bc e0 95 88 bd
       0.09217889 0.09201269 -0.027254507 -0.066692114
0002b0 f7 56 b3 3d c8 cb 0c bd 2a 57 79 bd a9 e8 92 3d
       0.087568216 -0.03437403 -0.06087414 0.07173283
0002c0 ff 7f a4 3d ec 1a d0 3c 81 ae c4 bc 1b 7f 6c 3d
       0.08032226 0.025403462 -0.024008991 0.057738405
0002d0 63 52 93 bd cf 4c 08 3c 05 25 74 bc 6e 26 96 ba
       -0.071934484 0.008319094 -0.014901404 -0.0011455545
0002e0 91 e2 17 3d 42 20 24 3d e8 a0 74 bc 37 eb 12 3d
       0.037081305 0.040069826 -0.014930941 0.03586885
0002f0 82 20 2e bc 8f 13 77 bd 46 b2 9d bd 20 b0 f1 bb
       -0.010627868 -0.060321387 -0.077000186 -0.007375732
000300 fa 15 55 bd 40 93 7f 3d c2 8a 39 3d 1d bf 46 bd
       -0.05202291 0.062396288 0.045298345 -0.048522104
000310 29 b3 4f bc a1 15 8d bd 76 e1 6c 3d f7 ee 47 3d
       -0.012676992 -0.06888891 0.057832204 0.04881188
000320 9e fb 7f 3c 88 37 81 bd 26 88 a9 3d 9f 9b 8c bc
       0.015623955 -0.0630942 0.082779214 -0.01716405
000330 5f 6e 67 bd 02 0e 2a bb 08 88 ac 3d 18 e0 9a bc
       -0.056501742 -0.002594829 0.084243834 -0.018905684
000340 fd 41 f9 3c e4 a3 4c 3d 9c d4 21 3d 14 e3 81 3c
       0.030426973 0.049960986 0.0395094 0.01585535
000350 04 22 a4 3c d6 20 71 3d ed 6c 06 3d 4a 39 89 3d
       0.020035751 0.058869205 0.032818723 0.0670038
000360 26 c2 7f bc 70 5e de 3c 7b 06 be 3d 54 6e 99 3d
       -0.015610253 0.02714464 0.0927858 0.074917465
000370 90 e1 0a bc f5 b3 81 bd 0f 0d 53 bd 61 61 a8 3c
       -0.00847663 -0.06333152 -0.051526126 0.020554246
000380 01 46 e9 bc cd bf c1 3d 61 fc 33 3d 8a 50 99 bd
       -0.028475763 0.09460411 0.04394186 -0.07486065
000390 92 94 0e 3c a5 bd 92 3b a8 4c 95 bd cd e5 30 bc
       0.008702414 0.004478174 -0.07290012 -0.010796976
0003a0 f0 59 9b 3d 7e 89 b5 3d d9 df 84 bd 2f 68 44 3d
       0.075855136 0.08864115 -0.06488008 0.04795092
0003b0 b4 43 fb bc 71 e0 ff 3c d0 a6 f3 3c 8a f7 39 3d
       -0.030671932 0.031234952 0.029742628 0.045402087
0003c0 23 86 ad 3d da f9 bd 3d 56 07 b9 3d 18 59 75 3d
       0.0847285 0.09276171 0.09034602 0.05989942
0003d0 5b 01 0a bd 5e 5b 8e 3d 80 25 94 bd a3 70 59 3d
       -0.0336927 0.06951021 -0.07233715 0.053085934
0003e0 30 01 cb bc f2 f2 98 3d b4 fc d5 3c e4 f0 a6 3d
       -0.02478084 0.07468213 0.026121475 0.08151415
0003f0 3f d6 2e 3d 9c bb 04 bd cc dc 5b bb f5 a9 d2 bc
       0.04268479 -0.03240548 -0.0033548353 -0.025715807

bias f4 [128]
000000 66 f2 31 bd ad ba 1e 3d 3f b3 e3 3c 63 9a 62 bd
       -0.04344406 0.038752247 0.027795432 -0.055323016
000010 42 c7 1d bd 72 3d ae bd 54 06 03 3d 2d 17 7e bc
       -0.038520105 -0.085078135 0.031988457 -0.015508455
000020 02 63 2b bd 28 40 7c 3d bf 0a b8 bd b0 88 63 bd
       -0.041842468 0.06158462 -0.08986425 -0.055550277
000030 c6 b6 7e 3d 58 16 58 3c 30 be 57 bd c0 70 aa 3d
       0.062186025 0.013188921 -0.05267161 0.083222866
000040 cb 25 de bc b9 04 6c bd a0 66 5a 3d 84 e1 e8 3c
       -0.02711763 -0.05762169 0.053320527 0.028427847
000050 49 b5 ae 3d c9 0b b3 3c 28 39 8e bc e2 d9 70 bc
       0.08530671 0.021856206 -0.017361239 -0.014700385
000060 ee 17 9b 3d ab bf a0 3d 5b d3 5c 3d 7a ce 7a 3d
       0.075729236 0.07849058 0.0539125 0.061232068
000070 d2 83 08 3d 50 4f 01 bd ff 7b df bc d6 72 bd ba
       0.03332884 -0.03156978 -0.027280806 -0.001445378
000080 ff 7c 27 bd b9 5b d5 3d e5 d1 ab 3d 91 84 20 bd
       -0.04089069 0.10417885 0.083896436 -0.039188925
000090 e6 55 2f 3d fb ac 3f bb 5f f3 9e 3d f7 a8 d6 bc
       0.04280653 -0.0029247392 0.07761263 -0.026203616
0000a0 2f 48 ca 3d 39 70 9e 3b 78 03 6f 3d 9f eb 8c 3d
       0.09877049 0.0048351553 0.058352917 0.06880879
0000b0 18 bd cf 3a 3e 1e 55 3c 7e 48 08 39 3c d2 82 bd
       0.0015849201 0.013007699 0.00012996976 -0.06387755
0000c0 10 7b ff 3c ec 9d 1f 3d 5e 61 90 bc 2e e8 9b 3c
       0.03118661 0.038968965 -0.017624553 0.01903161
0000d0 06 c3 a9 3d 01 49 89 bd 41 82 a9 3d 56 45 f8 3c
       0.08289151 -0.067033775 0.08276797 0.0303065
0000e0 4e d8 71 3d 98 92 23 3d 20 ca 87 3d 80 3a ad 3d
       0.059044175 0.039934725 0.06630349 0.084584236
0000f0 22 0d 41 3d 1f 95 6a bc 38 01 77 bc 73 4c 83 bd
       0.047131665 -0.01431778 -0.015075974 -0.06411066
000100 9c d6 bd bd c3 14 a7 bd 2b fb c6 3d 56 3b 90 bd
       -0.09269449 -0.08158257 0.09715875 -0.070425674
000110 8e 12 4e 3d 08 08 bd bd fe 33 c6 3d 03 cd 26 3d
       0.050310664 -0.092300475 0.096778855 0.04072286
000120 09 b4 1e 3d 06 98 15 bc 8a 79 b3 bc f0 4c c5 3d
       0.038745914 -0.0091304835 -0.02190854 0.09633815
000130 4e 9f a7 3c ab 14 bb bb 2e 70 f9 3c c8 68 ad 3d
       0.020461705 -0.005709251 0.030449 0.08467251
000140 5a 04 46 bc 8c e2 74 3d 67 83 2f bb e1 dd 36 bd
       -0.012085998 0.059786364 -0.0026781203 -0.044645194
000150 b1 f2 ef 3c f2 7b b4 3c 46 19 3e bd b3 dc 32 bd
       0.029290529 0.022031758 -0.04641082 -0.043667506
000160 41 17 77 bd 04 a8 04 bd 8a 0b b0 3d 16 fb a1 3d
       -0.06032491 -0.032386795 0.08595951 0.07909219
000170 28 80 93 bd 29 a9 b5 3d fc 57 70 3a ae 5f 54 3b
       -0.07202178 0.08870155 0.0009168384 0.0032405662
000180 be d7 42 3d 4d fa 8a 3d fc 2a b4 3b 67 66 0d 3d
       0.04756903 0.06786022 0.005498288 0.034521487
000190 73 ad d9 3c eb 31 b1 bd 07 18 9f 3c 7b 84 93 bd
       0.026571965 -0.08652099 0.019420637 -0.07203003
0001a0 e1 70 b8 3d 7e 6b 6c bd 19 8e 2c 3d 7d e2 b9 3d
       0.09005905 -0.0577197 0.042127702 0.09076402
0001b0 55 80 9f 3d 1d 07 80 bd fd 46 c4 bc cf 6c 91 3d
       0.07788149 -0.06251357 -0.023959631 0.07100832
0001c0 f0 cd 07 bd f7 6d 75 3c 5f e5 2a bd 2c f1 c5 3c
       -0.03315538 0.014979831 -0.04172265 0.024162851
0001d0 0a 94 19 3d a0 9e 21 3d 64 16 43 3d e3 64 b1 3a
       0.037494697 0.039457917 0.047628775 0.0013534095
0001e0 2f ea 97 bd 62 2d 8d 3d e9 62 98 3d a3 3b 93 3d
       -0.07417714 0.06893422 0.074407406 0.07189109
0001f0 3d f5 92 bd 50 59 57 bc 89 5a 86 bd 60 eb 43 bd
       -0.07175682 -0.013143852 -0.06560237 -0.047831893

weight f4 [1, 128]
000000 42 33 c3 bd 4d e1 59 3d d9 50 4f 3c 3c 1a 81 39
       -0.09531261 0.05319338 0.012653553 0.00024624343
000010 eb 52 a0 bd d4 64 f7 3c ad 9e 63 3c 58 10 37 3c
       -0.07828315 0.030199446 0.013892812 0.01117333
000020 d9 10 83 bb 00 68 1b bd 08 03 4a 3d b1 4f 38 3d
       -0.003999811 -0.03794098 0.049319297 0.044997875
000030 1b 01 b0 bc 82 8f 9b 3d 95 a9 90 3d 04 86 0a 3d
       -0.021484902 0.07595731 0.07063595 0.033819214
000040 66 81 15 3d 6c 54 86 bc b5 be 15 bd 14 39 7c bd
       0.036500357 -0.016397677 -0.036558826 -0.06157787
000050 31 b7 59 3d 96 94 34 3d 9b 42 d2 bd 9b 5d 0d bd
       0.05315322 0.044087015 -0.1026661 -0.034513097
000060 b9 e5 a2 3d 4b 5b b8 3d 78 15 33 3d 8d 22 73 3c
       0.07953972 0.09001788 0.043721646 0.0148397805
000070 b4 6a 7b bd 9a 33 1b bd 9a 00 ac bc 2d 59 4b 3c
       -0.061381057 -0.037891008 -0.02099638 0.012411398
000080 7a 27 68 bd 9d cc d4 3d 61 86 60 3d db 99 55 3d
       -0.056678273 0.103905894 0.054815654 0.05214868
000090 bc 71 97 bd 7b 87 95 3c cc 72 87 3d 0f 03 39 3d
       -0.0739474 0.018253079 0.06613693 0.045168933
0000a0 fb a7 b5 3d 75 a7 38 bd 5b 6c 8b bd ec 84 56 bd
       0.0886993 -0.045081574 -0.068077765 -0.052372858
0000b0 a1 02 d8 bd 8f b3 b9 3d 87 03 78 bd ca e3 66 3d
       -0.105473764 0.09067451 -0.06055024 0.05636958
0000c0 e1 72 79 3d 8d 59 dd 3c 43 99 d7 3c 1c 4a 97 bd
       0.060900573 0.02702024 0.026318198 -0.07387182
0000d0 df 87 9b 3c bf 2c 3a bd 4b 9f c9 3c bd ae 45 3d
       0.018985687 -0.04545283 0.02461209 0.048262347
0000e0 aa be 03 3d ed 80 a2 3d d3 55 19 bb b7 2c b7 3d
       0.032164253 0.07934747 -0.0023397102 0.089440756
0000f0 c6 3b a2 bd 20 d2 c1 bd 7c 34 b9 3c 3a 30 84 3d
       -0.07921557 -0.09463906 0.022608034 0.06454511
000100 36 3f 5a 3d bd 0d 68 3d 71 8f b3 3d 6e 7e c4 3c
       0.05328294 0.056653727 0.08767594 0.023986068
000110 00 a1 09 bd ef 08 16 bd ef 41 31 3d b8 f5 17 3d
       -0.033600807 -0.036629613 0.04327577 0.03709957
000120 fd a0 2c 3d a2 ad 5a bd a5 9c 39 bc 0f 74 1f 3d
       0.042145718 -0.053388245 -0.011328851 0.03892904
000130 31 45 10 3d bf 54 98 bc 10 43 71 bd c3 5a 6e 3d
       0.035222236 -0.018595098 -0.058901846 0.058192026
000140 e2 85 3e bd dd 8b 25 3d d3 d6 cb bd 0c 41 aa 3d
       -0.0465144 0.040416587 -0.09953084 0.08313188
000150 0a 2f 37 bd c6 49 6a bd e6 5f 07 3d b7 1d b1 3b
       -0.044722594 -0.057199262 0.03305044 0.0054051536
000160 5b ec 86 3a d3 e8 d4 bd 41 b2 49 bd e7 45 c0 3d
       0.0010293828 -0.1039597 -0.04924226 0.09388333
000170 9f 38 be 3c 88 97 48 3d 9d 7f b8 3d 04 3d b8 bc
       0.023220358 0.048972636 0.09008715 -0.022490032
000180 18 d3 ce bd 2d 53 fd bc 3a 90 9d bd 77 7a 99 3c
       -0.10098857 -0.03092345 -0.07693525 0.018735154
000190 ca 73 88 3d f2 a7 a6 3d 1e d7 e1 3c 36 f2 ca 3c
       0.0666271 0.08137502 0.027568396 0.024773698
0001a0 60 22 08 3d ae 64 95 3d e6 e5 12 3d 6f 2d 18 3d
       0.033235908 0.07294594 0.03586378 0.037152704
0001b0 c5 3a 90 bd c6 f5 97 3b 88 dd c7 bd f4 e4 6f 3d
       -0.070424594 0.004637453 -0.097590506 0.058567956
0001c0 6a 15 c3 3b 08 3f 86 3d de e3 77 bd b0 59 9f 3d
       0.0059534805 0.06554991 -0.060520045 0.077807784
0001d0 2b 06 2d bc e9 c2 43 3d 2e d7 ba 3c 00 c3 53 3d
       -0.010560553 0.047793303 0.022807684 0.05169964
0001e0 a3 a6 85 3d 92 43 c9 3d 28 a4 9a bd 9c 55 e2 bd
       0.06525924 0.09827341 -0.075508416 -0.11051485
0001f0 27 ad a3 bd f0 c7 1f 3d 9d d4 9e bd dd 95 00 3c
       -0.079920106 0.039009035 -0.077553965 0.00784823
