Dry fermentation prediction and optimization system/predictor_percolate_tank/Predictor_Percolate Tank CH4/models/NeuralNetTorch_BAG_L1/S1F5/net.params (torch, 208391 bytes, 9 tensors)

weight f4 [128, 7]
000000 3a a7 3d bc d4 b6 90 3e 57 dc 9a be b4 56 8a be
       -0.011575514 0.28264487 -0.3024623 -0.27019274
000010 90 a7 f8 bd 92 6b 97 3d 5e 7e 58 ba db 97 a7 3e
       -0.12141335 0.07393564 -0.0008258576 0.32733044
000020 71 4c 1a bd 67 75 b0 3d b0 61 eb bd ac 33 d5 bd
       -0.037670556 0.08616143 -0.11493242 -0.10410246
000030 f0 cf af be 38 51 80 be 5e d8 30 be 7f 93 de bb
       -0.3433833 -0.25061965 -0.17270038 -0.0067924852
000040 08 d5 3c 3e 84 a1 71 3e e6 f1 7f be 54 69 2b be
       0.1844064 0.2359677 -0.2499462 -0.16739398
000050 f0 ab 03 3e 51 11 a9 3e be 72 cd bd 70 92 87 3e
       0.12858558 0.33021024 -0.10031651 0.2647891
000060 cf c2 90 bd e7 b8 ca 3c 72 ab af 3e f7 7e af be
       -0.07068407 0.024746371 0.3431049 -0.34276554
000070 f0 ea 85 be d3 19 09 be 26 3d 00 be 76 5c aa 3e
       -0.26155806 -0.13388757 -0.12523326 0.33273667
000080 e2 28 75 be 5a 21 2b be bc 01 85 be e1 eb bc be
       -0.23941377 -0.16711941 -0.25977886 -0.3689871
000090 6d 34 8a be d9 5c 99 3e cc 1e fd 3d 40 bc 1b 3e
       -0.26993123 0.2995365 0.1235939 0.1520853
0000a0 79 e3 61 bb 20 36 34 be 5a 2c a2 3d b1 f0 b3 be
       -0.003446786 -0.17598772 0.07918616 -0.3514457
0000b0 6a 44 91 be de 4d 43 be 60 dc 85 3e d5 75 5e 3e
       -0.28372508 -0.19072673 0.26144695 0.21724637
0000c0 31 f9 16 be 0e 0c 83 ba f8 a2 7d 3e f2 25 be 3e
       -0.14743496 -0.0009998099 0.24769199 0.37138325
0000d0 76 41 fc 3d b6 c4 67 3d 1e 6a 7e 3e d3 cd 5a be
       0.12317173 0.056584083 0.24845168 -0.21367578
0000e0 67 62 7a 3d 51 7a 9e be 9b b8 90 be 3c 3f 57 be
       0.061129 -0.30952695 -0.28265843 -0.21020216
0000f0 45 3a 31 3e dd 32 05 3e 9b c4 36 be 1c 6e c5 3d
       0.17307384 0.13007684 -0.17848437 0.09640142
000100 50 83 76 3e 29 19 39 bd 54 5a 84 ba 91 7e 90 3d
       0.24073529 -0.04519001 -0.0010097721 0.070553906
000110 49 d4 70 3e 60 65 b6 3e eb 83 8e be ee 0a 05 be
       0.2351848 0.35624218 -0.2783502 -0.1299245
000120 ae cf 21 3e 6b 24 ab 3e ee a9 a5 3e d6 0f a7 3e
       0.1580188 0.33426222 0.3235621 0.3262927
000130 8e 6f 95 3d 6f e2 ac be 7d 4c 45 bc bd c6 77 be
       0.07296668 -0.33766505 -0.012042162 -0.24196906
000140 5e 07 b6 be 39 e9 9c 3e 78 7d 95 3e 31 8b c3 be
       -0.35552496 0.30646685 0.29197288 -0.38192132
000150 8d aa ca 3d dd 39 98 bd d5 04 be bd fa c5 2e be
       0.09895811 -0.074329115 -0.092782654 -0.1706771
000160 f5 01 1e 3e 96 10 55 be 4c 8a 03 3e b2 b0 55 3e
       0.15430434 -0.20807108 0.12845725 0.20868185
000170 32 5f ba 3e cc 3f 31 3e 80 b5 b1 be 34 2a 62 be
       0.36400753 0.17309493 -0.34708786 -0.22086412
000180 73 76 2e 3e 70 93 b6 3d ec 1f a8 be e3 69 80 be
       0.17037372 0.0891484 -0.32836854 -0.25080785
000190 4c 12 b1 3e b2 71 7b 3e 57 c9 21 be 97 fe eb bd
       0.34584272 0.2455509 -0.15799461 -0.115231685
0001a0 25 48 b4 be dc 9d fe 3c a4 5e 93 be 86 0a a4 be
       -0.35211292 0.031081133 -0.28783143 -0.3203928
0001b0 8e e9 fa ba ac d4 84 3d 35 80 19 be 76 cd 59 3e
       -0.0019143091 0.064858764 -0.14990313 0.21269783
0001c0 09 09 5b be fa fe b8 3e d4 62 7b 3e fc 82 a6 be
       -0.21390165 0.36132032 0.24549419 -0.32521808
0001d0 ae a1 d9 bd e3 3e 88 3c 73 dc 55 3d 51 02 ab 3d
       -0.10626541 0.01663155 0.05221219 0.08350051
0001e0 eb bb 31 3e 6a 52 20 3d e6 aa 55 be e1 34 3b 3e
       0.17356841 0.039141096 -0.20865974 0.1828189
0001f0 22 b0 b1 be 03 03 61 be d5 a6 05 be df a5 4c be
       -0.3470469 -0.21973805 -0.13051923 -0.1998515
000200 98 b4 15 be 66 cc a5 be f9 43 a1 bd 29 95 a0 3d
       -0.14619672 -0.32382506 -0.07874293 0.0784095
000210 58 89 6c be d8 82 17 bc a6 e6 a2 3e 61 e8 9e bd
       -0.23099267 -0.009247504 0.31816596 -0.077591665
000220 4a 98 03 3b 3a 66 2a bd 9b 95 9e 3d 23 dd 73 3e
       0.0020079785 -0.041601397 0.07743379 0.23814826
000230 2f 69 b5 3e 50 b2 53 3e 62 63 b3 3e 2c 90 31 bd
       0.3543181 0.2067349 0.3503676 -0.043350384
000240 b0 3d b4 be 6c 07 52 be f6 a4 88 3e bf 03 9c bc
       -0.35203314 -0.20510644 0.26688355 -0.019044755
000250 33 cb 67 be ba 04 87 be a0 80 a8 be f4 1b b9 be
       -0.22636108 -0.26370794 -0.32910633 -0.3615414
000260 ce 05 85 bd 3d fe 41 3e 47 7d 30 3e e3 fe cb be
       -0.06495248 0.1894464 0.1723529 -0.398429
000270 1c 4f 56 3e 2c b0 9c be 49 41 c5 bd 52 fa 19 be
       0.20928615 -0.30603158 -0.09631593 -0.15036896
000280 18 4c 43 bd be 23 4f bd ad e3 a8 be 0b ff b4 be
       -0.04767999 -0.050571196 -0.32986203 -0.35350832
000290 20 29 fa bc 07 40 24 3d 2d 33 39 be 19 58 25 3e
       -0.030537188 0.040100124 -0.18085928 0.16146888
0002a0 02 66 b9 be cc 28 8c bc 53 87 a9 3e 59 59 27 be
       -0.36210638 -0.017109297 0.33111057 -0.16342677
0002b0 ed 20 bd 3e 4f 18 ff 3d 6d 1f 9e be 0b 6d 8c 3e
       0.36939183 0.12455808 -0.3088335 0.27426943
0002c0 8e 88 ac bd d8 d6 39 be 68 01 98 3e a6 db b7 be
       -0.08424483 -0.18148363 0.29688573 -0.35909766
0002d0 20 7b 73 3c d5 f6 83 bd 65 5c 77 3e a1 23 e0 3d
       0.014860898 -0.06443564 0.2415634 0.10944296
0002e0 d5 13 35 3e eb bc ec 3d a9 64 d5 bd 9c c9 9b bd
       0.17683347 0.11559471 -0.1041959 -0.07606813
0002f0 59 93 98 be 60 5d 53 3e 19 10 9d 3e 21 20 91 3e
       -0.29799917 0.20641088 0.30676344 0.28344825
000300 a2 6e 96 be 44 e9 0a 3b 9d 81 83 be d2 e5 5c be
       -0.2938128 0.0021196166 -0.25684825 -0.21572044
000310 28 79 70 be 97 1f f1 3d ab dd 79 be 3c 88 d9 bc
       -0.23483717 0.117736034 -0.24400966 -0.02655422
000320 95 83 2d 3d f7 8a 75 3e 10 83 8a be e9 0a 58 be
       0.042361815 0.23978792 -0.27053118 -0.21097912
000330 d4 21 60 be 85 0f 8f 3e ff 0d ca bd 7f 79 b0 3e
       -0.21887904 0.27941528 -0.09865951 0.34467694
000340 2b 1d 20 3e 37 c1 c6 3a 4b ba b1 bb af e7 d1 bd
       0.15636127 0.0015163784 -0.005423819 -0.10249268
000350 f4 3c 4a 3d a4 3f 9f bd 3f 2e aa bc ce 9d 62 3d
       0.049374536 -0.0777581 -0.020774005 0.055326276
000360 4d b9 97 be d4 02 41 be 90 8a b7 3e 43 35 b0 be
       -0.2963356 -0.18848735 0.35847902 -0.34415635
000370 44 1a 21 3d 37 84 cc 3e 36 54 98 3d 10 62 35 3d
       0.03933169 0.39944622 0.07437937 0.044282973
000380 78 15 aa be b6 5c 2e 3e 22 ba 79 be c0 b3 eb bd
       -0.33219504 0.17027554 -0.2438741 -0.11508894
000390 6a e0 12 be 97 27 79 bd 07 70 25 3b fa 4d b0 3e
       -0.1434342 -0.06082877 0.0025243775 0.3443449
0003a0 b8 c8 0a bc 88 49 a2 3e 05 48 59 3e 38 38 8b be
       -0.008470707 0.31696725 0.2121888 -0.2719133
0003b0 66 97 2b 3e 19 77 83 be 65 a4 43 be 97 a3 a3 3d
       0.16756973 -0.25676802 -0.1910568 0.07990187
0003c0 37 b4 00 3e bd 52 83 3e 93 af f2 bd 27 2b e5 ba
       0.12568747 0.25649062 -0.118498944 -0.0017484174
0003d0 bf 83 4a 3e 5d 5e d3 be 2a 7c 8f 3e 56 a5 9f be
       0.1977682 -0.4128293 0.28024417 -0.3118083
0003e0 e1 c7 98 bc d5 6c 50 bd 08 dd 49 be d8 dc 5a 3d
       -0.018649997 -0.05088504 -0.19713223 0.05343327
0003f0 01 01 9e 3e 27 11 b8 bd 8f 20 48 be a9 5b ee bd
       0.3086014 -0.089876465 -0.1954367 -0.116385765

bias f4 [128]
000000 a4 08 ae be 2a c1 e4 bc cf 52 f6 3d 40 50 f5 3d
       -0.33990967 -0.027924139 0.12027513 0.11978197
000010 9c b1 a2 3e 57 08 cd 3e 7d 98 af 3e ea f7 73 3e
       0.3177613 0.40045425 0.34296027 0.2382504
000020 46 f5 84 3e 7d 76 9d bd e4 0b 93 be 85 e9 d3 bd
       0.2596838 -0.076886155 -0.2872001 -0.10347275
000030 0e ab 01 bd 2b e1 7f be e3 2f 36 3e c0 40 f7 3d
       -0.03165727 -0.24988239 0.17791705 0.12072897
000040 a9 75 0b 3d b4 1b b7 3d 6e 45 ad 3e 92 ce fb 3d
       0.034047756 0.08940831 0.33842033 0.122952595
000050 c0 57 ae be c0 a5 9c be ed 26 0c 3e c2 c8 88 3d
       -0.34051323 -0.30595207 0.13686724 0.066789165
000060 aa e7 33 3e c2 0b b0 be 62 79 be be f6 60 5f 3e
       0.17568842 -0.3438397 -0.37201983 0.21814331
000070 4f 43 75 3e a5 7a b1 be 37 c4 0c 3e f8 fc 94 be
       0.23951457 -0.34663883 0.13746725 -0.2909925
000080 b8 b4 a1 3e 58 57 08 3e 36 f6 be 3e 99 b6 b4 be
       0.3158319 0.13314569 0.3729722 -0.3529556
000090 2d 71 c9 be 7b 3c 7a 3e ca 29 b4 3e ab 88 82 3e
       -0.3934416 0.24437134 0.35188133 0.25494894
0000a0 89 53 84 3e de fd ab be fa 2e 8d 3e af a6 c1 be
       0.25844982 -0.33592123 0.27574903 -0.37822482
0000b0 ae 94 b4 3d 5e 68 69 be 19 66 0b be 86 e6 aa 3d
       0.08817421 -0.22793719 -0.13613166 0.0834475
0000c0 58 f8 30 be 8f 82 03 bd 32 60 b9 be 9e 67 bd be
       -0.17282236 -0.032106932 -0.36206204 -0.36993116
0000d0 ad 38 ab 3d 10 94 33 be 83 da 56 be aa cc 3c be
       0.083604194 -0.1753695 -0.20981793 -0.18437448
0000e0 d3 4f a9 be 1b 79 a1 be ba d2 6d 3e 4f 36 48 3e
       -0.33068714 -0.3153771 0.23224917 0.19551967
0000f0 ae 0b a8 3d 79 a9 33 be b6 f5 0a 3e 66 87 44 3d
       0.08205353 -0.17545117 0.13570294 0.04798069
000100 c4 37 8f be 3f ba 97 3d da e5 c2 3e d7 11 c1 be
       -0.27972233 0.074085705 0.38065988 -0.37708923
000110 ea 6a c1 be 1e ae 65 3d 1a 61 8c 3e 89 a0 75 be
       -0.3777688 0.056074254 0.27417833 -0.2398702
000120 de c7 8d 3d f2 34 8d 3e bc 6e d1 3d 8f 81 6f 3d
       0.06922887 0.27579457 0.10226199 0.058473166
000130 52 43 c6 3e 76 2b 5e 3e 9c 84 53 be 4a b6 f3 bc
       0.38723236 0.21696267 -0.20656055 -0.029750008
000140 ff 32 3d 3e b5 a5 aa 3e d7 bf ce be d3 12 52 3e
       0.18476485 0.3332955 -0.40380737 0.20514993
000150 bf 54 0e be 8f d7 c3 be a1 67 75 3d c9 1f 12 be
       -0.13899516 -0.38250396 0.05991328 -0.14269938
000160 c6 90 75 3d 11 14 43 be d5 55 8e be 09 57 c6 bc
       0.05995252 -0.19050623 -0.2779986 -0.024211423
000170 0e bf e6 bd cf 57 4c 3e 6b ea 68 3d c4 68 a5 3e
       -0.112669095 0.19955371 0.056864183 0.32306492
000180 dc 7d 4b 3d 22 88 12 be 35 27 8d 3e 2e 43 01 3d
       0.049680576 -0.14309743 0.27568975 0.03155821
000190 dd 7b 26 3d 53 b5 0c be 6e f1 e8 3c f0 e4 ba bd
       0.04064547 -0.13741045 0.028435435 -0.091256976
0001a0 fd bb 06 bd 65 8a 83 be bc 49 a0 3c f5 66 9b be
       -0.032894123 -0.25691524 0.01956641 -0.30351987
0001b0 2c d0 c5 bd 0a bd 64 3e f8 51 78 be fd 91 8a be
       -0.09658846 0.22337738 -0.24250019 -0.27064505
0001c0 b1 94 ca bd 00 b7 97 bd f8 47 90 3d e0 05 34 3d
       -0.09891642 -0.07407951 0.07044977 0.043950915
0001d0 81 0a 44 3e 7b 38 8b be 32 88 4a bc ac 37 56 3e
       0.19144632 -0.2719153 -0.012361573 0.20919675
0001e0 7f cd a8 3e 36 6e 98 bc 27 fe 56 be b3 f4 04 3e
       0.3296928 -0.01860724 -0.20995389 0.1298397
0001f0 cc 1f 67 3e 58 e7 5d be 07 2a 79 be e8 0f 21 3e
       0.22570723 -0.21670282 -0.24332438 0.15728724

weight f4 [128, 128]
000000 a9 97 f1 3c 56 42 c2 bd 4f e1 7f bd 8c 02 eb 3c
       0.029491263 -0.09485309 -0.06247073 0.028687738
000010 a5 6c 30 bd 84 21 76 3d d7 8e a9 3d c2 32 68 3c
       -0.04307236 0.060090557 0.08279198 0.014172258
000020 78 b4 0b 3b e9 ef 04 39 aa 6b 17 39 7a a6 c8 3c
       0.0021317285 0.00012677874 0.0001444059 0.024493445
000030 4f 47 60 bd 57 9d fd bc 48 b6 96 bd 2d 2d 88 3d
       -0.054755505 -0.030958815 -0.07358986 0.066492416
000040 d9 47 6c bd 62 af 9a 3d ab cb 23 bc 28 5c 3c bc
       -0.057685707 0.07552983 -0.009997289 -0.011496581
000050 a5 6c 04 3d 92 61 21 3b b8 df 73 3d 1e 27 42 3d
       0.032330174 0.0024624807 0.059539527 0.047400586
000060 98 9a ac bd d4 c5 a4 3d a4 2b a8 bc cf 4f 41 bd
       -0.08427924 0.08045545 -0.020528622 -0.047195252
000070 a3 92 75 3d 8c cf a2 3d 8c be a2 bd 2f d1 84 3c
       0.059954297 0.07949743 -0.079465 0.016213028
000080 19 27 a4 3d c1 13 ec 3c 22 90 ac 3d 9f 9f 01 bd
       0.0801527 0.028818013 0.08425929 -0.031646367
000090 d0 a8 74 bd 0b 0b a2 3d 40 b0 f4 3c 43 66 ec 3d
       -0.059731305 0.079122625 0.029869199 0.115429424
0000a0 57 c6 ee bc 87 e5 31 bd 87 9b 90 bc 37 46 03 be
       -0.02914731 -0.043431785 -0.017652286 -0.12819754
0000b0 e5 59 6c 3d 78 6c f2 3d 89 37 c4 3c c2 28 01 3c
       0.057702918 0.11837095 0.023952262 0.007883253
0000c0 52 09 3c 3d 3d 99 50 bd 42 e9 ba 3d 92 60 c9 bd
       0.045907326 -0.05092739 0.09126522 -0.098328725
0000d0 ea 50 c6 bd ae 52 a3 bc 04 c3 9b 3d 12 d3 e1 3b
       -0.09683402 -0.019936886 0.07605556 0.0068916166
0000e0 15 80 51 3d e2 2e 82 bd f2 d6 77 3d 2a bc b2 3a
       0.05114754 -0.063565984 0.060507722 0.00136364
0000f0 ad 62 24 3d e4 c7 5d 3d 9c 3b 89 3c fc f6 9e bc
       0.040133167 0.05414571 0.016752057 -0.01940488
000100 94 91 ca b9 10 3c 5d bd c4 eb 15 bd 54 52 50 3d
       -0.00038636907 -0.05401236 -0.036601797 0.050859764
000110 db c1 da bc a3 de 7e 3d ac b9 ed bc 5f 83 c7 bc
       -0.026703766 0.06222404 -0.0290192 -0.024354635
000120 ca 34 29 3c 57 c2 83 bd d4 b7 27 bc 60 24 3a bc
       0.010327527 -0.06433552 -0.010236699 -0.011361212
000130 7d a7 36 bc cc 0a 93 bc 54 f4 9b 3d c0 30 84 3d
       -0.011148331 -0.017949484 0.07614961 0.06454611
000140 f4 ab 7c bd 7d 8d 4f 3d 27 04 81 bd 42 46 b5 bd
       -0.061687425 0.050672043 -0.0629962 -0.08851291
000150 d0 2e 0b 3d 78 10 67 bc 10 05 0d bd 0a 62 7f bd
       0.03398019 -0.014103048 -0.034428656 -0.062349357
000160 ae 0c fd bc 5a c3 d2 3c 7b c1 c1 bd f1 34 e1 bd
       -0.030889835 0.025727917 -0.094607316 -0.10996426
000170 17 cd 4b 3c c7 18 3b bd 9c 1b 9b bd bd 12 e7 bc
       0.012439034 -0.045677926 -0.075736254 -0.028207177
000180 a1 75 49 bb cd a2 81 bd 6e 69 5d bd d7 62 46 3d
       -0.0030740278 -0.0632988 -0.054055624 0.048434105
000190 71 08 ac bd 6c 6e c8 bc 58 bf c9 bc 69 bf 91 bd
       -0.084000476 -0.024466716 -0.024627373 -0.07116587
0001a0 42 a8 3f 3d f4 e8 71 bd ab 5c 59 bd b2 34 90 3d
       0.046791323 -0.059060052 -0.05306689 0.07041301
0001b0 fe 0b b9 3c c0 5b cb 3d 9b 7c 46 bb e5 c4 ba bc
       0.022588726 0.09929609 -0.0030286673 -0.022798965
0001c0 2f 00 bf bb 4d 86 f5 bc fd b4 6d 3d d3 bf 8f bd
       -0.0058288793 -0.029971266 0.058033932 -0.070190094
0001d0 03 e4 cb bb a2 6e 63 3d 02 c9 02 bd 8a a7 72 bd
       -0.0062222495 0.05552543 -0.031929977 -0.05924181
0001e0 b7 e4 84 3d f3 7d a7 bd 3f 65 b8 3c 4d ad 62 bd
       0.064889364 -0.0817832 0.022509215 -0.055341054
0001f0 b9 40 5b 3d 99 0c d4 bd 54 7e 3f 3d 57 58 9a bd
       0.05352852 -0.10353965 0.046751335 -0.07536381
000200 3f 96 aa bd 92 80 77 bc e5 90 93 3d 3b 79 aa bd
       -0.083294384 -0.015106337 0.07205371 -0.08323904
000210 1b f1 18 bd 1d e6 ad 3d 48 cb 42 bb 21 b5 23 3d
       -0.03733931 0.08491156 -0.0029723216 0.03996766
000220 c4 e0 e9 bd 41 f6 1f 3c f3 d1 2f bd 92 25 9d 3d
       -0.11419824 0.009763301 -0.042924833 0.076731816
000230 f3 7d df 3c be fe 9b bd 49 56 1d 3d 3c 14 d4 bb
       0.027281737 -0.076169476 0.038412366 -0.0064721387
000240 29 73 fe bc 07 b9 4e bd 12 ed 3e bd e8 1c c9 3d
       -0.031060772 -0.050469425 -0.046612807 0.098199666
000250 46 2d 82 bd bf 58 d7 bd c0 6e 8e bd 96 fb 3e bc
       -0.063562915 -0.10514974 -0.06954718 -0.011656662
000260 3c ab 9c 3c 82 28 a9 3c 8c 51 13 bd 6e 8a 5a bd
       0.01912462 0.020649198 -0.03596644 -0.053354673
000270 94 27 f4 bb c1 d1 95 bc 6b 2c 9d 3d 98 4d 08 3c
       -0.007451007 -0.018288495 0.07674488 0.008319281
000280 18 a9 4f bd 91 da 92 bd 30 76 50 3b 65 43 a5 3d
       -0.05069837 -0.071705945 0.0031808726 0.08069495
000290 33 d9 08 3c a8 0c 9f bd 41 9a f7 ba 34 30 63 3d
       0.008352566 -0.07766086 -0.0018890576 0.055465892
0002a0 e3 23 70 3d d7 68 f1 bb fe 52 c7 bc 6d 8a e9 bd
       0.058627974 -0.007367234 -0.024331566 -0.11403356
0002b0 26 98 69 3d aa 84 95 bc a0 c6 6c 3d b7 f4 d9 bc
       0.057029866 -0.018251736 0.05780661 -0.026605947
0002c0 c6 a4 24 3d f3 17 6c 3d 69 89 b0 3d 3a a4 da bd
       0.040196203 0.057640027 0.08619959 -0.10675855
0002d0 55 2a 80 bd f6 56 0d bd 79 3b 55 bd 07 94 a6 3d
       -0.06258074 -0.03450676 -0.05205867 0.08133703
0002e0 d2 9a 5e 3c 8d d2 7e bd 70 3c 14 bd b8 d4 56 bd
       0.013586717 -0.062212516 -0.03619045 -0.05244896
0002f0 8b ed a3 3c 7c 86 82 bd 6b 34 ad bd 78 a4 bc bd
       0.02001073 -0.06373307 -0.084572636 -0.092110574
000300 8b 9b b7 3c 0a 31 fe 3c df 3f 84 bd 3d fa c9 3c
       0.022413036 0.031029243 -0.06457495 0.024655456
000310 34 16 ec 3d de 1a 20 3c 77 a7 1c bd c6 ce 2a 3c
       0.115276724 0.009772031 -0.038245644 0.010425275
000320 fc 41 ac b8 ef 93 22 3d 02 be 9d bd 37 c3 42 3d
       -8.21389e-05 0.03969186 -0.07702257 0.047549453
000330 22 1a 28 3d c5 12 75 bd f1 51 88 3d e0 e8 d8 3d
       0.041040547 -0.059832353 0.06656254 0.105912924
000340 b2 1d 43 bc 09 32 23 bc c7 86 44 3d b2 8a 03 bd
       -0.011908935 -0.00996066 0.047980096 -0.032114692
000350 3e be 00 3d bc fc 06 bc 24 bc 8a 3d ac 12 07 bd
       0.03143143 -0.0082389675 0.06774166 -0.03297679
000360 00 48 84 bd b6 46 2e 3d 2c 2c ca 3b 52 c0 9f bd
       -0.064590454 0.042547904 0.0061698165 -0.07800354
000370 0d 04 13 bd 4b 2f c9 bd b0 1b 88 bd d3 bd 5e bd
       -0.035892535 -0.098234735 -0.06645906 -0.05438025
000380 13 f8 b7 3d b2 8d ad bb 3b 9b 15 3d 37 2a cc 3d
       0.08982863 -0.0052964324 0.036524992 0.09968989
000390 86 6f 03 3d 24 80 da bd 43 dc bc 3d 55 4e c4 3c
       0.03208878 -0.10668972 0.09221699 0.023963133
0003a0 ed 68 a1 3d 8d 65 d4 bd 58 ea 40 3d ed e9 9d 3d
       0.07881341 -0.10370932 0.047098488 0.077106334
0003b0 75 69 a8 bd 1e b6 2d bb 8f ff 8d 3d 9b cb b3 bd
       -0.08223239 -0.0026506255 0.069335096 -0.08779069
0003c0 b2 44 98 3b c8 67 0a 3d 5b 0f 84 ba 62 93 b3 3d
       0.004646861 0.03379038 -0.0010075377 0.087683454
0003d0 3f 47 b1 3d 67 c7 c4 3d 60 f4 7c bc c2 04 80 3d
       0.08656167 0.096083455 -0.015439123 0.062509075
0003e0 4a 0c 94 bd c3 fa 8c bd 86 5a 09 bd a5 d9 ab bc
       -0.072289065 -0.068837665 -0.033533596 -0.020977804
0003f0 84 bc ce 3d ad 92 b3 3c 39 bc 67 3d 75 61 3d 3d
       0.1009455 0.021920526 0.056575987 0.04623552

bias f4 [128]
000000 34 a0 31 3d 24 83 6d bd 04 56 35 3c a2 d8 00 3d
       0.043365672 -0.057986394 0.011067871 0.031456597
000010 f9 70 2d 3c 81 ef 09 3d 84 c2 7e 3d 9e ae 81 3d
       0.010586017 0.033675674 0.062197223 0.06332134
000020 2a af a1 bd 9c c6 13 3b 59 d2 3e 3d c0 62 88 3d
       -0.07894738 0.00225488 0.046587322 0.0665946
000030 99 03 6d bd f8 9b 1e bb 07 37 6e bc 8b 86 49 bc
       -0.05786476 -0.0024201851 -0.014539487 -0.012300144
000040 da 6c 0b 3d 76 f4 7f 3d d0 de 9b bd ff 02 bc 3b
       0.034039356 0.062488995 -0.076108575 0.005737662
000050 9d 09 4c bd 98 c8 42 3d 23 28 bd bc 39 e1 0d 3d
       -0.049813855 0.047554582 -0.023090428 0.034638617
000060 f9 f9 e7 bc 48 1f b2 3d eb 74 a7 bd 00 64 87 3d
       -0.028317438 0.08697373 -0.08176597 0.0661087
000070 3b 69 f1 3d 64 5d 47 bc 07 3f c8 3c 2a 02 16 bd
       0.11787649 -0.012168262 0.024444116 -0.036623158
000080 f0 3d ea bc 26 27 05 bd fe 87 64 3d 23 26 76 3d
       -0.028593987 -0.032508038 0.055793755 0.060094964
000090 b4 83 89 bc 26 78 04 bc a8 e0 8b bd 30 c5 4a 3d
       -0.016786434 -0.008085286 -0.06829959 0.04950446
0000a0 3c 45 72 3d 7c a8 55 bb 61 52 5c bd f0 e5 e4 3c
       0.05914806 -0.0032601645 -0.0537895 0.027941674
0000b0 cd 0e 49 bd 27 5c 79 3d e1 52 31 bd 3c 0f 5f 3d
       -0.04908638 0.0608789 -0.04329193 0.054457888
0000c0 6d b3 8e bd e5 da b4 3b 9e b4 b2 3d aa 04 76 3d
       -0.069678165 0.0055192583 0.08725856 0.06006304
0000d0 af 62 04 bd eb 8f 3b bc 8d f9 11 bb 84 6e b6 bc
       -0.032320675 -0.011447887 -0.0022273988 -0.022269495
0000e0 90 95 0b bd 5b e9 ae 3d 87 77 4c bd 11 bd a6 bd
       -0.03407818 0.08540603 -0.049918678 -0.0814153
0000f0 e9 81 89 bd ba 91 45 bc 8c 4d b2 bc 70 bd d6 3c
       -0.067142315 -0.01205867 -0.021765493 0.026213378
000100 a1 c1 35 bd 93 c0 02 bd 4e 6a 37 bd 5d 11 15 3d
       -0.044374112 -0.031921934 -0.044779114 0.036393512
000110 2d ef b5 3d 45 db 91 bd 42 ee 79 3d 4f b1 83 3d
       0.0888351 -0.071219005 0.061018236 0.06430303
000120 d9 14 60 bd a8 9f 13 bd 2a 63 86 3d f4 19 f1 bc
       -0.054707382 -0.036040932 0.06561883 -0.02943132
000130 c0 8f 21 3d 68 17 d2 36 e2 69 a9 bd 48 23 80 3d
       0.03944373 6.2612125e-06 -0.08272149 0.06256729
000140 5c 6a 8b b9 a8 af 45 bd a5 e6 b9 3c c7 a7 78 bc
       -0.0002659139 -0.048263222 0.022692988 -0.01517672
000150 8f f3 c2 bc 5b dc 04 bd b4 97 9e bd b2 12 ab bd
       -0.023797778 -0.03243671 -0.07743779 -0.08353175
000160 3a 92 9a bc 17 ed 19 bd ea fc 07 3d c7 63 8e 3d
       -0.018868554 -0.037579622 0.033200182 0.06952625
000170 2e db 90 bc 33 80 a4 bd 05 25 a3 bd 3a 0d 25 3d
       -0.017682638 -0.080322646 -0.07966045 0.040295817
000180 16 d0 d3 3b 75 21 ad bd 9b 0b ff bc cd 5a 09 3d
       0.0064640148 -0.08453647 -0.031133464 0.03353386
000190 71 cd a1 3c 35 4e 43 3d 94 c4 c2 3d 4e 17 26 bd
       0.019751282 0.047682006 0.095101506 -0.04054957
0001a0 bc 0d 83 bc 98 d0 a3 bd 57 34 87 3d df 8b 8b bb
       -0.01599776 -0.079987705 0.0660178 -0.0042586173
0001b0 74 72 f7 bc a1 55 df bb 85 ca b3 bc 5c 16 05 3b
       -0.030205943 -0.0068156277 -0.021947155 0.0020307517
0001c0 40 21 8f 3d a5 66 be 3c dc 29 0d 3d 32 29 33 bd
       0.06988764 0.023242304 0.03446375 -0.04374046
0001d0 6f bf 7e 3d 1f 4e b3 3d 5c d5 9f bd c6 87 10 bd
       0.062194284 0.08755135 -0.07804367 -0.035285734
0001e0 ad 70 c6 3d d1 85 97 3d 66 53 0e 3d cf 42 9e 3d
       0.0968946 0.0739857 0.034747504 0.077275865
0001f0 84 46 93 bc f8 da 2e 3d bf 7a fc 3c 69 28 be 3d
       -0.01797796 0.042689294 0.030820249 0.092850514

weight f4 [128, 128]
000000 76 bc bd bd e7 10 ca 3c ed 14 c4 3c e7 e3 7d bd
       -0.09264462 0.024666263 0.02393576 -0.061984923
000010 2e d1 fd 3b e2 90 be 3c 8e f5 6b bd b8 75 a0 3d
       0.0077458834 0.023262445 -0.057607226 0.07834953
000020 bb 9c 72 3d 87 1f 4b 3c 3e be 9b 3b 1a 03 72 3d
       0.0592315 0.012397653 0.0047529032 0.05908499
000030 b4 2a 04 3d 20 9b 91 bd ec 3d 53 bd c7 b1 06 3b
       0.032267287 -0.07109666 -0.051572725 0.002055274
000040 60 fb f2 3d cf 5b 92 3d f0 8e 6a 3d 30 1d 82 bb
       0.11864352 0.07146417 0.057265222 -0.0039707646
000050 6e 91 13 bd 85 2c 80 3b cd 71 a6 bd 80 6e e8 bc
       -0.036027364 0.003911557 -0.081271745 -0.028373003
000060 8c a8 a0 3c c7 94 45 3d ce 86 63 3d 26 c9 89 bc
       0.01961162 0.04823759 0.05554848 -0.016819548
000070 dc 9e 8a bc ab a5 b5 bd 9c 89 78 3c 0c 7e 4d bd
       -0.016921453 -0.08869489 0.015169527 -0.050169036
000080 45 65 35 3b 77 52 e1 bc 87 84 b6 bc 16 33 2b bd
       0.002767877 -0.027505143 -0.02227999 -0.041796766
000090 e9 88 e8 bc 12 97 b7 3d 11 06 0f 3d 64 52 b0 bd
       -0.028385596 0.08964361 0.034917895 -0.08609465
0000a0 da 71 5d bd 5b 05 8d bc 89 e3 26 3d 89 46 3e bd
       -0.054063655 -0.017214468 0.04074434 -0.046453986
0000b0 ce 66 21 bd cf 09 76 3c 69 7a 33 3d b0 19 89 3d
       -0.039404683 0.015016987 0.04381791 0.066943526
0000c0 c1 99 6e bd 3e 94 7a bd 9b 5e ab 3b 84 41 9a bc
       -0.0582521 -0.06117653 0.0052297837 -0.018830068
0000d0 23 87 4c bc ed 88 c3 bd 4c 8c dc 3d ca 56 d7 3b
       -0.012483391 -0.09547601 0.10768947 0.0065716254
0000e0 d8 cd 83 bc 49 e6 d5 bc 14 cc c0 bd 62 e4 7c bd
       -0.016089365 -0.026110785 -0.09413925 -0.06174124
0000f0 61 85 ac bd 1f 16 39 3d f0 82 07 bd 64 79 c3 bd
       -0.084238775 0.045187112 -0.033083856 -0.09544638
000100 de 2d 5d bc ba 52 82 3c 51 43 7a bd 10 29 6e bc
       -0.013499705 0.015908588 -0.061099354 -0.014536157
000110 d0 6e 2b bd 20 af e3 3d 0a fe 33 3d 8c 6f 9c 3c
       -0.041853726 0.11117387 0.043943442 0.019096158
000120 00 47 31 3a 65 4b 99 bc cc b7 2a 3d 2e 11 66 3d
       0.0006762594 -0.018712709 0.04167919 0.056168728
000130 4a a2 69 bd 46 2b ba 3d 50 39 0b be 44 dd b8 bd
       -0.057039537 0.09090285 -0.13596082 -0.09026578
000140 02 78 4e bd a3 0f c3 3d 7a b1 9c 3c 4e 84 36 3d
       -0.050407417 0.09524467 0.019127596 0.04455977
000150 bb d5 bc bd 36 3b 22 bd 48 65 5c 3c 4e 78 13 3d
       -0.09220453 -0.03960725 0.013451882 0.036003403
000160 06 9b b1 bb 46 cf cd bb 7a d2 7f bc a3 93 93 bc
       -0.0054200916 -0.0062808124 -0.015614146 -0.018014735
000170 ac 49 bc 3c 1a 61 a8 3c 46 be 4c 3c bd 7d 40 bd
       0.022984348 0.020554114 0.012496537 -0.046994913
000180 0f bf 86 3d fa 5b db bc 9b 04 a2 3d 10 44 42 bd
       0.0657941 -0.026777256 0.07911035 -0.04742819
000190 e9 04 07 bc bf 6a 07 3d d8 cb 5d bd de 71 f2 bc
       -0.008240917 0.033060785 -0.05414948 -0.029595312
0001a0 75 8e 93 3d e7 25 cc 3d ae fd 40 3d 7d b0 07 be
       0.07204906 0.09968167 0.047116928 -0.13250919
0001b0 70 75 ce bd 39 fb 6b 3d 5c 49 73 3b a0 34 b5 3d
       -0.10080993 0.05761263 0.0037122583 0.08847928
0001c0 f3 53 ff bc 06 bb 93 bd 54 a2 16 bd e0 f0 c0 3c
       -0.03116796 -0.07213406 -0.036775902 0.023552358
0001d0 28 e9 42 3d 20 80 88 bd 8d a0 89 bd 8a 07 49 3d
       0.047585636 -0.06665063 -0.06720076 0.049079455
0001e0 9a 48 d9 3d ad 22 85 3d 2b 85 7c 3d 91 c1 74 3c
       0.10609551 0.065007545 0.061650436 0.014938728
0001f0 8b bc 6f 3d 82 55 3f bd a6 e3 b5 bc 79 ec dd bd
       0.058529418 -0.046712406 -0.022203278 -0.10836119
000200 26 a6 9e 3d 96 ca bc 3d 19 e9 4c 3d 4a 28 86 bb
       0.07746534 0.09218328 0.050026987 -0.0040941583
000210 97 7f 95 bd cc 2e 94 3d f5 f8 c8 3c 89 91 09 3d
       -0.072997265 0.07235488 0.024532774 0.03358606
000220 43 b6 09 bb 26 50 2c bd 4a 70 b2 3b b8 3c fa bb
       -0.0021013177 -0.042068623 0.005445515 -0.007636633
000230 52 dd be 3d dd 49 d8 3c 19 44 04 3d ca 5d 8f 3d
       0.09319557 0.026402408 0.032291505 0.07000311
000240 d4 71 82 bd 0f 01 c2 3d b8 c2 60 3b b9 b5 34 bd
       -0.06369367 0.09472858 0.003429575 -0.044118617
000250 5c ec 0b 3d 47 4e 26 bd 5f eb 50 3d 44 3b c1 3d
       0.034160957 -0.040601995 0.051005717 0.09435132
000260 d2 2e 24 bc 63 a0 96 bc bd 4f 28 bd c2 b9 b1 3d
       -0.010020928 -0.018387025 -0.04109167 0.086780086
000270 2f 6c 7b 3d 91 e1 a4 3d fb a4 0b 3b 56 02 b5 bd
       0.06138247 0.08050836 0.0021308053 -0.08838336
000280 48 17 66 3d 2d 11 ff 3c 71 39 ac 3c 62 c8 93 3d
       0.056174546 0.03113612 0.021023484 0.07215954
000290 a9 6b f5 bc a2 65 9f 3d e2 a2 66 bd 1c 66 44 bd
       -0.029958563 0.07783057 -0.05630768 -0.04794894
0002a0 bd 35 54 3d fe 82 a4 3d 59 74 1c bd de a2 bb 3b
       0.05180906 0.08032797 -0.038196895 0.0057262024
0002b0 49 a5 77 3c d6 e5 3a 3d 78 ba 9b bb 5f d8 93 bd
       0.015115091 0.045629345 -0.0047524534 -0.07219004
0002c0 8c 03 24 3d a9 2f 99 bd 22 13 82 bd bc 93 9e bd
       0.040042445 -0.074797936 -0.063513055 -0.07743022
0002d0 1f 8d 29 3d 5a 35 54 3d 04 e8 75 bd 9c f1 5e 3d
       0.04139435 0.051808693 -0.06003572 0.054429635
0002e0 d1 25 8d bd 35 81 86 3d 51 b8 37 3d ca 39 a7 bc
       -0.068919785 0.06567613 0.044853512 -0.020413298
0002f0 55 16 8e 3d c5 57 8d 3d 41 2d 79 3d cc 1c 97 bd
       0.06937853 0.06901506 0.060834173 -0.073785394
000300 55 e3 0f bd fb ed 6e bd c8 70 86 3d bd a6 45 3d
       -0.03512891 -0.058332425 0.0656448 0.048254717
000310 eb d9 2d bd 56 de b5 bb c0 50 bb 3c b6 10 cd 3d
       -0.04244415 -0.005550186 0.022865653 0.10012953
000320 65 52 b5 bc 42 e7 6f bd 2b 1e 06 bd c5 f5 52 3d
       -0.022134015 -0.058570154 -0.032743614 0.051503915
000330 0c e2 f5 3c 83 6b 2a 3d a3 a2 a6 3d 15 1a 98 bc
       0.030015014 0.041606437 0.08136489 -0.018567124
000340 1d ad 48 3d 7b 08 b1 bd 6a 8a ff bc af d3 52 bd
       0.04899322 -0.08644196 -0.03119393 -0.05147141
000350 4d 55 2b 3d b8 69 a7 3c 30 ac 3f 3d 38 cc ca 3d
       0.041829396 0.020436153 0.04679507 0.09902233
000360 63 1b b2 bd 8f d7 25 bb 4b 9a 2f bd dc 22 1c 3d
       -0.0869663 -0.0025305485 -0.042871755 0.038119182
000370 0b c5 f5 3c 2e 28 98 3d 41 b3 61 3d f4 9d 6c 3d
       0.030001184 0.07429539 0.05510259 0.057767823
000380 3b 97 5c bd f3 cd 81 bd a5 96 9f bd 2e e0 5d bd
       -0.053855162 -0.0633811 -0.07792405 -0.054168873
000390 98 b4 35 bd 8b 84 99 3d 40 0d 09 bd e8 91 8c 3d
       -0.04436168 0.07495984 -0.0334599 0.06863767
0003a0 64 7a c8 3d 4e aa 53 3d b8 26 a9 3c ab 60 32 3d
       0.09788969 0.051676087 0.020648345 0.04354922
0003b0 cb a6 04 3d 2d 97 23 bd 76 f8 af 3d 46 f4 96 3d
       0.03238563 -0.039939094 0.08592312 0.0737081
0003c0 ec f9 62 3d d4 23 75 bd 3f 55 be bb 3e cd 84 3d
       0.055414125 -0.05984862 -0.005808502 0.06484459
0003d0 87 88 3a 3b cf 8c de 3b 69 6a 51 bd f5 09 8d 3d
       0.0028462724 0.006791688 -0.05112687 0.06886665
0003e0 33 bd 49 3d 24 ee 19 bc cb 98 8a 3d e8 41 d2 bc
       0.0492527 -0.009395156 0.06767424 -0.025666192
0003f0 1c bf b0 3c e4 0e 22 3c 1e d0 60 bd 53 17 a9 3c
       0.021575503 0.0098912455 -0.054885976 0.020641005

bias f4 [128]
000000 17 0c b8 3c 0c 36 cb 3d 74 e9 d4 3c 52 55 d0 3d
       0.022466702 0.09922418 0.025990225 0.101725236
000010 8d 42 7f 3c 3b 7b b9 bc b9 00 8b 3d 53 66 4d 3d
       0.015579832 -0.022641769 0.06787247 0.050146412
000020 49 4f 1b bd 18 83 93 3b 62 9d 87 3d 16 5e 36 bd
       -0.03791741 0.0045017116 0.06621815 -0.04452332
000030 29 96 9e 3d 7c 1f ac 3d 36 51 f6 3a db 8d 81 3d
       0.077434845 0.08404443 0.0018792513 0.06325885
000040 84 bb b5 3d b9 81 e7 3c 25 c8 13 bc d5 61 4e bd
       0.088736564 0.028260099 -0.009019886 -0.05038627
000050 85 e3 20 3d 49 25 9c bd 99 d2 27 3b 7a 54 40 bd
       0.03927948 -0.07624299 0.0025607704 -0.046955563
000060 f8 59 75 3c 1e 5c 6a 3d 65 c4 88 3d 0c 9f d8 3d
       0.0149750635 0.057216756 0.06678084 0.10577211
000070 b8 fd bd bd f3 b4 bf 3d a4 5b 4b 3d 28 ee 5b bd
       -0.09276909 0.09360685 0.049647942 -0.05369392
000080 f9 65 b0 3d 55 80 3b bd 22 c1 bb 3d 2f fc 29 3d
       0.086132 -0.045776684 0.091676965 0.041500267
000090 a5 1f 96 bd 6b ad f4 3b 51 da 54 bd ee 70 89 bd
       -0.073302545 0.007466962 -0.051966015 -0.06710993
0000a0 96 1b f3 3c 61 e0 1e bd 91 03 61 bd 87 a0 0c 3d
       0.02967624 -0.038788203 -0.05493504 0.03433278
0000b0 fc c6 f6 bb c0 56 37 3d fe 7b 7b bc 9d 58 23 bd
       -0.007531045 0.044760466 -0.015349386 -0.03987943
0000c0 05 11 81 3d 8e fc 8e 3d 4a 1b 72 bd 06 6e 8b 3c
       0.06302074 0.06981765 -0.059108056 0.017020237
0000d0 9b 8a 28 3d cb da 0e bd 40 d0 45 bd 48 ea d3 3d
       0.04114781 -0.034876626 -0.048294306 0.1034742
0000e0 a8 32 c7 3d a3 04 91 3c 6a b9 9c 3d 28 00 eb bc
       0.09726459 0.017702406 0.076525524 -0.028686598
0000f0 df 84 39 3c de 32 af 3d 36 6e 25 bd b3 ce b0 bc
       0.011323183 0.08554624 -0.04038831 -0.021582937
000100 2b 65 a7 bc 86 cb e4 bc 64 41 3e 3d 40 c2 9e bd
       -0.020433983 -0.027929079 0.04644908 -0.07751894
000110 c5 dc da 3d 69 f3 a3 3c 26 4a 6e bd f0 6b 89 bd
       0.1068664 0.020013528 -0.058176182 -0.067100406
000120 6d 1b 59 bd 11 ca a6 3d 5d 43 d9 3d f4 1f 39 3d
       -0.05300467 0.0814401 0.10608552 0.04519649
000130 91 0e 84 3c 87 d8 f7 3b c8 11 68 bc a7 8a c1 3d
       0.016120227 0.007563654 -0.014164396 0.09450274
000140 b2 7d 84 3d 0c 87 a8 3c e2 35 15 3d ca 29 9f 3d
       0.06469287 0.020572208 0.03642834 0.077716425
000150 bc 96 58 bd 54 11 54 bc fe ec 38 bd 14 f3 0f bd
       -0.052878127 -0.0129435845 -0.04514789 -0.035143927
000160 61 b8 70 3c 45 fd e3 3d 67 5c 94 3d 56 29 b2 bc
       0.014692397 0.11132292 0.07244187 -0.021748226
000170 26 c2 a6 bd 2a 7e 9e 3c 05 eb 6d 3d 07 5f c6 3d
       -0.081424996 0.01934727 0.05808546 0.09686094
000180 a5 cf 78 bd 32 19 a8 3d dc 91 87 bd 4c 38 c7 3c
       -0.0607449 0.082079306 -0.06619617 0.024318837
000190 39 80 ae bd d0 14 e8 bc 6c 6e 31 bd 43 4f a7 bd
       -0.0852055 -0.028330237 -0.043318197 -0.08169415
0001a0 d6 c9 59 bd 55 09 9f 3d c3 77 3d bd 83 c3 1c 3d
       -0.053171 0.07765452 -0.04625679 0.038272392
0001b0 6d 73 79 bd 8c 0c b7 3c 64 5a 61 3d 0a a3 2e 3d
       -0.060901094 0.02234485 0.055017844 0.042635955
0001c0 1a 84 8c 3d 23 20 f8 bb 04 87 1c 3d 82 bb 55 ba
       0.06861134 -0.0075721904 0.0382147 -0.0008153246
0001d0 89 55 55 3d 23 97 42 bd e0 3a 2f 3d eb 02 66 bc
       0.052083526 -0.047507416 0.042780757 -0.014038782
0001e0 78 94 17 3d de 86 62 3c 48 a2 bd 3d 76 8f 20 3d
       0.037006825 0.0138261 0.09259468 0.039199315
0001f0 d9 d4 90 3d 07 4e 4c 3c ce db b0 3c 43 fe df bc
       0.070718475 0.012469775 0.021589186 -0.027342921

weight f4 [128, 128]
000000 e7 77 ac 3d 5f 62 ab 3c 91 33 24 bc f7 ff 8d bb
       0.08421307 0.02092093 -0.01002206 -0.004333492
000010 0c 1b ba 3c e0 aa 6d 3d 31 dc 6b 3d 13 78 34 bd
       0.022717975 0.058024287 0.057583038 -0.044059824
000020 d5 46 b8 3d 90 7f e4 bb f2 7a 93 3d 21 c3 67 bc
       0.08997885 -0.0069732144 0.07201184 -0.014145643
000030 89 2b 27 3a 0c 89 94 bc 80 cf 96 3d 15 1e cd bc
       0.00063770317 -0.018131755 0.07363796 -0.025038758
000040 63 19 76 bd 5a 81 5c bd f7 5e 59 3d 29 c9 a8 3d
       -0.060082804 -0.053834297 0.05306908 0.08241493
000050 e5 ad d3 bc 4c 7e 41 3d f0 56 c4 b9 82 eb 58 bd
       -0.025839755 0.047239587 -0.00037448807 -0.052958973
000060 c1 89 82 bd d2 be ec 3c da 85 78 3d 8e e0 5e 3c
       -0.06373931 0.028899584 0.060674526 0.013603343
000070 5b 86 a4 3d 81 92 c3 bd 94 97 bc bd 2c 38 d1 3d
       0.08033439 -0.09549428 -0.09208599 0.10215792
000080 91 7f 19 3d eb 7b 4c bb 7d eb d1 bd b8 c0 c7 3d
       0.037475172 -0.003120179 -0.10249994 0.09753555
000090 56 46 a5 3d 2e 8d ff 3b 5d 9f 8c 3d 3e 00 b2 3d
       0.08070056 0.0077988124 0.06866334 0.086914524
0000a0 d1 b3 29 3c 7c a1 9f bd da 83 c5 bc da c7 84 3d
       0.010357813 -0.077944726 -0.024110723 0.06483431
0000b0 a2 31 37 bd 74 2e 40 bd f0 7a aa bd b3 16 b1 3d
       -0.044725068 -0.0469193 -0.0832423 0.08646908
0000c0 87 6c 52 3d e1 b2 81 3d a9 27 af 3b f8 b0 a2 3d
       0.05137303 0.063329466 0.005345304 0.0794391
0000d0 df 02 5e bd 81 c1 bd 3d 86 57 57 3c bb b2 2a bd
       -0.054201957 0.092654236 0.013143426 -0.041674357
0000e0 d8 4e a8 bd 19 c5 0f bd 2e cb a6 bd c1 bf eb bc
       -0.08218163 -0.035100076 -0.08144222 -0.028777959
0000f0 6c 98 e3 bb 14 b5 80 3d 61 4a 47 bd f6 e4 18 bd
       -0.0069456603 0.06284538 -0.048654918 -0.03732773
000100 bd 52 c0 3b bd c4 9c 3d eb 58 30 bd 26 45 b5 3d
       0.005869238 0.07654712 -0.04305355 0.0885108
000110 1b fd 9c 3d c0 e3 5e 3d 7c f6 91 3d 6c 6e ad bd
       0.076654635 0.054416418 0.07127091 -0.08468327
000120 0f bd 9c 3d 47 df a9 bd a0 9f b5 bd 54 87 06 3d
       0.076532476 -0.0829454 -0.08868337 0.032843903
000130 f3 2a 1f 3d 14 d1 7e bd 4e f2 53 3d 82 a9 46 3d
       0.03885932 -0.06221111 0.05174475 0.0485015
000140 e2 56 4c bd 1c 76 d6 3d d8 f2 be 3d 01 f3 68 bd
       -0.049887545 0.10471746 0.093236625 -0.05687237
000150 25 23 10 bc 34 60 8e bd 31 d2 20 3d 7a 64 0a 3d
       -0.008797442 -0.06951943 0.039262954 0.03378723
000160 d8 64 8c bc 79 df 90 3b ea c6 91 bd ab 79 ec bc
       -0.01713793 0.0044211713 -0.07118018 -0.02886661
000170 be 36 68 3d 9c 11 c3 bb 9b ed 27 3d 2b 69 a0 3c
       0.05669283 -0.005953027 0.040998083 0.019581398
000180 24 25 22 3d 1e 6e 81 bd 86 b5 79 3d a5 35 3f bc
       0.0395862 -0.06319831 0.06096413 -0.011670505
000190 52 b7 92 bd 9f ae 26 3d 38 fd 16 bd 16 0e 6c bd
       -0.07163872 0.040693875 -0.036862582 -0.05763062
0001a0 be c6 e1 ba d0 ba 9d bd 0f e5 67 3d 38 a5 47 3d
       -0.0017225367 -0.07701647 0.05661493 0.04874155
0001b0 53 b0 24 3d a9 d8 82 3d 4f e2 a5 3d 12 bd ed 3c
       0.04020722 0.06388981 0.080998056 0.02902082
0001c0 8e 72 39 3d 65 af 63 3d ad de 9c bc c3 b0 42 bd
       0.045275263 0.05558719 -0.019149149 -0.047531854
0001d0 04 e4 13 3d 9c 27 34 3d 08 96 53 3d 4a 6c b6 3d
       0.036106125 0.043983087 0.051656753 0.08907373
0001e0 fa 7b cc bd b0 86 4c bd 07 74 2d 3d fd e6 41 bd
       -0.09984584 -0.049933136 0.04234698 -0.04733943
0001f0 44 e2 e9 3c 35 0f 2d 3d 4a 00 a6 3d c2 f7 04 bd
       0.028550275 0.04225083 0.08105524 -0.032462843
000200 9e d7 de 3c da 35 1f 3d 1b 99 fc bc 93 ec c8 bc
       0.027202424 0.038869716 -0.030834725 -0.02452687
000210 f8 4a 75 bd 43 b1 3b 3d 58 64 3a bd 64 66 20 bd
       -0.05988595 0.045823347 -0.04550585 -0.039160147
000220 3b 0f 33 3c 4f 81 8a 3d b6 61 a2 bd be 13 a0 bd
       0.010928924 0.06762945 -0.07928793 -0.078162655
000230 9f 54 6c bd fe ca 44 bd e9 3a ee bc d4 0b 38 3d
       -0.05769789 -0.04804515 -0.029080825 0.044933155
000240 d9 9f e6 bb 39 f5 ec bc 68 94 31 3d 4b f8 73 bd
       -0.0070380983 -0.028925525 0.04335442 -0.059562963
000250 db a9 f0 3d bb f5 d4 bc a6 5f 7a bd 35 9e 13 3c
       0.11751147 -0.02599608 -0.061126374 0.009009887
000260 4d 54 e6 3c dc 72 eb bd 91 80 70 3d 56 e1 a8 bc
       0.02811637 -0.11496517 0.05871636 -0.020615261
000270 cb b6 35 bd f4 bc 3a bd 4d 43 85 3d 93 fe ca bc
       -0.044363778 -0.045590356 0.06506977 -0.024779594
000280 a6 3a df bc 80 d3 39 3d 66 ae f0 3d 03 7c 0c 3d
       -0.027249645 0.045367718 0.11752014 0.034297954
000290 82 14 8b 3d b3 cf 8b bd f0 9e ec bc 76 13 75 bc
       0.06791021 -0.06826725 -0.028884381 -0.014958253
0002a0 4d 6f a3 3d ab ff be 3d 44 2d ee bc bc 6c 82 bd
       0.07980213 0.093261085 -0.029074319 -0.06368396
0002b0 e3 a9 e2 3d d7 b1 02 bd 4d dd 68 bd f5 3b ae 3d
       0.110675596 -0.031907883 -0.056851674 0.0850753
0002c0 a4 d1 b9 3d 32 7e f9 3c a6 5b 17 bd 8e 78 3d 3d
       0.09073189 0.030455682 -0.036952637 0.046257548
0002d0 90 2b c8 bd 70 18 a7 3c 4c 77 c4 bc f6 c6 34 bc
       -0.09773934 0.020397395 -0.023982666 -0.011033764
0002e0 4c 94 45 3d d1 79 45 3d d1 7b 0b bc 0e 9f bd 3d
       0.04823713 0.048211876 -0.008513407 0.09258853
0002f0 b5 d7 a9 bb 41 c1 85 bd ca 0b a2 bd 76 6d 05 bc
       -0.005183185 -0.06531001 -0.07912405 -0.008143773
000300 6e f9 7a bd d1 0b 8c 3d 41 4b 1b 3d 41 c5 44 bd
       -0.06127303 0.06838191 0.037913565 -0.04803968
000310 d0 b4 68 bc 84 fd 98 bd 0e 42 82 3d 6d 2d 68 3d
       -0.014203265 -0.07470229 0.06360255 0.056683946
000320 bf d1 96 3b 2d 02 8e bd 6a 41 ae 3d 2f 6c 1a bd
       0.0046026404 -0.06934009 0.085085705 -0.03770083
000330 3c de 95 bd 11 82 da 3c 26 fd ac 3d 92 99 b5 bc
       -0.073177785 0.026673349 0.08446722 -0.022167955
000340 83 d2 f1 3c 19 42 34 3d 78 4e 00 3c 74 8f 06 3c
       0.029519325 0.044008348 0.007831208 0.008212913
000350 73 15 08 3c c6 70 70 3d b9 90 52 3d 27 44 87 3d
       0.008305895 0.0587013 0.05140755 0.06604796
000360 b2 13 5d bd 84 c7 11 3d cc c5 bd 3d 7f 15 8a 3d
       -0.05397386 0.035590664 0.092662424 0.06742381
000370 f4 0b e4 bb 74 66 8a bd 88 f3 be bd ba 84 ff 3c
       -0.0069594327 -0.06757823 -0.09323794 0.031191219
000380 14 b4 cc bc 03 a3 0d 3e 6c e3 0f 3d 3e e8 89 bd
       -0.024988212 0.13831715 0.035128996 -0.0673375
000390 ec 81 e1 3c d5 5d 5b 3c 49 13 86 bd 69 4c c7 bb
       0.027527772 0.0133890705 -0.06546647 -0.006082107
0003a0 f6 b7 8f 3d 85 70 bf 3d 9a 3c aa bd 65 1b 48 3d
       0.0701751 0.09347633 -0.0831234 0.04885425
0003b0 63 06 02 bd a6 d0 ea 3c 64 ce ff 3c cb 40 24 3d
       -0.031744372 0.028663944 0.031226344 0.040100854
0003c0 2f bd b6 3d 6c fa bf 3d cd 2a 3b 3d 76 af 62 3d
       0.08922803 0.09373936 0.045695115 0.055343114
0003d0 05 b1 14 bd 26 5a 9e 3d 2e 14 9d bd dd 47 0a 3d
       -0.03630163 0.07732038 -0.076698646 0.03375994
0003e0 83 f8 ad bc e2 b8 5c 3d 0e 7c 1a 3d 2d 41 97 3d
       -0.021236664 0.053887255 0.037715964 0.07385478
0003f0 a0 a0 5e 3d 05 01 2e bd 5b ae 6a 3b eb bb 65 bc
       0.054352403 -0.04248144 0.003580949 -0.014021854

bias f4 [128]
000000 d6 af 17 bd ea c4 b8 3c 5b d0 2b 3d 0c bb 03 bd
       -0.037032925 0.022554833 0.04194675 -0.032160804
000010 d3 a3 27 bd ae 65 7b bd c0 0d 09 3b fa 11 8e bc
       -0.04092772 -0.061376266 0.0020912737 -0.017342556
000020 2f d0 d3 bc 90 4d 7a 3d 3f f6 b0 bd 86 65 81 bd
       -0.025856106 0.061109126 -0.08640718 -0.06318192
000030 6e 81 84 3d 1e db 98 3c f0 a7 43 bd b6 91 b5 3d
       0.06469999 0.01865917 -0.04776758 0.08865683
000040 f5 ef de bc 3c eb d4 bc 63 8b 67 3d 32 40 0b 3d
       -0.02721403 -0.025991075 0.056529414 0.03399677
000050 bb 9d b9 3d 5f 04 df 3c 4a 15 4e bc 91 70 57 bc
       0.09063288 0.027223764 -0.012578318 -0.0131493965
000060 b3 df af 3d 1a 7f b7 3d d3 41 6e 3d d9 8e 4d 3d
       0.08587589 0.089597896 0.058168244 0.05018506
000070 31 76 1d 3d 74 de fe bc aa f9 8f bc 97 5d 50 bc
       0.038442794 -0.031111933 -0.017575104 -0.012717626
000080 dd d6 68 bd d1 31 e7 3d fc ba b0 3d 65 b0 c8 bc
       -0.056845535 0.112887986 0.086294144 -0.024498174
000090 2d 71 4c 3d 92 bc 2c 3c 87 2a bc 3d d0 1b 69 bc
       0.04991262 0.010543006 0.09187799 -0.014227822
0000a0 78 9e ce 3d d5 ee 32 3c 89 51 71 3d 60 61 95 3d
       0.10088819 0.0109212 0.05891565 0.072939634
0000b0 f7 73 1d 3c a0 0e dc 3c 4f 1d 2a 3b d9 e1 75 bd
       0.009610168 0.026862442 0.002595741 -0.06002984
0000c0 73 e7 42 3d 69 ee 39 3d b8 29 1f bc 94 f7 b9 3c
       0.04758401 0.04539338 -0.009714536 0.022701062
0000d0 26 99 da 3d 5f 3b a7 bd fa 7e c4 3d 61 27 ca 3c
       0.10673742 -0.08165621 0.09594531 0.02467698
0000e0 f8 4b 83 3d 40 9b 37 3d 4d a8 8e 3d e9 ed b8 3d
       0.06410974 0.044825792 0.069656946 0.09029753
0000f0 02 c6 40 3d 70 5e 0d bc 60 35 4a bc 0a fb 1a bd
       0.047063835 -0.008628473 -0.012341827 -0.037837066
000100 2e ed b2 bd 20 55 ba bd 94 62 d0 3d 3c ba b6 bd
       -0.08736645 -0.090982676 0.10175052 -0.0892224
000110 ea aa 83 3d f7 c8 95 bd f0 98 d2 3d 43 ca 34 3d
       0.06429084 -0.073137216 0.10283077 0.044138204
000120 f0 56 36 3d 0e 23 f6 bb 0a 06 a0 bc 3c 9d db 3d
       0.044516504 -0.007511503 -0.01953413 0.107233495
000130 75 cd a6 3c a3 af a4 bb f4 35 0e 3d bd 9f bd 3d
       0.020361641 -0.0050258203 0.034719422 0.09258983
000140 e1 ff 1a bd c1 1a 80 3d c1 ae 20 bb 19 56 3b bd
       -0.03784168 0.06255103 -0.0024518224 -0.045736406
000150 77 99 2d 3d 4f 85 20 3d 8c d3 69 bd d7 e4 32 bd
       0.042382684 0.039189633 -0.057086512 -0.04367527
000160 37 ea 19 bd ad 56 73 bd 05 7b b9 3d 5f 11 6f 3d
       -0.03757688 -0.059408832 0.09056667 0.058366176
000170 09 78 8a bd 3c 3c ca 3d 2b 00 be 3b 8e 9a 38 bc
       -0.06761176 0.0987477 0.00579836 -0.011267317
000180 eb 5c 5b 3d 8b 73 7f 3d 06 4a 58 3c ed 9b 36 3d
       0.05355541 0.06236605 0.013201242 0.044582296
000190 16 b6 0e 3d 02 dd a2 bd f5 a4 00 3d f2 94 b2 bd
       0.03484162 -0.0795231 0.031407315 -0.08719815
0001a0 53 cd cb 3d 36 e6 54 bd f3 49 b7 3c aa 81 c9 3d
       0.09951272 -0.05197736 0.022374129 0.098391846
0001b0 93 ad 9c 3d e8 2b 90 bd ad ef 8e bc ca d0 95 3d
       0.07650294 -0.070396245 -0.01744827 0.07315214
0001c0 56 4b 10 bd 56 a1 03 3d 68 a5 c2 bc 8f 82 f5 3c
       -0.035228096 0.032136284 -0.023760512 0.029969482
0001d0 33 7c 10 3d 06 21 30 3d 9e 4d 6a 3d fa cc b7 bc
       0.035274696 0.043000244 0.057202928 -0.022436608
0001e0 bd 98 96 bd 22 ef 95 3d be 35 a2 3d 0d 4d 91 3d
       -0.07353351 0.073210016 0.07920407 0.070947744
0001f0 18 cf 93 bd 3f 47 cf bc 70 66 83 bd 73 d2 81 bd
       -0.072172344 -0.025302527 -0.06416023 -0.06338968

weight f4 [1, 128]
000000 ea b3 cc bd 55 e1 66 3d de 5a a9 3c fc d4 d0 3c
       -0.099952534 0.056367237 0.020673212 0.025492184
000010 e7 83 85 bd 62 44 82 3d 63 97 da 3a 91 96 97 3c
       -0.06519299 0.06360699 0.0016677197 0.018504413
000020 91 fd d7 3b 61 25 04 bd 64 f5 6b 3d 44 cc 81 3d
       0.006591507 -0.03226221 0.05760707 0.06337789
000030 98 b6 c8 bc 3f dd c0 3d 77 93 b0 3d 4e 93 3b 3d
       -0.02450113 0.09417199 0.08621877 0.045794778
000040 4d 1a 56 3d 1a 0d 80 bd af 01 1e bd 99 c1 64 bd
       0.052271176 -0.06252499 -0.038575824 -0.05584869
000050 ea ae 8b 3d 0b b0 39 3d 64 ce b6 bd a2 eb d2 bc
       0.068204716 0.045333903 -0.08926085 -0.025747124
000060 65 41 c7 3d d2 90 e2 3d 1f 67 67 3d 27 27 90 bc
       0.0972927 0.110627785 0.05649483 -0.017596794
000070 cd 80 80 bd ec 3a 0b bd 1b 88 01 3d cd 6d 7e bb
       -0.06274567 -0.03399174 0.03162394 -0.003882277
000080 76 57 41 bd 17 b6 fa 3d 33 1c 89 3d cf 49 93 3d
       -0.04720255 0.12241762 0.06694832 0.07191812
000090 df ed 90 bd 7f 2a 1a 3d 29 1c ac 3d 56 70 85 3d
       -0.0707662 0.037638184 0.084038086 0.06515567
0000a0 9e 9e c8 3d 0b c2 3d bd 60 74 8f bd fa cb 3f bd
       0.09795879 -0.046327632 -0.07004619 -0.046825387
0000b0 ea 0a d9 bd 9a 2f dd 3d 18 25 4e bd 0d 41 90 3d
       -0.10597785 0.10800095 -0.050328344 0.070436575
0000c0 3d d4 9c 3d e6 0a 2c 3d a2 f4 2c 3d b6 f0 a1 bd
       0.07657669 0.04200258 0.042225488 -0.0790724
0000d0 88 90 2e 3d ab a1 2e bd db ed 42 3d a5 78 27 3d
       0.042618304 -0.042634647 0.047590118 0.04088654
0000e0 3e 21 6e 3d 1e 7b ac 3d 3f 6c 52 bc dd 97 da 3d
       0.05813717 0.0842192 -0.012843191 0.10673497
0000f0 cc 42 9f bd a6 43 b8 bd da dc db 3c 01 5d ee 3d
       -0.07776412 -0.08997278 0.026838709 0.11638833
000100 5f c2 95 3d c3 19 42 3d 84 1e d7 3d 56 8b 47 3d
       0.07312464 0.04738785 0.10503867 0.048716865
000110 2a 9f 63 bd 82 21 43 bd 33 2e 6f 3d c2 d1 43 3d
       -0.055571713 -0.047639377 0.05839367 0.047807463
000120 9d a1 72 3d a6 e7 07 bd af 5c 4a bc 26 5c 79 3d
       0.059236158 -0.0331799 -0.012351199 0.060878895
000130 46 ec 3c 3d e2 f9 08 bc 1b 4a 52 bd cc bc 99 3d
       0.046123765 -0.008360358 -0.051340204 0.07506713
000140 2a e8 8a bc 77 81 3e 3d 2b 7c b8 bd 10 f5 9b 3d
       -0.016956408 0.046510186 -0.09008058 0.07615101
000150 23 f0 95 bd bc 2d b8 bd 33 95 ee 3c 7d fa fc 3c
       -0.07321193 -0.08993098 0.029123878 0.03088116
000160 55 24 f6 3c bf e5 8f bd a0 23 25 bd 8f 36 9d 3d
       0.030046621 -0.070262425 -0.040317178 0.07676422
000170 c5 e3 ea 3c 12 69 86 3d 9e 59 ca 3d e4 bd 41 3a
       0.028673062 0.06563009 0.09880374 0.00073906616
000180 88 47 c8 bd a5 bc 64 bc 75 ef 95 bd 4b 22 f6 3c
       -0.097792685 -0.013960992 -0.073210634 0.030045649
000190 af 07 92 3d ea 83 c2 3d 4f 05 31 3d ca a3 70 3d
       0.07130372 0.09497817 0.043217953 0.05874995
0001a0 1c 2a 43 3d b8 69 ac 3d 03 c4 15 3d 23 21 5c 3d
       0.04764758 0.08418602 0.036563884 0.05374254
0001b0 52 60 95 bd 17 58 90 3c ba f7 d8 bd 32 8a 90 3d
       -0.07293762 0.01762013 -0.10594125 0.07057609
0001c0 51 78 0b bb 10 cf c6 3d 0b 45 7b bd d3 54 b6 3d
       -0.002128143 0.09707463 -0.06134514 0.08902898
0001d0 a8 f8 78 3c fb 2a 5d 3d a0 f0 0d 3d be 66 18 3d
       0.015196003 0.053996067 0.034653306 0.037207358
0001e0 16 27 be 3d 60 25 df 3d f0 40 88 bd 04 03 d4 bd
       0.09284799 0.108958006 -0.06653011 -0.10352138
0001f0 78 3e a9 bd 3c 9c 57 3d be 73 95 bd 94 dc 9b bb
       -0.08263868 0.05263923 -0.07297467 -0.0047565196
