Dry fermentation prediction and optimization system/predictor_digester/Predictor_Digester Biogas Production/models/NeuralNetTorch_BAG_L1/S1F3/net.params (torch, 209863 bytes, 9 tensors)

weight f4 [128, 10]
000000 ef d2 23 bd 44 16 15 3e 67 da b0 be 2f ec 87 be
       -0.039996084 0.14559275 -0.34541628 -0.2654738
000010 c3 7a cc bd 31 d8 8f 3d b7 9e aa bc 33 90 83 3e
       -0.099843524 0.07023657 -0.020827634 0.25695953
000020 47 68 9e bd 2c 80 97 3c ca f8 e8 bd 19 6c de 39
       -0.07734733 0.018493734 -0.11375578 0.0004242368
000030 62 ac bf be 4a 1c 7d be 08 c2 bd bd ea 27 aa bb
       -0.37436205 -0.24717823 -0.09265524 -0.0051927464
000040 39 68 dd 3d f1 d2 35 3e 45 c7 4c be 5e 9a 15 be
       0.108108945 0.17756249 -0.1999789 -0.14609668
000050 2a 6f 21 3e 89 4d 59 3e 41 71 ad bd 43 20 8a 3e
       0.15765062 0.21220984 -0.08468867 0.2697774
000060 5d ce e1 bd 61 0d 9e bb 5a 01 7e 3e 68 60 83 be
       -0.11025689 -0.0048233722 0.24805203 -0.2565949
000070 4c 64 1f be c8 d1 38 bd e5 4a 18 be e2 7c 9f 3e
       -0.15565604 -0.045121938 -0.1487232 0.31149966
000080 80 c5 5d be fc 36 2c be c1 32 62 be 07 47 9a be
       -0.21657372 -0.1681785 -0.22089674 -0.30132315
000090 8b 4e 42 be 43 b5 8f 3e ba 3c 18 3e cb 85 27 3e
       -0.18975274 0.2806798 0.14866915 0.16359632
0000a0 e2 5b 74 bc 89 a8 98 be c9 64 c2 3b 65 77 a8 be
       -0.014914485 -0.29816082 0.0059324247 -0.3290359
0000b0 b7 b8 81 be 57 65 3a be a2 d9 38 3e ab e0 24 3e
       -0.2533624 -0.1820272 0.1805177 0.16101329
0000c0 70 79 02 be 68 87 2d bd 76 50 89 3e cb c0 9e 3e
       -0.12741637 -0.04236546 0.268192 0.31006464
0000d0 a6 b3 51 3e f9 9e 5c 3d 70 21 6a 3e ee 7e 46 be
       0.20478687 0.053862546 0.22864318 -0.19384357
0000e0 ff 09 52 3d 02 a5 82 be e9 28 59 be c7 34 0a be
       0.051279064 -0.25516516 -0.21207012 -0.13496695
0000f0 14 01 17 3e 17 82 82 3e 85 98 b6 be 2f 74 ad 3d
       0.14746505 0.25489876 -0.35663238 0.08469426
000100 fd 71 50 3e 44 c6 12 bd 46 55 84 3c fe 79 46 3d
       0.20355983 -0.035833612 0.016153943 0.048456185
000110 f4 c8 50 3e 29 01 a7 3e 88 85 97 be 25 52 97 bd
       0.20389158 0.32618073 -0.29594064 -0.07388715
000120 10 1c 1f 3c 3c 36 80 3e 8f b1 a8 3e ee 15 68 3e
       0.00971128 0.25041378 0.32947966 0.22664616
000130 4d ed 2c 3c 6c 27 8c be a8 78 dc 3c 4a f9 41 be
       0.010554624 -0.27373827 0.026913002 -0.18942752
000140 60 5f 8b be bb 62 b0 3e 2d 09 97 3e 4b 20 9d be
       -0.27221203 0.34450325 0.29499188 -0.306887
000150 74 e7 71 3d a8 a2 14 bd dd 95 0f bd bf 18 3b be
       0.05905862 -0.036287934 -0.03505503 -0.18271159
000160 51 0a d5 3d 86 3b 00 be 0e ee ee 3d 41 eb 06 3e
       0.10402358 -0.12522706 0.11666499 0.1317568
000170 cb 01 9c 3e c6 97 1f 3e ca c0 a7 be b3 df 53 be
       0.30470118 0.1558524 -0.32764274 -0.20690803
000180 41 df 1f 3e 34 da 04 3e 54 95 6c be c9 fc 5c be
       0.15612508 0.12973863 -0.23103839 -0.21580805
000190 7b 1e 8d 3e ca 91 2e 3e 40 70 31 be 83 fd 91 bd
       0.27562317 0.17047802 -0.17327976 -0.07128432
0001a0 fd 25 8b be f6 c1 75 bc 9b 64 7d be 9e 60 73 be
       -0.2717742 -0.014999857 -0.24745409 -0.23767325
0001b0 42 c1 23 bd a1 67 62 3d ef 0f 10 be 56 37 42 3e
       -0.039979227 0.05527461 -0.14068578 0.18966421
0001c0 7a 5e 22 be a5 0e 89 3e f3 09 51 3e 2a 1c 89 be
       -0.15856352 0.26768985 0.20413952 -0.267793
0001d0 df 7c a3 bd 5d bd 0f 3d e1 e2 91 3d 19 b6 a7 3d
       -0.07982802 0.0350927 0.07123352 0.08189029
0001e0 d1 a8 bf 3d b6 d8 f4 3c eb 23 6f be d2 95 cb 3d
       0.09358371 0.029888492 -0.23353545 0.09940685
0001f0 36 58 a1 be b0 c0 37 be 27 c5 91 bd 19 1e 1a be
       -0.31512612 -0.17944598 -0.07117682 -0.15050544
000200 ae 52 b7 bd 20 39 98 be 91 e0 f5 bd df a0 3a 3e
       -0.08951317 -0.29731083 -0.12005723 0.1822543
000210 08 d2 69 be 4a 9b e4 bc 34 c7 95 3e fa bb 31 bd
       -0.22834027 -0.027906079 0.29253542 -0.04339216
000220 5f 50 09 bb e8 5e dd bd ef 20 18 3d 5c 96 40 3e
       -0.0020952446 -0.108091176 0.037140783 0.18807358
000230 f2 08 b4 3e a4 61 67 3e 23 25 f6 3e 8c e2 29 3d
       0.35163075 0.2259584 0.48075208 0.041475818
000240 62 15 84 be 54 1c 14 be 7e e4 61 3e ea 73 3c 3c
       -0.25797564 -0.14463931 0.22059819 0.011502245
000250 0d d1 3a be 5b 92 24 be a7 66 9b be dd 09 aa be
       -0.18243809 -0.16071455 -0.30351755 -0.3321065
000260 50 57 e8 bd 44 38 32 3e 76 91 65 3e 3f b2 87 be
       -0.113447785 0.17404276 0.2241877 -0.26503178
000270 f7 e5 72 3e 7f da 73 be 0e d3 9f bd 4f 9b 1c be
       0.23720537 -0.23813818 -0.07803927 -0.1529362
000280 aa 56 db bd 37 97 93 bc 0a cc c0 be 4f 8b b0 be
       -0.10709889 -0.01801644 -0.3765567 -0.34481284
000290 0e fb e0 bd 39 53 0e 3d c9 6a e7 bd 58 34 d6 3d
       -0.10985385 0.034747336 -0.112996645 0.104592025
0002a0 99 2f 86 be 19 5f 94 bd ae f0 9b 3e 8d 4b ae bd
       -0.2620819 -0.07244701 0.30457062 -0.08510504
0002b0 96 6a b7 3e 73 ce 2d 3e 8e 5d 83 be dc 36 52 3e
       0.35823506 0.16973285 -0.25657314 0.2052874
0002c0 8a 1f 00 bd be 7e e0 bd 30 db 81 3e 55 11 5d be
       -0.031280078 -0.10961674 0.2536254 -0.21588643
0002d0 ce 47 b2 3d d6 0c a9 bc 40 b4 b5 3e 10 b0 d3 3d
       0.08705102 -0.020636003 0.35489082 0.10336316
0002e0 29 66 e9 3d a0 dd eb 3d 78 97 94 bd 37 36 06 bd
       0.11396439 0.11516881 -0.07255453 -0.032766547
0002f0 30 17 6e be 09 f1 1a 3e 56 1c 59 3e 8b 1a 93 3e
       -0.23251033 0.1513101 0.21202216 0.28731188
000300 58 23 57 be c7 04 d6 3b c0 96 4f be c8 94 25 be
       -0.21009576 0.006531331 -0.2027235 -0.16170037
000310 d6 03 30 be 96 82 c5 3d 51 aa 4e be 72 d4 d7 bb
       -0.17188963 0.09644048 -0.20182158 -0.0065866048
000320 43 8d 44 bb e7 22 2e 3e e5 a0 9f be bc e9 87 be
       -0.0029991425 0.17005502 -0.3117744 -0.26545513
000330 c0 28 56 be b4 ad 5c 3e de be f4 bd d1 a9 65 3e
       -0.20913982 0.21550637 -0.119504675 0.22428061
000340 ce 57 25 3e cc 3e ec 3c 42 9b ed bc bc 5f 8e bd
       0.16146776 0.028838538 -0.029004697 -0.06951854
000350 cf 7b 57 3d 7c 07 c6 bd a3 cd 28 3c 05 6a 26 3d
       0.052608307 -0.09669396 0.010302934 0.04062845
000360 77 01 7d be 9f f9 25 be d8 d4 79 3e 41 d6 8f be
       -0.2470759 -0.16208504 0.243976 -0.2809315
000370 6e 9f 5e 3d 7f a9 c7 3e 88 2b 72 3e 9d 9e 47 3d
       0.054351263 0.38996503 0.23649418 0.04873525
000380 e6 55 97 be 25 57 26 3e 5f b8 60 be ee 0a 6e bd
       -0.29557723 0.1624418 -0.21945332 -0.058115892
000390 85 8c c4 bd a5 ce e2 bb 10 25 02 be 45 aa 91 3e
       -0.095971145 -0.0069216066 -0.1270945 0.28450218
0003a0 79 87 51 3d 6b 56 85 3e 52 48 83 3e d5 9e 36 be
       0.051154587 0.26042494 0.25641114 -0.17834027
0003b0 a7 55 27 3e b4 ff 5c be 99 df 2b be 9a be 57 3d
       0.16341268 -0.21581918 -0.16784514 0.052672006
0003c0 f4 1d 75 3d 67 f1 95 3e 8b 87 f0 bd 1c ff 5e bc
       0.05984302 0.29285738 -0.11744603 -0.0136106275
0003d0 56 ce 7e 3e 33 8a 9e be af 31 66 3e 36 6f 77 be
       0.24883398 -0.30964813 0.2247989 -0.24163517
0003e0 ff 05 85 bd a0 e1 ad bd 64 e6 42 be 10 b3 ca 3d
       -0.06495284 -0.084903 -0.190332 0.09897435
0003f0 6a 0c 9e 3e c4 ca e2 bd 14 05 3d be fa 4f e3 bd
       0.30868846 -0.11073831 -0.18458968 -0.11099239

bias f4 [128]
000000 35 e7 7e be 45 d3 87 bd 23 8c 12 3c 31 5c 87 3d
       -0.24892886 -0.06632093 0.008944544 0.06609381
000010 c7 ba 07 3e 1f 17 0d be 96 77 80 bd b0 a3 59 3e
       0.13254844 -0.13778351 -0.06272809 0.21253848
000020 c8 8d 97 bd c9 ca 62 be 31 fc 47 3e cf 3a 55 3e
       -0.074000895 -0.22147669 0.19529797 0.20823215
000030 68 01 9a bd 13 33 99 bd 37 7c 5e be 0c 13 71 be
       -0.075197995 -0.07480445 -0.21727072 -0.23542422
000040 63 6c 2a 3e f1 d0 08 be fb 57 86 3e d4 1d 94 be
       0.16642909 -0.13360955 0.26239 -0.28929007
000050 87 0b 68 bd 31 1e e1 3b c5 99 03 3e 29 37 94 3e
       -0.05665162 0.006870054 0.12851627 0.28948334
000060 b6 57 5e 3e 2b 44 dc 3d f2 85 01 be dd e0 85 be
       0.21713147 0.107551895 -0.12648752 -0.2614812
000070 2e 1c 94 be 6d 49 c7 3b 69 5d a0 3e 65 d8 8e bd
       -0.2892775 0.006081751 0.31321266 -0.06974868
000080 75 ff a1 bd 17 e8 71 be e7 3e 88 3d a5 ec 68 3e
       -0.07910053 -0.23623691 0.06652623 0.22746523
000090 2a bb b3 be e3 d9 77 be f6 ad 48 3e 32 1a 39 3d
       -0.35103732 -0.24204211 0.19597611 0.045190997
0000a0 2d d5 00 bc cf 4d 8b 3d f2 1e 30 bd 46 76 88 be
       -0.007863325 0.0680195 -0.04299826 -0.26652735
0000b0 7a a7 b1 be e0 93 3f 3e b0 e2 af bd a5 d6 04 be
       -0.34698087 0.18708754 -0.08588159 -0.12972505
0000c0 54 5d 13 be c1 5f 4c be 4a a5 90 bd 92 14 6c be
       -0.1439107 -0.19958402 -0.070627764 -0.23054722
0000d0 2c 19 67 3e 79 ae 07 3e b1 09 44 be 34 73 bd bd
       0.22568196 0.1325015 -0.19144322 -0.09250489
0000e0 fb 23 fa 3d 58 be e3 bd 7f 0d d5 3d 92 8a 95 3d
       0.12213894 -0.111202896 0.10402965 0.07301821
0000f0 a6 0d 82 be 81 62 99 3c d0 5f 19 bd 1c 64 86 3e
       -0.25401038 0.018723728 -0.03744489 0.26248252
000100 b4 c5 fd bd 61 54 ff bc be f4 85 3e 7a a8 99 be
       -0.123912245 -0.031168165 0.26163286 -0.3001135
000110 90 5a 5d 3c 9d 83 99 3e f4 d6 41 be 32 93 9e 3e
       0.013510361 0.29983225 -0.18929654 0.30971676
000120 41 79 63 3e 47 3a 82 3e 12 0c aa bd f6 af 91 3e
       0.22214223 0.25435087 -0.083030835 0.2845456
000130 7d 53 04 be a6 e4 f5 bd 84 ac f4 3d 8b dd ac 3d
       -0.12922473 -0.12006502 0.11946967 0.084406935
000140 af 76 f6 3d 77 2a 82 3e 2f e8 29 be 05 df 1e 3e
       0.12034356 0.25423023 -0.16592477 0.15514763
000150 17 f4 f7 3d 1a 49 27 3e 2c d5 3b 3e 3f be 48 be
       0.12107103 0.1633648 0.18343037 -0.19603823
000160 0e 17 86 be bf 54 84 3e f5 6c f9 bd 48 94 56 3e
       -0.26189464 0.25845906 -0.12178985 0.20955002
000170 36 d0 93 be 40 34 b8 bd 8a cc a7 3c 68 87 af 3c
       -0.2886979 -0.08994341 0.020483274 0.021426871
000180 75 ef 76 ba 91 20 de 3d 9a c3 4b bd e8 70 48 3d
       -0.0009419837 0.10846055 -0.049747087 0.0489358
000190 3a 64 95 3e 2f 73 77 be 92 91 4b bc c6 cc 0e be
       0.2917803 -0.24165033 -0.012424843 -0.13945302
0001a0 58 b6 89 3e 40 b0 83 3e a1 11 0a 3b 57 0f e9 bd
       0.2689693 0.25720406 0.0021067637 -0.11379879
0001b0 1f ae 5f be 92 d6 6f 3e 05 cf 89 bc 1b 3c 9d 3e
       -0.21843766 0.23421696 -0.016822347 0.3070992
0001c0 b6 1e 3e 3e 54 9f 88 3e 9b 83 71 3e 63 7a 4c be
       0.18566403 0.26684058 0.2358536 -0.19968562
0001d0 db 0b cf 3d 99 10 f7 bd 4e 4d 1c 3e 27 2a 9e bc
       0.10109683 -0.120637126 0.15263864 -0.01930721
0001e0 e0 08 c4 3c b5 7b 6a be 48 27 86 be dd 2c 99 3d
       0.023930013 -0.22898753 -0.26201844 0.0747926
0001f0 58 33 10 3d 23 bf fc ba 89 6a 34 3e b4 75 0d be
       0.035205215 -0.0019283037 0.17618765 -0.13814431

weight f4 [128, 128]
000000 5c 0f fb 3c cf 13 44 bd 63 37 a2 3b b4 30 62 3b
       0.030646972 -0.047870453 0.0049504503 0.0034513893
000010 50 30 7d 3d 33 95 bf 3d ae 30 cc 3d a3 a2 67 bb
       0.061813653 0.09354629 0.099702224 -0.0035344742
000020 81 59 90 3d 0b df 81 bd 19 5d 64 bd aa 7a 86 3a
       0.070483215 -0.0634137 -0.055752847 0.0010259945
000030 f8 17 76 bc 12 e5 99 bd cf ea b1 bc 97 46 d7 bd
       -0.015020363 -0.07514395 -0.02171841 -0.10511511
000040 45 15 ec bd a0 f9 01 3c 12 36 8b 3d 53 96 78 3d
       -0.11527494 0.00793305 0.067974225 0.060690235
000050 3b 32 2a bd da a4 97 bd 85 24 5f bd 4c 66 27 3c
       -0.04155181 -0.0740449 -0.054478187 0.010217261
000060 3b e5 7f 3d 0c cd 09 bd 94 02 47 bd f1 30 82 bd
       0.06247447 -0.033642814 -0.048586443 -0.06356991
000070 19 ac 6c bd da 38 9b bd 4f b5 62 bd 30 92 c7 3d
       -0.057781313 -0.07579203 -0.05534869 0.0974468
000080 d2 22 4e bd f2 1d 89 bc 02 e4 14 bd c9 09 63 bd
       -0.050326176 -0.016737912 -0.036350258 -0.055429254
000090 45 a4 d6 bc 89 57 07 3d 65 02 24 bd 90 ba 98 bc
       -0.026201377 0.033042464 -0.040041346 -0.018643647
0000a0 02 5e ce bb d5 10 f9 bd 88 fb 67 3d 36 1b a7 3d
       -0.0062978277 -0.121614136 0.056636363 0.08159487
0000b0 9a e7 64 3d f8 48 0f bd d0 6c 1b 3d 26 c1 ea bd
       0.055884935 -0.034981698 0.03794557 -0.114626214
0000c0 4b 88 ec bc e8 4a 45 bd 73 0b 17 bd 6d ec 12 3d
       -0.028873583 -0.04816714 -0.036876153 0.035870004
0000d0 01 14 40 bd 4b 7f 93 bd f8 2a cc bc 2a 4c c2 bd
       -0.046894077 -0.072020136 -0.024922833 -0.094871834
0000e0 01 81 2a bd a0 6a c2 bd f7 a0 86 3d af 88 88 3d
       -0.041626934 -0.09492993 0.0657367 0.06666695
0000f0 7f c3 4f 3d 3b 5c e4 bc e7 6f 74 3c 3c 3e 42 3b
       0.05072355 -0.02787601 0.014919258 0.0029639145
000100 80 79 c9 3d 6e fd 9f 3d f8 e0 56 bd 3e 15 95 bd
       0.098376274 0.0781201 -0.05246064 -0.07279442
000110 ed 19 fe bd d4 c6 93 bd 51 d2 bf 3d 0c 00 3f 3d
       -0.12407289 -0.07215658 0.093662865 0.046630904
000120 8c 4a 92 3d 4d 70 77 3d 6b 60 62 3b 50 f2 41 bd
       0.07143125 0.060409833 0.0034542333 -0.047350228
000130 ea 85 88 3d 37 97 83 3d ab d5 b0 3c 2c 28 9f bd
       0.06666167 0.06425326 0.02158626 -0.07771334
000140 3c df 8b 3d 84 53 85 3c ab 72 56 3d 03 54 a1 3c
       0.06829688 0.016275175 0.05235545 0.01969338
000150 04 d4 6f 3d 00 dc a3 bd 41 e7 9f bd 90 75 3d 3d
       0.058551803 -0.08000946 -0.0780778 0.046254694
000160 2c 3a c9 bc 5b 1a e2 bd b2 3b de 3d bf 19 15 bd
       -0.024563871 -0.11040183 0.1085123 -0.036401507
000170 5b 98 6a 3d 28 bc b1 bd da 7a 9f 3c 03 10 3c bd
       0.057274204 -0.08678466 0.01946776 -0.045913707
000180 89 17 21 bd e2 ab 66 bc a9 6a 7d bd b6 8d 62 3d
       -0.039329085 -0.014079066 -0.061869297 0.055310927
000190 48 ec b8 bc ae a4 61 3d 06 a3 15 3d 5f f7 97 bc
       -0.022573605 0.05508869 0.036532424 -0.018550573
0001a0 29 e7 5b bd 1a d8 b2 bd 56 ec 4a bd ad d8 aa bd
       -0.05368725 -0.08732624 -0.049541794 -0.08342109
0001b0 af 9c be bc c7 6e fd bb 8e 4b 50 ba e9 17 22 bd
       -0.023268072 -0.007734153 -0.0007945829 -0.039573584
0001c0 5f dd 26 3d 92 08 7b 3d 28 28 a2 bc 04 e1 9e bc
       0.04073846 0.06128747 -0.019794539 -0.019394405
0001d0 43 93 3b 3c 65 46 a1 3d aa 3c 90 bd 95 70 3b bb
       0.011448684 0.07874755 -0.07042821 -0.002860104
0001e0 a3 11 71 3c e0 17 90 bc f6 ce a2 3d be 60 5f bc
       0.014713678 -0.01758951 0.07949631 -0.013633905
0001f0 71 a6 96 3d 27 50 c0 ba 6b c9 59 bc 5a b9 6a bd
       0.07355965 -0.0014672325 -0.013292651 -0.05730567
000200 1b 83 1f bd 27 a0 00 bc 29 20 12 3d 19 72 8b bb
       -0.03894339 -0.007850683 0.0356752 -0.004255545
000210 55 eb 4d 3d 4b da c6 bc c9 2a 08 3d e6 49 96 3d
       0.05027326 -0.024274012 0.033243928 0.07338314
000220 da e8 94 ba 82 99 60 3d 0a 8e ea 39 53 14 99 bd
       -0.0011360899 0.054833896 0.00044737785 -0.0747458
000230 b8 99 c0 bd 16 b0 09 3c 7d a0 01 bc 1d 2f b3 bc
       -0.094043195 0.008403799 -0.007911799 -0.021873051
000240 06 77 4d 3c 8a 77 0b 3d fe 66 55 bc 58 d4 28 3d
       0.012540584 0.03404955 -0.0130250435 0.04121813
000250 2b 54 38 bd 96 ee c3 bd 26 32 e1 bc 59 92 ea bd
       -0.045002144 -0.09566991 -0.027489733 -0.11453695
000260 23 ed e0 bc 52 70 ca 3b d6 59 31 bd b7 17 02 be
       -0.027456826 0.0061779404 -0.043298565 -0.12704359
000270 2d 55 17 3d d1 91 4e bd 7b 9c c2 bc c2 94 da bd
       0.036946464 -0.05043203 -0.023756256 -0.106729046
000280 0a 4c 5e bd aa 81 20 3d 75 ce b0 bd a0 9b 35 bd
       -0.054271735 0.039186157 -0.086331286 -0.04433787
000290 45 ee 6f 3d 3a 15 64 bd 17 cb 0f bd d8 c1 07 bd
       0.05857684 -0.055684306 -0.03510579 -0.03314385
0002a0 bb 78 42 3d ab f1 44 bd 43 2b 12 ba 31 19 49 3d
       0.04747842 -0.048082035 -0.00055759045 0.04909629
0002b0 83 29 59 bd 93 d8 88 3c 74 68 c0 bd ad 1a 4b 3c
       -0.053018104 0.016704833 -0.09394923 0.012396497
0002c0 f9 60 bb 3c e2 d6 bc bc 2a d3 31 be ce ef 5e 3d
       0.022873389 -0.023051683 -0.17365709 0.054427914
0002d0 84 d3 6c 3d 72 ad 03 bd 38 b5 b8 3b 39 2c b0 bd
       0.057818905 -0.032147832 0.0056368373 -0.08602185
0002e0 3b cf 52 bd 59 35 6d 3c 77 d5 94 3d e9 36 f6 bb
       -0.05146716 0.014478051 0.07267278 -0.00751387
0002f0 a7 9c de bd 96 b4 b6 bb d4 54 67 3d ee 37 d9 bc
       -0.10869723 -0.0055757267 0.056477383 -0.026515927
000300 fb 7e 89 bd bf e1 74 3d f1 2b 2e 3d ae b4 9a bc
       -0.06713673 0.0597856 0.042522375 -0.018884983
000310 80 06 32 3c 14 22 2e 39 68 a6 cb 3a df 1b b3 bc
       0.0108658075 0.00016606628 0.0015537264 -0.021863876
000320 c9 73 53 bd d5 bd 0d 3c 9e ec 9f 3b 1b 1d e5 bc
       -0.051624093 0.0086512165 0.004880502 -0.02796798
000330 67 1e e2 bd f1 ec 80 3b 81 c9 68 bd 4d 71 58 3c
       -0.11040955 0.0039344956 -0.056832794 0.013210607
000340 99 8c 23 3d 42 5d a0 bc 23 00 a1 bd 2f d2 d5 3b
       0.039929006 -0.019575719 -0.07861354 0.0065253
000350 7a f5 8a 3c 53 0d c4 bd f2 61 41 be 43 be 94 3d
       0.016962755 -0.09572854 -0.1888502 0.07262852
000360 4b b3 83 3d 90 13 69 bc 7a 86 ca 3d ba de eb bb
       0.06430682 -0.0142258555 0.098889306 -0.007198182
000370 70 a8 3e 3d bf 24 15 3d de 7c 62 bd 17 55 cb bc
       0.046547353 0.036411997 -0.055294864 -0.024820847
000380 d9 b0 9a 3d 8c 72 95 3c d6 51 99 bd 39 4a 9d bd
       0.07553262 0.018243097 -0.07486312 -0.076801725
000390 54 47 a3 3a d5 35 85 3d 0a f1 8c 3d f3 1b fc bb
       0.001245717 0.06504408 0.06881912 -0.0076937615
0003a0 e3 32 63 3d 7d aa 8e bd fc f4 89 bc 19 b3 c6 bd
       0.05546845 -0.06966112 -0.01684045 -0.09702129
0003b0 4b a4 83 3d 90 3e a3 bb 0b f2 f0 bc a8 6b 09 bd
       0.06427821 -0.0049818233 -0.02941229 -0.033549935
0003c0 d8 da e3 bd 38 7e 71 bd 01 95 9e 3b ea 1a 8d 3c
       -0.111257255 -0.058958262 0.00483954 0.017224748
0003d0 f0 e5 07 be 54 27 ac bd cb de af 3c e5 d4 03 3e
       -0.13271308 -0.08405939 0.02146854 0.12874182
0003e0 bc 15 9f 3c e9 47 50 bd d9 d0 f6 3c 53 95 62 3c
       0.019419543 -0.05084983 0.030128883 0.013829547
0003f0 80 f4 9c bd dc 0f 45 bd f6 09 e5 3c ac 8b 57 3d
       -0.07663822 -0.048110828 0.027958851 0.052623436

bias f4 [128]
000000 5a cf a4 bd 8b c7 97 3d 70 19 1a bd 4d 2e 4d bd
       -0.08047362 0.07411107 -0.037621915 -0.050092984
000010 f6 a1 9b 3c 9e aa 82 3d da 2d 86 3d ee e3 91 3d
       0.018998127 0.06380199 0.06551714 0.07123552
000020 bd 36 b6 bc be da 14 3c 1f 98 ac 3d ab 9c 6c 3d
       -0.022242898 0.009085355 0.08427452 0.057766598
000030 43 8c 99 3d 96 04 d5 3c d9 4c af bd 9e 71 e8 3c
       0.07497456 0.026003163 -0.085595794 0.02837449
000040 fb eb 64 bb e1 a5 f1 3c 67 f4 10 3d 44 75 33 3d
       -0.0034930694 0.029498043 0.03538933 0.043813005
000050 86 a8 2b bd 01 c8 6f bd 2a 95 aa 3d 9c 00 97 3c
       -0.041908763 -0.058540348 0.08329232 0.018432908
000060 b4 3c 52 3d ae db e2 3c 4b 8c 50 bc c3 4b b8 bd
       0.051327422 0.027692642 -0.012728761 -0.089988254
000070 c6 49 9a 3d 70 20 a3 3d 2c 28 64 bc 58 cc 59 bc
       0.075336024 0.07965171 -0.013925593 -0.013293348
000080 6c a5 01 3d 45 60 99 bd ee 9f d9 3c 90 0b 9e 3d
       0.0316519 -0.07489065 0.026565518 0.07717049
000090 8b 70 f6 bc 65 f8 ce bb 8f ff 44 3d bd c2 67 bc
       -0.030082962 -0.006316232 0.048095282 -0.01414555
0000a0 9f 1d 3c bc b5 c5 e4 3c 10 63 51 39 dc 50 85 bc
       -0.011481672 0.027926305 0.00019968697 -0.016273908
0000b0 e5 69 c0 ba 6f ed 2a 3d 13 f8 90 3d c5 44 f8 3b
       -0.0014679997 0.04173034 0.070785664 0.0075765573
0000c0 e0 ca 02 3b ad d5 51 bd 35 13 6f 3d 78 42 16 3d
       0.0019957349 -0.051229168 0.058367927 0.036684483
0000d0 65 ed 55 bd cd 39 6e 3d d1 bf d0 3c e2 ce 70 bd
       -0.05222835 0.058160592 0.02548209 -0.05879105
0000e0 96 a5 df bc c6 0d 79 bd cb 1f b4 3a ef 88 2b 3d
       -0.027300637 -0.06080415 0.0013742385 0.041878637
0000f0 e5 ed 8e bd e0 8a 39 3b af ce a7 3d 01 56 56 3d
       -0.069789685 0.0028311536 0.08193719 0.052328113
000100 09 8f 83 3d c6 c3 2b bd 8f 51 d4 3a 68 0e 17 bd
       0.06423766 -0.04193475 0.0016198623 -0.036878973
000110 e0 c9 bc 3d bb 6e 1d 3c 5d e0 6e bd 71 9b 7e bc
       0.09218192 0.00960892 -0.05831944 -0.01553999
000120 21 c8 04 3c 62 be 68 3c b9 16 ea bc af 99 30 3c
       0.008104355 0.014205547 -0.028575288 0.0107788285
000130 3e 14 95 bd 0c 30 29 bd 27 d0 1a 3d aa 16 f7 3c
       -0.072792515 -0.041305587 0.037796166 0.030162174
000140 d3 45 c0 3d 5d d5 a7 3d 41 07 2a 3d d0 bb 6f bd
       0.09388318 0.08194993 0.041510824 -0.05852872
000150 49 b5 a6 3d eb 24 7a 3d 55 ef 28 bd 34 ed 0d bd
       0.08140046 0.061070364 -0.04124387 -0.034650043
000160 bc 94 72 bd bc 45 2d bd e0 08 3b 3d 21 e1 28 bd
       -0.059223875 -0.042302832 0.04566276 -0.041230325
000170 4f 0d 97 3d 7e cb 2c 3c de 19 07 bc 5f 4e f9 3c
       0.07375585 0.010546563 -0.008245913 0.030432878
000180 50 49 4c 3d 92 2a 31 bb 1f 97 8e bd a8 bc b4 bd
       0.049874604 -0.002703343 -0.06962418 -0.08825046
000190 2e a4 8e 3d 9f 68 72 3d 81 c5 42 bc 63 ef 9a 3d
       0.069649085 0.059181806 -0.011887909 0.07565191
0001a0 79 3c 2d 3d e1 69 80 bd 00 44 b7 bb 82 15 89 bd
       0.042294 -0.06270195 -0.005592823 -0.066935554
0001b0 1a fc ff 3c 97 f8 f2 3c 57 0c 58 3d 03 16 9c 3c
       0.031248141 0.029659552 0.052746143 0.019053465
0001c0 29 e4 b1 3c 1f 05 56 bd 93 cd b2 bd a8 bc 10 bd
       0.02171524 -0.052250978 -0.087306164 -0.035336167
0001d0 a2 fe 02 3d e9 30 fb bc 01 9e 97 bc 8a 74 0d bd
       0.031981118 -0.03066297 -0.01850796 -0.03453497
0001e0 a8 7c 26 bd 02 e2 28 bd da 3c 82 bc 26 f5 a5 3d
       -0.040646225 -0.041231163 -0.015898157 0.08103399
0001f0 e6 2e 5f bc d0 f5 9e bc b5 41 ab bc 2e 87 70 bd
       -0.013622021 -0.019404322 -0.020905355 -0.058722667

weight f4 [128, 128]
000000 e0 c3 a2 bd 57 ea 40 bd a1 9d 42 bd f6 0e 1e bd
       -0.079475164 -0.047098484 -0.047513608 -0.038588487
000010 78 ea 61 bd 9e f6 1f 3c c0 21 82 3d 95 90 31 bd
       -0.055155247 0.009763388 0.063540936 -0.043350775
000020 7d 68 81 3d 0c 3c 96 bd 39 b9 9b 3c 8d ba 3a 3c
       0.06318758 -0.07335672 0.01900922 0.011397016
000030 fc 55 9b bd fe b5 91 bd 7d 66 3f bd dc 4d 92 bd
       -0.075847596 -0.071147904 -0.0467286 -0.07143757
000040 db a5 5f bb ae 6f 5c bd 71 2b b3 3d dd 12 17 3c
       -0.0034125957 -0.053817444 0.0874852 0.009220806
000050 58 f2 9a bd 30 f6 33 bd 79 39 a8 3d 12 ae 05 bd
       -0.07565755 -0.043935955 0.08214087 -0.03263671
000060 53 8e 2c 3c a5 39 f8 3c e0 50 4c bd b0 25 97 3d
       0.01053198 0.030300925 -0.049881816 0.07380235
000070 35 2b 89 bc 9a 65 9d bd 6e 64 25 3d 08 a4 7a bd
       -0.016744236 -0.076853946 0.04037898 -0.06119159
000080 1c 1a 67 bd be 98 a0 bd ba 96 24 3d f0 d4 4f 3b
       -0.056421384 -0.07841633 0.040182807 0.0031712614
000090 66 67 a2 3d 9d 21 f6 bc ab 79 da bb d5 05 1a 3d
       0.07929878 -0.030045325 -0.006667336 0.037603218
0000a0 eb 42 20 bd 79 04 25 bb a5 af dc bc 58 8b 5d 3d
       -0.039126318 -0.0025179668 -0.026939223 0.054087967
0000b0 90 0f 14 3d 03 c0 b9 bc 16 e1 3c bd 8c 77 52 3d
       0.036147654 -0.022674566 -0.046113096 0.05138354
0000c0 7d 9f b6 bd 33 d7 7b 3d e4 de bf 3c 42 66 55 bc
       -0.08917139 0.061484527 0.023421712 -0.013024868
0000d0 bd 24 43 3d 51 c1 df 3c cd 13 88 3c 00 86 f6 bc
       0.04764246 0.02731386 0.016611004 -0.030093193
0000e0 cf d7 c6 bc 80 ba c6 bb a1 5b 2c 3d 2f ef a9 bd
       -0.024272827 -0.006064713 0.04207957 -0.08297574
0000f0 af d8 94 bc 1b 89 26 3d d1 57 11 bc 5d 17 a4 bd
       -0.018169729 0.040658098 -0.008871035 -0.08012269
000100 ce ac 8b bc 79 77 96 3d 07 16 c0 3c f2 f2 e4 3d
       -0.017050173 0.07347006 0.023448003 0.11179151
000110 f8 bd 01 bd 0a 7e 82 3d 5d 61 8c bc cc e1 42 bb
       -0.03167531 0.06371696 -0.01713627 -0.0029736636
000120 9e 7f 06 bc 97 af be bd f6 db b3 3c e9 c3 02 3d
       -0.008209137 -0.09310835 0.021955471 0.031925116
000130 02 97 b5 bd d8 fe 0f 3c 77 0d a3 bb 0b e1 a3 3d
       -0.08866693 0.008788787 -0.0049759704 0.08001908
000140 cc b3 a3 3d 0e cf 96 bb 55 07 80 39 91 bb 1e bd
       0.07993278 -0.0046023196 0.00024419525 -0.038753096
000150 19 66 8a bd a5 4b 72 3d 52 f5 a4 3d f6 be 7c 3d
       -0.06757755 0.05915417 0.08054604 0.061705552
000160 c0 02 9a bd 3d c3 ae bd a2 2e 70 bd 0b 5e e2 ba
       -0.07520056 -0.085333325 -0.058638223 -0.0017270459
000170 1f e8 d6 bc f9 ce df bd d0 0a 9a bd f4 0d 90 bd
       -0.02623373 -0.10928149 -0.075215936 -0.07033911
000180 97 dc 1f bd 14 10 5a 3b 3b ed 82 3d f1 34 e0 bd
       -0.03902873 0.0033273743 0.06392904 -0.10947598
000190 ed 4a 18 3d e6 18 fd bc 47 73 bc 3d 02 a9 94 bd
       0.03718083 -0.030895662 0.09201675 -0.07258798
0001a0 39 9d c1 bd 9f af e5 bb 0d 09 b4 3c 43 a9 84 bd
       -0.09453816 -0.007009461 0.021976972 -0.064775966
0001b0 0c fd 41 bd 20 a3 91 bd d5 b1 7b 3d 4a db 03 bd
       -0.047360465 -0.07111192 0.06144889 -0.032191552
0001c0 9e 80 13 bd 8f 76 9c bd 40 ac 9c 3c dc e8 c0 3d
       -0.03601133 -0.07639801 0.019125104 0.094194144
0001d0 c0 53 ab 3c f3 b0 18 3d 0a 9a 82 3d 52 36 01 3c
       0.020913959 0.037278127 0.06377037 0.007886486
0001e0 08 64 91 3c ec df c0 3d 36 e5 05 bd cc 9e 96 bd
       0.017747894 0.0941771 -0.032689296 -0.07354507
0001f0 8d 9a 6d 3c ec 9c c8 3c a8 0f 74 3d 47 20 5f 3d
       0.01450218 0.024488889 0.059585243 0.05447414
000200 b4 16 83 3d 05 c2 35 bc 86 98 63 3d a1 13 a9 bd
       0.06400815 -0.011093621 0.05556538 -0.08255697
000210 75 99 a3 bc 32 02 7e 3d 7f 1f 98 3d 75 46 be bd
       -0.019970635 0.062013812 0.074278824 -0.09290782
000220 43 5a ac 3d 12 4a a0 3c c7 67 d1 3c ce d1 49 bc
       0.084156536 0.01956657 0.02556218 -0.012318088
000230 22 83 7f 3c e9 16 74 bd 14 b3 b3 3d 59 48 5d 3d
       0.015595229 -0.05959216 0.08774391 0.054024074
000240 10 25 a2 bc 3a 70 de bd f5 9e 78 3c d0 a6 6e 3d
       -0.019793063 -0.10861249 0.015174617 0.058264554
000250 98 40 50 3d ba 8a 96 3d 0a 47 40 bb e9 fc 4e bc
       0.05084285 0.07350679 -0.0029339218 -0.012633541
000260 23 75 04 3d 00 ac 98 3c e1 e4 34 3d d8 72 88 3d
       0.032338273 0.018636703 0.04416359 0.0666253
000270 d5 3a 9e 3d 6b aa 51 3d 3d 1c 2f 3d 3d 6d 24 bc
       0.07726065 0.051187914 0.04275154 -0.01003581
000280 d8 bc 2a bd 9b c8 56 bd 3e 51 26 bd f9 37 c9 bd
       -0.041684 -0.052437406 -0.040604822 -0.09825129
000290 e6 b7 4a bd 33 e7 fa bc c2 1c a5 3d 89 23 69 bd
       -0.049491785 -0.030627823 0.08062126 -0.056918655
0002a0 e0 ed 65 3d ec 6e 06 bd f5 b6 d1 bd 72 37 1c bd
       0.05613506 -0.032820627 -0.102399744 -0.038138814
0002b0 b3 af 62 bd e0 72 c9 3d d9 4b 96 3d 5b 96 94 3d
       -0.05534334 0.09836364 0.073386855 0.072552405
0002c0 c1 1b 4c bd 32 a6 b1 bd fc 4a 10 bd 62 7d aa 3d
       -0.049831156 -0.08674277 -0.03522776 0.08324696
0002d0 c8 43 da 3c f0 d6 8c bd 2a b6 08 bd 46 4a 49 bb
       0.026643649 -0.068769336 -0.03337685 -0.0030714436
0002e0 b7 7a c9 3d 4b dc 82 bd c9 78 5a 3d 0e 5e 51 3d
       0.09837859 -0.06389674 0.053337846 0.05111509
0002f0 b7 38 a2 bb 0e ab a7 bd 7d fa 48 bd 5f 4a ae 3d
       -0.0049506086 -0.08186923 -0.04906701 0.08510279
000300 33 dc b4 bd 8f 71 20 3d 80 f5 b2 3d 76 61 cb bd
       -0.08831062 0.039170798 0.08738232 -0.099306986
000310 7d 59 f3 bb c8 2d 4e 3d 3d 62 40 bc fc 83 96 3d
       -0.0074264393 0.05033663 -0.011742172 0.07349393
000320 72 99 7d bb 04 3f 1b bd 0d 3a 95 3d c4 4a 67 3b
       -0.0038696197 -0.037901893 0.07286463 0.0035292367
000330 bf a3 33 3c b1 32 06 3d 18 73 d2 3c 36 05 d7 3a
       0.010964333 0.032763187 0.025689647 0.0016404751
000340 82 4d e5 bc 43 c8 35 bd 69 eb 8b bd f1 f2 32 3c
       -0.02799106 -0.044380438 -0.0683201 0.01092218
000350 fa 24 50 bd 65 ad 03 bc bd 81 83 bc f6 e6 49 bd
       -0.050816514 -0.008036946 -0.016053075 -0.049292527
000360 9a f5 c7 39 08 68 94 bd b2 4e 8d 3d a4 33 06 3d
       0.00038139225 -0.07246405 0.068997756 0.032764092
000370 72 9f b9 3d 9f 87 d0 3c 90 af 8b 3d ff b3 f8 bb
       0.09063615 0.025455294 0.06820595 -0.0075898166
000380 eb 50 9c 3b 57 e6 b0 bd 06 f0 80 3c 44 26 43 3d
       0.0047703884 -0.08637684 0.015739452 0.047643915
000390 42 9e 66 bc 69 b1 e5 bc 48 76 8a bd c8 56 8c 3d
       -0.014075818 -0.028038697 -0.067608416 0.0685249
0003a0 e0 bb af ba ef 1e a6 3c 53 85 47 3d 59 42 7a 3d
       -0.0013407432 0.020278422 0.048711132 0.06109843
0003b0 1f 67 0b 3d f3 d9 ee 3c 7b 08 34 bd db ab ac bd
       0.03403389 0.02915666 -0.0439534 -0.08431216
0003c0 f2 1f aa 3d a9 37 2d bd e2 b3 0a 3d 84 41 b6 bd
       0.08306874 -0.04228941 0.033862956 -0.08899215
0003d0 86 16 01 bd 8b 56 bb 3c c6 13 a0 3d 65 e7 1e 3d
       -0.03151562 0.022868415 0.078162715 0.038794894
0003e0 61 87 d7 bb 5c c2 43 bd fd 5a 99 3d 0c ef 1a 3d
       -0.0065774177 -0.047792777 0.07488058 0.03782563
0003f0 a0 54 9a 3c 0e 1c 93 3d 6c d7 1a bb 4b ca a7 3d
       0.01883918 0.071830854 -0.0023626937 0.08192881

bias f4 [128]
000000 f4 e7 1e 3d 1c 18 86 3d 12 f1 26 bd cc 9c 91 3d
       0.038795426 0.06547567 -0.040757246 0.07109985
000010 ac db 5d bd cf dd 4f 3d 98 e4 bb bd 0d 7b 2e 3c
       -0.054164574 0.050748643 -0.0917446 0.010649455
000020 b2 b6 3d bd cf b9 8f 3d 9e 65 21 3d 01 8b 34 bd
       -0.04631681 0.07017862 0.03940355 -0.044077877
000030 47 c5 1f bd 15 76 5b bd 4e 67 c2 3c e0 dc 07 bd
       -0.039006498 -0.05357941 0.0237309 -0.033169627
000040 d9 a5 98 bc cb d5 7b bd fd 02 31 3a 57 e9 38 bd
       -0.01863377 -0.061483186 0.00067524594 -0.045144405
000050 30 85 5d 3c 7a cf 82 3d c7 e1 9c 3d 95 0e a5 bd
       0.013520524 0.06387229 0.07660251 -0.08059422
000060 c3 73 97 bc 1f 92 4e 3d a0 e4 e9 3c 31 93 8f 3d
       -0.018487817 0.05043232 0.0285514 0.070104964
000070 6c c2 3b bb 98 72 81 bd ce c0 1a bc 3c 02 ab 3d
       -0.002864982 -0.06320685 -0.009445382 0.083500355
000080 15 66 74 3d 81 25 90 bc a6 8d 90 bd 88 5c 7e 3d
       0.059667666 -0.017596008 -0.07058267 0.062099963
000090 e3 25 1d 3c 6f f1 68 3d 4b 73 d4 bd 42 dc 28 bd
       0.009591552 0.056870874 -0.10373553 -0.04122568
0000a0 da 3c 9d bd 04 5d f1 bc 87 87 89 3d c6 2a b2 3d
       -0.07677622 -0.029463299 0.06715303 0.08699565
0000b0 ae 7b bb bc 09 25 8e bd 19 25 3f bc 7e 33 04 3d
       -0.022886124 -0.06940658 -0.01166656 0.03227567
0000c0 39 99 ee bc fb 09 dc bc 2a 80 11 3c df c1 96 bc
       -0.029125797 -0.026860228 0.008880654 -0.018402992
0000d0 70 f6 4d 3d 3c 46 87 3d 55 49 d3 3b 83 6f 89 bd
       0.05028385 0.06605193 0.006447951 -0.06710722
0000e0 9b 87 57 bc 5e c6 6c 3d 31 1b 2c bd 18 81 e0 3a
       -0.013154889 0.057806365 -0.04201812 0.0017128317
0000f0 cc 83 af 3d 69 3d f5 3c cb ee 15 3d f2 15 89 bb
       0.0857006 0.02993651 0.036604684 -0.0041835243
000100 ea dd 16 bc 53 81 f7 bc 99 4f 8c 3d f3 f9 4b 3d
       -0.009208182 -0.030213034 0.068511195 0.049798917
000110 41 65 4c 3d ce 3a 40 3d a2 e7 c6 3d 5d 75 3c bd
       0.04990125 0.04693108 0.09712149 -0.046010364
000120 06 a7 77 3d d4 51 87 bb ca 6e cf 3c 40 24 9d 3d
       0.06046202 -0.0041296277 0.025321383 0.0767293
000130 8a 1c d2 bc c2 69 e7 b9 f9 38 d0 bb 38 fa 7b 3d
       -0.025648374 -0.0004413855 -0.006354448 0.061517924
000140 b8 4b 0e 3d 5a 5d 92 bd 52 e4 27 3d 27 01 9b bd
       0.03474018 -0.07146712 0.040989228 -0.07568579
000150 36 5a db bc e0 34 15 bd 47 4c 9b bc 52 ac 0c 3d
       -0.026776414 -0.03642738 -0.01895727 0.034344025
000160 4b 2d 94 bd de ac a2 bd 78 68 3d bd 48 fe d4 bb
       -0.072352014 -0.07943128 -0.046242207 -0.0065000392
000170 9f d2 80 bd 9f 6d 02 bd 5d 20 0e bc 42 0b 25 bd
       -0.06290173 -0.031842824 -0.008674708 -0.04029394
000180 93 0b a9 bd b6 6d 3f 3d 43 61 ac bd b3 7b 64 3d
       -0.08254161 0.046735488 -0.08416989 0.05578203
000190 d7 3f 8e 3d 5e 88 18 bd 57 9e b9 3c 53 13 77 3d
       0.0694577 -0.037239425 0.02265851 0.060321163
0001a0 d4 c2 ae 3c 3d 0c 40 bd 49 75 b9 3d 54 8d a9 3c
       0.021333136 -0.04688667 0.090555735 0.020697273
0001b0 9f 5d 30 bd a2 39 09 3c 9a 51 4b 3d 96 39 a0 bd
       -0.043058034 0.008375557 0.04963837 -0.07823484
0001c0 94 b8 ca 3d 90 cf 30 3d f6 74 a0 bd a0 a9 34 3d
       0.09898487 0.043166697 -0.078348085 0.04410708
0001d0 a5 a5 e3 bb 3f 2c 7a 3d 78 3b a6 bc d9 d1 35 bd
       -0.0069472366 0.061077353 -0.020292029 -0.04438958
0001e0 19 c0 31 bb cb cb f1 bc 26 cd 9c 3d a5 ba bb bd
       -0.0027122556 -0.029516121 0.076563165 -0.09166459
0001f0 10 dd 8f bc b3 66 5e bd 97 34 48 bd 60 52 ec ba
       -0.017561466 -0.05429716 -0.04887828 -0.0018029921

weight f4 [128, 128]
000000 65 9b 25 3d e3 c7 19 3d 69 c1 5e bd 67 7f 99 bd
       0.0404314 0.037544142 -0.05438367 -0.07495003
000010 6e 01 34 bd 1a 1f 4b 3d c2 39 3c 3d 80 af 4d 3d
       -0.043946676 0.049590208 0.04595352 0.050216198
000020 34 5b 71 bc c7 5b 7b bc 22 83 78 bd 54 70 27 bd
       -0.014731217 -0.015341706 -0.060671933 -0.04087861
000030 26 6a e8 bc be 4b 68 3c 4d ec 55 bd 86 7e 87 bd
       -0.028370928 0.014178215 -0.052227307 -0.06615929
000040 e5 aa 9b 3c 74 f7 74 bd 93 d4 44 bc f4 e4 83 bd
       0.019002387 -0.059806302 -0.012013572 -0.06440154
000050 80 b8 81 3c 39 0d 19 3d 2a 68 cf 3c 39 15 65 bd
       0.015835047 0.037366126 0.025318224 -0.055928443
000060 e9 ff da 3c 77 af ee 3c e2 00 81 3b 98 35 80 bd
       0.026733356 0.029136403 0.003936873 -0.06260222
000070 64 f4 ac bc f6 da 6c bd 9d 7f 5f bd 17 bf 05 bc
       -0.021112628 -0.057826005 -0.05456506 -0.008163235
000080 3c ff b7 3d 75 42 27 3d ae 86 c3 bb cc ff b6 3c
       0.08984229 0.040834863 -0.005966983 0.02233877
000090 6b 58 81 bc 56 e5 93 3d 55 69 b8 3c 71 de 1a 3d
       -0.015789231 0.07221477 0.022511164 0.037809793
0000a0 7d 5c 21 3d cc 76 42 3d ea 5b 9b 3d dd 04 69 bd
       0.039394844 0.047476575 0.075858906 -0.056889404
0000b0 bc 50 73 bd 14 9d 80 bc 92 c5 3c 3d 51 b1 80 bd
       -0.059403166 -0.0156999 0.046086855 -0.062838204
0000c0 5c 5a 9a bd 32 98 48 bd 8c 08 55 3d 0b f4 7e 3d
       -0.07536766 -0.04897327 0.052010104 0.062244456
0000d0 4e 1a 0e bc 90 22 1b bd aa dc 62 3d f0 a3 de bc
       -0.008673264 -0.03787476 0.055386223 -0.02717778
0000e0 45 c7 32 3d ec 02 a0 bd 12 4f c3 bd a4 dd 75 bd
       0.04364707 -0.07813057 -0.09536566 -0.060025826
0000f0 cb 14 16 3d 17 ef 44 3d 5d 99 87 3d bb 8a 8f bc
       0.036640923 0.048079576 0.066210486 -0.017522207
000100 1c d6 92 3d 26 4a 64 3c 18 ba 11 3d bc 64 d2 3d
       0.07169744 0.013933694 0.035577863 0.1027312
000110 28 f8 a0 3d 04 78 b5 3d 17 ee 75 3d b5 25 ca 3a
       0.07859832 0.08860782 0.060041513 0.0015422615
000120 67 08 44 bd 42 56 5b bd 6f 46 b4 bd 8e 1d cf bc
       -0.047859576 -0.05354906 -0.08802497 -0.025282647
000130 cc 48 7f 3c b8 5b be bc 80 36 1d 3d 00 63 bd bb
       0.015581321 -0.023237094 0.038382053 -0.005779624
000140 f4 1d 16 3d c0 f0 93 bb a0 be a1 bc 6c 29 1c bc
       0.03664966 -0.0045147836 -0.019744217 -0.00953136
000150 62 45 9b 3c 84 4c 18 3c de 9f e9 3c 1d 20 98 bd
       0.018953983 0.0092955865 0.028518613 -0.07428
000160 ee c5 92 3d 30 59 12 3d b6 96 64 3d ea 66 83 bd
       0.07166658 0.035729587 0.05580779 -0.06416114
000170 b4 77 85 bd cb e6 63 bd 14 93 28 bd d6 59 81 38
       -0.06516972 -0.055640023 -0.04115589 6.1679326e-05
000180 16 30 a7 bb 04 1a 81 3d 9a eb c6 bc 00 f7 a6 3d
       -0.005102168 0.0630379 -0.024282265 0.0815258
000190 ff 67 dd bc 1e 64 ab bd a0 df 78 bd d0 16 9a bd
       -0.027027128 -0.08368705 -0.06076014 -0.075238824
0001a0 4a a2 43 bc 60 28 a9 bd 50 1e 00 bd 0c 5b be 3d
       -0.011940548 -0.08259654 -0.03127891 0.092947096
0001b0 0f 1d 96 3b 71 76 17 3d 17 44 99 bd 8e de 5c 3d
       0.004581101 0.03697819 -0.0748369 0.053923182
0001c0 e6 c6 86 bd f2 ac e0 bc 2c 31 2b bc dd 83 6f bd
       -0.065809056 -0.027426217 -0.010448735 -0.058475364
0001d0 4a 01 0d bd 1a c8 48 bd ce 8f f7 3b 73 e8 ea 3c
       -0.034425057 -0.049018957 0.0075549847 0.028675294
0001e0 d4 ec dc bc 99 e2 b2 3c 9b 65 83 3d e8 38 d5 bc
       -0.026968397 0.021836566 0.06415864 -0.026028112
0001f0 7f 33 5a bc 60 4e 80 bd 3f 92 6d bb 93 db 96 bd
       -0.013317942 -0.06264949 -0.00362505 -0.07366099
000200 86 21 43 bd 46 d0 9f bd 34 fa 27 bd 22 83 a3 3c
       -0.047639392 -0.07803397 -0.041010097 0.01995999
000210 c0 2c 73 bd 82 37 c9 bc f0 0a 30 3c 38 cb aa bd
       -0.05936885 -0.024562601 0.010744795 -0.08339542
000220 66 51 9d bd 8c 69 f0 bb 1d 4a f3 bc 99 e4 f6 bc
       -0.07681541 -0.007336801 -0.029698426 -0.0301383
000230 31 6a 34 3c 90 ac 2c bd 6c 8f a5 3b 8d 00 56 3d
       0.011011646 -0.042156756 0.0050524976 0.05224662
000240 a0 7e a5 3d 46 db 48 3d 1d 16 82 bd 75 40 96 3d
       0.080807924 0.04903724 -0.06351874 0.07336513
000250 36 e0 4f 3d f1 64 33 bd 20 be 82 3d 78 a6 98 3d
       0.050750934 -0.043797437 0.0638392 0.074536264
000260 55 47 b9 bc 1a a4 07 3b 9c 62 1f 3d db ca 56 bd
       -0.022617022 0.0020697177 0.0389124 -0.05243955
000270 35 98 44 3d 9f e5 08 bd ae 77 83 bd 4b bd a6 bd
       0.04799672 -0.03342211 -0.064193115 -0.081415735
000280 ee b5 19 3d 9a 6e 6c bd 26 fe 86 bc da fb df 3d
       0.037527017 -0.057722665 -0.01647861 0.10936709
000290 52 7b 97 3d cb e6 3f 3d 95 04 c3 bd c0 55 16 bd
       0.07396568 0.04685096 -0.09522358 -0.03670287
0002a0 d1 30 68 3d d8 18 9c 3c 42 86 bc bb 10 5b 96 3d
       0.05668718 0.019054815 -0.0057533095 0.073415875
0002b0 a1 5b 88 bd 5a 68 f0 ba ec 7f 86 bd f5 22 db bd
       -0.06658102 -0.0018341646 -0.06567368 -0.10700027
0002c0 44 91 fa 3c fd c4 09 bd 6e b2 9d bd 60 2f 80 bc
       0.030586846 -0.03363513 -0.077000484 -0.01564759
0002d0 21 a6 fd 3c f2 fb aa 3c 5e eb 52 bd f5 8c 97 bd
       0.030963005 0.02087209 -0.051493995 -0.07399932
0002e0 1d c5 55 3d ac 26 85 3b 7a 7d 35 bd 53 73 0e bd
       0.052189935 0.004063448 -0.044309117 -0.03477795
0002f0 6f 33 89 3d 9c e5 01 bd fb ed fe bc 80 af 92 3d
       0.06699263 -0.031713113 -0.031119337 0.0716238
000300 45 99 9d 3d f6 07 13 3d d3 95 78 3d 63 8e 7a bc
       0.076952495 0.035896264 0.06068976 -0.015292737
000310 89 d6 a2 3d 82 ef 20 bd 0a 4d 87 ba 03 67 ae bd
       0.079510756 -0.039290912 -0.0010322642 -0.08515742
000320 77 ec c4 bd 44 32 82 3d 5c 88 48 bd 16 7d 14 3d
       -0.096154146 0.06357244 -0.048958167 0.036252104
000330 3a d6 79 bd 09 36 4b 3d 86 e2 97 3d 82 77 38 3a
       -0.060995318 0.04961208 0.07416253 0.0007036851
000340 86 e9 a2 3b ce 12 00 3c e3 98 a0 3c 7e ec 8a bd
       0.004971686 0.007816983 0.019604152 -0.067833886
000350 16 e6 5a 3d 2e 53 5f 3d f2 ba 42 3d 3d e5 42 3c
       0.053442083 0.054522686 0.047541566 0.011895475
000360 c9 dd 5e 3d a2 c6 99 3d 1e 06 ac bc 15 fe 4a bd
       0.05441073 0.07508589 -0.02099901 -0.049558718
000370 f8 17 32 bd 34 56 ae bd ef 1c 29 bd f4 36 9e 3d
       -0.04347989 -0.08512536 -0.04128736 0.07725325
000380 f9 7a 5d bd 63 37 82 3d b0 3f e5 bc 9c 46 91 3d
       -0.054072354 0.063582204 -0.02798447 0.07093546
000390 4a 53 53 3d a0 a1 54 bd 04 64 c2 bc d9 af f5 bd
       0.051593103 -0.05191195 -0.023729332 -0.11996431
0003a0 ed 71 28 bb 34 d5 88 bc d4 c6 9d 3d 67 1b 8f 3d
       -0.002570267 -0.016703226 0.07703939 0.069876485
0003b0 7c 30 35 3d ab 1d 6b bd 72 f5 26 ba a1 3a 7e bd
       0.04423569 -0.05740134 -0.00063689717 -0.06206763
0003c0 ad 35 45 3d 19 60 27 bd eb 0b 21 3d cd 87 2e bd
       0.048146892 -0.04086313 0.039318006 -0.04260998
0003d0 c8 25 40 bd 54 9b bf 3c 37 3a 92 bd 9d e4 91 3d
       -0.04691103 0.023389496 -0.0714001 0.07123683
0003e0 24 48 7e 3d 03 a8 96 bd ba fd 3b bb 58 3d d7 3c
       0.062080517 -0.073562644 -0.0028685168 0.026274368
0003f0 2c d4 5d 3d 20 a8 92 bd 1b 78 81 3d 0f 6a bd bd
       0.05415742 -0.071609735 0.063217364 -0.09248745

bias f4 [128]
000000 7e 34 dc bc 58 d8 64 3d 41 44 8f 3d 30 d9 16 bd
       -0.026880499 0.055870384 0.0699544 -0.03682822
000010 cb 29 5b 3d d3 3d 96 3d 34 61 c8 bd 8d ee 85 3b
       0.053506654 0.07336011 -0.09784165 0.0040872754
000020 7c f1 88 3d 69 6e 7f 3d 9d 48 43 3d 86 b1 8d bc
       0.066866845 0.062361155 0.04767667 -0.017296564
000030 e0 4f 84 3d 04 64 bb 3c 67 e2 3d bd c4 1a 0b 3c
       0.064605474 0.02287484 -0.046358492 0.008490268
000040 96 77 ad 3c 0f 5c 79 3d 2f 30 e6 bc c3 ce ab 3c
       0.021175187 0.06087881 -0.028099148 0.020972615
000050 f8 3f fd 3c 19 de 5c 3d 22 57 20 bd 06 4a c3 bc
       0.030914292 0.053922746 -0.039145596 -0.023839008
000060 c5 0c 74 3d 84 ea 68 bd 5e 29 ed 3d 9b 9d d0 3d
       0.05958249 -0.056864277 0.11580156 0.10186311
000070 80 e1 e2 3b a3 3e 11 bd 96 31 40 3d 4b c3 e4 3d
       0.0069238544 -0.035460126 0.04692229 0.11170062
000080 ed c9 a4 3d e4 97 7f bd d9 c1 df 3d cc ec 17 bc
       0.08046327 -0.062400714 0.109256454 -0.009272765
000090 bd b0 03 3d 70 2f 89 3d c6 b4 6c bd 99 e9 7d 3d
       0.032150973 0.06698501 -0.057789586 0.061990354
0000a0 28 61 c9 3d b4 bc b4 3d 43 c2 5c bd 51 b4 cc 3d
       0.09832984 0.08825055 -0.0538962 0.0999533
0000b0 8e d1 c0 bd b1 87 84 bc 34 6d 2c bd 3c 4c b1 3d
       -0.094149694 -0.016177984 -0.04209633 0.08657119
0000c0 43 64 c4 bc 1d 49 ce bb a1 98 8d bd b6 33 f6 3c
       -0.02397359 -0.006295337 -0.06913877 0.030053955
0000d0 3f c8 55 3d 27 03 a8 bd 45 83 08 3d e1 52 2d bd
       0.052192923 -0.08203726 0.033328313 -0.042315368
0000e0 c8 11 dd 3d 68 5f 41 bd 95 ea 70 bd 88 ca 06 bd
       0.10794407 -0.047210127 -0.058817465 -0.032907993
0000f0 8c 1c 1b 3d 56 69 30 3d 38 e1 92 3d 3a ca 61 bd
       0.03786902 0.043069206 0.07171863 -0.0551245
000100 c3 ab f6 ba 44 de 69 bb 5e 2e e3 3d 3e 13 db bc
       -0.00188195 -0.003568546 0.11092828 -0.026742574
000110 7d 70 ec 3b 11 6a c6 3d 94 26 21 bd 82 bc cd 3d
       0.007215558 0.09688199 -0.03934343 0.10045721
000120 88 b5 64 bc d1 e3 45 bc 31 4d 7a 3d d3 85 e4 bc
       -0.013959296 -0.012078241 0.06110877 -0.027895844
000130 20 6f 48 3c 0a 0e 20 bc 4a d9 43 3d e0 e5 2d 3d
       0.0122335255 -0.009768972 0.047814645 0.042455554
000140 64 39 84 bc fb 00 74 bd 67 98 a9 bc 85 15 62 3d
       -0.016140647 -0.059571248 -0.020702554 0.055196304
000150 c2 39 1a 3c 61 a2 ae 3d e1 fb de bc f6 9d f5 3c
       0.009413185 0.08527065 -0.027219715 0.029982548
000160 43 67 15 bc 21 89 8d ba 32 25 36 3d 77 92 aa bc
       -0.009118858 -0.0010798314 0.044469066 -0.020821793
000170 75 94 95 bc 2c 4d 31 3c 0e 2b b2 3d 4a 47 92 bd
       -0.018259266 0.010821622 0.08699618 -0.071425036
000180 3b e5 a4 bd 1e 17 e7 3a 18 46 84 bd d9 7d 0b bd
       -0.08051535 0.0017630791 -0.06458682 -0.034055565
000190 90 15 b5 3d 55 9c 87 bb 50 74 23 3d 79 a0 6d 3d
       0.08842003 -0.0041385093 0.039905846 0.058014367
0001a0 b5 3a b9 3d 87 a9 74 bd bb cc 48 bc a0 5d 73 3d
       0.090444006 -0.059731986 -0.012255843 0.05941546
0001b0 12 1d b0 bd b1 48 b5 3d 6d 25 22 bd e1 1d 64 bc
       -0.08599295 0.088517554 -0.039586473 -0.013923139
0001c0 be ed 92 3d b4 7b 89 bd e2 0b ed 3d af d6 aa bb
       0.07174252 -0.067130476 0.11574532 -0.0052135806
0001d0 24 a6 f3 bc 58 1b ba 3d bf bf a2 3c 70 e7 75 bd
       -0.029742308 0.09087247 0.019866822 -0.06003517
0001e0 44 b4 da bc e0 19 a1 3c 0c e4 50 3d b8 b8 89 bb
       -0.026697285 0.019665658 0.050998732 -0.0042029284
0001f0 ff fd 49 3d 1a 8a 5f 3d 89 5b 82 3c 12 6b 40 bd
       0.049314495 0.054575063 0.015912788 -0.04697711

weight f4 [1, 128]
000000 e2 08 7e bd 86 ae ba bc 7d 7a 94 bd a1 b7 74 bd
       -0.06202019 -0.022788297 -0.07249925 -0.059745435
000010 c3 bc c1 bd 2a 93 53 3d a0 88 2e 3d 0b 7f 58 3d
       -0.094598316 0.05165402 0.042610765 0.052855533
000020 5c 5b b8 bd 28 08 94 bd 34 c4 61 3d 8a 1e 0a bd
       -0.090018004 -0.07228118 0.055118755 -0.03372053
000030 8d 84 f9 bc 8a e3 d6 3d 68 4e 89 3b eb 1c 55 bd
       -0.030458713 0.104926184 0.004190255 -0.05202953
000040 b9 cf f1 3b e2 48 c6 3d 26 22 70 bd fb 30 e2 3d
       0.007379499 0.0968187 -0.058626316 0.110444985
000050 da 52 be 3c 48 25 9c 3d 54 20 b9 bd 1f e2 55 3d
       0.023232866 0.07624298 -0.09039369 0.0522176
000060 57 a6 88 bc 8f e2 88 bc a8 2f cb 3d f2 69 af 3c
       -0.01668088 -0.016709594 0.09921199 0.021412823
000070 ee 4a 8d 3d 43 95 fd ba f6 99 96 bd 01 d3 d7 3c
       0.06899057 -0.0019346852 -0.073535845 0.026345732
000080 47 52 c5 bd de b6 17 bd 7e 5d bd 3d 4d af ae 3d
       -0.09634834 -0.03703963 0.09246348 0.0852953
000090 79 04 a7 bd 78 e2 9a bd 72 db 91 bd f0 9a 5b bd
       -0.0815515 -0.07562727 -0.07121934 -0.053614557
0000a0 a1 20 61 3d d8 fc bd 3d 96 8f a4 bd 48 40 4a 3d
       0.054962758 0.09276742 -0.08035199 0.04937771
0000b0 77 c1 a2 bd 95 dd 42 3d 13 61 3c bd 3c 2c d9 3c
       -0.07947057 0.0475746 -0.045991015 0.02651035
0000c0 af 97 d5 3d a3 db d9 3d e8 90 78 bd ab 2f 53 3d
       0.10429322 0.106375955 -0.06068507 0.05155913
0000d0 76 c3 9a 3d e9 cf 29 b9 de f4 e2 bc 65 fe c1 bd
       0.075568125 -0.00016194549 -0.027704652 -0.0947235
0000e0 b1 c7 c7 3d e3 a6 49 3c 33 e9 e9 bc 1d 41 6a bd
       0.09754885 0.012307855 -0.02855358 -0.057191003
0000f0 20 56 97 bd 9a bd 26 bb f7 49 05 3d bc 8f 20 bd
       -0.07389474 -0.0025442601 0.03254124 -0.039199576
000100 93 cd 05 3e 96 88 10 3d 4d 72 43 3d 1f 6a cb bd
       0.13066702 0.03528651 0.047716428 -0.0993235
000110 6f 97 9a bc e9 39 c1 3d 8c f4 b9 3c 02 21 3b 3d
       -0.018871037 0.094348736 0.022699617 0.045685776
000120 d7 34 d8 bc 73 50 37 3d 6f df f3 3c c3 40 35 bd
       -0.026392384 0.044754457 0.029769627 -0.044251215
000130 0c 87 b2 3c fe f3 4a 3d 53 6c 2c 3d d2 76 70 3d
       0.021792911 0.049549095 0.042095494 0.058707066
000140 1a 94 02 3d 38 07 8c bd 0d 91 93 bc fa fe c1 3d
       0.031879522 -0.06837314 -0.018013502 0.09472461
000150 e5 24 8d bd d2 6b e2 3c b1 e7 9a 3c 6e 68 93 bd
       -0.06891803 0.027639303 0.018909307 -0.07197653
000160 25 d4 29 39 f4 b6 a1 bc a6 04 e1 3d e9 97 de 3d
       0.00016196126 -0.01974056 0.10987215 0.10868818
000170 fe 18 4c bd 73 74 b6 bd 8f b1 65 bd b9 76 f1 bb
       -0.049828522 -0.0890893 -0.056077536 -0.007368889
000180 ed 43 51 bb 22 87 7b bd 84 f8 7e bd 3a b5 76 3d
       -0.0031931356 -0.06140817 -0.06224872 0.060231425
000190 d1 6d 9a bd 64 2a 08 3e 0d 28 65 3d 6e fa 44 bc
       -0.07540477 0.1329742 0.0559464 -0.012022598
0001a0 9e 48 e4 3d e8 c7 bc bd a8 d6 4e bc ca f1 e7 3c
       0.11146663 -0.092178166 -0.01262442 0.028313536
0001b0 30 2c 81 bd 31 d8 f3 3d 6a 71 7b bd a2 bf b9 3d
       -0.06307256 0.119064696 -0.061387457 0.09069754
0001c0 8c 5a 92 bd 0e 28 77 bd 2d 3b 5e 3d 0c 97 2a 3c
       -0.07146177 -0.060340934 0.054255653 0.010411989
0001d0 1b 7c 0a bd 84 8d b6 bd 62 ad 3d bd 1d 93 dd bc
       -0.033809762 -0.08913711 -0.04630793 -0.027047688
0001e0 17 f9 d8 3d 92 92 db 3d d1 52 a1 bc 37 28 c8 3d
       0.10594385 0.107213154 -0.01969281 0.097732954
0001f0 19 7a 9b bd ce 97 f2 bc 7c 96 92 bc 74 4b 11 bb
       -0.07591648 -0.029613402 -0.017894022 -0.0022170218
