Dry fermentation prediction and optimization system/predictor_percolate_tank/Predictor_Percolate Tank Biogas Production/models/NeuralNetTorch_BAG_L1/S2F5/net.params (torch, 208391 bytes, 9 tensors)

weight f4 [128, 7]
0	0xbce07259	-0.027398275
1	0x3e53cade	0.20682856
2	0xbe9c6e38	-0.3055284
3	0xbe8c5dde	-0.27415365
4	0xbe1fe9a8	-0.15616477
5	0x3dbdaec5	0.0926185
6	0xbb3431a0	-0.00274954
7	0x3ea187f8	0.31549048
8	0xbd18c801	-0.037300114
9	0x3d97b3db	0.074073516
10	0xbdf76406	-0.12079625
11	0xbdd60ff1	-0.10452259
12	0xbeb73959	-0.3578594
13	0xbe739c9d	-0.23790212
14	0xbe35a677	-0.17739283
15	0xbc27532a	-0.010212699
16	0x3e22564f	0.15853237
17	0x3e6369a1	0.22208263
18	0xbe879d49	-0.26487187
19	0xbe25ec9d	-0.16203542
20	0x3e044981	0.12918665
21	0x3ea5e8d9	0.3240421
22	0xbdad4f71	-0.08462418
23	0x3e93e57a	0.28886014
24	0xbd71c232	-0.05902309
25	0x3cd5425a	0.026032615
26	0x3eacfebd	0.337881
27	0xbeb94f53	-0.36193332
28	0xbe6db027	-0.23211728
29	0xbe0a4759	-0.1350378
30	0xbe0ca832	-0.13736036
31	0x3eaea5f2	0.3411098
32	0xbe72cc04	-0.23710638
33	0xbe2d3bc0	-0.16917324
34	0xbe8c331c	-0.27382743
35	0xbec47fc1	-0.38378718
36	0xbe8678a8	-0.26263928
37	0x3e99931c	0.29995048
38	0x3e118d03	0.14213948
39	0x3e1a84b5	0.15089686
40	0x3b61555d	0.0034383156
41	0xbe2d1af4	-0.16904813
42	0x3db0d6e1	0.08634735
43	0xbeb2f1c1	-0.3495007
44	0xbe9318db	-0.287299
45	0xbe5ac84d	-0.21365471
46	0x3e796f92	0.24358967
47	0x3e5a37d1	0.21310355
48	0xbe22a399	-0.1588272
49	0xbc4603c3	-0.012085858
50	0x3e89022e	0.26759475
51	0x3ec38114	0.38184416
52	0x3e2807ee	0.16409275
53	0x3d4275c4	0.04747559
54	0x3e7cead8	0.24698961
55	0xbe64dced	-0.22349901
56	0x3dc7fa99	0.097645946
57	0xbe9e3941	-0.30903056
58	0xbe8dc0e3	-0.27686223
59	0xbe5c7c48	-0.21531785
60	0x3e248bb6	0.1606892
61	0x3e26f63d	0.1630487
62	0xbe594deb	-0.2122113
63	0x3dd70676	0.10499279
64	0x3e55ae30	0.20867229
65	0xbd3bbd10	-0.0458346
66	0x3b82452f	0.0039755325
67	0x3da720c5	0.08160547
68	0x3e6f0cc9	0.23344721
69	0x3eba57f1	0.3639522
70	0xbe88844d	-0.26663437
71	0xbe0122d7	-0.12610947
72	0x3e12356f	0.14278196
73	0x3ea5d2c8	0.32387376
74	0x3eb05548	0.34440064
75	0x3ea48808	0.32135034
76	0x3d983984	0.07432845
77	0xbea8f0d1	-0.32996228
78	0x3b836bd4	0.004010657
79	0xbe817bf2	-0.25289875
80	0xbebead5f	-0.37241647
81	0x3ea3ba8c	0.3197826
82	0x3e960b8e	0.2930569
83	0xbebd38af	-0.3695731
84	0x3da4a3e7	0.080390744
85	0xbd9f7d1b	-0.07787534
86	0xbd932901	-0.07185555
87	0xbe4f81b5	-0.20264323
88	0x3e02b70d	0.12765141
89	0xbe60b0d8	-0.2194246
90	0x3e05f7c8	0.13082802
91	0x3e3bcb30	0.18339229
92	0x3e8bfb63	0.2734023
93	0x3e1e3d72	0.15453127
94	0xbebd3e8a	-0.36961776
95	0xbe88ede6	-0.26744002
96	0x3e4e5a2c	0.20151585
97	0x3dcab359	0.09897489
98	0xbe9eedae	-0.3104071
99	0xbe6c1c39	-0.23057641
100	0x3eb92926	0.36164206
101	0x3e848ee2	0.2589026
102	0xbe2b1dd4	-0.16710597
103	0xbdc1dd94	-0.09466091
104	0xbeb9ab4c	-0.36263502
105	0xbd007bdf	-0.031368133
106	0xbe95daed	-0.2926859
107	0xbe88ff03	-0.26757059
108	0xbc6ec4ed	-0.014573318
109	0x3d5e9bd7	0.05434784
110	0xbe2e9372	-0.17048433
111	0x3e628267	0.22120057
112	0xbe5a26cd	-0.21303864
113	0x3eb2c05d	0.34912387
114	0x3e878ab1	0.26473
115	0xbea06ec3	-0.31334504
116	0xbdbd3de1	-0.09240318
117	0x3ca84a16	0.02054314
118	0x3d41b6e6	0.047293566
119	0x3dc7aa54	0.097492844
120	0x3dffbca0	0.12487149
121	0x3c062099	0.008186483
122	0xbe575fc1	-0.21032621
123	0x3e3f2d55	0.18669637
124	0xbeb3d009	-0.35119656
125	0xbe5c552f	-0.2151687
126	0xbde0e751	-0.1098162
127	0xbe62b8d0	-0.22140813
128	0xbe115923	-0.14194159
129	0xbea84f92	-0.32873207
130	0xbdea02bb	-0.11426302
131	0x3d93cfe7	0.072173886
132	0xbe612417	-0.21986423
133	0xbc9577c2	-0.018245582
134	0x3e87152c	0.2638334
135	0xbcffea04	-0.031239517
136	0x3cd57fdb	0.026061943
137	0xbcbf04ce	-0.02331772
138	0x3da4eaf5	0.08052627
139	0x3e6ca1fd	0.23108669
140	0x3eb43f66	0.3520462
141	0x3e69bd7b	0.22826187
142	0x3ec402c5	0.38283363
143	0xbd15527a	-0.03645561
144	0xbeb84cd8	-0.35996127
145	0xbe33bbb0	-0.17552066
146	0x3e81e1bc	0.25367534
147	0xbce2ebb0	-0.027700275
148	0xbe609d63	-0.21935038
149	0xbe979052	-0.29602295
150	0xbeb91869	-0.36151436
151	0xbeb26a95	-0.3484694
152	0xbdafcd49	-0.08584077
153	0x3e58c40f	0.2116854
154	0x3e575f47	0.21032439
155	0xbec9228b	-0.39284167
156	0x3e5395cb	0.2066261
157	0xbea9253d	-0.33036223
158	0xbdcc25c0	-0.09968138
159	0xbe01e05a	-0.1268324
160	0xbdb3c3f2	-0.08777608
161	0xbd7e95cf	-0.062154587
162	0xbebe3ba2	-0.3715487
163	0xbeacd717	-0.3375785
164	0xbd828a8d	-0.06374083
165	0x3c8692a1	0.01642734
166	0xbe27214b	-0.16321294
167	0x3def71f8	0.1169166
168	0xbea100cb	-0.31445917
169	0xbb681b23	-0.0035416565
170	0x3eab9b40	0.33516884
171	0xbe19165b	-0.14949934
172	0x3eb80e59	0.35948446
173	0x3e059fc7	0.13049231
174	0xbeb374be	-0.35050005
175	0x3e7b6304	0.2454949
176	0xbd9dcc3c	-0.0770497
177	0xbe43c307	-0.19117366
178	0x3e887d72	0.26658207
179	0xbeae79a2	-0.34077173
180	0x3d811684	0.06303123
181	0xbdae4112	-0.08508505
182	0x3e889bf3	0.2668148
183	0x3ddb7035	0.10714761
184	0x3e3678df	0.17819546
185	0x3e0e8558	0.13918054
186	0xbdbbc796	-0.09168927
187	0xbd9b66d5	-0.07587973
188	0xbe9fa31a	-0.31179124
189	0x3e51ce52	0.20488861
190	0x3e9cc9de	0.30622762
191	0x3e89c768	0.26909947
192	0xbe888a7a	-0.2666815
193	0x3b9e00b0	0.0048218593
194	0xbe8010a8	-0.25012708
195	0xbe5a55db	-0.21321814
196	0xbe6db93e	-0.23215196
197	0x3e14d6d6	0.14535078
198	0xbe55fbc6	-0.20896825
199	0x3bff2c58	0.0077872686
200	0x3cc700de	0.024292406
201	0x3e7d3a2a	0.24729219
202	0xbe965638	-0.29362655
203	0xbe8550aa	-0.26038104
204	0xbe855aab	-0.26045737
205	0x3e6d1d30	0.23155665
206	0xbe2f88d9	-0.17142047
207	0x3ea04757	0.31304428
208	0x3e210da0	0.15727854
209	0x3d117f06	0.03552153
210	0x3c861be8	0.016370729
211	0xbd8acd19	-0.067774005
212	0x3d54bcf7	0.051938023
213	0xbda4d172	-0.08047761
214	0x3a3f2624	0.0007291755
215	0x3d3859da	0.045007564
216	0xbe9a2181	-0.30103686
217	0xbe3d53b0	-0.18488955
218	0x3ea4cfe4	0.32189858
219	0xbeae13d2	-0.33999497
220	0xbc4067b6	-0.011743477
221	0x3ec821b2	0.39088207
222	0x3dc7f56d	0.09763608
223	0x3d1b5e9a	0.037932016
224	0xbeb7785d	-0.35834017
225	0x3e37805b	0.17920057
226	0xbe741455	-0.23835881
227	0xbdc3ba31	-0.095569976
228	0xbe16d555	-0.14729817
229	0xbd83092f	-0.06398236
230	0x3bca70d4	0.006178001
231	0x3eaa95ae	0.33317322
232	0x3c8c601a	0.017135669
233	0x3eabd2bc	0.33559215
234	0x3e689853	0.22714357
235	0xbe8b8e9a	-0.27257234
236	0x3e250398	0.16114652
237	0xbe8a4d98	-0.27012324
238	0xbe291d92	-0.16515186
239	0x3d9b69b6	0.07588522
240	0x3de92813	0.11384597
241	0x3e8eef53	0.27916965
242	0xbe02ca01	-0.12772371
243	0xbba6eac4	-0.005093904
244	0x3e41eccc	0.18937987
245	0xbec33de4	-0.38133156
246	0x3e87d7f3	0.26531944
247	0xbe97e061	-0.29663375
248	0xbb39e3e3	-0.002836459
249	0xbd97e9da	-0.074176505
250	0xbe5a1250	-0.21296048
251	0x3d6a63f5	0.057224233
252	0x3eabee08	0.3358004
253	0xbdeef1e4	-0.11667231
254	0xbe73996b	-0.23788993
255	0xbe1c5331	-0.1526611

bias f4 [128]
0	0xbead3fcb	-0.33837733
1	0xbc090dca	-0.008365104
2	0x3e058513	0.13039045
3	0x3e157747	0.14596282
4	0x3ea81825	0.3283092
5	0x3ec3afb5	0.3821999
6	0x3eb597aa	0.35467273
7	0x3e9062c3	0.2820035
8	0x3e8e6ca6	0.27817267
9	0xbd58ccf4	-0.052929834
10	0xbe93e6e5	-0.28887096
11	0xbdf91e07	-0.121639304
12	0xbc98be37	-0.018645389
13	0xbe44de26	-0.19225368
14	0x3e5149e9	0.2043835
15	0x3dfafd94	0.122553974
16	0x3d8573df	0.06516241
17	0x3db72280	0.08942127
18	0x3eb82231	0.35963586
19	0x3e04fd19	0.12987174
20	0xbea5ef6f	-0.32409236
21	0xbe853d61	-0.2602339
22	0x3e35ffcf	0.17773364
23	0x3d767b85	0.06017639
24	0x3e423def	0.18968938
25	0xbeb8da80	-0.36104202
26	0xbeb581af	-0.35450503
27	0x3e614f90	0.22003007
28	0x3e6a17e6	0.22860679
29	0xbea190ff	-0.31555936
30	0x3e25e25f	0.16199635
31	0xbe8e8101	-0.27832797
32	0x3e8b7d31	0.2724395
33	0x3e200da1	0.15630199
34	0x3ec49c74	0.38400614
35	0xbeba3e10	-0.36375475
36	0xbeb8f3ad	-0.3612341
37	0x3e717b21	0.23582126
38	0x3ea96691	0.33086064
39	0x3e81626a	0.25270396
40	0x3e895814	0.2682501
41	0xbea7c076	-0.32764024
42	0x3e910655	0.28325143
43	0xbebb1823	-0.36541852
44	0x3dd8a237	0.10577815
45	0xbe72001e	-0.23632857
46	0xbe0e26cb	-0.13881986
47	0x3d7b6be0	0.061382174
48	0xbe114a4d	-0.141885
49	0xbd95dc45	-0.07317404
50	0xbebdf7fd	-0.37103263
51	0xbea9262c	-0.33036935
52	0x3e008d83	0.12553982
53	0xbe11902b	-0.14215152
54	0xbe59148d	-0.21199246
55	0xbe17d9b1	-0.14829136
56	0xbe905a32	-0.28193814
57	0xbe99068b	-0.29887804
58	0x3e7f4a8b	0.2493078
59	0x3e4f5509	0.20247282
60	0x3d5abce7	0.053402808
61	0xbe4ff523	-0.20308356
62	0x3e0653ae	0.13117859
63	0x3cca47ff	0.024692534
64	0xbe8a33b4	-0.2699257
65	0x3db51b4a	0.088430956
66	0x3eb9ae04	0.36265576
67	0xbeb4fb0d	-0.35347787
68	0xbec708e8	-0.38873982
69	0x3d7f65de	0.062353007
70	0x3e97918d	0.29603234
71	0xbe6e7efc	-0.23290628
72	0x3dc0fc62	0.09423138
73	0x3e94db74	0.2907368
74	0x3dcb1659	0.09916372
75	0x3da23c81	0.079216965
76	0x3ebf52b0	0.37367773
77	0x3e89f8c8	0.26947618
78	0xbe50eca6	-0.20402774
79	0x3c2ef3d6	0.010678252
80	0x3e3bb8e5	0.1833225
81	0x3ea64dff	0.3248138
82	0xbeafb8f6	-0.34320801
83	0x3e5af51a	0.21382561
84	0xbd96b92c	-0.073595375
85	0xbebd4497	-0.36966392
86	0x3dabcfa6	0.08389215
87	0xbe3522eb	-0.17689101
88	0x3d810173	0.062991045
89	0xbe6fd9bf	-0.23422907
90	0xbe96623c	-0.29371822
91	0xbcfb182f	-0.03065118
92	0xbe007c48	-0.1254741
93	0x3e5a9240	0.21344852
94	0x3d2d6d71	0.0423407
95	0x3ea937ef	0.33050486
96	0x3d944f8a	0.07241733
97	0xbe04813a	-0.12939921
98	0x3e7c98e3	0.24667697
99	0x3d429d5e	0.04751336
100	0x3d5c7267	0.05382004
101	0xbdd8ed10	-0.10592091
102	0x3cfc22c9	0.030778306
103	0xbdc6ad26	-0.09700994
104	0xbccfe7e8	-0.025379136
105	0xbe9a614b	-0.30152354
106	0x3c7d2487	0.015450603
107	0xbe92766c	-0.28605974
108	0xbdb593ec	-0.088661045
109	0x3e7d6a81	0.2474766
110	0xbe86ccf9	-0.26328257
111	0xbe6f6cd8	-0.23381364
112	0xbddb5645	-0.10709814
113	0xbdc0a005	-0.09405521
114	0x3d857d6f	0.06518065
115	0x3d94b9b8	0.072619855
116	0x3e4fe70e	0.20302984
117	0xbe87efed	-0.26550236
118	0xbcb45fa3	-0.02201826
119	0x3e43ecb9	0.19133271
120	0x3ea7ed6e	0.32798332
121	0xbc9fbebf	-0.019500135
122	0xbe6eeeae	-0.23333237
123	0x3e00c381	0.12574579
124	0x3e483019	0.19549598
125	0xbe5f7346	-0.21821317
126	0xbe58d363	-0.21174388
127	0x3e17c501	0.14821245

weight f4 [128, 128]
0	0x3aa3f769	0.0012509647
1	0xbda3bda2	-0.07995154
2	0xbd2f02ee	-0.042727403
3	0x3d209efc	0.03921412
4	0xbc9528da	-0.018207956
5	0x3d857ed6	0.06518333
6	0x3daee4d0	0.08539736
7	0x3c83218d	0.01600721
8	0x3c14d63c	0.009084281
9	0xbce4cb28	-0.027928904
10	0xba98ab7e	-0.0011647788
11	0x3c3607c8	0.011110254
12	0xbd743bd8	-0.059627384
13	0xbd0c0bda	-0.03419099
14	0xbd9045da	-0.07044573
15	0x3d861c28	0.06548339
16	0xbd83f345	-0.06442884
17	0x3daaa9e4	0.08333185
18	0xbac4aff6	-0.0015006054
19	0xbd20b9e1	-0.039239768
20	0x3d1e22ba	0.038607337
21	0x3ccbf272	0.02489588
22	0x3d9c1123	0.07620456
23	0x3d3d01b2	0.046144195
24	0xbda7b9a5	-0.08189706
25	0x3daf777b	0.08567711
26	0xbbea4508	-0.0071493424
27	0xbd0387f9	-0.032112096
28	0x3d7aca26	0.06122794
29	0x3d6982ad	0.057009388
30	0xbd820e2b	-0.063503586
31	0x3b1a6d2b	0.0023563604
32	0x3d90d5d4	0.070720345
33	0x3d20856e	0.03918975
34	0x3da4c6f7	0.08045762
35	0xbd071d56	-0.03298696
36	0xbcc1faff	-0.023679255
37	0x3da2827a	0.07935043
38	0x3d30be5f	0.043150302
39	0x3dd8861d	0.10572455
40	0xbcdd6764	-0.02702684
41	0xbd3a5b62	-0.045497306
42	0x3adabeaa	0.0016688902
43	0xbd981e0e	-0.074276075
44	0x3d5f236e	0.054477148
45	0x3d902026	0.07037382
46	0x3d0621c2	0.032747038
47	0xbaa96da3	-0.0012926351
48	0x3d7dce34	0.06196423
49	0xbd52b125	-0.05143847
50	0x3db8a21c	0.09015295
51	0xbdafcdd3	-0.0858418
52	0xbda661b9	-0.08124108
53	0x3af9517e	0.0019021479
54	0x3d8fb1b0	0.07016313
55	0x3c998fb7	0.018745286
56	0x3d0630ea	0.03276149
57	0xbd7ac4b4	-0.061222747
58	0x3d638ded	0.055555273
59	0x3bc6a58f	0.0060622166
60	0x3d2089ea	0.039194025
61	0x3d307e5a	0.04308925
62	0x3d012fe3	0.03153981
63	0xbc994936	-0.018711668
64	0xbacf331a	-0.0015808076
65	0xbd2ee563	-0.04269923
66	0xbc9ae226	-0.018906664
67	0x3d7f82f4	0.062380746
68	0xbcdb1970	-0.026745528
69	0x3d855306	0.06509976
70	0xbcb59bf7	-0.022169096
71	0xbce987ab	-0.028507074
72	0x3c4bd4bf	0.012440859
73	0xbd78df25	-0.060759682
74	0x3bf5de19	0.0075032827
75	0xbcb255ad	-0.021769369
76	0xbae155b5	-0.001719168
77	0xba58e3dd	-0.00082737004
78	0x3d8d16cc	0.06889114
79	0x3d647f15	0.055785257
80	0xbd7f1ba3	-0.062282216
81	0x3d5e2900	0.05423832
82	0xbda877fd	-0.08226011
83	0xbd9b9fea	-0.075988606
84	0x3d0fa425	0.03506865
85	0x3ba2271c	0.00494851
86	0xbd22ac3f	-0.039715048
87	0xbdad16a9	-0.08451588
88	0xbd01b4cc	-0.031666562
89	0x3cd23970	0.025662154
90	0xbd8d1500	-0.06888771
91	0xbdcae1bc	-0.09906337
92	0x3ce1e11e	0.027573165
93	0xbd411030	-0.04713458
94	0xbd9a9ef1	-0.07549847
95	0xbcb3812e	-0.021912184
96	0xbaa59b3c	-0.0012634764
97	0xbdb991ad	-0.090609886
98	0xbd4e1a5b	-0.050318103
99	0x3d0a8d02	0.03382588
100	0xbd98a7dd	-0.074538924
101	0xbbedaba0	-0.0072531253
102	0xbd3aa0e5	-0.045563597
103	0xbd8e331e	-0.069433436
104	0x3d524a67	0.051340487
105	0xbd80f609	-0.062969275
106	0xbd53d9c6	-0.051721357
107	0x3d8ac9a3	0.067767404
108	0x3c4cb808	0.012495048
109	0x3dc55890	0.096360326
110	0xbc40ba01	-0.011763097
111	0xbd4bcac1	-0.049753908
112	0xbb5a8fb2	-0.003334981
113	0x3a2971e6	0.00064638106
114	0x3d8ea6c5	0.069654025
115	0xbd8b5c44	-0.06804708
116	0x38cc9174	9.754571e-05
117	0x3d973e92	0.07384981
118	0xbd0dd9bd	-0.03463148
119	0xbd50dcc1	-0.050991777
120	0x3d71fa7b	0.059076767
121	0xbd8e3637	-0.069439344
122	0x3cd3a92e	0.025837507
123	0xbd5477c9	-0.05187205
124	0x3d4b280b	0.049598735
125	0xbd943329	-0.072363205
126	0x3d88abf8	0.066734254
127	0xbd8eabb1	-0.06966341
128	0xbd6ffec8	-0.058592588
129	0x3815e8b2	3.5741083e-05
130	0x3d8d0aa5	0.06886796
131	0xbda5f1a6	-0.081027314
132	0xbd2f5a85	-0.042810936
133	0x3d972e38	0.073818624
134	0xbcc8c978	-0.02451013
135	0x3d07fa98	0.03319797
136	0xbdc25d1a	-0.09490414
137	0xbcebe291	-0.028794559
138	0xbd2456e6	-0.040121935
139	0x3d94d70c	0.072675794
140	0x3d19f2d2	0.037585087
141	0xbd58c696	-0.05292376
142	0x3c286fbe	0.010280548
143	0xbba1ce2a	-0.0049379067
144	0xbd19c903	-0.037545215
145	0xbd46d502	-0.048542984
146	0xbcfedd5d	-0.031111414
147	0x3d9cf3a3	0.076636575
148	0xbd85881f	-0.06520104
149	0xbd8f070d	-0.06983767
150	0xbd0b0ec8	-0.033949643
151	0x39d4a07d	0.00040555364
152	0x3c9b49ef	0.018956153
153	0xbb67009e	-0.003524817
154	0xbcf4e429	-0.029893951
155	0xbd489582	-0.048970707
156	0xbc9a3921	-0.01882607
157	0xbd10d27b	-0.03535698
158	0x3d881736	0.06645052
159	0xbd92fe07	-0.07177358
160	0xbd37ccd5	-0.044873077
161	0xbda0ac7b	-0.07845398
162	0xbca86eea	-0.0205607
163	0x3da70670	0.08155525
164	0x3d987f1a	0.07446118
165	0xbda59b05	-0.08086208
166	0xbbc975d8	-0.0061480813
167	0x3d27dd99	0.040982816
168	0x3cef8dac	0.02924236
169	0x3d85d9ad	0.06535659
170	0xbb3d8e54	-0.0028923946
171	0xbd838e5e	-0.06423639
172	0x3d5d3589	0.054006133
173	0xbd56f06b	-0.052475374
174	0x3d2e2377	0.04251429
175	0xbcbcc49b	-0.023042968
176	0x3d20bb02	0.039240845
177	0x3d9be955	0.07612864
178	0x3da13302	0.07871057
179	0xbda66305	-0.08124355
180	0xbd828f1a	-0.06374951
181	0xbd1f5619	-0.03890047
182	0xbd4c926d	-0.04994433
183	0x3dad51f9	0.08462901
184	0xbc81a70f	-0.01582673
185	0xbd71c4f8	-0.059025735
186	0xbd309fd3	-0.04312117
187	0xbd7a7b80	-0.061152935
188	0x3d0fe129	0.03512684
189	0xbd958c84	-0.07302192
190	0xbda127ea	-0.07868941
191	0xbda40e34	-0.080105215
192	0x3d113df5	0.035459477
193	0x3d3c6486	0.045994304
194	0xbd72c41c	-0.059269056
195	0x3c6a84ec	0.014313918
196	0x3d9010ab	0.07034429
197	0x3c28efe7	0.010311103
198	0xbc9c771d	-0.019099766
199	0x3c237c2d	0.009978336
200	0xbc95a875	-0.018268803
201	0x3d2ca0b1	0.042145435
202	0xbd7599bd	-0.05996107
203	0x3d464803	0.04840852
204	0x3d4dd40a	0.050251044
205	0xbd808583	-0.06275465
206	0x3d984c71	0.07436455
207	0x3db3b672	0.08775033
208	0xbd1ddead	-0.03854244
209	0xbcccc121	-0.024994435
210	0x3d2e8ff1	0.042617742
211	0xbd8b9b07	-0.068166785
212	0x3d121271	0.03566212
213	0x3c996da4	0.018729039
214	0x3d842640	0.06452608
215	0xbdb6ad68	-0.08919793
216	0xbd9ef876	-0.07762234
217	0x3d3b20a7	0.045685437
218	0x3d0baf87	0.034102943
219	0xbda302a8	-0.07959491
220	0xbd2ce584	-0.04221107
221	0xbd892e51	-0.06698287
222	0xbd7afb0d	-0.061274577
223	0xbd245f4f	-0.040129956
224	0x3d942a25	0.07234601
225	0xbc43ae32	-0.011943387
226	0x3d4a96eb	0.049460333
227	0x3d98b836	0.074570104
228	0x3d461373	0.048358392
229	0xbda43c1a	-0.08019276
230	0x3d1a5b93	0.03768499
231	0x3d07532e	0.03303831
232	0x3d6d3e3a	0.057920672
233	0xbdb819f3	-0.089893244
234	0x3d4a1850	0.049339592
235	0x3d8850d6	0.06656043
236	0xbda4101a	-0.08010884
237	0x3c042968	0.008066513
238	0x3d985a70	0.074391246
239	0xbd2a64e5	-0.041600127
240	0x3d0531c2	0.032518156
241	0x3d2ba765	0.041907687
242	0x3ce3a95e	0.027790722
243	0x3db7f53a	0.0898232
244	0x3d850650	0.06495345
245	0x3da265d1	0.07929576
246	0xbc4d8bc4	-0.01254553
247	0x3d892cd4	0.066980034
248	0xbda07817	-0.07835405
249	0xbd40b2be	-0.04704546
250	0xbc9802d7	-0.018556042
251	0xbd04412d	-0.03228872
252	0x3da3e9d5	0.08003584
253	0x3d07721d	0.03306781
254	0x3d7ef6f5	0.062247235
255	0x3d696d14	0.05698879

bias f4 [128]
0	0x3d22b73e	0.039725535
1	0xbd923465	-0.071389
2	0x3ce68433	0.02813921
3	0x3cf35596	0.029703896
4	0x3c757713	0.014982003
5	0x3d69f54a	0.05711869
6	0x3d70087d	0.058601845
7	0x3d5bb086	0.053635143
8	0xbd89f11e	-0.067354426
9	0x3c022b38	0.007944874
10	0x3d43f2f9	0.04783914
11	0x3d828a46	0.0637403
12	0xbd43e404	-0.047824875
13	0xbb8b3e30	-0.0042493567
14	0xbc80f7f2	-0.01574323
15	0xbc323ea9	-0.010879197
16	0x3d5d9108	0.05409339
17	0x3d6550ce	0.055985264
18	0xbd96be04	-0.07360461
19	0x3c117a7d	0.008879301
20	0xbd396323	-0.04526056
21	0x3d5efdc3	0.054441225
22	0xba417d8d	-0.0007381074
23	0x3d153d5e	0.036435477
24	0x3b4eb902	0.0031543379
25	0x3da639fb	0.08116528
26	0xbd856f8d	-0.06515417
27	0x3d72099f	0.059091207
28	0x3de1ae08	0.11019522
29	0xbcaa0b8a	-0.020757455
30	0x3cc128c4	0.023579009
31	0xbd2ed82f	-0.042686637
32	0xbcca5967	-0.024700833
33	0xbd05b7af	-0.032645877
34	0x3d4dee18	0.050275892
35	0x3d6827d8	0.056678623
36	0xbc99c434	-0.018770315
37	0x3b9db62f	0.0048129777
38	0xbda0c5a2	-0.078501955
39	0x3d80f499	0.06296653
40	0x3d360823	0.044441354
41	0x3c0f4fc0	0.008747041
42	0xbd1bef8d	-0.03807025
43	0x3d203487	0.039112594
44	0xbd5a3246	-0.0532706
45	0x3d70fce1	0.058834914
46	0xbd88e9b0	-0.06685197
47	0x3d4920fe	0.04910373
48	0xbd90770f	-0.070539586
49	0x3caa3eb5	0.020781854
50	0x3dc06fa9	0.093962975
51	0x3d66fad7	0.056391563
52	0xbd5f8349	-0.054568563
53	0xbbc80bf2	-0.0061049396
54	0x3c922f9c	0.017844968
55	0xbd184962	-0.03717936
56	0xbbfdc2bf	-0.007744163
57	0x3dae0677	0.08497327
58	0xbd65578f	-0.055991706
59	0xbda3a895	-0.07991139
60	0xbd8d039b	-0.06885453
61	0xbb54a908	-0.0032449383
62	0xbcb6e616	-0.02232651
63	0x3ceec03f	0.029144404
64	0xbd1f0955	-0.03882726
65	0xbd25c8f1	-0.040474836
66	0xbd2f2578	-0.042760342
67	0x3d1c4052	0.038147278
68	0x3dab460f	0.08362972
69	0xbda1842c	-0.07886538
70	0x3d2f1760	0.0427469
71	0x3d9ae0fc	0.075624436
72	0xbd90c2b4	-0.07068387
73	0xbd067b31	-0.03283233
74	0x3d92124b	0.07132395
75	0xbd1f6736	-0.03891679
76	0x3d60bc46	0.05486705
77	0xb8c4e626	-9.388877e-05
78	0xbd82a186	-0.063784644
79	0x3d4f2887	0.05057576
80	0x3bd78473	0.0065770685
81	0xbd4dbda9	-0.050229702
82	0x3ce17372	0.027520869
83	0xbc5347ef	-0.012895568
84	0xbd037011	-0.032089297
85	0xbd10146b	-0.035175722
86	0xbd844b85	-0.06459717
87	0xbd8ad00c	-0.06777963
88	0xba3f3481	-0.00072938955
89	0xbd26dc7e	-0.04073762
90	0x3cf49bce	0.02985945
91	0x3d9b0572	0.07569398
92	0xbc542b2f	-0.012949749
93	0xbd892caf	-0.06697976
94	0xbd91b1dd	-0.07114003
95	0x3d7ea3e6	0.062168024
96	0x3bd74d1a	0.0065704705
97	0xbd83c9fe	-0.06435011
98	0xbd1bc31e	-0.038027875
99	0x3d11a12f	0.035554107
100	0x3c3fb91f	0.011701851
101	0x3d2bbf53	0.041930508
102	0x3dc3329f	0.095311396
103	0xbd33b505	-0.043873806
104	0xbc1f5025	-0.009723698
105	0xbd87fd66	-0.06640129
106	0x3dbe1fca	0.09283407
107	0xbc08b8df	-0.008344858
108	0xbccdf5f9	-0.025141703
109	0x3c6a827c	0.014313336
110	0xbca4a810	-0.02009967
111	0x3ca27640	0.019831777
112	0x3d9b9e17	0.075985126
113	0x3d2a300b	0.041549724
114	0x3d1ed381	0.038775925
115	0xbd22fa84	-0.03978969
116	0x3d5b454a	0.053532876
117	0x3dd1d76e	0.10246168
118	0xbd921717	-0.0713331
119	0xbd0c67bf	-0.034278627
120	0x3dcbcef4	0.099515826
121	0x3db2ece5	0.0873659
122	0x3ccb3db7	0.024809701
123	0x3da20ac4	0.0791221
124	0xbc0823d2	-0.0083093215
125	0x3d2bea60	0.041971564
126	0x3d197c44	0.037472025
127	0x3dbbce2e	0.09170185

weight f4 [128, 128]
0	0xbd759c12	-0.059963293
1	0x3c953f55	0.018218676
2	0x3d4d59ce	0.050134473
3	0xbca0f175	-0.019646386
4	0xbce0b949	-0.0274321
5	0x3d1c548c	0.038166568
6	0xbd851ded	-0.064998485
7	0x3cfad6ef	0.030620066
8	0x3d96565c	0.073406905
9	0x3d607d26	0.05480685
10	0xbd0f7a7a	-0.035028912
11	0x3da699b3	0.081347845
12	0x3d435738	0.0476906
13	0xbdaf22ee	-0.08551584
14	0xbda7a161	-0.081850775
15	0x3d1e5793	0.038657736
16	0x3cc6e485	0.024278888
17	0x3daf409c	0.08557245
18	0x3daa55a5	0.08317117
19	0x3c686ddb	0.014186348
20	0xbcbf4ebd	-0.023352975
21	0x3b3b72ab	0.0028602283
22	0xbd6ab33e	-0.057299845
23	0x3c0c7d64	0.008574817
24	0x3d041338	0.03224489
25	0x3d00917f	0.031388756
26	0x3ccc03e4	0.024904199
27	0x3c8d81cd	0.017273808
28	0x3cabc2af	0.020966856
29	0xbd7a3d58	-0.06109366
30	0xbcfbb715	-0.030726949
31	0xbc6e947e	-0.0145617705
32	0x3d2d3fab	0.042297047
33	0x3c403770	0.011731967
34	0xbd001a88	-0.031275302
35	0xbd515068	-0.051102072
36	0xbd144c1f	-0.036205407
37	0x3db333e8	0.08750135
38	0x3d736b8f	0.059428748
39	0xbd6fd215	-0.05854996
40	0xbd7ad0a5	-0.061234135
41	0x3d16a344	0.036776796
42	0xbcac22e4	-0.02101273
43	0xbcd74cd2	-0.026281748
44	0xbdce8c72	-0.100853816
45	0x3c07b7df	0.008283584
46	0x3b069780	0.0020537078
47	0x3d9fc763	0.07801702
48	0xbcfa2538	-0.030535325
49	0xbd51997e	-0.051171772
50	0x3c44ddee	0.012015803
51	0x3ca8a5a8	0.020586804
52	0xbbc5a638	-0.0060317777
53	0xbd932cd7	-0.07186287
54	0x3d86a025	0.06573514
55	0x3a220e6a	0.00061819574
56	0xbca77a00	-0.020443916
57	0xbbc5bf84	-0.0060347933
58	0xbd95b4db	-0.07309886
59	0xbd1247d6	-0.03571304
60	0xbdd6608a	-0.10467632
61	0x3d07071c	0.032965764
62	0xbd2e566a	-0.04256288
63	0xbd8b7bdb	-0.06810733
64	0xbcd670ca	-0.026176829
65	0x3d1a06f6	0.037604295
66	0xbd304883	-0.043037903
67	0xbd8aa361	-0.06769443
68	0xbcbf7fc7	-0.023376359
69	0x3d9b053f	0.0756936
70	0x3d458350	0.048220932
71	0x3d302d35	0.043011863
72	0xbc93a647	-0.018023623
73	0xbd1590e3	-0.036515128
74	0x3aeca4e4	0.0018054512
75	0x3d626e5a	0.05528102
76	0xbd879fde	-0.06622289
77	0x3d99667d	0.07490251
78	0xbda4d5c9	-0.08048589
79	0xbdc73a19	-0.09727878
80	0xbdca01a5	-0.09863595
81	0x3c810df6	0.015753727
82	0x3c021d4b	0.007941554
83	0x3d153132	0.03642387
84	0xbd67f0c3	-0.056626093
85	0xbd0dd1c2	-0.03462387
86	0x3d003720	0.03130257
87	0x3d478cc0	0.048718214
88	0xbda6a1c6	-0.081363246
89	0x3ca3433c	0.01992952
90	0xbc2fe22b	-0.010735075
91	0xbc4b5afa	-0.012411827
92	0x3d405554	0.046956375
93	0xbda04f1f	-0.07827591
94	0x3cc94f8f	0.02457407
95	0xbd3bf3ce	-0.045886807
96	0x3d8091e7	0.06277829
97	0xbce48414	-0.027895011
98	0x3d123969	0.03569928
99	0xbd72375a	-0.05913482
100	0xbdb9c210	-0.090702176
101	0x3dbe5020	0.092926264
102	0xbce57f4c	-0.028014801
103	0x3b7e5de4	0.0038813287
104	0x3d88b321	0.06674791
105	0x3dcb5520	0.09928346
106	0xbbb1396c	-0.0054084565
107	0xbdb5818c	-0.088626
108	0xbd0adb1f	-0.033900376
109	0x3d913193	0.07089534
110	0x3d164439	0.036686156
111	0x3d82ac0b	0.06380471
112	0xbc8dc851	-0.017307432
113	0xbda56eb9	-0.08077759
114	0xbce8ab84	-0.028402098
115	0x3cc379c7	0.023861779
116	0x3d92d9d3	0.07170453
117	0xbd4c7bd4	-0.04992278
118	0xbd3d5d23	-0.0462314
119	0x3db52b32	0.088461295
120	0x3da128f7	0.078691415
121	0x3db8c60f	0.09022152
122	0x3d9ae86c	0.07563862
123	0x3d14eac0	0.036356688
124	0x3c746ed7	0.014919004
125	0xbd5ce463	-0.053928744
126	0xbccb69aa	-0.024830658
127	0xbd9a797d	-0.07542703
128	0x3d82b641	0.063824184
129	0x3d8fc807	0.07020574
130	0x3d30421d	0.0430318
131	0xbabf4bb7	-0.0014594708
132	0xbdaefad6	-0.08543937
133	0x3d9a8bc2	0.07546188
134	0x3cd7543d	0.026285285
135	0x3c88df52	0.01670805
136	0xbc9f464b	-0.019442698
137	0xbd7f5e13	-0.062345576
138	0x3c4f5680	0.012654901
139	0xbca98cee	-0.020697083
140	0x3dbafb84	0.09130004
141	0x3ca35ebc	0.019942634
142	0x3ce4a92a	0.027912695
143	0x3d740c1c	0.05958186
144	0xbd42f6d9	-0.047598694
145	0x3d96f6bf	0.07371282
146	0x39a1dfd8	0.0003087509
147	0xbd9760ad	-0.07391486
148	0x3d48f965	0.049065966
149	0xbd73e8b7	-0.059548106
150	0x3d4f55ae	0.05061882
151	0x3da8b003	0.082366966
152	0xbae2bb36	-0.0017298225
153	0xbd0cc81c	-0.034370527
154	0x3bdae3de	0.006679996
155	0x3d8c7eb9	0.06860108
156	0x3d84ba21	0.06480814
157	0x3d98d3d5	0.07462279
158	0x3acd8bd3	0.001568193
159	0xbd89319c	-0.06698915
160	0x3d22a108	0.039704353
161	0x3c99f983	0.018795734
162	0x3caef572	0.021357272
163	0x3d9a42e9	0.07532293
164	0xbd21d9d6	-0.039514385
165	0x3da3483e	0.079727635
166	0xbd43ab3a	-0.047770716
167	0xbd6b5dc0	-0.057462454
168	0x3d4ee10c	0.05050759
169	0x3d893762	0.067000166
170	0xbcda8c7a	-0.026678313
171	0x3b348b39	0.0027548803
172	0x3c1fa47e	0.009743808
173	0x3cf25a46	0.029584061
174	0xbc8c6e12	-0.01714233
175	0xbda0ce8e	-0.07851897
176	0x3ca85a81	0.020550968
177	0xbdb2da86	-0.08733086
178	0xbd864e3b	-0.0655789
179	0xbd893aa5	-0.06700639
180	0x3d541fbd	0.05178808
181	0x3d3d8b4a	0.046275415
182	0xbd71d6ad	-0.05904262
183	0x3d95e760	0.07319522
184	0xbd82ff46	-0.06396346
185	0x3d77afe8	0.06047049
186	0x3d120c58	0.035656303
187	0xbcb7840a	-0.022401828
188	0x3d9c6dd7	0.07638138
189	0x3d59cdbc	0.05317472
190	0x3d8ce0fa	0.068788484
191	0xbd8df3c2	-0.06931259
192	0xbcde6c5c	-0.02715128
193	0xbd880e91	-0.06643403
194	0x3d9627bd	0.07331798
195	0x3cbec7b9	0.023288595
196	0xbd336929	-0.04380146
197	0xbcbbe09e	-0.022934254
198	0x3d748cd3	0.059704613
199	0x3dd9f295	0.10641972
200	0x3b9446d8	0.004525047
201	0xbd9dd703	-0.07707026
202	0xbd29cc25	-0.041454453
203	0x3d6482f1	0.055788938
204	0xb93e19fc	-0.00018129492
205	0x3d525c93	0.051357817
206	0x3d8be37d	0.06830499
207	0xbcb37578	-0.0219066
208	0x3d4f9add	0.0506848
209	0x3bb1ebbf	0.0054297145
210	0xbd5c0312	-0.053713866
211	0xbd421daf	-0.04739159
212	0x3cc20b32	0.023686979
213	0x3c194ec9	0.009357163
214	0x3d67d3ca	0.056598462
215	0x3da6cda9	0.08144695
216	0xbdb388ae	-0.08766304
217	0x3ac8a550	0.0015308056
218	0xbd0c48ea	-0.034249224
219	0x3d17af84	0.03703262
220	0x3d1b808b	0.037964385
221	0x3db84d15	0.08999077
222	0x3d7e7dac	0.06213157
223	0x3d6f93e7	0.05849066
224	0xbd8a4c07	-0.06752782
225	0xbd83d6bd	-0.064374425
226	0xbdab7a25	-0.083729066
227	0xbd51b22c	-0.05119531
228	0xbd51e137	-0.051240172
229	0x3d872a32	0.06599845
230	0xbd304fa6	-0.04304471
231	0x3d902ffb	0.070404015
232	0x3d930cec	0.07180199
233	0x3d44c86b	0.048042696
234	0x3d501e0e	0.050809912
235	0x3d8d8937	0.06910937
236	0x3c5441e9	0.012955167
237	0xbd361280	-0.044451237
238	0x3d996c22	0.07491328
239	0x3d965164	0.07339743
240	0x3d81c1a2	0.06335761
241	0xbd821c85	-0.06353096
242	0xbc42350d	-0.011853469
243	0x3d60dc4d	0.054897595
244	0xbb6c67ef	-0.0036072691
245	0xb99bfc58	-0.00029751915
246	0xbd47978a	-0.048728503
247	0x3d5c3aa1	0.05376685
248	0x3d506ce1	0.050885085
249	0xbcb7083a	-0.02234279
250	0x3d8b3ca6	0.06798677
251	0xbd1d7626	-0.038442753
252	0x3d311d1b	0.043240648
253	0x3b851872	0.004061752
254	0xbd28652d	-0.041112114
255	0x3c82be33	0.015959835

bias f4 [128]
0	0x3ce8440e	0.028352764
1	0x3dae1c1b	0.085014544
2	0x3cd7e75b	0.026355436
3	0x3da05dd0	0.07830393
4	0x3c939051	0.018013151
5	0xbcf711da	-0.03015988
6	0x3d1d86a7	0.038458493
7	0x3d72c623	0.05927099
8	0xbd126e64	-0.035749808
9	0x3c57d924	0.013174329
10	0x3d93a46d	0.07209096
11	0xbd5514a1	-0.052021626
12	0x3d9ce102	0.07660104
13	0x3d933a7b	0.07188889
14	0xbc99b627	-0.018763615
15	0x3d8225b7	0.0635485
16	0x3da71f3c	0.08160254
17	0x3cc117ab	0.023570856
18	0xbd1167ed	-0.035499502
19	0xbd3d37aa	-0.046195664
20	0x3d2ba06e	0.041901045
21	0xbd9115c3	-0.07084229
22	0x3bc80bce	0.006104923
23	0xbd8349ff	-0.06410598
24	0x3c88c9bd	0.016697759
25	0x3d5dc6d3	0.05414469
26	0x3d8d578f	0.06901466
27	0x3da18d4d	0.07888279
28	0xbda0e9ef	-0.07857119
29	0x3d997ac6	0.0749412
30	0x3d5cf783	0.053946983
31	0xbd4bf68c	-0.049795672
32	0x3da468ec	0.08027825
33	0xbd5249d3	-0.051339936
34	0x3dac261e	0.08405708
35	0x3d0a9a74	0.033838704
36	0xbd92e451	-0.07172454
37	0x3c3e76e3	0.0116250245
38	0xbd26adc2	-0.040693052
39	0xbd9d5251	-0.07681716
40	0x3d0ab1b1	0.033860866
41	0xbd359c17	-0.044338312
42	0xbd43a843	-0.04776789
43	0x3d29e902	0.04148198
44	0xbc0f50ea	-0.008747319
45	0x3d5ec6ca	0.0543888
46	0xbce2b4cc	-0.027674101
47	0xbd4218d5	-0.047386963
48	0x3d736f11	0.059432093
49	0x3d811520	0.063028574
50	0xbd5c150f	-0.05373102
51	0x3cd006ec	0.025393926
52	0x3d18d999	0.037316892
53	0xbd061976	-0.032739125
54	0xbd50924a	-0.050920762
55	0x3db0c872	0.08631982
56	0x3dba1166	0.0908535
57	0x3cf613f0	0.030038804
58	0x3da9803f	0.08276414
59	0xbd6c5882	-0.057701595
60	0x3a5feb74	0.000854186
61	0x3da2dcaf	0.07952248
62	0xbd25ed3e	-0.040509455
63	0xbc79e04e	-0.015251232
64	0xbd03e604	-0.032201782
65	0xbd43dddc	-0.047819003
66	0x3d5625a4	0.05228199
67	0xbd9751db	-0.073886596
68	0x3dc70f52	0.09719719
69	0x3b1a2174	0.0023518475
70	0xbd636180	-0.055512905
71	0xbd827dbf	-0.063716404
72	0xbd84f2a0	-0.064915895
73	0x3da612d8	0.08109063
74	0x3dcd0a24	0.100117
75	0x3d504d5f	0.050855037
76	0x3c49d041	0.012317718
77	0xbc154ef1	-0.009113059
78	0xbcf2f75f	-0.029658971
79	0x3dafe563	0.08588674
80	0x3d73d027	0.05952468
81	0x3cb0fe4e	0.021605637
82	0x3d222a7a	0.03959129
83	0x3da3c557	0.07996624
84	0xbd50f0f3	-0.051011037
85	0xbc294318	-0.010330938
86	0xbd11253b	-0.035435896
87	0xbd03e1b7	-0.03219768
88	0x3bd6fb82	0.006560744
89	0x3dc7680c	0.09736642
90	0x3d800fc5	0.06253008
91	0xbca773c6	-0.020440947
92	0xbdb34c81	-0.08754826
93	0x3c31afe2	0.010845156
94	0x3d7963fd	0.060886372
95	0x3da37652	0.07981552
96	0xbd5fb271	-0.054613534
97	0x3da223e6	0.07917003
98	0xbd47fbab	-0.048823994
99	0x3bf08557	0.007340114
100	0xbd9d25a9	-0.07673199
101	0xbcef187d	-0.029186482
102	0xbd19a6f3	-0.03751273
103	0xbd7cea43	-0.061746847
104	0xbd42bc2b	-0.047542732
105	0x3d87f0cd	0.06637726
106	0xbd0a206c	-0.033722326
107	0x3d04acc7	0.032391336
108	0xbd85be0a	-0.06530388
109	0x3d032182	0.032014377
110	0x3d69cc36	0.057079516
111	0x3d01a663	0.03165282
112	0x3d619389	0.05507234
113	0xbc5dc7f2	-0.01353644
114	0x3d1aa3ee	0.03775399
115	0xbaed4673	-0.001810266
116	0x3d58ea7e	0.052958004
117	0xbd21c886	-0.039497875
118	0x3d2a349a	0.04155407
119	0xba97a8cf	-0.0011570695
120	0x3d273507	0.040822055
121	0x3cdd35ec	0.027003251
122	0x3dcefde9	0.10107023
123	0x3d1fbf64	0.039000884
124	0x3d7c228f	0.061556395
125	0x3cab38ad	0.020901049
126	0x3cefa37e	0.029252764
127	0xbd2feaf4	-0.042948678

weight f4 [128, 128]
0	0x3d0903fb	0.03345106
1	0x3c76adcf	0.015056088
2	0xbc8ead77	-0.017416699
3	0x3beb67d7	0.0071840095
4	0x3cb30c78	0.021856532
5	0x3d88297c	0.066485375
6	0x3d3c40f1	0.04596037
7	0xbd4652b0	-0.0484187
8	0x3d8f7875	0.07005397
9	0xbc379655	-0.011205276
10	0x3d8ab208	0.06772238
11	0xbd4bd475	-0.04976316
12	0xbc3e55ec	-0.011617165
13	0xbc3cb7fc	-0.011518475
14	0x3d831031	0.06399573
15	0xbd23e1e3	-0.040010344
16	0xbd7ae11d	-0.06124984
17	0xbd807661	-0.06272579
18	0x3da5ed19	0.081018634
19	0x3da0ffff	0.078613274
20	0xbc6f1215	-0.014591713
21	0x3d5b2b8e	0.053508334
22	0xbca39afd	-0.019971365
23	0xbd579f59	-0.0526422
24	0xbd940246	-0.07226996
25	0xba1a4208	-0.0005884473
26	0x3d459c05	0.048244495
27	0x39ca6524	0.00038603798
28	0x3da2c5bf	0.07947873
29	0xbda9cbb7	-0.08290809
30	0xbdb8c769	-0.090224095
31	0x3db9a526	0.09064703
32	0x3ca3a824	0.019977637
33	0xbae8d6e5	-0.0017764239
34	0xbdaba681	-0.083813675
35	0x3d958616	0.073009655
36	0x3d98e1ea	0.07464965
37	0x3b22c6cd	0.0024837733
38	0x3d68a004	0.056793228
39	0x3d8b76f5	0.06809799
40	0xbc429184	-0.011875514
41	0xbd80dd7d	-0.062922455
42	0xbc2e43e2	-0.010636302
43	0x3d9d9d0b	0.07695969
44	0xbd16f769	-0.036857042
45	0xbd514ad1	-0.05109674
46	0xbdaaa171	-0.08331574
47	0x3da6a783	0.08137419
48	0x3d7c2c16	0.06156548
49	0x3d83fb08	0.06444365
50	0xbc7acb45	-0.015307252
51	0x3d7a2321	0.061068658
52	0xbd8e31a9	-0.06943066
53	0x3d85ad95	0.06527249
54	0x3c23ee6c	0.010005575
55	0xbd3583f4	-0.044315293
56	0xbd904592	-0.070445195
57	0xbd3e357d	-0.04643773
58	0xbd9a60f8	-0.075380266
59	0x3ce05f97	0.02738933
60	0x3b853f7a	0.004066405
61	0x3d767846	0.060173295
62	0xbd519eef	-0.05117696
63	0xbd7c54b3	-0.061604213
64	0xbc8ed4c0	-0.017435431
65	0x3d990fa6	0.07473688
66	0xbd24ed9b	-0.04026566
67	0x3dce556d	0.100748874
68	0x3d96fc98	0.07372397
69	0x3d34e958	0.044167846
70	0x3d92af72	0.0716237
71	0xbdaa6a7d	-0.08321092
72	0x3d78b0ca	0.060715474
73	0xbda58a9b	-0.080830775
74	0xbdaf7d0c	-0.08568773
75	0x3bd98682	0.006638349
76	0x3c8f30e3	0.017479366
77	0xbd41d4c2	-0.047322042
78	0x3d73a598	0.059484094
79	0x3d326661	0.043554667
80	0xbd2ee544	-0.042699113
81	0x3db25003	0.08706667
82	0x3d8515c8	0.06498295
83	0xbd8b1421	-0.06790949
84	0xbcd79c73	-0.026319718
85	0xbd876ecb	-0.06612929
86	0x3d584772	0.05280251
87	0x3ca85bc5	0.020551572
88	0xbcb5d9cb	-0.022198578
89	0x3c15bf40	0.009139836
90	0xbd85b2e2	-0.0652826
91	0xbd134f09	-0.035964046
92	0x3d29aa32	0.041422077
93	0xbbfbc9cc	-0.007683968
94	0x3c443047	0.011974401
95	0x3cd290f9	0.025703894
96	0x3d426e80	0.047468662
97	0xbc91b316	-0.01778559
98	0x3d87363e	0.06602143
99	0xbc25e120	-0.010124475
100	0xbd553dec	-0.052061006
101	0x3d2ddc4a	0.042446412
102	0xbce2a5fc	-0.027667038
103	0xbd737109	-0.05943397
104	0xbb944c69	-0.0045257104
105	0xbd94c099	-0.072632976
106	0x3d2e4b1a	0.04255209
107	0x3d6781a8	0.056520134
108	0x3d33dd9e	0.043912522
109	0x3d4a8804	0.04944612
110	0x3d8ad852	0.06779541
111	0x3ce2e92b	0.027699074
112	0x3d176271	0.036959115
113	0x3d8a1608	0.067424834
114	0xbd269268	-0.040666968
115	0xbd523b22	-0.051325925
116	0x3cc6d5da	0.024271894
117	0x3d19fed8	0.037596554
118	0x3d7a7255	0.06114419
119	0x3da2a97f	0.07942485
120	0xbdb9c863	-0.09071424
121	0xbda27b02	-0.07933618
122	0x3d738e73	0.059462022
123	0xbd66e943	-0.0563748
124	0x3d0c1b32	0.034205623
125	0x3c53dae4	0.012930606
126	0x3dd153e9	0.10221083
127	0xbc589396	-0.013218781
128	0x3db43807	0.08799749
129	0x3d41aac1	0.047281984
130	0xbd479dff	-0.04873466
131	0xbd1ddc00	-0.038539886
132	0xbd860015	-0.065429844
133	0x3d3a2a7a	0.045450665
134	0xbd48b034	-0.048996165
135	0xbcfb8869	-0.030704694
136	0x3c8807fb	0.016605368
137	0x3d975043	0.073883556
138	0xbd8e9038	-0.06961101
139	0xbd177d8c	-0.036984965
140	0xbd574a01	-0.05256081
141	0xbd57e8cd	-0.05271225
142	0xbcf9ffd0	-0.030517489
143	0x3d53132a	0.05153195
144	0xbc7e7676	-0.015531173
145	0xbd1175d5	-0.035512764
146	0xbc15cc8c	-0.009143006
147	0xbd3f1d13	-0.046658587
148	0x3dbf252b	0.09333261
149	0xbcca094c	-0.024662636
150	0xbd8e0d1a	-0.06936093
151	0xbba195c1	-0.004931182
152	0x3d14fdac	0.036374733
153	0xbd9a1619	-0.07523746
154	0x3d85743d	0.06516311
155	0xbc194ef4	-0.009357203
156	0xbd56c8e5	-0.05243768
157	0xbd2cae62	-0.042158492
158	0x3d991f63	0.0747669
159	0xbcd3bd5b	-0.025847128
160	0xbd155366	-0.036456488
161	0x3d28238f	0.041049536
162	0x3dce06e1	0.10059906
163	0x3d622436	0.055210315
164	0x3d92f078	0.07174772
165	0xbdacf638	-0.084454
166	0xbc6d3e14	-0.014480133
167	0xbd15bd92	-0.03655774
168	0x3db9084c	0.09034786
169	0x3d983b6a	0.07433207
170	0xbce59a3d	-0.028027648
171	0xbd7b5736	-0.061362468
172	0x3db6eb69	0.0893162
173	0xbd1d573f	-0.038413282
174	0xbd72f2f4	-0.05931373
175	0x3d9c617e	0.07635783
176	0x3da51974	0.080614954
177	0x3cde9d56	0.027174633
178	0xbceb516f	-0.028725354
179	0x3d7a49d6	0.06110557
180	0xbd9481d3	-0.072513245
181	0x3cabc148	0.020966187
182	0xbcb8706c	-0.022514544
183	0xbbc04f7c	-0.0058688503
184	0x3d18b722	0.037284024
185	0x3d3c5ac0	0.045984983
186	0xbc4b8fac	-0.012424391
187	0x3d14209d	0.036163915
188	0xbc4255da	-0.011861289
189	0xbd8def4c	-0.06930408
190	0xbdae296c	-0.08503994
191	0xbc0bac33	-0.008524942
192	0xbd62840a	-0.055301704
193	0x3d7edaf4	0.06222053
194	0x3d27c3aa	0.040958084
195	0xbd4893b4	-0.048968986
196	0xbc955790	-0.01823023
197	0xbd8e8a55	-0.069599785
198	0x3d835c13	0.06414046
199	0x3d651804	0.055931106
200	0x3b976aa2	0.004620866
201	0xbd848a72	-0.06471719
202	0x3dadd587	0.08487993
203	0xbc9f6530	-0.01945743
204	0xbd82998b	-0.06376942
205	0x3b68457b	0.0035441804
206	0x3da5c322	0.08093859
207	0xbca7302f	-0.020408718
208	0x3cf92fb0	0.030418247
209	0x3d4637a0	0.048392892
210	0x3d227746	0.03966453
211	0x3bdbcf79	0.0067080823
212	0x3c8ab0d7	0.016930027
213	0x3d624354	0.05523999
214	0x3d21af9b	0.03947411
215	0x3d906623	0.07050731
216	0xbcba97c3	-0.022777444
217	0x3ce26f49	0.027640956
218	0x3db6625e	0.08905481
219	0x3d929ef5	0.07159225
220	0xbb629906	-0.0034576072
221	0xbd8b5c73	-0.06804743
222	0xbd639d7b	-0.055570107
223	0x3ca3a81a	0.019977618
224	0xbcd9f01a	-0.026603747
225	0x3dba887f	0.09108066
226	0x3d2bdc2f	0.04195803
227	0xbd9d6d78	-0.07686895
228	0x3c91dfe8	0.017806962
229	0x3c1e88ab	0.009676139
230	0xbd98fa20	-0.074695826
231	0xbbcacf1f	-0.0061892415
232	0x3d9aea5f	0.07564234
233	0x3db8cb29	0.09023125
234	0xbd8db413	-0.06919112
235	0x3d4afe92	0.049559183
236	0xbcebfdd7	-0.028807564
237	0x3cdbe22d	0.026841247
238	0x3d0097b9	0.031394694
239	0x3d340a97	0.04395541
240	0x3dadaee1	0.08480621
241	0x3da77701	0.08176995
242	0x3dad4a8a	0.08461483
243	0x3d7f86fd	0.062384594
244	0xbcd6f181	-0.026238205
245	0x3d9d43fa	0.07678981
246	0xbd99cb28	-0.07509452
247	0x3d552559	0.05203757
248	0xbcd04b16	-0.025426429
249	0x3d90c640	0.07069063
250	0x3ce6a7b1	0.028156133
251	0x3d931578	0.07181829
252	0x3d295d45	0.041348714
253	0xbd04c7bf	-0.032417055
254	0x3b600d8f	0.003418777
255	0xbd05e3b5	-0.03268786

bias f4 [128]
0	0xbd3b93f8	-0.04579541
1	0x3d002b0e	0.03129106
2	0x3d08f3f4	0.033435777
3	0xbd6a79aa	-0.057244934
4	0xbd1b9cc4	-0.0379913
5	0xbdb9d5fb	-0.09074017
6	0x3ccf3bf0	0.025297135
7	0xbc9618d2	-0.018322382
8	0xbd26e8b3	-0.040749263
9	0x3d76405a	0.060119964
10	0xbdb1c0a9	-0.08679325
11	0xbd64edf5	-0.055890996
12	0x3d84205f	0.06451487
13	0x3c522ce6	0.012828087
14	0xbd576418	-0.05258569
15	0x3da3d045	0.07998709
16	0xbcbbaaee	-0.022908654
17	0xbd434b11	-0.04767901
18	0x3d545378	0.051837415
19	0x3ce1cbeb	0.027563056
20	0x3da82ea3	0.0821202
21	0x3c988ac4	0.018620856
22	0xbc4128bc	-0.011789497
23	0xbc771a94	-0.01508202
24	0x3d925c05	0.071464576
25	0x3d9ade5b	0.07561942
26	0x3d456368	0.048190504
27	0x3d6ea5cf	0.058263596
28	0x3d10955e	0.035298698
29	0xbd09b454	-0.03361924
30	0xbcbd3a5c	-0.023099117
31	0xbbb8f0c2	-0.005643935
32	0xbd6ef6a9	-0.058340702
33	0x3dcca1c3	0.09991791
34	0x3da6312f	0.0811485
35	0xbd189e1c	-0.03726016
36	0x3d3d54a4	0.046223298
37	0xbbd55498	-0.0065103285
38	0x3d9b6a85	0.07588676
39	0xbcdcd138	-0.026955232
40	0x3dc21677	0.09476941
41	0x3b77b298	0.003779566
42	0x3d807208	0.0627175
43	0x3d8ae955	0.06782786
44	0x3b3c5cb3	0.0028741776
45	0x3c0a8f64	0.008457039
46	0x3b8c4cc1	0.0042816107
47	0xbd89ae28	-0.06722671
48	0x3ceb11b9	0.028694974
49	0x3d05c014	0.032653883
50	0xbccccf6d	-0.025001252
51	0x3c96325d	0.018334562
52	0x3da2fe66	0.07958679
53	0xbd865d7a	-0.06560798
54	0x3da5adde	0.08089803
55	0x3c923d1c	0.017851405
56	0x3d6b3f9a	0.057433702
57	0x3d10dbeb	0.03536598
58	0x3d891b10	0.06694615
59	0x3da4376e	0.08018385
60	0x3d350b0b	0.044199985
61	0xbc5bbfad	-0.013412398
62	0xbc094725	-0.008378779
63	0xbd886855	-0.06660525
64	0xbdb211f8	-0.086948335
65	0xbdadfab7	-0.08495086
66	0x3dc0cf1c	0.09414503
67	0xbd9e1239	-0.077183194
68	0x3d690f86	0.05689957
69	0xbdb9fffc	-0.09082028
70	0x3dbb58a8	0.09147769
71	0x3d185e0e	0.037199073
72	0x3d079ff4	0.033111528
73	0xbb9eee15	-0.004850159
74	0xbcb28ab8	-0.021794662
75	0x3dbf33e0	0.09336066
76	0x3c684c4d	0.014178348
77	0xbb49a031	-0.0030765648
78	0x3d09aef0	0.0336141
79	0x3da653f3	0.08121481
80	0xbc7fa464	-0.015603159
81	0x3d5ff54d	0.054677296
82	0xbb55a549	-0.0032599738
83	0xbd2c9187	-0.042130973
84	0x3cf3d161	0.029762926
85	0x3cbc3973	0.022976613
86	0xbd375c2d	-0.04476564
87	0xbd45a3ab	-0.04825179
88	0xbd54172d	-0.051779915
89	0xbd6b9c46	-0.05752208
90	0x3db23a4f	0.08702528
91	0x3d9d9dc2	0.076961055
92	0xbd8edf49	-0.06976182
93	0x3da8a8d8	0.082353294
94	0xbb384439	-0.0028116836
95	0x3b3c25e0	0.0028709099
96	0x3d52f90e	0.05150705
97	0x3d88a7c7	0.06672626
98	0x3bf6481e	0.0075159213
99	0x3d00fb11	0.031489436
100	0x3cb8acaa	0.02254327
101	0xbdae0536	-0.08497088
102	0x3c9ad72b	0.018901428
103	0xbd964197	-0.07336729
104	0x3dadec22	0.084923044
105	0xbd75631e	-0.05990898
106	0x3d1bb19f	0.03801119
107	0x3db182b9	0.086675115
108	0x3d8bedce	0.06832467
109	0xbd8aac4f	-0.067711465
110	0xbc875cb4	-0.016523696
111	0x3d83dac1	0.06438208
112	0xbd080b3b	-0.033213835
113	0x3c99e309	0.018785017
114	0xbd01cf1a	-0.031691648
115	0x3cb1f1e9	0.021721797
116	0x3d07327a	0.033007123
117	0x3d18eab8	0.03733322
118	0x3d46fe2b	0.048582237
119	0xbb50e330	-0.0031873696
120	0xbd96a5be	-0.073558316
121	0x3d843d6c	0.06457028
122	0x3d90c517	0.07068842
123	0x3d901c46	0.07036643
124	0xbd99e17d	-0.075137116
125	0xbc8a5f58	-0.016891167
126	0xbd6b8320	-0.057498097
127	0xbd4b2952	-0.049599953

weight f4 [1, 128]
0	0xbda68a79	-0.0813188
1	0x3d5983a1	0.053104047
2	0x3c68669a	0.014184618
3	0x39fdb2e9	0.0004838922
4	0xbd8d9b8a	-0.06914432
5	0x3d29f96b	0.04149763
6	0x3c470761	0.012147755
7	0x3c1e03bf	0.009644448
8	0xbb8b403f	-0.004249602
9	0xbd156f9b	-0.03648339
10	0x3cfae8db	0.030628612
11	0x3d0fa3e2	0.0350684
12	0xbcba42f4	-0.022737004
13	0x3d8b63c6	0.0680614
14	0x3d9a4292	0.075322285
15	0x3cff777e	0.031184908
16	0x3cbcd3e2	0.023050252
17	0xbce805bd	-0.028323049
18	0xbd1e8e89	-0.03871015
19	0xbd79e527	-0.061009552
20	0x3d54ed3c	0.051984057
21	0x3d264065	0.040588755
22	0xbdcfa1a1	-0.1013825
23	0xbd0fb3a0	-0.035083413
24	0x3d9fedb9	0.07809014
25	0x3db67dcd	0.08910713
26	0x3d331d40	0.043729067
27	0x3c6bbbd9	0.014388048
28	0xbd82790c	-0.06370744
29	0xbd1d248d	-0.038364936
30	0xbc821034	-0.015876867
31	0xbacff2f1	-0.0015865249
32	0xbd43da55	-0.04781564
33	0x3dd49e73	0.10381784
34	0x3d5ca596	0.053868853
35	0x3d506b37	0.050883498
36	0xbd979a06	-0.074024245
37	0x3c87d7a8	0.016582325
38	0x3d8698a5	0.065720834
39	0x3d3fb8b0	0.04680699
40	0x3db7b751	0.08970512
41	0xbd155de1	-0.036466483
42	0xbd887362	-0.066626325
43	0xbd4809df	-0.04883754
44	0xbdd7d3ad	-0.10538421
45	0x3db61e83	0.088925384
46	0xbd748e5e	-0.059706084
47	0x3d63f437	0.055652823
48	0x3d6b6943	0.057473432
49	0x3cf1b10b	0.029503366
50	0x3cecf856	0.02892701
51	0xbd9a12b1	-0.07523096
52	0x3c98a68a	0.0186341
53	0xbd1c8903	-0.038216602
54	0x3cbebe78	0.023284182
55	0x3d21cef6	0.039504014
56	0x3d15fbaa	0.03661696
57	0x3d9dabb2	0.07698764
58	0xbb65bde9	-0.0035055822
59	0x3db5bd98	0.08874053
60	0xbd9e1941	-0.077196606
61	0xbdc0647c	-0.09394166
62	0x3cd3eaa2	0.025868718
63	0x3d83cdbd	0.06435726
64	0x3d883e0f	0.06652462
65	0x3d20f705	0.039298076
66	0x3db2dab0	0.087331176
67	0x3ca3ccfa	0.019995201
68	0xbd1a2c58	-0.037639946
69	0xbd27bbee	-0.040950708
70	0x3d2becd9	0.041973922
71	0x3d1fde5d	0.03903042
72	0x3d2af8e5	0.04174127
73	0xbd559efe	-0.05215358
74	0xbc1c5808	-0.009542473
75	0x3d19ef65	0.03758182
76	0x3d0df9ec	0.034662172
77	0xbca5b006	-0.020225536
78	0xbd5c87e4	-0.053840533
79	0x3d6bd8d8	0.057579845
80	0xbd03b839	-0.03215811
81	0x3d16fa05	0.03685953
82	0xbdcc08bd	-0.09962604
83	0x3d8c532f	0.068518035
84	0xbd31b5e3	-0.04338635
85	0xbd6af83e	-0.05736565
86	0x3c29d905	0.010366683
87	0x3c54c549	0.01298649
88	0x3b951aa2	0.004550294
89	0xbd8c0bc0	-0.06838179
90	0xbd4b3205	-0.04960825
91	0x3dcb0262	0.09912564
92	0x3cd2b971	0.025723191
93	0x3d464cac	0.048412964
94	0x3db24bca	0.08705862
95	0xbcdbf7c7	-0.026851548
96	0xbdce3aeb	-0.100698315
97	0xbcc32ca5	-0.023825
98	0xbd9b9a6e	-0.075978145
99	0x3ca77e31	0.020445915
100	0x3d830801	0.06398011
101	0x3da93513	0.08262076
102	0x3cea3223	0.02858836
103	0x3d05bf59	0.032653186
104	0x3d175a8a	0.03695158
105	0x3d933787	0.071883254
106	0x3cf9c0ed	0.030487502
107	0x3d13164a	0.03590993
108	0xbd524ed0	-0.051344693
109	0x3b8f4f88	0.0043734945
110	0xbdc65808	-0.096847594
111	0x3d6b8b12	0.057505675
112	0x39fdda90	0.00048418762
113	0x3d95e80e	0.073196515
114	0xbd65322d	-0.055956054
115	0x3da043d9	0.07825441
116	0xba7a9b2c	-0.00095598656
117	0x3d45f199	0.04832611
118	0x3cc08459	0.023500608
119	0x3d4fae71	0.05070347
120	0x3d806c29	0.0627063
121	0x3dc670f3	0.09689512
122	0xbd9c25eb	-0.0762442
123	0xbdd6d854	-0.1049048
124	0xbda2aed7	-0.07943504
125	0x3d160e4f	0.03663474
126	0xbd9de71f	-0.077100985
127	0x3b9d32cd	0.0047973157
