Dry fermentation prediction and optimization system/optimize_digester/Predictor_Digester CH4/models/NeuralNetTorch_BAG_L1/S1F5/net.params (torch, 207367 bytes, 9 tensors)

weight f4 [128, 5]
00000000: 1517 c5bc 84f5 543e 7be3 c8be 263f acbe
00000010: 95da 37be 187b 2c3e 5a4d 5dbd 772a c43e
00000020: b6f2 2cbd 9b29 ed3d 66aa 22be 3ab9 89bd
00000030: 05c8 dabe a8d1 95be 0120 39be 18c0 93bc
00000040: cd09 593e bd1f 7d3e 6e84 a1be 1ffe 53be
00000050: dcb0 663e ebe4 b23e 8ff7 98bd f933 ab3e
00000060: 0930 94bd 55fc 093d d991 d53e e574 d2be
00000070: 8fa1 93be d4ce f5bd dc08 2cbe aadc c33e
00000080: 6ce3 94be a556 5cbe 40bc a4be 4c21 babe
00000090: e3a5 84be 8884 e03e 51ec 3d3e 7888 4f3e
000000a0: a41e 6d3b 2868 5ebe fd2d a93d 9bde d7be
000000b0: e486 a7be b6f9 43be 69ef 8b3e ba21 873e
000000c0: 6399 5abe 6c1b 00bd 39e9 ab3e 9db5 dc3e
000000d0: 59fe 3c3e 0c92 803d c2bb 9a3e 5bac 85be
000000e0: 32cb a73d 6de3 acbe 6d56 9cbe aad8 67be
000000f0: 8bdd 783e 7d2a 373e bb27 89be 3da4 013e
00000100: 45b1 723e 3153 93bd 38c5 eb3b 2e85 f13d
00000110: f2f7 883e 0cc7 d63e ffa7 b4be 4f92 2abe
00000120: e93e 453e 75ed b33e 5477 bd3e a423 d13e
00000130: 8d8e e13d 9cb8 bebe 12f6 363d 8b70 8dbe
00000140: a465 c8be 89ec cb3e 6de2 aa3e b734 e8be
00000150: 193b 9c3d 74a5 17be c95e c8bd 8a1c 64be
00000160: 475c 3c3e 887e 81be f63f 0a3e 37dc 6c3e
00000170: 0aec 9d3e 0070 2f3e 6684 e0be bcf2 91be
00000180: 41b2 6a3e 2977 d43d 5dae b5be fee8 86be
00000190: 18ae d33e 40cd a03e cd9c 40be d164 f1bd
000001a0: 8ed6 dcbe cedd acbd f87e 9fbe 8104 bbbe
000001b0: 8aa1 d0bc 07d3 873d b324 70be 8a90 8e3e
000001c0: 61e3 8cbe 88f0 c53e 6a17 933e 32ad e6be
000001d0: 06e5 cebd f0d4 393b 366e 413d c64f b43d
000001e0: 3a6c 183e 6c16 c43c 209d 5dbe 7acf 583e
000001f0: 1595 dbbe 7a0f 8ebe e4be 01be 5db9 63be
00000200: dea9 0abe 77e6 b0be f27c 03be 24c9 aa3d
00000210: 20b8 8bbe 15a1 01bd 3075 9f3e 5caa 423c
00000220: 6ef6 e6bb d6e5 9cbc 5514 b43d 2c45 903e
00000230: a0db d53e f1d3 943e 4339 dc3e d6b4 22bd
00000240: 0f78 d1be ca81 7bbe 21b0 9f3e 3b23 52bc
00000250: 1756 51be 7f52 a6be 2a2b c3be 694c c6be
00000260: 0bf1 3cbd ee4e 6d3e 9ac0 693e cd90 ebbe
00000270: 1205 833e 23c6 b3be 3438 b2bd c9fa 31be
00000280: a0f7 eebd 3346 4bbd 913a cebe 7480 c3be
00000290: a782 86bd e0c8 203d f0a6 76be 71e7 383e
000002a0: 632a d2be 1f3d 1cbd fe11 e33e dc75 4dbe
000002b0: 74f4 e93e c9dc 513e 84a1 b8be 694b b63e
000002c0: 7e31 4cbd ee15 30be bda5 bf3e d77b b0be
000002d0: a361 e83d 2300 eabd 9e65 b03e 5a81 ec3d
000002e0: 1277 523e 942b 2c3e ac32 cabd 0829 9fbd
000002f0: 51c9 b7be d2f8 803e 517a c53e e45f a93e
00000300: f3eb 9fbe edd1 0e3d edc4 99be 4d99 7ebe
00000310: 9911 89be fe64 2a3e 6436 83be 3b33 f539
00000320: a391 59bc 68ab 953e b2ea b1be e60f 9dbe
00000330: 41d3 84be 508a bc3e 8d7d 48be ee8b cb3e
00000340: b7bb 243e 5a7f 643d 1c41 aa3c d897 cbbd
00000350: d730 953d f12f cbbd 4119 78b9 2e94 7d3d
00000360: 6f8e b9be 0f67 6cbe e23f b83e 7a77 babe
00000370: 0389 dabc 1411 e63e 71af 103e e374 79bb
00000380: a3dc cebe 5bff 803e 46cd a9be 33ed e3bd
00000390: 272e 0dbe a464 5dbd 09e6 483d 9b15 b63e
000003a0: 13a3 853d 052c cc3e e825 8b3e 85f9 c4be
000003b0: f8cf 393e 963c a0be 4b97 0bbe ad30 3d3e
000003c0: 179b 453e f280 a43e b02d 08be ce6e 553b
000003d0: 185d 6e3e fc1c 03bf 382d 993e 5643 c8be
000003e0: b922 fd3c fa1c 52bd d50a 7fbe 988e c33d
000003f0: 23ba c43e b9bd 0abe 7a60 8abe 4465 1dbe
-0.024058858 0.20796782 -0.39236054 -0.33641928 -0.17954476 0.16843832 -0.054028846 0.38313648
-0.042223655 0.11580201 -0.15885314 -0.06724782 -0.42730728 -0.29261518 -0.18078615 -0.018035933
0.21195145 0.24719138 -0.31546348 -0.20702408 0.22528404 0.34940276 -0.07469093 0.3343809
-0.072357245 0.03368791 0.41712835 -0.41104808 -0.28834197 -0.1200234 -0.16800255 0.3825429
-0.2907976 -0.21517427 -0.32174873 -0.36353528 -0.25907812 0.43851113 0.18547179 0.20266902
0.0036181593 -0.2171942 0.08260725 -0.42162022 -0.327201 -0.19138226 0.27331093 0.2639292
-0.21347575 -0.03127615 0.33576372 0.4310731 0.18456401 0.06277856 0.30221373 -0.2610806
0.08193053 -0.33767262 -0.30534688 -0.22641245 0.24303262 0.17887302 -0.26788124 0.12660308
0.23700435 -0.07193602 0.007195141 0.1179298 0.26751667 0.41948736 -0.3528442 -0.16657375
0.1926228 0.35142103 0.37005103 0.40847504 0.110135175 -0.3725022 0.044668265 -0.27624926
-0.39140046 0.398289 0.33375874 -0.45352718 0.076284595 -0.14809209 -0.09783704 -0.22276512
0.18394576 -0.25291848 0.13500962 0.2313088 0.30844146 0.17132568 -0.43851012 -0.28505504
0.22919561 0.103742905 -0.3548459 -0.26349634 0.4134376 0.31406593 -0.18809815 -0.11786807
-0.43132442 -0.084407434 -0.31151557 -0.36526874 -0.025467653 0.06632047 -0.234515 0.2784465
-0.27517226 0.38660073 0.287288 -0.45054013 -0.101022765 0.002835568 0.047224246 0.08804278
0.14885035 0.023936473 -0.2164197 0.21172896 -0.42887178 -0.27746183 -0.12670475 -0.22238679
-0.13541362 -0.3455083 -0.12840632 0.08339146 -0.27288914 -0.03164776 0.31144094 0.011881437
-0.0070484197 -0.019152563 0.087929405 0.28177774 0.41769123 0.29067948 0.43012437 -0.03972324
-0.4091191 -0.2456123 0.31189063 -0.012825782 -0.20442997 -0.32484815 -0.3811887 -0.3873017
-0.046128314 0.2317464 0.22827378 -0.46008912 0.25589806 -0.35112104 -0.08702126 -0.17380823
-0.116683245 -0.049627494 -0.40279058 -0.3818394 -0.06567889 0.03925407 -0.24087119 0.18057038
-0.41047964 -0.038144227 0.44349664 -0.20064491 0.45694315 0.20494379 -0.36060727 0.35604408
-0.049851887 -0.17195866 0.37431136 -0.34469482 0.11346748 -0.11425807 0.34452528 0.11548109
0.20553234 0.16813499 -0.09872946 -0.07771498 -0.3589578 0.25189835 0.38569883 0.3308097
-0.31234702 0.03486817 -0.30033055 -0.24863167 -0.26771238 0.16640088 -0.25627434 0.0004676821
-0.013279351 0.29232335 -0.3474937 -0.30676192 -0.25942424 0.36824274 -0.19579144 0.39755195
0.16087233 0.055785514 0.020783 -0.09941071 0.07284706 -0.099212535 -0.00023660531 0.061908893
-0.3624148 -0.23086189 0.3598624 -0.36419278 -0.02667666 0.44934905 0.14129426 -0.0038064055
-0.40402707 0.2519482 -0.33164424 -0.111292265 -0.13787137 -0.054051057 0.049047504 0.3556336
0.065252446 0.39877334 0.27177358 -0.38471618 0.1814574 -0.31296223 -0.13631932 0.184756
0.19297443 0.32129627 -0.13298678 0.0032567265 0.232777 -0.512161 0.29917312 -0.39113873
0.030900346 -0.051297165 -0.24906476 0.09548682 0.3842326 -0.13548936 -0.2702673 -0.15370661

bias f4 [128]
00000000: d1cc 7cbe 1608 a23d bafe f43d 3b6b 2d3c
00000010: 2598 94be d7bb d33e 439d 85be c800 af3e
00000020: 4490 bdbe 2513 dcbd 85c6 793e c515 3abe
00000030: 1261 b63e 20a6 a2be 6b12 cabe 791f 5dbe
00000040: 7882 6d3d 8dd0 e53e e0a6 6bbe 9519 153e
00000050: 2b0f fabd f055 c9bd 24f3 9f3e eba5 b3be
00000060: 492a 383d 2b39 d63e 9cd9 97bd e3ef af3e
00000070: de09 09be 8eee ac3e 902f e8be 6430 62bd
00000080: 8a94 f7bd 5815 353e 88b6 5c3e 7df7 b63e
00000090: 8ae2 9abd 0a3d aebc 8175 9c3e c261 05be
000000a0: af04 c23e 0c18 9bbe a530 2fbd b854 75bc
000000b0: 5bbc 473e 23dd 9d3e b0d7 94bd 18cf 9dbe
000000c0: b422 653e 35c9 243e e06e 133e 08c4 82be
000000d0: aff0 8d3e cd3c d23e 086d a03d cd8f d0be
000000e0: 0e6c a63e 90f2 92be 0de2 0b3e d1db 693d
000000f0: c7d6 74be fd4a 0d3e 76ba bdbe 7ca3 d23d
00000100: e6f1 95be 80d3 cebc 3fa7 cd3d 5fee be3e
00000110: 0a1f 50be 1652 a53e 5d42 74bd e729 4dbe
00000120: 063c d1be f406 d7be e719 db3e b3ff f1bd
00000130: 1668 8a3c facd 153e 90cb a03e 0e39 c83e
00000140: 435e b13e e87c a7be 0a06 9abd 18b3 8bbe
00000150: d84e 86be 9123 e23d 1dde d33e 8191 b3be
00000160: 486a 943e ff59 61be 5817 56bd 9063 ac3e
00000170: 1c9e c5bd 07e0 bb3c c821 9ebe bedd c63e
00000180: ec09 74bd b128 93be 012b 0b3e b740 abbe
00000190: 7f08 bebe 9263 333d c8ee b73e 0a3e 0cbe
000001a0: 06df 553e 256e cb3e 8203 923e 2c69 69be
000001b0: fc23 22bd 84a0 10be 143d c4be f727 59bc
000001c0: 21c2 a93e 9783 b73e 7912 063d 33c3 a23d
000001d0: f203 44be be39 a63e 293d 4dbe 08f3 a3be
000001e0: 5683 9a3d ebff 883e 5508 c1be 2942 ce3e
000001f0: 8885 243e e82c 9dbe 7ea9 d3bd 66c3 d43e
-0.24687506 0.079116985 0.11962648 0.010584648 -0.29022327 0.41354248 -0.26096544 0.34180284
-0.37024128 -0.10745839 0.24392135 -0.18172367 0.35620934 -0.31767368 -0.39467177 -0.21594037
0.057985753 0.44885674 -0.23012877 0.1456054 -0.12209924 -0.098308444 0.3124019 -0.35087523
0.0449622 0.4184049 -0.074145526 0.34362707 -0.1338267 0.33775753 -0.45348787 -0.05522193
-0.120888785 0.17683923 0.21554005 0.35735694 -0.0756274 -0.02126934 0.30558398 -0.13025573
0.37894198 -0.30291784 -0.042771 -0.014973812 0.19505446 0.30832776 -0.072677016 -0.30822062
0.2237652 0.1609238 0.14397764 -0.25540185 0.2772269 0.41062012 0.07833296 -0.4073471
0.32504314 -0.28700686 0.1366045 0.0570944 -0.23910056 0.13798137 -0.3705632 0.102850884
-0.29286116 -0.025247335 0.10041665 0.37291238 -0.2032434 0.3228919 -0.0596336 -0.20035516
-0.40866107 -0.41997492 0.427932 -0.11816349 0.016895335 0.14629355 0.31405306 0.3910603
0.34642228 -0.32712483 -0.07520683 -0.27285075 -0.26232028 0.1104194 0.41380396 -0.35071948
0.28987336 -0.22006987 -0.052268356 0.3366971 -0.096492976 0.022933973 -0.30885148 0.3884105
-0.059579775 -0.28741983 0.13590623 -0.3344781 -0.37115857 0.04379613 0.35924363 -0.13695541
0.20885858 0.3973247 0.285183 -0.22794026 -0.0395851 -0.14123732 -0.3832785 -0.013254157
0.3315592 0.35842583 0.03273246 0.079473875 -0.1914213 0.3246593 -0.20042862 -0.32021356
0.075445816 0.2675775 -0.3770167 0.4028485 0.16066563 -0.30698323 -0.103350624 0.41555327

weight f4 [128, 128]
00000000: d187 8fbd 89d0 d8bc 6085 da3c c10c 92bd
00000010: f35b 253d 2206 2c3d 449c 603d 2e6c 41bd
00000020: 5629 b53d 1eba 3fbd 8536 a23d 61e1 b3bd
00000030: 0599 a5bd 16f3 603d d5df 843c b246 f83b
00000040: fd80 23bd 2d9e 4bbd 04e4 9abc 9703 b1bd
00000050: 544e f53b e5ba a93b 085c 253b b2d9 323d
00000060: f368 aa3d 0e89 ab3c f94a fcbc 8bab 1ebd
00000070: 2879 53bd d32e 7bbd e7e0 1bbc 55ca bcbc
00000080: 6fec 133d e123 19bd c948 2a3d 4517 adbd
00000090: 96ca 8b3b 973d 9d3d 52f9 b43d ccf7 56bd
000000a0: 1097 533c 10a9 b63b 6721 20bd 0b33 16bd
000000b0: 8909 033d 2654 91bd 2c24 4b3c a7ee 0f3d
000000c0: a41c 24bd e357 623d 5f97 3dbb dee0 303d
000000d0: e797 b83d 4796 b6bc 7e41 213d 6118 2bbd
000000e0: ebe3 88bc 0941 9ebd 6318 b63c 4e0b 64bd
000000f0: 9d9d c43c 7313 9a3c 1c58 a83d 74e4 b5bc
00000100: 764c db3b 237f adbd 13f9 57bd 5d28 143d
00000110: 10e5 953c 766f b6bd c171 efbc 5dea d73c
00000120: 77ba 89bc feaa 773d 7c21 8a3b 43b9 f93c
00000130: 4ae8 043d 79b0 08bd 4ef8 0d3d 4c9c 573d
00000140: 0ebb 44bb 3387 c93c 556b 853b 340e 823d
00000150: 789e 1dbd ddf3 7bbd 27e2 363d ca64 a5bd
00000160: eb39 96bb a70e 1abd ae26 563b a162 a8bd
00000170: 9af3 333d 0e14 b23d fa0a 953b df5e 0b3c
00000180: 92d6 b83d 9bc9 5fbd 101d 823b 1b20 2ebd
00000190: 65a2 00bc 3ecf e93c 7d4c 873b e320 97bc
000001a0: 082d babd 3d4f a73b 7705 7dbb 5aa7 da3b
000001b0: 4d3b 893d 29ad 9f3d 29bb 86bd 2ddf dbbb
000001c0: 7783 35bd 2b21 acbd 1590 84bd f1f8 9d3d
000001d0: ba8e 2a3d 1bdf 493d 99ac 493d 5e4d 95bd
000001e0: 53e4 863c 0abe a13d 10c7 5ebd 6cc4 8f3d
000001f0: ca23 df3c 6fab 8e3d 4c7b 37bd 89c5 f63c
00000200: f308 b1bd 33be e2bc 29d4 963c 5a69 a53c
00000210: 6d60 863d 1a1c 9e3d 52f0 8a3d a987 923d
00000220: ccaf 523d 7d88 89bc f674 99bd 71f1 35bd
00000230: 40a3 11bc d8e3 32bd 29d9 4c3d 8112 f93c
00000240: 1ce9 8c3b db87 323d d2fd 8d3d 47bc b23c
00000250: 2c1f a7bd 011d 53bd e1d1 2d3d 584f 0e3d
00000260: 926a 023d c388 d2bd 7df0 96bd 166b 723d
00000270: 7ad5 483d 5753 babd 15d8 2f3d fce5 b7bd
00000280: 6781 5d3d 3611 b33c 6917 ab3d e2e9 05be
00000290: ca81 aabd fa3a 6a3d eed5 983d 6546 0f3d
000002a0: dd41 4d3d f91a d9bd 98fb 653d 6487 adbd
000002b0: cff2 4f3c 2ca5 7abd 67ec ffbc 34c4 2f3d
000002c0: 77be 23bd 867a 6e3c 4ff8 b6bd 5554 c0bd
000002d0: cc58 253d 2ca9 10bd b378 09bd a799 cbbb
000002e0: cf05 90bd 4533 81bd 3b7f a83d d0e1 7d3d
000002f0: 84c7 bf3c 5e83 f2bc b75e c83d d380 39bc
00000300: 518a 78bd ed37 f53c da84 ec3d 1bfc b0bd
00000310: a7ad f7bd d6ca e33b 4616 993d 7ec3 77bd
00000320: 13a2 e73c 80f5 5a3d cf57 443c f6c8 d53c
00000330: a0f1 a53d 8ca8 333d 3397 84bd 5241 78bc
00000340: 7ea4 423d 5d66 b73d 7d43 c6bd e033 413d
00000350: 0af4 bcbc 2bcf 53bd 8cd4 173d a31b 82bd
00000360: 44cb 693d 5b2a 7abd 11ea 8ebd 41d0 3bbc
00000370: 7894 13bd 2ded 3c3d 080a 383a 9363 d63d
00000380: 6014 f33c 6150 f3bc b5b3 993d 83ce 333c
00000390: defc 983c d4e4 0fba 48c7 103c 0c47 f0bc
000003a0: 778b 85bc cf62 d4bd 443c 02bc 0674 b2bd
000003b0: 329d 1ebd c80b e03c 6d64 b3bd 588a 6cbd
000003c0: 662c 883c 07f8 f3bc e161 123c 8491 683c
000003d0: 8bcf 803d 62bd 5ebd 02e9 40bb e1aa 5b3d
000003e0: 5bb4 b33d 59e4 90bc 1857 80bd f6c2 a03c
000003f0: 4ea7 1f3d 7caa 8dbd b3e0 9cbd 0993 623d
-0.07008327 -0.026466625 0.026674926 -0.07131339 0.040370893 0.041998036 0.054836527 -0.04722231
0.08845775 -0.046808355 0.07920555 -0.08783222 -0.08085827 0.054919325 0.016220013 0.007576787
-0.039917935 -0.049711395 -0.018907554 -0.08643263 0.007486144 0.0051797503 0.0025231857 0.04366464
0.08320799 0.020939376 -0.030797468 -0.038737815 -0.051629215 -0.061323952 -0.00951407 -0.023045698
0.036114153 -0.037387732 0.04157332 -0.08451704 0.0042660935 0.07677763 0.088366166 -0.05248241
0.012914434 0.005574353 -0.039094355 -0.036669772 0.031991515 -0.07096128 0.012398761 0.035139706
-0.040066376 0.055259597 -0.0028929336 0.0431832 0.09013348 -0.022288455 0.0393691 -0.041771296
-0.016710242 -0.07727248 0.022228425 -0.055674843 0.024000937 0.018808102 0.082199305 -0.022203662
0.0066924645 -0.08471515 -0.05272777 0.036171306 0.018297702 -0.08907978 -0.029229047 0.02635687
-0.016812546 0.060465805 0.0042154174 0.030483847 0.03244809 -0.033371422 0.03466063 0.05263929
-0.003001872 0.0246006 0.004071633 0.06350365 -0.038481206 -0.061511863 0.04464927 -0.080758646
-0.004584541 -0.03761163 0.0032676863 -0.08221937 0.04393349 0.086952314 0.0045484276 0.008506506
0.09025301 -0.054635625 0.0039707497 -0.042511087 -0.007851218 0.028541204 0.004128991 -0.018448299
-0.0909062 0.0051058815 -0.0038607994 0.006672782 0.06700764 0.077966996 -0.06578667 -0.0067099542
-0.044314828 -0.08404764 -0.06472794 0.077134974 0.04164002 0.049285036 0.049236868 -0.07290147
0.016466295 0.07897575 -0.05438906 0.070198864 0.027238745 0.06966292 -0.04479532 0.030123489
-0.08644285 -0.027678585 0.018411713 0.020191837 0.065613605 0.07720204 0.06784119 0.07154781
0.051437184 -0.016788715 -0.07493012 -0.04441971 -0.0088890195 -0.04367432 0.050011788 0.030404331
0.0043002497 0.043586593 0.06933178 0.021818293 -0.081602424 -0.051541332 0.042436484 0.034743637
0.031839915 -0.102799915 -0.07370088 0.059184156 0.049031712 -0.09097927 0.04293068 -0.08979413
0.054078486 0.021858793 0.083540745 -0.130775 -0.083255365 0.05718515 0.07462679 0.034979243
0.05011164 -0.10600848 0.05614814 -0.08473089 0.012692167 -0.061192676 -0.031240655 0.042911723
-0.039976563 0.014555579 -0.0893408 -0.09391085 0.040367886 -0.035317585 -0.033562373 -0.006213385
-0.07032358 -0.06308607 0.08227392 0.06198293 0.023410566 -0.029603656 0.097836904 -0.011322218
-0.060678784 0.029933894 0.11548777 -0.08641835 -0.120936684 0.00695167 0.074749514 -0.06048917
0.028275525 0.053456783 0.011983826 0.026096802 0.08102727 0.04386191 -0.064741515 -0.015152292
0.047520153 0.08955071 -0.09680841 0.047168612 -0.023065586 -0.051711243 0.037067935 -0.063529275
0.057078615 -0.06107555 -0.069782384 -0.011463226 -0.036030263 0.046124626 0.0007020538 0.10468211
0.029672801 -0.029701414 0.075049795 0.010974529 0.018675264 -0.0005489115 0.008836575 -0.029330753
-0.016301854 -0.10370409 -0.007948939 -0.08713536 -0.038724132 0.027349368 -0.08759389 -0.057749122
0.016622733 -0.029781355 0.008934469 0.01419485 0.06289586 -0.05437983 -0.0029435758 0.05362976
0.087746345 -0.01768701 -0.06266612 0.019624215 0.038977914 -0.06917283 -0.076600455 0.055316005

bias f4 [128]
00000000: 7718 803d 2d87 cfbc 63fa 993a d03f 1d3d
00000010: 5d1f 18bb 983e 98bd 8136 61bd 1638 953c
00000020: 4270 093d 26a5 723d 127a ec3c cf7e b73d
00000030: d6e4 3b3d be36 323d 22c7 aa3d 9dbc 40bd
00000040: adf3 453d 4ce2 f2bc 4707 933c 9652 143d
00000050: a4c5 a6bd e474 ac3d f737 3b3d d1ae 19bd
00000060: 3d05 0ebd e749 c5bc bdb6 f23c 69e0 aabc
00000070: 7f4c b73c 9530 d2bc 9dc6 203c cad1 953d
00000080: cae2 9abd 14ac 09bc a17e 2d3d d1fc 2f3d
00000090: 225a b73c 870d 3b3d 531c 8ebd ff3c 75bd
000000a0: e3bb b8bd d399 943d 982a 793d 1565 703d
000000b0: d239 8e3d fa3c debc f187 a83d 3680 cd3a
000000c0: c39e 963c fedb d8bc 4301 c3bc 4dfd 44bd
000000d0: 6060 173d 9b1f 8f3d 8b0b 2ebd cce8 4abd
000000e0: 4521 88bc 280f adbd 0ad9 7a3b 1c19 f43c
000000f0: cf22 91bc 0f67 a1b9 3355 613d f6a3 8cbd
00000100: b286 0bbd dd88 b7bc 8cd6 ec3c 6ada dc3c
00000110: 1482 82bd cc04 1abc 745b 96bd 05f8 6ebd
00000120: 8f6b f23c b0d6 5cbd 26e8 a03d f317 6abd
00000130: 670b a3bc aff9 fa3c 1c11 dc3c 754d ca3c
00000140: 41b4 e9ba 7601 63bc a0e0 2ebd b0d9 ba3d
00000150: 8fa0 953d e1a2 49bd 6f5b 503d 5c45 f03c
00000160: 32cf 8ebd 1971 60bd df24 133c 9f49 4bbd
00000170: 3d1c 9fbc 3f90 323b 4bf7 8dbd 4b00 57bd
00000180: 866a b03c 1609 0dbc 040f 363d dfe0 6a3d
00000190: 8e95 803d 9630 0abd 8916 d93b d72b e6bc
000001a0: 4f00 fa3c 9c29 a4bd 05c0 923d c1ba 483d
000001b0: 4f04 3abc 56c3 5cbd 6006 c23d cb07 9a3d
000001c0: e3c4 c13d c1ba 17bd 3407 9abd 0993 a1bd
000001d0: 2aea a43b 4a50 9939 bdc0 9e3d a8c4 3fbd
000001e0: 913c aebd 6f71 41bc 8d51 783c 2032 ac3c
000001f0: 6139 f3bc 4a10 81bd c74a babd 37e2 be3d
0.06254666 -0.025333012 0.0011747595 0.038390934 -0.0023212053 -0.07433814 -0.05498362 0.01821522
0.033554323 0.05923953 0.028866801 0.08959734 0.04587253 0.043509237 0.08338763 -0.047054876
0.04832809 -0.029648922 0.017947806 0.036211573 -0.08143166 0.084207326 0.04570767 -0.037520234
-0.034672964 -0.024083091 0.029628152 -0.02085896 0.022375343 -0.025657931 0.009812978 0.07315405
-0.07562788 -0.008402843 0.04235709 0.042965714 0.022381846 0.045667198 -0.06938996 -0.059872624
-0.090202115 0.07255902 0.060831636 0.05869015 0.06944622 -0.027128685 0.08229054 0.0015678469
0.01838625 -0.026472088 -0.023804313 -0.04809313 0.036957145 0.0698845 -0.042491477 -0.04953842
-0.016617427 -0.084501565 0.0038276338 0.02979713 -0.017716793 -0.00030785098 0.055012893 -0.068672106
-0.034064002 -0.022404129 0.028910898 0.026959617 -0.06372467 -0.009400558 -0.07341662 -0.058342
0.029592304 -0.05391568 0.07856779 -0.057151746 -0.019902898 0.030636637 0.026863627 0.024695138
-0.0017830209 -0.013855329 -0.042694688 0.09123552 0.07306015 -0.0492276 0.050868448 0.029329948
-0.06973113 -0.05479536 0.008980959 -0.049630757 -0.019422645 0.0027246622 -0.06931933 -0.052490514
0.02153517 -0.008608123 0.044447914 0.05734336 0.06278525 -0.03373774 0.006625001 -0.028097076
0.030517725 -0.08015749 0.07165531 0.049006227 -0.011353566 -0.053897224 0.09473872 0.07521018
0.09461381 -0.037043337 -0.07520905 -0.07889373 0.0050327973 0.00029242254 0.07751606 -0.046818405
-0.08507646 -0.01180683 0.015156162 0.021019995 -0.029690446 -0.06301935 -0.09096294 0.09320491

weight f4 [128, 128]
00000000: 6c25 47bc 3be3 b13c b65f 5c3d ccc6 60bd
00000010: 42a4 9cbd 63e8 c4bd aba4 363c 7160 863d
00000020: bbdd 8a3d d3bb 6abd 9569 e23a c4cc aa37
00000030: 33c8 173d 91b4 8fbd 0b38 a43d f3a0 7ebc
00000040: 745a 933d 9f53 95bd 06d1 35bd 6008 42bd
00000050: 8fea c63b fdee 59bd e08d 683d a562 a73d
00000060: 67bc 823d f07c 89bd 9ad9 6a3b 9b11 00bd
00000070: eda5 3abd f2c5 84bd 5d54 ca3c 4d4c 1439
00000080: a17e 41bd ed22 113d 7358 913d cbad 1e3c
00000090: 28f5 e73d 48fc 65bd 3177 db3d bed2 f93c
000000a0: 2cd9 a23d 8feb 803c 700f 9bbb a5e2 27bd
000000b0: 1ab1 e4bc c46c cc3c f3c5 ab3a 0bf2 843d
000000c0: 85b5 e7bc dd9d 28bd 29b4 4dbd bd30 973c
000000d0: 8822 e13d 21ac b53c f550 9abd 4f16 223d
000000e0: 27a6 963c 9403 513d 4340 0a3d d38c b13d
000000f0: c281 bf3d bcd0 6fbd 369d 823d ef0b 07bd
00000100: 2c0b c1bd f0fd b73d f1bd 0fbd 5940 eb3a
00000110: 6e01 c53d fb87 1cbd 2ce8 a53d 7c67 1b3d
00000120: fe68 b03b b937 c93c 64f5 12bd f4d1 afbc
00000130: 0da7 6ebd c627 893d bd9c bcbc bec3 b03d
00000140: 1dc3 1e3d 3c67 ea3c d3c8 ba3d e379 d83c
00000150: 3ecd 383d 1858 4fbc bd61 053d c44b 95bd
00000160: 9cd2 53bc d420 97bb 84bb 62bd 2f37 1abb
00000170: 1efc 823d 7274 883d 60e1 0ebc 5999 9cbb
00000180: 1fd8 33bd 7178 5abd 12bf 4e3c e4dd 24bd
00000190: 2153 84bd 6cc5 ff3b 04ce 73bd a75f 5e3c
000001a0: 0253 703d ca97 63bd dd0c 0c3d ed68 8abd
000001b0: 71f2 a4bd d51b bc3d aaa8 96bc 4f86 cd3d
000001c0: 3054 b73d f932 853d f837 2fbd 25cd 893c
000001d0: 7a59 5c3d 89c4 d53c 0ab4 023c 3d63 bf3d
000001e0: 7566 b13b 8bfa 1b3d 4c82 31bd 93f9 c8bc
000001f0: 66af 8c3d 4097 d7bc 0b65 343d 9c9c 43bd
00000200: 74a8 df3c 6258 54bd a7be d63c fe43 803c
00000210: a966 12bc 9651 433d a0ad 273d 1876 933d
00000220: 3488 95bd 539f ccbb 2695 6d3d 82ee 893d
00000230: 181c 81bd fadc aabc 1fd1 0dbc ebdc 96bb
00000240: bc12 3e3d 6729 543d 620b 99bd 1b52 963c
00000250: 3006 75bd 54a3 903a fd66 bebb 75e3 c43c
00000260: 789a 19bb 40f7 9a3d fe04 83bd 1957 4a3d
00000270: 7c99 ce3d 5d80 a4bc d481 203d 425e 19bd
00000280: f065 11bd 69bf 0bbd 27c7 4e3d bd22 743d
00000290: 42fc 87bc bff1 7bbc 714e 5cbd 23b1 6c3d
000002a0: 11b7 543d e77a 06bc 8e26 39bd f226 6b3d
000002b0: 9c2d 51bd 8e5b 893d 5a4b 7ebd e965 313d
000002c0: 2a7f 3abd 0d20 8e3c 3ab4 b53d 1f60 993d
000002d0: b74d 60bd e574 8bbd bac1 013d a15b 25bd
000002e0: 966d baba 9f52 943d 4b61 5abd 7a8d 7abd
000002f0: 24a0 66bd 7e2f 1eba 50fd 64bc 0cf6 1d3d
00000300: 7274 28bd a2e2 19bd d418 c6bc 32de 0c3d
00000310: 26ba af3d 73b6 8bbd 4908 393d 766e 913d
00000320: e643 d8bd 5082 0bbd 9dfb 693d ef8f afbc
00000330: bdfb b13c ea53 7c3c 02b3 82bd 3009 753d
00000340: 5fe9 b63c b1ce 35bd 97c9 c93c d37b eebc
00000350: 1d3a 01bd 3fd6 dabb 6107 89bd f82f 97bd
00000360: 02a3 053c da25 44bd 1174 2a3d 479a a63d
00000370: 63f1 003c 1a4a 81bd 304d a8bd 6ae2 833d
00000380: 27ce c03c f289 8fbd 0b47 6ebd b3d4 0b3d
00000390: 9445 253c 1cea 523d 0efc b63d 9a15 a2bc
000003a0: c9ff 95bc 7f52 a7bd 39e1 b33d e103 233c
000003b0: 3d3d 97bc a136 61bb 4563 58bd 9bdf 7cbb
000003c0: 8335 983d a739 353d dff9 e93c 4e0f c5bc
000003d0: bf96 553d f98f be3d 2865 7dbd fb35 42bd
000003e0: 1381 b13d e3fa a03d f611 a43c 047c b33d
000003f0: 4adb 2d3c 398a a73c 324f 5b3d 0d2c ad3d
-0.012154918 0.021714797 0.053802215 -0.054877087 -0.07648517 -0.09614637 0.011147658 0.065613635
0.06780573 -0.05730803 0.0017273898 2.036093e-05 0.03705616 -0.07016862 0.08018502 -0.015541303
0.07194987 -0.0729134 -0.044388793 -0.04737127 0.006070442 -0.053206433 0.056775928 0.08173112
0.06383591 -0.06713283 0.0035835267 -0.03126679 -0.045568395 -0.064830676 0.02469843 0.00014142804
-0.047239903 0.0354337 0.070969485 0.00968499 0.11326057 -0.056148797 0.10716093 0.030495998
0.079515785 0.015737323 -0.004732065 -0.04098763 -0.02791648 0.024954207 0.0013105258 0.064914785
-0.028284797 -0.041166175 -0.050220642 0.018455857 0.109929144 0.022176804 -0.075349726 0.039572056
0.018389774 0.051028803 0.03375269 0.08669438 0.09350921 -0.058548674 0.06377642 -0.032970365
-0.09425959 0.089839816 -0.03509325 0.0017948254 0.09619413 -0.03821562 0.08100924 0.037940487
0.00538361 0.024562703 -0.035878554 -0.021462418 -0.05826478 0.06697039 -0.023023957 0.08631085
0.038760293 0.02861368 0.091203354 0.026425308 0.04511761 -0.0126552805 0.032563914 -0.07289842
-0.012928631 -0.0046120677 -0.05535461 -0.0023531427 0.06395744 0.06662835 -0.008720726 -0.0047790227
-0.04390728 -0.053337518 0.012618797 -0.040250674 -0.06461168 0.007805517 -0.059522644 0.01357261
0.058672912 -0.05556468 0.034191955 -0.06758294 -0.080540545 0.09184996 -0.018390972 0.10035383
0.08951604 0.06503863 -0.042777985 0.016821453 0.05379627 0.026094692 0.007977495 0.093451
0.005413825 0.038080733 -0.04333715 -0.024533069 0.06869392 -0.026317239 0.044041675 -0.047756776
0.027302004 -0.0518421 0.026213957 0.015657421 -0.008935609 0.04768523 0.040937066 0.07200259
-0.07301369 -0.006244579 0.058003567 0.06734945 -0.063041866 -0.020857323 -0.008655815 -0.004603972
0.046404585 0.051797297 -0.07472874 0.018349698 -0.059820354 0.0011035004 -0.005810617 0.024034241
-0.0023438018 0.075666904 -0.063974366 0.04939947 0.100878686 -0.02008074 0.039186314 -0.037443407
-0.035497606 -0.03411809 0.050482895 0.05960344 -0.016599778 -0.015377461 -0.053785745 0.05778612
0.0519324 -0.008208013 -0.045202784 0.057410188 -0.051068887 0.06706916 -0.06208358 0.04331008
-0.04553143 0.017349267 0.08872266 0.07489037 -0.054761615 -0.06809405 0.031678893 -0.040370587
-0.0014223333 0.07242321 -0.053315442 -0.06117008 -0.056305066 -0.00060342986 -0.01397641 0.038564727
-0.041126676 -0.03756965 -0.02418176 0.03439159 0.08580427 -0.06821909 0.045173917 0.07101147
-0.105598256 -0.034059823 0.057124723 -0.021430938 0.021726483 0.015400866 -0.06381799 0.059823215
0.022328077 -0.04438657 0.024632258 -0.029111778 -0.03154956 -0.006678372 -0.066908605 -0.07382196
0.00815654 -0.04788766 0.041614596 0.08134895 0.007870051 -0.06312962 -0.08217847 0.064396694
0.023535801 -0.07008733 -0.05817322 0.034138393 0.0100873895 0.051492795 0.08934794 -0.019785691
-0.018310444 -0.08170032 0.08783192 0.009949655 -0.018461818 -0.0034364837 -0.052829046 -0.0038585428
0.074320816 0.044244435 0.02856153 -0.02405515 0.052145716 0.09304804 -0.06186405 -0.04741476
0.08667197 0.07860353 0.020028096 0.087638885 0.010611365 0.020451652 0.053542323 0.08455668

bias f4 [128]
00000000: d3b9 833d ade1 39bc 32e8 b2bd 1faf 503c
00000010: 13e0 833b d124 61ba b184 973c 5e3a 77bd
00000020: 55e0 72bd 5711 8d3d c2f2 1fbc e68b 11bd
00000030: d614 f43b 64a2 9cbd a274 ccbb 8067 533d
00000040: ee47 0d3d 4a37 80bd f51c d13c 957c 5c3d
00000050: 77f4 823d 5f46 dbbc 586c 0cbd 1448 16bd
00000060: bb74 0a3d 207e b23d 9d34 2fbd 8a9c 2b3d
00000070: f465 293d 547c 153b 0d1c 913d 5b2c 28bc
00000080: b593 8fbc c7e3 43bd 8e82 a33d 78fd 783d
00000090: d4e7 a33d 0c79 55bd c9e8 97bc 95cc bd3c
000000a0: a24b 99bd a06d 91bd acc9 04bd 9738 74bd
000000b0: 08a5 bc3d 11c1 883d 0d8c 09bd 78f9 b0bd
000000c0: 8c2c 3bbd c631 63bc e128 86bd f4c1 39bd
000000d0: a844 753d ab1e efbc bad3 14bd 14ea c0bc
000000e0: 5ba8 d73d 25ad 743d 0af1 be3c 55b3 883d
000000f0: 4dc2 29bc aa41 c6bc 7585 b0bc 2833 823c
00000100: 0889 fcbc bb73 a73d ae1a 173d 3b48 cd3d
00000110: 8312 6ebd 2944 59bd e92e 3bbd 5056 443b
00000120: 4a25 663c d521 793d d4fc 95bd e6eb 33bd
00000130: e1ef 6f3d f2ab 2dbc 5db5 8fbd df2a a3bd
00000140: d28a a83d bf4f a93b 35d5 5e3d 031c b1bd
00000150: 8f3f af3b 281d 063d 56e6 3fbd 7f3b 243d
00000160: 8f3b 80bd 83f7 8fbd 6f42 393c de9a 6f3d
00000170: 9819 3c3c 1eff 86bc d1a7 3e3d c4f1 a13d
00000180: 049c 46bc e426 4a3d eb05 1cbd 936c 78bd
00000190: 5c73 903c 9d6d 26bd 037b 393d 3cc2 53bc
000001a0: 1419 60b9 82be 43bd cead 4abc 471b 9a3c
000001b0: 84a8 6f3d 8a5f 66bd 796d 54bc 40e7 45bd
000001c0: 392d 53b9 6bd5 4ebc 34be 313d ad72 2f3c
000001d0: 89f5 373d d708 6c3d 44f6 81bd 8d8d ea3c
000001e0: 3f63 8ebc 70a9 bbb9 24db c03b e3cd 7e3d
000001f0: e93e b0bc 7865 9bbd ae22 473c 796e f3bc
0.064319275 -0.011345309 -0.08735694 0.012737065 0.0040245145 -0.0008588555 0.01849589 -0.060358398
-0.05929597 0.06888073 -0.009762468 -0.03553381 0.007448773 -0.07648161 -0.0062394897 0.051612377
0.034492426 -0.062605456 0.025526503 0.05382975 0.06394284 -0.026766954 -0.034283012 -0.036689833
0.03380273 0.08715463 -0.042774785 0.041897334 0.041356996 0.00228097 0.070854284 -0.010264481
-0.017526487 -0.047824647 0.07983886 0.0607886 0.08003202 -0.052117392 -0.018543618 0.023168841
-0.07485129 -0.071009874 -0.03241889 -0.05962428 0.09211165 0.066774495 -0.03358083 -0.086413324
-0.04569678 -0.013866847 -0.06550766 -0.045350984 0.05987993 -0.029189428 -0.03633473 -0.023549117
0.10530158 0.059735436 0.023308296 0.0667483 -0.010361266 -0.024201233 -0.021548012 0.015893534
-0.03082706 0.08176371 0.036890678 0.100235425 -0.058123123 -0.05304352 -0.045699034 0.0029958673
0.014046976 0.06082328 -0.07323614 -0.043926142 0.058578376 -0.010600077 -0.07017014 -0.079671614
0.08229603 0.005166977 0.05440255 -0.08647921 0.005348153 0.03274265 -0.046850525 0.040095802
-0.0626136 -0.07029631 0.011307343 0.058497302 0.011480711 -0.016479071 0.04654676 0.07907441
-0.012122158 0.049353495 -0.03809158 -0.06065042 0.017633133 -0.04063188 0.04528333 -0.012924727
-0.00021371647 -0.047789104 -0.01237054 0.018811835 0.05851032 -0.056243457 -0.012965553 -0.04831624
-0.00020139375 -0.012624125 0.043394282 0.010708493 0.044911895 0.057625618 -0.063457996 0.02863195
-0.017381309 -0.0003579366 0.0058854986 0.062208068 -0.021514373 -0.07587713 0.012154264 -0.029715763

weight f4 [128, 128]
00000000: e82c e638 c9a4 82bd 821a 06bd 4454 fa3b
00000010: 66fc c83d cee0 afbd b032 843d da3b e63c
00000020: ae3f 9cbd 369c 993d 3f0d 82bd c79f 4cbc
00000030: 5c0a 023c 66bc 5e3d a4da c4bb 8d7d b93d
00000040: b364 b5bc bda2 46bd a46d 4abd 9e6b 363b
00000050: be24 6cbd 68a7 7a3d bb52 75bd 3a85 73bc
00000060: 46f2 5cbc 4c77 833d 38a4 233d 4747 723b
00000070: f8f6 a13b 56da 82bc 26c5 06bd 8474 a53d
00000080: 0eb5 65bd eb39 c83d b713 9cbd 5ca4 3a3a
00000090: ea79 14bd b472 a53d eaee 1cbc 6524 983c
000000a0: 0e73 933d ec48 40bc bc0a 8fbd b8c9 6b3d
000000b0: eaa6 a33c ea28 6b3b 7fbb 5bbd 863c 773c
000000c0: 8c0f 413d 3c8e 3ebd fa3e a8bc 9b6f 123d
000000d0: a143 bfbd 5763 9f3d ce63 b13d 86dd a0bc
000000e0: c5c6 df3c 31ab 3ebd c646 953c 9709 46bd
000000f0: 595f 293d 07ff 6e3d ba3b 71bd 019f 84bd
00000100: fe62 643d 1d83 d03c 0c1a 8dbd b48d 76bc
00000110: 96c2 28bd 2091 023c bc9d 49bd 24ca 553d
00000120: 7826 c1bc 7f9f bf3d 637e ddbc 0284 4bbd
00000130: d54e c1bc 1036 b13d 3e7f 503d 681c 91ba
00000140: 45da 3ebd cf7d 39bc 5926 a63d e145 b33c
00000150: a806 9b3d a63c 993d af82 06bd 8339 acbd
00000160: 8c71 b03d ee8f d0bc 1f80 f83c c8d1 4bbd
00000170: 1559 923c f5e4 5ebc d655 75bd f9f0 603d
00000180: e3b6 b5bc 580c 4ebd 4fde 78bd c2f4 c13d
00000190: 841c b33d b4f1 b23d d24c b63d cc84 2bbd
000001a0: 6d79 aebd eac5 973d 3bbf 78bd d16d 64bc
000001b0: 436b 2f3b c04d 1ebd 96ed 16bd 5b01 bfbc
000001c0: 11de 903d cdab bc3d b8b7 5bbc d171 88bd
000001d0: d124 15bd 0111 47bc 92b3 7f3b 47d5 66bd
000001e0: eea8 b63d 5c02 e5bc 59a9 3dbd 8d34 acbd
000001f0: 7b73 77bd 889e d23b 3473 4fbd f1e2 79bd
00000200: 3e0b 1d3d 2a89 863d f600 0b3d f035 9a3d
00000210: 4154 0c3b fc47 37bd 1ec3 973c 6916 343d
00000220: fcdb 10bd e690 043c 20bb a63d 3d8e 44bd
00000230: d688 853d c196 0d3d 0cc3 35bd a491 4a3d
00000240: 70b9 333d e42e 1d3c 62fd d9bc 3979 3bbd
00000250: 8a50 573c f0d4 a5bd 5b87 cc3b 331d f1bc
00000260: c6cf 233c e67b 863d f965 9c3d 349d 453d
00000270: 99bc abbd 049e 7f3d e738 7d3d c374 8abd
00000280: 983e ac3d a2e7 90bd fa4a 803d 2c3a 6b3d
00000290: 3e23 babd c519 003b 0d7e 30bd 28a7 90bd
000002a0: e98a bf3c 0ede 5cbd 3e06 69bd c52e fc3c
000002b0: 53b5 67bc b510 aa3c f339 11bd b39e 30bd
000002c0: 8c91 893d 44d8 1c3d a7f5 93bd 897c 5a3a
000002d0: 7099 9c3d b6e4 38bd aca4 80bd 0092 823d
000002e0: 8238 eb3d 4431 b93c 5ce9 533d 339b 7abd
000002f0: c264 15bd d907 c33d 4ebe 5cbd 003e 9dbb
00000300: 401e 74bd ae4d f1bc 832d 2d3d 0df5 a1bd
00000310: f95d b73d e59e c43b 7c8d c4bd 120b 98bd
00000320: 84dc 86bd ed16 5e3d 54dc 7b3d 1a3c 373d
00000330: d834 2f3b f1c9 8abc 915b 32bd 060e 783d
00000340: 5742 e63c 5693 8f3c 386e 3d3d cd69 a43d
00000350: 0621 7cbd 3b0d f6bc ff1c 31bc aadf b5bc
00000360: 0ce2 1dbc 3d77 d23d d969 323d 4c71 21bd
00000370: ff93 acbd 191d 21bb b09b 463d 323d b63d
00000380: ecfd 7abd ff77 303d 3e68 b1bd 2daf 55bb
00000390: cebb d5bd 051c 4bbd 7ebe 35bd e43f 9cbd
000003a0: a00e 20bd e34a fb3c 58a4 6bbd 8239 a93a
000003b0: 3359 debd 2dbd 183c 77e9 153d 1ea7 f23b
000003c0: ef41 373d 927c 2cbd fe95 363d bb1c 52bd
000003d0: a9b0 613d 7672 16bd 7577 713d 4e1b 82bc
000003e0: a7ef 8c3c 981c 82bb 7515 8a3d 7dad 9c3c
000003f0: 043c 323d 3163 343d 0d30 c83c 09fe 11bd
0.00010975619 -0.063790865 -0.032740124 0.00763944 0.09813766 -0.085878 0.064549804 0.028104711
-0.076293334 0.07500498 -0.06350183 -0.012489266 0.00793704 0.05437889 -0.0060075093 0.0905715
-0.022142744 -0.048495043 -0.049420968 0.002783514 -0.057652228 0.061194807 -0.05989335 -0.014863307
-0.013485497 0.064192384 0.039951533 0.0036968754 0.004942771 -0.015973251 -0.03290286 0.08078864
-0.05608087 0.09776672 -0.07620948 0.00071198284 -0.03624908 0.080785185 -0.009578446 0.018572042
0.07199679 -0.011736136 -0.06984469 0.05756542 0.019977052 0.003588254 -0.053645607 0.0150901135
0.047133967 -0.046522364 -0.020537842 0.035750967 -0.09339071 0.077826194 0.08661614 -0.01963688
0.02731646 -0.04654998 0.018222224 -0.04834899 0.041350696 0.05834868 -0.05889485 -0.0647564
0.05575847 0.025453145 -0.06889734 -0.015048433 -0.041201197 0.007969171 -0.049222693 0.05219473
-0.023577914 0.09356593 -0.027037805 -0.04968644 -0.02359716 0.0865289 0.050902598 -0.0011071088
-0.046594877 -0.011321499 0.08112783 0.021883907 0.07569629 0.07482271 -0.032839473 -0.08409407
0.08615407 -0.025459256 0.03033453 -0.04976061 0.017864743 -0.013604392 -0.059896313 0.05491731
-0.022181934 -0.05030474 -0.060758885 0.09470512 0.08745673 0.087375075 0.08901371 -0.04187469
-0.08519254 0.07410796 -0.060729247 -0.013942198 0.0026766814 -0.038648367 -0.036847673 -0.023316076
0.07073606 0.09212456 -0.013410501 -0.06662334 -0.036412064 -0.01215005 0.0039016944 -0.05635574
0.089189395 -0.027955227 -0.04630408 -0.08408461 -0.060412865 0.00642759 -0.050646976 -0.061007444
0.0383408 0.06569131 0.033936463 0.07529819 0.0021412524 -0.044746384 0.018525656 0.043966684
-0.035366043 0.008091187 0.0814116 -0.04798721 0.0652024 0.0345676 -0.044375464 0.0494553
0.04387802 0.009593699 -0.02661008 -0.045769904 0.013141761 -0.08097255 0.0062417216 -0.029432869
0.0099982675 0.065666005 0.07636637 0.048245624 -0.083855815 0.062406555 0.061821844 -0.06760552
0.08410376 -0.070754305 0.06264301 0.057428524 -0.09088753 0.001954661 -0.04308896 -0.070631325
0.023381667 -0.053922705 -0.05689072 0.03078402 -0.014142352 0.02075992 -0.035455655 -0.043120097
0.06717214 0.038292184 -0.07224589 0.0008334597 0.076464534 -0.04513999 -0.06281409 0.063755035
0.114853874 0.0226065 0.05173622 -0.061183166 -0.036473043 0.09522981 -0.053892426 -0.0047986507
-0.05959916 -0.029455986 0.04227973 -0.07908068 0.08953471 0.006000387 -0.095972985 -0.074239865
-0.06585029 0.054221082 0.06148942 0.04473505 0.0026734378 -0.016941996 -0.043544356 0.06056025
0.028107805 0.01752631 0.04624769 0.080279924 -0.06155493 -0.030035606 -0.010810136 -0.022201378
-0.009636413 0.10276649 0.043557975 -0.03941469 -0.084266655 -0.0024583994 0.04848832 0.08898391
-0.061277315 0.043083187 -0.08662461 -0.0032605634 -0.104362115 -0.04958727 -0.04437112 -0.07629374
-0.039076447 0.030675357 -0.057529777 0.0012910815 -0.10856857 0.009322447 0.036599603 0.007405176
0.044740614 -0.042110987 0.044576637 -0.05129693 0.055100117 -0.036730252 0.058951814 -0.01588216
0.017204119 -0.003970694 0.06742374 0.019125694 0.043514267 0.04403991 0.024436975 -0.035642657

bias f4 [128]
00000000: 4154 b53d a946 313d f861 ffbc 688d 713d
00000010: 3d36 bb3c 2cb8 3a39 f389 dcbb dc1c 62bd
00000020: 662b 893d 8791 2ebc 9e58 1f3d 3000 6d3d
00000030: 383c 973d 2fb2 8b3d 80ed 963b 97d6 b0bc
00000040: 91ea 2a3d d16f 26bd e2ed 84bd b454 f33b
00000050: 8ba6 83bd 4565 96bc f387 5fbd 83bb 873c
00000060: c561 adbd 9931 1bbd 5a08 b63d 9440 3b3d
00000070: 2c6c 91bc 48f6 90bd df1d 08bd 9757 a1bd
00000080: 6659 dc39 420f b43d 5d03 003d 70c7 d53c
00000090: 85b5 b83c 8bbd 8dbd 1908 a1bd d3f2 343d
000000a0: a3f7 bdbd 2aa3 36bc 208d 813d dfea c53c
000000b0: adfd 803d 9c65 b83d d074 99bd dc8b 523d
000000c0: ae83 9abc 35df 64bc 3132 9dbd 29e0 af3d
000000d0: 1226 093b 5c78 6bbd 817c 453d 20dd bbbd
000000e0: c1c5 cdbd 3d2b 53bc ccbc b73d 5cce 85bc
000000f0: 2ae9 893d 23d9 2cbd cd99 193d f519 953d
00000100: 7dd6 04bd 39b5 433a 6a24 36bd 7a0f cd3c
00000110: befd c93c c7e9 ccbc 2462 44bc e87b c43c
00000120: ac46 e0bc d8ec 743d 6cd8 043a b8f1 8d3d
00000130: d6fb 94bd d537 61bd 8e3a 163d 9909 8a3d
00000140: d8bb 7e3d b930 2d3b 8f96 ac3d 0113 f2bc
00000150: da94 79bd 3032 47bd 6076 903d 737b 1dbd
00000160: 4cae 083b 96ed 273d aa66 8cbc 9ea8 833d
00000170: b3e3 1b3d 4448 223d 44c3 ce3c 1de8 19bd
00000180: 2c40 683c b3e7 1ebd 3bcd 6ebc 3f63 a13d
00000190: a7e8 1cbc 6f9b 883d b53d 18bc 2a15 4c3d
000001a0: efa7 d13b 1457 813d 263c ba3c 54e9 d3bc
000001b0: fd00 513d a2c4 49bd 333a 483d 5eb3 91bd
000001c0: 8c82 d43c f8b0 36bd 3fc3 023d fe01 babd
000001d0: e418 403c 9644 24bd 92ee 5fbc 1205 4dbd
000001e0: f672 113b d1fb 43bc afc8 9dbd 3874 bb3d
000001f0: 95f0 643d 2ba0 05bd 4e1e 933d e14c 99bc
0.08853961 0.043280277 -0.031174645 0.058972746 0.022853011 0.00017806952 -0.006730312 -0.055203304
0.06697731 -0.010654814 0.03890287 0.057861507 0.07384533 0.06821095 0.004605949 -0.0215867
0.041727606 -0.04063398 -0.06490685 0.007425869 -0.0642825 -0.018358836 -0.05457301 0.016568905
-0.08465914 -0.037889097 0.08888312 0.045715883 -0.017751776 -0.070782244 -0.033231612 -0.078780346
0.00042028277 0.08791973 0.031253207 0.026096076 0.022547493 -0.06920918 -0.07862873 0.044176888
-0.092757486 -0.0111473 0.063257456 0.024159847 0.06298385 0.090037555 -0.07492983 0.05140291
-0.018861618 -0.013969232 -0.07675589 0.08587677 0.0020927233 -0.05748783 0.04821444 -0.091730356
-0.10047484 -0.012888727 0.08971557 -0.016333751 0.06733926 -0.042199265 0.03750019 0.072803415
-0.032431114 0.0007465664 -0.04446832 0.025031794 0.024657127 -0.025013817 -0.011986289 0.023984864
-0.027377449 0.059796184 0.000506765 0.0693087 -0.072745964 -0.054984886 0.036676936 0.06740112
0.06219086 0.0026426746 0.08427154 -0.029550077 -0.06093297 -0.048631847 0.07053828 -0.03844781
0.0020855842 0.040998064 -0.017138798 0.064286456 0.038058948 0.0396197 0.025239594 -0.037574876
0.014175456 -0.038795184 -0.014575298 0.07880258 -0.009576953 0.066702716 -0.009292056 0.04982487
0.006398193 0.06315437 0.02273376 -0.025868095 0.051026333 -0.04925979 0.048883628 -0.0711429
0.025941156 -0.044602364 0.031924482 -0.09082411 0.011724684 -0.04010447 -0.013667719 -0.050053664
0.0022193766 -0.011961893 -0.07704293 0.09153026 0.0558935 -0.03262345 0.071835145 -0.018713417

weight f4 [1, 128]
00000000: e585 913d 3e31 03bd 8f2e acbd 6d2b 713d
00000010: 1b32 b23d aba4 823d 396d 443d 58cf 6a3d
00000020: f0c2 bfbd 62f9 0c3d 36f4 dbbd bf6e 94bd
00000030: f349 0fbd 6281 ddbd a3de 8a3d d891 7d3b
00000040: e2be fc3c 12b2 8fbd b0fe 473c 117b a1bd
00000050: 78d4 4bbd ccdd debd d6f4 e93b fb8d ee3c
00000060: a0ea ebbc 6d63 9d3d 4123 d0bc ce9a bbbd
00000070: 6386 0cbd bc45 eb3c c86a 92bd 28f2 a93d
00000080: ec6f 2f3d f68f 9ebd 7c03 c0bc cdc3 8f3d
00000090: 448e c63d a3a6 97bd ba09 e1bc 5ff9 953d
000000a0: e438 2abd b0fa aabd c6ba e1bc 5e8b 873b
000000b0: c3ed d93c 5f6e 193d de09 54bc f2bc edbd
000000c0: 6567 563d bf54 b73d 2efd f93c 3d1f b1bc
000000d0: 2147 593d 8559 583c a362 8b3d 7501 32bd
000000e0: c73b 8ebd c754 853c ad6f 21bd d1ae 873d
000000f0: dd58 47bd 757b 35bc c844 b0bd 44a2 3cbd
00000100: aace 68bd 369a 88bd b7d6 8cbd 1c28 93bc
00000110: 71be a63d b6a9 d0bd 8996 09bd d708 b3bd
00000120: e433 a23d 18c9 6b3d 3b97 3ebd 7c3d 3dbd
00000130: 386c 61bd ae19 0f3d b7be 8fbb c8f8 a53d
00000140: 8d61 5cbd 79f0 4e3d 4f9a ccbd 667b 1ebc
00000150: 1682 723d d8a0 933d 6ccd 833d 5de1 89bc
00000160: 06c4 06bd 6ed1 82bd 41c2 be3d b9da 963d
00000170: d82c bd3d 8b94 dfbd eff7 a03d fcc8 3cbd
00000180: 3212 96bd 4cac 163d 2b07 9dbd 4f79 c83d
00000190: 7613 673d 6eeb 873d bb5d 4a3d 2bb4 b0bd
000001a0: 8f98 683d e29b b73d fb28 6e3c 3535 c8bd
000001b0: bd9f ae3d 95b6 a0bd 76ec 483d f1b4 d83c
000001c0: 02df 8d3d f0bc 34bb 308e 30bd 926e 8ebd
000001d0: a435 98bd 29a6 963c 9abc f9bc 2a6a b6bc
000001e0: d51b 833d 91be 34bc a9bc dc3b b397 43bd
000001f0: dfad b03d e1bf 1a3c 2aca 6e3c 4544 e03c
0.071056165 -0.032029383 -0.08407318 0.058879305 0.08700963 0.06379064 0.047955725 0.057326645
-0.09363353 0.034417517 -0.10739939 -0.07247686 -0.034982633 -0.108156934 0.06780746 0.0038691666
0.030852739 -0.07016386 0.012206718 -0.07884801 -0.049763173 -0.10882148 0.0071397824 0.029120436
-0.028798401 0.076849796 -0.025407435 -0.09160386 -0.03430785 0.028719775 -0.07149273 0.08298141
0.042831346 -0.07742302 -0.023439161 0.07019768 0.09695104 -0.0740483 -0.027470458 0.073229544
-0.04155816 -0.08348596 -0.02755488 0.004136487 0.026602631 0.037458774 -0.012941806 -0.11608304
0.0523447 0.08951711 0.030516233 -0.02162134 0.05304635 0.013204937 0.06805923 -0.04345842
-0.069449954 0.016275777 -0.039413143 0.066251405 -0.04866873 -0.011076798 -0.08606869 -0.046053186
-0.056837715 -0.066700384 -0.06876891 -0.017963462 0.081417926 -0.1018862 -0.033590827 -0.087419204
0.079200536 0.057564825 -0.046530943 -0.046201214 -0.055034846 0.0349366 -0.0043867487 0.08104092
-0.05380397 0.0505223 -0.099903695 -0.009672975 0.05920609 0.07208413 0.064356655 -0.016831094
-0.032901786 -0.06387602 0.09314395 0.07365937 0.09237069 -0.10917004 0.078597896 -0.04609011
-0.07327689 0.03678541 -0.07667383 0.09788763 0.056415044 0.066367015 0.049405795 -0.08628114
0.056786116 0.08965279 0.014536138 -0.097757734 0.085265614 -0.07847325 0.04905363 0.026453467
0.06927301 -0.0027578436 -0.04310435 -0.06954683 -0.07432106 0.018389778 -0.03048544 -0.02226742
0.06401793 -0.011031763 0.006736357 -0.047752094 0.08626913 0.009445162 0.014574567 0.027376303
