Dry fermentation prediction and optimization system/predictor_percolate_tank/Predictor_Percolate Tank Biogas Production/models/NeuralNetTorch_BAG_L1/S2F3/net.params (torch, 208391 bytes, 9 tensors)

weight f4 [128, 7]
0	0xbccc600d	-0.024948144
1	0x3e3aa3d1	0.18226553
2	0xbea9ce97	-0.33165428
3	0xbe996ac2	-0.29964262
4	0xbe2b1170	-0.1670587
5	0x3dfb926d	0.12283788
6	0xbced572f	-0.028972236
7	0x3e9d13e6	0.30679244
8	0xbd18c286	-0.037294887
9	0x3dc97d6f	0.09838378
10	0xbdfdc4ad	-0.123910286
11	0xbda39fba	-0.0798945
12	0xbeb13e88	-0.3461802
13	0xbe71ab08	-0.236004
14	0xbe208f53	-0.15679674
15	0x3b2994c2	0.002587602
16	0x3e05b7bd	0.13058372
17	0x3e6696b0	0.2251842
18	0xbe879788	-0.26482797
19	0xbe2e6f32	-0.17034605
20	0x3e00d7a4	0.1258226
21	0x3ea605fc	0.3242644
22	0xbdd5109d	-0.10403559
23	0x3e8a79d0	0.2704606
24	0xbd949123	-0.07254245
25	0x3ce301f0	0.027710885
26	0x3eae6c33	0.34066924
27	0xbeb3c8f0	-0.3511424
28	0xbe6e544d	-0.23274346
29	0xbdc51010	-0.09622204
30	0xbe345ed9	-0.17614307
31	0x3e9b5f8f	0.30346343
32	0xbe8a62e2	-0.27028567
33	0xbe33e44f	-0.17567562
34	0xbe848fb2	-0.2589088
35	0xbebb42f5	-0.36574522
36	0xbe7c1de9	-0.24620785
37	0x3e918fef	0.28430125
38	0x3e2a7207	0.1664506
39	0x3e395620	0.1809926
40	0x3c46fb88	0.012144931
41	0xbe52d06d	-0.2058732
42	0x3dbb136e	0.09134565
43	0xbeaf6ee9	-0.34264305
44	0xbe8dc3ab	-0.27688345
45	0xbe5e2b3b	-0.21696179
46	0x3e667e87	0.22509204
47	0x3e54e6ae	0.20791122
48	0xbe1d9708	-0.15389645
49	0xbc5aab83	-0.013346556
50	0x3e770528	0.2412306
51	0x3ec72bd8	0.38900638
52	0x3e1ea2cf	0.15491794
53	0x3d6188d3	0.055062126
54	0x3e799fa8	0.2437731
55	0xbe5f71dc	-0.21820778
56	0x3dd1f438	0.10251659
57	0xbe9f2a1d	-0.31086817
58	0xbe903408	-0.28164697
59	0xbe59bbcc	-0.21263045
60	0x3e25428d	0.16138668
61	0x3e120c67	0.14262544
62	0xbe58c7fa	-0.21170035
63	0x3dc8d35e	0.0980594
64	0x3e6217c4	0.22079378
65	0xbd38abba	-0.045085646
66	0x3cacc3cb	0.021089455
67	0x3dbfea9d	0.09370921
68	0x3e7ffeff	0.24999617
69	0x3eb470bf	0.35242268
70	0xbe932e33	-0.28746185
71	0xbe0ff997	-0.14060055
72	0x3e21fac3	0.15818314
73	0x3e9c8d15	0.30576387
74	0x3ea75230	0.32679892
75	0x3ea492bd	0.32143202
76	0x3d926d5c	0.07149765
77	0xbeafded7	-0.343497
78	0x3cf2f509	0.029657857
79	0xbe87690b	-0.2644733
80	0xbebaaad4	-0.36458457
81	0x3ea7bebb	0.32762703
82	0x3e9270e3	0.2860175
83	0xbec0ef4a	-0.37682563
84	0x3d61d2b9	0.0551326
85	0xbd689aef	-0.05678838
86	0xbd3880ea	-0.045044817
87	0xbe211865	-0.15731962
88	0x3e1fcb7b	0.15604965
89	0xbe68c0b5	-0.22729762
90	0x3e09aae5	0.13444097
91	0x3e3e4675	0.18581565
92	0x3e7a28f1	0.2442968
93	0x3deed1ea	0.11661132
94	0xbec6a746	-0.38799495
95	0xbe895d37	-0.2682893
96	0x3e5d4405	0.21607979
97	0x3da6a11f	0.081362
98	0xbe93cf82	-0.28869253
99	0xbe697df9	-0.22801961
100	0x3eb1af34	0.34703982
101	0x3e877d11	0.26462606
102	0xbe22a696	-0.1588386
103	0xbdd038da	-0.101670936
104	0xbebcd243	-0.36879167
105	0xbd307675	-0.04308172
106	0xbe8fa04e	-0.2805199
107	0xbe90d06f	-0.28284022
108	0xba6e874f	-0.0009099142
109	0x3d70dee9	0.058806334
110	0xbe28cf61	-0.16485359
111	0x3e6197ec	0.2203061
112	0xbe60cbc1	-0.21952726
113	0x3eb44404	0.35208142
114	0x3e7e6e40	0.24846745
115	0xbea7fea4	-0.32811463
116	0xbdaef933	-0.08543625
117	0x3ce24bbb	0.027624002
118	0x3d5b2f4f	0.053511914
119	0x3ddcea93	0.10786929
120	0x3e14d75a	0.14535275
121	0x3d109f6a	0.03530828
122	0xbe3209d2	-0.17386559
123	0x3e4e3d62	0.20140603
124	0xbeba56a1	-0.36394218
125	0xbe5f66b9	-0.2181653
126	0xbe0405d7	-0.12892853
127	0xbe4d33f2	-0.20039347
128	0xbe12e020	-0.1434331
129	0xbe9aad92	-0.3021055
130	0xbd90aa05	-0.07063679
131	0x3da590c3	0.08084252
132	0xbe767a28	-0.24070036
133	0xbc49a113	-0.0123064695
134	0x3e8f1d37	0.27951977
135	0xbd589432	-0.052875705
136	0xbc045eb0	-0.008079216
137	0xbd14e593	-0.03635175
138	0x3da5a57e	0.08088206
139	0x3e721c7c	0.23643678
140	0x3eb614e2	0.35562807
141	0x3e6f7abf	0.23386668
142	0x3ec02f84	0.37536252
143	0xbd0568be	-0.032570593
144	0xbeb95e97	-0.3620498
145	0xbe242e6f	-0.16033338
146	0x3e828f85	0.25500122
147	0xbc94cae5	-0.018163154
148	0xbe636787	-0.22207461
149	0xbea8720c	-0.3289951
150	0xbebd9e08	-0.3703463
151	0xbeacd2e7	-0.33754656
152	0xbd922ba3	-0.07137229
153	0x3e4d5294	0.20051032
154	0x3e4429bd	0.19156547
155	0xbec5d3bb	-0.386381
156	0x3e6917f8	0.2276305
157	0xbe91c5b2	-0.28471142
158	0xbd6f839a	-0.058475114
159	0xbe168377	-0.14698587
160	0xbd9a4f87	-0.075347
161	0xbdd15c31	-0.10222662
162	0xbeaa7071	-0.3328891
163	0xbeae043d	-0.3398761
164	0xbd723235	-0.059129912
165	0xbbc73a21	-0.0060799276
166	0xbe34eab3	-0.17667656
167	0x3e077e28	0.13231719
168	0xbea7d5bb	-0.3278025
169	0xbcb388dd	-0.021915847
170	0x3eb312fe	0.34975427
171	0xbe1eea8c	-0.1551916
172	0x3eb38f41	0.35070232
173	0x3e036f65	0.12835462
174	0xbeae7549	-0.34073856
175	0x3e7438d9	0.2384981
176	0xbd72d6b8	-0.059286803
177	0xbe35349f	-0.17695855
178	0x3e9717bf	0.29510304
179	0xbe9f0f6e	-0.3106646
180	0x3d3e3157	0.046433773
181	0xbd633d8c	-0.055478618
182	0x3e8950df	0.26819512
183	0x3dc10480	0.094246864
184	0x3e4202aa	0.18946329
185	0x3e1c517c	0.15265459
186	0xbd90f11e	-0.070772395
187	0xbd93bd50	-0.07213843
188	0xbea41a73	-0.3205143
189	0x3e5f4848	0.21804917
190	0x3e9cfcdf	0.30661675
191	0x3e80e90c	0.251778
192	0xbe93695e	-0.28791326
193	0x3c40614e	0.011741949
194	0xbe83708c	-0.25671804
195	0xbe55fe07	-0.20897685
196	0xbe6c733b	-0.23090832
197	0x3e12e3f9	0.14344777
198	0xbe6beaf2	-0.23038843
199	0xbadc61b1	-0.0016813782
200	0x3cff36ab	0.031153997
201	0x3e72e871	0.23721482
202	0xbe8e3af1	-0.27779344
203	0xbe8b2755	-0.27178445
204	0xbe6e6bce	-0.23283312
205	0x3e87e46d	0.26541463
206	0xbe19206e	-0.14953777
207	0x3e9cae8c	0.3060192
208	0x3e026b25	0.12736185
209	0x3d8ea2bc	0.06964633
210	0x3caa84f7	0.020815356
211	0xbd904ed2	-0.07046284
212	0x3d578670	0.052618444
213	0xbdbb30d7	-0.09140175
214	0xbc47560f	-0.012166514
215	0x3d2301b0	0.03979653
216	0xbe99b141	-0.30018046
217	0xbe45457c	-0.19264787
218	0x3ea7966e	0.32731956
219	0xbe937c78	-0.288059
220	0xbc9e5b05	-0.01933051
221	0x3ec6ab43	0.38802537
222	0x3df2951e	0.11844848
223	0x3ca18370	0.019715995
224	0xbeb490b2	-0.35266644
225	0x3e3ad36e	0.18244717
226	0xbe8a2733	-0.26983032
227	0xbdc12afc	-0.09432027
228	0xbde8df1d	-0.113706805
229	0xbd630ccf	-0.055432137
230	0xbc9aebd6	-0.018911283
231	0x3ea654b8	0.3248651
232	0x3d2eddb3	0.042691898
233	0x3eaa9cde	0.33322805
234	0x3e697b61	0.22800972
235	0xbe7b5c21	-0.24546863
236	0x3e2341ff	0.15943144
237	0xbe89ea0f	-0.26936385
238	0xbe227a9d	-0.15867086
239	0x3dc2ece0	0.095178366
240	0x3dd064e2	0.10175492
241	0x3e8d5144	0.27601063
242	0xbe001552	-0.12508133
243	0x3bbe53a6	0.0058083115
244	0x3e3a6a47	0.18204604
245	0xbecdfd3b	-0.40232262
246	0x3e7fe999	0.24991454
247	0xbeb71e45	-0.3576528
248	0xbcab0c28	-0.02087982
249	0xbddaf85b	-0.10691901
250	0xbe4eb474	-0.20186025
251	0x3d4c375b	0.04985748
252	0x3eb3143a	0.3497637
253	0xbddbe4b7	-0.10736983
254	0xbe6d7661	-0.23189689
255	0xbe1c4879	-0.15262021

bias f4 [128]
0	0xbea08d28	-0.31357694
1	0xbccab581	-0.024744751
2	0x3e0a8959	0.13528956
3	0x3e1020be	0.1407499
4	0x3eae657c	0.340618
5	0x3ec3e162	0.3825789
6	0x3eba6479	0.3640478
7	0x3e8ef1a3	0.2791873
8	0x3e92eec5	0.28697792
9	0xbd866ac6	-0.06563334
10	0xbe9901e6	-0.2988426
11	0xbe10d410	-0.14143395
12	0xbd60b70d	-0.05486207
13	0xbe3de24d	-0.18543358
14	0x3e479ed2	0.19494179
15	0x3de6a238	0.112614095
16	0x3d8be4d7	0.06830757
17	0x3dd6f97a	0.10496803
18	0x3ea8aa58	0.32942462
19	0x3e1895ec	0.1490094
20	0xbeac6162	-0.33668047
21	0xbe829e11	-0.2551122
22	0x3e2749a2	0.16336682
23	0x3d3c9079	0.046036217
24	0x3e48d271	0.19611527
25	0xbec0ce2d	-0.376573
26	0xbeb16f35	-0.34655157
27	0x3e78a3e9	0.24281277
28	0x3e5a308e	0.21307585
29	0xbeac1b56	-0.33614606
30	0x3e202505	0.15639122
31	0xbe94e880	-0.29083633
32	0x3e8836a6	0.26604193
33	0x3e0e8758	0.13918817
34	0x3ec514dd	0.3849248
35	0xbea77f8e	-0.32714504
36	0xbeb385d3	-0.35063037
37	0x3e7ea2a3	0.24866728
38	0x3eaf3023	0.34216413
39	0x3e7d37e8	0.24728358
40	0x3e89b385	0.26894775
41	0xbe9f8e20	-0.3116312
42	0x3e90ab62	0.28255755
43	0xbeb2e891	-0.3494306
44	0x3dc4d806	0.09611516
45	0xbe6ec8af	-0.23318742
46	0xbe181bfe	-0.14854428
47	0x3d843f15	0.064573444
48	0xbe0fb620	-0.14034319
49	0xbd73db92	-0.05953557
50	0xbeba78dd	-0.36420336
51	0xbebc8cc9	-0.3682616
52	0x3e256819	0.16152991
53	0xbe149d8a	-0.14513221
54	0xbe6fb47f	-0.23408698
55	0xbe09701d	-0.13421674
56	0xbe8f506d	-0.27991048
57	0xbe9a33fd	-0.3011779
58	0x3e7c91e1	0.24665023
59	0x3e4af655	0.1982053
60	0x3d528ae7	0.051402
61	0xbe3932e5	-0.18085821
62	0x3dea01e7	0.11426144
63	0x3cadbe6c	0.021208964
64	0xbe88243a	-0.2659014
65	0x3dcaf6a7	0.099103265
66	0x3eb68b4d	0.35653153
67	0xbeb57fca	-0.35449058
68	0xbeb4d62d	-0.35319653
69	0x3d7ffef5	0.062499005
70	0x3e988df5	0.29795805
71	0xbe59d3d8	-0.21272218
72	0x3dddd551	0.108317025
73	0x3e916dfb	0.2840422
74	0x3dfabb26	0.12242727
75	0x3dbb1607	0.09135061
76	0x3ec049e4	0.37556374
77	0x3e8465e6	0.25858992
78	0xbe4539a9	-0.19260277
79	0x3d04d585	0.03243019
80	0x3e445de5	0.19176443
81	0x3ea7bef8	0.32762885
82	0xbebda9f3	-0.37043723
83	0x3e48c68f	0.19606994
84	0xbdada1b9	-0.08478112
85	0xbebc5e89	-0.36790875
86	0x3dbe2e7d	0.09286211
87	0xbe315c0c	-0.1732027
88	0x3cf22af7	0.029561503
89	0xbe659e22	-0.22423604
90	0xbe8d816b	-0.276378
91	0xbc9d641d	-0.019212777
92	0xbdea1389	-0.11429507
93	0x3e6f9a81	0.23398782
94	0x3ca0e0f9	0.019638525
95	0x3e9c8e8b	0.30577502
96	0x3d823738	0.063581884
97	0xbddd1f01	-0.10796929
98	0x3e84e850	0.2595849
99	0x3d076810	0.033058226
100	0x3d55fb08	0.052241355
101	0xbddabb68	-0.10680276
102	0x3cb13d38	0.021635637
103	0xbdc355e1	-0.095378645
104	0xbc36c2b7	-0.011154822
105	0xbe9dd0ab	-0.30823264
106	0x3c17c0e2	0.009262295
107	0xbe9a4a96	-0.3013503
108	0xbdb3e6b4	-0.087842375
109	0x3e72ec2b	0.23722903
110	0xbe80dc03	-0.25167856
111	0xbe706909	-0.23477568
112	0xbdbbdf70	-0.09173477
113	0xbdc3c9f4	-0.09560004
114	0x3d4f39a2	0.050592072
115	0x3db0770f	0.086164586
116	0x3e509120	0.20367861
117	0xbe86735c	-0.26259887
118	0xbcba6aee	-0.022756066
119	0x3e41e9c8	0.18936837
120	0x3eaa62b9	0.33278444
121	0xbcd4536a	-0.025918681
122	0xbe5df956	-0.21677145
123	0x3e02e145	0.12781246
124	0x3e6385ef	0.2221906
125	0xbe64c206	-0.22339639
126	0xbe594f0a	-0.21221557
127	0x3e2cfc69	0.16893162

weight f4 [128, 128]
0	0x3c276351	0.01021655
1	0xbda40e14	-0.08010498
2	0xbd491dd9	-0.04910073
3	0x3d1145e7	0.035467055
4	0xbc4c8d04	-0.012484793
5	0x3d867487	0.065651946
6	0x3da54640	0.0807004
7	0x3c57c8c2	0.013170423
8	0x3c1e7360	0.009671062
9	0xbcf5ba3d	-0.029996032
10	0xbbda327e	-0.006658851
11	0x3c8e7ea2	0.017394368
12	0xbd786ca7	-0.060650494
13	0xbc093a3a	-0.008375699
14	0xbd86a06a	-0.06573565
15	0x3d8ecca1	0.069726236
16	0xbd470134	-0.04858513
17	0x3dbc5fb1	0.09197939
18	0x39c54894	0.00037628843
19	0xbd12cab3	-0.03583784
20	0x3d16532d	0.036700416
21	0x3d121c10	0.035671294
22	0x3da2cc4f	0.07949125
23	0x3d5d7e6a	0.054075636
24	0xbdaeff8d	-0.08544836
25	0x3d9a0bb4	0.075217634
26	0xbaf3284c	-0.0018551438
27	0xbcc8a3dd	-0.024492199
28	0x3d71a4a7	0.058994915
29	0x3d7cf11a	0.06175337
30	0xbd924b50	-0.07143271
31	0xbbf67c81	-0.0075221662
32	0x3dba915c	0.09109756
33	0x3cfaf29c	0.030633263
34	0x3d9dadc5	0.076991595
35	0xbd10cd6c	-0.035352156
36	0xbcedec47	-0.02904333
37	0x3d9f6800	0.07783508
38	0x3d3bd38a	0.045856036
39	0x3dd81c95	0.105523266
40	0xbd154c23	-0.036449563
41	0xbd9d47a0	-0.07679677
42	0x3b7c53fe	0.0038502212
43	0xbdb1d2ce	-0.08682786
44	0x3d601972	0.054711767
45	0x3d8181d4	0.06323591
46	0x3cd0fcdf	0.025511203
47	0xbbac9836	-0.0052671684
48	0x3d5a1597	0.053243246
49	0xbd5355bb	-0.05159543
50	0x3db4eb0f	0.08833896
51	0xbda01035	-0.07815591
52	0xbd981112	-0.07425131
53	0x3a7cb8ce	0.0009640575
54	0x3d96607f	0.07342624
55	0x3caae0f9	0.020859228
56	0x3d0e7263	0.034777056
57	0xbd7b6109	-0.061371837
58	0x3d45d981	0.04830313
59	0x3c2a667f	0.010400414
60	0x3d1ba0b0	0.03799504
61	0x3d7c65ac	0.0616204
62	0x3d34af4a	0.04411248
63	0xbbd8420b	-0.00659967
64	0xbbdc2691	-0.0067184647
65	0xbd2df152	-0.04246647
66	0xbcb39985	-0.02192379
67	0x3d806fef	0.0627135
68	0xbccf891c	-0.025333934
69	0x3d7da223	0.061922204
70	0xbccdc5e4	-0.025118776
71	0xbc0cd679	-0.008596056
72	0x3c135c6d	0.008994204
73	0xbd83ed79	-0.06441779
74	0x3bfc3568	0.007696796
75	0xbc02baa2	-0.007979067
76	0x3c50e72b	0.012750427
77	0x39238b1c	0.00015596714
78	0x3d84b7a4	0.06480339
79	0x3d89af1f	0.06722855
80	0xbd62a455	-0.0553325
81	0x3d46e580	0.048558712
82	0xbd9145e8	-0.07093412
83	0xbd87e600	-0.06635666
84	0x3d3318d7	0.04372486
85	0x3bc3f09f	0.005979612
86	0xbd0270f7	-0.031846013
87	0xbda71378	-0.0815801
88	0xbd174dfe	-0.036939614
89	0x3ce1f670	0.02758333
90	0xbd87a4f0	-0.06623256
91	0xbdad73b1	-0.08469332
92	0x3ca7549f	0.020426093
93	0xbd263bbc	-0.04058431
94	0xbd900ff2	-0.07034291
95	0xbcc1f04d	-0.023674155
96	0xbc2218e2	-0.009893628
97	0xbda2310c	-0.07919511
98	0xbd60f464	-0.05492057
99	0x3cdba113	0.026810205
100	0xbd7e6c3a	-0.06211493
101	0xbc020f56	-0.007938227
102	0xbd72f0bc	-0.059311613
103	0xbd664a97	-0.05622348
104	0x3d266461	0.040623073
105	0xbd579cb0	-0.052639663
106	0xbd6b3580	-0.05742407
107	0x3d444847	0.04792049
108	0x3c9a3ae1	0.018826904
109	0x3dc2c2f1	0.09509838
110	0xbccbd8d1	-0.02488366
111	0xbd2ab064	-0.041672125
112	0x3c4c1462	0.0124560315
113	0x3bd6da20	0.0065567642
114	0x3d9799c6	0.07402377
115	0xbd9f3f5b	-0.07775756
116	0xbb2bc7f4	-0.002621171
117	0x3d32d6d7	0.04366192
118	0xbd26b43e	-0.040699236
119	0xbd111e4f	-0.035429295
120	0x3d5eaa74	0.054361776
121	0xbd913247	-0.07089668
122	0x3c9e1450	0.019296795
123	0xbd660133	-0.056153487
124	0x3d7bf55c	0.06151329
125	0xbd8aed6f	-0.06783568
126	0x3d7cd4bf	0.061726328
127	0xbd979b4b	-0.07402667
128	0xbd7b5fb2	-0.06137056
129	0x3c6ff528	0.014645852
130	0x3db30569	0.08741266
131	0xbdb76803	-0.089553855
132	0xbca29025	-0.019844124
133	0x3d8c59ec	0.06853089
134	0xbc6a2aff	-0.014292478
135	0x3cc5c20e	0.024140384
136	0xbdaa2c4d	-0.08309231
137	0xbd196845	-0.037452955
138	0xbd88664c	-0.066601366
139	0x3dce66ab	0.10078176
140	0x3d42b516	0.04753598
141	0xbd4aabc1	-0.049480204
142	0x3c6aa0ca	0.014320562
143	0x3c7ac49b	0.015305663
144	0xbcb47dfb	-0.022032728
145	0xbd305c15	-0.043056566
146	0xbba4a0d3	-0.0050240546
147	0x3d8ce665	0.06879882
148	0xbd5b5a34	-0.05355282
149	0xbd2d231d	-0.042269815
150	0xbcda4804	-0.026645668
151	0x3ce969b9	0.028492795
152	0x3b8b8e4e	0.0042589074
153	0xbc4328e3	-0.011911604
154	0xbcaacce4	-0.020849653
155	0xbd3b50c1	-0.04573131
156	0xbb78f755	-0.0037989218
157	0xbd487c4b	-0.04894666
158	0x3d825766	0.06364326
159	0xbddd32e2	-0.10800721
160	0xbc99f184	-0.018791921
161	0xbd9c7a8e	-0.07640563
162	0xbc819dee	-0.015822377
163	0x3dcacc8d	0.09902296
164	0x3d9b298b	0.07576283
165	0xbdb8f01b	-0.090301715
166	0x386f5fae	5.707115e-05
167	0x3d847a5a	0.06468649
168	0x3d1de3e1	0.0385474
169	0x3d9fc7d4	0.07801786
170	0x39c2d54f	0.0003716149
171	0xbd70941a	-0.05873499
172	0x3d8edce1	0.06975723
173	0xbd33fb3a	-0.04394076
174	0x3cf9d97f	0.030499218
175	0xbc549c6a	-0.012976745
176	0x3d2e56d3	0.04256327
177	0x3da1af85	0.07894806
178	0x3d88da74	0.066822916
179	0xbd860f31	-0.06545866
180	0xbd5d06a9	-0.05396143
181	0xbcd91688	-0.026500002
182	0xbd6ea24a	-0.05826024
183	0x3d9fe47b	0.07807251
184	0xbc5848f4	-0.013200987
185	0xbd7f59d7	-0.062341537
186	0xbd1c8bac	-0.03821914
187	0xbd31e5e2	-0.043432124
188	0x3d213a72	0.03936238
189	0xbd646458	-0.055759758
190	0xbd7bcd53	-0.06147511
191	0xbd8acaa9	-0.067769356
192	0x3c95dc37	0.018293483
193	0x3d7519bc	0.059838995
194	0xbd5e20fc	-0.054230675
195	0x3b8bc1f7	0.004265066
196	0x3dbc6fd6	0.092010185
197	0xbb630779	-0.0034641905
198	0xbcfb0362	-0.030641261
199	0x3c14346d	0.009045702
200	0xbcfad7ed	-0.03062054
201	0x3d3af095	0.045639593
202	0xbd6815fe	-0.0566616
203	0x3d6a6e3b	0.05723403
204	0x3d9e20c1	0.07721091
205	0xbd5d2a74	-0.053995565
206	0x3dbce124	0.0922263
207	0x3df73b21	0.12071825
208	0xbc4ee33b	-0.012627418
209	0xbcfee50e	-0.031115081
210	0x3d415071	0.047195856
211	0xbd54017c	-0.051759228
212	0x3d1e207b	0.038605195
213	0x3c8c8581	0.017153503
214	0x3d8faa9a	0.070149615
215	0xbd8d5794	-0.0690147
216	0xbd8ca79a	-0.06867905
217	0x3d89e7a0	0.06733632
218	0x3cfd6b2f	0.030934898
219	0xbd64cc3c	-0.055858836
220	0xbcee06ea	-0.029056031
221	0xbd8067ef	-0.06269824
222	0xbd4b2749	-0.049598012
223	0xbd12443f	-0.035709616
224	0x3d98900b	0.07449349
225	0xbada7bff	-0.0016669034
226	0x3d597aff	0.053095814
227	0x3da5fcbc	0.08104846
228	0x3d9587c4	0.07301286
229	0xbd895117	-0.0670492
230	0x3cb17787	0.02166344
231	0x3d719374	0.058978513
232	0x3d46380e	0.0483933
233	0xbd967669	-0.07346804
234	0x3d527b5e	0.051387183
235	0x3d56ddf4	0.052457765
236	0xbd792ef5	-0.060835797
237	0x3c824982	0.015904192
238	0x3da07f3a	0.078367665
239	0xbd3dac3d	-0.046306837
240	0x3d8b831f	0.06812119
241	0x3d57df97	0.052703466
242	0x3d012d93	0.031537604
243	0x3db7ffbc	0.08984324
244	0x3d7996f0	0.06093496
245	0x3d919d3a	0.07110067
246	0xbc941280	-0.018075228
247	0x3dbed620	0.09318185
248	0xbda543e1	-0.080695875
249	0xbd48b9b8	-0.04900524
250	0xbc24098f	-0.010012045
251	0xbd16c9ac	-0.036813423
252	0x3de9b747	0.114119105
253	0x3d49b09c	0.049240693
254	0x3d8a8783	0.06764128
255	0x3d5b6c4d	0.05357008

bias f4 [128]
0	0x3d1444c4	0.036198393
1	0xbd8892e0	-0.06668639
2	0x3cbcc110	0.023041278
3	0x3cafda75	0.021466473
4	0x3c23b358	0.009991489
5	0x3d4a0ba5	0.04932751
6	0x3d68ac5e	0.056805007
7	0x3d8666e6	0.06562595
8	0xbda27f70	-0.07934463
9	0x3c7739c6	0.015089458
10	0x3d8d4a62	0.06898953
11	0x3d7c53c6	0.06160333
12	0xbd6153cf	-0.055011567
13	0x3b756262	0.0037442674
14	0xbbef6d5c	-0.007306738
15	0xbb8ccdd4	-0.0042969976
16	0x3d6f24b8	0.058384627
17	0x3d4a704d	0.049423505
18	0xbd778cae	-0.060436897
19	0x3a61e02f	0.0008616475
20	0xbd2938d2	-0.041313954
21	0x3d5729a9	0.052529965
22	0x3bb194b1	0.0054193367
23	0x3d127ded	0.035764623
24	0xbb72d625	-0.003705391
25	0x3dbf386e	0.09336935
26	0xbd8a51dd	-0.067538954
27	0x3d7018ea	0.05861751
28	0x3dbd2e26	0.09237318
29	0xbcc98dc7	-0.024603738
30	0x3cd56274	0.026047923
31	0xbd3b7489	-0.045765433
32	0xbcccfc5a	-0.025022674
33	0xbd4e196f	-0.050317224
34	0x3d38a30e	0.045077376
35	0x3d87a393	0.06622996
36	0xbc5f5601	-0.013631345
37	0xba96cbf5	-0.0011504876
38	0xbd904777	-0.07044881
39	0x3d6f5b76	0.058436833
40	0x3d43ae1f	0.047773477
41	0x3bbef7bc	0.005827872
42	0xbd1497c9	-0.036277566
43	0x3d2d8e2e	0.04237192
44	0xbd2d2d08	-0.042279273
45	0x3d7d8385	0.061893005
46	0xbd4d2ae7	-0.050089743
47	0x3d33dbbd	0.04391073
48	0xbd420384	-0.047366634
49	0x3c6b1831	0.014349029
50	0x3dd07dd6	0.10180251
51	0x3d7e4d1c	0.062085256
52	0xbd6fb98d	-0.058526564
53	0xbc627725	-0.013822352
54	0x3c586c4a	0.013209412
55	0xbd19ec52	-0.03757889
56	0xbbda629e	-0.006664588
57	0x3da25aae	0.07927452
58	0xbd76107c	-0.060074314
59	0xbd96c541	-0.07361842
60	0xbd86643f	-0.06562089
61	0xbb9ec926	-0.004845756
62	0xbc6733cf	-0.014111473
63	0x3cc09d9b	0.023512652
64	0xbd1e6630	-0.038671672
65	0xbd5b2689	-0.053503547
66	0xbd457200	-0.048204422
67	0x3d3d18bd	0.04616617
68	0x3dc7fe5c	0.09765312
69	0xbd9159f0	-0.07097232
70	0x3d329d54	0.04360707
71	0x3d852710	0.06501591
72	0xbd7f6798	-0.062354654
73	0xbd0cd297	-0.03438052
74	0x3da6e38b	0.08148869
75	0xbceb10f6	-0.028694611
76	0x3d873e51	0.06603683
77	0xba87d070	-0.0010361802
78	0xbda0ef10	-0.078580976
79	0x3d563b53	0.05230267
80	0x3c0a1e5e	0.008430092
81	0xbd2a8a23	-0.041635644
82	0x3d07cbc3	0.033153307
83	0xbc6be700	-0.014398336
84	0xbcdf381a	-0.027248431
85	0xbd21bee9	-0.039488707
86	0xbd5df055	-0.054184277
87	0xbd8f35fd	-0.06992719
88	0xbb55412a	-0.0032540062
89	0xbd192a80	-0.037394047
90	0x3d0ffa6c	0.03515093
91	0x3d94ffb4	0.07275334
92	0xbc31a042	-0.010841431
93	0xbd97b037	-0.07406657
94	0xbda1d498	-0.07901877
95	0x3d51abcc	0.05118923
96	0x3b034471	0.0020029808
97	0xbd851041	-0.06497241
98	0xbd39933e	-0.045306437
99	0x3d39a577	0.045323815
100	0x3ce1ee80	0.027579546
101	0x3d10f2a3	0.035387646
102	0x3dad5dee	0.08465181
103	0xbd2650d0	-0.040604413
104	0xbc26128e	-0.01013626
105	0xbd8f57eb	-0.06999191
106	0x3daa7534	0.08323136
107	0xbc20c5fe	-0.00981283
108	0xbc8e5a7e	-0.017377134
109	0x3b693ad7	0.003558805
110	0xbcb13cb2	-0.021635387
111	0x3c84f8c5	0.016231904
112	0x3d8017fa	0.06254573
113	0x3d0b17f6	0.033958398
114	0x3d0c607a	0.034271695
115	0xbcf8fc74	-0.030393817
116	0x3d331ad8	0.043726772
117	0x3dd986eb	0.10621437
118	0xbda0e557	-0.07856243
119	0xbd0bb093	-0.03410394
120	0x3dc423df	0.09577154
121	0x3d99d9f4	0.075122744
122	0x3c7ba1f5	0.015358438
123	0x3dc32a25	0.09529523
124	0xbc11f479	-0.0089083845
125	0x3d1d05c0	0.03833556
126	0x3d0655d3	0.032796692
127	0x3dc220f4	0.094789416

weight f4 [128, 128]
0	0xbd540837	-0.051765647
1	0x3d31c12a	0.043397106
2	0x3d21b40f	0.039478358
3	0xbceb5fc5	-0.02873219
4	0xbd19b3bf	-0.037524935
5	0x3cda9471	0.02668211
6	0xbd5e15a3	-0.054219853
7	0x3d4cbfba	0.049987532
8	0x3d84928f	0.06473266
9	0x3d6dbd7c	0.058042035
10	0xbd32d524	-0.043660298
11	0x3d9769ce	0.073932275
12	0x3d1adf1f	0.03781044
13	0xbdc4def1	-0.09612835
14	0xbda1473d	-0.07874916
15	0x3d00de08	0.031461746
16	0x3d317af6	0.043330155
17	0x3db5ccce	0.08876954
18	0x3d8b98ff	0.06816291
19	0x3d0d744f	0.03453475
20	0xbcc6e889	-0.024280803
21	0x3a548f40	0.0008108504
22	0xbd80f737	-0.062971525
23	0x3c837bf7	0.016050322
24	0x3cd90fb4	0.026496746
25	0x3d397055	0.045273144
26	0x3c3a9c2e	0.011389775
27	0x3cc56d07	0.02409984
28	0x3c9a2765	0.018817613
29	0xbd873caa	-0.066033676
30	0xbd010435	-0.031498153
31	0xbc6925c0	-0.014230192
32	0x3cd8a7af	0.026447145
33	0x3bfdf797	0.0077504623
34	0xbd371f67	-0.044707682
35	0xbd40f98e	-0.047112994
36	0xbcb36129	-0.021896916
37	0x3d9a3bbc	0.07530925
38	0x3d5e2fa0	0.054244637
39	0xbd99b828	-0.07505828
40	0xbd6c1890	-0.057640612
41	0x3d0855be	0.033284895
42	0xbcdb2847	-0.026752604
43	0xbcc8268e	-0.024432447
44	0xbd7eb622	-0.062185414
45	0x3a4c109f	0.0007784459
46	0x3d1565a2	0.036473878
47	0x3da3c9d4	0.0799748
48	0xbcc72a2e	-0.024312105
49	0xbd0a0623	-0.03369726
50	0x3c52c13b	0.012863453
51	0x3c21b2b2	0.009869264
52	0x3a757e8a	0.0009364864
53	0xbda1c55a	-0.0789897
54	0x3d832871	0.06404198
55	0xbb3f6eac	-0.0029210253
56	0xbbfb2b03	-0.0076650395
57	0xbc9c209e	-0.019058522
58	0xbda5c01f	-0.08093285
59	0xbcd87c7b	-0.026426544
60	0xbd9544ac	-0.07288489
61	0x3d21c634	0.03949566
62	0xbd341cc6	-0.043972753
63	0xbdb83e90	-0.08996308
64	0xbd44c0ef	-0.04803556
65	0x3d3b2517	0.04568967
66	0xbd236493	-0.039890837
67	0xbd965b7c	-0.07341668
68	0xbcb7c8ad	-0.022434557
69	0x3d9e63b3	0.0773386
70	0x3d25fcc2	0.04052425
71	0x3d0519e7	0.032495406
72	0xbd080476	-0.03320738
73	0xbcfc0e84	-0.03076864
74	0x3c88b93a	0.016689885
75	0x3d935445	0.071938075
76	0xbd87bbff	-0.06627654
77	0x3d8e9633	0.06962242
78	0xbdaa84eb	-0.08326133
79	0xbd996539	-0.0749001
80	0xbdaa5eda	-0.08318873
81	0x3d322576	0.043492757
82	0x3bcee9ad	0.0063144774
83	0x3ce95484	0.028482683
84	0xbd77bfbc	-0.060485587
85	0xbd4adb41	-0.049525503
86	0x3cf04330	0.029328912
87	0x3d7cd338	0.06172487
88	0xbd9adf08	-0.07562071
89	0x3ba31fff	0.0049781795
90	0xbb18fff5	-0.0023345922
91	0xbcc89a7b	-0.024487725
92	0x3d0e2c90	0.034710467
93	0xbd930553	-0.0717875
94	0x3d009f7f	0.031402107
95	0xbd066162	-0.032807715
96	0x3d85b524	0.065286905
97	0xbccaf578	-0.024775252
98	0x3d76d7ca	0.060264386
99	0xbd74802b	-0.059692543
100	0xbd9b0228	-0.07568771
101	0x3dbe57bc	0.09294078
102	0xbcb5be70	-0.022185534
103	0xba8c8f8c	-0.0010723933
104	0x3d8e6e55	0.06954638
105	0x3d939d1b	0.072077
106	0x3cf04e50	0.029334217
107	0xbda471ea	-0.0802954
108	0xbd4a2cda	-0.04935918
109	0x3d647e5c	0.05578457
110	0x3d1c8cf8	0.038220376
111	0x3d449fae	0.048003845
112	0xbce8f5d1	-0.028437527
113	0xbdb863be	-0.09003399
114	0xbc9520b0	-0.018204063
115	0x3d12cde5	0.035840888
116	0x3d769529	0.060200844
117	0xbd75a1ae	-0.059968643
118	0xbd147804	-0.03624727
119	0x3da7495a	0.081682876
120	0x3d9fe84e	0.078079805
121	0x3db4e65e	0.088330016
122	0x3d7a21d0	0.061067402
123	0x3cf3272e	0.029681768
124	0xbc17e8c2	-0.009271802
125	0xbd7af718	-0.061270803
126	0xbd161d90	-0.036649287
127	0xbdafa624	-0.08576611
128	0x3d8669b1	0.06563128
129	0x3d251e0c	0.040311858
130	0x3d233025	0.039840836
131	0x3bf30335	0.007416154
132	0xbd9356eb	-0.07194313
133	0x3d985b70	0.07439315
134	0x3ca4a555	0.020098368
135	0x3cf4b09e	0.029869374
136	0xbcbf064f	-0.023318438
137	0xbd53c75f	-0.051703807
138	0x3ce17f28	0.027526453
139	0xbc71d601	-0.014760495
140	0x3dc77959	0.09739942
141	0x3cdbf953	0.026852285
142	0x3cc4bbe1	0.024015369
143	0x3d877b7d	0.066153504
144	0xbd28936c	-0.041156217
145	0x3d911eef	0.07085978
146	0x3bd03525	0.0063539916
147	0xbd6b5630	-0.05745524
148	0x3d2a3b97	0.041560736
149	0xbd446ccf	-0.04795533
150	0x3d521c46	0.051296495
151	0x3dad2666	0.084545895
152	0x3a48e82a	0.00076639897
153	0xbcf22689	-0.02955939
154	0x3bc50e9c	0.0060137045
155	0x3d903c42	0.07042743
156	0x3d4634b8	0.04839012
157	0x3d938ad6	0.07204215
158	0x3aef89b0	0.0018275287
159	0xbd803d6f	-0.062617175
160	0x3d41e32f	0.0473358
161	0x3bae3c08	0.005317215
162	0x3cb4b7c3	0.02206028
163	0x3d9fd842	0.0780492
164	0xbcde3887	-0.027126564
165	0x3db00b9e	0.08595966
166	0xbd454e36	-0.04817029
167	0xbd528404	-0.05139543
168	0x3d181955	0.037133534
169	0x3d8b36b6	0.06797545
170	0xbc98f603	-0.018671995
171	0x3c13d650	0.009023264
172	0x3c69521f	0.014240771
173	0x3d2ca627	0.042150643
174	0xbc273549	-0.010205575
175	0xbd9a1168	-0.07522851
176	0x3d1b4547	0.037907865
177	0xbdb5397b	-0.08848854
178	0xbd7c0d8b	-0.061536353
179	0xbd975fdb	-0.0739133
180	0x3cb26348	0.021775857
181	0x3d40089c	0.04688321
182	0xbd628f7b	-0.055312615
183	0x3d9a62ef	0.07538401
184	0xbd98b1fb	-0.07455822
185	0x3d7bf553	0.061513256
186	0x3cf85776	0.030315142
187	0xbcdeea04	-0.027211197
188	0x3d93a425	0.072090425
189	0x3d803054	0.06259218
190	0x3d9e73db	0.077369414
191	0xbd90fec4	-0.07079843
192	0xbcf571f6	-0.029961567
193	0xbd914ef0	-0.07095134
194	0x3d8c440c	0.068489164
195	0x3cce7840	0.025203824
196	0xbd0ff88a	-0.035149135
197	0xbc2dc3d7	-0.010605774
198	0x3d893a2b	0.06700548
199	0x3dc7c6fa	0.09754749
200	0xbb82c1f1	-0.003990405
201	0xbd985a06	-0.074390456
202	0xbce98d02	-0.02850962
203	0x3d8d46bc	0.06898257
204	0x3cfffd7d	0.031248802
205	0x3d6e8cd3	0.05823977
206	0x3d930e5a	0.07180472
207	0xbce3d31f	-0.027810631
208	0x3d343897	0.04399928
209	0xb987dabb	-0.00025912173
210	0xbd2e8fbc	-0.042617545
211	0xbd31451d	-0.043278802
212	0x3d0233f2	0.03178782
213	0x3c4d4a1b	0.012529875
214	0x3d598ce1	0.05311287
215	0x3da4955f	0.08036303
216	0xbda1df78	-0.079039514
217	0xbbb738c5	-0.0055914843
218	0xbd14f385	-0.03636505
219	0x3d374d6d	0.044751573
220	0x3d029cc1	0.031887773
221	0x3da03309	0.07822234
222	0x3d5ff6da	0.054678775
223	0x3d6894fc	0.056782708
224	0xbd98bf97	-0.07458418
225	0xbd81d28b	-0.06338986
226	0xbd9cc497	-0.07654684
227	0xbd4ef415	-0.050525744
228	0xbd056951	-0.03257114
229	0x3d91db35	0.071218885
230	0xbd2fb26c	-0.042894766
231	0x3d8d4a1e	0.06898902
232	0x3daec71d	0.085340716
233	0x3d5daa3d	0.05411743
234	0x3d45f461	0.04832876
235	0x3d82088a	0.06349285
236	0x3c825aa3	0.01591236
237	0xbd7212e4	-0.059100047
238	0x3d997544	0.0749307
239	0x3d993fc0	0.074828625
240	0x3d7f578c	0.06233935
241	0xbd7d39d8	-0.061822742
242	0xbc405fbd	-0.011741576
243	0x3d6b3766	0.05742588
244	0xbb14ab38	-0.0022685062
245	0xba8b93fd	-0.0010648962
246	0xbd4ef619	-0.050527666
247	0x3d5f0ccd	0.054455567
248	0x3d542052	0.051788636
249	0xbc81edba	-0.015860427
250	0x3d8468be	0.064652905
251	0xbcf0d475	-0.029398182
252	0x3d369727	0.044577744
253	0x3c6f4201	0.014603139
254	0xbd19d62f	-0.037557777
255	0x3c9d8ffe	0.0192337

bias f4 [128]
0	0x3cb3e132	0.021957967
1	0x3db70f06	0.08938412
2	0x3ced50d7	0.028969212
3	0x3daeb641	0.08530856
4	0x3cb4fdcd	0.022093678
5	0xbd043ec3	-0.032286417
6	0x3d27ee14	0.040998533
7	0x3d767c5f	0.060177203
8	0xbd06956d	-0.032857347
9	0x3c207733	0.009794044
10	0x3d7beea2	0.061506875
11	0xbd4e7ee5	-0.050413985
12	0x3da0404f	0.07824766
13	0x3d90f3fc	0.07077786
14	0xbc93eca2	-0.018057171
15	0x3d7885bf	0.060674425
16	0x3da8f231	0.08249319
17	0x3ced6295	0.028977672
18	0xbc833be1	-0.016019763
19	0xbd545f4d	-0.0518487
20	0x3d3fd8d2	0.046837635
21	0xbda62133	-0.08111801
22	0x3c737bbc	0.014861044
23	0xbd649db1	-0.05581445
24	0x3ce2020e	0.02758887
25	0x3d820650	0.0634886
26	0x3d90b88f	0.07066452
27	0x3da635c6	0.08115725
28	0xbdc25414	-0.09488693
29	0x3d9f9d71	0.077937014
30	0x3d4e3c32	0.050350375
31	0xbd5b9966	-0.05361309
32	0x3da91578	0.08256048
33	0xbd35680d	-0.044288684
34	0x3dab670f	0.08369266
35	0x3d17e335	0.037081916
36	0xbd98800e	-0.074462995
37	0x3c8180fc	0.015808575
38	0xbd32fb0b	-0.043696444
39	0xbda7b7a8	-0.081893265
40	0x3d3681fa	0.04455755
41	0xbd13f046	-0.036117814
42	0xbd2c3445	-0.042042036
43	0x3d172f81	0.036910538
44	0xbc1a9055	-0.0094338255
45	0x3d5434cb	0.05180816
46	0xbd0cf525	-0.034413476
47	0xbd3ff2b7	-0.04686233
48	0x3d806d2b	0.06270822
49	0x3d746803	0.059669506
50	0xbd62bd93	-0.055356573
51	0x3ca1f2c4	0.01976908
52	0x3d4344cf	0.047673043
53	0xbd01d1cc	-0.03169422
54	0xbd558056	-0.052124344
55	0x3dafbcd5	0.08580939
56	0x3dba7193	0.09103694
57	0x3cd1bcd4	0.025602736
58	0x3d9bd324	0.07608631
59	0xbd6fb1e8	-0.058519274
60	0x3b76cb51	0.0037657807
61	0x3da1f1c1	0.07907439
62	0xbd1a099d	-0.037606824
63	0xbc7b60e3	-0.015342924
64	0xbd38c6a2	-0.045111306
65	0xbd3a425e	-0.04547345
66	0x3d49cd38	0.049267977
67	0xbd9ddaed	-0.077077724
68	0x3dc78dff	0.097438805
69	0x3b95ed30	0.004575394
70	0xbd6eb1e8	-0.058275133
71	0xbd831b3c	-0.06401679
72	0xbd84ff97	-0.064940624
73	0x3da0eda9	0.0785783
74	0x3dccfbc2	0.100089565
75	0x3d2c7560	0.042104125
76	0x3c36d6c4	0.011159603
77	0xbbcfdd7e	-0.0063435426
78	0xbce4e52c	-0.027941309
79	0x3daf36c7	0.0855537
80	0x3d78286a	0.060585417
81	0x3cc1d9b5	0.023663381
82	0x3d2455d8	0.04012093
83	0x3da870c1	0.08224631
84	0xbd621c15	-0.055202562
85	0xbc4c7569	-0.012479165
86	0xbca7d9b9	-0.02048956
87	0xbd17208a	-0.036896266
88	0x3b7ef5b1	0.0038903768
89	0x3dd0e5ea	0.102001026
90	0x3d805caf	0.06267678
91	0xbcaf6376	-0.021409731
92	0xbdabc268	-0.083866894
93	0x3c26dd3a	0.01018458
94	0x3d6ea2cc	0.058260724
95	0x3d9f9abe	0.077931866
96	0xbd2d0f94	-0.042251185
97	0x3d9e9165	0.077425756
98	0xbd631892	-0.055443354
99	0x3c99ea2f	0.018788425
100	0xbd956cd5	-0.07296149
101	0xbcf36b2f	-0.029714195
102	0xbcfcbbc6	-0.030851256
103	0xbd85fb05	-0.06542019
104	0xbd52db59	-0.051478717
105	0x3d654758	0.05597624
106	0xbcf5ae73	-0.02999041
107	0x3cea1037	0.028572185
108	0xbd8c3133	-0.068453215
109	0x3ca7bc86	0.020475637
110	0x3d667bb8	0.05627033
111	0x3d0668af	0.032814678
112	0x3d7249e7	0.05915251
113	0xbc2831f2	-0.010265814
114	0x3cc90aea	0.024541337
115	0xbb839aad	-0.0040162415
116	0x3d6be0ba	0.057587363
117	0xbd3c1f73	-0.04592843
118	0x3d2704ba	0.040775992
119	0x3a81e0e5	0.0009908943
120	0x3d1d6556	0.03842672
121	0x3d020160	0.031739593
122	0x3dc5c330	0.0965637
123	0x3d32fc05	0.043697376
124	0x3d81f4d8	0.06345528
125	0x3c45b405	0.012066846
126	0x3cf36ba2	0.02971441
127	0xbd3785dc	-0.044805393

weight f4 [128, 128]
0	0x3d10239c	0.03519021
1	0x3c8d94b3	0.01728282
2	0xbcecbe37	-0.028899295
3	0x3bde41ef	0.0067827622
4	0x3c98ee28	0.01866825
5	0x3d8395f4	0.06425086
6	0x3d4a3522	0.049367078
7	0xbd86b783	-0.06577971
8	0x3d91b3e7	0.07114392
9	0xbc292a7a	-0.010325069
10	0x3d49d093	0.049271178
11	0xbd2a5c97	-0.041592207
12	0xbc53d9ec	-0.012930375
13	0xbc512631	-0.012765453
14	0x3d88eae3	0.06685426
15	0xbd1fca90	-0.039011538
16	0xbd93a7dc	-0.07209751
17	0xbd9061f3	-0.07049932
18	0x3da2e856	0.07954471
19	0x3d90cc51	0.0707022
20	0xbc751fe4	-0.014961217
21	0x3d356f01	0.044295315
22	0xbcbe7c0e	-0.023252513
23	0xbd195900	-0.037438393
24	0xbdb51489	-0.088418074
25	0x3b981d5d	0.0046421723
26	0x3d3bb182	0.04582358
27	0x3b298582	0.002586693
28	0x3d95030f	0.07275974
29	0xbdb4302c	-0.087982506
30	0xbd94d22f	-0.07266652
31	0x3d9f43f4	0.07776633
32	0x3c12a4f1	0.008950458
33	0x3b1d9ae2	0.0024048616
34	0xbda5b649	-0.08091409
35	0x3d9814ed	0.07425866
36	0x3d923617	0.07139223
37	0xbc4b1482	-0.012395026
38	0x3d65410b	0.055970233
39	0x3d810638	0.06300014
40	0xbb6e5a26	-0.003636965
41	0xbd7a15ec	-0.061056063
42	0xbc0871eb	-0.008327941
43	0x3d8f2ed5	0.069913544
44	0xbd316b20	-0.043315053
45	0xbd792995	-0.06083067
46	0xbd9bccfb	-0.07607456
47	0x3d953c00	0.07286835
48	0x3d7e5341	0.062091116
49	0x3d8b4700	0.068006516
50	0xbcb53a7e	-0.022122618
51	0x3d81ea5e	0.0634353
52	0xbd8c619e	-0.068545565
53	0x3d8624ea	0.065500095
54	0x3bd8c3ec	0.0066151526
55	0xbd37da28	-0.044885784
56	0xbd910ac2	-0.0708213
57	0xbd4c4e05	-0.049879093
58	0xbd905e76	-0.07049267
59	0x3ccd4e41	0.025061728
60	0x3c1e8197	0.009674451
61	0x3d60b41b	0.054859262
62	0xbd72c66c	-0.05927126
63	0xbd8af553	-0.06785073
64	0xbca3faa4	-0.020016976
65	0x3d979be8	0.07402784
66	0xbd0aedce	-0.033918194
67	0x3dbf0443	0.09326985
68	0x3d9b3093	0.07577624
69	0x3d2500b6	0.04028388
70	0x3d9a3e89	0.07531459
71	0xbda49b9a	-0.08037491
72	0x3d63f22e	0.055650882
73	0xbd9feda0	-0.07808995
74	0xbdafa671	-0.08576668
75	0x3c1841fd	0.009293077
76	0x3c8b7cec	0.01702734
77	0xbd3979f1	-0.045282308
78	0x3d864160	0.06555438
79	0x3d466a30	0.048441112
80	0xbd1816c7	-0.037131097
81	0x3da7726d	0.08176122
82	0x3d866d05	0.065637626
83	0xbd93289e	-0.071854815
84	0xbd01f816	-0.031730734
85	0xbd83a407	-0.0642777
86	0x3d5917cc	0.05300121
87	0x3c4e8637	0.0126052415
88	0xbce954ef	-0.028482882
89	0x3c5a9573	0.0133412955
90	0xbd817ca9	-0.06322605
91	0xbd2a71c7	-0.041612413
92	0x3d224b96	0.039622866
93	0xbbb17465	-0.0054154866
94	0x3c5daa40	0.01352936
95	0x3cff7f88	0.031188741
96	0x3d4d8a37	0.05018064
97	0xbcbed4a3	-0.023294752
98	0x3d93f50c	0.07224473
99	0xbbf771da	-0.007551414
100	0xbd4e7d3a	-0.050412394
101	0x3cc452db	0.02396529
102	0xbcbb3242	-0.022851113
103	0xbd8aa894	-0.06770435
104	0xbc57fdd1	-0.013183073
105	0xbd935028	-0.07193023
106	0x3d3f0c7f	0.046642777
107	0x3d71c9f2	0.05903048
108	0x3d4f5f52	0.050628014
109	0x3d2e3a37	0.042535987
110	0x3d89fe16	0.06737916
111	0x3cd939c8	0.02651681
112	0x3d084743	0.033271085
113	0x3d832b84	0.06404784
114	0xbd3f8bcf	-0.04676419
115	0xbd3f7763	-0.046744715
116	0x3cc1ff36	0.023681264
117	0x3d22796d	0.039666582
118	0x3d7c285d	0.06156193
119	0x3d9ece43	0.07754185
120	0xbdb4e6a8	-0.08833057
121	0xbdb2d11e	-0.08731292
122	0x3d7cf120	0.061753392
123	0xbd955abd	-0.072926976
124	0x3d283d50	0.041074097
125	0x3c77688b	0.015100609
126	0x3dbedaa7	0.093190484
127	0xbc9dd1be	-0.019265052
128	0x3da2829c	0.07935068
129	0x3d273fbc	0.040832266
130	0xbd23d09a	-0.03999386
131	0xbd220d21	-0.039563302
132	0xbd9152d8	-0.07095879
133	0x3d294087	0.041321304
134	0xbd4b2d07	-0.04960349
135	0xbd2f2c3b	-0.04276679
136	0x3bb67b1e	0.005568876
137	0x3d9ab51a	0.07554074
138	0xbd776fae	-0.06040924
139	0xbd416d98	-0.047223657
140	0xbd4b5f10	-0.049651206
141	0xbd5ead5e	-0.054364555
142	0xbce2465f	-0.027621446
143	0x3d3b2e3e	0.045698397
144	0xbc666afe	-0.014063595
145	0xbcdee4f0	-0.027208775
146	0x3b1ddfe0	0.0024089739
147	0xbd4b0be7	-0.049571898
148	0x3dd71333	0.10501709
149	0xbd1225e3	-0.035680663
150	0xbd4b4021	-0.049621705
151	0xbd07f2ec	-0.033190653
152	0x3d309141	0.043107275
153	0xbda43aa6	-0.08018999
154	0x3d7f7571	0.06236786
155	0xbc27bfbe	-0.010238586
156	0xbcf5191d	-0.029919202
157	0xbd31d49e	-0.04341566
158	0x3d61efcd	0.055160332
159	0xbcbd449f	-0.02310401
160	0xbcf06bb9	-0.029348241
161	0x3d12d554	0.035847977
162	0x3dcc0dff	0.09963607
163	0x3d6c094c	0.057626054
164	0x3d95bce5	0.073114194
165	0xbda31b6e	-0.07964216
166	0xbcdb6c80	-0.026785135
167	0xbcd2ad93	-0.025717532
168	0x3da451b8	0.08023399
169	0x3da2a3ea	0.079414204
170	0xbd099413	-0.03358848
171	0xbd84b2ab	-0.06479391
172	0x3dc99204	0.098423034
173	0xbd06a4e5	-0.0328721
174	0xbd8608bb	-0.06544634
175	0x3db4358d	0.087992765
176	0x3da97baa	0.0827554
177	0x3ccd3ffd	0.025054926
178	0xbcd015be	-0.025400992
179	0x3d5bfb37	0.053706374
180	0xbd9d3c80	-0.07677555
181	0x3c9cfd58	0.019163772
182	0xbc94881e	-0.018131312
183	0x3a815887	0.0009868302
184	0x3d31cc57	0.043407764
185	0x3d50c3a5	0.05096783
186	0xbc8f2d1d	-0.017477566
187	0x3d196e9f	0.037459012
188	0xbc317f1f	-0.010833531
189	0xbd7f617e	-0.062348835
190	0xbd864c97	-0.06557577
191	0x39b30730	0.00034146896
192	0xbd93e1ad	-0.072207786
193	0x3d805e60	0.062680006
194	0x3d1197df	0.035545226
195	0xbd679a23	-0.05654348
196	0xbccf05ca	-0.025271315
197	0xbd842f13	-0.06454291
198	0x3d876c81	0.06612492
199	0x3d68d956	0.056847893
200	0x3c90887d	0.017643208
201	0xbd876ede	-0.06612943
202	0x3db13205	0.086521186
203	0xbd024b3a	-0.031810023
204	0xbd67679c	-0.056495294
205	0x3bf62434	0.00751164
206	0x3da7173c	0.081587285
207	0xbcc1497e	-0.023594614
208	0x3ce2be72	0.027678702
209	0x3d5fde5c	0.054655418
210	0x3d3bd449	0.045856748
211	0x3c2e0e4b	0.010623525
212	0x3c9be412	0.01902965
213	0x3d530d25	0.051526207
214	0x3d701fd3	0.0586241
215	0x3d919f09	0.07110412
216	0xbcb3d7a8	-0.021953419
217	0x3ce36f5b	0.02776306
218	0x3db8f3d8	0.090308845
219	0x3d784cb9	0.060620043
220	0xbbf7beca	-0.0075605856
221	0xbd990955	-0.07472483
222	0xbd51f24a	-0.051256455
223	0x3c9df14a	0.019280095
224	0xbca11de4	-0.019667573
225	0x3dc54071	0.09631432
226	0x3d2eaba0	0.042644143
227	0xbda23fb5	-0.079223074
228	0x3c43bf38	0.011947446
229	0x3c0bf6ae	0.0085427
230	0xbd9bb6f5	-0.07603256
231	0xbb9f04fb	-0.0048528886
232	0x3d980eb5	0.0742468
233	0x3da55fa6	0.08074884
234	0xbda26f38	-0.079313695
235	0x3d44321d	0.047899354
236	0xbce9d096	-0.028541844
237	0x3ce48ff3	0.027900672
238	0x3d177da1	0.036985043
239	0x3d201bd8	0.039089054
240	0x3dab7edb	0.08373805
241	0x3db77017	0.08956926
242	0x3dae90db	0.08523723
243	0x3d742763	0.059607875
244	0xbd07bf82	-0.03314162
245	0x3da0efa4	0.07858208
246	0xbd9c8e8a	-0.07644375
247	0x3d4fd748	0.050742418
248	0xbcde94a7	-0.027170492
249	0x3db93dd2	0.090449944
250	0x3cf43079	0.02980827
251	0x3d90ae9d	0.07064555
252	0x3d2e0fc3	0.0424955
253	0xbd1c40b1	-0.038147632
254	0xbb42a6b2	-0.002970141
255	0xbcd0e08e	-0.025497701

bias f4 [128]
0	0xbd41417e	-0.0471816
1	0x3cf5cf45	0.03000606
2	0x3d0fee13	0.035139155
3	0xbd528864	-0.051399603
4	0xbce4a015	-0.027908364
5	0xbdbb7fd5	-0.091552414
6	0x3cbd7009	0.023124712
7	0xbc64af9c	-0.013957884
8	0xbce8112d	-0.028328503
9	0x3d8819a9	0.06645519
10	0xbdb175dc	-0.08665058
11	0xbd87ca82	-0.06630422
12	0x3d80e9ed	0.06294618
13	0x3c518164	0.012787197
14	0xbd68cf8e	-0.056838565
15	0x3da7e6c5	0.08198313
16	0xbd19e3b4	-0.03757067
17	0xbd2eb6aa	-0.04265467
18	0x3d6e3a65	0.058161158
19	0x3cf7a39b	0.03022938
20	0x3daa3c90	0.08312333
21	0x3ca7b855	0.020473639
22	0xbc81fc95	-0.01586751
23	0xbc356117	-0.011070511
24	0x3d95d658	0.073162735
25	0x3d9f062d	0.0776485
26	0x3d473a22	0.048639424
27	0x3d6b16b9	0.057394717
28	0x3d10d5d8	0.035360187
29	0xbd02d852	-0.03194458
30	0xbcd5ee89	-0.026114719
31	0xbbe0248d	-0.0068402947
32	0xbd668a7f	-0.056284424
33	0x3dcbf1bb	0.09958216
34	0x3da6b1e4	0.08139399
35	0xbd165dbc	-0.036710486
36	0x3d37bb28	0.04485622
37	0xbae3055f	-0.0017320326
38	0x3d9e0789	0.07716281
39	0xbce62f71	-0.028098794
40	0x3dc582fe	0.096441254
41	0x3b503fca	0.0031776302
42	0x3d6ded0e	0.0580874
43	0x3d887874	0.066635996
44	0x39ae39d8	0.00033230963
45	0x3c41930b	0.011814843
46	0x3b41bffb	0.0029563892
47	0xbd8ecdfc	-0.06972882
48	0x3cf00229	0.029297905
49	0x3d0d0e3a	0.034437396
50	0xbcc66e4c	-0.024222516
51	0x3cbe13af	0.023202745
52	0x3da06263	0.07831266
53	0xbd7fd4df	-0.06245887
54	0x3da4a80b	0.08039864
55	0x3cb92c4f	0.022604136
56	0x3d631a88	0.055445224
57	0x3d117bdd	0.035518516
58	0x3d8921df	0.066959135
59	0x3da3d36b	0.07999309
60	0x3d40025b	0.046877246
61	0xbc1c11ab	-0.009525697
62	0xbc6af4a1	-0.014340551
63	0xbd8fdfa0	-0.07025075
64	0xbdaf0cde	-0.08547376
65	0xbdad5eb9	-0.084653325
66	0x3dbf5790	0.09342873
67	0xbda44082	-0.080201164
68	0x3d77bee7	0.060484793
69	0xbdbbbac9	-0.09166486
70	0x3dbdfaf0	0.09276378
71	0x3d1c5d43	0.03817488
72	0x3d0f3309	0.03496078
73	0xbbe88c9f	-0.0070968415
74	0xbc0fb012	-0.008770006
75	0x3dbc34e1	0.09189773
76	0x3c88f249	0.016717093
77	0xbaf67dc1	-0.0018805788
78	0x3cf9069d	0.030398661
79	0x3da45ef9	0.08025927
80	0xbc820924	-0.0158735
81	0x3d60e7d3	0.054908585
82	0xba8e743e	-0.0010868383
83	0xbd07d514	-0.03316219
84	0x3cff2981	0.03114772
85	0x3d212712	0.0393439
86	0xbd21aada	-0.039469577
87	0xbd4f8827	-0.050666954
88	0xbd4d8f30	-0.050185382
89	0xbd716b31	-0.058940116
90	0x3db03fee	0.086059436
91	0x3d73df20	0.05953896
92	0xbd87e912	-0.066362515
93	0x3dab1eae	0.08355461
94	0xbb4db698	-0.0031389352
95	0xbb606322	-0.0034238775
96	0x3d5ac358	0.05340895
97	0x3d971260	0.07376552
98	0x3bf474ae	0.0074601984
99	0x3cea724d	0.028618956
100	0x3cb8fd08	0.022581592
101	0xbdaf0647	-0.08546119
102	0x3c8c7785	0.017146835
103	0xbd87b4d6	-0.066262886
104	0x3daaa923	0.083330415
105	0xbd6d5b6a	-0.057948507
106	0x3d1ce9a7	0.038308766
107	0x3db1d491	0.08683122
108	0x3da399c0	0.0798831
109	0xbd950e30	-0.07278097
110	0xbc951dc4	-0.01820267
111	0x3d821e10	0.0635339
112	0xbd8a59c6	-0.06755404
113	0xbb3c987c	-0.0028777411
114	0xbd079334	-0.03309937
115	0x3cc507b7	0.02405153
116	0x3d410311	0.047122065
117	0x3d190bde	0.037364833
118	0x3d3ff9c3	0.04686905
119	0xbbd25cf4	-0.0064197723
120	0xbd87c5fc	-0.066295594
121	0x3d86b9d5	0.065784134
122	0x3d96af34	0.07357636
123	0x3d8b9834	0.0681614
124	0xbd80a272	-0.06280984
125	0xbc5aa9ea	-0.013346175
126	0xbd867e6e	-0.06567083
127	0xbd4c7d3c	-0.04992412

weight f4 [1, 128]
0	0xbdb0b4ff	-0.08628272
1	0x3d706665	0.0586914
2	0x3c88a3cf	0.016679673
3	0xbbbec16a	-0.0058213966
4	0xbdb6e3e4	-0.089301854
5	0x3d285fca	0.041106977
6	0x3beabe93	0.0071638315
7	0x3c5f04da	0.013611997
8	0xbc56e71e	-0.013116626
9	0xbd0a1b1b	-0.033717256
10	0x3d0b459f	0.034001943
11	0x3c52890f	0.01285006
12	0xbc99791a	-0.018734504
13	0x3d881be9	0.066459484
14	0x3d848e2d	0.064724304
15	0x3d0a5d45	0.033780355
16	0x3cfd3f4d	0.030913973
17	0xbd29bb66	-0.041438483
18	0xbd231ac0	-0.039820433
19	0xbd44f941	-0.04808927
20	0x3d4b105e	0.049576156
21	0x3d242818	0.0400773
22	0xbdafdab9	-0.0858664
23	0xbce8d584	-0.028422125
24	0x3d9a4860	0.07533336
25	0x3db8fdca	0.090327814
26	0x3d3533d1	0.04423887
27	0x3c46bc66	0.012129879
28	0xbd73f271	-0.059557382
29	0xbd2e6376	-0.042575322
30	0xbc7f6a69	-0.015589335
31	0xbb045438	-0.00201918
32	0xbd2d3d5d	-0.04229485
33	0x3dd173a0	0.10227132
34	0x3d55f371	0.052234117
35	0x3d6a6c4e	0.057232194
36	0xbd8c081b	-0.068374835
37	0x3cb5b661	0.022181692
38	0x3d87c4e5	0.066293515
39	0x3d4ba2e7	0.049715903
40	0x3db8af20	0.090177774
41	0xbd07c5b1	-0.033147518
42	0xbd5f68ec	-0.05454342
43	0xbd338f1c	-0.04383765
44	0xbdcb5440	-0.09928179
45	0x3db85670	0.09000862
46	0xbd6cad55	-0.05778249
47	0x3d4e3479	0.05034301
48	0x3d78abb8	0.06071064
49	0x3ce0e427	0.027452542
50	0x3cbbffc1	0.022949101
51	0xbd9ad167	-0.075594716
52	0x3c8d4bb9	0.017248021
53	0xbd182d4f	-0.037152585
54	0x3ccfa0ab	0.025345167
55	0x3d15a935	0.03653832
56	0x3cecf5a8	0.028925732
57	0x3d9cb649	0.07651956
58	0xbb53c208	-0.0032311697
59	0x3db76112	0.089540616
60	0xbd943e3f	-0.07238435
61	0xbdb2d5b6	-0.087321684
62	0x3caed6bc	0.021342628
63	0x3d79bbf2	0.060970254
64	0x3d6c8361	0.05774248
65	0x3d1cc54c	0.038274094
66	0x3db1c691	0.08680452
67	0x3c9fad47	0.019491805
68	0xbd463daa	-0.04839865
69	0xbd1b7697	-0.037954893
70	0x3d301564	0.04298915
71	0x3d23d532	0.03999824
72	0x3d30d55d	0.04317223
73	0xbd4e98da	-0.05043874
74	0xbd008181	-0.031373505
75	0x3d1bf65a	0.038076736
76	0x3d114f50	0.03547603
77	0xbc9f0bd5	-0.019414822
78	0xbd4b0d74	-0.049573377
79	0x3d68f721	0.056876305
80	0xbd13875a	-0.036017753
81	0x3d2ea770	0.04264015
82	0xbdc26738	-0.09492344
83	0x3d918372	0.07105149
84	0xbd33b40c	-0.043872878
85	0xbdb78c17	-0.08962267
86	0x3c910cc0	0.017706275
87	0x3c85626b	0.01628228
88	0x3b96bcb3	0.0046001314
89	0xbda469a2	-0.0802796
90	0xbd43e203	-0.047822963
91	0x3d9531e0	0.072849035
92	0x3cc20ac1	0.023686768
93	0x3d3a6f5c	0.045516357
94	0x3dab7363	0.08371618
95	0xbb892c65	-0.0041862004
96	0xbdd02ffe	-0.10165404
97	0xbd267fe5	-0.040649313
98	0xbd921623	-0.071331285
99	0x3c676c03	0.014124873
100	0x3d78ca1d	0.060739625
101	0x3db0c528	0.086313546
102	0x3cefe3a4	0.029283352
103	0x3cf29ec1	0.029616715
104	0x3d094bcd	0.033519555
105	0x3d9699c3	0.073535465
106	0x3d011506	0.03151419
107	0x3d136399	0.035983656
108	0xbd9f2991	-0.077716
109	0xb8855299	-6.357319e-05
110	0xbdcc71a0	-0.0998261
111	0x3d5ecef4	0.054396585
112	0x3c7237a7	0.014783776
113	0x3d5970ba	0.05308602
114	0xbd369e8d	-0.0445848
115	0x3d9b54ac	0.07584509
116	0x3d091b58	0.033473343
117	0x3d4aaead	0.04948299
118	0x3c843f31	0.016143413
119	0x3d3bf333	0.04588623
120	0x3d8b2975	0.06795017
121	0x3dbeee7d	0.09322832
122	0xbd97553b	-0.07389303
123	0xbdcb86cd	-0.099378206
124	0xbd96fd3a	-0.07372518
125	0x3d0f7139	0.035020087
126	0xbd96de39	-0.07366604
127	0xbc023f8c	-0.007949721
