Dry fermentation prediction and optimization system/predictor_percolate_tank/Predictor_Percolate Tank Biogas Production/models/NeuralNetTorch_BAG_L1/S1F2/net.params (torch, 208391 bytes, 9 tensors)

weight f4 [128, 7]
0	0xbd703fb5	-0.058654506
1	0x3e300a1c	0.17191356
2	0xbeb4d01b	-0.35315022
3	0xbe9ab04a	-0.30212623
4	0xbe35a296	-0.17737803
5	0x3e0ac20e	0.13550588
6	0xbd0eaa96	-0.034830652
7	0x3e9a1b80	0.30099106
8	0xbd6691f5	-0.05629154
9	0x3db3b6ef	0.08775126
10	0xbe010daf	-0.12602876
11	0xbda15bd6	-0.078788444
12	0xbeb1b5f7	-0.3470914
13	0xbe7dd05e	-0.24786517
14	0xbe295a5d	-0.16538377
15	0xbb64fada	-0.0034939558
16	0x3e042335	0.12904055
17	0x3e6e549a	0.2327446
18	0xbe887209	-0.26649502
19	0xbe32670f	-0.17422126
20	0x3e037c5d	0.1284041
21	0x3ea872d3	0.32900104
22	0xbdc9de06	-0.09856801
23	0x3e8783b5	0.26467672
24	0xbd9279b0	-0.07152116
25	0x3cf5bd09	0.029997366
26	0x3eab7d0a	0.33493835
27	0xbeb51b0a	-0.35372192
28	0xbe6a31ef	-0.2287061
29	0xbdb7832f	-0.08960568
30	0xbe341c1d	-0.1758885
31	0x3e9be1ca	0.304457
32	0xbe8b2c57	-0.27182266
33	0xbe3f99b3	-0.18710975
34	0xbe82737f	-0.25478742
35	0xbebe6b34	-0.37191164
36	0xbe8144b6	-0.25247735
37	0x3e8fff81	0.28124622
38	0x3e210bad	0.1572711
39	0x3e2cf48b	0.1689016
40	0xbc0fc948	-0.0087760165
41	0xbe4379fa	-0.19089499
42	0x3daa9dc7	0.08330875
43	0xbeb3436f	-0.35012385
44	0xbe8c2397	-0.27370903
45	0xbe5a55cb	-0.2132179
46	0x3e639084	0.22223097
47	0x3e533623	0.2062612
48	0xbe221273	-0.1582735
49	0xbcb8e69a	-0.022570897
50	0x3e62fbdb	0.22166388
51	0x3ec74126	0.38916892
52	0x3e1d9fa9	0.15392937
53	0x3d5c30cc	0.053757474
54	0x3e7f69b0	0.2494266
55	0xbe67e622	-0.22646382
56	0x3dc0b97a	0.09410377
57	0xbea40833	-0.32037506
58	0xbe8f579d	-0.2799653
59	0xbe59f59a	-0.21285096
60	0x3e20d4d2	0.15706185
61	0x3e256ecc	0.16155547
62	0xbe5cbf5c	-0.21557373
63	0x3de53924	0.11192539
64	0x3e6bc8db	0.23025839
65	0xbd9203f7	-0.071296625
66	0x39ab6a92	0.00032695063
67	0x3d96d449	0.07364709
68	0x3e71d688	0.23616993
69	0x3eb3c9c0	0.3511486
70	0xbe93e855	-0.28888193
71	0xbe062df4	-0.13103467
72	0x3e2713a4	0.16316086
73	0x3ea1ba84	0.31587613
74	0x3eadca6c	0.33943498
75	0x3ea45a13	0.3209997
76	0x3d935313	0.071935795
77	0xbeaadd9c	-0.333722
78	0x3d2a3763	0.041556727
79	0xbe8ce3bb	-0.27517495
80	0xbeb8ca7a	-0.36091977
81	0x3eaaec19	0.33383253
82	0x3e97fd2c	0.29685342
83	0xbebf0e33	-0.3731552
84	0x3d7607c1	0.06006599
85	0xbd65e1a5	-0.056123395
86	0xbd5f5b4c	-0.054530427
87	0xbe1fda75	-0.15610678
88	0x3e24e9f9	0.16104878
89	0xbe6611e0	-0.22467756
90	0x3dfeb3bd	0.12436626
91	0x3e399878	0.18124568
92	0x3e7a0003	0.24414067
93	0x3e07393b	0.13205425
94	0xbeca54f3	-0.39517936
95	0xbe8c1c41	-0.27365306
96	0x3e550f89	0.20806707
97	0x3d8f90ce	0.07010041
98	0xbe948f03	-0.2901536
99	0xbe6ffce5	-0.23436315
100	0x3eaff3a5	0.34365574
101	0x3e83e0ed	0.25757542
102	0xbe2cf710	-0.16891122
103	0xbdbd90f8	-0.09256166
104	0xbeba5295	-0.3639113
105	0xbd1336db	-0.035940986
106	0xbe85c9d6	-0.2613055
107	0xbe974be6	-0.29550093
108	0xbc822073	-0.015884614
109	0x3d19f884	0.03759052
110	0xbe2ab5f3	-0.1667097
111	0x3e688315	0.22706254
112	0xbe62ab7b	-0.22135727
113	0x3eb37bac	0.35055292
114	0x3e737526	0.23775157
115	0xbeab3e56	-0.33445996
116	0xbd9824a6	-0.07428865
117	0x3cc59cdb	0.024122646
118	0x3d65cd63	0.056104075
119	0x3dd7f4ee	0.105447635
120	0x3e0cfdc7	0.13768683
121	0x3d596636	0.05307599
122	0xbe384ff6	-0.17999253
123	0x3e534d96	0.20635065
124	0xbeb1ee99	-0.34752348
125	0xbe6678d1	-0.22507025
126	0xbe04534b	-0.12922399
127	0xbe4f453a	-0.20241252
128	0xbe1c1077	-0.15240656
129	0xbe9c8f2c	-0.3057798
130	0xbd9654b9	-0.07340378
131	0x3d965255	0.07339922
132	0xbe667012	-0.22503689
133	0xbc089227	-0.008335627
134	0x3e91bec6	0.2846586
135	0xbd5c21c5	-0.053743143
136	0xbb899ee6	-0.0041998504
137	0xbcfa54f0	-0.03055808
138	0x3da387f9	0.07984919
139	0x3e6ce5ab	0.23134486
140	0x3ebfd449	0.37466648
141	0x3e6aa251	0.22913481
142	0x3ebd8b1e	0.370202
143	0xbceae850	-0.028675228
144	0xbeb4cb51	-0.35311368
145	0xbe261426	-0.16218624
146	0x3e7c6708	0.24648678
147	0xbc10f6f6	-0.008847943
148	0xbe5e99bb	-0.21738331
149	0xbea5dab8	-0.32393432
150	0xbebfdcd6	-0.37473172
151	0xbeb0af22	-0.34508616
152	0xbd981afc	-0.07427022
153	0x3e46f5ad	0.19429655
154	0x3e3221f6	0.17395768
155	0xbec9c683	-0.39409265
156	0x3e74ecf5	0.23918517
157	0xbe99215a	-0.29908258
158	0xbd76d180	-0.06025839
159	0xbe201dd9	-0.15636386
160	0xbd8c2b55	-0.068442024
161	0xbdcd8269	-0.100346394
162	0xbea518c3	-0.32245454
163	0xbeb9d68e	-0.36296505
164	0xbd815da8	-0.06316692
165	0xbc963a0c	-0.018338226
166	0xbe392447	-0.18080245
167	0x3e0e3e84	0.13891035
168	0xbea94411	-0.33059743
169	0xbcf78a35	-0.03021727
170	0x3eabf0d8	0.33582187
171	0xbe16e067	-0.1473404
172	0x3eb690df	0.35657403
173	0x3e074471	0.13209702
174	0xbeb5c016	-0.35498112
175	0x3e781c93	0.2422965
176	0xbdb63e0f	-0.088985555
177	0xbe219ae4	-0.15781742
178	0x3ea2969c	0.3175553
179	0xbe94f8d7	-0.290961
180	0x3cd0861f	0.025454579
181	0xbdc58e16	-0.09646241
182	0x3e8d5625	0.27604786
183	0x3dcc6b3a	0.09981389
184	0x3e4adc6c	0.19810647
185	0x3e0d1e3b	0.13781063
186	0xbda8a680	-0.08234882
187	0xbda7f95a	-0.08201857
188	0xbe9f500f	-0.31115767
189	0x3e63a313	0.22230177
190	0x3e9ee6f6	0.31035584
191	0x3e7706f5	0.24123748
192	0xbe8f7c8c	-0.2802471
193	0x3c8bcf67	0.01706667
194	0xbe7be55c	-0.24599212
195	0xbe59e711	-0.21279551
196	0xbe51cdf2	-0.20488718
197	0x3e225b90	0.15855241
198	0xbe6f4375	-0.23365577
199	0x3bc9eaf0	0.00616204
200	0x3d16a413	0.036777567
201	0x3e6f7f5c	0.23388427
202	0xbe8fcdad	-0.28086606
203	0xbe8aa684	-0.27080166
204	0xbe777f7d	-0.24169727
205	0x3e883feb	0.26611266
206	0xbe182a21	-0.14859821
207	0x3ea176b3	0.31535873
208	0x3e017d8f	0.12645553
209	0x3d50abaf	0.05094498
210	0x3c834a4f	0.016026644
211	0xbd9928dc	-0.074784964
212	0x3d472dc6	0.048627637
213	0xbdb205aa	-0.086924866
214	0xbb8723fc	-0.0041241627
215	0x3d207fb1	0.039184276
216	0xbe99a689	-0.3000987
217	0xbe47f2ea	-0.19526258
218	0x3eaa15a6	0.3321964
219	0xbe91db37	-0.2848756
220	0xbc49e0fe	-0.012321709
221	0x3ec712f8	0.3888166
222	0x3de505f6	0.111827776
223	0x3cc9ff56	0.024657886
224	0xbeaece5e	-0.3414182
225	0x3e415d69	0.1888329
226	0xbe907b89	-0.2821925
227	0xbdbc69dd	-0.09199879
228	0xbe0080be	-0.12549111
229	0xbd6219b4	-0.055200294
230	0xbbcbdfb8	-0.0062217377
231	0x3ea391b6	0.31947106
232	0x3d1d0297	0.038332548
233	0x3ea8fff1	0.33007768
234	0x3e726405	0.23670967
235	0xbe700cda	-0.23442402
236	0x3e27d516	0.1638988
237	0xbe88fdb2	-0.26756054
238	0xbe2412ca	-0.16022792
239	0x3dbe061e	0.092785105
240	0x3dbcdd8b	0.092219435
241	0x3e8ac488	0.27103066
242	0xbe0a4f6a	-0.13506857
243	0x3b70e22d	0.0036755905
244	0x3e3b7d11	0.18309428
245	0xbed5cae8	-0.41756368
246	0x3e77da8c	0.24204463
247	0xbebe47da	-0.37164193
248	0xbc8bc020	-0.017059386
249	0xbdf36480	-0.11884403
250	0xbe4f59e5	-0.20249136
251	0x3d513ea2	0.051085122
252	0x3eb1ff9c	0.34765327
253	0xbdd757d4	-0.10514799
254	0xbe6eba41	-0.23313238
255	0xbe242e95	-0.16033395

bias f4 [128]
0	0xbe9ff12f	-0.31238696
1	0xbcf90850	-0.030399472
2	0x3dfb7cff	0.122797005
3	0x3e1291e8	0.14313471
4	0x3ea6ea12	0.32600456
5	0x3ec579e5	0.3856956
6	0x3ebc86ef	0.36821696
7	0x3e930d88	0.2872126
8	0x3e90e9d7	0.28303406
9	0xbd8a2939	-0.06746144
10	0xbe93230f	-0.28737685
11	0xbe14b7e3	-0.14523272
12	0xbd7bc70b	-0.06146912
13	0xbe3a3245	-0.18183239
14	0x3e4f0825	0.2021795
15	0x3de846ff	0.113416664
16	0x3d87a77f	0.06623744
17	0x3db7affc	0.08969113
18	0x3ea4851e	0.3213281
19	0x3e1599d4	0.14609462
20	0xbeb051d4	-0.3443743
21	0xbe8204b5	-0.25394216
22	0x3e19f921	0.15036441
23	0x3d371e19	0.044706438
24	0x3e3d8f26	0.18511638
25	0xbec7f67a	-0.39055234
26	0xbeb131a5	-0.34608188
27	0x3e701d20	0.2344861
28	0x3e5868f7	0.21133791
29	0xbea9c7ec	-0.3316034
30	0x3e1fc898	0.15603864
31	0xbe998cb5	-0.29990163
32	0x3e8c3917	0.27387306
33	0x3e0e4a64	0.13895565
34	0x3ec665e2	0.38749605
35	0xbea47d01	-0.3212662
36	0xbeaf619f	-0.34254166
37	0x3e80ca3c	0.25154293
38	0x3ea7e9dc	0.32795608
39	0x3e79dd01	0.24400713
40	0x3e89ef81	0.2694054
41	0xbe9f3709	-0.31096676
42	0x3e8d1622	0.27555948
43	0xbeb1118f	-0.3458371
44	0x3dc8e13a	0.098085836
45	0xbe6062b9	-0.2191266
46	0xbe196020	-0.14978075
47	0x3d9ecc86	0.077538535
48	0xbe142ae8	-0.14469492
49	0xbd7aa429	-0.06119171
50	0xbeb765e9	-0.3581994
51	0xbeb877b9	-0.3602884
52	0x3e1c194d	0.15244026
53	0xbe138cea	-0.14409223
54	0xbe6814be	-0.22664163
55	0xbe01e9ef	-0.12686895
56	0xbe92bff0	-0.28662062
57	0xbe9cf37f	-0.30654523
58	0x3e838a6b	0.25691542
59	0x3e492a22	0.19644979
60	0x3d0b424d	0.033998776
61	0xbe3af0f0	-0.18255973
62	0x3df14c51	0.11782134
63	0x3c2ecd77	0.010669104
64	0xbe8597e4	-0.26092446
65	0x3dbced45	0.09224943
66	0x3eb830d9	0.35974768
67	0xbeb846f7	-0.35991642
68	0xbeb5af55	-0.3548533
69	0x3d70ad00	0.058758736
70	0x3e9553bf	0.29165456
71	0xbe65125d	-0.22370286
72	0x3ddbda9f	0.10735058
73	0x3e9290d4	0.2862612
74	0x3df07a80	0.11742115
75	0x3db79e76	0.08965771
76	0x3ec1c766	0.3784744
77	0x3e781a1a	0.24228707
78	0xbe524328	-0.2053343
79	0x3d095f0b	0.033537906
80	0x3e3ad58d	0.18245526
81	0x3eab3845	0.33441368
82	0xbec322ca	-0.3811248
83	0x3e4978af	0.19674943
84	0xbdbee13f	-0.09320306
85	0xbeb684cb	-0.35648188
86	0x3d956357	0.07294338
87	0xbe3911dd	-0.1807322
88	0x3cc5fc1c	0.024168067
89	0xbe74157e	-0.23836324
90	0xbe91c37f	-0.28469464
91	0xbcfd4918	-0.030918643
92	0xbddda5bb	-0.10822626
93	0x3e6d3055	0.23162968
94	0x3d02fe06	0.031980537
95	0x3e948581	0.29008105
96	0x3d86beb7	0.06579345
97	0xbe025681	-0.12728311
98	0x3e8660b2	0.26245648
99	0x3cfa4873	0.030552125
100	0x3d455e07	0.048185375
101	0xbde00463	-0.10938337
102	0x3c1ee667	0.009698487
103	0xbddaa6d8	-0.10676354
104	0xbc7ddffa	-0.015495295
105	0xbe8e7857	-0.27826187
106	0x3c2cdd9f	0.010550885
107	0xbe921fe6	-0.28539962
108	0xbddaa021	-0.106750734
109	0x3e7f4c52	0.24931458
110	0xbe80f8e0	-0.25189877
111	0xbe66b6ce	-0.22530672
112	0xbdc6f9aa	-0.097155884
113	0xbdcaa82c	-0.098953575
114	0x3d65505c	0.05598484
115	0x3dc67396	0.09690015
116	0x3e45f7e2	0.19332841
117	0xbe85dbc1	-0.2614422
118	0xbcfad8ee	-0.030621018
119	0x3e3e1216	0.18561587
120	0x3ea68c2b	0.32528815
121	0xbca52fac	-0.020164333
122	0xbe567738	-0.20943916
123	0x3df6ba38	0.12047237
124	0x3e5e8a2e	0.21732399
125	0xbe6f64eb	-0.23378341
126	0xbe558b43	-0.20853905
127	0x3e391266	0.18073425

weight f4 [128, 128]
0	0x3cc97a2f	0.024594394
1	0xbda611b7	-0.081088476
2	0xbd63891a	-0.055550672
3	0x3d169e30	0.036771953
4	0xbc3cb648	-0.011518069
5	0x3d8c9aaf	0.06865441
6	0x3dba70b6	0.09103529
7	0x3c45b6f9	0.01206755
8	0x3cbeda88	0.023297563
9	0xbd201615	-0.03908356
10	0xbc11056d	-0.008851391
11	0x3c606174	0.01369511
12	0xbda474de	-0.08030103
13	0xbad36a55	-0.0016129712
14	0xbd87425b	-0.06604453
15	0x3d9839e2	0.07432915
16	0xbd2bcc3e	-0.041942827
17	0x3da007d4	0.07813993
18	0x3c181081	0.009281279
19	0xbd0310b8	-0.031998366
20	0x3c9e60cf	0.019333271
21	0x3d354fdb	0.04426561
22	0x3da541c6	0.08069186
23	0x3d70553e	0.058675043
24	0xbda80c12	-0.08205427
25	0x3dba5399	0.09097976
26	0xbba120e0	-0.004917249
27	0xbcd53d25	-0.026030133
28	0x3d821c51	0.06353057
29	0x3d869a0b	0.0657235
30	0xbd79fad3	-0.06103022
31	0xbbfee08b	-0.0077782325
32	0x3dcfb5da	0.10142107
33	0x3d135aa8	0.03597513
34	0x3da8d8e1	0.08244491
35	0xbd265625	-0.040609498
36	0xbc753914	-0.014967222
37	0x3da181e8	0.07886106
38	0x3d41929f	0.04725897
39	0x3de659e5	0.11247615
40	0xbd015a6c	-0.031580374
41	0xbdc5bae8	-0.0965479
42	0x3b5d1692	0.0033735377
43	0xbdd49f89	-0.103819914
44	0x3d6eae52	0.058271714
45	0x3d8c1237	0.06839412
46	0x3cd3793f	0.02581465
47	0xbc52d1ac	-0.0128673725
48	0x3d257661	0.040396098
49	0xbd519410	-0.051166594
50	0x3dabc1a2	0.08386542
51	0xbdad8e36	-0.0847439
52	0xbd958744	-0.073011905
53	0x3c60a29d	0.013710645
54	0x3d8630e1	0.06552292
55	0x3c9bffe3	0.019042915
56	0x3d1294c6	0.035786413
57	0xbd6b92e8	-0.057513148
58	0x3d5e9d0a	0.054348983
59	0x3ca1e314	0.0197616
60	0x3d0361df	0.03207576
61	0x3d596372	0.053073354
62	0x3d0fbe69	0.0350937
63	0xbc4ec807	-0.012620932
64	0xbb08ad8a	-0.002085539
65	0xbd43c195	-0.047792036
66	0xbcb9096c	-0.0225875
67	0x3d7ff056	0.06248506
68	0xbcdd098c	-0.026982091
69	0x3d7652f0	0.06013769
70	0xbcba5f7b	-0.022750607
71	0xbc50305c	-0.012706842
72	0x3c9a8e79	0.018866764
73	0xbd7b6824	-0.061378613
74	0x3bc08cd1	0.0058761616
75	0xbc0b7965	-0.008512829
76	0x3c58accb	0.013224791
77	0x3c547793	0.012967962
78	0x3d5b8d6a	0.05360166
79	0x3d7b5a8e	0.061365657
80	0xbd762c39	-0.060100768
81	0x3d3f0117	0.0466319
82	0xbda9ca8d	-0.082905866
83	0xbd7f2b05	-0.062296886
84	0x3d530a26	0.05152335
85	0x3baf6ad4	0.005353311
86	0xbd1d42d8	-0.038393825
87	0xbdab1bfe	-0.083549485
88	0xbd4059c7	-0.04696062
89	0x3c88cf93	0.016700542
90	0xbd857690	-0.065167546
91	0xbdb42996	-0.087969944
92	0x3cce63b5	0.025194028
93	0xbcf7edb3	-0.030264711
94	0xbda68a46	-0.08131842
95	0xbd1217e5	-0.03566732
96	0xbc61518c	-0.013752352
97	0xbda8802a	-0.0822757
98	0xbd7150da	-0.058914997
99	0x3d0d2c3c	0.034466013
100	0xbd5a22a4	-0.053255692
101	0xbc96817a	-0.018372286
102	0xbd758bb6	-0.05994769
103	0xbd748dec	-0.05970566
104	0x3d54a8b9	0.05191872
105	0xbd59f8e3	-0.053215872
106	0xbd71cfde	-0.05903613
107	0x3d51360b	0.05107693
108	0x3cb988b2	0.02264819
109	0x3dc7759a	0.097392276
110	0xbcb68598	-0.0222805
111	0xbd4bd3a7	-0.049762394
112	0x3c830aaf	0.015996305
113	0x3ab033a3	0.0013443123
114	0x3d8d27c8	0.06892353
115	0xbd985c72	-0.074395075
116	0x392eec19	0.00016681886
117	0x3d18123a	0.037126757
118	0xbd0d53d0	-0.034503758
119	0xbd141a6c	-0.03615801
120	0x3d3da2e0	0.046297908
121	0xbd901476	-0.070351526
122	0x3bebb526	0.0071932254
123	0xbd4c8baa	-0.04993788
124	0x3d94026b	0.07227024
125	0xbd92b56b	-0.07163509
126	0x3d57a2bf	0.05264544
127	0xbd9c136f	-0.07620894
128	0xbd5648b7	-0.05231544
129	0x3c30b31c	0.0107848905
130	0x3db37c25	0.08763913
131	0xbdbaa62f	-0.09113728
132	0xbca8928c	-0.020577691
133	0x3d9637b9	0.07334847
134	0xbc8070a1	-0.015678706
135	0x3ca5a066	0.020218085
136	0xbda39785	-0.079878844
137	0xbd1458bb	-0.036217432
138	0xbd84226b	-0.06451877
139	0x3dea7839	0.11448712
140	0x3d43ce04	0.047803894
141	0xbd8ab3e5	-0.067725934
142	0x3c720c3f	0.0147734275
143	0x3c99709d	0.018730456
144	0xbd1176da	-0.035513736
145	0xbd321587	-0.04347756
146	0xbbdf4295	-0.006813357
147	0x3d8779f5	0.06615058
148	0xbd686814	-0.05673988
149	0xbd216914	-0.03940685
150	0xbce7ddc5	-0.02830399
151	0x3cd7d845	0.026348243
152	0x3bfc31eb	0.0076963804
153	0xbc256350	-0.010094479
154	0xbc9c6a2a	-0.019093592
155	0xbd489172	-0.048966832
156	0xbbce9c90	-0.006305285
157	0xbd61497a	-0.055001713
158	0x3d6cb9b5	0.05779429
159	0xbdfeeae5	-0.12447146
160	0xbcbf6fb1	-0.023368688
161	0xbda2c307	-0.07947355
162	0xbc3f55b7	-0.011678151
163	0x3dc3249c	0.09528467
164	0x3d9c8716	0.07642953
165	0xbdbab8a8	-0.09117252
166	0xbab0550a	-0.0013453078
167	0x3d90af32	0.07064666
168	0x3d24a096	0.04019221
169	0x3dae66a6	0.085156724
170	0xbb3ec419	-0.0029108583
171	0xbd8817ef	-0.0664519
172	0x3d8825b4	0.06647816
173	0xbd6f41f0	-0.058412492
174	0x3d224578	0.03961703
175	0xbc4cfbab	-0.012511174
176	0x3d23a2a8	0.039950043
177	0x3da86f55	0.0822436
178	0x3d6b3d16	0.057431303
179	0xbd8a1d22	-0.06743838
180	0xbd8d91c9	-0.06912572
181	0xbcbf21db	-0.023331573
182	0xbd8af760	-0.06785464
183	0x3d8a0565	0.0673931
184	0xbc4068a3	-0.011743697
185	0xbd81ef3f	-0.06344461
186	0xbd2772d5	-0.040880997
187	0xbd2132e0	-0.03935516
188	0x3d2e5264	0.042559043
189	0xbd74799d	-0.059686292
190	0xbd85fc9e	-0.065423235
191	0xbd98c7f9	-0.07460017
192	0x3ca88584	0.020571478
193	0x3d572501	0.052525524
194	0xbd64160e	-0.055685095
195	0x3c3ddc26	0.011588132
196	0x3daa0d9c	0.08303377
197	0xba829cf9	-0.0009964994
198	0xbd0c1e81	-0.03420878
199	0x3b94d268	0.004541684
200	0xbd1c9ca8	-0.038235337
201	0x3d1f79d1	0.038934533
202	0xbd75fbbd	-0.06005453
203	0x3d70f8fa	0.058831193
204	0x3d9f1e7e	0.07769488
205	0xbd588166	-0.05285778
206	0x3db4e179	0.08832068
207	0x3df892bc	0.12137362
208	0xbbb5eb7c	-0.0055517536
209	0xbd07b527	-0.033131745
210	0x3d490b9d	0.04908334
211	0xbd68fea4	-0.05688347
212	0x3d0eecbc	0.034893736
213	0x3caea1f1	0.021317454
214	0x3d75926d	0.059954096
215	0xbd7ad8c6	-0.061241888
216	0xbd9a89fb	-0.07545849
217	0x3d7a33d3	0.06108458
218	0x3cddc4df	0.027071415
219	0xbd66386a	-0.056206144
220	0xbd0be97b	-0.03415821
221	0xbd8ddb29	-0.06926567
222	0xbd58f5d2	-0.052968808
223	0xbd28c283	-0.041201126
224	0x3da28ce5	0.0793703
225	0x3ab99e8e	0.0014161633
226	0x3d7af112	0.06126506
227	0x3da4371f	0.08018326
228	0x3d96007b	0.073243104
229	0xbd7e8d35	-0.062146384
230	0x3c93622f	0.017991154
231	0x3d8c5a3c	0.06853148
232	0x3d49e814	0.049293593
233	0xbd935181	-0.0719328
234	0x3d4bb685	0.04973461
235	0x3d41a4d9	0.04727635
236	0xbd7f2920	-0.06229508
237	0x3c047615	0.008084794
238	0x3da2d0ea	0.079500034
239	0xbd63b465	-0.05559196
240	0x3d94aed0	0.07259905
241	0x3d2ebbe4	0.042659655
242	0x3cec7775	0.028865555
243	0x3da62f75	0.081145205
244	0x3d4b7e93	0.049681257
245	0x3d7b319b	0.061326604
246	0xbc9b9db6	-0.0189961
247	0x3dbc3a28	0.0919078
248	0xbda17477	-0.07883542
249	0xbd4fd4e4	-0.050740138
250	0xbc18c062	-0.009323211
251	0xbd13a514	-0.036046103
252	0x3de57867	0.112046055
253	0x3d31deca	0.04342536
254	0x3d8bf342	0.06833507
255	0x3d5ddf8a	0.05416826

bias f4 [128]
0	0x3d30f8d1	0.04320604
1	0xbd8de3f2	-0.06928243
2	0x3ca9d4c2	0.020731334
3	0x3ca1eb77	0.019765599
4	0x3bfa7a72	0.007643991
5	0x3d53e52d	0.05173223
6	0x3d779b48	0.060450822
7	0x3d868b2a	0.06569512
8	0xbd98ccbd	-0.07460926
9	0x3bec2b20	0.0072072893
10	0x3d7a4b67	0.061107066
11	0x3d5df5f3	0.054189634
12	0xbd7fbc6a	-0.062435545
13	0x3ad38078	0.0016136309
14	0xbc769ddb	-0.015052284
15	0xbc9e0db8	-0.019293651
16	0x3d6c84e9	0.05774394
17	0x3d622d34	0.05521889
18	0xbd8ec814	-0.069717556
19	0x3ae6b2eb	0.0017600929
20	0xbd0eb9ec	-0.034845278
21	0x3d42ed02	0.04758931
22	0x3b78ae97	0.003794586
23	0x3d1d814f	0.038453396
24	0xbbf072c5	-0.0073379003
25	0x3db41f44	0.08795026
26	0xbd9055d1	-0.07047618
27	0x3d30db39	0.043177817
28	0x3dcffc9d	0.10155604
29	0xbcefb6fe	-0.029262062
30	0x3ceea2c6	0.02913035
31	0xbd324564	-0.043523207
32	0xbccd1853	-0.025036013
33	0xbd30f31f	-0.04320061
34	0x3d36d3d6	0.044635616
35	0x3d7b2177	0.06131121
36	0xbc866d2c	-0.01640948
37	0x376b6e90	1.4032834e-05
38	0xbd9e8f84	-0.07742217
39	0x3d6b6539	0.05746958
40	0x3d347fa9	0.04406706
41	0x3c27cdc2	0.010241928
42	0xbd06cca8	-0.03291002
43	0x3d35b98e	0.044366412
44	0xbd18ff1b	-0.037352663
45	0x3d882a1c	0.06648657
46	0xbd59bcb4	-0.053158477
47	0x3d54340d	0.051807452
48	0xbd4da94e	-0.05021029
49	0x3c43f60f	0.01196052
50	0x3dcf0991	0.101092465
51	0x3d81b1df	0.06332754
52	0xbd84b22c	-0.06479296
53	0xbc378ea6	-0.011203444
54	0x3c3dd5d6	0.011586627
55	0xbd07a909	-0.03312019
56	0xbc08f6e5	-0.0083596455
57	0x3da102d0	0.078618646
58	0xbd593d22	-0.053036816
59	0xbda59f40	-0.08087015
60	0xbd90539e	-0.07047199
61	0xbbab3f54	-0.005226055
62	0xbc1b7ede	-0.009490697
63	0x3c857184	0.01628948
64	0xbd29fd9e	-0.041501634
65	0xbd248102	-0.040162094
66	0xbd579a23	-0.05263723
67	0x3d39ddec	0.045377657
68	0x3dbb013b	0.09131094
69	0xbd9113f0	-0.07083881
70	0x3d3fc6f7	0.046820607
71	0x3d93bd55	0.072138466
72	0xbd8f007f	-0.069825165
73	0xbd04371b	-0.032279115
74	0x3da50b04	0.08058742
75	0xbcc80f4c	-0.024421357
76	0x3d826cad	0.063683845
77	0xbbbe741a	-0.00581218
78	0xbd94e78f	-0.07270729
79	0x3d550287	0.052004363
80	0x3b96992f	0.0045958976
81	0xbd42bdbc	-0.047544226
82	0x3d0fdcc1	0.035122637
83	0xbc705473	-0.014668572
84	0xbcf2cd06	-0.029638778
85	0xbd130b32	-0.03589935
86	0xbd73df2a	-0.059538998
87	0xbd99aec5	-0.07504038
88	0xbc51f757	-0.012815318
89	0xbd1c2d8e	-0.03812938
90	0x3d20feb1	0.039305393
91	0x3d8ea0df	0.069642775
92	0xbc4dd0ef	-0.012562021
93	0xbd9f3917	-0.07774561
94	0xbda6b58c	-0.08140096
95	0x3d2bbb0c	0.04192643
96	0xbb93a9ac	-0.0045063104
97	0xbd88f3e7	-0.06687146
98	0xbd299970	-0.041406095
99	0x3d0e7e32	0.034788318
100	0x3cd28097	0.025696082
101	0x3cf464b6	0.029833179
102	0x3db09abc	0.08623263
103	0xbd31cc3a	-0.043407656
104	0xbbe2f81e	-0.0069265505
105	0xbd841f69	-0.064513035
106	0x3dab4d28	0.08364326
107	0xbc95654c	-0.018236779
108	0xbca49fd0	-0.020095736
109	0x3b79ba62	0.0038105478
110	0xbca61c7e	-0.020277258
111	0x3c18c4b8	0.009324245
112	0x3d805b7c	0.06267449
113	0x3c95e987	0.018299831
114	0x3d0142ec	0.031557962
115	0xbcef6e07	-0.02922727
116	0x3d5f9aad	0.05459087
117	0x3dd4bfb8	0.1038813
118	0xbd9cc265	-0.07654265
119	0xbcf7ad37	-0.030233962
120	0x3dc754e3	0.09732988
121	0x3d9ce6d7	0.07661217
122	0x3cba4e4d	0.022742415
123	0x3dc589c1	0.09645415
124	0xbbb8c1d0	-0.0056383386
125	0x3d291413	0.04127891
126	0x3d006cc5	0.03135373
127	0x3dc05976	0.09392063

weight f4 [128, 128]
0	0xbcdb2f03	-0.026755815
1	0x3d42b13b	0.0475323
2	0x3d7cf657	0.061758365
3	0xbd1af935	-0.03783532
4	0xbd3b93e2	-0.04579533
5	0x3c66ec65	0.014094447
6	0xbda818a0	-0.08207822
7	0x3d5c69f7	0.053811993
8	0x3dea62c6	0.11444621
9	0x3d74b027	0.059738304
10	0xbd0bdb8e	-0.03414493
11	0x3db26ee4	0.08712557
12	0x3d202af3	0.03910346
13	0xbd0a972b	-0.03383557
14	0xbcf986cf	-0.03045979
15	0x3d0d5fbb	0.034515124
16	0x3ccbb5f7	0.024867041
17	0x3d9840b5	0.07434217
18	0x3d71f9f4	0.059076265
19	0x3b9b3140	0.0047360957
20	0x3c2dc0d1	0.010605053
21	0x3c5e969e	0.013585715
22	0xbda5b3c4	-0.08090928
23	0x3a8137bf	0.0009858533
24	0x3a376870	0.00069964584
25	0x3d2b961a	0.041891195
26	0xbb3cdf89	-0.002881976
27	0x3b594980	0.0033155382
28	0xbc2eddf2	-0.010673033
29	0xbdc5a27c	-0.09650132
30	0xbb80e67f	-0.0039337273
31	0xbd164e59	-0.036695812
32	0x3d41b72f	0.047293838
33	0xbc8bf8ea	-0.017086465
34	0xbd29be58	-0.04144129
35	0xbd799a72	-0.060938306
36	0xbc760332	-0.01501541
37	0x3dca37aa	0.09873898
38	0x3d3cd9e1	0.046106223
39	0xbd6a0a78	-0.05713889
40	0xbd8d2447	-0.06891685
41	0x3ccefe08	0.025267616
42	0xbd0a0293	-0.03369386
43	0xbce9701c	-0.02849584
44	0xbd808461	-0.06275249
45	0x3cdae486	0.026720297
46	0x3ccd701d	0.025077874
47	0x3de1cb92	0.11025156
48	0xbd1a6fb8	-0.0377042
49	0xbd7fccc6	-0.062451147
50	0x3c2f45a6	0.010697758
51	0x3d3151a4	0.04329075
52	0x3d70b833	0.058769416
53	0xbda35f64	-0.07977179
54	0x3d63f18a	0.05565027
55	0xba288731	-0.00064288365
56	0xbcbffb94	-0.023435391
57	0xbd227855	-0.03966554
58	0xbda67b07	-0.08128934
59	0xbcdfa192	-0.027298722
60	0xbdcdea11	-0.1005441
61	0x3cc0ad3c	0.023520105
62	0xbd6a7851	-0.05724365
63	0xbdae36bf	-0.08506536
64	0xbcf8885c	-0.030338459
65	0x3c8c6754	0.017139114
66	0xbd34faa7	-0.044184353
67	0xbd93f063	-0.072235845
68	0x3b3d8760	0.00289198
69	0x3d8c31e5	0.06845454
70	0x3bc8dc10	0.006129749
71	0x3c65ac4e	0.014018131
72	0xbcf9fdc9	-0.030516522
73	0xbd2442a0	-0.0401026
74	0x3c99799c	0.018734746
75	0x3d92d798	0.071700275
76	0xbdb8c3eb	-0.090217434
77	0x3d87508a	0.066071585
78	0xbd97dfce	-0.07415734
79	0xbdad5b9a	-0.08464737
80	0xbdbcedd8	-0.092250526
81	0x3cca7a35	0.024716476
82	0xba9d3f01	-0.0011996926
83	0x3bb69a4f	0.0055725942
84	0xbd6e39c0	-0.058160543
85	0xbd1a2b11	-0.037638728
86	0x3d37fb21	0.04491723
87	0x3d0ef4cb	0.03490142
88	0xbdb3555d	-0.08756516
89	0xbbc82c41	-0.006108791
90	0x3bf61433	0.007509732
91	0xbd15d3e5	-0.03657903
92	0x3d38bce1	0.045102004
93	0xbd983c1d	-0.07433341
94	0x3d2dda0f	0.042444285
95	0xbd5dbba2	-0.05413402
96	0x3d94fb69	0.07274515
97	0x3a380fe4	0.0007021411
98	0x3d457b8d	0.04821353
99	0xbd397dc8	-0.04528597
100	0xbd9e4051	-0.07727111
101	0x3d87431d	0.06604598
102	0xbd23f28f	-0.040026244
103	0x3c081d1c	0.0083077215
104	0x3d5d3dab	0.05401389
105	0x3d68f54f	0.05687457
106	0x3c9cf349	0.019158976
107	0xbd966953	-0.07344308
108	0xbd713d77	-0.058896508
109	0x3d8d4b7b	0.068991624
110	0x3c686de2	0.014186354
111	0x3d0b0f3c	0.033950076
112	0xbc65dedd	-0.0140301855
113	0xbdb596dd	-0.088666655
114	0xbd0a9475	-0.033832986
115	0x3d5c29c6	0.053750776
116	0x3d9a6770	0.075392604
117	0xbd70271f	-0.05863106
118	0xbd0f8b0a	-0.035044707
119	0x3ddfdd48	0.10930878
120	0x3ddfcd31	0.10927809
121	0x3dbae9fb	0.091266595
122	0x3d8f80d1	0.07006992
123	0x3d7a6c46	0.061138414
124	0x3c2c663e	0.010522423
125	0xbd8be062	-0.06829907
126	0xbc679e4f	-0.014136865
127	0xbdb37b49	-0.08763749
128	0x3d8eaa10	0.069660306
129	0x3d0e46a6	0.034735344
130	0x3d2a1245	0.04152133
131	0x3c0a1fe8	0.008430459
132	0xbd9feb89	-0.07808597
133	0x3d8c798b	0.0685912
134	0x3c5bcadf	0.013415067
135	0x3d02a354	0.031894043
136	0xbc6f16ae	-0.01459281
137	0xbd5e16d3	-0.054220986
138	0x3c938dba	0.018011916
139	0xbcb2173d	-0.021739597
140	0x3dcb57a6	0.09928827
141	0x3c9423ad	0.018083418
142	0x3c344f86	0.011005288
143	0x3d88208b	0.06646832
144	0xbd426e0c	-0.04746823
145	0x3d9186c6	0.07105784
146	0x3c98cd6d	0.018652642
147	0xbda27cde	-0.07933973
148	0x3ca8ba59	0.02059667
149	0xbd5991a3	-0.053117406
150	0x3d3b68d0	0.045754254
151	0x3da8e7cc	0.08247337
152	0x3b8d768a	0.0043171095
153	0xbd2047cf	-0.039130982
154	0x3bc57f97	0.006027173
155	0x3d878ed3	0.066190384
156	0x3d8908f2	0.06691159
157	0x3d974ea9	0.0738805
158	0x3b3f3e6f	0.00291815
159	0xbd8888c7	-0.06666713
160	0x3d376f0c	0.044783637
161	0x3bc30774	0.005951816
162	0x3c984b5e	0.018590625
163	0x3d97e8b5	0.07417432
164	0xbcf91449	-0.03040518
165	0x3db0b1cc	0.08627662
166	0xbd66a8af	-0.056313213
167	0xbd59afe2	-0.05314625
168	0x3d0a2af8	0.033732384
169	0x3d94d5dc	0.07267353
170	0xbcbbbb7d	-0.02291655
171	0x3abed574	0.0014559464
172	0x3bf00442	0.0073247263
173	0x3d21e6b9	0.039526675
174	0xbcab91c8	-0.020943537
175	0xbd990f5b	-0.07473632
176	0x3d19d90b	0.037560504
177	0xbdb40c66	-0.08791427
178	0xbd926daf	-0.07149827
179	0xbdacd6fa	-0.08439441
180	0x3c9340a4	0.017975159
181	0x3d2a1315	0.041522104
182	0xbd6f161b	-0.05837069
183	0x3d9386c0	0.07203436
184	0xbdab7485	-0.08371834
185	0x3d720b4d	0.05909281
186	0x3cb9e3fb	0.022691717
187	0xbce89866	-0.028392982
188	0x3d85e5b3	0.06537952
189	0x3d6e50c0	0.058182478
190	0x3d972a8f	0.07381164
191	0xbd938563	-0.07203176
192	0xbcf593f3	-0.029977774
193	0xbd8f990f	-0.070116155
194	0x3d78b1e9	0.060716543
195	0x3caa7c5a	0.020811249
196	0xbd153a2e	-0.036432438
197	0xbcafdc40	-0.021467328
198	0x3d68af73	0.056807946
199	0x3dc0aeda	0.0940835
200	0xbbd0fa5b	-0.006377501
201	0xbdb228dc	-0.086991996
202	0xbce3bc5f	-0.027799783
203	0x3d89051d	0.066904284
204	0x3d25296e	0.040322714
205	0x3d4db5af	0.050222095
206	0x3d8c5ab2	0.06853236
207	0xbcf1b379	-0.029504525
208	0x3d26a2fc	0.040682778
209	0x3b41d36b	0.0029575478
210	0xbd47afca	-0.04875163
211	0xbd403180	-0.046922207
212	0x3d0ff820	0.03514874
213	0x3c73753e	0.014859496
214	0x3d308992	0.043099947
215	0x3da435fc	0.08018109
216	0xbda1081d	-0.078628756
217	0xbc400034	-0.011718798
218	0xbd0b4583	-0.03400184
219	0x3d1b12fd	0.037859906
220	0x3d039826	0.032127522
221	0x3d8d4e1b	0.06899663
222	0x3d65a00a	0.05606083
223	0x3d5a9895	0.05336817
224	0xbd9fc569	-0.07801325
225	0xbd88bf3a	-0.066770986
226	0xbdaec0f7	-0.08532899
227	0xbd4e88cb	-0.050423425
228	0xbd3231db	-0.043504577
229	0x3d8b3e36	0.06798975
230	0xbd391d50	-0.04519397
231	0x3d89103c	0.066925496
232	0x3db6cfd8	0.08926362
233	0x3d57968d	0.05263381
234	0x3d38c8d1	0.04511339
235	0x3d8e9ae2	0.06963135
236	0x3ca806f2	0.020511124
237	0xbd632bed	-0.055461813
238	0x3d976bea	0.0739363
239	0x3d9012cd	0.07034836
240	0x3d74446e	0.059635572
241	0xbd802fc9	-0.06259114
242	0xbc76ef46	-0.015071696
243	0x3d61ba21	0.055109147
244	0x3a3b792b	0.00071515393
245	0xbb84f96d	-0.004058054
246	0xbd7f0be1	-0.062267188
247	0x3d830047	0.06396537
248	0x3d54f266	0.05198898
249	0xbc70ab45	-0.014689271
250	0x3d8ba636	0.068188116
251	0xbcebd8fc	-0.02878999
252	0x3d46c1e9	0.04852477
253	0x3c44e541	0.012017549
254	0xbd17cae8	-0.03705874
255	0x3c830367	0.015992833

bias f4 [128]
0	0x3cc0837a	0.023500193
1	0x3db0a518	0.08625239
2	0x3cec48b9	0.02884327
3	0x3db0144e	0.08597623
4	0x3ca0c041	0.019622924
5	0xbcf82524	-0.030291148
6	0x3d340bef	0.043956693
7	0x3d7e9a51	0.062158886
8	0xbcfb8ddf	-0.030707298
9	0x3c2a6d4e	0.010402037
10	0x3d8c5060	0.06851268
11	0xbd524173	-0.05133195
12	0x3d9ae024	0.07562283
13	0x3d985a23	0.07439067
14	0xbc9f90d9	-0.019478248
15	0x3d8045ed	0.06263337
16	0x3da754b2	0.08170451
17	0x3cb965e2	0.02263159
18	0xbc9e2924	-0.019306727
19	0xbd4b35f0	-0.049611986
20	0x3d3fbd8f	0.046811637
21	0xbda5e946	-0.08101134
22	0x3c171ba6	0.0092229005
23	0xbd674166	-0.056458853
24	0x3cd6025d	0.026124174
25	0x3d620c77	0.05518767
26	0x3d82867b	0.06373306
27	0x3da25bfa	0.079276994
28	0xbdbea944	-0.093096286
29	0x3dad4bd8	0.08461732
30	0x3d3c4544	0.045964494
31	0xbd88eb62	-0.06685521
32	0x3da6a4f3	0.0813693
33	0xbd3d9ede	-0.046294086
34	0x3da9d374	0.082922846
35	0x3d1f8af5	0.03895088
36	0xbd985f30	-0.074400306
37	0x3c5a9135	0.013340284
38	0xbd4f713c	-0.050645098
39	0xbd93fe7d	-0.07226274
40	0x3d156d45	0.03648116
41	0xbd1021a2	-0.035188325
42	0xbd450bfb	-0.04810713
43	0x3d2137fc	0.03936003
44	0xbbffce74	-0.0078065936
45	0x3d642b6e	0.05570548
46	0xbd0bf9bc	-0.034173712
47	0xbd62d311	-0.05537707
48	0x3d846710	0.0646497
49	0x3d6b4c46	0.057445787
50	0xbd6e728f	-0.05821472
51	0x3ca83882	0.020534758
52	0x3d4e6ca9	0.050396595
53	0xbd0722cd	-0.032992173
54	0xbd4ea238	-0.050447673
55	0x3db8c2c3	0.09021523
56	0x3db84874	0.08998194
57	0x3cf6eb6c	0.030141555
58	0x3d92dfa6	0.07171564
59	0xbd4cfb62	-0.050044425
60	0x3adccaa7	0.0016845063
61	0x3da8c2af	0.08240258
62	0xbd18fa0a	-0.03734783
63	0xbc772365	-0.015084122
64	0xbd4d1353	-0.050067257
65	0xbd2dd5fb	-0.042440396
66	0x3d39c9e5	0.045358557
67	0xbd92cd94	-0.07168117
68	0x3dcd3cec	0.100213856
69	0x3b894d9b	0.0041901595
70	0xbd679cc2	-0.05654598
71	0xbd866849	-0.065628596
72	0xbd8a1a2d	-0.06743274
73	0x3da04ca8	0.07827121
74	0x3dd19acf	0.102346055
75	0x3d37eecc	0.04490547
76	0x3be3a29d	0.0069468752
77	0xbb2d13ce	-0.002640951
78	0xbcc13ed1	-0.023589524
79	0x3d99ca94	0.07509342
80	0x3d6e44c1	0.058171038
81	0x3cc07965	0.023495385
82	0x3d3fc84a	0.04682187
83	0x3da1eca2	0.07906462
84	0xbd670450	-0.056400597
85	0xbc1dbd92	-0.009627717
86	0xbcb906f7	-0.022586329
87	0xbd128345	-0.03576972
88	0x3b9862a7	0.004650432
89	0x3dd30754	0.10304132
90	0x3d86421c	0.06555578
91	0xbcb0b22f	-0.02156934
92	0xbda162f3	-0.07880201
93	0x3bd96255	0.0066340365
94	0x3d84f57a	0.064921334
95	0x3da714b6	0.08158247
96	0xbd29e39e	-0.04147684
97	0x3d99440e	0.074836835
98	0xbd561403	-0.05226518
99	0x3c8ca83e	0.017170068
100	0xbd90fa09	-0.070789404
101	0xbcf17da9	-0.029478865
102	0xbcec88d1	-0.028873833
103	0xbd9058d7	-0.07048195
104	0xbd443148	-0.04789856
105	0x3d6499ab	0.05581061
106	0xbd116646	-0.035497926
107	0x3cde46df	0.027133403
108	0xbd8a4169	-0.06750757
109	0x3ccd2166	0.02504034
110	0x3d3c7cae	0.04601734
111	0x3d11b3f8	0.035572022
112	0x3d36e007	0.044647243
113	0xbbf338a7	-0.007422525
114	0x3d1801a2	0.037110932
115	0xbb285792	-0.0025686962
116	0x3d654474	0.055973485
117	0xbd16e1d7	-0.03683647
118	0x3d2c50d7	0.042069282
119	0x3a4d5f43	0.00078343245
120	0x3d11f1aa	0.03563086
121	0x3d104892	0.03522546
122	0x3dc605ba	0.09669061
123	0x3d3a22f1	0.04544348
124	0x3d868c8a	0.065697744
125	0x3c968445	0.018373618
126	0x3cf0e820	0.02940756
127	0xbd352eee	-0.04423421

weight f4 [128, 128]
0	0x3d48add9	0.04899392
1	0x3c48edd0	0.01226373
2	0xbccad5f6	-0.024760228
3	0x3b9a15ce	0.0047023064
4	0x3cad2407	0.021135343
5	0x3d7439df	0.059625503
6	0x3d4dd727	0.050254013
7	0xbd545527	-0.05183902
8	0x3d9efaaa	0.07762654
9	0xbcb3d735	-0.021953205
10	0x3d8ddbd4	0.069266945
11	0xbd3a0ce2	-0.045422442
12	0xbc171499	-0.009221219
13	0xbc784533	-0.015153217
14	0x3d8025e0	0.06257224
15	0xbd18b499	-0.037281606
16	0xbd80aa10	-0.06282437
17	0xbd6fe1f4	-0.058565095
18	0x3d848ad0	0.06471789
19	0x3d98f035	0.07467691
20	0xbc20f51a	-0.009824062
21	0x3d16070e	0.03662782
22	0xbcaac0ac	-0.020843826
23	0xbd28c42e	-0.041202717
24	0xbdb73bb4	-0.08946934
25	0x3be78c07	0.007066253
26	0x3d53c6d4	0.05170329
27	0x3a168eaf	0.00057433074
28	0x3da53729	0.080671616
29	0xbdc19cd4	-0.09453741
30	0xbd92959c	-0.07157442
31	0x3d9d14dc	0.07669994
32	0x3ca9f4b0	0.020746559
33	0xbb452e79	-0.0030087514
34	0xbdb84f3e	-0.08999489
35	0x3d97f6bd	0.074201085
36	0x3d8f7b8e	0.07005988
37	0xbb09efec	-0.0021047546
38	0x3d3ffc86	0.046871684
39	0x3d8c36d3	0.068463944
40	0xbc322e67	-0.010875321
41	0xbd755d3b	-0.059903365
42	0xbc182894	-0.009287018
43	0x3d7cd375	0.0617251
44	0xbd21cac0	-0.039499998
45	0xbd5ff433	-0.054676246
46	0xbdb6420c	-0.08899316
47	0x3d9745eb	0.07386383
48	0x3d7f65bf	0.062352892
49	0x3d84af4f	0.0647875
50	0xbbb1ab4e	-0.0054220324
51	0x3d4229b1	0.04740304
52	0xbd94f3e3	-0.0727308
53	0x3d92995b	0.071581565
54	0x3bdf3de2	0.006812797
55	0xbd5f1c2e	-0.054470234
56	0xbd7b2bea	-0.061321177
57	0xbd32a264	-0.0436119
58	0xbd89d23d	-0.06729553
59	0x3ccd84c0	0.025087714
60	0x3c23ff57	0.010009608
61	0x3d62e453	0.05539353
62	0xbd7eb119	-0.062180612
63	0xbd6d2313	-0.057894778
64	0xbc7c4bc1	-0.0153989205
65	0x3d774d89	0.060376678
66	0xbd1ce1f4	-0.038301423
67	0x3db7c1f6	0.08972542
68	0x3d9bfc1f	0.07616448
69	0x3d2385e9	0.03992263
70	0x3d8dc3ff	0.06922149
71	0xbdad13ce	-0.08451043
72	0x3d553bea	0.05205909
73	0xbd9acdf6	-0.07558815
74	0xbdbdbf83	-0.092650436
75	0x3bb1a1c8	0.005420897
76	0x3ca60e13	0.020270383
77	0xbd40116a	-0.046891607
78	0x3d5fa241	0.054598097
79	0x3d298e40	0.041395426
80	0xbd424ccb	-0.047436517
81	0x3dc03172	0.09384431
82	0x3d865223	0.06558635
83	0xbd88f56b	-0.06687435
84	0xbd026351	-0.031832997
85	0xbd984c2d	-0.074364044
86	0x3d4ca9f8	0.049966782
87	0x3ca4742a	0.020074923
88	0xbcf7b241	-0.030236365
89	0x3c0fa04c	0.008766245
90	0xbd929812	-0.07157911
91	0xbd2ef1fe	-0.04271125
92	0x3d203c26	0.039119862
93	0xbc64e35d	-0.013970223
94	0x3a31f9b4	0.0006789223
95	0x3cf13c8f	0.029447822
96	0x3d52bd27	0.05144992
97	0xbcbdc7f5	-0.023166636
98	0x3d8cbff0	0.06872547
99	0xbc2bbc71	-0.01048194
100	0xbd744f23	-0.059645783
101	0x3d1e23ca	0.03860835
102	0xbcba9324	-0.02277524
103	0xbd763451	-0.060108487
104	0xbc367ed9	-0.011138641
105	0xbda387cd	-0.07984886
106	0x3d151684	0.036398426
107	0x3d8334a5	0.064065255
108	0x3d385e31	0.045011703
109	0x3d2b1cd7	0.04177555
110	0x3d9b8d2d	0.075952865
111	0x3cc95a3b	0.024579158
112	0x3d1c9a2a	0.03823296
113	0x3d801f01	0.062559135
114	0xbce7eacf	-0.028310208
115	0xbd5fa95b	-0.05460487
116	0x3cf1624b	0.029465815
117	0x3d4937b0	0.049125373
118	0x3d71ecd8	0.059063762
119	0x3d9a1f39	0.075254865
120	0xbdb81972	-0.08989228
121	0xbdc57fc6	-0.096435115
122	0x3d83732a	0.0641845
123	0xbd97d0b8	-0.07412857
124	0x3cc84c51	0.024450453
125	0x3c967a52	0.018368874
126	0x3dc4d2c1	0.096105106
127	0xbc4778a2	-0.012174757
128	0x3d92f3e3	0.07175424
129	0x3d374149	0.044739995
130	0xbd34234f	-0.043978985
131	0xbd208518	-0.039189428
132	0xbda8f203	-0.08249285
133	0x3d3a08d5	0.04541858
134	0xbd4b6d07	-0.049664523
135	0xbd296ea4	-0.04136528
136	0x3aa40f61	0.001251679
137	0x3da0f8fb	0.07859989
138	0xbda7dadf	-0.08196043
139	0xbd302432	-0.04300327
140	0xbd61b12c	-0.055100605
141	0xbd5cd4a2	-0.05391372
142	0xbcfcb3b6	-0.030847412
143	0x3d39b27b	0.045336228
144	0xbc886086	-0.016647588
145	0xbcd92114	-0.02650503
146	0x3bc9d2d1	0.0061591645
147	0xbd9381e8	-0.07202512
148	0x3dd3b9e5	0.10338191
149	0xbd2c455c	-0.042058334
150	0xbd4fe934	-0.05075951
151	0xbd14e620	-0.036352277
152	0x3d242af7	0.040080037
153	0xbdb7e437	-0.089790754
154	0x3d70541a	0.058673956
155	0xbc5b3bd9	-0.013380968
156	0xbd0ed098	-0.0348669
157	0xbcf8528e	-0.030312803
158	0x3d77b5de	0.060476176
159	0xbd00c5b1	-0.031438533
160	0xbd0fc72b	-0.03510205
161	0x3d0f3cdc	0.03497015
162	0x3dc3486a	0.09535296
163	0x3d77feb6	0.060545646
164	0x3d9dfae2	0.07713868
165	0xbda39035	-0.0798649
166	0xbd2ff4e1	-0.042958144
167	0xbcccb20a	-0.02498724
168	0x3d870ff9	0.065948434
169	0x3da8b04d	0.08236752
170	0xbd20b60b	-0.03923611
171	0xbd995683	-0.07487204
172	0x3dc21da4	0.0947831
173	0xbd0bea1e	-0.03415882
174	0xbd6df37a	-0.058093525
175	0x3d8b1c89	0.06792552
176	0x3da3262f	0.07966267
177	0x3cab4ff7	0.020912154
178	0xbcfeabd2	-0.03108779
179	0x3d77a076	0.06045576
180	0xbd9903eb	-0.074714504
181	0x3c82b28a	0.015954275
182	0xbc43233d	-0.011910257
183	0x3a4a68f3	0.0007721327
184	0x3d239a46	0.03994205
185	0x3d2abddb	0.041684967
186	0xbc8bc0d6	-0.017059725
187	0x3d0166ec	0.031592295
188	0xbc7a6ee6	-0.015285229
189	0xbd925994	-0.07145992
190	0xbda5b4b7	-0.08091109
191	0xbc1fdf5d	-0.009757844
192	0xbd9e257f	-0.077219956
193	0x3d86ea83	0.06587698
194	0x3d184735	0.037177283
195	0xbd82bdea	-0.063838795
196	0xbd027bc2	-0.031856306
197	0xbd8f63ed	-0.07001481
198	0x3d86b91f	0.06578278
199	0x3d7fca07	0.062448528
200	0x3c84241c	0.0161305
201	0xbd8f15c7	-0.069865756
202	0x3dacbf98	0.08434981
203	0xbd0b0942	-0.033944376
204	0xbd8416e0	-0.064496756
205	0x3c7cb0fd	0.015423057
206	0x3dae3d66	0.085078046
207	0xbceb357f	-0.028712032
208	0x3cea0604	0.028567322
209	0x3d47f6e5	0.04881944
210	0x3d4d0496	0.0500532
211	0x3b217821	0.0024638253
212	0x3ca06bda	0.019582678
213	0x3d566af6	0.0523481
214	0x3d7892f5	0.060687024
215	0x3d8ef1bb	0.069797
216	0xbc84be96	-0.01620416
217	0x3cf3f012	0.02977756
218	0x3dbf5602	0.093425766
219	0x3d395136	0.045243464
220	0xbc092983	-0.008371714
221	0xbd823a06	-0.06358723
222	0xbd175fa7	-0.036956456
223	0x3cb4731b	0.022027543
224	0xbc8e8914	-0.017399348
225	0x3db7790a	0.08958633
226	0x3d2dff36	0.042479716
227	0xbdb5df13	-0.08880439
228	0xbbb44ec6	-0.0055025546
229	0x3b08b46d	0.0020859495
230	0xbdb13085	-0.086518325
231	0xbc922eb4	-0.017844535
232	0x3d90b45d	0.070656516
233	0x3da8cadb	0.082418166
234	0xbd9ccb1f	-0.0765593
235	0x3d3aa49d	0.045567144
236	0xbce9eb80	-0.028554678
237	0x3cfef4a7	0.031122519
238	0x3d14f664	0.03636779
239	0x3d250452	0.040287323
240	0x3d971414	0.073768765
241	0x3db34050	0.08752501
242	0x3d67ce96	0.0565935
243	0x3d6dbee2	0.05804337
244	0xbd13d8d3	-0.03609545
245	0x3d8814fe	0.06644629
246	0xbda06dd3	-0.07833447
247	0x3d3a3a4b	0.04546575
248	0xbcb9a1f3	-0.022660231
249	0x3db2e4bb	0.08735033
250	0x3cc95c48	0.024580136
251	0x3d86d09d	0.065827586
252	0x3d3d92e5	0.046282668
253	0xbd075c13	-0.033046793
254	0xbc47a038	-0.012184195
255	0xbd107fab	-0.035278004

bias f4 [128]
0	0xbd38cd2e	-0.04511755
1	0x3d01d410	0.03169638
2	0x3d12f6c7	0.035879876
3	0xbd721470	-0.059101522
4	0xbcc650f0	-0.024208516
5	0xbdc30fee	-0.09524523
6	0x3cc0ff43	0.023559218
7	0xbbd6c75d	-0.0065545277
8	0xbd0fc97e	-0.035104267
9	0x3d854b99	0.0650856
10	0xbdb994c2	-0.090615764
11	0xbd768352	-0.06018383
12	0x3d73f41c	0.059558973
13	0x3c3804bf	0.0112316
14	0xbd75d2a4	-0.060015336
15	0x3da9bc92	0.0828792
16	0xbcc794ec	-0.024363004
17	0xbd251489	-0.040302787
18	0x3d6196c3	0.05507542
19	0x3ccdf6bb	0.025142064
20	0x3daccfaa	0.08438046
21	0x3cb2ea3f	0.021840213
22	0xbc9209d3	-0.01782695
23	0xbc376975	-0.0111945765
24	0x3d987e29	0.07445938
25	0x3da21982	0.079150215
26	0x3d3faa34	0.046793178
27	0x3d6f95b0	0.058492362
28	0x3d158944	0.03650786
29	0xbd0a5830	-0.03377551
30	0xbca9c96f	-0.020725934
31	0xbbaeafe2	-0.0053310255
32	0xbd65d18b	-0.05610804
33	0x3dcceef7	0.100065164
34	0x3dac6c88	0.08419138
35	0xbd133f1c	-0.035948858
36	0x3d3643fd	0.044498432
37	0xba383bfe	-0.00070279825
38	0x3da3d267	0.079991154
39	0xbce475e6	-0.02788825
40	0x3dc7a17f	0.097476
41	0xbbc88491	-0.006119319
42	0x3d6756bc	0.0564792
43	0x3d863b40	0.0655427
44	0x3b2af939	0.002608849
45	0x3c5ea776	0.0135897305
46	0x3ad708f8	0.0016405871
47	0xbd8ebe65	-0.069699086
48	0x3d049fd2	0.03237898
49	0x3d1465bc	0.036229834
50	0xbcbfe59c	-0.023424916
51	0x3cc10b12	0.023564849
52	0x3da44b92	0.080222264
53	0xbd87c2bc	-0.066289395
54	0x3d9eb2b4	0.07748929
55	0x3c622f3b	0.013805206
56	0x3d64c3f3	0.055850934
57	0x3d1a5045	0.037674207
58	0x3d90f8a7	0.07078677
59	0x3da88998	0.08229369
60	0x3d3b3f1f	0.045714494
61	0xbbd51331	-0.006502532
62	0xbc8a8f15	-0.01691393
63	0xbd9a2540	-0.07526636
64	0xbdc110ee	-0.09427057
65	0xbdb80bc4	-0.08986619
66	0x3dc158bc	0.09440753
67	0xbda4ff0a	-0.08056457
68	0x3d72558b	0.05916361
69	0xbdafa580	-0.085764885
70	0x3dc2c624	0.095104486
71	0x3d303401	0.043018345
72	0x3d167b80	0.036738873
73	0xbb2bd177	-0.002621738
74	0xbca74429	-0.020418243
75	0x3dc2f9f7	0.09520333
76	0x3c8df534	0.017328836
77	0xba6c6b72	-0.0009018696
78	0x3cdae50b	0.026720544
79	0x3da680da	0.08130045
80	0xbc86b410	-0.016443282
81	0x3d6a0793	0.05713613
82	0x3a6dd903	0.000907317
83	0xbd0da256	-0.034578644
84	0x3ce8904b	0.028389117
85	0x3d2aa4ed	0.04166119
86	0xbd1760c7	-0.03695753
87	0xbd3cd0f5	-0.046097714
88	0xbd7269f9	-0.059183095
89	0xbcdadad9	-0.026715683
90	0x3db1fa6e	0.08690344
91	0x3d983631	0.07432211
92	0xbd8dbd51	-0.06920875
93	0x3dad780b	0.08470162
94	0xbb3e8844	-0.002907292
95	0xb98dec7c	-0.0002706981
96	0x3d528e99	0.051405523
97	0x3d96e041	0.07366992
98	0x3c5586da	0.013032639
99	0x3cea1085	0.02857233
100	0x3cd0ae4c	0.025473736
101	0xbd9d1aa1	-0.07671095
102	0x3cab4d02	0.020910744
103	0xbd812653	-0.06306138
104	0x3db1d303	0.086828254
105	0xbd7356e6	-0.059409045
106	0x3d19d17f	0.037553307
107	0x3db617a5	0.088912286
108	0x3d925a2a	0.07146104
109	0xbd990fe9	-0.07473738
110	0xbc8343ca	-0.016023535
111	0x3d85169f	0.06498455
112	0xbd747486	-0.059681438
113	0xbbc18406	-0.005905631
114	0xbcaff9da	-0.021481443
115	0x3cafaa0f	0.021443395
116	0x3d292beb	0.04130165
117	0x3d1dbc24	0.038509503
118	0x3d330e57	0.043714847
119	0xbbb280a3	-0.0054474636
120	0xbd80f8dd	-0.06297467
121	0x3d8ae869	0.0678261
122	0x3d94b65b	0.07261344
123	0x3d87f259	0.06638021
124	0xbd84fe42	-0.06493808
125	0xbc543ebc	-0.01295441
126	0xbd7d2110	-0.06179911
127	0xbd308717	-0.04309758

weight f4 [1, 128]
0	0xbd9f294f	-0.07771551
1	0x3d7ec57a	0.062200047
2	0x3c7aab47	0.015299625
3	0x3b0dddd2	0.0021647108
4	0xbdc7b4bc	-0.09751269
5	0x3cfff040	0.03124249
6	0x3c0e3022	0.008678468
7	0x3c9f236e	0.019426074
8	0xbc50a47f	-0.012734531
9	0xbd1275e4	-0.03575696
10	0x3cfe9a30	0.031079382
11	0x3d3b92ad	0.045794178
12	0xbc6a9c1b	-0.014319445
13	0x3d852154	0.065004975
14	0x3d87db5d	0.06633637
15	0x3d079677	0.03310248
16	0x3c9c291e	0.019062575
17	0xbd40bdbe	-0.047055952
18	0xbd2945bc	-0.04132627
19	0xbd5c6827	-0.053810265
20	0x3d52572a	0.051352657
21	0x3d2ebdd9	0.04266152
22	0xbdae370b	-0.08506592
23	0xbd063b9f	-0.032771703
24	0x3d99baea	0.07506354
25	0x3db85dda	0.09002276
26	0x3d3187ea	0.04334251
27	0x3c5330d9	0.012890064
28	0xbd7b4fb1	-0.061355297
29	0xbd3f68db	-0.046730857
30	0xbc1d7416	-0.009610197
31	0x3b041852	0.0020156098
32	0xbd4450de	-0.047928683
33	0x3dce2701	0.10066033
34	0x3d5a1c75	0.053249795
35	0x3d61ae01	0.055097584
36	0xbd90c75e	-0.07069276
37	0x3c9d1d49	0.019179003
38	0x3d8936cb	0.06699904
39	0x3d5283c5	0.051395196
40	0x3dbbd75b	0.09171935
41	0xbd1d8c96	-0.03846415
42	0xbd65d1b5	-0.056108195
43	0xbd3ed481	-0.04658938
44	0xbdd3f65f	-0.10349726
45	0x3db66dfb	0.08907696
46	0xbd5a7770	-0.05333656
47	0x3d5edd3c	0.054410204
48	0x3d7701ea	0.06030456
49	0x3ce4f99e	0.027951058
50	0x3cd73146	0.026268613
51	0xbdac83ef	-0.08423602
52	0x3c9427be	0.018085357
53	0xbd1f4b9e	-0.038890474
54	0x3cd35613	0.02579788
55	0x3cf9fb9e	0.030515488
56	0x3ce66bbd	0.028127545
57	0x3d9edf8c	0.07757482
58	0xbc28056d	-0.0102552
59	0x3db7089f	0.08937191
60	0xbd996d97	-0.07491606
61	0xbdc97a46	-0.09837775
62	0x3c889d96	0.016676705
63	0x3d5e4f83	0.054275047
64	0x3d85f26a	0.065403774
65	0x3d303bbe	0.043025725
66	0x3db52159	0.08844251
67	0x3cd08be0	0.025457323
68	0xbd6301a7	-0.055421498
69	0xbd451b5f	-0.048121806
70	0x3d246455	0.040134747
71	0x3d32a8f6	0.043618165
72	0x3d2de0f5	0.042450864
73	0xbd491a2d	-0.04909723
74	0xbc3908d6	-0.011293611
75	0x3d1d50f9	0.0384073
76	0x3d10f2c8	0.035387784
77	0xbcbbc018	-0.022918746
78	0xbd4cac16	-0.0499688
79	0x3d6bad77	0.057538476
80	0xbd05cf16	-0.032668196
81	0x3d2f4472	0.042789884
82	0xbdc767cf	-0.09736597
83	0x3d869f77	0.06573384
84	0xbd27d614	-0.040975645
85	0xbdbf585b	-0.09343024
86	0x3cb07e5a	0.021544624
87	0x3cab0451	0.020876082
88	0xb9ec68b5	-0.0004509144
89	0xbdbb0568	-0.091318905
90	0xbd54a4d3	-0.051915
91	0x3dba95a3	0.09110572
92	0x3cf293b5	0.029611448
93	0x3d379781	0.04482222
94	0x3dab3289	0.08359248
95	0xbcd37ac6	-0.025815379
96	0xbdd3fa5b	-0.10350486
97	0xbd3293ce	-0.04359799
98	0xbd99a9eb	-0.075031124
99	0x3c883822	0.016628329
100	0x3d7bb550	0.06145221
101	0x3db66c1f	0.08907341
102	0x3cf17dcf	0.029478936
103	0x3cefcf44	0.029273637
104	0x3d124b4b	0.035716336
105	0x3d8dccd0	0.069238305
106	0x3cf17d72	0.029478762
107	0x3d1a4663	0.037664782
108	0xbd90474b	-0.07044848
109	0xb830db4b	-4.2165902e-05
110	0xbdc1093c	-0.094255894
111	0x3d6a7e56	0.05724939
112	0x3a8d191a	0.0010764927
113	0x3d4285d1	0.0474909
114	0xbd65869e	-0.056036584
115	0x3d9f6c59	0.077843376
116	0x3ce09ba8	0.027417973
117	0x3d3fb9fc	0.046808228
118	0x3bde65a8	0.0067870207
119	0x3d3c9370	0.046039045
120	0x3da15c96	0.078789875
121	0x3dc19792	0.09452738
122	0xbd9a00bb	-0.075196706
123	0xbdd2fb85	-0.1030188
124	0xbda2f213	-0.07956328
125	0x3d1f92d4	0.038958386
126	0xbd8e321e	-0.06943153
127	0xbc3eec19	-0.01165297
