Dry fermentation prediction and optimization system/predictor_percolate_tank/Predictor_Percolate Tank CH4/models/NeuralNetTorch_BAG_L1/S1F1/net.params (torch, 208391 bytes, 9 tensors)

weight f4 [128, 7]
00000000: 4a87 013d b644 623e ef06 9cbe 17b7 8fbe
00000010: 9179 0ebe 3fd9 8f3d 424e fe3c f629 a73e
00000020: 21af 12bd b94b e13d d1ee 06be 558a d7bd
00000030: cd20 b1be 179a 81be 31e8 2fbe 6b34 2f3c
00000040: 9a11 1f3e 891d 783e 933d 87be e1c0 28be
00000050: 143b 023e a54f b33e bbb5 8ebd 0026 893e
00000060: 9df7 93bd a9e2 1b3d 5747 b23e 0485 b3be
00000070: dfa8 89be 1da1 91bd 5404 08be 0c44 b13e
00000080: 41d3 77be ed4a 48be aced 82be 40be c3be
00000090: 255d 5fbe a372 9d3e 4892 1a3e 3daa 173e
000000a0: bee5 b53b 5497 3abe 8ba3 a43d efc8 acbe
000000b0: b05d 8bbe bf6f 46be 1969 843e 5593 613e
000000c0: aae4 23be 38b5 a23b c5ab 723e ef40 d53e
000000d0: b839 1f3e b7ca e03c 489d 6d3e 9e84 5fbe
000000e0: c131 8b3d 0ca7 97be c5c2 8cbe eb36 46be
000000f0: cb44 4c3e c855 113e 07ce 5cbe d0a7 a03d
00000100: 214c 6e3e f325 5ebd ee7f 1f3c e792 df3d
00000110: 6472 5e3e 3fa0 cc3e a4c6 8cbe 8464 0dbe
00000120: ef3b 093e 1bed 9d3e bca4 ac3e 8e8d a93e
00000130: ffa2 a23d 89bf abbe 7266 0a3c d072 90be
00000140: 835b bfbe 9710 9f3e 68d0 923e 6a96 c2be
00000150: d12a b53d 7991 a0bd caef 73bd 276d 48be
00000160: 936e 343e e170 68be f2e0 1b3e 6281 6c3e
00000170: 437e 833e f824 303e 0e4e c1be 3ae1 84be
00000180: 1535 4d3e 63c2 973d 6f65 a5be c748 67be
00000190: 9d5f ac3e ab8f 783e c79c 40be 8dad f2bd
000001a0: 992c b1be 03b3 9c3c 2446 89be 8d99 84be
000001b0: 47b9 1cbd 2b14 9b3d b8ec 22be 316b 6c3e
000001c0: 5ffc 73be 5cea a83e f552 8b3e dd0e 9cbe
000001d0: aa98 b5bd b8ef 1c3d bbe1 4f3d 17d7 883d
000001e0: c0c4 093e e030 0c3c e3e8 40be 2479 423e
000001f0: 459a b6be 5ed5 5abe 733c 08be b9b6 30be
00000200: b9a2 0cbe dc86 a7be 755d c0bd 3ddc 9f3d
00000210: cb05 71be 7cc5 6e3c 03e0 8c3e 40cf a4bc
00000220: 5ede 843b 6a96 e63c 8353 9b3d bf1b 823e
00000230: 41dc c83e e908 663e ce74 b43e 6594 e2bc
00000240: 0209 b5be acd9 38be 4f4c 813e f3ad 843b
00000250: 99b0 54be 6818 9fbe 8450 bcbe 3183 a8be
00000260: a251 82bd 5145 4c3e f0a9 503e ea68 c3be
00000270: 162c 893e b712 94be a32d afbd 8e9d 07be
00000280: c97f 88bd 9ce1 c3bd 4790 a3be f23c afbe
00000290: 6911 45bd 14f8 7fba 9c2c 2bbe fc2c 063e
000002a0: bf66 b6be 1cfd a6bc 1adf b33e ec8b 21be
000002b0: 7678 a53e b78d fd3d 1185 aabe bc6f 753e
000002c0: f09e 62bd 7bce 38be 452b 9b3e f9f2 9abe
000002d0: 601f 213d 539d 8ebd 1740 9e3e f4c5 ca3d
000002e0: 13ad 783e 4e1c 2d3e 6ffa a2bd a0ee e0bd
000002f0: 44d0 9abe c563 5b3e 4523 973e 4c87 873e
00000300: efe5 91be 56ba 833b 0072 76be 337f 48be
00000310: c604 6abe d43e 143e f090 66be 0a11 41bb
00000320: 879b d83c e44b 7c3e 3bd2 93be 3d6d 92be
00000330: 50d6 5fbe 0672 8a3e fe94 14be aa3a a03e
00000340: 6462 f63d 7dbe 673d c113 1d3d 6d7f ccbd
00000350: ba32 263d 5281 c4bd 2a2d 5abc b22b 393d
00000360: cb44 8fbe 8590 21be 4382 ab3e a015 95be
00000370: c868 f4bc ad5f c83e 373e 0c3e ecf5 4a3c
00000380: 92da b8be 7d9a 4f3e af7c 90be 48e5 eabd
00000390: 961a 08be af4a 14bd 0a64 1e39 2adf b93e
000003a0: afde 0c3d 5778 b53e fca4 6a3e 9976 71be
000003b0: 0371 2e3e 363f 8abe 9972 31be 9387 ad3d
000003c0: a205 d33d 6901 8f3e 45d6 27be b9d2 c43b
000003d0: bff3 3c3e 2469 c3be 20b7 873e 8162 b1be
000003e0: beee f53b d6d7 b4bd e424 4cbe fc12 453d
000003f0: b339 ac3e 866f debd b2b8 4fbe 36e5 09be
0.031623162 0.22096524 -0.3047404 -0.28069374 -0.13913561 0.07023858 0.031043176 0.326492
-0.035811547 0.11000771 -0.13177039 -0.105244316 -0.34595338 -0.25312874 -0.17178418 0.01069365
0.15534058 0.24230017 -0.26414165 -0.16479827 0.12717849 0.350217 -0.06968256 0.26786804
-0.07224963 0.038057957 0.34820053 -0.3506242 -0.2688665 -0.07110808 -0.13282901 0.34622228
-0.2420168 -0.19559832 -0.25571954 -0.38231087 -0.21812876 0.30751523 0.15094864 0.14811035
0.005551069 -0.1822179 0.08039006 -0.3374705 -0.27219915 -0.19378565 0.25861433 0.22028859
-0.16005197 0.0049654506 0.23698337 0.41651103 0.15549362 0.027440412 0.2320453 -0.21827933
0.06796599 -0.29619634 -0.27492347 -0.19356887 0.19948117 0.14192879 -0.21562968 0.07844508
0.23271228 -0.05423541 0.009735091 0.10916691 0.21723324 0.39966008 -0.274953 -0.13807875
0.13401769 0.3084496 0.33719432 0.3311581 0.07941245 -0.33544567 0.008447276 -0.28212595
-0.37374505 0.31067345 0.28674626 -0.38005382 0.08846057 -0.07840247 -0.059554853 -0.19572888
0.17620306 -0.2269931 0.15222529 0.2309623 0.25682268 0.17201602 -0.37754864 -0.25953084
0.2003978 0.07410123 -0.3230395 -0.22586356 0.33666697 0.24273555 -0.18809806 -0.118495084
-0.34604338 0.019128328 -0.26811326 -0.258984 -0.03826263 0.07572206 -0.15910614 0.23087765
-0.2382674 0.32991302 0.2721173 -0.3048009 -0.08867009 0.03831455 0.050752383 0.0668165
0.1345396 0.008556575 -0.18838839 0.18991524 -0.35664573 -0.21370456 -0.1330431 -0.17257203
-0.13733949 -0.32720077 -0.093928255 0.07805679 -0.23537366 0.014573451 0.27514657 -0.020118356
0.0040548285 0.028147895 0.07584288 0.25411794 0.3923054 0.22464336 0.35245365 -0.02765865
-0.35358435 -0.18051785 0.2525353 0.0040490567 -0.20770492 -0.31073308 -0.3678018 -0.3291259
-0.063632265 0.19948317 0.20377326 -0.3816598 0.26791447 -0.28920528 -0.085536264 -0.13243696
-0.06664998 -0.09564516 -0.31946012 -0.34226185 -0.048112307 -0.00097644445 -0.16716236 0.13103098
-0.35625264 -0.020384364 0.3513115 -0.15776032 0.32318467 0.123805456 -0.33304647 0.23968405
-0.055327356 -0.18047516 0.3030645 -0.30263498 0.039336562 -0.06963601 0.30908272 0.09901038
0.24284773 0.16905329 -0.07957923 -0.10983014 -0.3023702 0.21424778 0.29519096 0.2647041
-0.28495738 0.0040200157 -0.24066925 -0.19579773 -0.22853383 0.14477092 -0.22516227 -0.002945962
0.026441349 0.24638325 -0.2887133 -0.28598967 -0.21859097 0.27040118 -0.14509961 0.31294757
0.12030485 0.05657815 0.038348917 -0.09985242 0.04057572 -0.095949784 -0.013316432 0.045207687
-0.27982172 -0.15777786 0.3349782 -0.2911806 -0.02983512 0.39135495 0.13695608 0.012387734
-0.36104256 0.20273776 -0.28220126 -0.11469513 -0.13291392 -0.036204036 0.00015105322 0.36303073
0.034392055 0.35443375 0.22914499 -0.23580398 0.17035298 -0.2700135 -0.17328872 0.08473124
0.10303809 0.27930763 -0.16390331 0.0060065654 0.18452357 -0.38166153 0.265069 -0.34645465
0.007505267 -0.0883023 -0.19935948 0.048113808 0.3363777 -0.10861115 -0.202853 -0.13466343

bias f4 [128]
00000000: 4eae aabe 0dcb 9ebc f7fc 083e 8da9 ec3d
00000010: ba8b a63e 72d0 c43e cffe b33e f35e 833e
00000020: 160b 923e 06a6 53bd b3ba 95be 5cba e8bd
00000030: 81ea d2bc 1fb3 4cbe a6c8 423e ecaa 123e
00000040: 9615 623d e536 ca3d 9e8e aa3e dc21 073e
00000050: bba3 b5be e5b8 88be a012 343e f2ea a73c
00000060: eaa6 453e 8b6f c5be 48ef 96be 637a 743e
00000070: 221e 743e 12ae a7be 0b98 153e 29c9 91be
00000080: c8a1 943e 1b49 da3d cefa c93e c548 b0be
00000090: b433 bcbe a53e 843e f573 ac3e ee24 5b3e
000000a0: aeeb 8b3e 25e5 a3be bea6 8f3e 7a96 a9be
000000b0: 092f b63d dbe2 51be 8aff 15be e4c4 543d
000000c0: 9cc2 1ebe 41eb 47bd 7eb6 aebe 06ce b4be
000000d0: 3240 1e3e 945c 1ebe 7f0c 6ebe cde3 00be
000000e0: da56 8fbe 36d2 9fbe 2f2f 783e c512 4e3e
000000f0: 6911 a83d 58f9 2cbe ac09 193e 3d59 0b3d
00000100: e1c8 89be bfe8 bc3d 301f b23e 52a2 c2be
00000110: f07f b1be 771b 2c3d decb 913e 56db 57be
00000120: 70bf b53d 2d27 8c3e dc1d b03d da0c bb3d
00000130: 86c2 c13e 7356 823e b836 55be 8c4f e13c
00000140: d417 453e 3ef8 a83e 914f bdbe 0e5e 513e
00000150: 5617 ccbd 10d2 c2be 9981 c23d 1df8 49be
00000160: 56eb 323d cfe4 62be 081a 9abe 836f efbc
00000170: 8914 c8bd 0430 653e 7b06 173d 7a2d a13e
00000180: 9d9c 923d ad97 02be 93aa 813e 36e7 463c
00000190: d376 563d 92af 02be a01b ae3b 8fab 81bd
000001a0: af64 b5bc afc8 95be 6a5e ddbb 36c4 a2be
000001b0: 1e1e 8cbd f346 723e 74ce 7abe c1b0 51be
000001c0: 18dc 9abd b167 01be 0e74 803d b307 a93d
000001d0: fc55 493e 3315 89be 501c edbc a93e 5b3e
000001e0: 5d14 a83e 383e 24bd ba7c 52be 99ed d93d
000001f0: 56c9 623e 4fa0 80be f716 70be e5c3 293e
-0.3333611 -0.019383932 0.13377748 0.11555777 0.32528478 0.3844028 0.3515534 0.25658378
0.28524083 -0.051672004 -0.29244003 -0.1136367 -0.025746586 -0.19990204 0.19021854 0.14323014
0.055196367 0.098737516 0.33311933 0.1319651 -0.3547648 -0.26703563 0.1758523 0.020497773
0.19301954 -0.38561663 -0.29479432 0.23874812 0.2383962 -0.32749993 0.14608781 -0.28473786
0.2902968 0.10658475 0.3944916 -0.3443052 -0.36758196 0.25829044 0.33682218 0.21400806
0.27328247 -0.3201076 0.28056902 -0.33122617 0.0889569 -0.20496695 -0.14648262 0.051945582
-0.15503925 -0.04880834 -0.34123605 -0.35313433 0.15454176 -0.15465003 -0.23246954 -0.12586899
-0.2799595 -0.31215066 0.24236749 0.20124348 0.08206446 -0.16891992 0.14945096 0.03402065
-0.2691107 0.0922408 0.3478942 -0.38014466 -0.3466792 0.04201838 0.2847585 -0.21079764
0.088744044 0.2737364 0.08599445 0.091333106 0.37843722 0.2545658 -0.20821655 0.027503751
0.19247371 0.33001894 -0.36974767 0.20446035 -0.099653885 -0.3805089 0.09497375 -0.19723554
0.043681465 -0.22157596 -0.30097985 -0.029227978 -0.09769542 0.22381598 0.036871415 0.31480008
0.07158778 -0.12753172 0.2532545 0.012140086 0.052359413 -0.12762287 0.0053133518 -0.0633155
-0.022142736 -0.29254672 -0.00675564 -0.31790322 -0.06841682 0.23659877 -0.24492818 -0.20477583
-0.07561511 -0.12637211 0.06272136 0.08253422 0.19661707 -0.26773986 -0.028944165 0.21410622
0.32828036 -0.0400984 -0.20555392 0.10641021 0.22147116 -0.25122306 -0.2344626 0.16578634

weight f4 [128, 128]
00000000: 4f8e 07bc 5215 bcbd c70e 56bd 62a0 d63c
00000010: 8643 0bbd a75c 5a3d 9bae 773d cc76 953b
00000020: 8de3 90bc 5c2f 22bd 4b24 6fbc aeb6 ca3b
00000030: 401b 8bbd 9967 cbbc 2a2e a2bd a98f 4f3d
00000040: 1fb4 75bd 530b a33d ad19 08bd b738 6fbd
00000050: 5378 203d b594 233c 9989 6a3d bb7e 083d
00000060: 9b13 c4bd 4a41 533d 4fad 56bc d588 2bbd
00000070: 1ef7 3b3d e1dc 613d 4482 acbd 1b60 9cbc
00000080: 61a7 843d c356 cf3c 66d4 883d b3d9 07bd
00000090: 16e9 47bd 9bef 8c3d df32 193d fb75 9e3d
000000a0: 3c48 3ebd 6cef 86bd 2798 0ebc d8a5 a5bd
000000b0: d866 fc3c e250 623d 1c9b 363c c2d4 42bc
000000c0: 5457 363d 4055 6abd 4c8c 9e3d f829 b9bd
000000d0: ea45 a8bd 7de3 ebbc cdac 7d3d 02bc 383c
000000e0: e919 da3c 7a2a 85bd fe2f e43c 4187 78bc
000000f0: 4125 133d ed81 573d 8652 163d bf81 2dbc
00000100: 69d2 4dbc e99c 79bd 1d53 fbbc 439b 453d
00000110: 97d2 24bd a494 5b3d a5f3 1cbd d94d 05bd
00000120: 28fb f6bb d19b 9cbd 12d4 f83a a491 c4bc
00000130: e75f 5cbc 56d2 b8bc bc3f 863d abbc 593d
00000140: 34ed 95bd 879b 183d 445a a0bd 3450 adbd
00000150: adb5 823c a984 ea3a faba 24bd ca7d cfbd
00000160: 5dfd 33bd cf3d e33c 8125 9bbd 0636 bebd
00000170: 6bb7 053c 498c 8abd 9897 a4bd e852 03bd
00000180: de20 93bc 6fbb a6bd 9d12 7dbd f956 a7ba
00000190: c1e4 acbd 65d5 2ebc 1e30 8cbd 926b 91bd
000001a0: 37e0 f93c c119 8fbd 5f33 8abd 8487 2e3d
000001b0: 855d 393c 3d62 a63d df54 b4bc 19f8 3fbd
000001c0: 6b93 91bc 05b7 53ba 74f2 843d b14d b0bd
000001d0: 790f 8abc 1e98 1a3d 642e 3abd 8812 40bd
000001e0: 3398 293d d610 a0bd 319a a53c a4dc 8dbd
000001f0: da12 293d d3d1 8fbd d6e2 4f3d ff51 9cbd
00000200: 5c4e b0bd 3e75 023c 4025 ae3d 6bda 8bbd
00000210: 3859 cabc 4b76 ab3d b8b4 fbbc e169 3e3d
00000220: b993 cbbd ba59 51bd 4097 2dbd 4027 773d
00000230: 5865 fc3c 0197 aabd 6892 103d 1f6a 97bb
00000240: 6d51 28bd b6cd 3abd cce1 29bd 1754 583d
00000250: 2de1 83bd 24fd 79bd 8752 13bd bb13 c83b
00000260: a228 e53c fd2b 2ebc 1f2a ce3b 01f2 45bd
00000270: 5295 d2bc 979f e0bc db0c 953d c7ff bdbd
00000280: 22c8 58bd 5f00 75bd e379 dabb 866a a03d
00000290: 4bc7 7a3d ce41 95bd 01ca 543c b276 7a3d
000002a0: cc0e 0f3d faf5 a53d a596 17bc e18e 41bd
000002b0: 47c6 4b3d 6cdd 9dbc 09d7 673d 4fa9 18bc
000002c0: c1b1 343d e417 b33d 6a64 9c3d c1ac 9fbd
000002d0: f695 89bd 8072 40bd 95c8 8bbd ba93 a13d
000002e0: 8c75 1fbc ef7f 59bd fe1f 2bbd 9644 66bd
000002f0: 1956 383d cb5a a2bd 838a 9dbd 181e bebd
00000300: 81da 3d3d 5eab 2f3d d924 1dbd 134a fb3c
00000310: 4df6 a53d 8e2b b73c 6244 c9bc e1b5 84bc
00000320: c9bb 58bb 064f 3c3d aab3 63bd 6aaf 343d
00000330: 6a4a 653d 59e9 82bd 461f af3d 24f1 aa3d
00000340: 8783 2cbd 5c3e 14bc 3c00 013d 49f0 78bd
00000350: c4a2 603c 7439 1e3d f30c 7d3d 73ed 88bd
00000360: e0f6 a6bd c305 563d fb80 4f3d 3aeb a3bd
00000370: 16d7 0bbd 3221 aebd c317 75bd 1d6e 0dbd
00000380: 4b82 ae3d 1aa2 98bc 3b0e 483d 47b2 8e3d
00000390: bc33 213d bb4b 81bd 1454 f63c 5491 c23c
000003a0: 20c8 a33d 91f8 a5bd 9fe4 8a3d 255f 9f3d
000003b0: df20 c2bd 22a5 253c 703f 9c3d 61a3 a2bd
000003c0: ff06 ef3c 8167 443d 2f23 b13c f6e2 c13d
000003d0: ec9f 883d c835 aa3d faa5 47bc 9670 a53d
000003e0: d8f2 98bd e112 2abd 87ee c0bc 5367 09bc
000003f0: 4f60 933d 77e5 423d 59c6 953d 4dea 773d
-0.008273675 -0.09183754 -0.052260187 0.026199523 -0.033999942 0.053311016 0.06046925 0.004561281
-0.01768663 -0.039595947 -0.014596055 0.006186328 -0.06792307 -0.024829673 -0.07918961 0.050674114
-0.05998623 0.07961144 -0.03322761 -0.058403697 0.03917725 0.009984185 0.05726013 0.033323985
-0.09574052 0.051575936 -0.013102843 -0.04187854 0.045889966 0.055142287 -0.08423284 -0.019088795
0.064772375 0.025309926 0.06681137 -0.0331666 -0.048806272 0.068816386 0.03740203 0.07737347
-0.046455607 -0.06588635 -0.008703268 -0.08088273 0.030810758 0.055252917 0.011145379 -0.011891546
0.044516876 -0.057210207 0.07741603 -0.09041208 -0.0821646 -0.028794998 0.061932374 0.011275293
0.026623683 -0.065022424 0.027854916 -0.015168966 0.0359242 0.05261414 0.036699794 -0.010590016
-0.012562373 -0.060940657 -0.03067928 0.048243772 -0.040239897 0.05360855 -0.038318295 -0.032544944
-0.0075372644 -0.07646907 0.00189841 -0.023995228 -0.013450599 -0.022561233 0.06555125 0.053158443
-0.073206335 0.037257697 -0.07829717 -0.08462563 0.01595577 0.0017892319 -0.040217377 -0.10131414
-0.043942798 0.027739434 -0.07575513 -0.09287648 0.008161406 -0.067650385 -0.08036727 -0.032061487
-0.017960008 -0.08141219 -0.06178533 -0.0012767009 -0.08442069 -0.010670994 -0.06845115 -0.071005955
0.030502422 -0.06987334 -0.067480795 0.042609707 0.011313801 0.08124206 -0.022013126 -0.046867464
-0.01777049 -0.0008076283 0.06491557 -0.086085685 -0.016853081 0.037742727 -0.045454398 -0.046892673
0.041404914 -0.07815711 0.020215126 -0.069268495 0.041277744 -0.07022443 0.050753437 -0.07632827
-0.08608696 0.007962523 0.085031986 -0.06828769 -0.024700746 0.08372172 -0.030725822 0.046487693
-0.09940285 -0.05111096 -0.04238057 0.060340166 0.030810043 -0.08329583 0.035295874 -0.004620805
-0.04109328 -0.045606337 -0.041475102 0.05281457 -0.06439433 -0.06103243 -0.035967376 0.0061058677
0.027973477 -0.010630605 0.0062916423 -0.048326496 -0.025705967 -0.027419848 0.072778426 -0.09277301
-0.052925237 -0.059814807 -0.006667362 0.07832818 0.061225217 -0.07287942 0.012987615 0.061148353
0.03492622 0.08103557 -0.009252225 -0.0472554 0.04974964 -0.019270621 0.056601558 -0.00931771
0.04411483 0.08744791 0.0763634 -0.07796622 -0.06718056 -0.046984196 -0.06825367 0.07889505
-0.009732615 -0.053100523 -0.041778557 -0.056217752 0.045003984 -0.07927474 -0.07692435 -0.09283084
0.04635096 0.042888038 -0.03836522 0.03067497 0.08103619 0.022359636 -0.02456874 -0.016200008
-0.0033070913 0.0459738 -0.055591263 0.0441126 0.05597917 -0.06392164 0.08550887 0.08346775
-0.04211762 -0.009048071 0.031494364 -0.06077603 0.013710681 0.03862901 0.061779927 -0.06685915
-0.081525564 0.05225159 0.050660115 -0.0800385 -0.03414067 -0.08502425 -0.059837114 -0.03452884
0.08520945 -0.018631984 0.048841696 0.069675975 0.03935598 -0.063132726 0.030069388 0.023750938
0.07997155 -0.08104051 0.06781887 0.07781819 -0.09478926 0.0101101715 0.07629287 -0.07941318
0.02917814 0.04795027 0.021623222 0.094671175 0.06671128 0.08311039 -0.012185568 0.08078115
-0.07468194 -0.04152191 -0.023551239 -0.008386451 0.07196104 0.047582116 0.073132224 0.06052618

bias f4 [128]
00000000: eaa3 1c3c 6f9c 97bd e272 9c3c 6813 563c
00000010: 2086 783c 774e 4a3d 2227 3a3d 1b71 883d
00000020: 7f36 86bd 456a 5ebb 1a0b 823d 3a4e 8a3d
00000030: 6290 83bd 2ec4 ddba 7454 e7bb 835c abbb
00000040: 90f3 383d d13d 853d d2b0 9bbd 2dd1 5cbb
00000050: 2a46 2abd 22a0 433d 2515 ce39 b1d7 223d
00000060: bf94 d7bb c55c a73d 454b 8dbd ef6c 393d
00000070: 9126 bb3d a2e8 ccbc cde6 133d 259b 4bbd
00000080: 4315 2fbd 5e5c 31bd 8899 4b3d 98d5 513d
00000090: c17f 27bc 38c5 13bc aeae 5dbd 84a2 333d
000000a0: 144e 073d c4ca 89bb eb78 13bd 0ad7 4b3d
000000b0: b646 2fbd 6a8d 913d 20dd 4cbd a400 3a3d
000000c0: 4144 82bd 7183 003c afe4 bc3d fccb 923d
000000d0: 6344 9dbd 42b3 a2bc ad00 63ba 63f1 bebc
000000e0: 5a2a 53bc 6fb7 9b3d ec7c 80bd 04d1 83bd
000000f0: 6881 8dbd d162 b83a e8af babb a0f0 2b3d
00000100: 7f1c 21bd e8e4 08bd c2c0 a6bc e149 193d
00000110: 4ad7 ba3d eebe 8fbd 5f1d 133d 96f0 a23d
00000120: e887 74bd 8102 24bd c3bd a03d 7321 a6bc
00000130: 776f 513d 1483 973c ebe7 8dbd 610d 593d
00000140: 7c57 beb9 572d 74bd 3d5a de3c 26b5 6bbc
00000150: bb14 a7bc 9c8f 06bd 39d5 80bd 06ea 9abd
00000160: f2cc 28bc 3844 24bd b3ab 273d a066 933d
00000170: 4f09 d7bb 194d 8fbd ed38 9dbd 9347 173d
00000180: f87a e4bb da8f c2bd 09a0 1abd b900 f63c
00000190: ba82 883c b518 133d d4f5 ae3d 6eaf 02bd
000001a0: 71ed 18bc cc9a 86bd 692a b53d e43c dbba
000001b0: b115 f0bc ac8f f7bb fa0d e7bc df1b 3d3c
000001c0: 2ed5 9b3d b182 283d 7b92 4f3c 1058 2dbd
000001d0: 0bf4 6d3d a7fc d23d 4515 8dbd 1c2f 4bbd
000001e0: 80e7 af3d 4b47 9f3d 993b 9e3c 6824 a03d
000001f0: ac70 d63b f5fa 123d 3624 433d 03ba ca3d
0.0095605645 -0.07402884 0.01909775 0.01306615 0.015168697 0.049391236 0.045447476 0.06662198
-0.06553363 -0.0033937853 0.06349774 0.06753202 -0.06424023 -0.0016919428 -0.007059628 -0.005229534
0.045154154 0.06505931 -0.07602085 -0.0033694014 -0.04157082 0.047760136 0.00039307136 0.03975648
-0.006579011 0.08171991 -0.06899122 0.045269903 0.09138215 -0.025013272 0.03610878 -0.049708504
-0.042744886 -0.04330098 0.049706966 0.05122909 -0.01022333 -0.009019189 -0.054121666 0.04385616
0.033033445 -0.0042050797 -0.03600399 0.049765624 -0.042792045 0.07107051 -0.05001557 0.045410767
-0.06360675 0.007843838 0.092233054 0.07167813 -0.07679059 -0.019860867 -0.00086594635 -0.023308462
-0.012888515 0.076033466 -0.06273827 -0.06436351 -0.06909448 0.0014067536 -0.005697239 0.041977525
-0.039333817 -0.033421427 -0.020355586 0.037423972 0.091230944 -0.07018839 0.035916682 0.079560444
-0.059699923 -0.04004145 0.07848694 -0.020279622 0.05113169 0.01849512 -0.069290005 0.052991275
-0.00036304805 -0.059613552 0.027142638 -0.014386451 -0.020395627 -0.0328518 -0.06290669 -0.07564168
-0.010302769 -0.04010412 0.04093523 0.071973085 -0.006562389 -0.06997127 -0.07676873 0.036933493
-0.006972667 -0.09500094 -0.037750278 0.030029641 0.016663898 0.035912234 0.08542982 -0.031905584
-0.009333954 -0.06572494 0.0884598 -0.0016726521 -0.029307218 -0.007554969 -0.028204907 0.0115422895
0.0760902 0.041140262 0.012669201 -0.04232031 0.058094066 0.10302096 -0.068888225 -0.049605474
0.08589077 0.0777727 0.019315528 0.07819444 0.0065441933 0.035883863 0.047641955 0.0989876

weight f4 [128, 128]
00000000: e1cf 73bd f424 ee3c 438e 423d 463a 45bd
00000010: d5a6 5bbc d727 243d 6c73 95bd 455b 623d
00000020: 2735 5c3d 4527 893d 2199 fcbc 54bb d23d
00000030: dba1 bf3c 94a9 aabd fdc8 80bd d5e2 123d
00000040: a301 e83c f2c0 ae3d c2b3 d43c 9fe1 a33b
00000050: d3aa 43bc 7789 ec3b 10a9 48bd c873 0f3b
00000060: abf4 bc3b 8463 b53c 135b 093c c837 eebb
00000070: 37b2 263b c590 9dbd 7976 1cbd 9746 95bc
00000080: 54cf 163d 666e 0ebc 5f44 f5bc 01dc 27bd
00000090: b5dd b5bc 4b32 b63d 134e 6b3d 538f 89bd
000000a0: 02fd 3ebd 797b 283d 5731 0fbd 6958 23bd
000000b0: 28d1 83bd d3ad 3a3c a1f4 8d3c fb3c b83d
000000c0: 5798 d8bb 3c76 5dbd 6b6a 8b3c 3deb 0e3d
000000d0: d31e 843b c0b3 adbd 7067 8a3d 024a c1bb
000000e0: c3b2 c03b 8a5e 50bd fa1e a0bd 1262 e5bc
000000f0: a08b b5bd bea4 ed3c b4a5 29bd f4a6 6abd
00000100: 551f f5bc a64e 5b3c 5780 47bd 4eaa 83bd
00000110: f37c 21bc 0edc ce3d 0c75 323d c552 a83c
00000120: 19ef c1bc 73e9 1fbd 027e 933c 6fab 443d
00000130: dbeb 23bd fe19 893d a3b6 9cbd cfd3 93bd
00000140: b77d aabd a923 b43c faf0 9f3c 1b3d 083c
00000150: 3648 77bd f59e 23bd a8ba 4b3d 13c2 5c3d
00000160: 2b3f 4ebd c718 d7ba 49e5 183a 9983 8dbc
00000170: a31f 303d 29b1 b5bd 8b07 0a3d b5a9 30bd
00000180: f178 ec3d 2d37 a6bc 5fa9 ab3d 3555 29bd
00000190: cbb1 88bd 92c4 b83d 99ff f0bc 0e30 aa3b
000001a0: d376 3f3d 6956 c03d 1d5b 1a3d 2ffd a1bd
000001b0: 617f 46bd 3623 743d 4dc8 c33b a271 463d
000001c0: e95f bbbc a03d a4bd 02ef 8ebb e4d9 603d
000001d0: 179c 8f3d c983 95bd 0454 51bd 8ec6 cb3d
000001e0: 3fd4 d83d e788 bc3d 1049 7c3d 1955 153d
000001f0: 5716 583c 4828 97bd 99af 9ebc 9083 b1bd
00000200: 9d6c 863d 8dc2 2c3d 1b6a 4e3d c4a2 4f3a
00000210: 22fb 14bd 9e81 a33d 864e 863c 5b4d 203d
00000220: 7e8f 003c 957c 52bd 49a6 bf3c 9449 f83a
00000230: 221a b23d 0e22 e33c 2c23 333d 07ab 933d
00000240: e847 36bd c9dc 9f3d 39bf 973c 2260 67bd
00000250: 756c 853d 773e 2dbd 09e9 883d 88d7 973d
00000260: 8e0c 9aba 97d9 49bc 3969 203c 3c63 9b3d
00000270: b260 793d c27a 8d3d 66af e139 b51e 87bd
00000280: 0713 893d 1bbc 423c 1a2d 393d 2bc4 b13d
00000290: 50da a2bc 2763 d93d fba8 56bd 6b5e 21bd
000002a0: d933 603d 17fd a53d d461 d9bc 3599 9b3c
000002b0: abc2 9f3c 3a83 6f3d c055 1bbc b619 84bd
000002c0: 6273 de3c 74fb a0bd 198b 52bd 06bc 54bd
000002d0: 3a86 0a3d 697a 413d ce0f 3dbd 16d0 923d
000002e0: 73f5 82bd 47e5 923d 20e8 0a3d c081 9cbc
000002f0: 9a36 7b3d d987 a13d 2ce3 ae3d 428e 81bd
00000300: 4823 06bd 54a8 8ebd 4d4b 943d d580 093d
00000310: 87fe 0abd 88e4 153c 6519 6b3d d27b c03d
00000320: 9fe9 4e3c 5fb0 a2bd 18f4 f8bc fce1 803d
00000330: 2c7b 273d 0bc6 8b3d d762 9f3d 4347 d1bc
00000340: dd08 523d 11b5 15b9 719c a1bc 1844 5cbd
00000350: d4fc 243d 1773 fd3c 3210 7d3d 2108 bc3d
00000360: 402d 62bd 7d52 29bc 1f4c dfbc 548c 813d
00000370: 6387 4a3d afc6 a13d 903d 4e3d bc65 6b3d
00000380: a19b 76bd c8d2 63bd ee64 74bd 401f 05bd
00000390: 5f78 b7bc 80a6 953d b490 f5bc 4451 9d3d
000003a0: 2f6a 8f3d c544 983d aa7d 5d3d db93 893d
000003b0: 237a 023d 5e3e 17bd 0a56 8e3d cdfd a13d
000003c0: 4d79 9a3d d705 61bd d417 3bbc 3b98 9b3d
000003d0: 955f 213c 3b51 253c c67b 49bd f1ad 823d
000003e0: 86bc 763d 183d 0739 7221 a13d 7e0b 03bd
000003f0: 3b50 883d ec7e 283a eb41 c2bc 5704 173d
-0.05952442 0.029070355 0.047498953 -0.048151277 -0.013406475 0.040077057 -0.072974056 0.055262823
0.053761628 0.06696943 -0.030834736 0.10289636 0.023392608 -0.08333126 -0.062883355 0.035860855
0.028321093 0.08532895 0.025964621 0.0050012614 -0.011942583 0.0072185355 -0.048989356 0.002188908
0.0057664714 0.02214218 0.00838353 -0.0072698332 0.0025435814 -0.07693628 -0.03819892 -0.018222136
0.036818817 -0.008693313 -0.029939828 -0.040981296 -0.022200445 0.08896311 0.057447504 -0.0671679
-0.046628006 0.041133378 -0.034959164 -0.039879236 -0.06436378 0.011393982 0.017328562 0.08996006
-0.006609957 -0.054067835 0.017018517 0.03489231 0.004031995 -0.0848155 0.067580104 -0.005898715
0.005880685 -0.05087141 -0.07818408 -0.028000865 -0.08864522 0.02900922 -0.041417792 -0.057288125
-0.029922167 0.0133854505 -0.04870638 -0.064289674 -0.00985645 0.10100566 0.043568656 0.02054728
-0.023673581 -0.039040994 0.018004421 0.048015054 -0.04001985 0.06694411 -0.07652023 -0.07218134
-0.083247595 0.02198966 0.019524086 0.00831535 -0.0603716 -0.039946515 0.049738556 0.05389602
-0.05035321 -0.0016410582 0.0005832506 -0.017274665 0.04299892 -0.08871681 0.0336986 -0.043130595
0.11546505 -0.020289982 0.08381914 -0.041341025 -0.06674536 0.09021868 -0.029418753 0.005193717
0.04674418 0.093914814 0.03768455 -0.07909619 -0.04846132 0.059603892 0.0059748054 0.048448212
-0.022872882 -0.080195665 -0.004361988 0.054895297 0.07012194 -0.07300527 -0.051105514 0.09949981
0.10587358 0.092057995 0.061593115 0.03645811 0.01318892 -0.0738073 -0.01937084 -0.08667672
0.06563685 0.042177726 0.05039416 0.00079206773 -0.03637231 0.07983707 0.016394865 0.039136272
0.007846711 -0.051388342 0.02339472 0.0018942826 0.08696391 0.0277262 0.043734714 0.07210355
-0.04450217 0.07805783 0.0185238 -0.056488164 0.06514827 -0.0422959 0.06685073 0.07414156
-0.0011753009 -0.012319944 0.009790712 0.07587287 0.06088323 0.0690818 0.00043046026 -0.06597654
0.06693082 0.011885668 0.045209028 0.08679994 -0.01987949 0.10614615 -0.052407246 -0.039396685
0.054736946 0.08104914 -0.026535906 0.018993953 0.019502005 0.058474757 -0.009480894 -0.064502165
0.027154628 -0.07860461 -0.051402185 -0.051937126 0.033819415 0.04723588 -0.04615765 0.071685955
-0.06394472 0.071726374 0.033912778 -0.019104838 0.06133137 0.07887239 0.08539423 -0.06325962
-0.03274849 -0.069657 0.07240925 0.03357013 -0.033934142 0.009148724 0.057397265 0.09398617
0.012628942 -0.07943796 -0.03038983 0.06293103 0.04088895 0.06824883 0.07782524 -0.025546676
0.051277984 -0.000142772 -0.019727917 -0.053775877 0.04028018 0.030938668 0.061783023 0.09181238
-0.055218935 -0.010334608 -0.027257977 0.063255936 0.04944552 0.07899224 0.05035168 0.05747007
-0.060207013 -0.05562094 -0.059666567 -0.032500505 -0.022396265 0.07307148 -0.029976226 0.07681516
0.07002675 0.07434992 0.05407492 0.06717654 0.03185476 -0.036924712 0.069500044 0.07909737
0.075426675 -0.05493721 -0.011419255 0.07597395 0.009849449 0.010090168 -0.049190305 0.06380833
0.060238384 0.00012897362 0.07867707 -0.03199338 0.06655928 0.0006427604 -0.023713073 0.036869373

bias f4 [128]
00000000: 4b28 9e3c 70ab d03d f007 243d 88bb ab3d
00000010: 25d1 003d 8bbe e9bc 12a5 bb3c 2c75 5d3d
00000020: dce8 2dbd 99d9 173c 11fc 8c3d 1771 25bd
00000030: dc24 953d ba38 9d3d 3d7b 4fbc 6f2d 8e3d
00000040: 98f7 a73d 90ff d23c cd6a a4bb 0cb9 22bd
00000050: da01 533d 1f44 a1bd 6a31 413c ee9b 82bd
00000060: ac5b 0d3d 0a35 653d 6633 8b3d ceaf a43d
00000070: 354e b6bd 774e b53d 6d69 4d3d 1aca 39bd
00000080: 8f2f ae3d 8de5 51bd 075c a33d c21f 3d3d
00000090: 39b0 88bd 899f 3e3c 42fb 2abd c585 83bd
000000a0: af8b 1a3d daaf 3dbd 08db 73bd 3ffc 263d
000000b0: 316e dabb fedf 583d 6e1e a1bc f89d 0fbd
000000c0: 3e6f 7d3d d121 913d 8053 5ebd 0ca5 d33c
000000d0: 721e 0f3d de42 abbc 9078 16bd 3252 c63d
000000e0: 50ae a93d 7fb6 fa3c 6cac 943d fd6a 4fbd
000000f0: 5f27 cd3a dffb b03d 4541 61bd 95d2 03bc
00000100: 6842 41bd 59ea 07bd a33f fa3c ef11 a6bd
00000110: 5450 b23d e0cf 433c 6477 68bd 5dac 54bd
00000120: af9e 49bd 345f 983d 1518 bc3d e73f 393d
00000130: 002c 9f3b ced9 243c a704 47bc 500d 863d
00000140: efea 693d db78 ef3c 26d0 673d 5187 b53d
00000150: 7c30 93bd 41f4 91bc adb3 f4bc 5019 16bd
00000160: 33cd c53b 1da7 c73d ec6f 803d a47e 80bc
00000170: 539a 95bd 77b3 653c f678 843d 3847 b03d
00000180: 6143 5abd a57e b53d 1085 83bd af5a 403c
00000190: 210c acbd 373c dbbc d0a5 37bd 6707 9abd
000001a0: f704 2bbd 4e9b 633d 39c6 c2bc cdbc d53c
000001b0: 4062 7dbd ddbb d33c eba7 6c3d 66e1 cb3c
000001c0: 8e68 863d d720 4dbc 90fe bc3c 93a4 bcba
000001d0: b2b3 833d 1cc6 54bd 7552 063d 1699 aa3b
000001e0: 1340 1b3d 152f e73c ec28 c03d 548f 3d3d
000001f0: c5c2 673d b73a 863c e863 cc3c b598 3cbd
0.019306323 0.10188949 0.040046632 0.08385378 0.031449456 -0.02853324 0.02290586 0.054066822
-0.0424584 0.009268188 0.06884015 -0.040391054 0.07282421 0.07676835 -0.01266366 0.069422595
0.08201522 0.025756627 -0.0050176145 -0.039727256 0.051515438 -0.07874321 0.011791566 -0.063773975
0.034511253 0.055958785 0.06796913 0.080413446 -0.089016356 0.088528566 0.05014937 -0.045358755
0.08505165 -0.051244307 0.07976537 0.046172865 -0.06674237 0.011634716 -0.041743524 -0.06421999
0.03773087 -0.046310283 -0.059535056 0.040767904 -0.006665968 0.05294799 -0.01966783 -0.03506276
0.061873667 0.07086528 -0.05427885 0.025835536 0.034941144 -0.020905908 -0.03673607 0.09683646
0.082852006 0.030604599 0.07259449 -0.05063914 0.0015651992 0.086417906 -0.054993887 -0.008045812
-0.04718247 -0.033182476 0.030547922 -0.08108889 0.087067276 0.011951417 -0.056754485 -0.05192219
-0.049223598 0.074400336 0.09184281 0.045226958 0.00485754 0.010061694 -0.012147105 0.06545508
0.057108816 0.029232433 0.05659499 0.088637 -0.07186982 -0.017816665 -0.029870832 -0.036645234
0.0060364245 0.09748671 0.062713474 -0.015685387 -0.07304826 0.0140198385 0.06468384 0.08607334
-0.053286914 0.08862046 -0.06421864 0.011740371 -0.08400751 -0.026762111 -0.044835865 -0.07520943
-0.04175278 0.055568032 -0.02377616 0.026091004 -0.061861277 0.025846416 0.057777327 0.024887752
0.06562911 -0.012520037 0.023070604 -0.0014392309 0.064307585 -0.051946744 0.03279348 0.0052062375
0.037902903 0.028220693 0.09382805 0.046279266 0.05658223 0.01638542 0.024949983 -0.04604407

weight f4 [128, 128]
00000000: 14ff 993d e827 ae3c 8565 29bc d87a f237
00000010: f801 003d 9fa0 8c3d 1306 7d3d cf73 05bd
00000020: 5dcf c83d 0386 6abc 9e8f a73d b41d 33bd
00000030: 8f44 bf3b 6ef3 92bc 9c46 a93d 0f73 bcbc
00000040: f14e 71bd a75b 7bbd 52ab 943d 6da7 b03d
00000050: f2cb 8abc 073b 4e3d 2e3f 8bbb 9bb3 edbc
00000060: ea7e 84bd ef3b 463c b68f 863d 05a2 a43c
00000070: 5c45 b83d afa1 6bbd e225 4abd a592 d63d
00000080: 80f8 ea3c 9d33 b03c c217 afbd d672 b03d
00000090: 9f5b b53d 63fd 5c3c 79fa 873d 7f46 993d
000000a0: 98f5 f53b 3e8c 5dbd 5056 f4bb 2169 8b3d
000000b0: 1d0e f0bc b435 2bbd faf9 b5bd c847 bd3d
000000c0: 1cd8 853d 8d8a a53d 804c 88bb bce6 8a3d
000000d0: 454c 54bd 2fd7 a73d 1aef c73b fa54 3cbd
000000e0: c584 8dbd b1f2 0bbd f1d9 95bd c65c bc3c
000000f0: c043 323c 16de 953d 7d98 7fbd 5e7a 4cbd
00000100: 0e76 843b 0b98 a43d 4729 56bc 3887 a13d
00000110: 48c5 ba3d e766 6c3d b4ba a03d ee32 9dbd
00000120: b5a8 873d 2a50 9fbd 75fc b9bd 0e26 033d
00000130: 8c09 013d 6fce 2fbd 87eb 9c3d 3c58 7f3d
00000140: 5696 44bd a3e5 b93d 2607 973d 42e2 5abd
00000150: 4a1d f2bc f228 8dbd e31a 2e3d 6c9f 043d
00000160: ab45 03ba bc1a ab3a 4203 8abd 922d d3bc
00000170: c83f 143d 7bfc 54bc 0add 313d 0844 f73c
00000180: 5d42 563d 1c9b ad3c bab7 783d 533e a0bc
00000190: a55a 87bd f7e6 343d 0b00 14bb 3ef8 87bd
000001a0: 00c6 1f3b af30 90bd c882 023d 957c 993d
000001b0: c25a 2b3d d090 7c3d b1c0 bf3d 66a1 c73c
000001c0: 7618 803d 0511 ab3d 89ec 0dbd b9e1 6dbd
000001d0: ea93 1c3d 7fa4 433d 2ecc 603d 19ba ac3d
000001e0: 559e c2bd fcda 41bd 2cee 5b3d fab9 5fbd
000001f0: 7d78 df3c 04cf 6c3c 5f4e b03d 0704 b0bc
00000200: f591 943d d842 233d 44bc 61bd 952a 8fbc
00000210: 9955 9ebd f403 1f3d a7ce 9abd ab77 26bd
00000220: 94c0 62bb e21a 963d e23b 91bd d722 f8bc
00000230: 87a3 9abd c347 20bd eff5 0dbd 7d6a 103d
00000240: 7e72 bcbb 60c0 08bd 518e 993c 7fa9 1abd
00000250: a91b d33d 3786 0bbd 9a26 8abd 7201 f1bc
00000260: b38e 133d 18f2 b3bd bc85 1f3d 68dc 95bc
00000270: 6c5f 64bd 26b7 7bbd a20a 0c3d f39a 19bd
00000280: 11fe 46bd 56e7 943c f73a ce3d c21e 2b3d
00000290: 9ad7 563d f7b8 b5bd 0fa3 ebbc 2d2d 29bd
000002a0: 2b1e 8b3d 2978 893d 5031 12bd 7a9d 7fbd
000002b0: 6bd2 ab3d 7f5a 22bd f7a2 66bd 0c85 8c3d
000002c0: b88c b13d 1231 df3c 3530 0fbd 10b2 303d
000002d0: e3ec c1bd 7ccc 133a a026 99bc c1f0 c7ba
000002e0: a5bc 5a3d 6c3b e43c fcbe 033b f1a2 b23c
000002f0: 3c27 8cba 59e9 94bd 6c2c b1bd d2a9 d0bc
00000300: 3abf afbd 464b 643d 5af7 bc3b bff5 6bbd
00000310: e821 b1bc 9215 88bd 216e 863d 47ef 1f3d
00000320: 9ce8 2a3c c285 80bd ffb0 b33d c4ee 4dbd
00000330: 0c2f a3bd 285a 953c 071f ad3d 5151 35bd
00000340: a646 0c3d 37c8 213d 95a6 413d a41f 663c
00000350: a52f b63b b8e3 333d 09d4 493d a080 543d
00000360: 42d7 15bd 549d 153d a575 c23d 17b6 4a3d
00000370: 9283 2fbb b4ec 94bd a28d 65bd 481c 233d
00000380: 8d1b bcbc 3624 a23d d544 113d 652d 98bd
00000390: 533e 603c 3cb9 05bc d587 aabd f8b7 00bc
000003a0: 139b 883d 7b8a b43d 79d1 81bd be87 3e3d
000003b0: d8f4 c8bc cd45 2f3c 56f9 393c c2dc 193d
000003c0: 6c38 793d 1e3a 953d 4d87 953d 46ab 8c3d
000003d0: 0c85 1fbd 7099 8c3d 0690 91bd 8938 353d
000003e0: 6de8 babc 9312 533d ccba 273d 8755 803d
000003f0: a215 353d 9161 33bd a9b2 5d3b af8d cdbc
0.075193554 0.021259263 -0.010339146 2.8905852e-05 0.031251878 0.068665735 0.06177337 -0.032581147
0.098051764 -0.014314177 0.0818169 -0.0437295 0.0058370302 -0.017938342 0.08265421 -0.023004083
-0.058913175 -0.061366703 0.07259239 0.08625684 -0.016942952 0.05034926 -0.004249475 -0.029016307
-0.064695194 0.01209925 0.065703794 0.020096788 0.08997604 -0.05752724 -0.049352534 0.10477189
0.028682947 0.021508986 -0.08549453 0.08615653 0.08855366 0.0134881465 0.06639571 0.07484149
0.0075060837 -0.054088823 -0.0074565783 0.06807161 -0.029303605 -0.041799262 -0.0888557 0.09242207
0.0653536 0.08083067 -0.00415951 0.0678229 -0.05183055 0.0819534 0.006101501 -0.045979477
-0.069100894 -0.034166995 -0.0731696 0.022993457 0.010880411 0.0731775 -0.062401284 -0.049921386
0.0040423935 0.080368124 -0.013071365 0.07887119 0.0911966 0.057715323 0.07848111 -0.0767573
0.06623975 -0.07778962 -0.090813555 0.032018714 0.031503245 -0.04292148 0.07662111 0.062340006
-0.047994934 0.09077003 0.0737441 -0.053438433 -0.029554982 -0.06892575 0.04250611 0.0323786
-0.0005007635 0.0013054232 -0.06738903 -0.025778566 0.03619364 -0.012999649 0.04342369 0.030183807
0.052309383 0.021192126 0.06072209 -0.019560969 -0.06609086 0.044165578 -0.0022583033 -0.06639145
0.0024379492 -0.07040536 0.031863004 0.07494465 0.0418346 0.06166154 0.09362925 0.024368953
0.062546656 0.083528556 -0.034649406 -0.058076594 0.038227 0.047764298 0.05488222 0.08433933
-0.09502856 -0.04732798 0.053693935 -0.05462072 0.027279133 0.014453653 0.08608698 -0.021486295
0.072544016 0.03985867 -0.055111185 -0.01747636 -0.0773117 0.03882213 -0.07558947 -0.040641468
-0.0034599649 0.07329346 -0.070915 -0.03029005 -0.075507216 -0.039130937 -0.03465837 0.035257805
-0.005750953 -0.033386588 0.01874462 -0.0377593 0.1030801 -0.034063544 -0.06745644 -0.029419634
0.03602476 -0.0878641 0.0389459 -0.018293574 -0.055755064 -0.06145396 0.034189828 -0.037501287
-0.04858214 0.018176716 0.100698404 0.04177738 0.052451707 -0.0887317 -0.028764276 -0.04130285
0.067928635 0.06712372 -0.03569156 -0.06240604 0.083897434 -0.039637085 -0.05630776 0.06861314
0.08669418 0.027245078 -0.034958083 0.043138564 -0.09469011 0.00056380755 -0.018695176 -0.0015254245
0.05340256 0.027860366 0.002010285 0.021806212 -0.0010692845 -0.0727107 -0.08651051 -0.025471602
-0.085813954 0.05573585 0.0057667913 -0.05760741 -0.021622613 -0.06644739 0.06563974 0.039046552
0.010431435 -0.06275512 0.08773994 -0.050276533 -0.07967958 0.018231466 0.084531836 -0.044267002
0.034247063 0.03949758 0.047278006 0.01404563 0.005559879 0.04391834 0.049274478 0.05188048
-0.03658224 0.036526993 0.09495095 0.04949006 -0.0026781303 -0.0727171 -0.056043275 0.039821893
-0.022962356 0.07917063 0.035466034 -0.07430533 0.013686734 -0.008161839 -0.08326689 -0.007856362
0.06670203 0.088154756 -0.06338782 0.046516173 -0.024530813 0.010697794 0.01135095 0.037564047
0.060844824 0.072864756 0.07301197 0.06868605 -0.038945243 0.068652034 -0.071075484 0.04424337
-0.022815907 0.051531386 0.040949628 0.06266313 0.044210084 -0.04379422 0.0033828414 -0.025091974

bias f4 [128]
00000000: 2351 edbc 056e 033d 880c 9b3c 339d 52bd
00000010: c33f 18bd d8e0 8fbd 1193 b13c a080 8bbc
00000020: 9d82 f6bc aadb 963d 0c24 b3bd 314a 81bd
00000030: bf9c 873d 8290 2c3c 3825 78bd 5230 a63d
00000040: 78f0 f8bc 0d23 13bd f188 7a3d 409c e93c
00000050: 4577 a83d 588c ac3b b19a 25bc 198a 30bc
00000060: 71ae 833d dda3 a53d fdaa 2c3d ef35 3c3d
00000070: ee5f 233d 2d71 c1bc a5bb 24bc dcd6 af3b
00000080: 6b92 50bd 0ed3 d03d 198a a83d 08b0 e5bc
00000090: edaa 553d 4f67 a0bc c07e a73d 4790 c2bc
000000a0: a93b c13d 1eb8 b7bc ee38 943d 08b9 9e3d
000000b0: 5576 153c f918 523c c0a4 b9ba 097b 7cbd
000000c0: 736d 0e3d b198 0d3d f08a c6bc a429 003d
000000d0: d4a3 bb3d 2259 8abd 2e92 ad3d 2ff3 313c
000000e0: 9d54 4e3d eb22 093d d8d2 a33d 35dd a73d
000000f0: ec4a 543d 2992 a0bb caa8 66bc 61d6 63bd
00000100: 76e3 b9bd 060b a7bd d9b2 b03d 32f2 b8bd
00000110: 78f5 8f3d bb5e 8fbd 6a16 bd3d f383 203d
00000120: ecd9 103d 9bd1 8ebb 8d47 98bc 28e1 c23d
00000130: 2296 813c 644a 223b f6ae f83c f473 9f3d
00000140: 9534 2dbd c293 4f3d 4ae3 783b e1ed 34bd
00000150: c8db 523d 2de2 383d 6a04 4fbd d401 31bd
00000160: e878 9bbd 52de 7fbd 1478 bb3d 9cea b53d
00000170: 38f1 99bd 4285 ad3d 8719 68bc d163 3abb
00000180: a90a 763d c858 a73d 5664 4d3c 8436 e23c
00000190: 8c42 933c 1b25 b4bd a9fc a93c 595d 67bd
000001a0: ce5f b43d 9654 a7bd ab90 313c 47a5 a73d
000001b0: 2691 9e3d 9e17 bbbd fda4 cdbb 88f7 883d
000001c0: 607e 1dbd 3a4f 883c 16e0 9dbc c012 e73c
000001d0: 5307 543d 2522 6e3c dd91 b63c 8fb7 afbc
000001e0: a2a6 7cbd d75a 893d 18b3 9c3d 5bd2 9c3d
000001f0: 0149 93bd f539 75bc 830d 7bbd 7c6f 54bd
-0.028969353 0.032087345 0.018926874 -0.051419448 -0.037170183 -0.070253074 0.021676572 -0.017029107
-0.030091578 0.07366116 -0.0874711 -0.06312979 0.06621694 0.0105325 -0.06058237 0.08114685
-0.030388102 -0.0359221 0.061165754 0.028516889 0.08225874 0.0052657537 -0.010107682 -0.010775113
0.064297564 0.08087895 0.042155255 0.045949873 0.039886408 -0.023613537 -0.010054504 0.0053661894
-0.050920885 0.101965055 0.08229465 -0.02803804 0.05216496 -0.019580511 0.081784725 -0.023750437
0.094352074 -0.022426661 0.07237421 0.07750136 0.009122451 0.012823337 -0.0014163479 -0.061640773
0.034772348 0.034569446 -0.024236172 0.03128971 0.09162107 -0.06755282 0.08475147 0.010861202
0.050373662 0.033480566 0.079992 0.08196489 0.051829264 -0.004900236 -0.014078328 -0.05562437
-0.09076588 -0.081563994 0.086278625 -0.0903057 0.07029241 -0.0700049 0.09232791 0.039188337
0.035364076 -0.004358483 -0.018588806 0.095156014 0.01581866 0.0024763579 0.030356865 0.07785788
-0.042286474 0.050678022 0.0037977272 -0.04417217 0.05147913 0.045137573 -0.05054132 -0.043214634
-0.075914204 -0.06246788 0.091537625 0.08882639 -0.07516712 0.084726825 -0.014166242 -0.0028440843
0.06006876 0.081712306 0.012536129 0.027613886 0.017976068 -0.0879614 0.02075036 -0.056485508
0.08807336 -0.0817043 0.010837714 0.08185821 0.077425286 -0.09135364 -0.0062757717 0.06687838
-0.0384506 0.01663934 -0.019271892 0.028207183 0.051764797 0.014534508 0.02228635 -0.021449832
-0.06168235 0.067067795 0.07651347 0.076573096 -0.07191659 -0.014967431 -0.061292183 -0.051864132

weight f4 [1, 128]
00000000: 6951 cdbd 8ca4 5e3d 3738 a63b 05be b83a
00000010: 915e 9abd 8725 3a3d 1931 d93b e680 9b3c
00000020: 42af 3dbc f9ae 07bd 676a 083d afa7 fe3c
00000030: 96f1 8fbc 0420 873d adfa 963d eef6 0e3d
00000040: dc92 0f3d a6b4 36bd b258 31bd 9e6e 28bd
00000050: 0b26 663d 3d34 bd3c f31d a6bd f58b e7bc
00000060: 9d9d a33d b42b cf3d 1571 183d 911f 29bc
00000070: 7926 7dbd 37d6 e0bc 9ac5 8f3c 73a8 babc
00000080: 42a8 25bd 24b6 ee3d 5bf1 683d 4370 8f3d
00000090: 3065 8ebd ca32 693c ea9f a43d 0dfa 6a3d
000000a0: 340e c53d 3e0f 29bc ef5c a1bd 9d2f 6cbd
000000b0: bc52 d4bd ebca c93d 4ae7 32bd a56d 823d
000000c0: 60f4 863d 4372 f33c b6ec b43c 3ebd aabd
000000d0: 77ba 0c3d 75d1 cbbc f458 e93c 1605 3e3d
000000e0: 8da5 cb3c 0bc9 a13d 9ab3 b5bc cb39 cd3d
000000f0: 3e6b 99bd 1a4c b9bd 1372 8a3c 5e74 873d
00000100: 4608 663d 66eb 2c3d 0380 b73d 96da 553c
00000110: d457 81bd 2c7c 35bd 0ae9 473d 5b59 1f3d
00000120: b4cb 4a3d f7ad cebc 02b0 69bc ef4c 4b3d
00000130: bfe0 2a3d 107c cebc f4d1 22bd fcde 8e3d
00000140: 42b6 a8bb 82eb 273d f34c b8bd 86f3 803d
00000150: 9269 75bd 04f1 a9bd ee92 b73c 5440 e63c
00000160: 32d2 77bb 961c a7bd dcc0 46bd 9a13 dc3d
00000170: d19d 0d3d 4086 513d 4dab 8f3d 8aaf 64bc
00000180: 7eb7 cabd 5339 19bd d873 8fbd cb4d d93c
00000190: 533b 513d e372 b73d efb6 0a3d b09d 153d
000001a0: c402 2a3d 6c5a 853d ad5e 1b3c 95a7 133d
000001b0: 13a9 8cbd 4558 023c 468e cfbd a831 7b3d
000001c0: 1fe8 183d b47d 803d 0bcd 41bd 043a a73d
000001d0: 0557 953c aaa0 c33c d4fb 873a 7fad 013d
000001e0: 7d67 a73d 808c da3d d17e 88bd 6487 cabd
000001f0: 2b6d 6fbd 1de7 353d dc4e 9ebd 601f 10bc
-0.100252934 0.054356143 0.0050726193 0.0014094716 -0.07537568 0.045445945 0.0066281673 0.018982362
-0.011577429 -0.03312585 0.0333046 0.031085817 -0.017571252 0.06597903 0.07372031 0.03490346
0.035052165 -0.044605874 -0.043297477 -0.041121118 0.056188624 0.023096198 -0.08111181 -0.028264979
0.07989047 0.101157576 0.03721722 -0.010322467 -0.06180427 -0.027445896 0.017550278 -0.022785401
-0.040443666 0.11655834 0.0568708 0.07003834 -0.06952894 0.0142333 0.08038314 0.057367373
0.0962185 -0.010318575 -0.07879054 -0.057662595 -0.10367343 0.09853157 -0.043677606 0.06368569
0.065895796 0.02971757 0.022085529 -0.08336876 0.034357514 -0.02488015 0.028484799 0.04639157
0.024859214 0.07899674 -0.022180367 0.10020789 -0.07491158 -0.09047718 0.016900098 0.06613992
0.056160234 0.04221668 0.08959963 0.013052603 -0.0631558 -0.044307873 0.048806228 0.038903575
0.049510673 -0.025229437 -0.014263155 0.049633916 0.04171824 -0.025205642 -0.03975101 0.06976125
-0.00514868 0.040996082 -0.08999052 0.062964484 -0.059915133 -0.08297923 0.022408929 0.028106846
-0.0037814495 -0.08159749 -0.04852377 0.10745926 0.034574334 0.05115342 0.07015095 -0.013957867
-0.098982796 -0.037408184 -0.07004517 0.026526352 0.051081967 0.0895746 0.033865865 0.036527336
0.041506544 0.06511387 0.009483022 0.03604849 -0.06868186 0.007955615 -0.101345584 0.061326653
0.037330743 0.06273976 -0.047314685 0.081653625 0.01822997 0.023880322 0.0010374733 0.0316596
0.08174036 0.106713295 -0.06664813 -0.09889105 -0.05845372 0.04440986 -0.07729885 -0.008796543
