Dry fermentation prediction and optimization system/optimize_digester/Predictor_Digester Biogas Production/models/NeuralNetTorch_BAG_L1/S1F3/net.params (torch, 207367 bytes, 9 tensors)

weight f4 [128, 5]
00000000: ab5d 2dbc 5da9 693e 13df bfbe c63e abbe
00000010: 9cd9 35be f098 0b3e 7bfa 023b ece9 e03e
00000020: 99f4 ecbc f932 043e ed5a fabd bada e4bd
00000030: 9be0 cdbe e614 97be 3ea6 3bbe 4f41 023c
00000040: 2c69 483e 23e7 9c3e 54ed 8dbe f5cf 2cbe
00000050: a663 4b3e 3c25 ba3e 0503 2bbd 6bc2 ab3e
00000060: 4bf6 91bd 7ccc 573d 2487 be3e d94b d6be
00000070: 3e3b 95be 9e35 fcbd b6d6 30be 5d5c bf3e
00000080: b78d 96be 5c0b 55be 9116 a1be 6fe9 c6be
00000090: be9e 83be 9022 d63e fb29 403e 22c6 513e
000000a0: 07ec a43c 565c 87be 577a 963d 0640 d8be
000000b0: 46e8 a7be 1695 73be a294 8e3e bbd9 8e3e
000000c0: 4a72 39be 3836 903a 8964 a63e b316 e23e
000000d0: 1564 5b3e a472 603d 97a5 963e 0de5 89be
000000e0: 924b 8b3d 5238 aebe 6925 a1be aa76 71be
000000f0: a896 6b3e a5e4 573e eb88 8fbe b9d1 fb3d
00000100: e2f5 6e3e e0f0 2cbd 2201 683c b143 e83d
00000110: 4f5e 863e 722d d43e 72b0 bfbe e96e 0fbe
00000120: a78b 363e 7b7f b43e 5b09 be3e 0c59 d03e
00000130: 3ec6 853d acd4 cbbe c9e9 193d 5312 91be
00000140: 0e79 d7be 9479 c93e bbff b13e 87dd e8be
00000150: c798 993d 67b9 cebd 1801 c5bd 0978 8abe
00000160: 42d6 353e a0c1 84be b36c 153e cdf1 893e
00000170: 2e6d b93e d70e 3c3e a835 dabe 7f23 93be
00000180: 7ca2 4f3e 8a1c e73d 3f36 b1be d870 82be
00000190: 6b75 d83e ae3f a33e 7fd8 36be fc33 e0bd
000001a0: 8b8a d8be 6bb4 1ebd 5f3d 9ebe 76c1 cdbe
000001b0: 39e9 f4bc 4182 7d3d 06e5 4bbe d39f 8c3e
000001c0: ed10 9ebe b41f cb3e 9246 983e dc2d d7be
000001d0: 6fd7 bdbd f883 5c3b a768 7b3d 0a4d d13d
000001e0: 0ee7 323e e6e3 a2bb 90ff 6fbe c0c9 4f3e
000001f0: 8b18 e0be 183c 8fbe f602 16be f3d1 70be
00000200: 9671 20be 86ca bbbe b078 0bbe 7757 a73d
00000210: 61af b2be 6efe 02bd 8449 9f3e 6afe 6abd
00000220: 16c4 afbb 9386 9dbd e3bb a93d 0caf 8d3e
00000230: 99df dd3e bea9 853e 3957 ce3e d90b 2fbd
00000240: 2e03 d3be 46d1 63be 5c35 983e 8c12 2c3c
00000250: e9d0 5abe 0510 abbe afbf d3be 2075 c4be
00000260: 784c bdbd 5c83 703e 08f5 6c3e cd3d e3be
00000270: ae66 843e d572 b1be 07f6 d6bd c159 44be
00000280: 41f2 81bd 8e98 d0bd b3c4 ccbe f834 c2be
00000290: 6c54 81bd 49dc 5c3c 58de 6fbe 3601 2d3e
000002a0: efc9 c8be 1b70 a2bc ffb8 cc3e c1ca 53be
000002b0: be88 c93e 3e6e 1b3e 03d9 d3be 5a24 923e
000002c0: e9bf 8abd 9e2e 30be 9d85 bb3e 119c b4be
000002d0: 7c31 883d 91ed a0bd c0f5 bd3e c46e f43d
000002e0: ce6d 563e 17fc 363e 2a78 0ebe 8de9 b8bd
000002f0: 254c bdbe 10ed 763e e88a cd3e 5340 a83e
00000300: e556 c3be 0cc9 a83d 496d 81be c10b 7cbe
00000310: 6b6e 97be 5213 273e e497 86be a701 c9bb
00000320: d097 b23c db63 863e 04a4 b1be eefe 9fbe
00000330: 44c2 87be 1441 b03e c88a 11be 29fd d63e
00000340: 09f5 233e 3964 613d 2ac4 93bb 57e1 edbd
00000350: 55d5 733d 14ff d2bd efad 84bb b1eb 0f3d
00000360: a169 a5be e507 8dbe 216b b83e 614c babe
00000370: fcb1 02bd 8023 e73e 2236 3c3e 59ba 4b3c
00000380: f18b c6be babf 793e 9094 babe 2fd7 f3bd
00000390: 68a9 06be 2651 43bd 0eff 213d 769b bc3e
000003a0: 007d 923d 2905 c83e 09ff 863e 30f4 95be
000003b0: 3059 473e bc85 adbe 1232 3dbe 0d96 0b3e
000003c0: 2b49 3c3e 0c55 ae3e e5aa f9bd d849 d33a
000003d0: f3ad 6c3e a0ce f7be 294f 8c3e 136b d4be
000003e0: 5f15 de3c aaa3 61bd c715 77be 7c42 2d3d
000003f0: f464 b93e b302 0bbe 0b83 8abe 7bed 29be
-0.010581414 0.22818513 -0.3747488 -0.3344633 -0.17758793 0.1363256 0.0019985724 0.43928468
-0.028925227 0.1291007 -0.12224374 -0.11174531 -0.40210423 -0.29508132 -0.18325135 0.007950141
0.1957137 0.30645093 -0.2772013 -0.16876204 0.19862232 0.36356533 -0.041750927 0.33546767
-0.07127055 0.052685246 0.3721248 -0.41854742 -0.2914676 -0.12314914 -0.17269406 0.37375155
-0.29404995 -0.20805115 -0.3146253 -0.3884997 -0.25707048 0.41823244 0.18766014 0.20485738
0.020132078 -0.26437634 0.07347553 -0.42236346 -0.32794398 -0.2378734 0.27847773 0.2790049
-0.18110004 0.0011002487 0.32498577 0.44157943 0.21424897 0.05479683 0.2942321 -0.26932564
0.06801523 -0.34027344 -0.31473854 -0.23580423 0.2300669 0.21083315 -0.28034148 0.12295861
0.23335984 -0.042221904 0.014160426 0.11341036 0.26243827 0.41440922 -0.37439305 -0.14007153
0.1782671 0.3525351 0.37116513 0.40692937 0.06531952 -0.39810693 0.03757647 -0.28334293
-0.42084545 0.3935057 0.3476542 -0.45481512 0.07499843 -0.100939564 -0.09619349 -0.27044705
0.17757514 -0.25928974 0.14592247 0.26942292 0.3621611 0.18365036 -0.4261906 -0.2873802
0.20276827 0.1128474 -0.346117 -0.25476718 0.42277083 0.3188452 -0.17856024 -0.10947415
-0.422932 -0.03874628 -0.30906197 -0.4018666 -0.029896365 0.061891798 -0.19911584 0.27465686
-0.30872288 0.39672625 0.2974134 -0.42027175 -0.09269606 0.0033647995 0.0613791 0.10219772
0.17470953 -0.0049710153 -0.23437333 0.20291805 -0.43768725 -0.27975535 -0.14649567 -0.2351759
-0.1566833 -0.3667795 -0.13620257 0.081709795 -0.34899428 -0.031980924 0.31110775 -0.057371534
-0.0053639514 -0.076916836 0.0828779 0.27672613 0.43334654 0.26106066 0.4030092 -0.04273591
-0.41213363 -0.222478 0.2972821 0.010502469 -0.21368755 -0.3341066 -0.4135718 -0.3837061
-0.09243101 0.2348761 0.23140347 -0.44383088 0.25859588 -0.34657922 -0.10496145 -0.19174863
-0.063450344 -0.101853475 -0.3999382 -0.37931037 -0.0631493 0.013480254 -0.23424661 0.16894993
-0.39216563 -0.019828847 0.3998489 -0.20682813 0.39362139 0.15178773 -0.41376504 0.2854336
-0.06774885 -0.17205283 0.36625376 -0.3527532 0.066500634 -0.07857812 0.37101555 0.11935189
0.20940325 0.17869602 -0.13913026 -0.09028921 -0.36972156 0.2411387 0.4014504 0.32861575
-0.38152233 0.08241472 -0.2527869 -0.24613859 -0.2957643 0.16315964 -0.26287758 -0.00613423
0.021800905 0.2624806 -0.34695446 -0.31249183 -0.265154 0.3442465 -0.14213097 0.4199002
0.16011442 0.05502722 -0.0045094686 -0.11615246 0.05952962 -0.103025585 -0.004049055 0.035136882
-0.3230715 -0.27545086 0.36019233 -0.36386397 -0.03190802 0.45144272 0.18380025 0.012434565
-0.38778642 0.24389544 -0.3644147 -0.119062774 -0.13150561 -0.04768481 0.03954988 0.36837357
0.07152748 0.39066437 0.2636645 -0.29287863 0.19467616 -0.33891094 -0.18476132 0.13631459
0.18387286 0.3404926 -0.12190799 0.001612003 0.23113231 -0.4839983 0.27404144 -0.4148794
0.0271098 -0.055087723 -0.24129401 0.042299733 0.36209834 -0.13575248 -0.27053103 -0.16594498

bias f4 [128]
00000000: 7a74 83be 70fc 9f3d 5e9c 0e3e df51 e13b
00000010: ec09 94be 53fc dc3e d0d1 86be fa17 b33e
00000020: 5574 b6be 19c0 11be 6d9a 763e f7d3 3dbe
00000030: cbdc ba3e 3040 a5be ba80 c9be 42f3 53be
00000040: d255 8d3d 837f d73e 5add 69be 32d0 203e
00000050: 085d dbbd 6d7f a1bd e9aa a13e ef48 b3be
00000060: d9d3 4b3d 2273 d53e 4088 95bd fffb a93e
00000070: 0b90 01be 4812 b33e 1317 e5be 9ddf 7bbd
00000080: b67c b0bd 3694 073e 90fa 393e 7c91 ad3e
00000090: f692 98bd f1db bfbc 691d ae3e 608b 07be
000000a0: faa9 c83e fd57 9abe 1485 65bd 5b60 d0bc
000000b0: 028d 633e e9e0 9f3e 3c73 a5bd fccf b9be
000000c0: c0e8 693e e865 203e fc94 343e f41c 8dbe
000000d0: 6d42 913e 0fd0 d23e 77a6 963d 0c8f d4be
000000e0: 7e58 9f3e b29e 9abe a491 c43d 99b7 933d
000000f0: a27a 5ebe 766a 0d3e 846c c0be 30b0 d33d
00000100: 15d2 9bbe 297c 59bd d6ca 993d eb3e bf3e
00000110: 1d1a 4abe cb80 a63e ed19 82bd f5fc 5cbe
00000120: 8a5a d3be 4995 d2be ff5e d93e d239 f0bd
00000130: 762b 193c dfaf f73d d732 993e 8dd1 c83e
00000140: 4675 b43e e784 a4be a995 97bd fdf5 90be
00000150: cd0a 85be 62b5 fb3d 5de4 c93e 57de bbbe
00000160: 7aa0 983e aaba 6abe a6f2 87bd b1f2 b53e
00000170: 9864 f5bd 820e 2a3d 323e 94be 078c bc3e
00000180: 04cb 89bd d4c7 8abe e53d 053e d253 b0be
00000190: 2484 b9be 2a64 d13c 804a ba3e c9d4 0dbe
000001a0: 546b 563e 0a62 d03e de63 9a3e 348e 46be
000001b0: 5b90 20bd 8f21 12be 2357 c1be 1822 0fbc
000001c0: 0635 af3e f6fd b93e 299c 0a3d bf42 b13d
000001d0: d19f 46be 2e29 a33e 44b2 55be e956 abbe
000001e0: 952c 3d3d 5e71 8b3e cc39 cabe 0579 cd3e
000001f0: 2a78 333e 862a a0be 94d6 bbbd 36d7 da3e
-0.25674802 0.078118205 0.13926837 0.006876215 -0.2891382 0.43161258 -0.2633195 0.3497923
-0.3563563 -0.14233436 0.24082346 -0.1853789 0.36496577 -0.32275534 -0.39356023 -0.20698264
0.069011346 0.4208947 -0.22838345 0.1570442 -0.10711104 -0.07885633 0.31575707 -0.3501658
0.04976258 0.41689402 -0.07301378 0.3320007 -0.12652604 0.34974885 -0.44744167 -0.06149255
-0.08617537 0.13240132 0.18161988 0.33900058 -0.074499056 -0.023420306 0.34006813 -0.13236761
0.39192182 -0.30145255 -0.056035116 -0.02543657 0.22221759 0.3122628 -0.0807862 -0.36291492
0.22842693 0.15663874 0.17634958 -0.27561152 0.2837099 0.4117436 0.073559694 -0.41515386
0.31122202 -0.301992 0.09598091 0.07212753 -0.21726468 0.13810143 -0.3758279 0.103363395
-0.30433717 -0.053096924 0.07509391 0.3735269 -0.19736524 0.32520136 -0.06352601 -0.2158087
-0.41280013 -0.4112952 0.4245529 -0.11729778 0.009348741 0.120940916 0.299216 0.39222375
0.35245723 -0.32132646 -0.07401592 -0.28312674 -0.25984803 0.122904554 0.3943204 -0.3669307
0.29809934 -0.22922769 -0.066380784 0.3553672 -0.11982077 0.041517742 -0.289537 0.36825582
-0.06728175 -0.27105582 0.13011892 -0.3443895 -0.36233628 0.025560457 0.36384964 -0.13850702
0.2093938 0.40699798 0.30154318 -0.19390184 -0.039200168 -0.14270614 -0.37761793 -0.008736156
0.3422014 0.3632657 0.033840332 0.08655309 -0.19396903 0.31867355 -0.20868784 -0.33464745
0.046185095 0.2723493 -0.3949722 0.40131393 0.17526308 -0.31282443 -0.09171787 0.42742318

weight f4 [128, 128]
00000000: 09c4 89bd ee54 e6bc e1f8 033d 1b87 88bd
00000010: 9b11 1c3d f771 353d de09 583d c4f4 54bd
00000020: 6ba7 cd3d ff1c 4abd 7f5a 9e3d 97da aebd
00000030: ebc5 a1bd ec12 5b3d d894 e23b be0b 233c
00000040: fcf4 3abd 881c 60bd 478c 98bc 384c b1bd
00000050: 6169 5f3c 1479 ad3c b3f7 8ab9 f81d f73c
00000060: 8a3a ba3d 1704 fa3c 5078 17bd a464 1bbd
00000070: 08d1 43bd c8be 7bbd 6160 bcbb 1596 6cbc
00000080: f767 323d eaed d9bc baf0 9f3d 3e27 6abd
00000090: 906a feba 3d36 bc3d 82cc b13d 47f3 03bd
000000a0: 9ec0 703c 332d 203c 3119 b0bc 92ce 31bc
000000b0: 1b1c 053d 42f5 5abd 1671 1f3c 3648 533c
000000c0: c310 25bd 24b0 543d a4cd a03a 4b83 653d
000000d0: 6403 a73d ffa8 cbbc 6999 373d f00c 4fbd
000000e0: ea6a 31bc cde4 c6bc 7da3 ac3a d2a3 65bd
000000f0: 5e9a c93c 8035 edb9 aa1c 8c3d 0bec 44bc
00000100: 614f ed3b 9861 acbd c232 85bd d573 e73c
00000110: 5eb5 cdbc a92d 82bd a813 20bd bb95 153d
00000120: 1e70 2bbc 6a1b 783d 788a 043c 638f d63c
00000130: 6989 103d 179c 26bd 21c5 393d 984e 6a3d
00000140: ea02 3d3b dcdc fe3b 6cbf 4c3c 6a62 823d
00000150: 5920 12bd fdea 8ebd 882b 3f3d 0104 9bbd
00000160: 9b5b 4b3b 1356 c6bc 817f 1c3a fcce 8fbd
00000170: f435 8d3d da8b bc3d d42c 96bb 27de b73b
00000180: adb6 d03d 20a6 aabd da02 2dbc 7653 1bbd
00000190: c9a5 64bc f312 d43b cb03 3abb e6e3 a5bb
000001a0: 1bf6 a1bd afa4 833a 686c 213a a7d5 303c
000001b0: 635e 8f3d a8d6 bd3d d2db ffbc a23c 0dbb
000001c0: d91e 43bd 340e 9dbd 75b0 7cbd a304 ae3d
000001d0: 0b4f 3e3d 0614 323d b2d0 603d 7ce7 84bd
000001e0: 17ed 703c 807c a33d f38f 83bd 51f6 983d
000001f0: 6789 cd3c 7f5d 883d 400f 1dbd 9f14 ba3c
00000200: a2f0 9cbd 2813 17bd 56e2 0c3d d30b 203d
00000210: ce2c 893d ba5c ae3d 3827 9e3d 81a4 853d
00000220: d618 a03d b2f2 a6bb 8567 98bd a6f5 03bd
00000230: 5533 6ebc 35a6 44bd 1593 363d 956a 193d
00000240: 9f12 bb3c 697a 433d 0233 9b3d de36 0d3d
00000250: 0abc 95bd ce36 23bd 5e80 233d d194 dc3c
00000260: 1ae3 473d 3447 a1bd 73bd a5bd 63a5 5e3d
00000270: 27c7 793d bae7 a2bd c984 263d 9f86 89bd
00000280: 5fa0 953d 2463 2e3d 619a cc3d c049 c7bd
00000290: 365d bebd f64f 973d 867f a63d 6cd0 a63d
000002a0: c91b 6f3d dd48 d1bd 2ee2 b33d f356 7fbd
000002b0: b674 b13c dd6c 38bd cee8 0bbd e3d3 82bc
000002c0: 5cfc 2cbd 6ba9 3a3c 96a2 99bd e228 81bd
000002d0: 9675 153d 8ee6 0fbd 8ea7 25bd b57a 3ebc
000002e0: 76fc 8dbd 676f 68bd 76f5 733d 36cb 753d
000002f0: 9297 933c 1b14 1bbd e6c4 643d 12b2 6cbb
00000300: f314 61bd 371d f23c 2dce e13d 721e aebd
00000310: d4d5 d0bd 214b c03c 442c 993d cc38 3cbd
00000320: b107 c33c 377d 813d ba84 023d 191d b63c
00000330: 996d a33d 15c6 3e3d 8b92 2dbd daf0 0d3a
00000340: ce47 3e3d fb85 aa3d cbfb 9abd f4d5 553d
00000350: f64a cfbc 0b67 6bbd 4f3e d53c 8844 3bbd
00000360: 21c1 183d 1091 2bbd 3d96 58bd c020 573b
00000370: 921f 00bc 4cba 6a3d 84ba 8abb 80dd b83d
00000380: fef5 da3c e2b3 0cbd 85a9 5a3d 4537 313c
00000390: d145 833c 4951 afbc 6710 ba3b c363 d8bc
000003a0: df82 f73a c17d 9fbd 4c94 1bb9 7462 3fbd
000003b0: 2f4e 68bc ae4e 333d 1293 f0bc 1bfa 5abd
000003c0: 5b63 ff3b a419 d5bc e7bf 833c 6b88 223c
000003d0: f12a 8d3d 1451 74bd 2ca0 3cbb 1098 3a3d
000003e0: b7ae ae3d 6325 07bc 2871 18bd 619e a23c
000003f0: 7626 5c3d 6277 42bd 4698 95bd 1df1 813d
-0.06726844 -0.02811667 0.03221977 -0.06666394 0.038102727 0.04429814 0.052743785 -0.05199124
0.10041698 -0.04934406 0.077321045 -0.085377865 -0.07899078 0.053484842 0.006914716 0.00995153
-0.04564379 -0.05471471 -0.018621577 -0.08657116 0.013635964 0.021175899 -0.0002650596 0.030165657
0.09093197 0.030519528 -0.036979973 -0.037937775 -0.04780677 -0.06146124 -0.005748794 -0.014440079
0.04355618 -0.026602704 0.07809587 -0.05716633 -0.001941042 0.09190033 0.08681585 -0.03221443
0.014694361 0.009776401 -0.021496387 -0.010852473 0.032497507 -0.053456552 0.009731552 0.012895634
-0.04029919 0.051925793 0.0012268317 0.056033414 0.081549436 -0.024860857 0.044824038 -0.050549448
-0.010828713 -0.024279023 0.0013171282 -0.056064434 0.02460974 -0.00045244023 0.06841405 -0.012019168
0.0072421287 -0.08417052 -0.06503822 0.028253475 -0.025110897 -0.06356365 -0.039081246 0.036519747
-0.010463743 0.06057302 0.008089654 0.026191419 0.035287295 -0.040676203 0.045354012 0.05720386
0.0028840848 0.0077777933 0.01249681 0.06366427 -0.03567538 -0.06978414 0.046672374 -0.07569123
0.0031029943 -0.024210965 0.00059699273 -0.07021901 0.06895056 0.09206362 -0.0045829806 0.0056111994
0.10191093 -0.08332467 -0.010559762 -0.03792139 -0.013955542 0.0064719855 -0.0028383608 -0.005062568
-0.07908269 0.0010043586 0.00061578164 0.010793126 0.07000425 0.09269458 -0.031232748 -0.0021551033
-0.04763684 -0.07668725 -0.06169172 0.08496978 0.0464621 0.043476127 0.054886527 -0.06489465
0.014704964 0.07982731 -0.064239405 0.07468856 0.025089933 0.06658458 -0.03834462 0.022714911
-0.076630846 -0.036883503 0.03439554 0.039073776 0.06697999 0.0851378 0.07722324 0.06525517
0.07817237 -0.0050948495 -0.0744162 -0.03221669 -0.014538606 -0.04801007 0.044573862 0.03745516
0.022836028 0.04772416 0.07578088 0.034476154 -0.07311256 -0.039847188 0.039917342 0.02692643
0.048800565 -0.07874909 -0.08092775 0.054356944 0.060980942 -0.079543546 0.040653978 -0.0671513
0.07305979 0.042575017 0.09990383 -0.097308636 -0.09295122 0.07388298 0.08129792 0.08145222
0.058376107 -0.10218976 0.08783375 -0.06233878 0.021662097 -0.045025695 -0.034157567 -0.015970176
-0.042232856 0.011392931 -0.07501714 -0.06306626 0.03648909 -0.035131983 -0.040442996 -0.011625935
-0.06932919 -0.056746867 0.05956026 0.06000825 0.01801661 -0.03786097 0.05585184 -0.003611688
-0.05495162 0.029554946 0.11025653 -0.08501901 -0.101970345 0.023473324 0.07479146 -0.045952603
0.023807378 0.06322711 0.03186486 0.022230672 0.079798885 0.046575624 -0.042376082 0.0005414613
0.046455197 0.08326336 -0.07567557 0.052205995 -0.025304299 -0.057471316 0.026030688 -0.045719653
0.037293557 -0.04188639 -0.052877653 0.0032825917 -0.007820027 0.057306573 -0.00423366 0.09026623
0.026728626 -0.034351237 0.053384323 0.0108164 0.016024502 -0.021401064 0.005678225 -0.026414758
0.0018883607 -0.077876575 -0.00014837197 -0.04672475 -0.014178797 0.043776207 -0.029367004 -0.053461175
0.0077938265 -0.026013203 0.016082717 0.00992022 0.06892956 -0.059647635 -0.0028781993 0.045555174
0.08529418 -0.00824866 -0.03721729 0.019850912 0.053747617 -0.047477134 -0.073044345 0.06344817

bias f4 [128]
00000000: eead 7e3d 1a14 cebc 0b0b 99ba 7ed4 183d
00000010: 2087 9ebb 009f 95bd 87b9 8bbd 73d2 7bbb
00000020: 8e8d a03c b072 7f3d dca3 1d3d fcfe a83d
00000030: f11e 363d 38af 353d 2863 a33d 271e 0cbd
00000040: 2c6d 1b3d bba1 debc 9125 9a3c 4f14 373d
00000050: 77af b5bd d6a3 893d 5b38 8f3c 801a bebc
00000060: 9c01 f0bc b769 a8bc 0f2f d03c 2d63 fcbb
00000070: b227 b03c b288 71bc 8b9c 1abb 856f 8c3d
00000080: d01b b4bd 83bb 2ebc f422 363d 3b68 2e3d
00000090: abda d03c fa7c 623d 830a a1bd 2658 88bd
000000a0: 3df4 b0bd f8f1 9a3d 10f4 753d ecca 7d3d
000000b0: c22c ac3d 43fe fdbc 3f17 a33d d635 023c
000000c0: b94b aa3c ff90 96bc 5ac9 f4bc 9e55 2ebd
000000d0: 2304 183d bcae 763d a7a2 2dbd 9eeb 15bd
000000e0: 6b41 87bc b579 9cbd 607c 48bb 9204 c93c
000000f0: e13b 12bc 8e76 a3ba 266e 683d ce0f 80bd
00000100: 08e9 ebbc 022f c4bc 2da4 123d 289b b83c
00000110: cef3 95bd 3e0d cfbb 4ba3 a2bd 0f2c 7abd
00000120: b9fe 793c 19ac 6abd 295a a93d ae93 35bd
00000130: a0f2 91bc b622 2a3d 229f fa3c e72d a03c
00000140: 516c 9d39 a28d 7ebc d997 21bd 75ff ae3d
00000150: dc61 8c3d 76a6 44bd 5cfd 783d a2f8 c43c
00000160: b8ea 7ebd 5f89 1dbd 2c38 a5ba 3ab4 29bd
00000170: d5f0 35bd 2e2a 303b e52c 8abd 797f 5abd
00000180: 48ca ab3c a476 57bc 9c7e 243d 1529 753d
00000190: 93e9 6f3d c275 3bbd 0c86 1f3c 6ca2 f2bc
000001a0: 8f77 a93c 89ad abbd ec91 963d a99d 693d
000001b0: 0607 55bc f5ea edbc c5f4 953d afe7 4f3d
000001c0: 5f21 ba3d a332 42bd 52a3 9bbd 6d64 a2bd
000001d0: f65d 19bc f2a2 0138 8527 863d 3820 3dbd
000001e0: 98bc a4bd 6b7b 83bb 5155 6a3c d11d c43c
000001f0: 8d45 16bd c3d8 70bd d358 96bd a512 bf3d
0.06217759 -0.02515607 -0.0011676265 0.037312023 -0.0048378855 -0.073057175 -0.06822496 -0.0038424998
0.019598749 0.062365234 0.038486347 0.082517594 0.0444631 0.044356555 0.07977897 -0.034208443
0.03794591 -0.027176728 0.018816741 0.044697102 -0.08871358 0.06720702 0.017482927 -0.023205996
-0.029297642 -0.020558221 0.025413064 -0.0077022524 0.021503303 -0.014742063 -0.0023591842 0.06857208
-0.08794367 -0.010664823 0.044466928 0.04257987 0.025494894 0.05529497 -0.07863333 -0.06657438
-0.08640335 0.07565683 0.06004721 0.0619611 0.084069744 -0.03100503 0.07963418 0.007947406
0.02078806 -0.018379686 -0.029881168 -0.04256212 0.03711332 0.060225233 -0.042391445 -0.036601655
-0.016510686 -0.07640401 -0.0030591711 0.024538312 -0.008925409 -0.0012471245 0.05674567 -0.062530145
-0.028797641 -0.023948196 0.0358011 0.022534922 -0.07321893 -0.0063187173 -0.07941302 -0.061077174
0.0152584845 -0.05729303 0.0826915 -0.04433029 -0.017815888 0.04153701 0.030593459 0.019553138
0.00030026076 -0.015536698 -0.039451454 0.08544818 0.06854603 -0.048010312 0.060788497 0.024044339
-0.062235564 -0.038461085 -0.0012605241 -0.041431643 -0.04441913 0.002688061 -0.06746844 -0.053344224
0.020970479 -0.013150845 0.040159807 0.059853632 0.058572363 -0.0457666 0.009736549 -0.029618464
0.020686893 -0.083827086 0.07352051 0.057035122 -0.013002163 -0.0290427 0.07322077 0.05075806
0.09088396 -0.047411572 -0.0759951 -0.07929311 -0.009360781 3.090775e-05 0.065505065 -0.046173304
-0.08043784 -0.0040125153 0.014302568 0.023939999 -0.036687423 -0.05880047 -0.073411606 0.09329728

weight f4 [128, 128]
00000000: 661e c5bb 4595 5fbb 3b13 903d 3f56 54bd
00000010: 63ba 91bd 7550 bbbd 395b df3c 7a79 5f3d
00000020: 82db 763d 9611 f8bc 12d5 0a3d 15f2 133c
00000030: d9e8 543d f366 b1bd 1dfe a63d f17e b5ba
00000040: bb0e 3b3d 9fbb 5ebd 7dd9 a9bc 3bd7 b7bd
00000050: 8e66 8fbc ba3a 3abd b90a 263d a8e7 bd3d
00000060: cfa8 7a3d fccd 4fbd b4ec aa3c fa90 b4bb
00000070: d25c 02bd 9958 e1bc 9e7f 143d dce8 fbbc
00000080: aee1 6ebd b6f8 ac3a 4306 ad3d aaa8 023b
00000090: 24fe bd3d 5d78 1cbd fd61 a03d 8cc4 9b39
000000a0: 0cf2 a33d 9e8f ba3c 4445 993c 7638 80bd
000000b0: ebd6 05bc 0aa9 c33c 5495 40bb 682f a33d
000000c0: 1971 f0bc 59f8 1ebd c2bc f4bc 5c59 b73c
000000d0: 5680 ac3d 1f27 0b3d cb69 36bd 689c 393d
000000e0: fa27 ce3c 5b47 813d d8d6 573c 3302 b43d
000000f0: 96ca 9b3d 5e7e 29bd db04 b23d a175 ebbc
00000100: bc77 a7bd 22d0 b43d 7630 10bd 78a1 543c
00000110: 6b7c b03d 0b27 2dbd 611f 9b3d 7b02 013d
00000120: 245f 733c 2f05 123d 9fa3 07bd 2d6d d1bc
00000130: 037c 89bd 98b8 ae3d 3cc2 0bbc 88a7 a83d
00000140: 6f80 d73c 1c36 273c 3332 c23d 48ae 433d
00000150: eecf 713d b40b 87bc bd1e 1c3d 6454 a1bd
00000160: 46a6 813b 9e8b 333c 8d4e 8ebd c371 22bb
00000170: 1c5e 413d ad00 813d 7fc2 7d3c 1319 fcbc
00000180: 5395 9bbc 7e4a 41bd a1fa 49bc 612d 1abd
00000190: 8627 66bd 0c2d 9a3c 2f65 68bd ed02 cd3b
000001a0: ea84 a53d 3228 54bd 22b3 293d 1b29 5fbd
000001b0: e630 92bd 0291 c63d 26a9 d7bc 6789 e23d
000001c0: 4e7a ae3d f062 1d3d 82cf 1dbd eeb6 893c
000001d0: c349 1b3d ad79 e13c 91b3 703c adac b13d
000001e0: f7de 173c 7aeb 423d 0fc9 eabc c3ba afbc
000001f0: 259b b43d 9784 11bc b1a6 2a3d ce34 2dbd
00000200: 9999 7a3c 157a 87bd 35c0 d33c ca77 56bb
00000210: 1ded c2ba cecf d33c a076 833d 4d7f 9e3d
00000220: 052d a5bd 799a 0c3c 723c 563d 2ad4 593d
00000230: 14f9 a2bd 1f20 2bbd 3b74 6f3b 4408 b7bb
00000240: df1f 403d 1828 283d 761f c4bd 25a3 91bc
00000250: eff7 7fbc 8fa0 803d 314b 893c 0a85 893c
00000260: 8a52 8bbc 09e7 923d 901f 5ebd 2c1d 503d
00000270: b618 b33d b988 17bd cd7a ed3c 6438 1abd
00000280: 2217 1cbd f3e2 97bd bcad ce3c d684 673d
00000290: e7ef c23b 4d57 64bc e3c8 84bd 4311 7c3d
000002a0: 88a6 473d 5e26 2abc 0e0a 85bd 4f8b 483d
000002b0: ef93 74bd cfa2 be3d 448d 92bd 2bde 453d
000002c0: d0e5 71bd 18f1 a03a 2d7e e23d d6ce 363d
000002d0: 9920 6bbd 98fd b6bc 3869 0abc 82fe 02bd
000002e0: e744 ebbb 004b 8b3d dc5a 2cbd 94e3 9bbd
000002f0: 2991 c1bd 595d 1d3b 0f65 4a3c 5ed6 9e3c
00000300: 2d41 37bd af06 3dbd affb 83bc 6184 ba3c
00000310: d6c5 b93d e599 c1bd 9833 713d 6c5c 863d
00000320: 88f3 31bd 1332 42bd f971 1f3d 6f5d 1fbd
00000330: 8669 693d 8faa cd3b 863d 6fbd bb7d 3d3d
00000340: bb33 e53c aac2 59bd 0a69 893c d783 13bd
00000350: 3ae4 22bd 6ea5 c6bc 0ec6 b3bd 7505 b1bd
00000360: 09b2 1abc 96cb 69bd 24e2 e03c 93a0 9b3d
00000370: b61d cc3c 8579 b1bd d479 d0bd d145 463d
00000380: 1e5d 203d b842 8ebd 700d 7fbc 37c4 b03c
00000390: f678 923c bed3 073d e4e4 b13d b48b cbbc
000003a0: d6c9 aebc 21f5 b5bd b8b2 803d db35 e93c
000003b0: 7be6 21bd eb23 09bc 71d2 b7bc baa0 133d
000003c0: 6426 8a3d 1af9 fe3c da9f d33c 895b f7bc
000003d0: 9015 883d ea22 ab3d e64f 7bbd 5d31 5cbd
000003e0: 1f6d 863d 346d 913d 382f 903c 5dc4 963d
000003f0: f8da 4abb a916 123c ea64 283d 03f5 a43d
-0.0060155867 -0.0034116071 0.07034918 -0.051840063 -0.071156286 -0.09146205 0.027265178 0.05455921
0.060267933 -0.030281823 0.033894606 0.009029885 0.051979873 -0.08662214 0.08153937 -0.0013847036
0.045668345 -0.05437815 -0.02073359 -0.08976599 -0.017504957 -0.045466162 0.04053757 0.092727005
0.061196145 -0.05073355 0.020864822 -0.0055104466 -0.0318268 -0.027508067 0.036254518 -0.030750684
-0.058320694 0.001319668 0.0844846 0.0019936957 0.09276989 -0.038200725 0.0783119 0.00029710343
0.08005151 0.02277356 0.018709786 -0.06260769 -0.008168916 0.023884315 -0.0029385881 0.079680264
-0.029350804 -0.03881106 -0.029875163 0.022381477 0.08422916 0.033972856 -0.044534486 0.045315176
0.025165547 0.06312438 0.013173781 0.08789482 0.076069996 -0.04138028 0.08692332 -0.028742613
-0.081771344 0.08828761 -0.035202466 0.01297795 0.08617481 -0.042273562 0.075743444 0.031496506
0.014854226 0.035649475 -0.033115026 -0.025564754 -0.067131065 0.08531302 -0.008530196 0.08235079
0.02630636 0.010205772 0.09482231 0.04777363 0.059036188 -0.016485073 0.03811525 -0.07877424
0.003956589 0.01095858 -0.06948576 -0.0024787046 0.04720889 0.06298957 0.015488266 -0.030773675
-0.018992102 -0.047190182 -0.012327821 -0.037640933 -0.056190036 0.018820308 -0.05673712 0.0062564523
0.08081992 -0.051796146 0.0414306 -0.05448256 -0.07138233 0.09695627 -0.026325773 0.11061364
0.085194215 0.038424432 -0.038527973 0.01681086 0.03791214 0.02752384 0.0146912495 0.086755134
0.009269468 0.04758785 -0.028660325 -0.02145136 0.08818654 -0.00888171 0.041662876 -0.042286687
0.01529541 -0.06615082 0.025848487 -0.0032725208 -0.0014871691 0.025855925 0.0641911 0.077391244
-0.080652274 0.008581751 0.05230374 0.05318085 -0.07957664 -0.04177868 0.0036537785 -0.005585702
0.046905395 0.04105386 -0.09576313 -0.017777989 -0.015623077 0.06280624 0.016759487 0.01678707
-0.017007131 0.07172973 -0.05422932 0.05080907 0.087449476 -0.036995623 0.02898922 -0.037651435
-0.038108 -0.07416334 0.025229327 0.056523167 0.0059490087 -0.01393683 -0.064836286 0.0615399
0.0487428 -0.010385124 -0.064960584 0.04896098 -0.059711393 0.09308397 -0.071558505 0.04830758
-0.059057057 0.0012278883 0.11059222 0.044630848 -0.057404134 -0.02233772 -0.008447938 -0.031981
-0.0071798447 0.068014145 -0.042078838 -0.076117665 -0.09451515 0.0024011938 0.012353196 0.019389328
-0.04473989 -0.046148952 -0.016111223 0.022768201 0.09070937 -0.09453181 0.058887094 0.06560597
-0.04344514 -0.047411036 0.038927052 -0.038907465 0.0569854 0.0062764357 -0.058408283 0.046262484
0.027978769 -0.05316416 0.01677372 -0.036014404 -0.039768435 -0.024248805 -0.0877801 -0.08643619
-0.009441861 -0.05707892 0.027451582 0.075989865 0.024916511 -0.08665756 -0.10179487 0.048406426
0.039151303 -0.06946319 -0.015567169 0.021577938 0.017879944 0.033160917 0.086862355 -0.02484689
-0.021336477 -0.08884645 0.06284088 0.028468063 -0.039526444 -0.00837038 -0.022439213 0.036041953
0.06745604 0.03112464 0.02583306 -0.030195015 0.06644738 0.08356269 -0.061355494 -0.053758014
0.06563782 0.07100907 0.01760064 0.07361672 -0.003095327 0.008916535 0.041111864 0.08054545

bias f4 [128]
00000000: c288 263d 077f debb ebcf acbd 0910 6f3c
00000010: d12e b9bb d056 b43b 7ec1 5b3c faf1 96bd
00000020: 22b5 95bd 596d 9a3d 63f4 8abc 0f36 e5bc
00000030: d581 ab3b 95c7 b8bd 5959 9d3a fc6d 673d
00000040: d572 1d3d 4061 85bd e1ab 9c3c e786 433d
00000050: c125 7d3d 8b7f 12bd 77ff 19bd c45b 65bd
00000060: d9f3 203d 2802 613d d355 51bd e0ce 203d
00000070: 0853 e43c 06f2 a7bb a886 963d 44b8 65bc
00000080: 546e a3bc 2b96 44bd 1f44 803d 4c23 553d
00000090: 4dec af3d cd97 39bd f7b7 64bc 1d1e d83c
000000a0: 8d5b 97bd 9d0b 96bd 52e6 11bd 459d 6cbd
000000b0: 41b0 983d 1324 893d 44cd 19bd d170 a2bd
000000c0: d9db a6bd 8484 84bc e610 86bd 6533 36bd
000000d0: 8e38 313d 42b2 c6bc 43e5 fcbc a5c5 67bc
000000e0: 3668 a93d df20 0c3d be5c bb3c 8f24 863d
000000f0: 4684 67bc 9ee9 bfbc cb6a 96bc 5ded a53a
00000100: f664 cabc 40bd 8a3d b1a6 333d 4399 b73d
00000110: c39c b7bd 7fe1 8bbd 5ba2 36bd 46d7 dc3b
00000120: 49ec 7b3c 4b4d 883d f3f1 b7bd c3a6 6abd
00000130: 8b8a 5d3d 95df e6bb 0024 8dbd 8bc2 b1bd
00000140: ee72 963d 2fcd d63b b67d 5a3d 48ed b4bd
00000150: ee31 12bc f8a8 fe3c d3f8 8fbd a517 f13c
00000160: 339f 71bd 79a0 9abd 19f5 1b3c 309c 543d
00000170: 7041 403b 18db afbc aef3 343d 0330 863d
00000180: 19dd e0bb 2790 393d bcdd 14bd 4778 9cbd
00000190: 766c 783c aa2e 3dbd ef67 323d 7abb 8bbc
000001a0: ed3e d8bb 4677 54bd ac39 8cbc 4608 d23c
000001b0: 4a96 803d 0f0a 55bd a84b 66bc 8e00 36bd
000001c0: 45d4 22bc 0966 40bc e1a6 253d 4234 a4ba
000001d0: ad17 213d 1037 693d 263b a2bd 674d a53c
000001e0: 8176 28bc 8668 0a3a 25b2 baba 9dc0 593d
000001f0: c8d2 abbc 917b a3bd ddfb 353c bf6f f1bc
0.040657766 -0.006790045 -0.08438095 0.014591225 -0.005651333 0.005503513 0.013412831 -0.07370372
-0.07309939 0.07540388 -0.016962236 -0.027979879 0.005233983 -0.09022442 0.0012004777 0.056501374
0.03843959 -0.065126896 0.019124927 0.047736075 0.061803583 -0.035766166 -0.037597146 -0.055995718
0.03929505 0.054933697 -0.05110724 0.03925979 0.027871624 -0.005125287 0.073499024 -0.014020983
-0.01995007 -0.047994774 0.06262993 0.052035615 0.08589993 -0.045310784 -0.013959876 0.026381547
-0.07390509 -0.07326434 -0.03562004 -0.05776717 0.07455493 0.06696334 -0.037549272 -0.07931674
-0.08147401 -0.01617647 -0.06546192 -0.044482607 0.043266825 -0.024254922 -0.03087104 -0.014146243
0.0827183 0.034211036 0.022871371 0.06549942 -0.014130658 -0.023426827 -0.01836147 0.0012659241
-0.024706345 0.06774378 0.04386014 0.08964779 -0.08965447 -0.06830119 -0.044588428 0.00673953
0.015376159 0.066553675 -0.08981695 -0.057287943 0.054087203 -0.007045696 -0.06891632 -0.08679684
0.0734614 0.0065552215 0.053342544 -0.0883432 -0.008923037 0.03108643 -0.07029881 0.02943022
-0.058989715 -0.07550139 0.009518885 0.051906765 0.0029335879 -0.021466777 0.044177704 0.06552126
-0.0068622944 0.04530349 -0.036344275 -0.076401286 0.015162578 -0.04618708 0.04355615 -0.01705717
-0.006599298 -0.05187156 -0.017117344 0.02563871 0.06278665 -0.052011546 -0.014056124 -0.044434123
-0.009938304 -0.011743077 0.04044235 -0.0012527781 0.03932922 0.056937277 -0.07921438 0.02017851
-0.01028216 0.00052798574 -0.0014243765 0.053162206 -0.020974532 -0.07982553 0.011107412 -0.02947223

weight f4 [128, 128]
00000000: 6b19 f4bb f6a5 98bd 32be 31bd 9ee8 d23a
00000010: 7ec4 c23d da0d b9bd bb40 913d 6e99 d93c
00000020: d1e2 94bd 2b8c 953d 7d08 8abd 46e2 b4bc
00000030: f08e 0a3c e191 243d 660c d3bc a24e ad3d
00000040: a819 b9bb d6e2 38bd 8e4a 65bd 9c1a d13b
00000050: be7d 59bd 526d 2b3d e382 afbd 31ae 15bc
00000060: 1f68 10bc dc7e 923d 336f 1b3d bf26 99bc
00000070: 01ee 013b 7fda 55bc 72cb 44bd fcca 9b3d
00000080: 508f 70bd c994 e33d 5552 93bd 002c 013c
00000090: a500 f6bc 585c b23d bce9 bdbc b811 e0bb
000000a0: 45e1 9a3d 70d7 fabb 9a28 a0bd 753b 3f3d
000000b0: e909 083d d583 20bc 7bbb 7dbd 4e2e 7d3c
000000c0: 45e3 d73c 6c12 51bd 1106 90bc 22ee 223d
000000d0: 5f61 9dbd 252f b13d 42a8 ba3d e80e 82bc
000000e0: 9cb5 623d e28e 4ebd 7a35 973c d569 48bd
000000f0: fbc6 553d 2a88 773d 4a43 4abd 1835 8bbd
00000100: 78dc 6e3d 70dd 3e3d 3d95 82bd af07 4abc
00000110: df82 5ebd f4fd 1b3c 8c8c 85bd 9078 6d3d
00000120: 51eb d8bc b3e1 ca3d 47c1 27bd 2abf 64bd
00000130: 43fd e1bc 3991 9d3d 8189 d63c add5 86bc
00000140: 9f35 33bd 482d 41bc 1d89 8d3d d6c7 9f3c
00000150: 7478 9c3d e86d 9c3d da2b bfbc f274 97bd
00000160: c844 9c3d 97ba 56bc 8a81 be3c 4970 55bd
00000170: bdc6 473c b5c6 c9ba 4c36 78bd fc56 a33d
00000180: cf94 b5bc d31e 5abd 6218 5ebd a3b3 b83d
00000190: d2da bd3d 8a2b b83d ac1f 9e3d 7f2b 83bd
000001a0: 2751 90bd 6b33 983d eb53 85bd 4415 eb3a
000001b0: 6733 413c 6986 efbc 4452 1bbd 902c 6dbc
000001c0: 3dda 853d a74d c13d 54fa 523c 736f a2bd
000001d0: 0061 3fbd ed76 d2bc 83dc fa3b 0894 59bd
000001e0: e541 bf3d df0c c9bc dd9d 31bd 9cc7 a3bd
000001f0: 8d72 81bd 3fd0 083c d49e 45bd 28e0 53bd
00000200: 6084 b83c cfa9 ce3d 1161 123d f4e8 923d
00000210: cb99 953c 2d62 2bbd 9566 a93c 2fb3 3f3d
00000220: 8a97 50bd b290 cc3b 355a ac3d 256e 54bd
00000230: ad37 9b3d 3088 8e3d 4554 0fbd ea44 813d
00000240: 2e05 9c3d 34f7 963c ef91 a9bc 6d2f 79bd
00000250: 6888 103d 340f 74bd bda5 963c 93d0 2ebd
00000260: f6f0 e63c fbfb 553d 7120 923d 2d2e c03d
00000270: cf76 c0bd 5834 a53d 48fa 783d 69a1 93bd
00000280: 0f6f d43d c647 9cbd b564 6a3d 0cbe 473d
00000290: 1fac 7ebd 03b0 d53b ebe7 30bd 27a9 73bd
000002a0: d3de b63c 3d75 0dbd 6acd 45bd b507 293d
000002b0: 5098 0dbd f885 153d 1b9f 09bc 4a2e 3abd
000002c0: 0dd9 773d 4656 2d3d 4c12 68bd 6731 533c
000002d0: e208 793d b084 85bc 90fc 28bd fedb 8d3d
000002e0: e53d a93d 187a 9f3c ec7c 843d 6a19 5fbd
000002f0: f1a0 8abc 5bb6 d13d 8159 65bd f3d0 5cbc
00000300: d816 55bd 3949 6ebd 86c7 443d eb54 bebd
00000310: b6ee 9a3d 9a17 cbbb 1df8 92bd c444 6cbd
00000320: 48bb 81bd 1b13 923d 1024 b13d 1ab7 133d
00000330: 2e19 faba 185d 84bc 9958 34bd 2e57 943d
00000340: b656 273d 3fe1 f03c e4d2 423d 3ecc a23d
00000350: 9d1a 86bd 103d ebbc 1770 bebc 705b 11bd
00000360: e0a0 643c 2467 bc3d cdef 5c3d e5e3 afbc
00000370: 76a7 b0bd 7fde 493c e62a 823d 5faf 8d3d
00000380: b51e 7dbd e596 5f3d 32b3 9abd c31d 38bb
00000390: 63cf 9fbd f81b 05bd 6d09 21bd 1406 92bd
000003a0: a7f1 53bd ea4f 5b3d 847c 2fbd 8976 e6ba
000003b0: fd70 b2bd b7d9 8a3c 4fec 6a3d 2550 803c
000003c0: 37d3 453d 68cf c2bc 63f7 103d f23f dfbc
000003d0: 81ae 513d 2165 00bd 0189 263d 49ad 7abc
000003e0: de23 ff3c 1fe3 fe3b 201a 9c3d ccb0 103d
000003f0: 747a 323d 9a39 e93c c302 953c 44f7 23bd
-0.007449319 -0.074535295 -0.043394275 0.0016091054 0.09510134 -0.09035845 0.070924245 0.026562419
-0.07269824 0.073021255 -0.067399 -0.022080552 0.0084569305 0.040178183 -0.025762748 0.08462264
-0.0056488104 -0.045138203 -0.055979304 0.006381346 -0.053098433 0.041852303 -0.085698865 -0.009135769
-0.008813887 0.07153103 0.037947845 -0.018695233 0.00198257 -0.013052582 -0.048045583 0.076070756
-0.058730423 0.11112363 -0.07193438 0.007884026 -0.030029604 0.087090194 -0.023182742 -0.0068380497
0.07562498 -0.0076550767 -0.07820244 0.046687562 0.033212576 -0.009797056 -0.061946373 0.015452934
0.026353488 -0.05104296 -0.017581018 0.039777882 -0.07684588 0.0865157 0.09114124 -0.015876248
0.055348977 -0.050429232 0.018458117 -0.048929054 0.052191716 0.06043259 -0.049380578 -0.06797236
0.058315724 0.046597898 -0.06376121 -0.0123309335 -0.054324027 0.009520996 -0.06520948 0.057976305
-0.026479395 0.0990633 -0.040955808 -0.05584637 -0.027586585 0.07693715 0.026188614 -0.01645931
-0.04375231 -0.011790581 0.06910918 0.019504469 0.07640162 0.076381505 -0.02333634 -0.073953524
0.076303065 -0.01310601 0.023255128 -0.052109037 0.012193379 -0.0015394302 -0.060598657 0.07975575
-0.022165684 -0.053252053 -0.054222472 0.09018638 0.09270252 0.089926794 0.07720885 -0.064047806
-0.070467286 0.07431682 -0.06510147 0.0017935415 0.01179204 -0.029238896 -0.03792025 -0.014475957
0.06535766 0.09438639 0.012877066 -0.079314135 -0.046723366 -0.025691474 0.0076556816 -0.05311969
0.0933874 -0.02454227 -0.04336344 -0.07997057 -0.06320677 0.008350431 -0.048247173 -0.051727444
0.022524059 0.10090982 0.0357371 0.071733385 0.01826181 -0.041841675 0.020678798 0.046801742
-0.05092577 0.006242835 0.08415643 -0.051862855 0.07578979 0.069595695 -0.034992475 0.063119724
0.076181754 0.018428423 -0.02069947 -0.060836244 0.035286337 -0.05958481 0.018389577 -0.04267938
0.028191071 0.05224226 0.07135094 0.09383807 -0.09397661 0.080666244 0.06078556 -0.07208521
0.10372745 -0.07630877 0.057224948 0.048765227 -0.062175866 0.0065212264 -0.043189924 -0.059487488
0.022323048 -0.034535635 -0.0482916 0.041267116 -0.034569085 0.036504716 -0.00839975 -0.0454543
0.06050973 0.042318605 -0.056658074 0.012890196 0.060799487 -0.016298622 -0.041256487 0.06926726
0.082637586 0.019467399 0.064691395 -0.054467596 -0.016922446 0.1023986 -0.05599356 -0.013477552
-0.05202374 -0.0581753 0.048041843 -0.092935406 0.07565062 -0.006197882 -0.0717623 -0.057682768
-0.06334549 0.0713255 0.086494565 0.03606329 -0.001908099 -0.016157672 -0.044029806 0.07243191
0.04085418 0.02940428 0.047564402 0.07949112 -0.06548045 -0.02871564 -0.023246808 -0.035487592
0.013954371 0.0919936 0.05393963 -0.021470973 -0.08625691 0.012321114 0.063558385 0.06918215
-0.061796863 0.054587264 -0.0755371 -0.0028093911 -0.07803228 -0.032497376 -0.03931563 -0.071300656
-0.05174413 0.05354301 -0.042843357 -0.0017582934 -0.08712957 0.016949518 0.057354268 0.015663216
0.048297133 -0.02378054 0.035392176 -0.027252171 0.05119181 -0.031346444 0.040658 -0.015300103
0.031145032 0.00777854 0.076221704 0.035324857 0.04357381 0.02846985 0.018189793 -0.040030733

bias f4 [128]
00000000: 5254 b63d 8d6b 353d 3d79 31bd dad7 683d
00000010: 006c ac3c b063 f139 60bf 3eb9 ca2e a6bd
00000020: 6e43 7a3d bf08 85bc 1a6a d23c 3d00 763d
00000030: a10f 983d 6eca 4b3d c6c3 81ba 4a14 edbc
00000040: 8f0a 373d 6ba6 72bd 49e0 a4bd f58e cdbc
00000050: bf93 90bd a363 febc 04e8 61bd 7860 4d3c
00000060: e967 a2bd cb5f 1fbd d1cd 923d 49f2 993c
00000070: 8826 edbc a0b6 8fbd 1e8c 16bd ca81 9dbd
00000080: e6e5 21bb c0b7 913d bc66 f33c e91e ff3c
00000090: 45ed a23c 298c a6bd 83b9 9bbd 7037 303d
000000a0: 4cf9 bfbd d5e1 67bc 82cc 863d 2c5c d33c
000000b0: fcb5 893d 08dd bb3d 8a66 95bd 02ce fb3c
000000c0: 71ae ccbc 585c 6dbc e8c3 4cbc 9f3a ab3d
000000d0: df9d 07bc c8cf 90bd 4377 383d 9af0 c0bd
000000e0: b9d0 bfbd 0bc2 6bbc 7884 a73d a2ae 87bc
000000f0: 6c41 4e3d ee23 1bbd da75 ce3c 9e5a 413d
00000100: ca9a 20bd 2a88 f7bc 3e79 1cbd 03e0 dd3c
00000110: 1805 c73c a206 e5bc 28a8 04bd d69f 073c
00000120: df3c c2bc 24ad 703d 3a3b 33ba 554f 653d
00000130: 2eec 8ebd 191e 4bbd cc92 2a3d 933b 863d
00000140: 2c84 5e3d 92b9 2dbc 3dcb 683d 8009 d2bc
00000150: d1d4 8abd f270 4bbd 6984 843d 2df3 79bd
00000160: 9d48 e639 1feb 213d ae1b 97bc 2195 863d
00000170: 1ecc 1e3d 98ea dc3b f99f c83c 77c6 2bbd
00000180: c9be 5c3c fc36 0dbd b661 abbc 201b 993d
00000190: 160c 50bc b243 973d f949 18bc 2557 213d
000001a0: 7a4c a43b 0703 703d 304f 983c 551d 2ebd
000001b0: 2125 563d a20c 98bd cb8e 553d 8b30 8fbd
000001c0: 7fc8 ba3c 92ee 5cbd 13dc 923b 9315 a4bd
000001d0: 2ee7 833c c6e7 9dbc 2701 14bc 8ca3 3fbd
000001e0: 5e35 8a3b e1fd 3cbc b739 8ebd fa31 bc3d
000001f0: ef8d 613d 4dfa f4bc 3e3f 8b3d d495 bfbc
0.089028016 0.04429202 -0.043328512 0.056846477 0.021047592 0.00046041375 -0.00018191105 -0.08114393
0.061099462 -0.016239522 0.025685359 0.06005882 0.07424856 0.0497536 -0.0009900264 -0.028940339
0.044687804 -0.05924074 -0.080505915 -0.025092581 -0.0705943 -0.03105337 -0.055152908 0.012535207
-0.079299755 -0.038909715 0.071681626 0.018792288 -0.028949037 -0.07017255 -0.03675472 -0.07690771
-0.002470368 0.07115126 0.029712074 0.031142669 0.01988853 -0.08132202 -0.07603743 0.04302162
-0.093737215 -0.014152964 0.065819755 0.025800787 0.06724164 0.09173018 -0.072949484 0.03073788
-0.024985524 -0.0144873485 -0.01249788 0.083607905 -0.0082773855 -0.07070881 0.04503561 -0.09420891
-0.093659826 -0.014389525 0.08179563 -0.016562764 0.05035536 -0.037876062 0.02520268 0.04720556
-0.03921012 -0.030216295 -0.038201563 0.027084356 0.024294421 -0.027957264 -0.03238693 0.008277854
-0.023710666 0.05875887 -0.00068371336 0.05598386 -0.069786415 -0.04958925 0.041643903 0.06554332
0.054325268 -0.010603325 0.056834448 -0.025639296 -0.06778873 -0.04966826 0.06470568 -0.061022926
0.0004392312 0.03953087 -0.018445816 0.06571413 0.03876888 0.006741833 0.024490343 -0.041937318
0.013473221 -0.034476265 -0.020920616 0.07475877 -0.012698194 0.07385959 -0.00929498 0.039389748
0.0050139995 0.058596637 0.018592447 -0.042508442 0.052281503 -0.074242845 0.05213813 -0.06991681
0.022800682 -0.053938456 0.0044818013 -0.080119275 0.016101446 -0.019275557 -0.009033478 -0.04678683
0.0042177876 -0.011535139 -0.06944602 0.0918922 0.055067 -0.029904509 0.06799172 -0.023386873

weight f4 [1, 128]
00000000: 7849 9e3d 614e 11bd 2a86 82bd b288 863d
00000010: 0c7b cf3d d462 923d e047 513d 44c6 2d3d
00000020: ce0b 8bbd 4ee0 263d cbd8 b2bd 9cb5 acbd
00000030: 0a4b d6bc 9488 9abd 6ab1 9d3d a0bf 8639
00000040: 1941 0f3d a255 85bd bc97 3cbc bcfe 7bbd
00000050: fe86 23bd b178 afbd d927 663c e608 443c
00000060: 9459 19bd a442 a13d aaa8 71bc 762b 63bd
00000070: 414c c3bc 9615 103d 12e7 95bd fc45 a33d
00000080: 040b 3a3d 234e 40bd 56f3 c2bc 75ee b93d
00000090: f1b6 cc3d ca8c 95bd a1e3 34bc 58ae a23d
000000a0: 0c5c 26bd 29df abbd eed8 dbbc 5a0f 1f3b
000000b0: 85fe fd3c 8931 283d 4a98 9fbc b999 a4bd
000000c0: 236a 673d 2c1c bf3d 8fde 203a 1743 a3bc
000000d0: 033d 493d 131a 343c b047 7d3d ef50 1dbd
000000e0: 054d aebd 1127 f43c bafc 84bc 7aa7 423d
000000f0: 1501 09bd 7a6c b3bc 915d 8bbd 0d8a 2abc
00000100: 790d 45bd 09fd 06bd 09f6 95bd 7bbd 31bc
00000110: 7697 b13d bd4b aebd 329d dabc 1085 80bd
00000120: bab7 a23d 3535 7e3d 74e0 84bd 7e3f b7bc
00000130: 2428 89bd 3a0f 133d 4fe7 c5bb 4a49 af3d
00000140: 0c3d 19bd 0829 e43c 5bb8 74bd 4752 12bc
00000150: 7122 7c3d ea1d a33d 42dc 9c3d fe42 2fbc
00000160: bce5 d1bc db12 36bd 6fbe c73d 9c1e b53d
00000170: 9768 c73d 2b0b 83bd c6c3 af3d 91b1 36bd
00000180: 2f61 77bd 3df6 333d 6c49 4cbd 80e7 e23d
00000190: 420a 433d 8c36 993d a1f4 1b3d a84f 9abd
000001a0: b59e 853d b841 c03d ac3b da3b 3f23 94bd
000001b0: e48c a53d ab48 30bd 178c 673d 667a d83c
000001c0: 4fc6 973d 2d33 9abb c040 5dbc f9b4 c5bd
000001d0: 3937 a9bd 258c 303c 9ca8 17bd 0730 efbc
000001e0: c526 783d 2fe6 69bc e736 ca3c d436 5abd
000001f0: e53d bb3d d81c 933c 27e9 4a3c ce16 f43c
0.07728857 -0.03547514 -0.06373246 0.06569041 0.10130891 0.07147756 0.051093936 0.04242541
-0.06789361 0.040741257 -0.08732756 -0.08433077 -0.026158828 -0.075455815 0.07699855 0.00025701243
0.03497419 -0.06510474 -0.011510786 -0.06152223 -0.03992366 -0.08567942 0.014047586 0.011965012
-0.037438944 0.07874039 -0.014749685 -0.05546137 -0.023840072 0.035176836 -0.07319464 0.07972333
0.04542066 -0.046949517 -0.023797672 0.09078685 0.09995831 -0.07302244 -0.011040599 0.0794341
-0.040615126 -0.08392174 -0.026836839 0.0024270625 0.031005153 0.041062865 -0.019481797 -0.08037133
0.056497704 0.09331545 0.00061366794 -0.019929452 0.04913045 0.010992545 0.061835945 -0.038407262
-0.08510784 0.029803785 -0.01623379 0.047523 -0.033448298 -0.021902312 -0.06804956 -0.01040889
-0.04810855 -0.032956157 -0.07322318 -0.010848398 0.08671467 -0.0851054 -0.026686285 -0.0627538
0.07945199 0.06206246 -0.064881235 -0.022369143 -0.06697109 0.035903193 -0.006039537 0.08558901
-0.037411734 0.027851596 -0.059746128 -0.008930749 0.061556283 0.0796469 0.07659198 -0.0106971245
-0.025622241 -0.044451576 0.09753119 0.08843729 0.09736746 -0.063986145 0.08582263 -0.044602934
-0.060395416 0.043936003 -0.049874708 0.11079311 0.047617204 0.07481107 0.038075093 -0.075347245
0.065244116 0.09387535 0.0066599455 -0.07233285 0.080835134 -0.04303805 0.056530084 0.026425552
0.07410871 -0.0047058077 -0.013504207 -0.096536584 -0.08262486 0.010775601 -0.037026033 -0.029197706
0.06058385 -0.014276071 0.024684383 -0.053274944 0.09142665 0.01795809 0.012384689 0.02979603
