Dry fermentation prediction and optimization system/predictor_percolate_tank/Predictor_Percolate Tank Biogas Production/models/NeuralNetTorch_BAG_L1/S1F4/net.params (torch, 208391 bytes, 9 tensors)

weight f4 [128, 7]
-0.025773384 0.19931313 -0.32550094 -0.2943271 -0.15550053 0.10919341 -0.0017573234 0.31724337
-0.054136645 0.075620174 -0.12751979 -0.10225742 -0.35490084 -0.22992076 -0.17460087 -0.015946617
0.15414928 0.21844536 -0.26756978 -0.16890658 0.12634572 0.33047238 -0.08568201 0.28155264
-0.06853665 0.032486673 0.33429775 -0.35580912 -0.2310704 -0.12935926 -0.14760198 0.32707205
-0.2458211 -0.17522645 -0.26978746 -0.39007202 -0.26361254 0.30453694 0.1448949 0.1416369
0.011424023 -0.17644851 0.086844295 -0.35351184 -0.29145133 -0.21191756 0.24222662 0.2121249
-0.1538041 -0.011810344 0.267925 0.38553876 0.16076128 0.05165942 0.24385896 -0.22356088
0.09754269 -0.3171061 -0.27897614 -0.21275866 0.15792014 0.15872252 -0.20443416 0.09806335
0.20779996 -0.038937625 0.006733485 0.08311142 0.2355732 0.35901284 -0.28119397 -0.1309749
0.14373958 0.31635386 0.33768114 0.33249643 0.0757848 -0.336692 0.0073874802 -0.25523373
-0.37002456 0.32167658 0.28728545 -0.37924346 0.0819717 -0.077030525 -0.07961243 -0.19977716
0.12704356 -0.21310201 0.1330714 0.19003631 0.3162245 0.17048204 -0.34516716 -0.2519519
0.1996654 0.09438847 -0.30767846 -0.23125026 0.3657531 0.26427394 -0.16171266 -0.10555367
-0.36944407 -0.023551574 -0.2920305 -0.2732652 -0.023724219 0.053870462 -0.16670114 0.21952198
-0.21673916 0.34489688 0.2589358 -0.31631857 -0.08834135 0.020681143 0.04558351 0.10917727
0.13538067 0.010548683 -0.20440528 0.18701707 -0.3499895 -0.21744776 -0.10903585 -0.21739596
-0.14401636 -0.32828423 -0.11060965 0.07553543 -0.22514166 -0.024495978 0.26183906 -0.036157697
0.020084359 -0.033141233 0.07972863 0.22906397 0.3590162 0.24491838 0.37631825 -0.049524724
-0.3502388 -0.18086211 0.25840244 -0.027666593 -0.2281684 -0.29769206 -0.37417522 -0.35264724
-0.08209831 0.21360628 0.21035455 -0.390013 0.21436137 -0.31893104 -0.09841402 -0.1419184
-0.07643422 -0.068155244 -0.36618432 -0.33197108 -0.068901 0.011230201 -0.16519144 0.118831754
-0.31894708 -0.0032055657 0.33800846 -0.14859322 0.35676983 0.12601954 -0.34564805 0.25143802
-0.07124284 -0.18750899 0.2711317 -0.34229738 0.050979782 -0.07410236 0.27636817 0.12113362
0.18576853 0.14056773 -0.08873319 -0.072838284 -0.31075937 0.21332952 0.3101303 0.26216814
-0.26475477 0.008584189 -0.25662464 -0.21144533 -0.2307194 0.15242904 -0.21954751 0.0019221816
0.02961915 0.2477004 -0.3005813 -0.26297498 -0.24436079 0.23732586 -0.1626503 0.32284573
0.14980024 0.028758103 0.018899303 -0.059113424 0.056065265 -0.079707704 0.0028457823 0.03898413
-0.3000156 -0.1925741 0.3147379 -0.32478702 -0.023477675 0.3843903 0.120016135 0.031842843
-0.3567015 0.18664427 -0.2365652 -0.09068643 -0.13885543 -0.060688205 0.0030233907 0.32871583
0.031722307 0.34208414 0.23501751 -0.26730603 0.15663809 -0.26579648 -0.16210103 0.079616554
0.10735698 0.2739255 -0.12823185 -0.007444512 0.18626563 -0.3865546 0.2471409 -0.30307838
-0.008956624 -0.0841173 -0.20693766 0.054902416 0.3363426 -0.120158315 -0.25024736 -0.16343853
00000000: b422 d3bc be18 4c3e 0fa8 a6be 0bb2 96be
00000010: 883b 1fbe cba0 df3d fd55 e6ba b96d a23e
00000020: 63be 5dbd c0de 9a3d 8c94 02be 576c d1bd
00000030: 90b5 b5be 5970 6bbe 92ca 32be 7ba2 82bc
00000040: 4fd9 1d3e 24b0 5f3e e8fe 88be d9f5 2cbe
00000050: c660 013e ad33 a93e 0d7a afbd ab27 903e
00000060: f15c 8cbd bf10 053d 1329 ab3e 9d2c b6be
00000070: b89d 6cbe c176 04be f924 17be fd75 a73e
00000080: 87b8 7bbe 906e 33be 9521 8abe 85b7 c7be
00000090: 39f8 86be 44ec 9b3e 545f 143e 4309 113e
000000a0: d32b 3b3c ebae 34be 6cdb b13d 81ff b4be
000000b0: 1c39 95be eb00 59be 410a 783e 4537 593e
000000c0: d27e 1dbe 2c80 41bc 772d 893e 5665 c53e
000000d0: 9b9e 243e d498 533d 2ab6 793e 25ed 64be
000000e0: 76c4 c73d bb5b a2be f6d5 8ebe 68dd 59be
000000f0: d1b5 213e 2888 223e 3057 51be 70d5 c83d
00000100: 83c9 543e 0f7d 1fbd 91a4 dc3b 5236 aa3d
00000110: 1a3a 713e 88d0 b73e a8f8 8fbe 491e 06be
00000120: 7830 133e 22f9 a13e 8be4 ac3e f93c aa3e
00000130: 1035 9b3d e562 acbe ad12 f23b ffad 82be
00000140: dc73 bdbe cbb2 a43e 1417 933e 332c c2be
00000150: c7e0 a73d 2ec2 9dbd d70b a3bd 6292 4cbe
00000160: b517 023e 6a37 5abe de43 083e e198 423e
00000170: 2de8 a13e d892 2e3e c0b9 b0be d7ff 80be
00000180: 1675 4c3e be4e c13d 0888 9dbe decc 6cbe
00000190: fe43 bb3e ea4e 873e 0198 25be 862c d8bd
000001a0: c627 bdbe 3bef c0bc 0685 95be 6be9 8bbe
000001b0: 4b59 c2bc 46a7 5c3d b4b3 2abe 5fca 603e
000001c0: dff0 5dbe 5396 b03e 3c93 843e 82f4 a1be
000001d0: 4fec b4bd 806b a93c c6b5 3a3d 5598 df3d
000001e0: 3ba1 0a3e 62d4 2c3c 9e4f 51be 6781 3f3e
000001f0: d331 b3be a0aa 5ebe 304e dfbd 0c9d 5ebe
00000200: 0679 13be df14 a8be 5087 e2bd 52b2 9a3d
00000210: 898b 66be caab c8bc c50f 863e 181a 14bd
00000220: f487 a43c 1abf 07bd c448 a33d bf8f 6a3e
00000230: f9d0 b73e e2cb 7a3e c9ac c03e 70da 4abd
00000240: 8052 b3be eb33 39be 534d 843e 0da5 e2bc
00000250: faa4 69be 186b 98be e593 bfbe 2e8e b4be
00000260: 2923 a8bd 9bbb 5a3e 2f67 573e c9af c7be
00000270: 8c81 5b3e ee4a a3be 4a8d c9bd 0f53 11be
00000280: 8b89 9cbd fa94 8bbd 837c bbbe 1df8 a9be
00000290: f81b 8dbd e1fe 373c f227 29be 105e f33d
000002a0: 084d a3be 7814 52bb 720f ad3e d228 18be
000002b0: 89aa b63e 440b 013e c8f8 b0be 7cbc 803e
000002c0: c4e7 91bd 5b02 40be c6d1 8a3e 9a41 afbe
000002d0: 2dd0 503d fac2 97bd 2180 8d3e e714 f83d
000002e0: 1b3a 3e3e fdf0 0f3e bfb9 b5bd 3d2c 95bd
000002f0: da1b 9fbe 0e73 5a3e 66c9 9e3e e73a 863e
00000300: f08d 87be b3a4 0c3c 4e64 83be 2085 58be
00000310: b541 6cbe 5c16 1c3e 10d1 60be b6f1 fb3a
00000320: dca3 f23c 2ca5 7d3e cbe5 99be a8a4 86be
00000330: b739 7abe 8d05 733e cd8d 26be 094c a53e
00000340: 3c65 193e 1d96 eb3c b6d2 9a3c eb20 72bd
00000350: b1a4 653d cb3d a3bd 4e80 3a3b d3ad 1f3d
00000360: a59b 99be 2532 45be 5325 a13e 7c4a a6be
00000370: 4154 c0bc cece c43e 05cb f53d a46d 023d
00000380: 94a1 b6be ad1f 3f3e 263e 72be cfb9 b9bd
00000390: 1e30 0ebe 3294 78bd 1424 463b 714d a83e
000003a0: 40ef 013d a725 af3e 6ea8 703e 56dc 88be
000003b0: bc65 203e 7a16 88be d0fd 25be 010e a33d
000003c0: fadd db3d f73f 8c3e 364f 03be 18f1 f3bb
000003d0: 6bbc 3e3e 7cea c5be 8112 7d3e 172d 9bbe
000003e0: cebe 12bc b145 acbd 77e7 53be 5be1 603d
000003f0: 1935 ac3e 9015 f6bd 6c20 80be 6e5c 27be

bias f4 [128]
-0.3188618 -0.00038682806 0.13564782 0.14203556 0.31834123 0.37671268 0.35930747 0.27589184
0.28033298 -0.05774816 -0.28792143 -0.12215951 -0.020005925 -0.20690149 0.21448383 0.12583566
0.06337016 0.09296903 0.35615215 0.13270622 -0.31976634 -0.25369316 0.16969927 0.056561146
0.19382612 -0.36074767 -0.34820253 0.24314287 0.23577505 -0.324855 0.15833771 -0.27948427
0.26429135 0.14833513 0.37875128 -0.3626035 -0.3497906 0.23919147 0.3276815 0.25564837
0.2696805 -0.3152983 0.2819213 -0.35723507 0.10511529 -0.2333732 -0.14823404 0.057671756
-0.1400165 -0.06740493 -0.37460795 -0.33379814 0.13749413 -0.14271334 -0.21067998 -0.13307719
-0.28179583 -0.3045291 0.25052196 0.2053893 0.055678245 -0.19829787 0.13384289 0.02230092
-0.27211595 0.09334202 0.36348176 -0.35374874 -0.37838104 0.061794512 0.29083544 -0.23660289
0.09917824 0.28760487 0.10140892 0.08159961 0.37521338 0.26252428 -0.20016809 0.016112735
0.17946465 0.3268697 -0.35135314 0.20542781 -0.074086785 -0.37285662 0.08463334 -0.17661712
0.05069859 -0.22700618 -0.29342088 -0.030763164 -0.12508835 0.2177682 0.03173307 0.32755315
0.066516384 -0.12925616 0.2407141 0.04546932 0.052292928 -0.11328358 0.031034702 -0.09217274
-0.009725059 -0.2979819 0.0107243955 -0.28741175 -0.07788041 0.24644998 -0.25610024 -0.23629752
-0.10268496 -0.09512475 0.067343146 0.07685037 0.20320262 -0.26708052 -0.016081413 0.1887434
0.33122817 -0.012548455 -0.22255659 0.12462818 0.19797589 -0.22623175 -0.21292716 0.14898667
00000000: db41 a3be 2fcf cab9 43e7 0a3e c571 113e
00000010: 9ffd a23e 7ce0 c03e 26f7 b73e b241 8d3e
00000020: ce87 8f3e 5689 6cbd 706a 93be c42e fabd
00000030: 77e3 a3bc fcdd 53be a6a1 5b3e 10db 003e
00000040: 37c8 813d 8c66 be3d 9359 b63e 24e4 073e
00000050: 6ab8 a3be 12e4 81be a5c5 2d3e a9ac 673d
00000060: 5b7a 463e ebb3 b8be 9a47 b2be 72fa 783e
00000070: 046f 713e 6553 a6be 4823 223e 9018 8fbe
00000080: 3251 873e 2ae5 173e b0eb c13e 2aa7 b9be
00000090: c117 b3be 9cee 743e dfc5 a73e 58e4 823e
000000a0: 9013 8a3e c76e a1be fd57 903e 84e7 b6be
000000b0: af46 d73d 62f9 6ebe aaca 17be 3839 6c3d
000000c0: 7c60 0fbe 990b 8abd 9dcc bfbe 97e7 aabe
000000d0: 43cb 0c3e 7223 12be 7ebc 57be 6345 08be
000000e0: 8b47 90be 3deb 9bbe 6a44 803e 9351 523e
000000f0: df0e 643d 990e 4bbe 1c0e 093e 6bb0 b63c
00000100: c852 8bbe 1a2a bf3d 481a ba3e 8e1e b5be
00000110: 29bb c1be 3e1c 7d3d 62e8 943e 0748 72be
00000120: f61d cb3d f240 933e 7baf cf3d b21d a73d
00000130: f81b c03e 9569 863e ddf8 4cbe dbfe 833c
00000140: 95c5 373e 775b a73e 8fe4 b3be ab5b 523e
00000150: d0ba 97bd 10e7 bebe 3f54 ad3d 1edb 34be
00000160: 53a9 4f3d 4f74 68be 433b 96be 0803 fcbc
00000170: 2917 00be a1fe 5e3e 89fa 013d 0cb5 a73e
00000180: be39 883d ba5b 04be c27d 763e 0a3e 3a3d
00000190: 1c31 563d 3901 e8bd 7d3c fe3c 10c5 bcbd
000001a0: db55 1fbc 1591 98be 60b5 2f3c a227 93be
000001b0: c47f 9fbd 625d 7c3e 921f 83be faf7 71be
000001c0: 7e4c d2bd c4d0 c2bd 34eb 893d ba63 9d3d
000001d0: 5914 503e c7be 88be 2bbd 83bc f345 413e
000001e0: bd96 a93e 0998 4dbc e0e5 63be 0f3d ff3d
000001f0: 31ba 4a3e 4ca9 67be 9409 5abe f68f 183e

weight f4 [128, 128]
0.0045426856 -0.07854476 -0.04972064 0.038547 -0.017331595 0.060490105 0.08745566 0.016828066
0.011801033 -0.027706867 -0.008161538 0.014185052 -0.058410753 -0.043168724 -0.07192851 0.072777726
-0.06374086 0.08135548 -0.0021193707 -0.04161394 0.038133092 0.039892223 0.08138346 0.05302993
-0.085150175 0.08902181 0.0013930975 -0.03414603 0.05750183 0.05560044 -0.06574912 -0.0043129814
0.07326488 0.040168215 0.08091829 -0.034358934 -0.018421115 0.078787506 0.041871935 0.11306216
-0.028946092 -0.04924963 0.0005374525 -0.07625823 0.056469005 0.0770707 0.02798443 -0.0047318926
0.06351572 -0.04741397 0.089144126 -0.08465756 -0.07252805 0.00438451 0.0681338 0.025879152
0.035035957 -0.05528955 0.05574143 0.0125483805 0.03461959 0.044949442 0.03562239 -0.018890155
-0.00055451127 -0.04128132 -0.017340664 0.06535428 -0.026513223 0.06833222 -0.023601621 -0.028277937
0.014024933 -0.058375467 0.012304412 -0.018439045 0.0026489275 0.0056970166 0.06523021 0.052222997
-0.06708672 0.053232595 -0.08112351 -0.07873609 0.030291447 0.0041324627 -0.039825637 -0.08247379
-0.036948588 0.022182487 -0.06465651 -0.102404565 0.021867262 -0.043984964 -0.07928441 -0.019659916
-0.0048533482 -0.093505256 -0.052741334 0.03747057 -0.076592796 -0.00086487434 -0.042714845 -0.06618769
0.053563 -0.06178602 -0.052957952 0.06403923 0.01526341 0.09595756 -0.019893797 -0.041783236
0.0051550516 0.0072939224 0.06753394 -0.06588824 -0.003633483 0.069464 -0.035642296 -0.043564264
0.060145035 -0.06911104 0.027342103 -0.049007855 0.053316277 -0.06483298 0.062198117 -0.06756091
-0.06315312 -0.0024756629 0.06640963 -0.08136227 -0.044688176 0.070004486 -0.018406734 0.025336452
-0.08626403 -0.03980986 -0.052826934 0.070145875 0.02951614 -0.06725483 0.008779242 -0.010481828
-0.037754014 -0.053945538 -0.025838582 0.05513518 -0.06908091 -0.065505944 -0.022634815 -0.005473926
0.014153935 -0.008598078 -0.029247072 -0.05673825 -0.025607876 -0.039695296 0.063283116 -0.09814661
-0.05733094 -0.08231643 -0.026721658 0.06931339 0.07326492 -0.08849524 -0.005829894 0.037732035
0.03027439 0.030869765 0.003050053 -0.06370885 0.04676942 -0.043383315 0.038779605 -0.031086087
0.025375184 0.07267635 0.074806236 -0.077569276 -0.065664746 -0.03575846 -0.06349916 0.07697963
-0.01644252 -0.06352042 -0.05425217 -0.062639624 0.030307448 -0.076732755 -0.07975656 -0.07873926
0.030201958 0.040856615 -0.064691275 0.010506726 0.07335267 0.0020934117 -0.021651607 0.00027622504
-0.01867861 0.034473307 -0.06637851 0.03816044 0.049848165 -0.06300144 0.06856158 0.080956936
-0.043391094 -0.033828508 0.040043987 -0.0675882 0.02932516 0.012902315 0.05354413 -0.088945664
-0.08078717 0.037603263 0.02191226 -0.08469631 -0.059046883 -0.08952443 -0.069572985 -0.04662667
0.06091516 -0.024470368 0.04565542 0.06658074 0.033226933 -0.07695405 0.032291453 0.03037144
0.060914557 -0.09575514 0.044470206 0.064124346 -0.086804606 0.00039954763 0.06775769 -0.0757966
0.035271477 0.037124157 0.021168958 0.07484897 0.066139475 0.05982996 -0.021849196 0.0794576
-0.09347554 -0.058859568 -0.022543827 -0.041373204 0.07441105 0.036895737 0.05344188 0.052088596
00000000: cfda 943b 13dc a0bd dfa7 4bbd 76e3 1d3d
00000010: fdfa 8dbc 79c4 773d f41b b33d 03db 893c
00000020: 1f59 413c 83f9 e2bc f9b7 05bc 6c68 683c
00000030: 1d40 6fbd b0d1 30bd 414f 93bd 7d0c 953d
00000040: 918a 82bd b49d a63d 24e5 0abb 6173 2abd
00000050: 7231 1c3d 0766 233d 5fac a63d e935 593d
00000060: 3763 aebd 1151 b63d 9898 b63a b5dc 0bbd
00000070: 0a87 6b3d 49bd 633d 7aa7 86bd e953 8dbb
00000080: e60b 963d 6d87 243d 7db8 a53d f4bb 0cbd
00000090: e1e7 96bc 585b a13d e881 2b3d 228d e73d
000000a0: 5b20 edbc fbb9 49bd d4e3 0c3a 462d 9cbd
000000b0: 0b4c 673d 3ed7 9d3d 9a3f e53c fe0d 9bbb
000000c0: 8814 823d 2735 42bd 3291 b63d f160 adbd
000000d0: 9689 94bd f0ab 8f3b bc89 8b3d 8400 d43c
000000e0: dd81 0f3d 4c77 62bd 2051 643d b997 4d3c
000000f0: 45cd 0d3d e81c 383d c9e8 113d 87bf 9abc
00000100: 9f5c 11ba 9a16 29bd 020e 8ebc 77d8 853d
00000110: 4232 d9bc c3f1 8b3d 3058 c1bc 22a7 e7bc
00000120: d5c8 653c 1d1b 6fbd 7298 493c 7b0d 97bc
00000130: a199 2d3b 0aae ba3b 6b97 853d c8e7 553d
00000140: c364 89bd 6c0a 5a3d 1524 a6bd 6340 a1bd
00000150: c525 f83c 9c69 873b 3520 23bd 05e8 a8bd
00000160: 6757 17bd 0cb8 b53c a26a 84bd 7cb9 d1bd
00000170: f922 b33c 9429 34bd dd5f a2bd d50d a1bc
00000180: d608 9fbb af7f bfbd 4c07 58bd be7a 193d
00000190: afdc 9cbd bcb8 62ba c3f5 2ebd 698d 87bd
000001a0: e064 5b3d 5613 7dbd 70ea 58bd 0027 833d
000001b0: 6213 7a3c 6685 c43d 51f8 a2bc e624 2bbd
000001c0: b5eb a83b db01 ef3b 3c4f 8a3d 6af0 86bd
000001d0: bb1f 6ebb 2443 8e3d a8fd 11bd 7170 32bd
000001e0: a45a 763d 178a 8dbd 8cfc df3c 76bc 48bd
000001f0: 2b62 5a3d 27c7 84bd 74c3 7e3d 605d 8abd
00000200: 6c56 81bd bb3e 22bb c601 883d 43a1 a6bd
00000210: f30a 37bd 835e 8f3d b8c9 96bc 648e cf3c
00000220: 32ab b0bd aa0f 23bd 0e61 58bd a4a8 8f3d
00000230: d5cb f13c e6bc 89bd cfd6 0f3c f9bb 2bbc
00000240: f4a3 1abd fff5 5cbd 6fab d3bc 6dd5 613d
00000250: 4b7a 8dbd fb27 86bd a66c b9bc 9f5e b3bb
00000260: e8e5 673c f4de 0cbc 8e97 efbc 5e66 68bd
00000270: 9cc7 d1bc 8997 22bd 949a 813d 1701 c9bd
00000280: d9d3 6abd 8495 a8bd 61e7 dabc 2ef4 8d3d
00000290: eb0b 963d fe3c b5bd b208 bfbb e88c 1a3d
000002a0: ff01 f83c 97e2 fc3c 66e3 473b c979 82bd
000002b0: 4b91 3f3d b4b2 31bd 5dd7 1e3d 40a8 febc
000002c0: 9edf cf3c 57d7 943d 0334 993d a4dc 9ebd
000002d0: 3d7b 86bd 7777 12bd d90b 82bd 7fa7 9d3d
000002e0: 77b2 86bc fe16 82bd 8637 5ebd 3449 80bd
000002f0: 5347 f83c 1026 9dbd 6857 a3bd 0d42 a1bd
00000300: 196a f73c 4459 273d dc7c 84bd 6724 2c3c
00000310: ed39 963d 9f31 093b b65e b1bc 4cd2 9039
00000320: e203 99bc e233 0d3d 75f1 87bd 1f4e 1c3d
00000330: 972d 4c3d e606 81bd 036a 8c3d c0cc a53d
00000340: dcba 31bd c38f 0abd 2a05 243d af6b 8abd
00000350: 513b f03c 3b64 533c 1751 5b3d 2529 b6bd
00000360: be73 a5bd e105 1a3d 5781 b33c 4275 adbd
00000370: 25db 71bd 9658 b7bd 487c 8ebd 9bfb 3ebd
00000380: 2d82 793d 1576 c8bc 2d01 3b3d 7c5b 883d
00000390: f718 083d 169a 9dbd 0b44 043d 87cd f83c
000003a0: 8b81 793d 451b c4bd 6426 363d a053 833d
000003b0: 9dc6 b1bd 607a d139 8bc4 8a3d 3f3b 9bbd
000003c0: d378 103d 800f 183d 866a ad3c 6b4a 993d
000003d0: 2274 873d 4310 753d 16fd b2bc abba a23d
000003e0: 1b70 bfbd bb16 71bd d5ad b8bc f376 29bd
000003f0: d264 983d fc1f 173d dfe5 5a3d da5a 553d

bias f4 [128]
0.039372824 -0.08064158 0.021334102 0.024514372 0.013675883 0.0572626 0.057593055 0.049005017
-0.06605621 0.010263584 0.046036556 0.06460104 -0.050442148 0.0011218666 -0.015971443 -0.015495266
0.058369502 0.05699107 -0.07922775 -0.00030980253 -0.045883372 0.050320357 0.00906198 0.033495445
-0.0019449567 0.07976546 -0.069715634 0.058464386 0.10445613 -0.020912219 0.02883458 -0.04489532
-0.029917967 -0.030952228 0.05112653 0.055003017 -0.017707402 -2.640899e-05 -0.075435825 0.05840607
0.050525345 0.010397353 -0.038135875 0.031412993 -0.047446266 0.05951507 -0.059915416 0.047900405
-0.074332654 0.022055654 0.09584052 0.05759328 -0.05437836 -0.0053194785 0.020342555 -0.03901665
-0.004001235 0.08462298 -0.05433599 -0.08026996 -0.069881506 -0.0034335994 -0.015469459 0.028541695
-0.039892297 -0.035313897 -0.0447246 0.04547885 0.07435286 -0.075204276 0.054152645 0.067798086
-0.07085364 -0.0312581 0.07744095 -0.032819163 0.04386303 -0.00023818872 -0.06104187 0.0563565
0.008236068 -0.048983056 0.035084467 -0.013148817 -0.033770207 -0.034510966 -0.068653546 -0.06773052
0.0004697009 -0.039454896 0.030044684 0.07269447 -0.011980525 -0.069833145 -0.07656473 0.06414656
0.008502872 -0.06282108 -0.039280515 0.032964073 0.010373526 0.036957603 0.09277589 -0.043034602
-0.0113355825 -0.066792905 0.08991678 -0.012292142 -0.022607107 0.01210448 -0.024300426 0.01911946
0.077488095 0.023936944 0.043791935 -0.041439097 0.043524183 0.10150537 -0.07509505 -0.030163648
0.09644918 0.08696241 0.02416904 0.08632442 -0.011520225 0.041007392 0.03605446 0.0930831
00000000: 6645 213d 6a27 a5bd dbc4 ae3c 5dd2 c83c
00000010: d010 603c 308c 6a3d b2e6 6b3d 7cb9 483d
00000020: 7a48 87bd 9728 283c d490 3c3d 8d4d 843d
00000030: 6d9c 4ebd 990b 933a 8bd6 82bc dbdf 7dbc
00000040: dc14 6f3d 786f 693d 2942 a2bd fe6c a2b9
00000050: 34f0 3bbd b81c 4e3d b378 143c 8532 093d
00000060: ebed feba 135c a33d 12c7 8ebd 5a78 6f3d
00000070: 18ed d53d 1a50 abbc 7f36 ec3c 28e4 37bd
00000080: 8616 f5bc 878f fdbc 0d6a 513d d84a 613d
00000090: 1d0f 91bc e088 ddb7 197e 9abd 343b 6f3d
000000a0: aaf3 4e3d a959 2a3c 5d34 1cbd e9aa 003d
000000b0: 0457 42bd 13c6 733d de69 75bd 3733 443d
000000c0: b83b 98bd 0fae b43c 0948 c43d eee6 6b3d
000000d0: d8bb 5ebd 054f aebb 6ea5 a63c eccf 1fbd
000000e0: cb1c 83bb d04e ad3d 6a8f 5ebd 9464 a4bd
000000f0: 091e 8fbd 3d06 61bb 9d73 7dbc 46d0 e93c
00000100: 1b66 23bd 4ea5 10bd 2431 37bd 0848 3a3d
00000110: 5046 983d b304 9abd 2acf 5d3d b9d9 8a3d
00000120: b71b 91bd 7e08 00bd 5c99 9e3d 636d 06bd
00000130: b8a9 333d 4cc2 79b9 0a07 7abd 13d6 663d
00000140: 93f0 063c 75a2 48bd bbb4 0f3d 236e 57bc
00000150: a152 0abd 5f5b 0dbd 3b9a 8cbd 4db6 8abd
00000160: 3042 f639 759b 21bd 4520 f63c d7e0 943d
00000170: f749 44bc ae04 8fbd f8cd 9cbd 465f 833d
00000180: a14f 0b3c 57a8 80bd 9be4 20bd 5605 073d
00000190: b9f5 293c db60 173d 4901 be3d 0d45 30bd
000001a0: e1b8 39bc b8ca 88bd 4a26 b83d fb64 49bc
000001b0: 8a32 b9bc de51 463c b011 c7bc 6aa0 9c3c
000001c0: 14b2 9e3d 6917 c43c 2c5f 333d 0bbc 29bd
000001d0: 6a46 323d 0ce2 cf3d 6fcb 99bd c119 f7bc
000001e0: 2687 c53d 5919 b23d 27fe c53c dcca b03d
000001f0: 53bf 3cbc 5ef7 273d d7ad 133d 5aa2 be3d

weight f4 [128, 128]
-0.0717319 0.008176086 0.03391263 -0.03823483 -0.04336407 0.029804485 -0.056410544 0.04140238
0.05492439 0.03752899 -0.045287475 0.0815447 0.031670637 -0.08743937 -0.08915432 0.029094182
0.035906088 0.07557391 0.06369531 0.017656734 -0.035534345 -0.007953983 -0.056009796 -0.0017675059
0.019080268 0.035727393 0.020449795 0.012877929 -0.0016799911 -0.07291698 -0.04060128 -0.022552123
0.019376768 0.0010066523 -0.051848765 -0.044195574 -0.025969418 0.07285423 0.055640824 -0.080139965
-0.03632818 0.026588222 -0.026274579 -0.031583805 -0.0711105 -0.008650563 0.030429926 0.07426935
-0.025199762 -0.036570184 0.012525869 0.0036857685 -0.0032933855 -0.08410114 0.065429956 0.0006102507
-0.009123846 -0.033219837 -0.08454821 -0.034376677 -0.062128067 0.030449888 -0.052009817 -0.08119915
-0.042640347 0.033035584 -0.05459563 -0.068390414 -0.04206329 0.080817536 0.046124138 0.023278333
-0.02391716 -0.03732949 0.009967706 0.057225596 -0.069937825 0.06596067 -0.087983534 -0.08287612
-0.08596322 0.008785043 0.0015676848 0.024008391 -0.06853623 -0.05621108 0.0331428 0.05740353
-0.07710118 -0.0016062101 -0.016173031 -0.025695477 0.028849756 -0.07254975 0.041695453 -0.039919585
0.05887735 -0.028753946 0.05918764 -0.06370093 -0.08551036 0.082121775 -0.032633923 -0.0039085983
0.064371616 0.08502945 0.022016982 -0.08843768 -0.054288324 0.052663613 0.025340501 0.04624597
-0.03728786 -0.08415735 -0.014720822 0.037110094 0.06091406 -0.058098745 -0.042992942 0.07566045
0.0703536 0.08041881 0.06203018 0.0207804 -0.00021353725 -0.069897495 -0.03596841 -0.090375416
0.066517524 0.06010026 0.043504573 0.002027332 -0.082012296 0.07081687 0.01821237 0.010730033
-0.012454034 -0.053604852 0.016383445 -0.018177534 0.09335651 0.018363137 0.028046096 0.061497163
-0.052151423 0.07704337 -0.0052677025 -0.06008279 0.05467408 -0.047154274 0.04810776 0.08051784
-0.00047269906 -0.032990642 -0.0016400699 0.0655999 0.060957756 0.07484154 0.007555078 -0.072961666
0.041857272 0.01855967 0.024984095 0.07766649 -0.025001556 0.082568966 -0.052861072 -0.057394147
0.04889219 0.06644437 -0.029153222 0.009511851 0.0059668757 0.03684955 -0.018592428 -0.07819665
0.021652488 -0.09154053 -0.06676675 -0.060227253 0.045316063 0.04727564 -0.06118725 0.077058055
-0.06245987 0.060645185 0.035932645 -0.022164349 0.07033847 0.051622014 0.072722346 -0.070185244
-0.027954077 -0.06259493 0.072461374 0.018024681 -0.038862873 -0.022890091 0.06930034 0.112974666
-0.0019061416 -0.076727085 -0.0403136 0.0681192 -0.004390897 0.057093933 0.07391282 -0.026255671
0.044832554 -0.0052015497 -0.052065186 -0.050015446 0.027966192 0.011972626 0.050988924 0.081998825
-0.08173249 -0.0053204307 -0.021401707 0.035593085 0.041765653 0.08044921 0.060506534 0.05416499
-0.06733512 -0.06812045 -0.076162696 -0.053800873 -0.050897624 0.07048806 -0.03843365 0.0725851
0.075419545 0.05395265 0.05034957 0.06950725 0.019617425 -0.036230452 0.07351327 0.075391054
0.073400386 -0.065395534 -0.014369689 0.050432436 -0.0150227565 -0.0032084014 -0.0485199 0.06251484
0.041755486 -0.0142514575 0.064184815 -0.03038182 0.04677105 0.0037912629 -0.042214528 0.017706525
00000000: 2de8 92bd fdf4 053c f8e7 0a3d 209c 1cbd
00000010: 869e 31bd 8928 f43c be0e 67bd 8b95 293d
00000020: 66f8 603d 00b8 193d 5c7f 39bd e800 a73d
00000030: 12b9 013d 6a13 b3bd 8a96 b6bd ec56 ee3c
00000040: 4312 133d 7ec6 9a3d b072 823d dba4 903c
00000050: 768c 11bd 6c51 02bc 876a 65bd a8ab e7ba
00000060: 394e 9c3c e356 123d 5486 a73c f3fd 523c
00000070: 2633 dcba 7f55 95bd 874d 26bd 3bbf b8bc
00000080: 07bc 9e3c a5f1 833a 5f5f 54bd 6b06 35bd
00000090: d1bd d4bc 9934 953d a2e7 633d 6c20 a4bd
000000a0: dccc 14bd 8bcf d93c c93d d7bc 055e 01bd
000000b0: 62a2 91bd 17bb 0dbc 2e48 f93c 871a 983d
000000c0: bb6f cebc 9eca 15bd 4d39 4d3c ef8c 713b
000000d0: d7d5 57bb 383d acbd 2400 863d 3bf9 1f3a
000000e0: 2f7c 15bc 8611 08bd 9d27 adbd 8fce 0cbd
000000f0: 007a 7ebd 0b72 f93c 3f08 55bd bd4b a6bd
00000100: a5a7 2ebd 5250 073d ab9f 5fbd 4610 8cbd
00000110: 8e4a 2cbd aa83 a53d aaec 3c3d 34b2 be3c
00000120: eced c3bc cfe6 18bd 974f 233c 6365 6a3d
00000130: 903b 8fbd 6316 873d b630 b4bd f5ba a9bd
00000140: 7c0d b0bd 24ef 0f3c c67a cd3a 3fad c43c
00000150: b95c 8cbd 973d 66bd bfc0 073d f71f 6b3d
00000160: 39e7 9dbd 7887 d2ba 4e7d 84bc 527f d2bc
00000170: 5356 ec3c f794 94bd dac8 2a3d b882 23bd
00000180: 6029 713d 658d ebbc bd6e 723d a275 82bd
00000190: 0e20 afbd 762f a83d 26ab 05bd b313 80bb
000001a0: 44d5 833d ec23 ae3d f55c b43c d01e b5bd
000001b0: 6f5d 5ebd cdb5 573d e296 cf3c 6a6c 3d3d
000001c0: 28bb 18bd b05a acbd 9a2f 71bc c100 183d
000001d0: 0581 793d f3f8 6dbd 5e19 30bd def3 9a3d
000001e0: 8c15 903d 9eb2 a43d 5c13 7e3d a83b aa3c
000001f0: f8e8 5fb9 6b26 8fbd 9d53 13bd bf16 b9bd
00000200: 573a 883d b12b 763d da31 323d fddc 043b
00000210: 10f6 a7bd 6f08 913d 1c32 953c 05cd 2f3c
00000220: 010c 4cbc c390 5bbd 9336 863c 0de9 94bc
00000230: b331 bf3d 4a6e 963c edc0 e53c 73e4 7b3d
00000240: bb9c 55bd eac8 9d3d b19c acbb 5f19 76bd
00000250: eef1 5f3d d724 41bd a40c 453d 8ae6 a43d
00000260: 98d4 f7b9 3221 07bd 9df7 d6ba 3e59 863d
00000270: d7ae 793d 8546 993d 9690 f73b ed6c 95bd
00000280: 8872 2b3d 730a 983c 72ab cc3c 9c0f 9f3d
00000290: 10d0 ccbc eb19 a93d da84 58bd 2016 6bbd
000002a0: 2d43 483d fc13 883d bdd2 eebc 98d7 1b3c
000002b0: c885 c33b 8eef 163d 264f 98bc 9125 a0bd
000002c0: 8f60 b13c 9a79 bbbd 01bd 88bd dab0 76bd
000002d0: 569d 393d 1aa4 413d 7b9f 7abd 9dd0 9d3d
000002e0: ecd5 7fbd 1667 783d 1c2e 133d 0292 b5bc
000002f0: 9e0d 903d 9b71 533d 74ef 943d 48bd 8fbd
00000300: f3ff e4bc c531 80bd a166 943d 7fa8 933c
00000310: ad2e 1fbd 0084 bbbc 56ed 8d3d 435f e73d
00000320: 80d7 f9ba 1723 9dbd e01f 25bd 1482 8b3d
00000330: 84e1 8fbb 54db 693d 9b5f 973d 2216 d7bc
00000340: 57a2 373d c371 aabb 4e42 55bd ffdc 4cbd
00000350: 5b19 e53c d528 443c c3d9 503d 00ef a73d
00000360: 5d63 a7bd 0257 aebb a252 afbc 0eca 113d
00000370: 7612 2b3d 8ec2 a43d b3d5 773d 1cdc 5d3d
00000380: ffe6 89bd bc82 8bbd 30fb 9bbd 4e5e 5cbd
00000390: 077a 50bd 0b5c 903d 9a6c 1dbd 7fa7 943d
000003a0: 9075 9a3d 74fd 5c3d 5a3b 4e3d d159 8e3d
000003b0: b9b4 a03c 6266 14bd 208e 963d a066 9a3d
000003c0: f152 963d 18ee 85bd d86e 6bbc 3e92 4e3d
000003d0: 0222 76bc 0b44 52bb cdbc 46bd c807 803d
000003e0: cd07 2b3d f27e 69bc 5473 833d 4be3 f8bc
000003f0: 0093 3f3d d676 783b 24e9 2cbd 460d 913c

bias f4 [128]
0.012121975 0.08773912 0.029052455 0.08274508 0.019048184 -0.03202925 0.037600044 0.064295895
-0.030422978 0.015834894 0.066568635 -0.051666953 0.07619458 0.07241381 -0.019649131 0.060886573
0.08230258 0.024087083 -0.023911474 -0.051130872 0.03489984 -0.07464906 0.006171216 -0.064807594
0.014847494 0.054408774 0.06565845 0.07962082 -0.08434724 0.0764188 0.054449167 -0.05510984
0.07696825 -0.051068798 0.08491822 0.03788726 -0.06984572 0.008673357 -0.042193517 -0.09124485
0.04305688 -0.04150367 -0.046827264 0.039407246 -0.011225058 0.048751745 -0.028177885 -0.05170042
0.05885774 0.058878236 -0.05456795 0.021196293 0.043186475 -0.031866383 -0.047844566 0.08856315
0.08987205 0.02449512 0.07709587 -0.058017697 -0.002203801 0.079451755 -0.03998866 -0.017131139
-0.034147184 -0.049337104 0.049285285 -0.075683035 0.09948025 0.0025556895 -0.055836204 -0.059786085
-0.059779733 0.07989359 0.09780498 0.045448128 0.009721328 -0.003927664 -0.028277352 0.082880706
0.05954747 0.02134739 0.038335998 0.07765443 -0.05282076 -0.011823882 -0.0397465 -0.03753691
0.00841059 0.10380658 0.065400325 -0.018170489 -0.09751091 0.01430695 0.054499302 0.07786215
-0.05317306 0.0746733 -0.056980923 0.010110201 -0.08015423 -0.034666464 -0.033384863 -0.06582394
-0.0478274 0.06529467 -0.02787752 0.026209595 -0.066999815 0.026811194 0.044583894 0.030229015
0.053994782 -0.009754866 0.0252222 -0.006641483 0.05378511 -0.03925625 0.04275932 -0.0032466417
0.0423383 0.011814529 0.0939375 0.041346595 0.062446244 0.020826813 0.031589627 -0.041046288
00000000: 409b 463c 91b0 b33d 6aff ed3c 4176 a93d
00000010: f00a 9c3c 1a31 03bd 8102 1a3d 91ad 833d
00000020: 9c39 f9bc 2eb8 813c 2355 883d baa0 53bd
00000030: e70b 9c3d b14d 943d 37f7 a0bc 3364 793d
00000040: 418e a83d 4652 c53c ffe1 c3bc 9b6e 51bd
00000050: 22f3 0e3d 9be1 98bd e937 ca3b d8b9 84bd
00000060: e742 733c bcdb 5e3d f077 863d 3e10 a33d
00000070: 3fbe acbd 7681 9c3d 1706 5f3d dbba 61bd
00000080: 88a1 9d3d 842d 51bd 9be9 ad3d ac2f 1b3d
00000090: 460b 8fbd b21a 0e3c 1cd3 2cbd 94de babd
000000a0: 695c 303d c1ff 29bd f2cd 3fbd 7e69 213d
000000b0: 4ee9 37bc e9af 473d 4fd5 e6bc d2c3 53bd
000000c0: d014 713d 4e2a 713d a582 5fbd d9a3 ad3c
000000d0: 4de4 303d 5386 02bd aaf8 43bd 9960 b53d
000000e0: d60e b83d fda9 c83c 71e4 9d3d f7a3 6dbd
000000f0: a56d 10bb 9ab7 a23d 26cb 23bd 9a56 8cbc
00000100: ebdd 0bbd b415 4abd 5edf 493d b5ff 9abd
00000110: 4dbc cb3d 5b7d 273b 81b4 64bd 41e2 74bd
00000120: 98db 74bd 409f a33d fa4d c83d d127 3a3d
00000130: 3446 1f3c a2b3 80bb e8a5 e7bc 5cbd a93d
00000140: 0ce8 733d b9e0 ae3c 3506 1d3d 4909 9f3d
00000150: 955a 58bd f5b8 41bc 3acd 22bd 4ec0 19bd
00000160: 92cc 093c 8b98 d43d 9bf0 853d 47da 94bc
00000170: cdb3 c7bd b367 6a3c a93a 5f3d 3176 9f3d
00000180: ffcb 59bd 51ee 983d d464 69bd 42a5 253c
00000190: e727 a4bd 6cfe 0dbd 91be 08bd b4ce 86bd
000001a0: aae6 43bd 36b9 853d 665f e4bc 81b5 d63c
000001b0: 3337 89bd 26a3 db3c 9a9d 363d d7a2 f73c
000001c0: a229 5d3d e0d2 1fbc ca9e ce3c cca0 d9bb
000001d0: c74d 5c3d 29cb 20bd 6624 2f3d 9cc5 54bb
000001e0: ed6a 2d3d ba91 413c 4e62 c03d 0c5b 293d
000001f0: a2c7 7f3d fe9c aa3c 2064 013d 2720 28bd

weight f4 [128, 128]
0.04236838 0.015198477 -0.023674501 0.002019922 0.013751092 0.073987976 0.0465986 -0.057540677
0.0763709 -0.007270142 0.06618535 -0.051198278 -0.017412808 -0.012422764 0.066369705 -0.047684144
-0.07294587 -0.069761954 0.08190133 0.06931265 -0.0010887274 0.04501281 -0.022388738 -0.04248757
-0.079876184 -0.0041968455 0.04642744 0.0007084865 0.08466284 -0.0818882 -0.08684873 0.07991296
0.018311901 0.0056312694 -0.07783009 0.07174906 0.08675222 -0.003156596 0.059566196 0.05596812
-0.013697333 -0.064871006 -0.015652582 0.073703796 -0.03194086 -0.0537407 -0.08089835 0.07391898
0.05922295 0.06335295 -0.02502277 0.05155183 -0.073443346 0.059574496 0.015644874 -0.045583684
-0.07174942 -0.04943734 -0.07737577 0.030314833 0.0028055988 0.054552548 -0.061497103 -0.06320261
-0.018762691 0.07568013 -0.034583237 0.10196225 0.06830059 0.043419518 0.07081998 -0.08501256
0.067195445 -0.08420896 -0.080608115 0.01103637 0.014567154 -0.04706255 0.06140835 0.04215691
-0.042491596 0.08103158 0.065424584 -0.079040155 -0.029468765 -0.059977833 0.062215302 0.021100117
-0.02245856 0.007937395 -0.07389836 -0.041152347 0.03973302 -0.004068974 0.0061896476 0.03128254
0.042620014 -0.008203465 0.06214126 -0.01435742 -0.056252964 0.042177252 -0.02642939 -0.064058945
-0.013533593 -0.072209895 0.043109767 0.052946076 0.042835265 0.043322463 0.06614972 0.02724358
0.032577407 0.06728014 -0.041977324 -0.041775893 0.02502209 0.03364717 0.056967005 0.0754041
-0.09243124 -0.088639036 0.051030077 -0.0630363 0.038461704 0.012856184 0.098500974 -0.014822889
0.076256245 0.044990048 -0.037578184 -0.03807179 -0.060810372 0.03770629 -0.049966484 -0.032400798
0.016265573 0.072265595 -0.06930151 -0.03989086 -0.050745536 -0.055144664 -0.027337821 0.051962998
-0.014719621 -0.02261887 -0.0053227264 -0.041616272 0.091231294 -0.023655256 -0.06685551 -0.021507967
0.039585613 -0.07455117 0.069775574 -0.0064876573 -0.057042718 -0.040536396 0.074357286 -0.01804208
-0.033371158 0.03328843 0.10341249 0.0503793 0.0576479 -0.07385295 -0.016359791 -0.017676678
0.0904106 0.07921743 -0.02808855 -0.06145251 0.084643714 -0.03557407 -0.056573965 0.084441975
0.080553554 0.028644811 -0.026307315 0.0581894 -0.075269595 0.017895589 -0.02611717 -0.005137778
0.04029333 0.04071463 -0.02356407 0.036921304 -0.013048489 -0.05616487 -0.086322814 -0.0028459746
-0.056314733 0.06349859 0.041341856 -0.055255648 -0.014256852 -0.07007645 0.061746158 0.06966364
0.00026217772 -0.0660029 0.08291778 -0.018946057 -0.060584653 0.004225838 0.08188872 -0.01853364
0.030159505 0.052934814 0.027023727 0.013383959 0.016092345 0.05399368 0.029063279 0.07431144
-0.015423061 0.028522283 0.0947718 0.08013347 -0.009147576 -0.07845425 -0.053160805 0.019913428
-0.032793924 0.08692774 0.04129508 -0.08155769 0.019041236 0.0048731547 -0.074589394 -0.0058874385
0.07707883 0.08928259 -0.07853475 0.050215717 -0.02765516 0.02151248 0.018968873 0.04391773
0.085064 0.08283023 0.086735934 0.05977806 -0.031062357 0.078704126 -0.06819253 0.053149562
-0.027916022 0.06699212 0.02421516 0.07774772 0.042206906 -0.03632804 0.004025576 -0.027836625
00000000: 778a 2d3d 0803 793c 07f1 c1bc ab60 043b
00000010: 434c 613c 0287 973d 2cde 3e3d c6af 6bbd
00000020: 5968 9c3d 5f3a eebb 2f8c 873d 49b5 51bd
00000030: 4ea5 8ebc d988 4bbc d7ec 873d 7350 43bd
00000040: a564 95bd 5bdf 8ebd e2bb a73d caf3 8d3d
00000050: a1b3 8eba 5a5f 383d 9668 b7bc 7207 2ebd
00000060: 2096 a3bd b185 89bb b32a 3e3d b9b9 393a
00000070: b663 ad3d 00b5 a7bd bfdd b1bd 68a9 a33d
00000080: d702 963c 8386 b83b 6265 9fbd 2cf1 923d
00000090: 26ab b13d e5de 4ebb affb 733d d43e 653d
000000a0: c76a 60bc 17db 84bd d839 80bc 04f2 963d
000000b0: 6bd4 02bd 351f 5cbd 09ae a5bd d662 973d
000000c0: c493 723d 31bf 813d 8dfc ccbc 0328 533d
000000d0: 7769 96bd 6304 743d ae29 803c f5b5 3abd
000000e0: 5cf1 92bd cf7e 4abd 3077 9ebd d056 f83c
000000f0: 23de 373b 7e72 5f3d 63e4 7bbd 5f70 81bd
00000100: 37b4 99bc 2ffe 9a3d 27a7 0dbd 96d1 d03d
00000110: 2ee1 8b3d aad8 313d 110a 913d 111b aebd
00000120: c49d 893d bf75 acbd de15 a5bd e4d1 343c
00000130: 13ab 6e3c a9c4 40bd 5287 7b3d b9ac 2c3d
00000140: ab0b 2ebd e3f3 a53d 53fd 853d cedf a1bd
00000150: 7b68 f1bc 51ab 75bd 79d5 7e3d 27da ac3c
00000160: 04fb b7bc d90b 023c 0658 97bd 5d8f 28bd
00000170: 17bf 223d 0755 85bb 87d2 ca3b 1f22 003d
00000180: 5392 2e3d d367 06bc d587 7e3d 623b 6bbc
00000190: 8269 66bd 0ec2 2c3d 7382 d8bc 5631 83bd
000001a0: 01bc 5dbc c8e2 93bd de93 303d fcdd 583d
000001b0: 0874 2f3d e572 313d 8179 873d ee2d df3c
000001c0: e36f 053d 2cca 893d 6af0 2bbd 331d 2bbd
000001d0: 20fb cc3c 9dd1 093d 3c56 693d 776d 9a3d
000001e0: 974c bdbd 6288 b5bd ea04 513d 2d19 81bd
000001f0: 058a 1d3d bea2 523c e1ba c93d b4db 72bc
00000200: 3c2c 9c3d 7c47 383d 95eb 19bd 2af1 1bbd
00000210: 4c14 79bd e971 1a3d a8a9 4cbd b3b6 04bd
00000220: 613f 853c fcff 933d f3ed 8dbd 9964 23bd
00000230: 8dda 4fbd 5fdf 61bd 91f3 dfbc 27d7 543d
00000240: 912a 71bc 354b b9bc 446a aebb d375 2abd
00000250: 79d7 ba3d abc8 c1bc 8beb 88bd 7a31 b0bc
00000260: 8624 223d 49ae 98bd 7fe6 8e3d 6a96 d4bb
00000270: a0a5 69bd 7e09 26bd a248 983d fccc 93bc
00000280: 32b0 08bd 7359 083d edc9 d33d 865a 4e3d
00000290: 3420 6c3d 3740 97bd f804 86bc aece 90bc
000002a0: 3129 b93d bf3c a23d f519 e6bc a1b5 7bbd
000002b0: af59 ad3d 1eb6 11bd 1aba 67bd eaef ac3d
000002c0: 43f9 a43d 86a8 ea3c 7082 d7bc 0258 6e3d
000002d0: f226 9abd c599 923c adf3 d5bc ce5a a8bb
000002e0: 9e0a 253d 62c4 263d 7009 c1bc cb3a 173d
000002f0: 54c9 55bc 220d 66bd 04ca b0bd 8883 3abb
00000300: 47aa 66bd 8c0b 823d 1456 293d bf53 62bd
00000310: 9295 69bc 3e84 8fbd 8ae9 7c3d cfab 8e3d
00000320: e674 8939 872c 87bd ccd0 a93d c334 9bbc
00000330: 9d27 78bd e678 8a3b 46b5 a73d dcd3 97bc
00000340: 1111 f73c 2dd2 583d dd60 dd3c 6548 5b3c
00000350: 18d4 833c 7a28 5d3d 1d16 ee3c 9930 983d
00000360: 02b1 7cbc 90a7 e93c b817 c23d 041d a43d
00000370: b7df 15bc 9fac a0bd 25bf 59bd 7c21 a33c
00000380: ec52 06bd 2c07 b23d 0825 293d b807 a7bd
00000390: 5efc 9b3c fcae 9f3b 53c2 98bd 6aeb c0bb
000003a0: 81db 9d3d cad9 b63d d4d6 a0bd ffae 4d3d
000003b0: 138d e2bc f13a b03c 9c64 9b3c 14e3 333d
000003c0: 0936 ae3d e5a2 a93d 9ca2 b13d d7d9 743d
000003d0: 7c76 febc a12f a13d 86a8 8bbd 5bb3 593d
000003e0: 24b0 e4bc 2a33 893d df5e c63c 323a 9f3d
000003f0: 26e1 2c3d b6cc 14bd fbe8 833b a209 e4bc

bias f4 [128]
-0.049359504 0.031952046 0.030828383 -0.04133244 -0.0416221 -0.087290265 0.025844168 -0.015102997
-0.041429415 0.056852728 -0.088944726 -0.0588065 0.059965465 0.011921764 -0.055449232 0.080317184
-0.035095643 -0.05243927 0.052695468 0.032024145 0.081984326 0.019701257 -0.016221229 -0.016995441
0.07139551 0.07588607 0.048895117 0.055875026 0.032387014 -0.030692058 -0.025028864 -0.006863355
-0.051862657 0.09934048 0.08158251 -0.03732206 0.04403524 -0.0043838397 0.07580937 -0.028323116
0.09596973 -0.00390892 0.060765784 0.06692236 0.0010292141 0.009323257 -9.1763366e-05 -0.06891247
0.027245076 0.03355682 -0.024318172 0.018002184 0.07898302 -0.06774223 0.08011553 0.026709402
0.056032736 0.035211526 0.066091835 0.08025365 0.042935673 -0.010312849 -0.0135519635 -0.06689362
-0.093447536 -0.08433456 0.09387002 -0.081264555 0.053089485 -0.087407 0.091701604 0.03883102
0.03470149 -0.011647101 -0.022009848 0.091964036 0.014893565 -0.00447786 0.030196266 0.08053311
-0.01662226 0.05464897 -0.0057026194 -0.042805713 0.031216402 0.02372427 -0.044789907 -0.057009835
-0.052005704 -0.03253419 0.08615266 0.06079014 -0.068831824 0.083782814 -0.0024428966 0.0026538055
0.04897822 0.06672071 0.0030874773 0.02860369 0.023273423 -0.08464793 0.019990826 -0.07770535
0.08233567 -0.060407203 0.03279719 0.08678615 0.07891891 -0.069439024 -0.016848717 0.064280696
-0.04024998 0.018288204 -0.034534395 0.020334894 0.029361423 0.03699254 0.045337543 -0.0047426564
-0.07247649 0.06625954 0.07077654 0.067458205 -0.06897161 -0.016058004 -0.05842094 -0.04880532
00000000: 312d 4abd 26e0 023d ce8b fc3c 344c 29bd
00000010: ef7b 2abd 3dc5 b2bd 26b7 d33c 9072 77bc
00000020: e4b1 29bd 68de 683d a728 b6bd 16df 70bd
00000030: 599e 753d 8153 433c bc1e 63bd 567d a43d
00000040: 73c0 0fbd 8fca 56bd 34d7 573d c02b 033d
00000050: 66e7 a73d 8864 a13c 62e2 84bc 063a 8bbc
00000060: cf37 923d 286a 9b3d 3f46 483d 36dd 643d
00000070: 3fa8 043d e96d fbbc 5509 cdbc ffe5 e0bb
00000080: f06d 54bd 0673 cb3d bb14 a73d 04df 18bd
00000090: 4c5e 343d 50a6 8fbb f141 9b3d e105 e8bc
000000a0: c78b c43d 6616 80bb 8be5 783d 970e 893d
000000b0: b2e6 863a 93c0 183c 1571 c0b8 fb21 8dbd
000000c0: 1131 df3c e072 093d e736 c7bc 5179 933c
000000d0: d9c1 a13d 70bc 8abd 9c13 a43d adcd da3c
000000e0: 9582 653d f639 103d 285b 873d 075c a43d
000000f0: 51dd 2f3d 39f7 28bc 0e09 5ebc 86ff 88bd
00000100: 6c61 bfbd 99b7 acbd ed3e c03d 086e a6bd
00000110: 5c74 593d 7102 b3bd 0dce bb3d 470d 1f3d
00000120: 2623 0e3d 7bd3 3ebc ff4d b4bc a457 bc3d
00000130: 2404 743c 03bb 92bb 295e f73c 8bee a43d
00000140: 682b 88bc 99d7 5f3d 0add babb 0b55 2fbd
00000150: 8ab9 ff3c 6659 c23c 9f75 37bd 2583 69bd
00000160: ef03 55bd 9242 05bd ce70 b03d 15ff 783d
00000170: b3f7 8cbd 5396 ab3d 0119 20bb 78eb 2d3b
00000180: 639d 483d dea4 883d 4657 4a3b 4952 ea3c
00000190: e8a7 be3c e55b adbd cdc3 a33c fc23 9fbd
000001a0: 9b9f a83d 8b6d 77bd 5956 063d f0bc b13d
000001b0: 3da0 a13d 0c36 8ebd 5206 8abc 99a5 833d
000001c0: 2add 24bd 25d1 953c f073 0dbd 5d95 a63c
000001d0: 5e87 f03c 7d85 173d dcb3 393d 4968 9bbb
000001e0: 8e6e 94bd 15b3 873d 4af3 903d 8727 8a3d
000001f0: fd40 8dbd 138c 83bc cc4a 6fbd 16e8 47bd

weight f4 [1, 128]
-0.079257004 0.053423677 0.012003094 0.009987143 -0.06851429 0.0432842 0.012415517 0.0121320905
-0.0007807498 -0.03488611 0.030283378 0.026743341 -0.018907553 0.062183622 0.07440313 0.031196292
0.034828413 -0.026033618 -0.034596775 -0.06169307 0.05158672 0.041943148 -0.09929896 -0.032054983
0.07751519 0.089250274 0.04242622 0.011399908 -0.059537195 -0.0412773 -0.0059000985 -0.0014418201
-0.054467063 0.102901176 0.053814523 0.05091163 -0.07193391 0.020095024 0.06516325 0.046371143
0.08802924 -0.038533453 -0.06493609 -0.046847496 -0.10128767 0.08869696 -0.05865686 0.058519576
0.05740007 0.027389953 0.024299927 -0.068285614 0.01685998 -0.04113275 0.019311301 0.049463335
0.031313874 0.07743967 -0.0005946095 0.08786288 -0.07437727 -0.09741732 0.029379932 0.06653928
0.054111604 0.037211854 0.08658133 0.021501366 -0.034253273 -0.040476374 0.04183296 0.040016677
0.04337685 -0.048652068 -0.009207059 0.03611108 0.03445196 -0.017440336 -0.051197577 0.05736454
-0.032527983 0.03607909 -0.0970873 0.060726155 -0.045185406 -0.057877056 0.009544924 0.009743835
0.004662623 -0.08081936 -0.051265668 0.0706019 0.024014303 0.047486953 0.08810652 -0.019115845
-0.10164678 -0.028619425 -0.075017996 0.01882262 0.0629932 0.08420644 0.028831894 0.019581575
0.03346291 0.073622756 0.027647601 0.03534216 -0.07034465 0.007960284 -0.09600812 0.055461176
0.0017177783 0.06932636 -0.059243873 0.07633894 -0.00090298895 0.045967564 0.018328734 0.04743987
0.067755505 0.09802554 -0.073943496 -0.10473141 -0.07435877 0.037501715 -0.08383279 0.008544666
00000000: 7f51 a2bd c9d2 5a3d a0a8 443c 1da1 233c
00000010: 3851 8cbd c64a 313d 746a 4b3c adc5 463c
00000020: 3bab 4cba bde4 0ebd d914 f83c da14 db3c
00000030: 03e4 9abc 41b4 7e3d ab60 983d 5e8f ff3c
00000040: 3da8 0e3d 7444 d5bc 59b5 0dbd dfb1 7cbd
00000050: 994c 533d 94cc 2b3d 415d cbbd 164c 03bd
00000060: 49c0 9e3d d9c8 b63d 1ec7 2d3d aec6 3a3c
00000070: 46dd 73bd 6312 29bd 9d55 c1bb 74fb bcba
00000080: db18 5fbd dabd d23d 9e6c 5c3d b788 503d
00000090: 1652 93bd 529e a43c 4f74 853d abef 3d3d
000000a0: ad48 b43d 41d5 1dbd 36fd 84bd 29e3 3fbd
000000b0: e96f cfbd c0a6 b53d 2d42 70bd 39b2 6f3d
000000c0: 561c 6b3d e560 e03c a410 c73c 54d9 8bbd
000000d0: f11d 8a3c d17a 28bd bc32 9e3c 119a 4a3d
000000e0: fa42 003d b198 9e3d 91df 1bba 74f1 b33d
000000f0: 1c53 98bd bb82 c7bd 2fae f03c bf45 883d
00000100: 21a4 5d3d 756b 183d 8d51 b13d a223 b03c
00000110: 294d 0cbd 8eca 25bd 0a59 2b3d 87e8 233d
00000120: edab 313d 6447 47bd 34d9 16bc 36e9 133d
00000130: 801d 0d3d 09df 8ebc 8db4 51bd 14f7 6a3d
00000140: 103c 05bd abc7 133d b5d5 c6bd fdbb 783d
00000150: 5514 39bd 7e10 6dbd 5062 1c3c 9ba4 1f3c
00000160: ebc8 983b 9f84 a5bd f3fb 51bd bb97 903d
00000170: a5b9 c43c ae81 423d 3171 b43d d598 9cbc
00000180: 302c d0bd 4973 eabc 09a3 99bd e531 9a3c
00000190: 9402 813d 6d74 ac3d dd30 ec3c 8a69 a03c
000001a0: 6810 093d 87c7 963d 397d e23c f1c2 103d
000001b0: db10 90bd da6b 023c e89f c4bd 422b 633d
000001c0: 1327 e13a fbfa 8d3d b4a9 72bd 9757 9c3d
000001d0: 90b6 6cba 7c48 3c3d 2426 963c 4f50 423d
000001e0: 66c3 8a3d 9dc1 c83d b06f 97bd 6c7d d6bd
000001f0: 6949 98bd 669b 193d 87b0 abbd edfe 0b3c
