Dry fermentation prediction and optimization system/predictor_percolate_tank/Predictor_Percolate Tank Biogas Production/models/NeuralNetTorch_BAG_L1/S2F2/net.params (torch, 208391 bytes, 9 tensors)

weight f4 [128, 7]
000000 34 2f 1a bd a9 20 37 3e 25 c1 b1 be aa 15 9c be
       -0.037642673 0.17883553 -0.3471767 -0.30485278
000010 01 03 33 be 40 57 05 3e 5d 19 02 bc 3e 6d 9f 3e
       -0.17481615 0.13021564 -0.007940617 0.31138033
000020 57 65 37 bd 7d ab c3 3d 7b 5b 03 be e6 75 95 bd
       -0.04477438 0.09554193 -0.12827866 -0.07297878
000030 8b 0e b5 be d5 c1 72 be 27 b2 20 be 49 ab 28 39
       -0.35362658 -0.23706754 -0.1569296 0.00016085537
000040 1b 2f 05 3e d3 44 6d 3e 0a 9c 85 be 5f 51 2d be
       0.1300625 0.23170786 -0.2609561 -0.16925572
000050 1d 19 05 3e 13 e4 a9 3e 15 d8 ae bd ee 08 91 3e
       0.12997861 0.3318182 -0.08537308 0.28327125
000060 e7 5e 82 bd c0 ee 18 3d a2 6d ad 3e 9e 9f b4 be
       -0.063657574 0.037337065 0.33872706 -0.35278028
000070 7f a9 66 be 06 1f b8 bd 2d 4d 3b be 85 95 9f 3e
       -0.22525595 -0.08990292 -0.18291159 0.31168762
000080 5a 0d 83 be 61 ad 41 be 3e d7 84 be 2f 50 bc be
       -0.25596124 -0.18913795 -0.25945467 -0.36779925
000090 74 f4 7a be 0a a4 90 3e 6f 42 27 3e 6d de 34 3e
       -0.24507314 0.28250152 0.16333936 0.17662974
0000a0 da d7 a5 3b 35 91 48 be c7 17 c0 3d 56 39 af be
       0.005061132 -0.19586642 0.09379535 -0.3422343
0000b0 19 6e 8d be b1 65 59 be a7 0f 65 3e e4 2c 57 3e
       -0.2762306 -0.21230198 0.22369252 0.21013218
0000c0 54 6b 21 be 39 6b 5b bc 29 5a 75 3e 80 9f c4 3e
       -0.15763599 -0.013392263 0.23960175 0.3840294
0000d0 1f 64 1f 3e 75 41 63 3d cd 76 79 3e e2 01 5f be
       0.15565537 0.055482347 0.24361725 -0.21778062
0000e0 5c 3a bc 3d ac 8b a1 be f9 91 90 be b9 6a 5b be
       0.09190819 -0.31551874 -0.28236368 -0.2142743
0000f0 35 23 21 3e d5 2a 21 3e 9e 5c 5c be fd 10 e1 3d
       0.15736087 0.15738995 -0.21519706 0.109895684
000100 e0 e2 65 3e 1d 11 43 bd 9c 36 a2 3c 50 c7 df 3d
       0.22449827 -0.047623742 0.01980143 0.10926688
000110 25 75 6e 3e c6 cf b9 3e 48 61 94 be f7 5b 13 be
       0.23286875 0.3629133 -0.2898047 -0.1439055
000120 62 0b 2b 3e 16 03 a0 3e 82 3a a8 3e 9e 0a a9 3e
       0.16703561 0.31252354 0.32857138 0.33015913
000130 f7 96 8d 3d 41 c2 b1 be 42 20 f8 3c eb 9d 8e be
       0.0691356 -0.34718516 0.03028882 -0.27854857
000140 e0 89 be be 30 9a a4 3e 10 73 94 3e 3a 9c be be
       -0.37214565 0.32148886 0.28994036 -0.37228566
000150 14 c4 52 3d 57 17 2f bd e6 0f 2c bd 9f 20 1a be
       0.051456526 -0.042746868 -0.04200735 -0.15051506
000160 0b 2d 26 3e 16 43 72 be 79 3c 0d 3e 6c 29 3c 3e
       0.1622812 -0.23658404 0.137926 0.18375176
000170 55 aa 75 3e 5a 57 f7 3d 73 fb cb be ce 6e 8b be
       0.23990758 0.12077208 -0.39840278 -0.27232975
000180 ea 46 4f 3e e4 da ae 3d 89 de 96 be d2 a3 60 be
       0.20241895 0.08537844 -0.29466656 -0.21937492
000190 dc 5c b6 3e b6 b2 88 3e 2a 37 1e be eb 8c c3 bd
       0.3561772 0.26698846 -0.15450731 -0.09548362
0001a0 a6 fa bd be c7 97 1b bd f2 c2 8a be de f9 97 be
       -0.37105292 -0.037986543 -0.27101856 -0.2968282
0001b0 ae 08 ff ba fc 28 7b 3d e5 32 2e be 23 9b 65 3e
       -0.0019457543 0.061318383 -0.17011602 0.22422461
0001c0 73 dc 5e be 85 e7 b0 3e cf e3 78 3e 9a 77 aa be
       -0.21763782 0.34551635 0.24305652 -0.33294374
0001d0 e0 62 be bd 29 fb d2 3c e4 b1 80 3d 3b e9 be 3d
       -0.09296203 0.025754528 0.0628393 0.09321829
0001e0 e5 67 1b 3e 29 95 49 3d 23 d8 33 be 45 b7 3c 3e
       0.15176351 0.049214516 -0.17562918 0.18429287
0001f0 48 fd b5 be 11 fe 68 be 4b 9f 08 be 84 29 49 be
       -0.355448 -0.22753169 -0.13342015 -0.19644743
000200 54 f8 23 be fe 41 9f be fb 7c a1 bd 95 84 aa 3d
       -0.16012698 -0.31105036 -0.07885166 0.08326069
000210 ac 80 72 be f2 d9 1b bc cb 43 8f 3e b8 b2 5a bd
       -0.23681897 -0.009512411 0.2798141 -0.053393096
000220 07 4e 69 bb f7 3d 0d bd 15 86 a8 3d eb 43 74 3e
       -0.0035599486 -0.034482922 0.08228699 0.23854034
000230 56 2d ba 3e e3 de 6a 3e 29 97 cc 3e fa 6c 05 bd
       0.36362714 0.22936587 0.39959076 -0.03257463
000240 d0 42 b9 be 6e ee 25 be 01 30 82 3e 22 61 8d bc
       -0.36183786 -0.16204235 0.2542725 -0.01725823
000250 a5 4f 61 be 50 26 ab be 7e e6 be be 57 47 af be
       -0.22003038 -0.33427668 -0.37285227 -0.34234115
000260 03 54 8a bd e9 df 4c 3e 9f 31 39 3e 90 f7 ca be
       -0.06754305 0.2000729 0.18085335 -0.39642
000270 0c 68 61 3e 68 8a 99 be 10 9f 9d bd 7c 54 11 be
       0.22012347 -0.29988408 -0.076963544 -0.14192384
000280 1f 02 9a bd 6a 73 cb bd 52 f4 a4 be 58 73 b0 be
       -0.07519936 -0.09934123 -0.32217652 -0.34463
000290 21 56 4c bd 69 44 b9 3a 46 1b 34 be 8d 9b 06 3e
       -0.049886826 0.0014134768 -0.17588529 0.13145275
0002a0 75 4e aa be 43 58 fb bc 4b 13 b3 3e e4 af 1e be
       -0.33262983 -0.030681735 0.34975657 -0.15496784
0002b0 28 ce b1 3e 62 70 08 3e 85 61 af be 8b 14 78 3e
       0.34727597 0.1332412 -0.3425409 0.24226587
0002c0 bd 85 6a bd 05 78 2e be 0d 68 9c 3e b2 b8 9a be
       -0.05725645 -0.17037971 0.30548134 -0.30219036
0002d0 1b d9 18 3d 19 b4 a8 bd 53 a9 87 3e e8 b3 b5 3d
       0.037316423 -0.08237476 0.26496372 0.08872205
0002e0 2a 9f 3d 3e a2 5a 11 3e 06 12 a4 bd ab 3b 8f bd
       0.18517748 0.1419473 -0.0801125 -0.06993803
0002f0 b7 69 a0 be df 7d 59 3e fc 63 99 3e c6 ef 78 3e
       -0.31330654 0.21239422 0.29959095 0.24310216
000300 28 89 92 be d3 85 dd b8 53 8f 80 be a2 ad 53 be
       -0.28620267 -0.00010563028 -0.25109348 -0.20671704
000310 02 e0 69 be 8d 47 14 3e 2a 5d 68 be 0e 2d 8c 3b
       -0.22839358 0.1448042 -0.2269179 0.004277832
000320 d8 f6 0f 3d 48 ed 6e 3e a7 0d 8d be 69 3d 90 be
       0.035147518 0.23332703 -0.27549478 -0.28171852
000330 0a 07 7e be aa 40 92 3e 8d 73 19 be 19 8e 9c 3e
       -0.24807373 0.2856496 -0.14985485 0.30577162
000340 f8 91 03 3e 78 4b 8c 3d 75 a1 92 3c c3 4e a1 bd
       0.12848651 0.06850332 0.017899254 -0.07876351
000350 70 32 64 3d 3e e4 b2 bd 62 ef 0f bc f9 46 3d 3d
       0.055712163 -0.0873494 -0.008785101 0.046210263
000360 c4 53 98 be c6 6a 41 be 19 b7 aa 3e 90 8d 94 be
       -0.29751408 -0.18888387 0.33342817 -0.29014254
000370 3a 44 88 bc 70 66 c4 3e 49 9a e0 3d ab 7b a8 3c
       -0.016634095 0.38359404 0.109669276 0.020566782
000380 3e ed b2 be 8b c6 48 3e 9d c4 8f be 32 88 c2 bd
       -0.34946626 0.19606988 -0.28079692 -0.094986334
000390 04 aa f0 bd 48 20 72 bd 05 ee 81 bc 28 28 a6 3e
       -0.11751178 -0.059112817 -0.015860567 0.32452512
0003a0 1e c8 1b 3d 8f 51 aa 3e f2 1b 6d 3e 79 8a 7a be
       0.038032643 0.3326535 0.23155192 -0.24466886
0003b0 e3 00 2a 3e 10 ee 87 be 48 c1 1e be 7e 51 d8 3d
       0.16601901 -0.26548815 -0.15503418 0.105624184
0003c0 af a0 da 3d 8d 61 8f 3e c4 90 f9 bd 93 02 37 3c
       0.10675179 0.28004113 -0.12185815 0.011170047
0003d0 04 51 39 3e 32 24 d1 be c8 16 7c 3e 31 f5 b9 be
       0.18097311 -0.40847927 0.24618065 -0.3631988
0003e0 f8 0b 1a bd 09 b5 ea bd ec 87 4f be 8f 93 5b 3d
       -0.03760907 -0.11460311 -0.20266694 0.05360752
0003f0 11 9e b5 3e ce e5 de bd d0 1c 6f be 65 ad 1d be
       0.35472158 -0.108836755 -0.23350835 -0.15398176

bias f4 [128]
000000 38 29 9e be 74 99 c8 bc 84 e7 03 3e f1 0c 03 3e
       -0.30890822 -0.024487235 0.12881285 0.12797906
000010 b2 c8 a3 3e 57 80 c5 3e 4c 00 b9 3e 24 ab 88 3e
       0.31989056 0.38574478 0.3613304 0.2669307
000020 55 a7 8e 3e e1 6a 62 bd 4c 55 97 be d1 21 01 be
       0.2786204 -0.05527771 -0.29557264 -0.12610556
000030 91 03 68 bd b8 bd 37 be 3c 5e 4d 3e 44 d2 de 3d
       -0.056644026 -0.17943466 0.20055479 0.10879949
000040 58 b6 88 3d 50 38 ba 3d 0b 19 aa 3e 38 1e 19 3e
       0.06675404 0.09092772 0.3322223 0.14952934
000050 ee 51 a7 be bb e3 81 be 88 dc 35 3e ec 4a 15 3d
       -0.32679695 -0.25369057 0.17759907 0.036448404
000060 50 e0 43 3e ee ed c2 be cb d1 b5 be bc 54 78 3e
       0.19128537 -0.3807215 -0.35511622 0.24251074
000070 f3 09 59 3e 3d 51 a4 be d7 a6 20 3e 1a 23 93 be
       0.21195202 -0.3209323 0.15688644 -0.28737718
000080 6b ef 8c 3e b5 c2 07 3e 59 f2 c0 3e 7d e2 a4 be
       0.2752641 0.13257869 0.37684897 -0.32204047
000090 7b 06 b3 be 81 13 82 3e 08 bf a9 3e d3 5d 7d 3e
       -0.34965882 0.25405505 0.33153558 0.24742822
0000a0 32 c2 88 3e 98 bf a1 be 6b 99 8a 3e 90 89 b0 be
       0.2671066 -0.31591487 0.27070174 -0.34479952
0000b0 bd 7a c6 3d 72 e7 70 be 87 ce 13 be d2 c1 97 3d
       0.09691379 -0.2352579 -0.14434253 0.07410015
0000c0 b2 61 04 be 40 15 84 bd e2 e9 be be 48 98 bf be
       -0.12927893 -0.064493656 -0.37287813 -0.3742087
0000d0 95 e9 1a 3e f1 c7 12 be 64 aa 6d be e8 b1 0a be
       0.15128167 -0.14334084 -0.2320953 -0.13544428
0000e0 1a 5d 8f be 5e d1 9b be e2 b1 80 3e 02 b7 49 3e
       -0.28000718 -0.30433172 0.25135714 0.19698718
0000f0 4d 53 54 3d 1e f4 35 be ae b5 d0 3d be fa a5 3c
       0.051837254 -0.17768905 0.10190903 0.020261165
000100 74 db 87 be c8 e9 c8 3d fc 31 b5 3e a1 da b6 be
       -0.26534617 0.09810215 0.35389698 -0.35713676
000110 79 fc ba be 4e 02 67 3d b5 ed 95 3e 93 df 62 be
       -0.36520746 0.056398682 0.2928292 -0.221556
000120 81 5b e2 3d ac 47 90 3e f8 b8 f0 3d e9 cd af 3d
       0.11052609 0.2817968 0.1175403 0.08584196
000130 ff e6 be 3e e8 e3 80 3e 4f f9 45 be 97 98 fc 3c
       0.3728561 0.2517388 -0.19333385 0.03083448
000140 fc 87 3c 3e eb d3 a8 3e 03 fb be be a3 3d 47 3e
       0.18411249 0.3297418 -0.37300882 0.19457106
000150 5b f4 be bd d4 4a ba be 2f 33 a6 3d 76 dc 36 be
       -0.09323951 -0.36385214 0.08115231 -0.17857537
000160 78 2b ec 3c fc 5c 65 be dd ff 92 be 6d 43 0f bd
       0.028829321 -0.22398752 -0.28710833 -0.03497641
000170 ae 94 e8 bd fa 2e 6b 3e eb c3 91 3c 24 8e 95 3e
       -0.113564834 0.22967139 0.017793616 0.29210007
000180 38 59 80 3d 9b 5b ce bd 2d 9f 82 3e 1c 2f e4 3c
       0.06267017 -0.10076066 0.25512066 0.027854495
000190 9f 40 20 3d 15 c6 dc bd 27 58 83 3c 2f 9b cc bd
       0.039124127 -0.10779969 0.016033245 -0.099905364
0001a0 1b b4 86 bc 5a 3c 95 be c8 5b 46 3c 07 6f 96 be
       -0.016443303 -0.29147607 0.012106843 -0.29381582
0001b0 c2 58 b5 bd 2c e3 74 3e 9d 77 83 be 24 ed 61 be
       -0.0885482 0.23914784 -0.25677195 -0.22063118
0001c0 3e 1c c2 bd 8e 20 bf bd 79 94 68 3d 5e cf ab 3d
       -0.09478043 -0.09332381 0.05678222 0.083891615
0001d0 0f 3a 46 3e a1 b9 87 be a5 52 e8 bc 88 34 47 3e
       0.19358085 -0.2650881 -0.02835972 0.19453633
0001e0 dc 87 aa 3e d7 26 a6 bc ca d5 65 be d6 4b 01 3e
       0.33306777 -0.020282192 -0.22444835 0.12626585
0001f0 50 94 5a 3e 05 e7 6d be 64 be 5f be 63 c7 31 3e
       0.21345639 -0.23232658 -0.21849972 0.17361216

weight f4 [128, 128]
000000 63 76 9a 3a 9f 47 9c bd 86 04 33 bd 12 8a 26 3d
       0.001178455 -0.07630848 -0.043705486 0.040659018
000010 0d 06 af bc 12 a8 90 3d be 7a ad 3d f5 83 a3 3c
       -0.02136519 0.07063307 0.08470677 0.019960383
000020 b0 0a 29 3c ce 3f 03 bd 64 2e 17 bb 66 c0 ad 3b
       0.0103174895 -0.03204327 -0.0023068422 0.0053024767
000030 58 02 a0 bd b0 28 e5 bb 3c 76 75 bd a9 08 76 3d
       -0.07812947 -0.0069933757 -0.05992721 0.060066853
000040 ab cf 3e bd 47 9b b3 3d 18 8f f4 bb a5 4b 1b bd
       -0.046584766 0.08769851 -0.007463347 -0.037913937
000050 14 39 af 3c c7 b6 fe 3c 21 30 b8 3d 40 9a 2f 3d
       0.021389522 0.031093014 0.08993555 0.042871714
000060 6d db 9c bd f9 30 ad 3d a1 05 7f 3a 87 dd db bc
       -0.0765904 0.084566064 0.0009728317 -0.02683903
000070 ad 95 66 3d 12 17 89 3d 20 0d 71 bd f4 3d 89 bc
       0.056295086 0.066938534 -0.058850408 -0.016753174
000080 e7 25 8d 3d 79 25 2c 3d a2 f7 a8 3d 55 a6 77 bd
       0.06891995 0.042027924 0.08250357 -0.06046136
000090 5a 40 9b bc 44 1a a9 3d e8 4f 66 3d 2f 4b c4 3d
       -0.018951584 0.08256963 0.05622855 0.09584653
0000a0 49 af 11 bd 49 7e 8d bd 60 8c 1b 3c 4a 88 a2 bd
       -0.035567556 -0.069088526 0.009493917 -0.07936151
0000b0 79 d8 3d 3d 39 33 8f 3d cc 90 01 3d c3 14 41 bc
       0.046349023 0.06992192 0.03163223 -0.011784735
0000c0 81 27 3b 3d 2b 6c 43 bd ba f8 af 3d 77 79 aa bd
       0.04569197 -0.04771058 0.08592363 -0.08323949
0000d0 c9 8c 8e bd f8 4c d6 3a dc 14 91 3d 8f d4 8b 3c
       -0.069604464 0.0016349843 0.07084057 0.01706913
0000e0 d3 43 10 3d 09 d9 78 bd 8c 89 46 3d cb 58 85 3b
       0.035220932 -0.060753856 0.04847102 0.004069423
0000f0 5b 35 31 3d 1e 44 58 3d c6 60 45 3d 02 a1 c2 bb
       0.043263774 0.052799337 0.048187993 -0.005939604
000100 40 20 d3 3b 92 46 2e bd e2 7a 6c bc 1f 04 8a 3d
       0.0064430535 -0.04254777 -0.014433594 0.06739067
000110 be 7a f8 bc fc 48 8f 3d ac 6d 8e bc da b3 44 bc
       -0.030331966 0.069963425 -0.01738628 -0.012005771
000120 be 3f a6 3c 8b fc 8b bd 1d 21 3e 3c be f7 5c bc
       0.020294067 -0.06835278 0.0116045745 -0.013486801
000130 af 39 0d 3b 03 6b 6c 3b 60 35 46 3d c9 e7 5c 3d
       0.0021549275 0.0036074526 0.048390746 0.053931985
000140 e2 ac 81 bd 77 75 4b 3d fe 45 99 bd 02 04 90 bd
       -0.06331803 0.04967257 -0.07484053 -0.070320144
000150 2d ec 54 3d f1 09 4e 3c 80 7b 32 bd b3 54 c2 bd
       0.051983047 0.012575612 -0.04357481 -0.09488811
000160 b7 41 00 bd 38 02 9e 3c f1 2e 83 bd 2b 1a be bd
       -0.03131267 0.019288167 -0.06405438 -0.09282335
000170 df 36 86 3b 18 88 50 bd c2 b5 99 bd 00 3f cc bc
       0.0040958966 -0.05091104 -0.07505371 -0.024932384
000180 d4 80 b8 bb 1b 78 bc bd 55 72 5a bd 88 ff f4 3c
       -0.005630592 -0.09202596 -0.05333169 0.029907003
000190 0a ac a3 bd f0 aa 18 bc 4b 92 6a bd 71 0b 90 bd
       -0.07991798 -0.009318098 -0.057268422 -0.07033432
0001a0 bf ca 55 3d 9f ed 50 bd 5f 40 66 bd bc 19 66 3d
       0.052195307 -0.051007863 -0.056213733 0.056176886
0001b0 23 9a 46 3c 08 32 b6 3d 90 a3 db bc 30 36 a3 bd
       0.01212171 0.088962615 -0.026811391 -0.0796932
0001c0 a0 8b 3d bc a8 62 c3 b8 69 fb 98 3d 5e fe a9 bd
       -0.011568934 -9.316701e-05 0.07469828 -0.0830047
0001d0 4a ea 52 3b 17 6b 0e 3d a5 44 1a bd e0 b0 0f bd
       0.0032183104 0.034770098 -0.03766312 -0.03508079
0001e0 0c f3 46 3d 5e c3 99 bd 40 da 40 3c 34 95 61 bd
       0.04857163 -0.075079665 0.011770785 -0.05507393
0001f0 3b 6a 78 3d f5 d2 7d bd ba 2d 7d 3d d9 a1 9c bd
       0.060648184 -0.061968762 0.061811186 -0.076480575
000200 f2 df 71 bd 2c 62 4b 3c 2f e3 a8 3d a4 8a b0 bd
       -0.05905146 0.012413543 0.08246457 -0.086201936
000210 d0 a2 be bc 6f da 88 3d ea c0 05 bc 7b 21 a4 3c
       -0.023270994 0.06682288 -0.00816367 0.020035496
000220 76 f1 a5 bd 40 b2 28 bd f6 be 87 bd 56 4e d1 3d
       -0.08102696 -0.041185617 -0.0662822 0.102200195
000230 7f 43 3a 3d 0b 3a 95 bd 2f b1 8b 3b d0 15 7d 3c
       0.045474526 -0.072864614 0.0042630653 0.015447095
000240 96 a3 12 bd 9e ea 24 bd 71 6f 00 bc 1f e5 87 3d
       -0.03580054 -0.04026281 -0.00783907 0.06635498
000250 3a 07 5e bd 21 28 37 bd 8d 34 cc bc 22 68 be 3c
       -0.05420611 -0.044716004 -0.024927402 0.023243014
000260 ac b8 13 3c 7a 0b 0b bc 26 62 ce bc 44 06 50 bd
       0.009016197 -0.008486623 -0.025193285 -0.050787225
000270 dc 9b 5a bc b9 55 60 bd f5 e4 82 3d a4 56 e1 bd
       -0.013342824 -0.05476925 0.06391326 -0.110028535
000280 9a 50 b7 bc b0 c9 a0 bd 38 c1 8d bc da c6 bf 3d
       -0.022377301 -0.07850969 -0.017304048 0.093641
000290 66 8c 9e 3d 4b a0 b8 bd 53 6c ac bb a7 b8 99 3d
       0.077416226 -0.090149485 -0.0052619367 0.07505923
0002a0 d8 93 23 3d 8d c0 5e 3d 5c b2 b4 bb f7 27 84 bd
       0.039935917 0.05438285 -0.005514426 -0.06452935
0002b0 08 90 8e 3d 5f ff 31 bd fa 0c 03 3d b3 af 3d bc
       0.069610655 -0.04345643 0.031994797 -0.0115775345
0002c0 37 01 27 3d 8f ea a2 3d 3d 2f 80 3d 98 1e 92 bd
       0.040772643 0.07954895 0.0625901 -0.071347415
0002d0 b4 89 80 bd 1d 93 c3 bc 26 67 9d bd cb e9 8c 3d
       -0.06276265 -0.02387386 -0.0768569 0.0688053
0002e0 45 4b 88 bc 92 58 8f bd c3 e0 00 bd c1 c1 1a bd
       -0.016637454 -0.06999315 -0.03146435 -0.037782434
0002f0 8b 29 32 3d a0 83 57 bd 25 31 90 bd aa 53 a4 bd
       0.04349665 -0.05261576 -0.070406236 -0.0802377
000300 da 3d ae 3c 9d a4 5d 3d 2f e8 62 bd d5 9b ec 3b
       0.021269727 0.054112066 -0.05539721 0.007220725
000310 f8 dc 92 3d 4b e3 97 bb 28 6d 16 bd a9 b7 a1 bb
       0.07171053 -0.0046352497 -0.036725193 -0.004935224
000320 91 03 d0 bc ea 3f 3c 3d 6e 3b 67 bd af 2f 4a 3d
       -0.025392326 0.04595939 -0.05645316 0.04936188
000330 e7 71 99 3d ad 78 54 bd 15 bd b0 3d 85 b4 ea 3d
       0.07492428 -0.051872898 0.086298145 0.114602126
000340 cf 2f 79 bc 98 fe 01 bd 56 77 f1 3c 4b bc 6d bd
       -0.015209152 -0.03173694 0.02947585 -0.0580409
000350 aa 7a c6 3c 00 a7 a7 3c 74 d4 7a 3d 76 72 8f bd
       0.024228413 0.020465374 0.061237767 -0.070042536
000360 51 10 b8 bd 6c c3 7d 3d f3 cb e6 3c 7a 4a 81 bd
       -0.08987487 0.061953947 0.028173422 -0.063130334
000370 5c 64 0c bd 40 de 8f bd f4 3b 62 bd 90 5e 1a bd
       -0.034275398 -0.07024813 -0.055232957 -0.037687838
000380 14 9c 99 3d 36 af 3a bc 10 1c 5a 3d 78 0e a8 3d
       0.07500473 -0.011394313 0.05324942 0.08205885
000390 97 b7 8d 3d b6 48 85 bd b7 7b 9b 3c 7e 51 80 3d
       0.069197826 -0.06508009 0.01897989 0.062655434
0003a0 43 10 60 3d df ae 93 bd 83 86 4e 3d 1d 39 4e 3d
       0.05470301 -0.072110884 0.05042125 0.050347436
0003b0 2f 88 99 bd 72 11 5d 3c 61 1e a1 3d 4c 9d 5d bd
       -0.07496678 0.013492929 0.078671224 -0.054105088
0003c0 10 d7 93 3d 19 62 4d 3d 1e 8a e4 3c 2b e7 bc 3d
       0.07218754 0.05014238 0.02789789 0.09223779
0003d0 fe 25 70 3d ea 45 91 3d e0 f0 b3 bc 13 65 b1 3d
       0.058629982 0.07093413 -0.021965444 0.086618565
0003e0 4c 9d a8 bd a7 c7 47 bd 8b e1 2e bc 04 f9 fd bc
       -0.08233127 -0.048774388 -0.010673891 -0.031002529
0003f0 b8 e3 de 3d 21 e1 33 3d 8f 80 82 3d 01 e7 5d 3d
       0.10883278 0.04391587 0.06372177 0.05417538

bias f4 [128]
000000 2b b6 11 3d ed 0e 90 bd 39 2e a5 3c 43 39 99 3c
       0.03557412 -0.07034097 0.020163642 0.018704062
000010 2e fa 9c 3b 5e 7b 1c 3d 5c 71 59 3d c5 dd 7c 3d
       0.004790566 0.03820359 0.053086624 0.061734933
000020 2f 1a 98 bd e7 6b 14 38 4d b3 7f 3d 14 30 72 3d
       -0.07426869 3.538644e-05 0.062426854 0.059127882
000030 e3 7c 6c bd c3 a9 f9 3b b9 94 35 bc 38 8a 27 bc
       -0.05773629 0.007619114 -0.0110828215 -0.010225825
000040 20 a7 63 3d e9 f9 54 3d cb 6e 86 bd d7 f7 c8 ba
       0.055579305 0.051996145 -0.06564101 -0.0015332651
000050 d9 3c 32 bd ec 54 52 3d 4a a3 51 3c 6e bc 0a 3d
       -0.04351506 0.05135052 0.012795279 0.033871107
000060 8b 11 56 3b 17 46 b8 3d 2b 36 8c bd a5 f7 37 3d
       0.0032664265 0.089977436 -0.06846269 0.044913907
000070 e5 e2 cf 3d 4a eb cc bc 4a e5 d9 3c bd 49 20 bd
       0.101506986 -0.025014538 0.026598591 -0.039132822
000080 1f ab 05 bd 98 cc 47 bd 89 27 4c 3d 10 58 79 3d
       -0.032633897 -0.0487791 0.04984239 0.060875
000090 d3 91 43 bc 75 18 c1 ba c0 dd 8d bd bf 7a 77 3d
       -0.011936623 -0.001473202 -0.06927061 0.060419794
0000a0 96 16 60 3d f6 97 aa 3b de 38 15 bd a7 18 29 3d
       0.05470904 0.0052061034 -0.036431186 0.041283276
0000b0 55 d7 2a bd 67 59 64 3d de 71 5c bd 5e 60 32 3d
       -0.041709263 0.055749323 -0.05381953 0.043548934
0000c0 e7 01 4c bd f0 0b 45 3c 81 b8 c8 3d d3 f2 81 3d
       -0.0498065 0.012026772 0.09800816 0.06345143
0000d0 65 9a 8d bd fc 6d 71 bc 56 a7 f4 3b 45 56 12 bd
       -0.06914214 -0.014735695 0.007466237 -0.035726804
0000e0 45 c5 22 bb 28 78 b1 3d 54 e4 74 bd fd 5c a3 bd
       -0.002483682 0.08665496 -0.059788063 -0.079767205
0000f0 9d bd 71 bd ed cf c7 bb d7 d3 89 bc 66 66 a1 3c
       -0.05901872 -0.0060977847 -0.016824646 0.019702148
000100 b2 5d 2a bd 85 97 18 bd 65 41 67 bd 98 db 2c 3d
       -0.04159326 -0.037253875 -0.05645885 0.04220161
000110 a2 b3 a5 3d e2 30 8a bd 78 a2 2f 3d bb ae 92 3d
       0.08090903 -0.06747605 0.04287955 0.071622334
000120 dd 81 90 bd e2 8a 11 bd 93 9d 9b 3d 3a cc f9 bc
       -0.070560195 -0.03553284 0.07598414 -0.03049289
000130 98 68 46 3d 92 58 c7 b8 7a 9a 93 bd ce 72 4e 3d
       0.048439592 -9.505557e-05 -0.072071984 0.050402455
000140 7a bb 68 3b 35 85 33 bd e8 3d 07 3d 37 d8 55 bc
       0.0035512135 -0.043828208 0.033018023 -0.013052038
000150 e0 9d 03 bd 2b 02 24 bd da 93 87 bd 0e e8 93 bd
       -0.032132983 -0.04004113 -0.06619997 -0.07221995
000160 8d 4c 10 bc a7 af 31 bd 36 29 28 3d 6f ca 90 3d
       -0.008807314 -0.043380406 0.041054927 0.07069861
000170 cd fa 1f bc bc b9 9d bd bc 1c b4 bd b5 69 3b 3d
       -0.009764385 -0.07701442 -0.08794543 0.045755107
000180 be 9b cf 3b 7e de 85 bd ae 71 26 bd ab ce 21 3d
       0.0063357046 -0.06536578 -0.040635757 0.039503735
000190 23 47 dd 3c f8 4b f2 3c 6b fe b9 3d d5 27 2b bd
       0.02701146 0.02957724 0.090817295 -0.041786034
0001a0 eb dc a8 bb f3 dd 81 bd 1b 33 b5 3d cc b1 b4 bc
       -0.0051532886 -0.063411616 0.08847638 -0.022057436
0001b0 6e ab 8b bc 52 a9 0c bb 28 8e a6 bc 36 dc 9e 3c
       -0.017049517 -0.0021463227 -0.020331457 0.019392114
0001c0 ce 1e 8a 3d 94 5d 07 3d 98 48 fc 3c f5 7f ea bc
       0.06744157 0.033048227 0.030796334 -0.028625468
0001d0 64 d7 17 3d a3 0d da 3d 99 c7 9d bd 7a dc f0 bc
       0.037070647 0.10647132 -0.07704086 -0.029402006
0001e0 74 dd c2 3d 57 36 a3 3d 7b be c8 3c 70 66 af 3d
       0.09514895 0.07969349 0.02450489 0.0856446
0001f0 9a 77 e9 bb bc c5 0f 3d 6c 47 0a 3d 45 1d c0 3d
       -0.0071248533 0.035100684 0.03375952 0.09380583

weight f4 [128, 128]
000000 0c 49 7d bd b9 fa f6 3c 9a 37 73 3d 7c 97 56 bd
       -0.06183724 0.03014885 0.059379198 -0.05239056
000010 46 53 46 bd 4b b4 98 3c e4 d8 91 bd da 06 7b 3d
       -0.04841926 0.018640658 -0.07121447 0.06128583
000020 3e 06 c4 3d e0 3d 8e 3d 96 a9 b8 bc d6 36 a9 3d
       0.09571503 0.069453955 -0.022541802 0.08262412
000030 7f ff d3 3c 78 49 7f bd 76 ee 58 bd d2 80 fa 3c
       0.025878666 -0.062325925 -0.05296179 0.030579004
000040 65 7a bb 3c 3b 36 ad 3d e1 a3 44 3d 73 2b 5e 3c
       0.02288551 0.08457609 0.04800785 0.013560164
000050 8d 63 03 3b cc 01 90 3c 58 ee 98 bd 0e 01 12 bc
       0.002004835 0.017578982 -0.074673355 -0.008911384
000060 f6 63 9c bb d3 c1 0b 3d 6e 4c 55 bc 7d 08 6f 39
       -0.0047726585 0.034120392 -0.013018711 0.00022795978
000070 85 dc 75 bc f6 54 c0 bd 88 f0 0e bd 0f d8 d5 bc
       -0.015006189 -0.09391205 -0.034897357 -0.026104001
000080 af a9 01 3d a5 34 e1 3c 7f a6 49 bd 98 e2 7a bd
       0.031655964 0.027490923 -0.04923105 -0.061251253
000090 87 7d 76 3a dd 92 c1 3d c3 7f 39 3d 15 cf 6d bd
       0.00094028603 0.0945184 0.04528786 -0.058058817
0000a0 24 ee 90 bd 1d 3d af 3c 49 5c 07 bd 98 eb 25 bd
       -0.07076672 0.021391446 -0.033046994 -0.040507883
0000b0 19 ac a0 bd 84 be c0 3c 34 fe 4a 3c a0 fd d0 3d
       -0.07845325 0.023528345 0.012389708 0.10204625
0000c0 e9 d9 4a bd 75 b9 48 bd 56 4a fa ba f7 15 47 3d
       -0.04952422 -0.04900499 -0.001909564 0.04860493
0000d0 3e 18 90 3c 2f 32 b1 bd cb ca 5c 3d d4 1d 05 bc
       0.017589685 -0.0865215 0.053904336 -0.008124787
0000e0 f4 18 2d bc 2b a8 58 bd 31 f5 a6 bd 23 bc 6a bc
       -0.010565031 -0.052894752 -0.08152235 -0.014327082
0000f0 5c 9a d0 bd 1a 9d bd 3c 0e 57 88 bd 70 d1 af bd
       -0.10185692 0.0231462 -0.06657229 -0.08584869
000100 6c e8 75 bd 23 db 26 3d 68 67 15 bd 56 86 a8 bd
       -0.060036108 0.04073633 -0.03647557 -0.082287475
000110 b4 45 10 39 7e 72 bc 3d 53 19 28 3d 85 53 e4 3c
       0.00013758877 0.09201525 0.041039776 0.027871856
000120 26 08 84 bc 15 8a 54 bd cf d3 cc 3c 35 6c 46 3d
       -0.016117167 -0.051889498 0.025003342 0.048443038
000130 ba 27 a1 bd 79 5c 85 3d 0f 4d 91 bd 6c f4 8b bd
       -0.07868905 0.065117784 -0.07094776 -0.06833729
000140 5f 1d b8 bd 28 c2 28 3c 99 19 cd bb 02 9c 93 3b
       -0.08989977 0.010300197 -0.006259155 0.0045046816
000150 c5 5c a4 bd b2 7b 0b bd 79 23 e8 3c f7 de 21 3d
       -0.08025507 -0.034053512 0.028337227 0.039519276
000160 cb a4 a7 bd 87 fc d8 bb 70 dd 74 3c 1a 41 27 bd
       -0.08185729 -0.0066219005 0.014945373 -0.04083357
000170 db 1d 5f 3d 26 b6 9e bd fc cd e4 3c a3 9b 45 bd
       0.05447183 -0.07749586 0.027930252 -0.04824413
000180 e2 df 8f 3d f0 8b 22 bc f1 6a 7e 3d 1a 8a 7d bd
       0.07025124 -0.009921059 0.062113706 -0.061899282
000190 65 4b d2 bd 95 cd a1 3d dc e1 da bc 99 1d b0 3c
       -0.102682866 0.0790054 -0.026719026 0.021498488
0001a0 88 b8 3a 3d e1 1e 34 3d ec e5 74 bb 6c 54 ba bd
       0.04558614 0.04397476 -0.003736849 -0.090981334
0001b0 79 e8 91 bd 30 8f 9d 3d be 16 fb 39 8d e1 de 3c
       -0.07124419 0.076933265 0.00047891395 0.02720716
0001c0 7d d6 1d bc da a5 cd bd c5 8b fc bc 85 72 54 3d
       -0.0096336575 -0.10041399 -0.030828366 0.051867027
0001d0 2b c6 4f 3d 73 ff 94 bd a2 ea e9 bc e9 aa e0 3d
       0.050726097 -0.072752856 -0.028554264 0.109700985
0001e0 39 ce d5 3d 91 00 b8 3d b9 ab 9f 3d 57 f5 58 3d
       0.104397245 0.08984483 0.07796425 0.05296835
0001f0 c5 4e de 3c 4b b2 97 bd 46 67 3d bc bf 5f c3 bd
       0.02713717 -0.074070536 -0.011560267 -0.095397465
000200 e3 45 78 3d 0d 27 21 3d 9d 49 21 3d ec e6 60 3b
       0.060613524 0.039343882 0.039376844 0.0034317328
000210 a0 96 96 bd cc 3e 9b 3d 09 8a be 3c 60 e3 e2 3c
       -0.07352948 0.07580337 0.02325918 0.027696311
000220 65 24 85 bc 05 fb 83 bd 70 d5 db 3c d8 84 a4 bc
       -0.016252706 -0.064443626 0.026835173 -0.020082876
000230 94 3d c9 3d fe ac a9 3c a8 b7 97 3c 1b 1c 81 3d
       0.09826198 0.020712372 0.018520191 0.06304189
000240 8b 73 28 bd 4c 82 94 3d c8 40 dd 3b 59 5a 5f bd
       -0.041125815 0.07251415 0.0067521073 -0.05452952
000250 01 7f 13 3d 8b 49 4f bd d7 6d 57 3d 0e 43 b4 3d
       0.036009792 -0.050607245 0.052594986 0.08801852
000260 35 17 c2 3b 9c 35 fe bc 7d 9f 56 3c 77 1b 8b 3d
       0.0059231766 -0.031031422 0.013099548 0.06792348
000270 66 ff 6d 3d 84 27 9a 3d 98 d1 94 bb 6e 6e 83 bd
       0.058104895 0.07527068 -0.004541587 -0.06417547
000280 3f 71 44 3d e5 ca d8 ba ff fd 09 3d af bc 9a 3d
       0.047959562 -0.001653996 0.033689495 0.0755552
000290 9f 3b 1a bd e1 56 a9 3d 9f ad 5d bd 6f da 59 bd
       -0.037654515 0.08268524 -0.054120656 -0.05318683
0002a0 00 3b 3a 3d 81 ff 94 3d c1 42 78 bc 9d 52 d2 3b
       0.045466423 0.07275296 -0.015152634 0.0064185397
0002b0 50 f5 87 3c a7 f2 15 3d 0d bb 1d bc d6 8b 9f bd
       0.016596466 0.036608364 -0.009627116 -0.077903435
0002c0 8d 94 1b 3d 85 c7 ac bd 5d 3c 82 bd 20 64 b6 bd
       0.037983466 -0.08436493 -0.0635917 -0.08905816
0002d0 44 c0 e4 3c d6 2c 2a 3d d1 5e 5b bd a2 a9 9c 3d
       0.02792371 0.041546665 -0.05355722 0.076495424
0002e0 9f 92 91 bd 12 06 87 3d 8e e6 01 3d 63 fb 01 bd
       -0.07108044 0.06592955 0.031714015 -0.03173388
0002f0 6c d9 70 3d 77 bf 6e 3d 80 1b 9e 3d e4 2b a0 bd
       0.0588011 0.058288064 0.07720089 -0.078208715
000300 a5 3c e4 bc c7 2a 8a bd 25 09 6d 3d 9d ad c7 3c
       -0.027860949 -0.067464404 0.05787005 0.024374777
000310 82 71 47 bd 3f 69 a6 bc ba 81 4d 3d 31 0f c6 3d
       -0.048692234 -0.020313857 0.050172545 0.09670866
000320 ce 4c eb 3a 8f 4c 99 bd 29 04 0b bd 60 33 8c 3d
       0.0017951967 -0.074853055 -0.033939514 0.068457365
000330 e2 a0 6d 3b 56 19 7e 3d a6 3b 94 3d 29 dc f3 bc
       0.0036259224 0.06203588 0.072379395 -0.029768066
000340 b6 ec 34 3d af 56 0a 3c 9c 52 50 bd ee 07 24 bd
       0.044171058 0.008443519 -0.050860032 -0.040046625
000350 48 94 0d 3d e8 fe e2 3b 3d 36 58 3d 0a 4e ad 3d
       0.03456524 0.00692736 0.0527861 0.084621504
000360 da 50 9a bd 8e ac 33 bb 4b 28 34 bd 25 9e 25 3d
       -0.075349525 -0.0027416083 -0.04398374 0.04043402
000370 68 25 f1 3c 6e cd b0 3d 5a 2b 69 3d 12 9b 70 3d
       0.029436782 0.086329326 0.05692611 0.058741637
000380 01 13 99 bd 7e ed 73 bd f2 e2 b1 bd c0 5c 46 bd
       -0.07474328 -0.059552662 -0.086858645 -0.048428297
000390 a6 ba f1 bc 7b c6 86 3d f9 d7 2b bd 57 db 86 3d
       -0.029507946 0.06580826 -0.041954014 0.065848045
0003a0 59 85 ab 3d c2 87 75 3d c5 ed 7d 3d 40 cb 6f 3d
       0.083750434 0.059943922 0.061994333 0.058543444
0003b0 a6 45 8f 3c 01 23 80 bd 08 e7 a2 3d d0 7b 9d 3d
       0.017489266 -0.062566765 0.07954222 0.07689631
0003c0 5c 8f 80 3d 8e c9 5f bd c7 19 1c bc bf 3e 56 3d
       0.06277344 -0.054635577 -0.00952763 0.052305933
0003d0 55 7b 98 bb ed 75 d8 3a ca c2 6b bd 10 8a 60 3d
       -0.004653374 0.0016514637 -0.057558812 0.054819167
0003e0 66 1f 4d 3d 97 cc 90 bc 47 96 88 3d 26 bb 08 bd
       0.050078772 -0.017675681 0.06669288 -0.033381604
0003f0 a3 cf 41 3d 70 78 25 3c 0f 3f 24 bd c2 56 8d 3c
       0.04731716 0.010099515 -0.0400992 0.017253283

bias f4 [128]
000000 89 b8 a9 3c b6 8c ac 3d ad f3 da 3c 88 88 b3 3d
       0.020717876 0.08425276 0.026727522 0.08766276
000010 d4 89 bb 3c ad 52 01 bd ef df 23 3d a6 63 37 3d
       0.02289287 -0.031572986 0.04000848 0.044772767
000020 39 74 0e bd 34 2b 43 3c 8b 64 7f 3d c0 94 52 bd
       -0.034778807 0.011912156 0.062351745 -0.05141139
000030 9a 15 8f 3d 30 84 8a 3d 4a 45 b2 bc 2c 05 7d 3d
       0.06986542 0.06763494 -0.021761555 0.06177251
000040 6d bf a8 3d ee cc ce 3c c4 16 94 bc 36 50 4b bd
       0.082396366 0.025244202 -0.018077262 -0.049637042
000050 ec ac 2b 3d 3a b1 a2 bd 86 b8 d2 3b f0 17 58 bd
       0.041912958 -0.079439595 0.0064306883 -0.052757204
000060 54 d6 de 3c a4 b3 60 3d e2 88 86 3d 27 23 a0 3d
       0.027201809 0.05485882 0.06569077 0.07819205
000070 f8 96 c2 bd 3c a3 9c 3d 89 82 5e 3d 7e 79 53 bd
       -0.09501451 0.07648322 0.054323707 -0.051629536
000080 6a c7 a6 3d 3a fc 47 bd ad 90 a7 3d 07 aa 13 3d
       0.08143504 -0.048824526 0.081818916 0.036050823
000090 fa 63 9b bd 9f 3c 36 3c ea c8 3a bd f6 8a 99 bd
       -0.075874284 0.011122852 -0.045601763 -0.07497208
0000a0 f9 ff 0b 3d 89 17 18 bd ef ad 3f bd c2 12 27 3d
       0.03417966 -0.03713182 -0.046796735 0.040789373
0000b0 0b d6 6c bc 1f 70 35 3d 7f 53 e6 bc cd 23 47 bd
       -0.014455329 0.04429638 -0.028115986 -0.048618127
0000c0 0e 4a 70 3d 7a 6f 67 3d 22 2c 64 bd 16 0b aa 3c
       0.058664374 0.056502797 -0.05570615 0.02075724
0000d0 ea 08 38 3d c4 86 01 bd 34 ff 38 bd 34 2d b0 3d
       0.044930376 -0.031622663 -0.045165256 0.08602372
0000e0 dc 8f b2 3d 8e 0a c5 3c 6a 32 9d 3d 18 6e 57 bd
       0.08718845 0.024052884 0.07675631 -0.052595228
0000f0 d8 cf ac 38 e1 92 a1 3d ec 60 28 bd d5 22 26 bc
       8.240313e-05 0.07889343 -0.041108057 -0.010140141
000100 c3 c5 4e bd 98 d1 3c bd 68 95 3f 3d 6a 9c 99 bd
       -0.05048157 -0.04609832 0.046773344 -0.07500537
000110 fa 97 c2 3d 63 85 a3 3a 44 e4 74 bd e8 1d 81 bd
       0.095016435 0.0012475665 -0.059788004 -0.06304532
000120 0f 1f 7f bd b0 d0 9b 3d bb 06 cc 3d c5 27 2f 3d
       -0.06228548 0.07608163 0.09962221 0.042762537
000130 b7 14 ad 3b 37 cc 21 bc 13 03 f1 bc 06 0b a4 3d
       0.0052820104 -0.009875349 -0.029420411 0.08009915
000140 cd 5d 71 3d 85 b8 e1 3c 6f 38 25 3d ab 4f a8 3d
       0.058927346 0.027553806 0.040337022 0.082183205
000150 3a b3 80 bd 52 49 74 bc aa 3a fa bc e5 4a 20 bd
       -0.06284185 -0.014910059 -0.030545551 -0.039133925
000160 63 4e 41 3b ff 6f cb 3d 55 d9 7d 3d f5 5f d1 bc
       0.0029496185 0.09933471 0.061974842 -0.025558451
000170 64 58 a7 bd 96 f4 95 3c fc 1d 69 3d c6 fd 9f 3d
       -0.08171156 0.018305104 0.05691336 0.07812075
000180 aa c9 32 bd 25 43 95 3d 01 fe 5f bd 82 3f 62 3c
       -0.043649353 0.072881974 -0.054685596 0.013809087
000190 bd 62 a5 bd 30 6d d7 bc fb 9e 1e bd e6 08 87 bd
       -0.080754735 -0.026297182 -0.038725834 -0.06593494
0001a0 d4 27 44 bd 1d 1c 5a 3d 1f 91 fa bc 82 0b e1 3c
       -0.047889546 0.053249467 -0.030586777 0.027471308
0001b0 e6 f2 8b bd 43 9a a1 3c d2 72 79 3d 06 df f6 3c
       -0.068334386 0.019726878 0.060900517 0.030135643
0001c0 38 20 2d 3d 89 33 24 bc eb 71 1a 3d 46 84 cf bb
       0.042267054 -0.010022053 0.037706297 -0.006332907
0001d0 20 0b 6c 3d a2 b3 19 bd 53 9c 24 3d 41 17 11 bb
       0.057627797 -0.037524827 0.040188145 -0.0022139105
0001e0 4c e6 0f 3d 68 e5 a3 3c 9b 10 c4 3d 2b f2 3c 3d
       0.035131738 0.02000685 0.0957348 0.046129387
0001f0 b1 10 69 3d 11 9b 89 3c 4a 35 ed 3c 16 9b 3c bd
       0.056900684 0.016797574 0.028956074 -0.04604634

weight f4 [128, 128]
000000 90 97 89 3d 5e a6 6f 3c c8 80 b4 bc e0 c0 2c 3c
       0.067183614 0.014627067 -0.022034064 0.010544032
000010 2d 82 f3 3c 88 01 89 3d 39 43 37 3d c2 15 1c bd
       0.029725159 0.06689745 0.044741843 -0.038106687
000020 82 54 a5 3d 0d c5 88 bc b4 55 71 3d f2 b2 4d bd
       0.08072759 -0.016695524 0.058919623 -0.050219484
000030 68 29 00 bc ab 70 84 bc 73 98 91 3d de 79 09 bd
       -0.007822372 -0.016167006 0.071091555 -0.033563487
000040 c5 63 60 bd ff 2c 89 bd 64 81 9f 3d 75 c5 ba 3d
       -0.054782648 -0.066980354 0.07788351 0.09119693
000050 2d 00 90 bc 06 d9 41 3d df 9d 62 bc 9f ba b6 bc
       -0.017578209 0.04732611 -0.013831585 -0.022305785
000060 b7 cf 9f bd c0 0c bc 3b 0b b9 50 3d da 57 8d 3b
       -0.0780329 0.0057388246 0.05095772 0.0043134512
000070 6c 55 a5 3d f0 68 b0 bd 98 64 ab bd 80 01 c5 3d
       0.080729336 -0.08613765 -0.08368796 0.09619427
000080 a8 7e cd 3c 57 1c 43 bb 12 1d ae bd 4f 4f 9a 3d
       0.025084808 -0.002977153 -0.085016385 0.07534658
000090 78 d1 8e 3d a7 38 6d 3b d4 03 80 3d cf 62 77 3d
       0.06973547 0.0036197098 0.0625073 0.060396966
0000a0 03 7d ce bb 16 ff 69 bd ea 8f 71 bc 66 cb 88 3d
       -0.0063015237 -0.057128035 -0.014743784 0.0667942
0000b0 3e 49 15 bd 1d c5 67 bd 01 25 ab bd 8d a5 ae 3d
       -0.036446802 -0.056584466 -0.08356667 0.0852767
0000c0 3c 5f 83 3d 3f 19 95 3d 5b c8 46 bc 1e a6 7f 3d
       0.06414649 0.07280206 -0.012132729 0.06241428
0000d0 7d e1 86 bd 61 bb 91 3d 9a 9e fd 3a d4 7f 4c bd
       -0.06585977 0.07115818 0.0019349635 -0.049926594
0000e0 ed 40 8c bd 7e dc 42 bd 90 e1 8c bd b9 50 d6 3c
       -0.06848321 -0.04757356 -0.0687896 0.026161538
0000f0 00 bd fa 3b a0 0d 8b 3d e5 53 67 bd f1 ce 5b bd
       0.007651925 0.06789708 -0.056476492 -0.05366415
000100 41 83 49 bb ca 1b 8a 3d 6a 86 10 bd a5 75 af 3d
       -0.00307484 0.067435816 -0.035284437 0.08567361
000110 e9 aa a0 3d 7d 7f 3a 3d e8 1e 98 3d 27 49 a5 bd
       0.078450985 0.04553174 0.0742777 -0.08070593
000120 85 4f 7f 3d 08 98 a4 bd 7c e3 af bd 65 06 3f 3c
       0.062331695 -0.0803681 -0.08588311 0.011659239
000130 5e 03 9c 3c 98 76 4a bd 6a 50 90 3d b9 32 4e 3d
       0.019044574 -0.049429506 0.07046588 0.05034134
000140 8b 13 2c bd a4 5e be 3d d8 62 8d 3d 0e ea 82 bd
       -0.042010825 0.09295395 0.069036186 -0.06392299
000150 18 b9 09 bd f3 1e 88 bd f9 e2 44 3d 97 c8 f2 3c
       -0.033623785 -0.06646528 0.04806802 0.029636664
000160 83 00 bc bc 4b f5 73 3c 46 60 89 bd 47 7d 09 bd
       -0.022949463 0.014890025 -0.06707816 -0.03356674
000170 18 47 0f 3d 45 ad 3d bb 50 f0 84 3c e9 38 00 3d
       0.03497991 -0.0028942388 0.016227871 0.031304274
000180 02 6b 49 3d 97 0f 92 bc f7 71 8c 3d 6b ef 17 bc
       0.049174316 -0.0178297 0.068576746 -0.00927339
000190 84 22 83 bd c7 da 11 3d 86 9a 00 bd 2b b4 82 bd
       -0.06403068 0.035609033 -0.031397365 -0.063820206
0001a0 ea 7f 26 bc 0f d9 9f bd da 6e 21 3d e0 5f 6c 3d
       -0.010162333 -0.078050725 0.039412357 0.05770862
0001b0 39 e8 4c 3d 7a 8d 2c 3d 45 f3 91 3d 29 6f a9 3c
       0.050026152 0.04212711 0.07126478 0.020682888
0001c0 32 2e 1a 3d ef 52 73 3d 73 c4 ba bc 5c ae 32 bd
       0.03764171 0.059405264 -0.022798752 -0.043623313
0001d0 01 2e 1f 3d 09 72 24 3d a1 b1 7a 3d cf 75 90 3d
       0.038862232 0.040147815 0.061204556 0.0705372
0001e0 04 f6 b8 bd 7f 51 9f bd 3f ec 71 3d 8a 4f 84 bd
       -0.09031299 -0.07779216 0.059063192 -0.06460483
0001f0 f7 c4 2a 3d 4a f0 88 3c c1 e3 b8 3d 58 94 ce bc
       0.041691747 0.016716141 0.090278156 -0.02521722
000200 40 be 89 3d c7 64 3b 3d 4c 3f 29 bd 0f 45 2b bd
       0.067257404 0.045750406 -0.04132013 -0.041813906
000210 0a e0 88 bd da b9 33 3d 45 3e 4c bd b9 5c 0d bd
       -0.06683357 0.043878414 -0.049864072 -0.034512255
000220 1d 3f 21 3c 26 db a4 3d fd 19 8c bd a5 3e 0b bd
       0.009841708 0.08049612 -0.06840894 -0.03399529
000230 3a 8a 50 bd d3 96 5c bd df 4f ee bc 91 f1 48 3d
       -0.050913073 -0.053854775 -0.02909082 0.0490585
000240 8c f1 87 bc 71 e7 d2 bc c6 36 c5 3b 58 f3 81 bd
       -0.01659467 -0.025745125 0.0060184924 -0.06345242
000250 c5 f3 e1 3d ef b5 14 bd e8 bf 66 bd a9 d4 02 bd
       0.110328235 -0.036306318 -0.05633536 -0.03194109
000260 78 84 30 3d 85 2b a1 bd 6e b3 79 3d 57 3f 02 bc
       0.043095082 -0.07869629 0.060962133 -0.007949672
000270 5d 5c 24 bd 5d 35 45 bd b9 bd 7a 3d 90 24 22 bd
       -0.040127147 -0.048146594 0.06121609 -0.03958565
000280 42 b2 0b bd a5 f2 1c 3d 8b 64 d3 3d 7b fd 5c 3d
       -0.034105547 0.03831734 0.103219114 0.053952675
000290 fb ed 8d 3d 2c 5b ac bd 03 c2 1c bd d8 4c cd bc
       0.06930157 -0.08415827 -0.03827096 -0.025061056
0002a0 28 73 99 3d 6e 6c a1 3d 10 de e3 bc fe 12 88 bd
       0.074926674 0.078820094 -0.027815849 -0.066442475
0002b0 8a 04 bb 3d 4a be fc bc 32 c9 68 bd e8 11 9e 3d
       0.09131725 -0.030852456 -0.0568325 0.07718259
0002c0 ac 95 9f 3d fb 58 ba 3c 61 f4 fc bc eb 3b 4b 3d
       0.077922195 0.022747507 -0.030878248 0.04961769
0002d0 3b 04 99 bd 55 b1 b8 3c cb 90 a4 bc ec de d0 3a
       -0.0747151 0.022545496 -0.020088574 0.0015935577
0002e0 a7 9e 27 3d 33 0c 4e 3d 78 17 57 bc 1c 71 f6 3c
       0.040922787 0.050304603 -0.013128154 0.030083232
0002f0 5a 27 4b bc 4d 2d 96 bd 2f 89 a9 bd 4f 3d df bb
       -0.012399519 -0.07332859 -0.08278119 -0.0068127285
000300 0c de 8f bd d9 53 91 3d 7b 52 1f 3d ff c8 5b bd
       -0.07024774 0.07096071 0.03889702 -0.05365848
000310 71 5d db bc 97 e3 89 bd a2 b1 88 3d 8b 15 61 3d
       -0.026777955 -0.067328624 0.06674506 0.054952186
000320 44 84 39 3c 09 cc 89 bd 0e 87 a7 3d cf e6 ca bc
       0.0113230385 -0.0672837 0.081800565 -0.024768261
000330 e5 87 71 bd 77 4e 7e 3c d9 e1 a1 3d bc 59 ef bc
       -0.05896749 0.015521637 0.07904405 -0.029217593
000340 3f 0b f4 3c c1 63 3f 3d 3d b9 13 3d 94 e9 99 3b
       0.029790519 0.046725992 0.03606533 0.004697034
000350 be 1a 72 3c 59 ab 5b 3d d6 a3 66 3d 1e 27 7d 3d
       0.014776884 0.053630207 0.05630859 0.061804883
000360 13 11 08 bd 6b dc f2 3c 91 d4 bb 3d 80 ab 57 3d
       -0.03321941 0.02964612 0.09171403 0.05265379
000370 db c0 ee 39 19 e3 9a bd bc 68 49 bd 2d bb cb 3c
       0.00045538586 -0.07562847 -0.049172148 0.024869526
000380 7d 92 93 bc a6 61 b3 3d 72 30 1e 3d 5d cf a4 bd
       -0.018014187 0.08758859 0.03862042 -0.08047364
000390 ef 61 52 3c b0 51 b5 3b 2f 73 8f bd 91 a5 17 bc
       0.012840732 0.0055334195 -0.070043914 -0.009255783
0003a0 e4 2d 9e 3d 86 f6 b4 3d 8c 89 95 bd ae 0b 52 3d
       0.07723597 0.08836083 -0.073016256 0.05128067
0003b0 c6 77 f9 bc 97 f3 04 3d ed 3b 15 3d 7a 6a 32 3d
       -0.03045262 0.032458868 0.036434103 0.043558575
0003c0 4a ad 95 3d e5 9f c1 3d 5c a5 81 3d a2 44 73 3d
       0.07308443 0.094543256 0.06330368 0.059391625
0003d0 f6 f4 34 bd 0c f5 9e 3d 86 a2 9a bd 83 c8 70 3d
       -0.044178925 0.07761583 -0.0755053 0.058784973
0003e0 44 1a c6 bc 26 37 b6 3d ea 9f ee 3c 45 6f 98 3d
       -0.024182446 0.088972375 0.029128987 0.07443098
0003f0 06 0c 2c 3d 5a b9 03 bd d7 8e c5 bb 0a 0a f1 bc
       0.042003654 -0.032159187 -0.0060289907 -0.029423732

bias f4 [128]
000000 4f 43 2b bd c8 42 ec 3c 43 e9 06 3d c6 e3 56 bd
       -0.041812237 0.028840438 0.0329373 -0.052463315
000010 11 ee d2 bc ec 3b c0 bd 6c 16 8e 3c 1e b2 7e bc
       -0.025748285 -0.09386429 0.017344676 -0.015545396
000020 38 9f ec bc 8e 72 84 3d 9e be ae bd f5 c5 73 bd
       -0.028884515 0.06467162 -0.08532451 -0.05951496
000030 a9 27 7c 3d 67 97 42 3c 54 03 7c bd 10 fd a1 3d
       0.06156126 0.011876917 -0.06152661 0.07909596
000040 f4 c7 ce bc 5b 68 22 bd 5f 67 5d 3d bc 0b e3 3c
       -0.02524183 -0.039650302 0.05405366 0.027715556
000050 cf 1b a6 3d 07 05 9a 3c 65 d2 a4 bc 70 13 28 bc
       0.08110773 0.018801225 -0.020119855 -0.0102585405
000060 2d 95 8f 3d 16 1a 98 3d 80 22 38 3d 89 a3 5a 3d
       0.07010875 0.074268505 0.044954777 0.053378616
000070 e4 16 10 3d bb ca f3 bc ea a7 ea bc f5 d3 a9 bb
       0.03517808 -0.029759755 -0.02864452 -0.005182738
000080 36 db 4f bd 57 0e c6 3d f8 c0 a0 3d 11 a1 1f bd
       -0.050746165 0.09670704 0.07849306 -0.038971964
000090 a4 17 42 3d 3e a9 58 ba a2 db 98 3d f2 eb f8 bc
       0.047385827 -0.0008264965 0.07463767 -0.030385945
0000a0 8b 0c c2 3d 6b cf ce 3b 37 79 6a 3d 96 29 86 3d
       0.09475049 0.0063113472 0.057244506 0.06550901
0000b0 b7 c4 ce 3a a4 19 12 3c 91 9b 1f 3b c9 1d 93 bd
       0.0015775178 0.008917246 0.00243542 -0.071834154
0000c0 7a 06 dc 3c 39 1a ff 3c 66 81 e3 bc 5b bc ba 3c
       0.026858557 0.031140434 -0.027771663 0.022794893
0000d0 d7 fa 9e 3d 69 93 8a bd 58 bf a7 3d a6 8c 74 3c
       0.07762688 -0.067663975 0.08190793 0.014926111
0000e0 20 6b 53 3d f7 c5 07 3d 07 17 8c 3d 78 40 a2 3d
       0.051615834 0.03314778 0.068403296 0.07922453
0000f0 e0 29 36 3d ad 75 0c bc ba 91 7c bc a3 b4 9c bd
       0.04447353 -0.008572978 -0.015415603 -0.07651641
000100 13 c7 b2 bd eb 0c a6 bd d9 f9 b9 3d fd 11 aa bd
       -0.08729377 -0.08107933 0.09080858 -0.08304212
000110 a4 73 6f 3d ae 13 a1 bd 3d 41 ba 3d 13 03 16 3d
       0.058459893 -0.07865082 0.090944745 0.036624026
000120 ca 5f ff 3c f5 ed 0c bc 55 1b ac bc da c1 b9 3d
       0.031173605 -0.008601655 -0.021009127 0.090701774
000130 5a 3a 61 3c 45 44 8c b7 4b c2 cb 3c 14 b4 9f 3d
       0.013746822 -1.6721091e-05 0.02487292 0.07798019
000140 6c 80 71 bc 32 bd 59 3d 8a e2 85 bb f2 5a 14 bd
       -0.014740091 0.053158946 -0.0040858435 -0.036219545
000150 31 a3 f4 3c ee 58 bd 3c 0a 60 34 bd a8 46 5d bd
       0.029862972 0.023113694 -0.044036902 -0.05402246
000160 6f 2c 74 bd 3c 0f 6f bd 61 9d ac 3d 64 5e 81 3d
       -0.059612688 -0.058364138 0.08428455 0.06316832
000170 8f d4 8f bd a5 eb a6 3d 6c 5f dd bb 3b ef 12 bb
       -0.07022964 0.081504144 -0.00675576 -0.0022420425
000180 95 2a 50 3d 16 c2 98 3d fe d0 9a 3b 89 31 e5 3c
       0.05082186 0.07458894 0.004724621 0.027977722
000190 ef 01 b9 3c a4 fc a7 bd 52 68 a0 3c 7f 69 94 bd
       0.02258393 -0.08202484 0.019580994 -0.07246684
0001a0 1f af a7 3d 66 60 79 bd b4 3a e1 3c 6b 0d ab 3d
       0.081876986 -0.06088295 0.027493812 0.08352169
0001b0 94 0d 93 3d 24 f5 9e bd b9 bc 90 bc 42 ea 74 3d
       0.07180324 -0.077616006 -0.017668115 0.05979372
0001c0 e8 05 56 bd 58 d0 80 bb c1 02 c8 bc ac 15 a7 3c
       -0.052251726 -0.0039310865 -0.024415376 0.020396076
0001d0 07 1a 3c 3d bb c9 07 3d d9 70 29 3d 42 e2 1a bc
       0.04592326 0.03315137 0.041367386 -0.009453358
0001e0 d4 b9 67 bd f2 7f 82 3d bb 19 8e 3d 0f 3c 8c 3d
       -0.056573704 0.0637206 0.069385014 0.06847393
0001f0 3f ee 88 bd fb 70 8a bc cc dc 68 bd 73 e0 40 bd
       -0.06686067 -0.016899576 -0.056851193 -0.04708905

weight f4 [1, 128]
000000 41 9d b3 bd 2d 2f 70 3d d3 bd 81 3c 6e df 32 3a
       -0.08770228 0.05863874 0.015837586 0.0006823455
000010 da a1 c1 bd 13 4b 06 3d 30 25 90 3b 80 16 50 3c
       -0.09454699 0.03278644 0.0043989643 0.012700677
000020 cf 09 46 bc ed ae 14 bd 28 1f 12 3d b7 74 ce 3c
       -0.0120872995 -0.036299635 0.035674244 0.025202138
000030 7b 34 af bc 36 80 84 3d b4 9a 85 3d 56 fd 02 3d
       -0.02138733 0.06469767 0.06523648 0.03197988
000040 5b 62 bc 3c aa 48 48 bd af af 33 bd ef a0 68 bd
       0.022996118 -0.048897423 -0.043868717 -0.056794103
000050 20 86 4b 3d 0d 2c 23 3d 7e 68 9b bd fc b7 18 bd
       0.04968846 0.039836932 -0.0758829 -0.037284836
000060 26 c2 95 3d 1f d4 b2 3d 2f 87 27 3d cc 91 29 3c
       0.073124215 0.08731865 0.040900405 0.010349702
000070 ed f4 83 bd d7 00 25 bd 91 d2 06 3b 53 47 87 bb
       -0.064432 -0.040284004 0.0020572285 -0.0041283756
000080 f5 ce 5f bd 68 8c cd 3d f0 f9 50 3d 0a f8 66 3d
       -0.05464073 0.10036546 0.05101961 0.056388892
000090 cd c6 90 bd 0c 50 b5 3c cc 87 84 3d 3e 92 41 3d
       -0.07069168 0.022132896 0.06471214 0.047258608
0000a0 e8 36 ba 3d dc 1f 05 bd 80 e9 6d bd fa 91 20 bd
       0.09092504 -0.032501087 -0.05808401 -0.039201714
0000b0 02 3f d2 bd 26 41 b5 3d 11 cb 69 bd 3d 3e 5d 3d
       -0.10265924 0.08850317 -0.057078425 0.054014433
0000c0 66 0c 70 3d cd 71 c9 3c 62 37 eb 3c 69 d2 ab bd
       0.058605574 0.024590397 0.028712932 -0.08389742
0000d0 51 21 88 3c e6 13 34 bd de 37 ce 3c 10 b2 09 3d
       0.016617449 -0.04396429 0.025173124 0.03361708
0000e0 16 13 de 3c 80 67 9a 3d 27 55 00 bc 14 39 b5 3d
       0.02710871 0.07539272 -0.007832802 0.088487774
0000f0 a7 41 9c bd 97 0f cc bd 68 af bf 3c cb d2 5c 3d
       -0.0762971 -0.09963911 0.02339907 0.053911965
000100 89 bd 87 3d ee 45 24 3d 38 21 b1 3d 9b 38 b9 3c
       0.06627948 0.040105753 0.08648914 0.02261
000110 94 2e 59 bd 70 4b 73 bd e2 5d 29 3d 22 18 2a 3d
       -0.053022936 -0.059398115 0.0413493 0.04152692
000120 7a f8 24 3d 4d 64 51 bd 21 f6 74 bc e4 20 09 3d
       0.04027603 -0.051121045 -0.01495126 0.033478633
000130 a8 6c 0c 3d 0c 54 a4 bc 37 fe 52 bd db 90 67 3d
       0.03428331 -0.020059608 -0.05151197 0.05653463
000140 de 13 0e bd 32 aa 25 3d 2f cf c9 bd 52 a9 89 3d
       -0.034686916 0.040445514 -0.0985397 0.067217484
000150 3d b1 36 bd 43 c4 64 bd de 3b 4b 3c f2 15 82 3c
       -0.04460262 -0.055851232 0.01240441 0.015879605
000160 82 e8 33 3b d4 e6 ac bd 81 2c 4f bd e8 f2 91 3d
       0.0027451818 -0.084424645 -0.05057955 0.07126409
000170 e6 e4 c8 3c f2 d1 32 3d 93 c1 ad 3d 19 f4 8b bc
       0.02452321 0.04365725 0.08484187 -0.017084168
000180 d6 88 d4 bd 37 10 27 bd db 64 a4 bd 5c 9a 85 3c
       -0.10377662 -0.040786948 -0.08027049 0.016308956
000190 09 1b 7f 3d f6 76 b0 3d 62 52 ec 3c a7 fd e0 3c
       0.062281642 0.0861644 0.028847877 0.0274647
0001a0 a3 52 06 3d aa 64 98 3d de b9 ac 3c 03 f8 0d 3d
       0.032793652 0.07441075 0.021084722 0.03466035
0001b0 cc f5 9a bd c6 fa 64 3a 53 c3 d0 bd 63 ab 61 3d
       -0.07566413 0.0008734878 -0.10193505 0.055095088
0001c0 5c 92 b7 39 31 d4 48 3d d4 4b 8b bd 3c 03 9e 3d
       0.00035013526 0.049030486 -0.068015724 0.07715461
0001d0 15 34 07 3d 58 20 37 3d 66 c5 2c 3c 65 8d 3f 3d
       0.033008654 0.04470858 0.01054511 0.046765704
0001e0 62 be a7 3d 34 0a c2 3d 60 78 9d bd ba 02 d6 bd
       0.081906095 0.09474602 -0.07688975 -0.10449739
0001f0 b1 31 a4 bd 80 40 1f 3d a4 7e 9d bd d9 1c c0 bb
       -0.080172904 0.03887987 -0.076901704 -0.005862814
