Dry fermentation prediction and optimization system/optimize_percolate_tank/Predictor_Percolate Tank Biogas Production/models/NeuralNetTorch_BAG_L1/S1F2/temp_net.params (torch, 206791 bytes, 9 tensors)

weight f4 [128, 4]
0	0xbba6d21d	-0.0050909654
1	0x3e89b62d	0.26896802
2	0xbed29430	-0.41128683
3	0xbebd3427	-0.36953852
4	0xbe43aba9	-0.19108452
5	0x3e0af767	0.13570939
6	0xbc2b0702	-0.0104386825
7	0x3eca489b	0.3950852
8	0xbd31fa23	-0.04345144
9	0x3e087547	0.13325988
10	0xbe1a59c0	-0.150733
11	0xbdc78fd0	-0.09744227
12	0xbef53a86	-0.47896212
13	0xbea8fb3e	-0.33004183
14	0xbe5214c5	-0.20515735
15	0x3ca3dc34	0.020002462
16	0x3e4b676d	0.19863673
17	0x3e9a3097	0.30115196
18	0xbead75fc	-0.33879077
19	0xbe6078ec	-0.21921128
20	0x3e3baec3	0.18328385
21	0x3ed55476	0.41666
22	0xbdd11823	-0.10209682
23	0x3ebebff8	0.37255836
24	0xbda27111	-0.07931722
25	0x3d5c55fe	0.053792946
26	0x3ee6e54a	0.4509681
27	0xbeece8b4	-0.46271288
28	0xbea1f24a	-0.31630164
29	0xbe0290ec	-0.12750596
30	0xbe48bf00	-0.1960411
31	0x3edd985d	0.43280306
32	0xbea6c7df	-0.32574365
33	0xbe6c0bba	-0.23051348
34	0xbeb2e852	-0.3494287
35	0xbeef4367	-0.4673111
36	0xbe962266	-0.2932312
37	0x3edb5ad2	0.42842728
38	0x3e634c5d	0.22197099
39	0x3e79e67e	0.24404332
40	0x3ce41e0e	0.027846362
41	0xbe838fe3	-0.25695714
42	0x3db070bb	0.08615252
43	0xbeefb51d	-0.46817866
44	0xbeb97214	-0.36219847
45	0xbe84a1f7	-0.2590482
46	0x3ea221e7	0.3166649
47	0x3e956205	0.29176345
48	0xbe644515	-0.22291978
49	0xbc91b059	-0.017784284
50	0x3ea33f7c	0.31884372
51	0x3eff3661	0.49846175
52	0x3e49cbab	0.197066
53	0x3d879abe	0.066213116
54	0x3eabcbdd	0.33553973
55	0xbe96fdbf	-0.29490468
56	0x3dc08ff2	0.094024554
57	0xbec651a0	-0.3873415
58	0xbeb10585	-0.34574524
59	0xbe838c67	-0.25693056
60	0x3e6974d5	0.22798474
61	0x3e4f828c	0.20264643
62	0xbe978357	-0.29592392
63	0x3e1999fc	0.15000147
64	0x3e8d6f16	0.27623814
65	0xbd7be012	-0.061492987
66	0x3c8e7069	0.017387586
67	0x3df011dd	0.11722157
68	0x3e9e0814	0.30865538
69	0x3ef4f11e	0.47840208
70	0xbec568af	-0.3855643
71	0xbe3ab08b	-0.18231408
72	0x3e47b796	0.19503626
73	0x3ed3ec85	0.41391388
74	0x3edf087f	0.4356117
75	0x3ee1d2f5	0.4410626
76	0x3dca0fad	0.09866271
77	0xbeddc57d	-0.43314734
78	0x3d4094cf	0.047016915
79	0xbe9fd646	-0.31218165
80	0xbeee646e	-0.46560997
81	0x3ee3f6de	0.44524282
82	0x3ec2cc45	0.3804647
83	0xbefece1b	-0.4976662
84	0x3dbd8f1c	0.092558116
85	0xbdab5fdc	-0.08367893
86	0xbda64e51	-0.081204064
87	0xbe6ab42d	-0.22920294
88	0x3e4343f5	0.19068892
89	0xbe96d19e	-0.294568
90	0x3e3a8c92	0.18217686
91	0x3e8213dc	0.25405777
92	0x3eb6a7ea	0.35674983
93	0x3e3dfb08	0.18552792
94	0xbefd94d4	-0.4952761
95	0xbea6ccea	-0.32578212
96	0x3e805fe6	0.25073165
97	0x3dd79b8a	0.105277136
98	0xbec7439a	-0.38918763
99	0xbe940ede	-0.28917593
100	0x3eeff67e	0.46867746
101	0x3eac1598	0.33610225
102	0xbe61018e	-0.2197325
103	0xbe00b47b	-0.12568848
104	0xbef44c38	-0.477144
105	0xbc28d25e	-0.010304062
106	0xbebfee14	-0.37486327
107	0xbec52e30	-0.385118
108	0xbcd4a7bc	-0.025958888
109	0x3d9d1074	0.07669154
110	0xbe516aeb	-0.20450942
111	0x3e97e144	0.29664052
112	0xbe9c7469	-0.30557564
113	0x3ee7ac87	0.45248815
114	0x3eafdbfc	0.34347522
115	0xbed86177	-0.4226186
116	0xbe00e104	-0.12585837
117	0x3cadd6d4	0.021220602
118	0x3d98c930	0.074602485
119	0x3df2c888	0.118546546
120	0x3e48a897	0.19595562
121	0x3cf48e8b	0.029853126
122	0xbe79208d	-0.24328823
123	0x3e7181cf	0.23584674
124	0xbef5b316	-0.47988194
125	0xbe97ebc9	-0.29672077
126	0xbdfdc271	-0.123906024
127	0xbe7b00bb	-0.24511997
128	0xbe346060	-0.17614889
129	0xbed28786	-0.4111902
130	0xbdd98129	-0.106203385
131	0x3ddddcf9	0.10833163
132	0xbea6a8e5	-0.3255073
133	0xbcd5a7ef	-0.026081054
134	0x3eb75ddb	0.35813794
135	0xbd522fa8	-0.05131498
136	0x3c6f23f3	0.014595973
137	0xbd2d4e7e	-0.042311184
138	0x3dd0a3c3	0.10187485
139	0x3ea22131	0.31665948
140	0x3ef1aa07	0.47200033
141	0x3ea1beb0	0.31590796
142	0x3ef2ae00	0.47398376
143	0xbd0f7f27	-0.03503337
144	0xbee647c4	-0.44976628
145	0xbe71b81a	-0.23605385
146	0x3eadb22a	0.3392499
147	0xbb4e50af	-0.0031481197
148	0xbe7e1c74	-0.24815542
149	0xbec40549	-0.38285282
150	0xbeefff1d	-0.46874323
151	0xbed7c26f	-0.4214053
152	0xbdcf396f	-0.101183765
153	0x3e8c39ee	0.27387947
154	0x3e8a98db	0.27069744
155	0xbef6e3eb	-0.48220763
156	0x3e9f16f1	0.3107219
157	0xbec7a8f7	-0.38996097
158	0xbdd8619b	-0.10565492
159	0xbe50c734	-0.2038849
160	0xbdc60a00	-0.09669876
161	0xbdc6c5d3	-0.09705701
162	0xbee52fa0	-0.44762897
163	0xbedc8f54	-0.430781
164	0xbd9dfe78	-0.07714552
165	0x3c00778f	0.007841005
166	0xbe697414	-0.22798187
167	0x3e421207	0.1895219
168	0xbee6f2f8	-0.45107245
169	0xbd0dc467	-0.034611132
170	0x3ee0de48	0.43919587
171	0xbe4fb4ff	-0.20283888
172	0x3ee6fb76	0.45113724
173	0x3e382e46	0.17986402
174	0xbee7a91d	-0.4524621
175	0x3ea177a1	0.31536582
176	0xbd6cb634	-0.05779095
177	0xbe6636fe	-0.22481915
178	0x3ecce36f	0.40017268
179	0xbeced8fd	-0.40399924
180	0x3d5527ea	0.05204002
181	0xbdd92d76	-0.10604374
182	0x3eb68397	0.3564727
183	0x3e10bacd	0.14133759
184	0x3e768ee9	0.24077953
185	0x3e33835c	0.17530578
186	0xbdf45aff	-0.11931419
187	0xbdd97533	-0.10618057
188	0xbed242de	-0.4106664
189	0x3e8b9253	0.27260074
190	0x3ecbc41e	0.39798063
191	0x3eae5156	0.3404643
192	0xbeb3c968	-0.35114598
193	0x3cc300fa	0.023804177
194	0xbeb53a07	-0.35395834
195	0xbe8d4166	-0.27588958
196	0xbe94a37c	-0.2903098
197	0x3e2fc4b4	0.1716488
198	0xbe989522	-0.2980128
199	0xbc1ff1ab	-0.009762208
200	0x3c9e98a3	0.019359892
201	0x3ea4858e	0.32133144
202	0xbec16dc7	-0.37779066
203	0xbeaf1eae	-0.34203094
204	0xbe93cff7	-0.28869602
205	0x3eb40117	0.3515708
206	0xbe380325	-0.1796995
207	0x3ed7424a	0.42042762
208	0x3e38ee6b	0.18059699
209	0x3d7edc7c	0.06222199
210	0xbba5c5d9	-0.0050589857
211	0xbdc81a31	-0.097706206
212	0x3d7cf426	0.061756276
213	0xbdea49ec	-0.11439881
214	0xbb088011	-0.0020828287
215	0x3d7e6c96	0.062115274
216	0xbec89fc5	-0.39184394
217	0xbe86414e	-0.262217
218	0x3ecef78d	0.4042324
219	0xbecf88bf	-0.40534016
220	0xbd0c364a	-0.03423146
221	0x3efe2707	0.4963915
222	0x3e3a280c	0.18179339
223	0x3c50be4d	0.012740684
224	0xbedd387f	-0.43207166
225	0x3e7ef600	0.24898529
226	0xbeb59a09	-0.35469082
227	0xbe113d56	-0.14183554
228	0xbe2c1bfc	-0.1680755
229	0xbd9ac1fb	-0.0755653
230	0x3b75dc9c	0.0037515527
231	0x3ed40990	0.41413546
232	0x3d818280	0.06323719
233	0x3ee5b0c7	0.44861433
234	0x3e9d75cd	0.30753937
235	0xbea2a570	-0.31766844
236	0x3e66924c	0.22516745
237	0xbeb565a4	-0.35429108
238	0xbe584265	-0.21119078
239	0x3e170275	0.14747031
240	0x3e29c0e2	0.16577485
241	0x3ec0e39e	0.37673658
242	0xbe24f3b2	-0.16108587
243	0x3ae8436d	0.001772029
244	0x3e8478a3	0.2587329
245	0xbef81ee7	-0.48461077
246	0x3eb991a3	0.36243924
247	0xbed4204f	-0.414309
248	0x3baf5a3c	0.005351333
249	0xbdac06f8	-0.08399767
250	0xbe8627b3	-0.26202163
251	0x3d8a0035	0.06738321
252	0x3ed3b812	0.41351372
253	0xbe169909	-0.14706816
254	0xbe9757a4	-0.29559052
255	0xbe3c27ca	-0.18374553

bias f4 [128]
0	0xbe0c95e1	-0.1372905
1	0xbe3ebd0b	-0.18626802
2	0x3e0103eb	0.12599151
3	0x3e34e65c	0.17666
4	0xbe78ab69	-0.24284138
5	0x3d331027	0.043716576
6	0x3e93d73e	0.28875154
7	0xbd4ba611	-0.04971892
8	0x3e1acf0b	0.15118043
9	0xbdf9258b	-0.12165364
10	0x3e351964	0.17685467
11	0xbeb8fc81	-0.36130145
12	0xbe9600af	-0.29297397
13	0xbe82b927	-0.25531885
14	0x3eeab7ac	0.45843256
15	0xbe07f8ea	-0.13278547
16	0x39b88346	0.0003519302
17	0xbe79dbe6	-0.24400291
18	0x3efef400	0.49795532
19	0x3ef9b278	0.48768973
20	0xbec09a01	-0.37617496
21	0xbecfaa37	-0.4055955
22	0xbec2d783	-0.38055047
23	0xbb8315e6	-0.004000413
24	0xbe023747	-0.12716399
25	0xbea87403	-0.3290101
26	0xbe38f073	-0.18060474
27	0x3dc4eb8c	0.096152395
28	0xbe8543cc	-0.26028287
29	0x3de13646	0.1099668
30	0xbde9e090	-0.11419785
31	0xbe76ff55	-0.24120839
32	0x3d8ec200	0.06970596
33	0x3ed25386	0.41079348
34	0xbead55c9	-0.3385451
35	0x3cb0b36f	0.021569936
36	0xbe3c32dd	-0.18378778
37	0x3efb805b	0.49121365
38	0xbef2ddf8	-0.47434974
39	0xbef52a07	-0.47883627
40	0x3efb9f87	0.49145147
41	0xbea16a8d	-0.31526604
42	0x3dc566cd	0.09638748
43	0xbd317b0d	-0.04333024
44	0xbdd6549b	-0.10465356
45	0xbde44f4f	-0.111479394
46	0x3ea37cc4	0.31931126
47	0x3cd158f2	0.025555108
48	0xbef8700f	-0.48522994
49	0xbe97025b	-0.29493985
50	0xbe301690	-0.17196107
51	0x3e8172af	0.2528281
52	0xbea61528	-0.32438016
53	0x3ef175b3	0.4716011
54	0xbde72f54	-0.11288324
55	0xbdb43a13	-0.08800139
56	0x3ec82fb2	0.3909889
57	0x3e816abe	0.2527675
58	0x3eda0066	0.4257843
59	0x3e94eed9	0.29088476
60	0xbe1b165d	-0.1514525
61	0xbea91170	-0.33021116
62	0xbd1f589f	-0.038902875
63	0x3ed3b3e6	0.4134819
64	0xbe2d6840	-0.169343
65	0xbeee0586	-0.4648859
66	0x3e5067de	0.20352122
67	0x3ef92b22	0.4866572
68	0xbe13578a	-0.14388862
69	0xbed4c808	-0.41558862
70	0xbee8496f	-0.45368525
71	0x3dfd6b95	0.12374035
72	0xbd15582f	-0.03646105
73	0xbe806b24	-0.25081742
74	0x3dd26580	0.10273266
75	0x3e410056	0.18847784
76	0x3ecb95cd	0.39762726
77	0x3ec60354	0.38674414
78	0xbd97fe85	-0.074215926
79	0xbee1924b	-0.44056925
80	0xbee78b39	-0.45223406
81	0x3eefe46a	0.46853954
82	0x3e60d164	0.21954876
83	0x3e5d91b2	0.2163761
84	0xbede0bb4	-0.43368304
85	0x3eec36ed	0.46135655
86	0x3ef368f9	0.47541025
87	0x3ee64507	0.4497454
88	0xbed7a103	-0.4211503
89	0xbe4193c4	-0.18904024
90	0xbeafaae8	-0.3431008
91	0x3ef1a2c3	0.4719449
92	0xbe5afaf4	-0.21384794
93	0xbe6a877c	-0.22903246
94	0x3e855fa5	0.26049533
95	0xbe6c43ed	-0.23072787
96	0xbe7a60cf	-0.24450992
97	0xbd364c14	-0.044506148
98	0xbd3e9487	-0.046528365
99	0xbec6aa1d	-0.3880166
100	0x3ed64045	0.4184591
101	0xbe634060	-0.22192526
102	0x3e34e4ff	0.1766548
103	0x3edf893b	0.43659386
104	0x3e8160b3	0.25269088
105	0x3d9241fe	0.07141493
106	0x3eda697d	0.42658606
107	0x3d8be295	0.068303265
108	0xbe6e3573	-0.23262577
109	0x3ef311c2	0.47474486
110	0x3df06da7	0.117396645
111	0xbef8eeea	-0.48619777
112	0xbe135803	-0.14389043
113	0xbeaf07fb	-0.34185776
114	0x3ee14cc6	0.44003886
115	0xbdab7b92	-0.083731785
116	0xbee96ecb	-0.4559234
117	0xbd06d367	-0.032916453
118	0x3ea086df	0.31352898
119	0x3e059113	0.13043623
120	0x3e2393e4	0.15974385
121	0x3d43a7bb	0.047767382
122	0x3e408cfd	0.18803783
123	0xbdf88837	-0.12135356
124	0xbe4cd177	-0.2000178
125	0xbeeed09b	-0.46643528
126	0xbebffbe0	-0.37496853
127	0x3e5e59f9	0.2171401

weight f4 [128, 128]
0	0xbd5afd33	-0.053464126
1	0x3c4623fe	0.012093542
2	0x3cda4e9b	0.02664881
3	0x3bd5a4a7	0.006519872
4	0xbd705a3a	-0.058679797
5	0x3da9afbb	0.08285471
6	0xbd57f283	-0.05272151
7	0x3d95fa01	0.07323075
8	0xbd8ca684	-0.06867698
9	0xbcbbb88e	-0.022915151
10	0x3d402427	0.046909478
11	0xbd1756f6	-0.036948167
12	0x3d960d41	0.07326747
13	0xbd7cdfb4	-0.061736777
14	0xbd9ae384	-0.075629264
15	0xbd292e0d	-0.041303683
16	0x3c4e1157	0.012577376
17	0x3da399f8	0.079883516
18	0xbd337115	-0.043809015
19	0x3cf7652e	0.030199613
20	0xbcc06634	-0.023486234
21	0xbc961430	-0.018320173
22	0x3d82e229	0.06390793
23	0xbd8f31ce	-0.06991921
24	0x3c082a21	0.008310826
25	0x3da72ced	0.08162866
26	0xbc2c9d6b	-0.010535578
27	0x3d89a3bc	0.06720683
28	0xbce9cc6c	-0.028539859
29	0x3d8e5009	0.06948859
30	0xbdb278b7	-0.08714431
31	0xbc442472	-0.01197158
32	0xbc871535	-0.016489604
33	0x3cdf60c3	0.02726782
34	0x3d0a44ba	0.03375695
35	0x3d87cbc3	0.06630661
36	0xbc6b6654	-0.014367659
37	0xbb81083d	-0.0039377497
38	0x3d733e40	0.059385538
39	0xbcc8607f	-0.024460075
40	0x3d9c0f5c	0.07620117
41	0xbd70ec51	-0.05881912
42	0xbc2e5185	-0.010639553
43	0xbbd0c009	-0.0063705486
44	0x3d25b49d	0.04045545
45	0x3d74c3ec	0.05975716
46	0xbc8027f5	-0.015644053
47	0xbd99590f	-0.0748769
48	0x3d33d30d	0.043902446
49	0x3cd17869	0.025570111
50	0x3d0c43d1	0.034244362
51	0xbd6584fe	-0.056035034
52	0x3d68ec97	0.056866255
53	0x3da82315	0.08209816
54	0x3c097a58	0.008390985
55	0xbdac78b4	-0.0842146
56	0x3d7e1af2	0.062037416
57	0xbd86bbfa	-0.065788224
58	0x3c99b642	0.018763665
59	0x3c3b013e	0.01141387
60	0xbd2f148b	-0.0427442
61	0x3cf51bff	0.029920576
62	0xbda4f9bc	-0.080554456
63	0x3c97e343	0.018540984
64	0xbd6573f1	-0.056018773
65	0xbc204b45	-0.009783571
66	0x3c2111be	0.00983089
67	0x3d96dfec	0.073669285
68	0xbd2c07ba	-0.041999556
69	0x3d61828e	0.055056147
70	0xbc42e72a	-0.011895934
71	0xbd32b455	-0.04362901
72	0xbda0085e	-0.07814096
73	0xbda82efa	-0.08212085
74	0x3dad9471	0.084755786
75	0xbcb1ce61	-0.021704854
76	0x3b416315	0.002950852
77	0x3cb6f4bb	0.022333493
78	0x3d6fd88d	0.05855613
79	0x3d9851c4	0.074374706
80	0x3d9082cf	0.070562
81	0xbd89810d	-0.067140676
82	0xbc7d98f9	-0.015478366
83	0xbd5d0738	-0.053961962
84	0xbd553a91	-0.052057806
85	0x3c9eccfb	0.019384852
86	0x3da6ac81	0.08138371
87	0xbd9209d0	-0.07130778
88	0x3d5698f6	0.05239197
89	0xbd3ebcd2	-0.04656679
90	0xbc85dd0c	-0.016340755
91	0x3d8c6356	0.06854884
92	0xbc9e244b	-0.019304415
93	0x3c1d4ccb	0.009600828
94	0xbd81dd42	-0.0634103
95	0x3d96a14c	0.07354984
96	0xbc579ee7	-0.013160444
97	0xbd87b0ca	-0.06625517
98	0x3cd5ee81	0.026114704
99	0xbd83aa76	-0.06428997
100	0xbd931127	-0.07181006
101	0x3b85c118	0.0040818565
102	0x3d8c50f7	0.0685138
103	0xbcda3265	-0.026635358
104	0x3d24a715	0.040198404
105	0x3d98a6ad	0.07453666
106	0x3d6a6633	0.05722637
107	0xbd43d2c6	-0.04780843
108	0xbc36e59e	-0.011163143
109	0xbcede2c6	-0.029038798
110	0xbd8f5d82	-0.07000257
111	0xba3dd6d4	-0.000724179
112	0x3d85a1ed	0.065250255
113	0x3d954025	0.07287625
114	0x3bd9b5e0	0.0066439956
115	0x3c9e929d	0.01935702
116	0xbd1e912b	-0.03871266
117	0x3d86771f	0.06565689
118	0xbd1ce02c	-0.038299724
119	0xbd788bc0	-0.06068015
120	0x3c659e37	0.014014772
121	0x3d52f361	0.051501635
122	0xbda635a3	-0.08115699
123	0x3da11737	0.07865756
124	0x3cfd8a80	0.030949831
125	0xbd81513c	-0.06314322
126	0xbca8db9f	-0.020612536
127	0x3d9a1038	0.07522625
128	0xbd89672c	-0.067091316
129	0xbcd4c84c	-0.025974415
130	0x3cea0036	0.028564554
131	0xbda10957	-0.078631096
132	0x3d45383a	0.048149325
133	0x3d3bd1a4	0.045854226
134	0x3d65f36c	0.05614035
135	0xbd6c7bba	-0.057735182
136	0x3db5b748	0.08872849
137	0xbd549fc6	-0.051910184
138	0x3db7d9a4	0.089770585
139	0xbdae5c24	-0.08513668
140	0xbda1f0e0	-0.079072714
141	0x3d61d384	0.055133358
142	0x3c140d77	0.009036413
143	0x3b936ab9	0.0044988063
144	0xbd4269d5	-0.04746421
145	0xbd17c3c9	-0.03705195
146	0xbcc94675	-0.02456973
147	0xbdad4204	-0.08459857
148	0x3bbe1824	0.0058012176
149	0x3c8c7b11	0.017148526
150	0x3ab2165c	0.0013586986
151	0x3ce68d89	0.028143661
152	0x3dab05ff	0.08350753
153	0x3cca14ac	0.02466806
154	0xbd0233c1	-0.031787638
155	0xbd167d63	-0.03674067
156	0xbd62b0a9	-0.055344258
157	0xbd7af0a1	-0.061264638
158	0xbc684b8a	-0.014178166
159	0xbc8c9d49	-0.017164843
160	0x3d2212d3	0.039568733
161	0xbd17b0d0	-0.037033856
162	0x3d8ee5f0	0.06977451
163	0xbd785146	-0.060624383
164	0x3a204d6a	0.0006115051
165	0x3da1a248	0.07892281
166	0x3db6b36e	0.08920942
167	0xbd4b5980	-0.0496459
168	0x3c7d5926	0.015463149
169	0x3c149e1d	0.0090709
170	0xbd273bba	-0.040828444
171	0xbcfece68	-0.031104282
172	0x3cce07a4	0.025150128
173	0xbd796bc2	-0.06089378
174	0x3c82a8e2	0.01594967
175	0x3d1cf066	0.0383152
176	0xbd12cdd3	-0.03584082
177	0x3d9396e9	0.07206518
178	0xbbca7372	-0.006178313
179	0x3d206897	0.039162245
180	0x3db668a9	0.08906681
181	0xbcd5a389	-0.026078956
182	0x3d492356	0.049105965
183	0xbcc5218a	-0.024063844
184	0xbc613c74	-0.013747323
185	0xbc8511b9	-0.016243802
186	0x3a3cf60e	0.0007208296
187	0xbd097ba6	-0.033565186
188	0x3caaec43	0.020864611
189	0x3b9e28f3	0.004826659
190	0x3d619b4e	0.05507975
191	0xbc8832b5	-0.016625741
192	0x3c1acf55	0.009448846
193	0xbd06e041	-0.03292871
194	0xbd95cc6d	-0.07314382
195	0x3d1798c2	0.037010916
196	0x3c2dd120	0.010608941
197	0xbd0b3527	-0.033986237
198	0xbcfda56f	-0.030962674
199	0x3cb8416d	0.022492135
200	0xbc8b6c6a	-0.01701947
201	0x3d727277	0.059191193
202	0x3bdaa6e3	0.0066727265
203	0x3d048682	0.03235484
204	0x3d225e5a	0.039640762
205	0xbcb4b144	-0.022057183
206	0x3d226fda	0.03965745
207	0x3d85ef4a	0.065397814
208	0x3b7e90d2	0.0038843644
209	0x3c99890e	0.01874211
210	0x3b8d54bf	0.004313081
211	0x3d79e156	0.061005913
212	0xbd14e557	-0.036351528
213	0xbd3e4ff4	-0.046462968
214	0x3d1f06f5	0.038824994
215	0xbd9f37af	-0.07774293
216	0x3ab67be1	0.0013922417
217	0xbd2bcba6	-0.04194226
218	0x3d695eb4	0.05697508
219	0xbda576bb	-0.08079287
220	0x3d565a33	0.052332114
221	0x3db0d0b7	0.08633559
222	0x3c9ec446	0.0193807
223	0xbb8a4510	-0.0042196587
224	0x3db47b57	0.08812588
225	0xbd157d89	-0.036496673
226	0xbc051681	-0.008123041
227	0xbd20b5be	-0.039235823
228	0xbc4f61eb	-0.012657623
229	0x3ca66384	0.020311125
230	0x3c386fc2	0.011257114
231	0xbc88bdb4	-0.01669202
232	0xbdb75fa5	-0.089537896
233	0x3b9f058d	0.0048529566
234	0xba8bb3de	-0.0010658463
235	0x3c4c69f1	0.01247643
236	0x3d8ab1b8	0.067721784
237	0x3db3462e	0.0875362
238	0xbd5e12a4	-0.054216996
239	0xbbd74cb0	-0.006570421
240	0xbd0e35e0	-0.034719348
241	0xbda7dd4b	-0.08196505
242	0xbd843c93	-0.06456866
243	0x3dacb9ef	0.084339015
244	0x3d58b854	0.052910164
245	0x3d40b157	0.047044124
246	0x3d4f6298	0.050631136
247	0xbd924dca	-0.07143743
248	0x3c04463c	0.008073386
249	0x3da9d2e8	0.0829218
250	0xbd4c5bcf	-0.049892243
251	0x3da2c150	0.07947028
252	0x3cbcf81b	0.023067525
253	0x3d801f57	0.062559776
254	0xbd13fc29	-0.03612915
255	0x3d22ab67	0.039714243

bias f4 [128]
0	0xbc3b19fe	-0.011419771
1	0x3dae8f40	0.085234165
2	0xbd2f78ea	-0.042839922
3	0x3c466e23	0.01211122
4	0x3cb36fbc	0.021903865
5	0xbda4b592	-0.08042444
6	0x3d67411d	0.05645858
7	0x3d82a2da	0.06378718
8	0x3d8635c6	0.06553225
9	0x3d732c27	0.05936828
10	0x3d45a287	0.0482507
11	0xbd5f9075	-0.054581124
12	0x3d7de145	0.061982412
13	0xbd0454eb	-0.032307547
14	0x3cc215ca	0.02369203
15	0xbda7d2d0	-0.08194506
16	0xbc4068c3	-0.011743727
17	0xbd252398	-0.040317148
18	0xbd2d94a1	-0.04237807
19	0xbd89da94	-0.067311436
20	0xbbce1a25	-0.0062897378
21	0xbd65e48b	-0.05612616
22	0xbd5c2b83	-0.053752434
23	0xbda44018	-0.080200374
24	0x3d75ae2e	0.059980564
25	0x3d867e90	0.06567109
26	0xbc69820d	-0.014252198
27	0x3d427b6c	0.047480986
28	0x3c983a7a	0.018582571
29	0xbd5c5d38	-0.053799838
30	0xbc40f398	-0.011776827
31	0x3d168dc7	0.036756303
32	0xba96d273	-0.001150681
33	0xbb82cd2e	-0.0039917445
34	0xbc72322c	-0.01478247
35	0x3d78590c	0.060631797
36	0xbd81d1fa	-0.06338878
37	0x3c091bc3	0.008368435
38	0xbd614331	-0.05499572
39	0x3d5a9cb0	0.053372085
40	0xbc13b04e	-0.009014202
41	0xbd599b42	-0.05312658
42	0xbd74e311	-0.05978686
43	0xbc17aec9	-0.009257981
44	0x3b98540c	0.004648691
45	0x3d619835	0.055076797
46	0xbc857bec	-0.016294442
47	0xbd404858	-0.046943992
48	0xbdacf924	-0.08445957
49	0xbbaffd99	-0.0053708074
50	0x3d9a9553	0.075480126
51	0xbdab1f48	-0.08355576
52	0xbc916142	-0.017746571
53	0x3d8ff1dd	0.07028554
54	0x3d9bf70c	0.0761548
55	0xbd74b5f8	-0.05974385
56	0xbd9a777a	-0.075423196
57	0x3db03101	0.08603097
58	0xbd34ac63	-0.044109713
59	0x3cbc8528	0.023012713
60	0xbdb282e2	-0.0871637
61	0x3d2d0d5b	0.042249065
62	0x39fc28af	0.00048095497
63	0xbc75fe51	-0.015014247
64	0xbd33607d	-0.04379319
65	0x3d24b9fd	0.040216435
66	0xbd16e67a	-0.036840893
67	0xbd2784f2	-0.04089827
68	0xbd5dc7ea	-0.05414573
69	0x3d9736e0	0.073835135
70	0x3b887b72	0.0041651065
71	0xbc64ee3b	-0.013972814
72	0x3c9d2eff	0.019187449
73	0x3d77d546	0.060506128
74	0xbd9443e4	-0.072395116
75	0x3d73e56f	0.059544977
76	0x3d2b3f1c	0.041808233
77	0x3d3ca1eb	0.046052855
78	0xbc550e66	-0.013003921
79	0xbd566128	-0.05233875
80	0xbbdd7afd	-0.006759046
81	0x3dac0219	0.083988376
82	0xbd50251e	-0.050816648
83	0xbd938514	-0.07203117
84	0xbcc0a7c7	-0.023517502
85	0x3d19771d	0.03746711
86	0xbd92de6b	-0.07171329
87	0xbbb98c4f	-0.005662478
88	0x3c7a5319	0.015278601
89	0xbcc0bf4e	-0.023528721
90	0xbd94f194	-0.0727264
91	0xbcf771be	-0.030205604
92	0xbcd95eac	-0.0265344
93	0x3d05a65c	0.032629356
94	0xbdb2cfc1	-0.08731032
95	0x3c8b430e	0.016999748
96	0xbc358001	-0.011077882
97	0x3d7bcf33	0.061476897
98	0xbd42bbcc	-0.04754238
99	0x3d48b18c	0.048997447
100	0xba43c038	-0.00074673025
101	0x3cf0e285	0.029404888
102	0xbdabaf58	-0.083830535
103	0xbc3d5433	-0.011555719
104	0xbd5bd93f	-0.05367398
105	0x3d4e3a28	0.05034843
106	0xbd9d964b	-0.07694682
107	0x3d867371	0.065649875
108	0xbd9dc24b	-0.07703074
109	0x3d6fc59c	0.058538064
110	0xbd0187e5	-0.03162374
111	0xbd9abc3d	-0.07555435
112	0x3ba0a767	0.0049027684
113	0xbd9a664c	-0.07539043
114	0x3cf00201	0.02929783
115	0x3dabe5bf	0.0839343
116	0xbc224f78	-0.009906642
117	0xbd4d03ff	-0.05005264
118	0x3d898683	0.06715109
119	0x3bfc8373	0.0077060997
120	0x3be9d46a	0.0071359174
121	0x3d3b42d7	0.04571804
122	0xbdafb2d3	-0.0857903
123	0xbd2c06a5	-0.041998524
124	0x3ce0d8c4	0.027447112
125	0x3bd09f51	0.0063666482
126	0xbd14120f	-0.036150035
127	0xbd8141b5	-0.06311361

weight f4 [128, 128]
0	0x3d7ccece	0.06172066
1	0xbce30033	-0.027710056
2	0xbbffdb7f	-0.0078081484
3	0x3d47a4cd	0.04874115
4	0xba69542e	-0.00089007884
5	0xbd9382d5	-0.072026886
6	0xbda833f9	-0.08213038
7	0x3bda341f	0.0066590453
8	0x3c91dd77	0.017805798
9	0x3d6d93f2	0.05800242
10	0x3d33656f	0.043797906
11	0x3db0b783	0.08628752
12	0x3d1e06dc	0.03858076
13	0x3d3328b7	0.04374
14	0x3d9b1644	0.07572606
15	0xbd1bddcf	-0.03805333
16	0x3d30ae60	0.043135047
17	0xbcca0c7c	-0.024664156
18	0x3c2d1441	0.010563911
19	0x3d3cd511	0.046101633
20	0xbdaa8c62	-0.08327557
21	0x3d511ff6	0.05105587
22	0x3c718937	0.014742187
23	0xbccf6c42	-0.025320176
24	0xbd12318a	-0.035691775
25	0xbcfe048d	-0.03100803
26	0x3c998bfa	0.018743504
27	0xbc413ee3	-0.0117947785
28	0x3ca478dd	0.020077163
29	0xbcf66667	-0.030078126
30	0xb9017d64	-0.0001234911
31	0x3d8c5346	0.06851821
32	0xbdb6a7d2	-0.08918728
33	0xbc14c91a	-0.0090811495
34	0x3d40f60c	0.04710965
35	0x3d160e54	0.036634758
36	0x3cd357ef	0.025798766
37	0x3d72719e	0.059190385
38	0xbdacf49a	-0.084450915
39	0xbd905e2c	-0.07049212
40	0xbda9b226	-0.08285932
41	0x3d9920dd	0.07476971
42	0x3d487fdf	0.048950072
43	0x3d793ce3	0.06084908
44	0x3da6b969	0.08140833
45	0xbce01c09	-0.027357118
46	0x3da9c821	0.08290125
47	0x3bc7aab9	0.00609335
48	0x3c9861a9	0.018601255
49	0xbcbff921	-0.023434224
50	0xbcfc18a3	-0.030773466
51	0xbd4f95ab	-0.050679844
52	0x3cb911ec	0.022591554
53	0x3d50529e	0.05086004
54	0xbd60709f	-0.054794904
55	0xbd3106ee	-0.0432195
56	0xbc887823	-0.016658848
57	0xbdac1853	-0.08403077
58	0xbc7f8f9e	-0.015598206
59	0x3c9af748	0.018916741
60	0xbc080886	-0.008302813
61	0x3ba63dbc	0.0050732773
62	0x3d54c6de	0.051947467
63	0xbd809214	-0.06277862
64	0xbcf9612d	-0.030441845
65	0xbca314e0	-0.019907415
66	0x3d151c8a	0.03640417
67	0x3ccd80a1	0.02508575
68	0xbd9fffd2	-0.07812466
69	0xbc14db6f	-0.00908552
70	0xbd8fb89b	-0.070176326
71	0xbd8dc2ca	-0.06921919
72	0x3c0e8857	0.008699498
73	0xbd4e926c	-0.050432608
74	0x3d8cfcd2	0.06884159
75	0xbd455feb	-0.048187178
76	0xbc9d6e0b	-0.019217512
77	0x3d1d7f48	0.038451463
78	0x3cc48cf3	0.023992991
79	0x3c5d2ad8	0.013498984
80	0xbb8735ba	-0.0041262778
81	0xbc9df385	-0.019281158
82	0xbd2e9657	-0.042623844
83	0x3dacccdf	0.084375136
84	0x3d863db4	0.06554738
85	0xbd385427	-0.04500213
86	0x3d5316a5	0.051535267
87	0x3ce00162	0.02734441
88	0xbd796682	-0.060888775
89	0xbd319263	-0.043352496
90	0xbb044d9d	-0.0020187863
91	0xbd55353b	-0.052052718
92	0xbd697a03	-0.057001125
93	0xbabd6e12	-0.0014452359
94	0xbd9fd3a4	-0.07804039
95	0xbd733cd0	-0.059384167
96	0x3c4fd6ca	0.012685487
97	0xbc2a9066	-0.010410404
98	0x3d2727b4	0.04080935
99	0x3d7cc0fe	0.06170749
100	0x3d60c174	0.05487199
101	0xbd279028	-0.040908962
102	0x3c1860e7	0.009300447
103	0xbce7d342	-0.028298978
104	0x3ca2af95	0.019859115
105	0xbda8f1b6	-0.08249228
106	0x3d904d2e	0.07045971
107	0x3d67514f	0.056474026
108	0xbc90b01e	-0.017662104
109	0xbd222f02	-0.03959561
110	0x3d934030	0.07189977
111	0x3d421c4e	0.047390275
112	0x3dad3d8f	0.08459007
113	0xbd5c5cb3	-0.053799342
114	0xbd812c05	-0.06307224
115	0xbda5d171	-0.080965884
116	0xbc6cb3c3	-0.014447155
117	0x3a39de2e	0.00070902973
118	0x3d90400c	0.07043466
119	0xbd419676	-0.04726263
120	0xbda57447	-0.08078819
121	0x3b20896f	0.002449598
122	0x3c653806	0.013990408
123	0x3cbceac2	0.02306116
124	0xbd136498	-0.035984606
125	0xbd91479a	-0.07093735
126	0xbdab7c0c	-0.083732694
127	0x3db114a7	0.08646517
128	0xbcbcf147	-0.023064269
129	0xbc80548b	-0.015665313
130	0x3d48668d	0.048925925
131	0xbd3b4a3e	-0.0457251
132	0xbda848c6	-0.082170054
133	0xbdad5fe6	-0.08465557
134	0xbb98a045	-0.0046577775
135	0x3ce9ef60	0.028556526
136	0x3d28f5e9	0.041250143
137	0xbd212cb7	-0.039349284
138	0x3bb864c5	0.005627247
139	0x3b21bc58	0.0024678912
140	0x3d5b1138	0.053483218
141	0xbd559f56	-0.052153908
142	0x3d84c3b2	0.064826384
143	0xbca459cd	-0.020062352
144	0x3d1c0ed6	0.038100086
145	0xbd9891db	-0.07449695
146	0xbd03102b	-0.03199784
147	0xbd437334	-0.047717288
148	0xbd307811	-0.043083254
149	0xbd8b1c94	-0.0679256
150	0x3c9c549f	0.01908332
151	0x3db2aa83	0.08723929
152	0x3d882fb7	0.06649726
153	0xbd68501a	-0.056717016
154	0xbbfd3ab3	-0.0077279448
155	0xbcc32dec	-0.023825608
156	0xbd22b522	-0.039723523
157	0xbd25155a	-0.040303566
158	0x3cb9cd68	0.022680953
159	0xbd189bd6	-0.03725799
160	0xbd8040f7	-0.06262391
161	0x3c31c839	0.010850959
162	0x3daad248	0.08340889
163	0xbb45d2df	-0.0030185503
164	0x3dae7c58	0.085198104
165	0xbd6d7f3b	-0.057982665
166	0x3d98933d	0.074499585
167	0xbb0c986e	-0.002145316
168	0x3d7de005	0.06198122
169	0x3c599aae	0.013281507
170	0x3cb3d6d6	0.021953028
171	0xbd959679	-0.07304091
172	0xbc8a760a	-0.016901989
173	0xba736f1c	-0.0009286271
174	0xbc81a747	-0.015826834
175	0x3d6d3389	0.057910476
176	0xbd0c313c	-0.03422664
177	0xbd178e44	-0.03700091
178	0xbd83a1ae	-0.06427322
179	0x3ce1bd78	0.027556166
180	0x3d94e9c8	0.07271153
181	0x3c7de9f4	0.015497673
182	0xbd5dd2bc	-0.05415605
183	0x3d0d803b	0.03454612
184	0x3c44da17	0.012014887
185	0x3d62d06f	0.05537456
186	0xba194bd4	-0.0005847786
187	0x3da70d01	0.08156777
188	0x3d9cde69	0.07659609
189	0xbd6c9dd6	-0.05776771
190	0x3d885796	0.06657331
191	0xbcfaeecc	-0.030631445
192	0xbdb453f4	-0.08805075
193	0x3da69ed0	0.0813576
194	0xbd449b69	-0.047999773
195	0x3c51a05b	0.012794579
196	0x3da48a0a	0.08034141
197	0xbd34818b	-0.044068854
198	0x3d833aab	0.064076744
199	0x3ca349e7	0.0199327
200	0x3a72dca9	0.00092644483
201	0x3d0a62fb	0.0337858
202	0xbd254ab3	-0.04035444
203	0xbd1cf225	-0.038316865
204	0xbd991955	-0.07475535
205	0x3d951cd8	0.07280892
206	0xbd16d12a	-0.03682057
207	0x3d8e4eaa	0.06948598
208	0x3c3228d3	0.010873991
209	0xbbc070dd	-0.0058728294
210	0x3d9d2f3f	0.07675027
211	0x3d335c17	0.043788996
212	0x3d437384	0.047717586
213	0xbc4d561a	-0.012532735
214	0x3d140021	0.036132935
215	0xbdad1f70	-0.08453262
216	0xbb752784	-0.0037407586
217	0xbac42176	-0.0014963585
218	0xbd966dc6	-0.07345156
219	0xbc810d50	-0.015753418
220	0x3cf2f95c	0.02965992
221	0x3d6f1e3d	0.058378447
222	0x3bec7975	0.0072166272
223	0xbd0da985	-0.034585495
224	0xbd2cfac8	-0.04223135
225	0xbd6df61e	-0.058096044
226	0xbd0b36c9	-0.033987794
227	0xbd2cae3d	-0.042158354
228	0xbd88acac	-0.066735595
229	0x3c895588	0.016764417
230	0xbd671b16	-0.056422316
231	0xbb44f7dc	-0.0030054962
232	0x3d84a336	0.064764425
233	0xbd75d077	-0.06001326
234	0x3d5e9a18	0.054346174
235	0xbd9048ad	-0.07045112
236	0xbd9b47ce	-0.07582055
237	0x3dafce1b	0.085842334
238	0xbd3105a2	-0.043218262
239	0x3d9a2db4	0.075282484
240	0x3da1611f	0.078798525
241	0x3cc3c962	0.023899738
242	0xbd3791db	-0.044816833
243	0x3cbbea17	0.022938771
244	0x3c901484	0.017587908
245	0x3c8b55a0	0.017008603
246	0x3c1819c1	0.009283484
247	0x3db300f6	0.08740418
248	0x3c2d2b0f	0.010569348
249	0x3d2d6db2	0.04234094
250	0xbd066735	-0.03281327
251	0xbcf2dc5d	-0.029646093
252	0x3d92fcc5	0.07177118
253	0xbbfc9950	-0.007708706
254	0x3d156aa8	0.03647867
255	0xbd1fc30b	-0.039004367

bias f4 [128]
0	0x3c201b76	0.009772172
1	0xbd31a714	-0.04337223
2	0xbd931d6d	-0.07183347
3	0x3cf4201d	0.029800469
4	0xbd8eb29f	-0.06967663
5	0xbd8bf538	-0.06833881
6	0xbd54ff40	-0.052001238
7	0x3cc8f5f1	0.024531337
8	0x3cbd7dba	0.02313124
9	0xbd90b66f	-0.070660464
10	0xbd03887e	-0.03211259
11	0x3caf6c87	0.021414055
12	0xbd6edd9f	-0.058316823
13	0x3d13bdd1	0.036069695
14	0xbda7f920	-0.08201814
15	0xbd807ef1	-0.06274212
16	0x3c871ace	0.016492274
17	0xbca4ae96	-0.02010278
18	0xbd9b0fb0	-0.075713515
19	0xbdaa0d1a	-0.0830328
20	0x3ad2c926	0.0016081675
21	0x3d2e9851	0.04262573
22	0xbd88d547	-0.066813044
23	0x3c98c19d	0.01864701
24	0xbd7f6453	-0.062351536
25	0xbd03ec5e	-0.03220784
26	0x3d53fef0	0.0517568
27	0x3ca00a9a	0.019536305
28	0x3d896cc4	0.067101985
29	0x3db0d8f3	0.0863513
30	0x3d8f6916	0.070024654
31	0x3d798a52	0.06092293
32	0x3d69fdac	0.057126686
33	0xbd7e1f96	-0.06204184
34	0x3d6ebcd8	0.058285564
35	0x3d81e9f7	0.063434534
36	0xbc82dfab	-0.015975794
37	0xbd09b9aa	-0.03362433
38	0x3d113b49	0.03545693
39	0xbb381c6d	-0.0028093115
40	0xbd58a85e	-0.052894942
41	0xbd5a15cf	-0.053243455
42	0x3d392683	0.045202743
43	0x3d8f0264	0.06982878
44	0x3c2c499a	0.010515595
45	0x3d8cd58a	0.06876667
46	0xbdb43c9d	-0.088006236
47	0xbd646ad5	-0.055765945
48	0x3da0e577	0.07856267
49	0x3cd74446	0.026277672
50	0x3cfbf1db	0.030754974
51	0x3b4654e8	0.003026301
52	0xbda8b981	-0.08238507
53	0x3db687f2	0.08912648
54	0xbd3fb42e	-0.046802692
55	0x3da228a4	0.07917908
56	0x3d851a4e	0.06499158
57	0xbb939d38	-0.004504826
58	0x3d5c3c20	0.053768277
59	0xbce5dcdf	-0.028059421
60	0xbd3e76e6	-0.04650011
61	0xbdb1df9b	-0.086852275
62	0xbd6c58ab	-0.057701748
63	0xba8d1572	-0.0010763837
64	0xbd7c6fdf	-0.061630126
65	0xbcf25a0f	-0.029583959
66	0x3d0c9a7b	0.03432701
67	0xbda8c0f5	-0.08239929
68	0x3cbe69bb	0.023243776
69	0x3d445b17	0.047938433
70	0xbd6bec63	-0.057598483
71	0xbd561181	-0.052262787
72	0x3d382a82	0.044962414
73	0xbd2b091a	-0.041756727
74	0x3d82f1b6	0.06393759
75	0xbb8621e0	-0.0040933937
76	0xbd25a2f4	-0.040438607
77	0xbd8dd6d5	-0.069257416
78	0x3d193963	0.037408244
79	0x3d4bffff	0.049804684
80	0x3d70f649	0.058828626
81	0x3d1e0d2a	0.038586773
82	0x3c7614f8	0.015019648
83	0x3da31e6d	0.07964788
84	0xbcd95607	-0.026530279
85	0x3d68a633	0.056799125
86	0x3da16ff8	0.078826845
87	0x39a84e94	0.00032102002
88	0x3cf6a7c6	0.030109297
89	0xbb01f9e5	-0.0019832787
90	0x3d4ce360	0.05002153
91	0x3d9a2ec7	0.07528453
92	0x3d1a30b0	0.03764409
93	0xbd3d407d	-0.04620408
94	0x3cd7f182	0.026360277
95	0xbdaf819a	-0.085696414
96	0xba839c75	-0.0010041135
97	0x3cc7552a	0.024332602
98	0x3c56ee36	0.013118317
99	0xbda407ce	-0.08009301
100	0x3c616df7	0.013759128
101	0xbd2ff741	-0.04296041
102	0xbda4cad4	-0.08046499
103	0x3d8b8559	0.068125434
104	0x3bb131a1	0.0054075276
105	0xbdad222b	-0.08453783
106	0xbcaf1401	-0.021371843
107	0xbd993b79	-0.07482047
108	0xbd6e9d4d	-0.058255482
109	0xbd8b5e19	-0.06805057
110	0x3cb62575	0.022234658
111	0xbaf06178	-0.0018339595
112	0xbcaf2cdd	-0.021383697
113	0x3cedcebb	0.02902924
114	0xbd3f6bfe	-0.04673385
115	0xbce2660e	-0.027636554
116	0x3d10268c	0.03519301
117	0xbd24a9bd	-0.040200938
118	0xbad225a4	-0.0016032946
119	0xbd821a02	-0.06352617
120	0xbd63e810	-0.055641234
121	0xbb8862d7	-0.0041621733
122	0x3d3d1e21	0.04617131
123	0xbd97a49e	-0.07404445
124	0xbdaa26ff	-0.08308219
125	0xbcd8f707	-0.02648498
126	0x3c8886c1	0.016665818
127	0x3d202e62	0.039106734

weight f4 [128, 128]
0	0x3cf03ae4	0.029324956
1	0xbc08f286	-0.008358603
2	0xbd9f9e8f	-0.077939145
3	0x3c529c1d	0.012854603
4	0xbc2c0672	-0.010499584
5	0x3c20073e	0.009767352
6	0x3bed9e10	0.0072515085
7	0xbda5a1bb	-0.08087488
8	0xbd99fe36	-0.0751919
9	0x3d73810e	0.059449248
10	0xbca27d35	-0.019835094
11	0xbcc42efd	-0.023948187
12	0x3b45abbc	0.0030162176
13	0xbd95b915	-0.07310692
14	0xbad8b568	-0.0016533555
15	0x3d384698	0.0449892
16	0x3ce202cb	0.027589222
17	0xbd8a2e42	-0.06747104
18	0x3cd77a7f	0.026303528
19	0x3d5e0df3	0.05421252
20	0x3d683f9b	0.056701284
21	0xbd056745	-0.03256919
22	0xbce0a228	-0.027421072
23	0xbd641ece	-0.05569344
24	0x3d0d1e90	0.034452975
25	0x3d75c0e3	0.059998404
26	0xbd638242	-0.055544145
27	0x3d10d22e	0.035356693
28	0x3cc4c147	0.024017943
29	0x3ba63c62	0.005073116
30	0x3d8ab64c	0.067730516
31	0xbc34abf8	-0.011027329
32	0xbca2f51e	-0.019892272
33	0xbd70d0b0	-0.05879277
34	0x3d906df9	0.070522256
35	0x3d365f34	0.044524387
36	0x3d95e18b	0.073184095
37	0xbd3a1cfc	-0.045437798
38	0xbc2ccbbf	-0.010546624
39	0x3c90372b	0.017604431
40	0xbdaae9f0	-0.08345401
41	0xbdab8f2a	-0.08376916
42	0xbd16cfc2	-0.036819227
43	0xbd5a285f	-0.053261157
44	0x3da7ae77	0.081875734
45	0x3d8dc432	0.06922187
46	0xbd255984	-0.040368572
47	0xbd9e6581	-0.07734204
48	0xbda4f49f	-0.0805447
49	0xbbabdce0	-0.005244836
50	0xbd8e8921	-0.06959749
51	0xbd43b118	-0.04777631
52	0x3cf07c4f	0.02935615
53	0xbd06f398	-0.032947153
54	0xbd26f400	-0.04076004
55	0xbc57ad91	-0.01316394
56	0x3da19215	0.07889191
57	0x3d3b3466	0.045704268
58	0x3c4ef1b6	0.012630871
59	0x3d6ace5c	0.057325706
60	0xbc87f509	-0.016596334
61	0xbcac3bb8	-0.02102457
62	0xbc1b94f9	-0.009495967
63	0xbb19a081	-0.0023441615
64	0xbcf107a6	-0.029422592
65	0x3d6c2b09	0.05765823
66	0x3d2f7f8f	0.04284626
67	0x3daf525d	0.085606314
68	0xbda9fffd	-0.08300779
69	0xbd995c2a	-0.07488282
70	0xbd2f2aab	-0.0427653
71	0x3ac0ef65	0.0014719783
72	0x3c7c4f9c	0.01539984
73	0x3d49bf27	0.049254563
74	0xbd9de89e	-0.07710384
75	0xbd5a3a53	-0.05327828
76	0x3d55014d	0.052003194
77	0xbc419576	-0.011815419
78	0xbd8abd89	-0.06774432
79	0xbd97ff53	-0.07421746
80	0x3da6b141	0.08139277
81	0xbb4f745e	-0.0031655054
82	0x3d5c1b9a	0.05373726
83	0xbd9a5c90	-0.07537186
84	0xbb8e559a	-0.0043437006
85	0x3cb77229	0.022393303
86	0xbd8ae768	-0.067824185
87	0x3c99cfef	0.018775908
88	0xbd8d6ff1	-0.06906117
89	0xbdac3dc8	-0.08410221
90	0x3af39adb	0.0018585579
91	0x3d5b095c	0.053475723
92	0x399759bc	0.00028867822
93	0xbcada2d1	-0.021195801
94	0x3d3cf51c	0.046132192
95	0x3d631adb	0.055445533
96	0xbb7a7170	-0.0038214587
97	0x3d29cf9e	0.041457765
98	0xbd3c6103	-0.045990955
99	0xbd93b27f	-0.0721178
100	0x3be6c28a	0.007042234
101	0xbd3f6156	-0.046723686
102	0x3d3c1539	0.045918677
103	0xbc84f1c5	-0.016228566
104	0xbc5468dd	-0.0129644545
105	0xbd64294a	-0.05570344
106	0xbc429b29	-0.011877813
107	0x3c7589c9	0.014986464
108	0x3d4909b7	0.04908153
109	0xbd3c0b18	-0.045909017
110	0xbc984f20	-0.018592417
111	0xbd550a47	-0.052011754
112	0xbc01cb6d	-0.007922036
113	0xbcb6fb5d	-0.022336656
114	0x3d0fdf0a	0.035124816
115	0x3b7ef98c	0.0038906066
116	0x3d2c868f	0.042120513
117	0x3d430450	0.047611535
118	0xbdad7368	-0.084692776
119	0x3cb1ab9f	0.02168828
120	0xbc941c30	-0.018079847
121	0xbb2e2b94	-0.0026576268
122	0x3aad4451	0.0013219212
123	0x3d88d390	0.06680977
124	0xbc7f1f97	-0.015571496
125	0xbdab57c7	-0.083663516
126	0x3c7259d7	0.014791927
127	0xbcab47bc	-0.020908229
128	0x3c0e15b5	0.008672168
129	0xbd853b45	-0.065054454
130	0xbd26e1ae	-0.04074257
131	0x3c0fa4c9	0.008767315
132	0x3db3528b	0.08755978
133	0xbdad0f59	-0.08450193
134	0x3d572850	0.05252868
135	0x3cff3ab2	0.031155918
136	0xbd7349e8	-0.059396654
137	0x3db3e722	0.087843195
138	0xbd2b6536	-0.04184457
139	0xbc88c912	-0.01669744
140	0x3c91da50	0.017804295
141	0x3d4566e2	0.04819382
142	0xbc80e47c	-0.01573395
143	0x3da11d33	0.078668974
144	0xbcd112c8	-0.02552165
145	0xbd75f744	-0.060050264
146	0xbd67555c	-0.05647789
147	0x3c32d08f	0.010913982
148	0xbd80cf60	-0.06289554
149	0x3d656f98	0.056014627
150	0xbd88fcc1	-0.06688834
151	0x3c78068e	0.0151382815
152	0xbca8527b	-0.020547142
153	0x3d931517	0.07181757
154	0x3d4e3fd5	0.050353844
155	0x3abd3381	0.0014434905
156	0x3b6ddd8e	0.0036295387
157	0xbccd48e0	-0.025059164
158	0xbcedc49c	-0.029024415
159	0x3d8974b2	0.06711711
160	0xbd1aa5e3	-0.03775586
161	0x3daa67a8	0.08320552
162	0xbda0b611	-0.078472264
163	0x3ccee7b6	0.025256973
164	0xbd17eefb	-0.037093144
165	0x3d902025	0.07037381
166	0xbb127229	-0.0022345877
167	0x3c3c1532	0.011479663
168	0x3d6e5e1c	0.05819522
169	0xbc7ba8b7	-0.015360049
170	0xbd9b7e65	-0.07592467
171	0x3d867d1c	0.065668315
172	0x3cb021d9	0.021500515
173	0xbb65a3fc	-0.003504037
174	0xbd238eee	-0.03993123
175	0x3ccf8564	0.02533216
176	0x3d4eeff6	0.050521813
177	0xbd58fe8c	-0.05297713
178	0xbccb62d3	-0.024827396
179	0x3d06b82b	0.03289048
180	0xbd593c1b	-0.053035837
181	0x3d99b3be	0.07504986
182	0x3da28561	0.07935596
183	0xbca47014	-0.020072974
184	0x3d951489	0.072793074
185	0xbd685cfc	-0.0567293
186	0x3c03fb1a	0.008055473
187	0xbd5b6335	-0.053561408
188	0x3d176cb5	0.036968905
189	0x3d721237	0.059099402
190	0xbd634c59	-0.055492733
191	0xbd6a9ff6	-0.057281457
192	0x3d4665ae	0.048436813
193	0x3d5aa3ef	0.053378996
194	0xbd809ba5	-0.06279687
195	0xbab9b265	-0.0014167546
196	0xbd70252f	-0.05862921
197	0x3ca6835f	0.020326314
198	0xbd6084a9	-0.054814015
199	0x3d4bb092	0.049728937
200	0xbcf955ab	-0.030436357
201	0x3da1ba0d	0.078968145
202	0xbd0af090	-0.033920825
203	0xbd4ccb6f	-0.049998697
204	0xbc86618c	-0.016403936
205	0x3d96c864	0.0736244
206	0x3d317d7e	0.04333257
207	0xbbc75018	-0.006082546
208	0xbd5e2e1f	-0.054243203
209	0xbc9dacb5	-0.019247392
210	0x3dacd307	0.08438688
211	0x3ca9b2bd	0.020715112
212	0x3d90882b	0.07057222
213	0x3d693229	0.056932602
214	0x3bdd1037	0.0067463177
215	0xbd82e02e	-0.06390415
216	0x3da39f92	0.0798942
217	0x3c0dcada	0.008654321
218	0x3c9f50c7	0.019447697
219	0xbd5accd4	-0.053417996
220	0x3cbf83f5	0.023378352
221	0xbc7c9fca	-0.015418956
222	0xbd88bac8	-0.06676251
223	0x3da1f77b	0.07908531
224	0xbcaba088	-0.02095057
225	0xbd4ed6b1	-0.050497714
226	0xbd85537b	-0.06510063
227	0x3db34e2b	0.08755144
228	0x3d9cac80	0.07650089
229	0x3dabe6ef	0.083936565
230	0x3dad06a4	0.08448532
231	0xbd4c9a4f	-0.049951848
232	0xbdaa47f7	-0.083145075
233	0x3d83df30	0.06439054
234	0xbd90f61f	-0.07078194
235	0xbca5dcfe	-0.020246979
236	0xbaba0a08	-0.0014193663
237	0xbcfe7851	-0.03106323
238	0xbd3158f5	-0.043297727
239	0xbcf64a10	-0.030064613
240	0x3d727ce3	0.059201133
241	0x3db438e5	0.08799914
242	0x3cd85ee6	0.026412439
243	0xbd8a50a6	-0.06753664
244	0xbd2f3cb1	-0.04278249
245	0xbc09c235	-0.008408119
246	0x3ce52fca	0.02797689
247	0xbd7e6812	-0.062110968
248	0x3daf48a2	0.085587755
249	0xbd086526	-0.033299588
250	0xbd4f6376	-0.050631963
251	0xbda87c5b	-0.08226844
252	0xbd8bcab6	-0.068257734
253	0x3ccbc068	0.02487202
254	0xbd431600	-0.047628403
255	0xbd4e98b2	-0.05043859

bias f4 [128]
0	0xbd880175	-0.06640903
1	0xbcd0a85b	-0.025470903
2	0xbd84f4ba	-0.064919904
3	0x3d94d9d7	0.07268112
4	0xbce31ad1	-0.027722748
5	0x3bb9b15e	0.005666896
6	0x3ccf65ce	0.025317099
7	0xbc98aba8	-0.01863654
8	0xbda7ccca	-0.08193357
9	0x3d4c2669	0.04984132
10	0x3c66ecd5	0.014094551
11	0xbc63bf21	-0.013900549
12	0x3cd0d754	0.025493301
13	0x3d90cb6f	0.07070052
14	0x3d50e4c7	0.05099943
15	0xbad1ca88	-0.0016005794
16	0xbba7fceb	-0.0051265857
17	0x3d083583	0.033254158
18	0x3d9bf550	0.07615149
19	0xbd89c90f	-0.06727802
20	0xbbbe2253	-0.0058024316
21	0xbce0bd8a	-0.02743413
22	0xbbffcb0b	-0.007806187
23	0x3ba8b614	0.0051486585
24	0xbac338cc	-0.0014894246
25	0xbc613b2c	-0.013747018
26	0xbc3da08d	-0.011573923
27	0x3d9f0565	0.07764701
28	0x3c6bd050	0.014392927
29	0xbd9a4f42	-0.075346485
30	0xbc177044	-0.009243075
31	0x3c046507	0.008080727
32	0x3d1f571f	0.038901445
33	0x3ccb8af0	0.024846524
34	0xbd1d6696	-0.03842791
35	0xbbb4b07d	-0.005514203
36	0x3a42a56a	0.00074251613
37	0x3d92cef2	0.07168378
38	0x3d844851	0.06459106
39	0xbc839e8d	-0.016066814
40	0x3d9ca64b	0.07648905
41	0x3ce25e1c	0.027632765
42	0xbd3e752c	-0.046498463
43	0xbbe5ccc5	-0.007012936
44	0xbae620ca	-0.0017557379
45	0x3db38309	0.08765227
46	0xbd388b8b	-0.045054954
47	0x3c5cc3cd	0.013474417
48	0xbab0b414	-0.0013481402
49	0x3d995dc0	0.074885845
50	0x3c524048	0.012832709
51	0xba23fc57	-0.0006255558
52	0x3d53a52e	0.0516712
53	0xbd70e80d	-0.05881505
54	0x3d897174	0.067110926
55	0x3cec942c	0.028879248
56	0xbc75eacb	-0.015009592
57	0xbda4350c	-0.080179304
58	0x3da32dd9	0.07967729
59	0x3d21ea53	0.03953011
60	0xbd8f67f9	-0.07002253
61	0xbd8b570d	-0.06803713
62	0xbda8a50c	-0.08234605
63	0xbbcd1825	-0.006258982
64	0xbc0ca1d0	-0.008583501
65	0x3cfc38b7	0.030788762
66	0x3b93086c	0.004487088
67	0x3d36aea6	0.04460015
68	0xbda93db9	-0.08263726
69	0xbd82c866	-0.06385879
70	0xbd07d02b	-0.03315751
71	0xbc012050	-0.007881239
72	0x3d489960	0.048974395
73	0x3cdc4adf	0.02689117
74	0x3c0c61e7	0.008568264
75	0x3d8580b6	0.0651869
76	0x3cb54684	0.022128351
77	0xbd85315f	-0.065035574
78	0xbc5ecbe3	-0.013598415
79	0xbd8f304e	-0.06991635
80	0xbda5bd6b	-0.08092769
81	0x3d14f9a9	0.036370907
82	0xbb84016f	-0.004028491
83	0xbd346952	-0.044045754
84	0xbd96344e	-0.07334195
85	0x3d55b437	0.05217382
86	0xbc3e2afc	-0.011606928
87	0x3d0218b2	0.031761833
88	0x3d03acf6	0.03214737
89	0x3cb5968d	0.022166515
90	0x3da1ed41	0.07906581
91	0x3d9a6c49	0.07540185
92	0xbce3e812	-0.02782062
93	0x3cca4f62	0.024696056
94	0xbd310e27	-0.043226387
95	0x3c9489a5	0.01813204
96	0xbd0bd2bb	-0.034136515
97	0x3bee0fc4	0.007265063
98	0x3cdc407f	0.026886223
99	0xbd82861b	-0.06373235
100	0xbb5a5da4	-0.0033319974
101	0xbc6e9af0	-0.014563307
102	0x3d7ed675	0.06221624
103	0x3d72be3a	0.059263445
104	0x3d7fae09	0.062421832
105	0xbd297a4c	-0.041376397
106	0x3da12273	0.07867899
107	0xbc90e0fd	-0.017685408
108	0x3c6af4f5	0.014340629
109	0xbd17b451	-0.037037198
110	0xbd442bfa	-0.0478935
111	0xbda19cd3	-0.0789124
112	0xbcac908b	-0.021065017
113	0x3d1f9c22	0.03896726
114	0xbd850981	-0.06495953
115	0x3b7e1984	0.0038772533
116	0x3bf5a570	0.0074965283
117	0x3d61606e	0.055023603
118	0xbd05bf9c	-0.032653436
119	0xbcb3aefb	-0.021934023
120	0xbd2a6a07	-0.04160502
121	0x3d7f282d	0.062294174
122	0x3d91daa0	0.071217775
123	0x3cfcb5f1	0.030848475
124	0x3d2d0d45	0.042248983
125	0xbd0b1377	-0.03395411
126	0x3c9ea8e7	0.019367648
127	0xbd587a2d	-0.05285089

weight f4 [1, 128]
0	0x3da94128	0.08264381
1	0x3d49b114	0.04924114
2	0xbd3e3e01	-0.04644585
3	0x3d5370d4	0.051621273
4	0x3cd6dcdc	0.02622836
5	0xbb9c2e16	-0.004766236
6	0xbc69406c	-0.014236551
7	0xbd8d0686	-0.0688601
8	0x3d684b51	0.056712452
9	0xbccbb9f1	-0.024868937
10	0x3cdeef82	0.027213816
11	0x3d709137	0.058732238
12	0x3da86c90	0.08223832
13	0x3d4585d7	0.048223343
14	0xb913059c	-0.00014021102
15	0xbd0b0976	-0.03394457
16	0x3d07b567	0.033131983
17	0xbd54bb14	-0.051936224
18	0xbdab8f53	-0.08376946
19	0xbce6a043	-0.02815259
20	0xbd97f3ec	-0.07419571
21	0xbd2f05b9	-0.042730067
22	0xbd77df07	-0.06051543
23	0x3cc0d3f1	0.023538562
24	0xbd9f0dcd	-0.07766304
25	0xbd3d799c	-0.046258554
26	0x3d9e4026	0.07727079
27	0x3c8b0100	0.01696825
28	0xbcd2887b	-0.025699845
29	0xbda65bbf	-0.08122968
30	0xbd0140b0	-0.03155583
31	0xbda012df	-0.078160994
32	0xbc16f8fd	-0.009214637
33	0x3d8712c3	0.065953754
34	0x3d1af9b6	0.0378358
35	0x3cd9c8fa	0.02658509
36	0x3c6fb7fa	0.014631266
37	0xbd9dddf4	-0.0770835
38	0xbd88e866	-0.066849515
39	0x3d0c9918	0.03432569
40	0xbdae1f48	-0.0850206
41	0xbc1d5928	-0.009603776
42	0x3d923b45	0.07140211
43	0x3cec6fdd	0.028861934
44	0x3d6db0a6	0.058029793
45	0x3da9fb68	0.08299905
46	0xbd93c717	-0.07215708
47	0x3ceb9516	0.028757613
48	0xbd1272ec	-0.03575413
49	0xbcc76963	-0.024342244
50	0xbd9b2583	-0.07575514
51	0x3da6ffb1	0.08154238
52	0xbb818cf9	-0.003953573
53	0xbd7e20a8	-0.062042862
54	0x3d2178c8	0.039421827
55	0xbdb124cd	-0.08649597
56	0xbdb2042c	-0.08692202
57	0xbcbd1322	-0.023080412
58	0x3dad1d24	0.08452824
59	0xbbe00da7	-0.006837565
60	0x3d2e9305	0.042620678
61	0xbce27a98	-0.027646348
62	0x3ce5cc29	0.028051453
63	0x3d35ec4c	0.044414803
64	0xbd3835e5	-0.044973273
65	0xbc8daf43	-0.017295485
66	0xbd11c556	-0.035588585
67	0x3cf3019b	0.029663851
68	0x3c8d369d	0.017237956
69	0xbd0a01be	-0.033693068
70	0xbd002c6e	-0.03129237
71	0x3c9360dc	0.017990522
72	0xbcb0c75a	-0.021579433
73	0x3d4dea30	0.050272167
74	0x3b1d65d7	0.0024017
75	0x3d401f61	0.046904925
76	0xbd84c114	-0.06482139
77	0xbd7a9113	-0.06117351
78	0x3d39c03b	0.04534934
79	0x3d6e0187	0.058106925
80	0x3d573dc8	0.052549154
81	0x3ae0e085	0.0017156756
82	0x3d862b91	0.065512784
83	0xbc88aac8	-0.016682997
84	0xbd95ab4f	-0.07308065
85	0xbd7b0bc3	-0.061290514
86	0x3d6b3e6b	0.057432573
87	0xbd6504fb	-0.055912953
88	0xbab15f89	-0.00135325
89	0x3d264eb4	0.0406024
90	0xbcd211f5	-0.025643328
91	0x3d7913d0	0.06080991
92	0x3cdb16af	0.026744215
93	0x3c840e8d	0.01612022
94	0x3c534ab5	0.0128962295
95	0xbd0b182f	-0.03395861
96	0x3c89d995	0.016827384
97	0xbd40e3fc	-0.047092423
98	0xbcd2d897	-0.025738044
99	0x3d8c391f	0.068468325
100	0xbb99fb0b	-0.004699116
101	0x3d81fdb1	0.06347216
102	0xbc86736c	-0.01641246
103	0x3d40edad	0.047101665
104	0xbbd4d162	-0.006494687
105	0x3d4a9643	0.049459707
106	0x3cc29be7	0.02375598
107	0xbd284aa1	-0.041086797
108	0x3d4593d0	0.048236668
109	0xbd9f12b0	-0.07767236
110	0x3d2368bf	0.039894816
111	0xbda15d8a	-0.07879169
112	0x3ca24b25	0.019811222
113	0xbd3d1b7a	-0.04616878
114	0x3b84a1c4	0.0040476043
115	0xbdb14e90	-0.08657563
116	0x3b8785cc	0.004135823
117	0xbcd3b384	-0.025842436
118	0xbc17fc1c	-0.009276416
119	0xbd272a36	-0.04081174
120	0x3bdd86d6	0.0067604585
121	0xbad2d1d9	-0.0016084268
122	0xbd9b4643	-0.07581761
123	0x3db7fcc8	0.08983761
124	0x3d41861e	0.047247045
125	0xbd081a09	-0.033227954
126	0x3d84a46a	0.06476672
127	0xbcf70be1	-0.030157031
