Dry fermentation prediction and optimization system/predictor_digester/Predictor_Digester Biogas Production/models/NeuralNetTorch_BAG_L1/S1F5/net.params (torch, 209927 bytes, 9 tensors)

weight f4 [128, 10]
0	0xbc7456c1	-0.014913262
1	0x3e586109	0.21130766
2	0xbeb5a031	-0.3547378
3	0xbe5ad07c	-0.21368593
4	0xbddaae1f	-0.10677742
5	0x3d6a4980	0.057199
6	0xbd0ab651	-0.033865277
7	0x3e8cdb48	0.27511048
8	0xbdad6a22	-0.08467509
9	0x3d20d63d	0.039266814
10	0xbdf508a2	-0.11964537
11	0xbc013017	-0.007885001
12	0xbeaf03c0	-0.3418255
13	0xbe5e6eae	-0.21721908
14	0xbdbac723	-0.091200136
15	0xba1935e3	-0.00058445166
16	0x3de6d843	0.112717174
17	0x3e40e86c	0.18838662
18	0xbe6aee12	-0.22942379
19	0xbe0920b3	-0.1339138
20	0x3e39a842	0.18130592
21	0x3e698779	0.22805585
22	0xbd5676d7	-0.05235943
23	0x3e85c046	0.26123255
24	0xbd9e159a	-0.07718964
25	0x3cdb6623	0.026782101
26	0x3e8f2f35	0.27965704
27	0xbe83e1cf	-0.25758216
28	0xbe294bd2	-0.1653283
29	0xbd390cb1	-0.04517812
30	0xbdeea652	-0.11652817
31	0x3e9dbb08	0.30806756
32	0xbe5eec1b	-0.21769755
33	0xbe29300e	-0.16522238
34	0xbe6e204d	-0.2325451
35	0xbe91de16	-0.2848975
36	0xbe317c68	-0.17332613
37	0x3e93509b	0.28772435
38	0x3e1faab2	0.15592459
39	0x3e092359	0.1339239
40	0x3c163845	0.009168689
41	0xbe7fe440	-0.24989414
42	0x3d47711f	0.048691865
43	0xbe9817e6	-0.29705733
44	0xbe6fb4ee	-0.23408863
45	0xbe3eee45	-0.1864558
46	0x3e3450b8	0.17608917
47	0x3e3be2d7	0.18348251
48	0xbe108add	-0.14115472
49	0xbcdc30a4	-0.026878662
50	0x3e61353a	0.2199296
51	0x3eb5b342	0.35488325
52	0x3e5e64d8	0.21718156
53	0x3cbc8a9c	0.023015313
54	0x3e4dd788	0.2010175
55	0xbe4704db	-0.19435446
56	0x3d4ff25c	0.05076824
57	0xbe8322a2	-0.2561236
58	0xbe495b83	-0.19663815
59	0xbe1c46a3	-0.15261321
60	0x3e0c79eb	0.13718383
61	0x3e39432e	0.18092033
62	0xbe88db9c	-0.2673005
63	0x3df2f94b	0.11863955
64	0x3e45caec	0.1931569
65	0xbd1b7916	-0.037957273
66	0x3c65df1c	0.014030244
67	0x3d50f8f5	0.051018674
68	0x3e487ded	0.19579287
69	0x3e9af46c	0.30264604
70	0xbe8b9902	-0.27265173
71	0xbdde9e5a	-0.10870047
72	0x3dce834e	0.10083638
73	0x3e946eb1	0.289907
74	0x3ea61de1	0.3244467
75	0x3e6e87ab	0.2329394
76	0x3c8a0418	0.016847655
77	0xbe7ca090	-0.24670625
78	0x3c4cc33f	0.012497722
79	0xbe22287e	-0.15835759
80	0xbe9a4b48	-0.3013556
81	0x3eb20b83	0.34774408
82	0x3e93afed	0.28845158
83	0xbe9fc68b	-0.31206164
84	0xbc01cef4	-0.007922877
85	0xbccb7b4f	-0.024839072
86	0xbcc161b1	-0.023606153
87	0xbe29328e	-0.16523191
88	0x3e15ed3a	0.14641276
89	0xbe273dce	-0.1633217
90	0x3d90dbd9	0.070731826
91	0x3db2430c	0.087041944
92	0x3e93553e	0.28775972
93	0x3e241680	0.16024208
94	0xbea82cc4	-0.32846653
95	0xbe5cbf27	-0.21557294
96	0x3e16ffcc	0.14746016
97	0x3df3b684	0.119000465
98	0xbe73d548	-0.23811829
99	0xbe5faf55	-0.21844228
100	0x3e995146	0.2994482
101	0x3e463ca2	0.19359067
102	0xbe1cb6ed	-0.15304156
103	0xbda3b364	-0.079932004
104	0xbe960401	-0.2929993
105	0xbc77c890	-0.015123501
106	0xbe7d84f7	-0.24757753
107	0xbe70822e	-0.2348716
108	0xbc7358f7	-0.014852754
109	0x3cf384fa	0.029726494
110	0xbe0c3ff7	-0.13696276
111	0x3e2ad6e2	0.16683534
112	0xbe3bde8b	-0.18346612
113	0x3e876307	0.2644274
114	0x3e3baf35	0.18328555
115	0xbe8b11d3	-0.27162036
116	0xbdab5317	-0.083654575
117	0x3ce6d4e3	0.028177684
118	0x3d90152f	0.070352904
119	0x3d64e00b	0.055877727
120	0x3de00256	0.109379455
121	0xba1c1a60	-0.0005954858
122	0xbe5978a2	-0.21237424
123	0x3dd6b5cb	0.10483893
124	0xbea212ca	-0.3165496
125	0xbe3f47f8	-0.18679798
126	0xbda0d3c0	-0.07852888
127	0xbe1cd56f	-0.15315793
128	0xbde43b06	-0.1114407
129	0xbea77713	-0.32708034
130	0xbe1e02da	-0.15430775
131	0x3e717b2e	0.23582146
132	0xbe86b5e1	-0.26310638
133	0xbd1b98eb	-0.03798763
134	0x3e84e190	0.2595334
135	0xbd5f0119	-0.054444406
136	0xbc576874	-0.013147462
137	0xbde2c442	-0.110725895
138	0x3d7726d1	0.060339753
139	0x3e3243f6	0.17408738
140	0x3ea52159	0.32252005
141	0x3e7e1875	0.24814017
142	0x3ed4b54a	0.41544563
143	0xbb3bc93f	-0.0028653888
144	0xbe957bdf	-0.2919607
145	0xbe0698dd	-0.1314425
146	0x3e6f67f5	0.233795
147	0xbbac1184	-0.0052511115
148	0xbe22d8a8	-0.1590296
149	0xbe51123b	-0.2041711
150	0xbea7ef40	-0.3279972
151	0xbea83f12	-0.3286062
152	0xbdd7a57b	-0.1052961
153	0x3e12a5c0	0.14321041
154	0x3e55ac51	0.20866515
155	0xbe8342ae	-0.2563681
156	0x3e7bc532	0.24586943
157	0xbe7ceb09	-0.24699034
158	0xbd4b0425	-0.0495645
159	0xbe2724d5	-0.16322644
160	0xbd997bb0	-0.07494295
161	0xbd5ae766	-0.053443335
162	0xbeaea8b6	-0.3411309
163	0xbe9debf1	-0.30844072
164	0xbd303f2a	-0.043028988
165	0x3ba95240	0.0051672757
166	0xbe11ff98	-0.14257658
167	0x3df08ae8	0.11745244
168	0xbe8c003f	-0.27343938
169	0xbd7470b9	-0.059677813
170	0x3e953467	0.29141542
171	0xbdd9879d	-0.10621569
172	0x3ec3d254	0.38246405
173	0x3dcdc775	0.10047809
174	0xbe9ea260	-0.30983257
175	0x3e49d6bb	0.1971082
176	0xbd219fd0	-0.03945905
177	0xbe063cb0	-0.13109088
178	0x3e7a2238	0.24427116
179	0xbe84964f	-0.25895926
180	0x3d31920c	0.04335217
181	0xbd952ed3	-0.07284322
182	0x3e8be49d	0.27322856
183	0x3dbd36e4	0.09238985
184	0x3e0c1f86	0.136839
185	0x3e01bdb7	0.12670027
186	0xbd79f38e	-0.061023287
187	0xbd6ad6ca	-0.057333745
188	0xbe633a12	-0.22190121
189	0x3e56fad2	0.20994118
190	0x3e76b794	0.24093467
191	0x3e8e9fe1	0.27856353
192	0xbe262104	-0.16223532
193	0x3ce29f5d	0.027663881
194	0xbe5469a5	-0.20743425
195	0xbe234e97	-0.15947948
196	0xbe2dbda7	-0.16966878
197	0x3dff316a	0.12460597
198	0xbe52b325	-0.2057615
199	0xbc18db30	-0.009329602
200	0x3cd8693e	0.02641737
201	0x3e0879a9	0.1332766
202	0xbe977107	-0.2957842
203	0xbe74cd08	-0.23906338
204	0xbe33ec95	-0.17570718
205	0x3e565392	0.20930317
206	0xbe00b995	-0.12570794
207	0x3e89f3fb	0.26943955
208	0x3e0b3c10	0.13597131
209	0x3d0f030e	0.034915023
210	0xbcbaaa1a	-0.022786189
211	0xbda43f47	-0.08019882
212	0x3d398b81	0.045299057
213	0xbda50dbb	-0.080592595
214	0xbbd61774	-0.0065335575
215	0x3d09ec68	0.03367272
216	0xbe821040	-0.25403023
217	0xbe1a3891	-0.15060641
218	0x3e85098e	0.25983852
219	0xbe858301	-0.2607651
220	0xbd115661	-0.035482768
221	0x3ebbc0f3	0.36670646
222	0x3df4e899	0.11958427
223	0x3d3a0807	0.04541781
224	0xbead1be2	-0.33810335
225	0x3e16069e	0.14650962
226	0xbe7108e7	-0.23538552
227	0xbd869743	-0.0657182
228	0xbd551355	-0.05202039
229	0xbd37f2f6	-0.04490944
230	0xbd517140	-0.051133394
231	0x3e9524c5	0.29129615
232	0x3d8487ef	0.0647124
233	0x3e8a5df7	0.27024814
234	0x3e725c46	0.23668012
235	0xbe313890	-0.17306733
236	0x3e2cbbee	0.16868564
237	0xbe62b6ab	-0.22139995
238	0xbe146eda	-0.14495412
239	0x3d252386	0.04031708
240	0x3d459bd8	0.048244327
241	0x3e8887f5	0.26666227
242	0xbe01f593	-0.12691335
243	0xbb879c71	-0.0041385223
244	0x3e8315c0	0.2560253
245	0xbea05e18	-0.31321788
246	0x3e6289da	0.22122899
247	0xbe76f628	-0.24117339
248	0xbce82912	-0.028339896
249	0xbd7ba0e3	-0.06143273
250	0xbe363259	-0.17792644
251	0x3d84bd4c	0.06481418
252	0x3ea4c512	0.32181603
253	0xbda4a57c	-0.08039376
254	0xbe3e9334	-0.18610841
255	0xbde62898	-0.112382114

bias f4 [128]
0	0xbe8491c6	-0.25892466
1	0xbd8f1833	-0.069870375
2	0x3d190a9b	0.03736363
3	0x3d95c227	0.07312422
4	0x3dfe5ba8	0.12419826
5	0xbe0637ff	-0.13107298
6	0xbdb365fe	-0.08759688
7	0x3e60c99f	0.21951912
8	0xbd8c33dd	-0.0684583
9	0xbe6a35ef	-0.22872137
10	0x3e4a2dff	0.19744109
11	0x3e5768e0	0.210361
12	0xbda2aa43	-0.07942631
13	0xbdc4a0dc	-0.09600994
14	0xbe637623	-0.22213034
15	0xbe678167	-0.22607957
16	0x3e082193	0.13294058
17	0xbe0fd664	-0.14046627
18	0x3e8d680b	0.2761844
19	0xbe9d7c1c	-0.3075875
20	0xbd8b60e4	-0.0680559
21	0x3b254e89	0.0025223813
22	0x3e18177f	0.14852713
23	0x3ea35857	0.31903335
24	0x3e5e2d8c	0.21697062
25	0x3dd860fe	0.10565375
26	0xbe13d3eb	-0.14436309
27	0xbe63184a	-0.22177234
28	0xbe9546e5	-0.2915565
29	0x3cf5a0d5	0.029983917
30	0x3e9cedb0	0.3065009
31	0xbd9246b8	-0.07142395
32	0xbd598e6d	-0.053114343
33	0xbe822fef	-0.25427195
34	0x3d96c36c	0.073614925
35	0x3e5a5322	0.21320775
36	0xbeb33690	-0.35002565
37	0xbe6ac676	-0.2292727
38	0x3e5a577d	0.21322437
39	0x3d5b9467	0.053608324
40	0xbc744961	-0.014910073
41	0x3d97aaba	0.074056104
42	0xbd81c0f3	-0.0633563
43	0xbe464ffb	-0.19366448
44	0xbea850c1	-0.3287411
45	0x3e3fe7ad	0.18740721
46	0xbd821d51	-0.06353248
47	0xbe03eec0	-0.12884045
48	0xbe05c182	-0.13062099
49	0xbe1e1786	-0.15438661
50	0xbd7c9c72	-0.061672635
51	0xbe77bf3e	-0.24194047
52	0x3e67b06d	0.22625895
53	0x3e1575ac	0.1459567
54	0xbe25f161	-0.1620536
55	0xbdcc155c	-0.099650115
56	0x3dd218a7	0.10258608
57	0xbddb9cef	-0.10723292
58	0x3db6fbd1	0.08934749
59	0x3d8d3723	0.06895282
60	0xbe688c41	-0.22709753
61	0x3d22a0f6	0.039704286
62	0xbbe38c04	-0.0069441814
63	0x3e835648	0.25651765
64	0xbe0681ec	-0.13135499
65	0xbdb943d1	-0.09046138
66	0x3e84923e	0.25892824
67	0xbe906e61	-0.28209212
68	0x3c644eac	0.013934772
69	0x3e976a00	0.2957306
70	0xbe03bc31	-0.12864758
71	0x3ea6c9a8	0.32575727
72	0x3e741336	0.23835453
73	0x3e896e1e	0.26841825
74	0xbd414f84	-0.047194973
75	0x3e8707d9	0.26373175
76	0xbe03ddf1	-0.12877633
77	0xbdf4d8b7	-0.119553976
78	0x3dfbbf07	0.12292295
79	0x3d61e16e	0.055146627
80	0x3e14ea74	0.14542562
81	0x3e8c0082	0.27344137
82	0xbe2e5949	-0.17026247
83	0x3e2841eb	0.16431396
84	0x3df83ee0	0.121213675
85	0x3e30603a	0.17224208
86	0x3e2c41d8	0.16821992
87	0xbe1e50fe	-0.15460584
88	0xbe807c0f	-0.2509465
89	0x3e855fe8	0.26049733
90	0xbe3f667f	-0.18691443
91	0x3e52e4f9	0.20595159
92	0xbe97fdce	-0.29685825
93	0xbd9d8629	-0.07691605
94	0x3c8c07d1	0.01709357
95	0x3cb5661c	0.022143416
96	0x3a5f5862	0.0008519945
97	0x3dc13aaa	0.094350174
98	0xbd5446b2	-0.051825233
99	0x3d5814c0	0.052754164
100	0x3e96f523	0.294839
101	0xbe6b7acf	-0.22996067
102	0xbcfd6db6	-0.030936103
103	0xbe109518	-0.14119375
104	0x3e902e75	0.28160444
105	0x3e88a5d8	0.2668903
106	0x3c213053	0.009838182
107	0xbe017a4b	-0.12644307
108	0xbe5a18f4	-0.21298581
109	0x3e6f99af	0.2339847
110	0xbc5e0182	-0.013550164
111	0x3e9e104c	0.3087181
112	0x3e47c0ca	0.19507137
113	0x3e8ac50c	0.2710346
114	0x3e8239ff	0.25434873
115	0xbe535981	-0.20639612
116	0x3dc49729	0.09599144
117	0xbe069f5f	-0.13146733
118	0x3e215354	0.15754443
119	0x3c451a9d	0.012030271
120	0x3a7f1e8f	0.00097320316
121	0xbe68609b	-0.22693102
122	0xbe8dd18d	-0.27698937
123	0x3dc84e30	0.09780538
124	0x3d4b15bc	0.049581274
125	0x3b92b229	0.0044768048
126	0x3e4c8587	0.19972812
127	0xbe0caadc	-0.13737053

weight f4 [128, 128]
0	0x3d3e35f1	0.04643816
1	0xbd62e354	-0.05539258
2	0x3c2dc041	0.010604919
3	0x3c3f5152	0.011677103
4	0x3d8e2ebd	0.06942508
5	0x3d8b6d15	0.06807915
6	0x3dc67042	0.0968938
7	0xbc05f98f	-0.008177175
8	0x3d30c243	0.043154012
9	0xbdb64bdf	-0.0890119
10	0xbd416fa9	-0.047225628
11	0x3a8978a5	0.0010488225
12	0xbce06859	-0.027393507
13	0xbda41bc2	-0.08013107
14	0xbd44e30e	-0.0480681
15	0xbd702950	-0.05863315
16	0xbdcb2688	-0.09919459
17	0xbb8b6649	-0.0042541367
18	0x3d659a7b	0.056055527
19	0x3d48abe2	0.048992045
20	0xbced1e0d	-0.028944993
21	0xbd92b178	-0.07162756
22	0xbdaecdc3	-0.0853534
23	0xbafd8d90	-0.0019344557
24	0x3d38e62b	0.04514138
25	0xbd12736f	-0.035754617
26	0xbd6e2475	-0.058140237
27	0xbd773b78	-0.06035945
28	0xbca6ce5a	-0.020362068
29	0xbdbe1fc1	-0.092834
30	0xbd2fb986	-0.04290154
31	0x3d764c37	0.060131278
32	0xbd5dd34c	-0.054156587
33	0xbcd74630	-0.026278585
34	0xbcf7dad5	-0.030255714
35	0xbdb13ee7	-0.08654576
36	0xbca7c287	-0.0204785
37	0x3d14431a	0.036196806
38	0xbd52528e	-0.05134826
39	0xbc8b8440	-0.017030835
40	0x3b016c36	0.0019748337
41	0xbe0b8573	-0.13625126
42	0x3d4fa875	0.050697763
43	0x3d84d462	0.06485821
44	0x3d8736c5	0.06602243
45	0xbd215d0d	-0.03939538
46	0x3d1b879a	0.037971117
47	0xbdbc7373	-0.09201708
48	0xbce72374	-0.028215148
49	0xbd23124c	-0.03981237
50	0xbd32aa05	-0.043619175
51	0x3d5846a2	0.052801736
52	0xbd311617	-0.043233957
53	0xbd3bf57d	-0.045888413
54	0xbd0d4891	-0.034493033
55	0xbdc2d9cc	-0.09514198
56	0xbc365f51	-0.011131124
57	0xbd9b4bee	-0.07582842
58	0x3da297a9	0.07939083
59	0x3d80977b	0.062788926
60	0x3d9a1c0b	0.0752488
61	0xbd0ff125	-0.035142083
62	0x3a4b5788	0.00077568786
63	0xbb4c111f	-0.0031138135
64	0x3da8cd8f	0.08242332
65	0x3daf24df	0.085519545
66	0xbd7e743c	-0.06212257
67	0xbda50202	-0.080570236
68	0xbdc3233b	-0.09528204
69	0xbd4f2557	-0.05057272
70	0x3dcf9a23	0.10136821
71	0x3d45bbcc	0.0482748
72	0x3d9bb83b	0.076034985
73	0x3d650901	0.05591679
74	0xbbcce0af	-0.0062523703
75	0xbd93d676	-0.072186396
76	0x3d8b459e	0.06800388
77	0x3d6f2370	0.058383405
78	0x3d002c86	0.03129246
79	0xbd8620aa	-0.06549199
80	0x3d701bf0	0.058620393
81	0x3cda949a	0.026682187
82	0x3d5964ff	0.053074833
83	0x3cbf74c8	0.023371115
84	0x3d114c1f	0.035472985
85	0xbdabb9bb	-0.08385035
86	0xbd7771d3	-0.060411286
87	0x3d54997a	0.05190418
88	0xbca39e59	-0.019972967
89	0xbdc66ba5	-0.096885
90	0x3d6cb1ec	0.057786867
91	0xbc6618db	-0.014044012
92	0x3d6e8438	0.058231562
93	0xbdb4ce3a	-0.08828397
94	0x3c902d67	0.017599775
95	0xbd2b02f7	-0.041750874
96	0xbd490388	-0.049075633
97	0xbce5d53e	-0.028055783
98	0xbd6f62e7	-0.05844393
99	0x3d23b564	0.03996791
100	0xbcd16923	-0.025562828
101	0x3d68eb77	0.05686518
102	0x3d31ad77	0.04337832
103	0xbd333270	-0.043749273
104	0xbd67f309	-0.05662826
105	0xbda99a6e	-0.08281408
106	0xbd0ff2f2	-0.0351438
107	0xbda3e129	-0.0800193
108	0xbcd67a8a	-0.026181478
109	0xbc6a8f94	-0.014316458
110	0xbc5c7b20	-0.01345709
111	0xbd426034	-0.047455028
112	0x3d99389a	0.07481499
113	0x3d319fe3	0.04336537
114	0xbd18d613	-0.037313532
115	0xbc1d3f9a	-0.009597683
116	0x3d2551c8	0.040361196
117	0x3d8a9dc1	0.067683704
118	0xbd569277	-0.052385774
119	0xbceae209	-0.028672235
120	0x3c25f4fe	0.0101292115
121	0xbcf5c0cf	-0.029999165
122	0x3dba59b6	0.09099142
123	0xbc7d1597	-0.015447042
124	0x3da2413a	0.07922597
125	0xbc11b2b9	-0.008892708
126	0xbc4abca4	-0.012374077
127	0xbd189860	-0.03725469
128	0xbd5bdcaf	-0.053677257
129	0xbbfb1656	-0.0076625748
130	0x3d2158aa	0.039391197
131	0xbba8072a	-0.005127807
132	0x3d50e748	0.051001817
133	0xbd2a8af6	-0.04163643
134	0x3d4200ea	0.047364153
135	0x3d9a38f5	0.07530395
136	0xbcba4a88	-0.022740617
137	0x3dbb55db	0.09147235
138	0x3b5caf2d	0.003367375
139	0xbd93cae8	-0.07216436
140	0xbde274fe	-0.11057471
141	0xbb0b8540	-0.002128914
142	0xbd1e3265	-0.03862228
143	0xbcd58eaa	-0.026069004
144	0x3d13d073	0.036087465
145	0x3bd10bca	0.006379579
146	0x3bff36f4	0.0077885333
147	0x3cd10a3c	0.025517575
148	0xbd6a68fb	-0.057229023
149	0xbdcbfc05	-0.09960178
150	0xbcc7576f	-0.024333684
151	0xbd9db406	-0.07700352
152	0xbc5d91d8	-0.013523541
153	0x3c79ae86	0.015239364
154	0xbd154146	-0.036439203
155	0xbdf588da	-0.11988993
156	0x3d1e150d	0.038594294
157	0xbd5bab27	-0.05363002
158	0xbc949be3	-0.018140739
159	0xbdd7ada7	-0.105311684
160	0xbd66cd7b	-0.056348305
161	0x3d09caae	0.033640556
162	0xbdb68ff3	-0.08914175
163	0xbd0d7713	-0.034537386
164	0x3d762ce6	0.060101412
165	0xbd4fe461	-0.05075491
166	0xbcfe9ff6	-0.031082135
167	0xbcf54129	-0.029938297
168	0x3d693f88	0.056945354
169	0xbd26968e	-0.040670924
170	0x3ae11efc	0.0017175372
171	0x3d0229e9	0.03177825
172	0xbd634a8c	-0.055491015
173	0x3c90723f	0.017632602
174	0xbdb9a012	-0.09063734
175	0x3d18e46d	0.03732722
176	0x3cb3b8a2	0.021938626
177	0xbc5825f9	-0.013192647
178	0xbe00f043	-0.12591653
179	0x3d109a2a	0.035303272
180	0x3d3392c9	0.043841157
181	0xbccbe4a0	-0.02488929
182	0x3d3c735a	0.046008445
183	0xbd92759d	-0.07151339
184	0xbd2ab759	-0.04167876
185	0x3c700da5	0.014651691
186	0x3d8408ef	0.064470164
187	0x3b65d4a4	0.003506937
188	0xbdaf05c2	-0.0854602
189	0xbc2b4620	-0.010453731
190	0x3d2b883d	0.041877974
191	0xbcabe72b	-0.020984253
192	0xbd868761	-0.0656879
193	0x3d54a4c1	0.051914934
194	0x3d22b1c3	0.039720308
195	0xbce0b9bb	-0.027432313
196	0x3c8097ec	0.015697442
197	0x3c125091	0.008930341
198	0x3c4e49bc	0.012590822
199	0xbbdbd349	-0.0067085368
200	0xbd8ab60f	-0.06773006
201	0x3ad657b0	0.0016353037
202	0xbae2f4ea	-0.0017315422
203	0x3c346662	0.011010738
204	0xbdd8fc05	-0.10594944
205	0xbc45c25b	-0.012070264
206	0xbd83a18b	-0.06427296
207	0x3cadffa4	0.021240063
208	0x3d110c38	0.035412043
209	0xbcb0fee6	-0.02160592
210	0xbdce746b	-0.10080799
211	0xba751b7d	-0.00093501044
212	0x3c58797e	0.01321256
213	0xbdd741f7	-0.10510629
214	0xbe5e9068	-0.21734774
215	0x3d9b1548	0.075724185
216	0x3d9fb16a	0.07797511
217	0xbd5109aa	-0.051034607
218	0x3d784d5b	0.060620647
219	0xbc80b291	-0.015710147
220	0x3d2cbe82	0.04217387
221	0x3d314c8b	0.043285888
222	0xbd8227bc	-0.06355235
223	0xbc8dae11	-0.017294915
224	0x3d6bce19	0.057569597
225	0x3c4b8817	0.012422583
226	0xbd7dafd0	-0.061935246
227	0xbd97a0b9	-0.07403702
228	0x3ba5f379	0.0050644246
229	0x3d8978f7	0.06712525
230	0x3d8dbda4	0.06920937
231	0xbd0bb206	-0.034105323
232	0x3d72ba20	0.059259534
233	0xbdadd8e1	-0.08488632
234	0xbc5f4761	-0.013627858
235	0xbdb17444	-0.08664754
236	0x3d7a8e93	0.061171126
237	0x39887a5c	0.00026031106
238	0xbcbb055c	-0.022829704
239	0xbb8078bb	-0.003920642
240	0xbdc574f0	-0.09641445
241	0xbda2d029	-0.0794986
242	0x3a993ac1	0.0011690484
243	0x3c8af063	0.016960328
244	0xbe0d0091	-0.13769747
245	0xbda278b1	-0.07933176
246	0x3c5b9a05	0.01340342
247	0x3dc28200	0.09497452
248	0x3c361dba	0.011115486
249	0xbc8162a1	-0.0157941
250	0x3c8a551d	0.016886288
251	0xbc3e6ce6	-0.011622643
252	0xbd970b27	-0.07375174
253	0xbd607df5	-0.054807622
254	0x3c93b54b	0.018030783
255	0x3d74cea2	0.059767373

bias f4 [128]
0	0xbda8f7d3	-0.08250394
1	0x3d8d35e6	0.06895046
2	0xbd10f0a8	-0.035385758
3	0xbd6eabb4	-0.058269218
4	0x3c75cb73	0.015002119
5	0x3d732345	0.059359808
6	0x3d677222	0.05650533
7	0x3d7e0a7b	0.062021714
8	0xbcdb34e7	-0.026758624
9	0x3bcc0444	0.0062260944
10	0x3d9ff32e	0.07810055
11	0x3d614e1e	0.05500614
12	0x3dabce60	0.08388972
13	0x3c0ce370	0.008599147
14	0xbda7a216	-0.08185212
15	0x3cb34fad	0.021888578
16	0xbbc3c44f	-0.0059743295
17	0x3ceb395a	0.02871387
18	0x3d2d171f	0.042258378
19	0x3d528743	0.051398527
20	0xbd15ad28	-0.036542088
21	0xbd7e809a	-0.062134363
22	0x3daf05d0	0.085460305
23	0x3cc4b7d1	0.024013432
24	0x3d69434c	0.056948945
25	0x3ce486df	0.027896343
26	0xbc32b73e	-0.010907946
27	0xbdb00881	-0.08595372
28	0x3da3832c	0.079840034
29	0x3da5ffba	0.081054166
30	0xbc3d93fe	-0.011570929
31	0xbca5fd6a	-0.020262439
32	0x3d147274	0.036241964
33	0xbd874760	-0.066054106
34	0x3cb705e0	0.022341669
35	0x3da6b1da	0.08139391
36	0xbcf6e32a	-0.030137617
37	0xbc06b995	-0.008222957
38	0x3d2db2de	0.04240691
39	0x3a9936e2	0.001168933
40	0xbc1b3a3d	-0.009474334
41	0x3cd183a4	0.025575466
42	0xbaa77d23	-0.0012778383
43	0xbbfece58	-0.007776063
44	0x3c152fa4	0.009105597
45	0x3d39a138	0.045319766
46	0x3d95eaec	0.073201984
47	0x3aca98eb	0.001545695
48	0x3bc9db5c	0.006160183
49	0xbd5b5c83	-0.053555023
50	0x3d190a41	0.037363295
51	0x3d272094	0.040802553
52	0xbd898b45	-0.06716017
53	0x3d426e13	0.047468256
54	0x3cd4a9a1	0.025959792
55	0xbd7def4a	-0.061995782
56	0xbcb97f43	-0.02264369
57	0xbd86b33d	-0.06577156
58	0x3ca9ed05	0.020742903
59	0x3d1d2ac6	0.03837087
60	0xbd88ce99	-0.066800304
61	0xbb3651b1	-0.0027819688
62	0x3d985f7d	0.07440088
63	0x3d8b3832	0.06797828
64	0x3d7a93f8	0.06117627
65	0xbd3126f1	-0.043250028
66	0x3bc11a09	0.005892996
67	0xbd38534c	-0.045001313
68	0x3dbf1f4c	0.09332141
69	0x3bbe70f7	0.0058118063
70	0xbd4457bf	-0.047935244
71	0xbc654f65	-0.01399598
72	0x3bad97e1	0.0052976464
73	0x3d1c7f77	0.038207497
74	0xbcc099f3	-0.023510909
75	0x3c0ed14e	0.008716894
76	0xbdaf2d39	-0.085535474
77	0xbd19373a	-0.037406184
78	0x3d27e4a4	0.040989533
79	0x3ce91bbe	0.028455611
80	0x3db412ea	0.0879267
81	0x3d9cb3a2	0.0765145
82	0x3d249757	0.04018339
83	0xbd74aa0c	-0.05973248
84	0x3da8cc64	0.082421094
85	0x3d5da364	0.0541109
86	0xbd1070d4	-0.03526385
87	0xbccd3f2e	-0.02505454
88	0xbd69cd85	-0.057080764
89	0xbd35550e	-0.044270568
90	0x3d2b38da	0.041802265
91	0xbd1c8ab4	-0.038218215
92	0x3d9d0bc3	0.07668259
93	0x3cbbea74	0.022938944
94	0xbc205329	-0.009785452
95	0x3ce64d1f	0.028112946
96	0x3d361f7d	0.044463623
97	0x3b55cb9a	0.0032622577
98	0xbd95b204	-0.073093444
99	0xbdbc29fd	-0.09187696
100	0x3d9245b5	0.07142202
101	0x3da17c0c	0.07884988
102	0xbd0190aa	-0.031632103
103	0x3d99ecdd	0.07515881
104	0x3d2c9088	0.042130023
105	0xbd89d1ac	-0.06729445
106	0xbbcb0126	-0.0061952053
107	0xbd95ae4c	-0.07308635
108	0x3d196085	0.037445564
109	0x3cc834c8	0.02443923
110	0x3d2c5adf	0.04207885
111	0x3c5483ab	0.012970845
112	0x3c97e029	0.018539505
113	0xbd4b5545	-0.049641866
114	0xbdc068be	-0.09394978
115	0xbd086b9d	-0.033305753
116	0x3d062bcd	0.032756615
117	0xbd06e8fb	-0.03293703
118	0xbc807e15	-0.01568512
119	0xbd1f6cdf	-0.038922187
120	0xbd34a2ce	-0.044100575
121	0xbd39613c	-0.045258746
122	0xbc975bcb	-0.018476387
123	0x3d96190f	0.07328998
124	0xbcbbda55	-0.022931257
125	0xbc9acf3b	-0.018897643
126	0xbcfc8c41	-0.030828597
127	0xbd8e39c7	-0.06944614

weight f4 [128, 128]
0	0xbdaa6b5a	-0.08321257
1	0xbd95727b	-0.07297226
2	0xbcae9658	-0.021311924
3	0xbcc8865f	-0.024478136
4	0xbdb1819a	-0.08667298
5	0xbca4efba	-0.020133842
6	0x3d803299	0.06259651
7	0xbd8f5412	-0.06998457
8	0x3d559e1e	0.052152745
9	0xbda302f0	-0.07959545
10	0x3c2d29c1	0.010569037
11	0xbcb171bd	-0.02166068
12	0xbd8d2180	-0.06891155
13	0xbd824df1	-0.063625224
14	0xbd133664	-0.035940543
15	0xbd87ab09	-0.06624419
16	0x10c17f3c	7.632111e-29
17	0xbdb4b5ee	-0.08823763
18	0x3d967e42	0.073483005
19	0x3a1797df	0.00057828234
20	0xbd8f080c	-0.06983957
21	0xbcf7c80b	-0.030246755
22	0x3da1c1cf	0.07898294
23	0xbbfc9d3c	-0.0077091735
24	0x3d8ccbf8	0.068748415
25	0x3d6cb8c2	0.057793386
26	0xbd492bc2	-0.049113996
27	0x3d954aeb	0.0728968
28	0xbd2be7d3	-0.04196913
29	0xbda99f8b	-0.082823835
30	0x3d43251a	0.047642805
31	0xbd9b50a6	-0.07583742
32	0xbd859f30	-0.06524503
33	0xbd882d80	-0.066493034
34	0x3bc956a9	0.006144364
35	0xbb4154c3	-0.0029499985
36	0x3d853a3a	0.065052465
37	0xbd4eb240	-0.05046296
38	0x3b1e4e7c	0.0024155667
39	0x3d72208f	0.05911308
40	0xbd183a66	-0.037165068
41	0xbca354b6	-0.019937854
42	0xbd68854a	-0.05676774
43	0x3d4d4702	0.050116546
44	0x3ccfaa49	0.025349753
45	0xbce5454e	-0.027987149
46	0xbd02718a	-0.03184656
47	0x3d3c4822	0.04596723
48	0xbdb74355	-0.089483894
49	0x3d0e6318	0.034762472
50	0x3d585595	0.052815992
51	0xbca446ca	-0.020053286
52	0x3d00dc95	0.031460363
53	0x3c81fac6	0.015866648
54	0x3c3a2844	0.011362139
55	0xbd62a9c7	-0.055337694
56	0xbc6b323b	-0.014355238
57	0xbc722852	-0.014780121
58	0x3d1510b1	0.03639287
59	0xbdba68c2	-0.09102012
60	0xbc9422cd	-0.018083
61	0x3cbd202c	0.02308663
62	0x3cddc71e	0.027072486
63	0xbcff593a	-0.031170476
64	0xbd3e474e	-0.04645472
65	0x3d37c3db	0.044864517
66	0x3baeea65	0.0053380006
67	0x3d9e0267	0.07715302
68	0xbd177f55	-0.036986668
69	0x3d1f11e8	0.038835436
70	0xbc9cb2d7	-0.019128246
71	0x39ef8281	0.00045682865
72	0x3b09b282	0.002101094
73	0xbdabe052	-0.08392395
74	0x3d208188	0.03918603
75	0x3c7b8f29	0.015353956
76	0xbdb1776f	-0.08665358
77	0xbc0e33be	-0.0086793285
78	0x3c3937a7	0.011304772
79	0x3d7be4a4	0.061497346
80	0x3ddcdc18	0.10784167
81	0xbcde2c7a	-0.027120817
82	0xbcf6e6fd	-0.03013944
83	0xbce23821	-0.027614655
84	0xbd98e753	-0.074659966
85	0x3d53c050	0.051697075
86	0x3db8c21d	0.09021399
87	0x3d8002c6	0.06250529
88	0xbdaddedf	-0.08489775
89	0xbde02af1	-0.109456904
90	0xbd88fee1	-0.06689239
91	0xbd0d1544	-0.03444411
92	0xbd06b2f6	-0.032885514
93	0xbd97c247	-0.07410102
94	0xbdb55294	-0.08853641
95	0xbdab92d6	-0.08377616
96	0xbcf6545f	-0.030069528
97	0xbc90121a	-0.017586756
98	0x3d995b44	0.07488111
99	0xbda66866	-0.08125381
100	0x3d4e3961	0.05034769
101	0xbd1798ea	-0.037011065
102	0x3db88fea	0.090118244
103	0xbdbc0a9d	-0.09181712
104	0xbd946511	-0.072458394
105	0xbcf5351a	-0.029932547
106	0x3c9b7550	0.018976837
107	0xbdad9d47	-0.08477264
108	0xbcc706bc	-0.024295203
109	0xbd6f98ad	-0.058495212
110	0x3d2bc699	0.041937444
111	0xbd8319f7	-0.06401437
112	0xbd591d5e	-0.053006522
113	0xbd9b413b	-0.07580801
114	0x3c22df17	0.009940884
115	0x3d9e7ebf	0.07739019
116	0x3c8b123b	0.016976466
117	0x3c8ef5b5	0.017451147
118	0x3d4a50ca	0.049393453
119	0xbbe1d335	-0.006891633
120	0xbc46cd79	-0.012133949
121	0x3d4b4860	0.04962957
122	0xbced481d	-0.02896505
123	0xbdb19036	-0.08670084
124	0xbb9356d0	-0.004496433
125	0x3d2ad742	0.041709192
126	0x3d00ba86	0.031427883
127	0x3d89fe5f	0.067379706
128	0x3d849af9	0.06474871
129	0xbba47648	-0.005018983
130	0x3d81dbf1	0.063407786
131	0xbd5e15b1	-0.054219905
132	0xbc6b7893	-0.014372009
133	0x3d8f5c93	0.07000079
134	0x3d9f7e54	0.07787767
135	0xbdbf40f9	-0.093385644
136	0x3db7d0cc	0.08975372
137	0x3c0beee5	0.008540844
138	0xba9d3c3a	-0.0011996098
139	0xbbea2588	-0.0071455874
140	0x3c141af3	0.009039628
141	0xbd44bbe8	-0.048030764
142	0x3db366bf	0.08759832
143	0x3d40e17c	0.04709004
144	0x3bec64a3	0.0072141453
145	0xbdb6b599	-0.08921356
146	0x3d046bad	0.03232925
147	0x3d7732b9	0.060351107
148	0x3d55a7a3	0.052161824
149	0x3d9b7297	0.07590216
150	0xbbed55ea	-0.007242908
151	0xbcb0d5b4	-0.021586277
152	0x3c4ead0c	0.0126145
153	0x3c53068d	0.01287998
154	0x3d2483ab	0.04016463
155	0x3d636b0e	0.055522017
156	0x3d577876	0.052605115
157	0x3d0d6594	0.0345207
158	0x3d774454	0.060367897
159	0xbba3f00a	-0.00500298
160	0xbceb3987	-0.028713955
161	0xbd9b49e4	-0.07582453
162	0xbd1b27b9	-0.03787968
163	0xbdd2e483	-0.102974914
164	0xbd557426	-0.05211272
165	0xbc7d1130	-0.015445992
166	0x3d96c2f8	0.07361406
167	0xbdb7ee75	-0.08981029
168	0x3d39395a	0.04522071
169	0xbd257208	-0.04039195
170	0xbd94f989	-0.072741576
171	0xbd3c8a0c	-0.04603009
172	0xbda83b29	-0.08214409
173	0x3dbd4e1e	0.09243415
174	0x3d94c6fa	0.07264514
175	0x3d92f09b	0.07174798
176	0xbd2a81d5	-0.041627724
177	0xbdd44a63	-0.10365751
178	0xbc8f8e30	-0.017523855
179	0x3d8a87b6	0.06764166
180	0x3d51ea90	0.051249087
181	0xbd7f3a9d	-0.062311757
182	0xbd383244	-0.044969812
183	0x3b3a0682	0.0028385227
184	0x3dc04d19	0.09389705
185	0xbd5387ef	-0.05164331
186	0x3d180f39	0.037123892
187	0x3d59835c	0.05310379
188	0xbc5f3c7d	-0.013625261
189	0xbda0a8f8	-0.07844728
190	0xbd597ad7	-0.053095665
191	0x3da25081	0.07925511
192	0xbdbd85e7	-0.092540555
193	0x3d11679d	0.035499204
194	0x3d93a209	0.0720864
195	0xbdcba232	-0.09943046
196	0xbb27cab1	-0.0025602991
197	0x3d76e890	0.060280383
198	0xbd12598e	-0.035729937
199	0x3dab1c6d	0.08355031
200	0xbc0f9798	-0.00876417
201	0xbd899db6	-0.06719534
202	0x3d76866d	0.060186792
203	0x3a09ca9b	0.0005256326
204	0xba4abcaa	-0.00077338016
205	0x3cc6cdc0	0.024268031
206	0xbbfb31f1	-0.0076658656
207	0xbc19e893	-0.009393829
208	0xbd164910	-0.03669077
209	0xbd6709de	-0.056405894
210	0xbd8b6012	-0.06805433
211	0x3c2d1ca5	0.010565911
212	0xbd7ee460	-0.062229514
213	0xbbe24175	-0.0069047757
214	0xbca21123	-0.019783562
215	0xbd784f44	-0.06062247
216	0xbc008bf1	-0.007845865
217	0xbda4c459	-0.08045263
218	0x3d90f726	0.0707839
219	0x3d2b1c4c	0.041775033
220	0x3dabd79b	0.08390733
221	0x3c26e596	0.0101865735
222	0x3d82605a	0.06366034
223	0xbc13e394	-0.009026427
224	0xba801ba0	-0.0009773858
225	0xbdb00ffe	-0.085968
226	0x3cf9e927	0.030506684
227	0x3d2b418c	0.041810557
228	0xbcf63aa5	-0.03005726
229	0xbd175310	-0.03694445
230	0xbde63632	-0.11240806
231	0x3d852430	0.06501043
232	0xbca0c8ea	-0.019627053
233	0x3ce2e310	0.027696162
234	0x3d288c3e	0.04114937
235	0x3d915c10	0.07097638
236	0x3c3601f8	0.011108868
237	0x3ccb9f18	0.024856135
238	0xbd2247cc	-0.039619252
239	0xbda1a7a7	-0.07893305
240	0x3da0334a	0.078222826
241	0x3beb55ad	0.007181844
242	0x3c9c06a0	0.019046128
243	0xbdbcf14d	-0.09225712
244	0xbce17709	-0.02752258
245	0x3c1d84fe	0.009614227
246	0x3d9ef42f	0.07761418
247	0x3d22a691	0.03970963
248	0xbc794978	-0.01521527
249	0xbd0552ef	-0.032549795
250	0x3d78b372	0.060718007
251	0x3d1f6129	0.03891102
252	0x3cae31b4	0.021263935
253	0x3d1b7372	0.037951894
254	0xbcba0807	-0.022708906
255	0x3db1220d	0.08649073

bias f4 [128]
0	0x3cb6d29b	0.022317221
1	0x3d795620	0.06087315
2	0xbcc47f63	-0.023986524
3	0x3d984a44	0.0743604
4	0xbd482d4e	-0.04887133
5	0x3d49874f	0.049201306
6	0xbd9c0bb3	-0.07619419
7	0x3c58cca3	0.013232383
8	0xbcf31be3	-0.029676383
9	0x3d90430f	0.070440404
10	0x3d4e96ba	0.050436713
11	0xbd493156	-0.049119316
12	0xbd1a1cb4	-0.03762503
13	0xbd5a6094	-0.05331476
14	0x3bf84b2e	0.0075773215
15	0xbd4f4691	-0.050604407
16	0xbc8c853b	-0.017153373
17	0xbd8c5d5a	-0.06853743
18	0x3b9f4504	0.004860522
19	0xbd37c7a7	-0.044868138
20	0x3c182a4d	0.009287429
21	0x3d68aeb4	0.056807235
22	0x3da02953	0.07820382
23	0xbd987bcd	-0.07445488
24	0xbcb43d97	-0.022002025
25	0x3d45dcae	0.04830616
26	0x3cb67378	0.022271857
27	0x3db5193e	0.08842705
28	0xbbddc816	-0.006768237
29	0xbd5a8008	-0.053344756
30	0xbc03b4a0	-0.00803867
31	0x3db77a25	0.08958844
32	0x3d68be46	0.056822084
33	0xbd13f328	-0.036120564
34	0xbd901e85	-0.07037071
35	0x3d468a06	0.048471473
36	0x3ca1770b	0.019710084
37	0x3d71d77a	0.059043385
38	0xbdc69c71	-0.096978076
39	0xbd4b68ae	-0.049660377
40	0xbd89bac6	-0.06725077
41	0xbd1aaaa2	-0.037760384
42	0x3d77c655	0.06049188
43	0x3d9675cb	0.07346686
44	0xbcaec209	-0.021332758
45	0xbd9fb7cc	-0.07798728
46	0xbc39ea25	-0.011347328
47	0x3ccb2b3d	0.024800891
48	0xbd361d6e	-0.04446166
49	0xbd0a2960	-0.033730865
50	0x3b23f39e	0.0025017033
51	0xbc8e4585	-0.017367134
52	0x3d6173d4	0.055042103
53	0x3d9d36c6	0.07676463
54	0x3c01820d	0.007904542
55	0xbd3a0271	-0.045412485
56	0xbb603d6c	-0.0034216298
57	0x3d4aa118	0.049470037
58	0xbd4c74b5	-0.049915988
59	0xbc30e0df	-0.010795801
60	0x3db0648a	0.08612926
61	0x3d1a95be	0.03774046
62	0x3d264c70	0.04060024
63	0xbc826563	-0.015917486
64	0xbc651aa6	-0.013983404
65	0xbce0843e	-0.027406808
66	0x3d8189b9	0.06325097
67	0x3d6876ae	0.056753807
68	0x3d4e7d0c	0.050412223
69	0x3d249120	0.040177464
70	0x3db56dd4	0.08858839
71	0xbd6359c0	-0.055505514
72	0x3d5a49cc	0.053293034
73	0xbc76211a	-0.01502254
74	0x3c9a969e	0.018870648
75	0x3d92e345	0.071722545
76	0xbd4deac7	-0.05027273
77	0x3b810cea	0.003938307
78	0xbbfabcd2	-0.0076519037
79	0x3d56d566	0.052449606
80	0x3cb38497	0.02191381
81	0xbd9ef2ee	-0.07761179
82	0x3d2a3302	0.04155255
83	0xbdabf4a3	-0.0839627
84	0xbccd0503	-0.025026804
85	0xbd07c6f9	-0.03314874
86	0xbcb5ca68	-0.022191241
87	0x3d02aa28	0.031900555
88	0xbd921054	-0.071320206
89	0xbda102bd	-0.078618504
90	0xbd6d8ce0	-0.057995677
91	0x3c8247ba	0.015903343
92	0xbd75e718	-0.06003484
93	0xbce0ca6b	-0.02744027
94	0xbc366f33	-0.01113491
95	0xbd29e4fb	-0.04147814
96	0xbd8f6b3d	-0.07002876
97	0x3d54fd5c	0.051999435
98	0xbd9e5a62	-0.07732083
99	0x3d5edc19	0.05440912
100	0x3d9d4329	0.076788254
101	0xbd268ae2	-0.040659793
102	0x3cc62b9a	0.024190713
103	0x3d2cae13	0.042158198
104	0xbb78b60c	-0.0037950305
105	0xbd41ce07	-0.047315624
106	0x3db62d38	0.088953435
107	0x3c93af4a	0.01802792
108	0xbd187838	-0.037224025
109	0x3c9f8f80	0.019477606
110	0x3d661eeb	0.05618183
111	0xbda995f3	-0.08280554
112	0x3db3e1f3	0.08783331
113	0x3d1c0c71	0.038097803
114	0xbd9250c9	-0.07144315
115	0x3d11e068	0.0356144
116	0xbc9edc90	-0.019392282
117	0x3d638307	0.05554488
118	0xbcda9f1b	-0.026687196
119	0xbd1912bc	-0.037371382
120	0x3b1717a3	0.002305486
121	0xbd0e704c	-0.034775063
122	0x3d868ac7	0.065694384
123	0xbd9a083d	-0.075211026
124	0xbca1af4f	-0.019736914
125	0xbd6a8c69	-0.05726281
126	0xbd5bace5	-0.053631682
127	0xbb6beb4a	-0.0035998398

weight f4 [128, 128]
0	0x3cd2285d	0.025654012
1	0x3cee3d90	0.02908209
2	0xbd240e8c	-0.040052935
3	0xbdd7eb9c	-0.10542986
4	0xbd1ac77e	-0.037787907
5	0x3d8b7b61	0.06810642
6	0x3d7611e5	0.06007566
7	0x3d730024	0.059326306
8	0x3b63dc74	0.0034768851
9	0xba55ee92	-0.0008160855
10	0xbcec8b77	-0.028875096
11	0xbd38b268	-0.045092016
12	0xbd1e1469	-0.038593683
13	0xbb46170d	-0.0030226142
14	0xbd7baea1	-0.061445836
15	0xbd98464f	-0.07435285
16	0x3cb9794d	0.022640849
17	0xbd42f418	-0.047596067
18	0xbcad38c4	-0.021145232
19	0xbd96dc55	-0.07366244
20	0x3c9edcfc	0.019392483
21	0x3d67a994	0.056558207
22	0x3c38bdd0	0.011275724
23	0xbd308e30	-0.04310435
24	0x3c856f12	0.016288314
25	0x3ca52ab1	0.020161958
26	0xbc599098	-0.013279103
27	0xbdb3d506	-0.08780865
28	0xbd30bdf5	-0.043149907
29	0xbd24672c	-0.040137455
30	0xbd2836e2	-0.041067965
31	0x3b6efaba	0.0036465363
32	0x3d8e33b8	0.06943458
33	0x3d307d5e	0.04308831
34	0x3be49d53	0.0069767623
35	0x3cb68399	0.022279548
36	0xbd009cf5	-0.031399686
37	0x3dac365c	0.08408806
38	0x3c156be3	0.0091199605
39	0x3d08d93a	0.03341029
40	0x3d2207f6	0.039558373
41	0x3d3d06d0	0.046149075
42	0x3d85edc7	0.06539493
43	0xbd8cce09	-0.068752356
44	0xbd7c1fbc	-0.0615537
45	0xbcc57038	-0.024101362
46	0x3d16305b	0.03666721
47	0xbd85c604	-0.06531909
48	0xbd96f02c	-0.07370028
49	0xbd7c24f5	-0.061558682
50	0x3d46f6e2	0.04857529
51	0x3da428f7	0.08015626
52	0xbb8953af	-0.004190884
53	0xbd351609	-0.044210467
54	0x3d887377	0.06662648
55	0xbd71b564	-0.05901088
56	0x3cf95216	0.03043465
57	0xbd8aaab2	-0.06770839
58	0xbda109a2	-0.078631654
59	0xbd3e4da5	-0.046460766
60	0x3cb1f97a	0.021725405
61	0x3d46f157	0.048570003
62	0x3d9b9961	0.07597614
63	0xbc6ddcd9	-0.014517986
64	0x3db92dbe	0.09041928
65	0x3c8e9de9	0.017409282
66	0x3cf15d2f	0.029463379
67	0x3dd5e36b	0.10443767
68	0x3da2aced	0.07943139
69	0x3dbc4245	0.091923274
70	0x3d181cf1	0.037136976
71	0x3cbab0af	0.022789327
72	0xbd05fcc9	-0.032711778
73	0xbd2d97ce	-0.0423811
74	0xbd950729	-0.07276756
75	0xbc420f63	-0.011844489
76	0xba98f6b3	-0.0011670202
77	0x3c9309b4	0.017948963
78	0x3d44b7ad	0.04802673
79	0x3b6ec83e	0.0036435272
80	0x3d6664a2	0.056248315
81	0xbc9395f9	-0.018015848
82	0xbc4fe8af	-0.012689753
83	0x3b616bd4	0.0034396546
84	0x3d80fc83	0.06298163
85	0xbc588d98	-0.013217352
86	0xbb286ff3	-0.0025701493
87	0xbd88bc2d	-0.06676517
88	0x3db2a57f	0.08722972
89	0x3d15bb59	0.03655562
90	0x3db7aba6	0.08968286
91	0xbdc9a045	-0.09845022
92	0xbd9b4b48	-0.07582718
93	0xbd85e476	-0.06537716
94	0xbca1c65f	-0.019747911
95	0x3c16cb7c	0.009203788
96	0xbd36592c	-0.044518635
97	0x3d5aa54d	0.0533803
98	0xbb6f76ef	-0.0036539396
99	0x3d970c29	0.07375366
100	0xbd18719d	-0.037217725
101	0xbd8630e8	-0.06552297
102	0xbd81b5cb	-0.063335024
103	0xbd995b96	-0.07488172
104	0xbc49b0e6	-0.012310242
105	0xbda46bfe	-0.080284104
106	0xbd668e3a	-0.05628798
107	0x3dcc4b1f	0.09975266
108	0xbcb9d0c4	-0.022682555
109	0xbcafa0c5	-0.021438966
110	0xbd8a992b	-0.06767496
111	0x3ca88473	0.02057097
112	0xbd5cdf66	-0.053923987
113	0xbb496f11	-0.0030736367
114	0x3bad5e51	0.0052907844
115	0xbd20adc2	-0.03922821
116	0xbc3ddefd	-0.011588809
117	0xbcf9eede	-0.030509409
118	0x3cb916cf	0.022593884
119	0x3cd4ed46	0.025992047
120	0xbd057444	-0.032581583
121	0x3d23de1c	0.040006742
122	0x3d8940e1	0.06701828
123	0xbd80215f	-0.06256365
124	0xbcf62210	-0.03004554
125	0xbd698196	-0.05700835
126	0x3b1fc01f	0.0024375988
127	0xbd2e65fb	-0.042577725
128	0xbd92d3a0	-0.071692705
129	0xbd88e263	-0.06683805
130	0xbca9f185	-0.020745048
131	0x3c85b6bc	0.016322486
132	0xbd7e5c52	-0.062099762
133	0xbc1e9948	-0.0096801
134	0x3cf68ad5	0.030095497
135	0xbd79126b	-0.06080858
136	0xbd3df168	-0.0463728
137	0x3c65cf09	0.014026412
138	0xbd14a2d8	-0.036288112
139	0xbce6d3a6	-0.028177094
140	0x3aad381f	0.0013215578
141	0xbd6a13d7	-0.057147827
142	0xbc9cd27f	-0.019143341
143	0x3c064d9c	0.008197214
144	0x3d9d6ac5	0.0768638
145	0x3d0297b4	0.031882957
146	0xbd3a9ef4	-0.045561746
147	0x3db3c202	0.087772384
148	0x3d33ebe6	0.043926142
149	0xbd0acdb1	-0.03388757
150	0x3d4368d7	0.047707405
151	0x3d3c7738	0.046012133
152	0xbcdd0efd	-0.026984686
153	0xbaf645f6	-0.001878916
154	0x3c41e3c1	0.011834086
155	0xbd8a2315	-0.067449726
156	0x3b26b554	0.002543767
157	0xbd155f14	-0.036467627
158	0xbda9a571	-0.082835086
159	0xbdd9c9ed	-0.106342174
160	0x3c18116f	0.0092815
161	0xbd87548a	-0.066079214
162	0xbd616820	-0.055030942
163	0x3dacdaa4	0.0844014
164	0x3d2d0ca9	0.0422484
165	0x3d8b438a	0.067999914
166	0xbde51f2f	-0.111875884
167	0xbd46ad10	-0.04850489
168	0x3d31e8be	0.04343485
169	0x3d42215a	0.047395088
170	0xbcaf328e	-0.021386411
171	0x3d177076	0.036972485
172	0xbd8e46e3	-0.06947114
173	0x3b7435bd	0.0037263476
174	0xbdba9e96	-0.09112279
175	0xbdf7f12b	-0.12106546
176	0x3c9d58f0	0.019207448
177	0xbd460d2a	-0.048352398
178	0xbd998c5d	-0.07497475
179	0xbbb393c3	-0.005480261
180	0x3d856556	0.06513469
181	0x3bb03b70	0.0053781793
182	0xbd24e1f1	-0.040254537
183	0xbde86f3f	-0.113493435
184	0x3d99deac	0.075131744
185	0x3c8b4f37	0.017005546
186	0xbd6df16a	-0.05809156
187	0xbd2e07c6	-0.042487882
188	0x3d8dfcc6	0.06932978
189	0xbc82797f	-0.015927074
190	0xbd0dfff0	-0.03466791
191	0x3d67f906	0.05663397
192	0x3d716924	0.05893816
193	0x3cce5822	0.02518851
194	0x3d6e4a52	0.058176346
195	0xbc1600e9	-0.00915549
196	0x3c483dde	0.012221782
197	0xbd127e6f	-0.035765108
198	0xbc4fcc2c	-0.012682956
199	0xbd9251af	-0.07144486
200	0xbdbd3271	-0.092381366
201	0x3d4b1f40	0.04959035
202	0xbd74abe7	-0.05973425
203	0x3c5c50d8	0.013447009
204	0xbda99a10	-0.08281338
205	0x3dbd2796	0.09236066
206	0x3d8ee705	0.06977657
207	0x3c191962	0.009344431
208	0x3bbf425d	0.0058367685
209	0x3cfc93b4	0.03083215
210	0x3cbb572e	0.022868719
211	0xbd962a9c	-0.07332346
212	0x3ceead8b	0.029135486
213	0x3da8a658	0.082348526
214	0x3cd06193	0.025437152
215	0x3c77cea8	0.015124954
216	0x3ceadcab	0.028669676
217	0x3debe104	0.11517528
218	0xbd6e8d13	-0.058240008
219	0xbd822861	-0.06355358
220	0xbd650a82	-0.055918224
221	0xbd8f1fa3	-0.06988456
222	0xbcb53d29	-0.02212389
223	0x3d832e6d	0.064053394
224	0xbd90fac6	-0.07079081
225	0x3d9775cb	0.07395514
226	0xbd4c8025	-0.049926896
227	0x3d7df025	0.061996598
228	0x3d410e1d	0.0471326
229	0xbdb90f48	-0.09036118
230	0xbd12994d	-0.03579073
231	0xbdcf4ebb	-0.101224385
232	0x3d7e9ed5	0.062163193
233	0xbcdbdd88	-0.026839033
234	0x3d89105e	0.06692575
235	0x3d57224d	0.052522946
236	0xbbf35a2d	-0.0074265213
237	0xbd981782	-0.07426359
238	0xbbfb34bb	-0.007666198
239	0xbd915a89	-0.07097346
240	0x3d205bf6	0.0391502
241	0xbd4c23a0	-0.049838662
242	0x3d8763a8	0.06610805
243	0xbd555ba2	-0.05208934
244	0xbd0a9619	-0.03383455
245	0x3d3a7237	0.04551908
246	0xbd750689	-0.059820686
247	0x3dca40f2	0.098756686
248	0x3d848b2a	0.06471856
249	0xbda8c433	-0.08240547
250	0xbd027bfe	-0.03185653
251	0x3ac5fa22	0.0015104453
252	0x3d4db784	0.050223842
253	0xbd6fbedf	-0.05853164
254	0x3d30f51e	0.043202512
255	0xbd87ddf2	-0.066341296

bias f4 [128]
0	0xbce5abc4	-0.028036006
1	0x3d4dbd69	0.050229464
2	0x3d6ccd16	0.057812773
3	0xbcfe5bf0	-0.031049699
4	0x3d815508	0.063150465
5	0x3d8745b8	0.06605095
6	0xbdba41b9	-0.09094567
7	0xbb467b14	-0.0030285763
8	0x3d7ac0b7	0.061218943
9	0x3d7387fd	0.05945586
10	0x3cc05a3c	0.023480527
11	0xbd051c6d	-0.032497812
12	0x3d911490	0.07084
13	0x3c3e4d70	0.011615142
14	0xbd5242bd	-0.051333178
15	0x3b38a6f2	0.002817568
16	0x3d1ab187	0.03776696
17	0x3d81e79f	0.06343006
18	0xbc664856	-0.014055332
19	0x3c6d75aa	0.014493385
20	0x3c7d84aa	0.015473524
21	0x3d2a8cce	0.041638188
22	0xbd29dd30	-0.041470706
23	0xbce48f6b	-0.027900418
24	0x3d6e070e	0.058112197
25	0xbd51525c	-0.051103935
26	0x3dde6e60	0.10860896
27	0x3dbedf6e	0.093199596
28	0x3cb8cb75	0.022557953
29	0xbd43f1ea	-0.04783813
30	0x3d1ba8ea	0.038002886
31	0x3dd87dce	0.1057087
32	0x3d95ba24	0.07310894
33	0xbd6ca1a2	-0.057771333
34	0x3dc39a32	0.09550895
35	0xbc452770	-0.012033328
36	0x3cde9593	0.027170932
37	0x3d37d9fb	0.044885617
38	0xbd7bfb6a	-0.061519064
39	0x3d902290	0.07037842
40	0x3daf8837	0.08570903
41	0x3d97ad7a	0.07406135
42	0xbd8a9659	-0.06766958
43	0x3dae6310	0.085149884
44	0xbdad90f5	-0.08474914
45	0xbcc28beb	-0.023748359
46	0xbd3acf06	-0.04560759
47	0x3d9abb72	0.075552836
48	0xbcfbbe06	-0.030730259
49	0xbc70c8d1	-0.014696316
50	0xbd6ee6e6	-0.05832567
51	0x3c8a1de8	0.016859964
52	0x3d1fc60a	0.039007224
53	0xbdb41969	-0.08793909
54	0x3d14cc1f	0.036327478
55	0xbd18729f	-0.037218686
56	0x3dc9fe1c	0.09862921
57	0xbd595363	-0.05305804
58	0xbd014cdc	-0.03156744
59	0xbcab0997	-0.020878596
60	0x3ce215e6	0.027598333
61	0x3d4fb03d	0.050705183
62	0x3d6da016	0.058013998
63	0xbd528d35	-0.051404197
64	0xbc1efb80	-0.009703517
65	0xbc66b844	-0.014082018
66	0x3dcece14	0.100979
67	0xbcf4256c	-0.029803
68	0x3b5062fe	0.0031797285
69	0x3da58936	0.080828115
70	0xbd8265e0	-0.06367087
71	0x3db307b1	0.087417014
72	0xbbd013c2	-0.0063500116
73	0xbc8a672a	-0.016894896
74	0x3d57faba	0.052729346
75	0xbc565e66	-0.01308403
76	0x3a8a763a	0.0010563799
77	0xbcb2b200	-0.021813393
78	0x3d197cff	0.03747272
79	0x3ce6aa09	0.028157251
80	0xbcd93bb5	-0.026517728
81	0xbd6c2213	-0.057649683
82	0xbc4ef790	-0.012632266
83	0x3d389276	0.04506155
84	0x3c756d2e	0.014979644
85	0x3d94b532	0.07261123
86	0xbcb45868	-0.022014812
87	0x3cc50198	0.024048612
88	0xbd31c678	-0.043402165
89	0x3c77c4b5	0.015122582
90	0x3cffa2fd	0.031205649
91	0xbcc7afbc	-0.024375789
92	0xbb86f45f	-0.004118487
93	0x3b7f6130	0.003896784
94	0x3da123ba	0.078681424
95	0xbda95889	-0.0826884
96	0xbd97bbb9	-0.07408852
97	0x3bbba672	0.005726629
98	0xbd7a4667	-0.061102297
99	0xbd5957d4	-0.053062275
100	0x3da6f4f1	0.081521876
101	0xbc66a5f8	-0.014077656
102	0x3d0371da	0.032091
103	0x3d4cfc5b	0.050045352
104	0x3da567da	0.08076449
105	0xbd7dc7c5	-0.061958093
106	0xbc69e8a8	-0.014276661
107	0x3d436e95	0.04771288
108	0xbda08eee	-0.07839762
109	0x3da4155a	0.08011885
110	0xbd23aa5a	-0.03995738
111	0xbcfaf4f7	-0.030634386
112	0x3d8f8401	0.070075996
113	0xbd871ffe	-0.06597899
114	0x3dcc160d	0.09965143
115	0xbc34b769	-0.0110300565
116	0xbd0459f1	-0.032312337
117	0x3db32dce	0.08748971
118	0x3cb136bc	0.021632545
119	0xbd7264a1	-0.059178
120	0xbd133bac	-0.03594558
121	0x3c35e594	0.011102099
122	0x3d33dda9	0.043912563
123	0xbc5aebde	-0.013361899
124	0x3d392bab	0.04520766
125	0x3d526392	0.05136449
126	0x3cda8988	0.026676908
127	0xbd487b73	-0.048945855

weight f4 [1, 128]
0	0xbd7c348b	-0.061573546
1	0xbd0db9c8	-0.034601003
2	0xbd94d8c0	-0.07267904
3	0xbd306f8a	-0.043075122
4	0xbd6be95e	-0.057595603
5	0x3d31f763	0.043448817
6	0x3d35f988	0.044427425
7	0x3d488c32	0.048961826
8	0xbdb1d21b	-0.086826526
9	0xbda12004	-0.078674346
10	0xbc89e184	-0.016831167
11	0xbd0c1aaf	-0.034205135
12	0xbd20b9d2	-0.039239712
13	0x3dcf834c	0.10132465
14	0xbb6942e4	-0.0035592848
15	0xbd66e78f	-0.056373175
16	0x3d03d734	0.032187656
17	0x3db9fa8d	0.09080992
18	0xbd6e14b3	-0.05812521
19	0x3de2fb06	0.11083035
20	0x3cbf9513	0.023386514
21	0x3da23fe1	0.0792234
22	0xbdbb5004	-0.09146121
23	0x3d2397aa	0.03993956
24	0xbc9232fa	-0.017846573
25	0xbcbc1798	-0.02296047
26	0x3db9280d	0.09040842
27	0x3ca11681	0.019664051
28	0x3d92a079	0.07159514
29	0xbc1232df	-0.008923261
30	0xbd811a90	-0.063038945
31	0x3cbb95b8	0.02289854
32	0xbdc4528d	-0.09586058
33	0xbd33f2ac	-0.0439326
34	0x3db817e3	0.08988931
35	0x3dbbe609	0.09174735
36	0xbd950e8f	-0.072781675
37	0xbd6d15d7	-0.057882156
38	0xbd84442c	-0.06458315
39	0xbd449b43	-0.04799963
40	0x3d670f7c	0.05641125
41	0x3dbd9af2	0.09258069
42	0xbda03bec	-0.07823929
43	0x3ce95589	0.02848317
44	0xbd9aee97	-0.07565039
45	0x3d4c7ee2	0.049925692
46	0xbd365c4c	-0.044521615
47	0x3cb56ca8	0.022146538
48	0x3d800b4b	0.06252154
49	0x3db8b0b8	0.090180814
50	0xbcb6c7ac	-0.022312008
51	0x3d50bded	0.050962377
52	0x3cc83199	0.024437713
53	0x3aeaf82c	0.0017926744
54	0xbd5b6b00	-0.05356884
55	0xbd9fea14	-0.07808319
56	0x3dc1026a	0.094242886
57	0x3bba99ca	0.0056946026
58	0xbd834ad1	-0.064107545
59	0xbd837d10	-0.06420338
60	0xbd9479b8	-0.072497785
61	0xbc8c7930	-0.01714763
62	0x3ceab3ff	0.028650282
63	0xbd34bede	-0.044127338
64	0x3df18ca2	0.11794402
65	0x3d19a2d8	0.037508816
66	0x3d4a5fe7	0.049407866
67	0xbdc43f1d	-0.095823504
68	0xbc861206	-0.016366016
69	0x3da9ebed	0.082969524
70	0x3a9fb72c	0.0012185327
71	0x3d39b9ff	0.045343395
72	0xbd456382	-0.0481906
73	0x3cbfa444	0.023393758
74	0x3cec0541	0.028811099
75	0xbb54a90b	-0.003244939
76	0x3cc2cb5c	0.02377861
77	0x3d5025ff	0.050817486
78	0x3d0742bc	0.033022627
79	0x3d640d01	0.055676464
80	0x3cd75307	0.026284708
81	0xbda8d62d	-0.08243976
82	0xbcf6e59a	-0.03013878
83	0x3dbe147b	0.0928125
84	0xbd956640	-0.07294893
85	0x3cc443b9	0.023958074
86	0x3d19239f	0.037387487
87	0xbd8b9e14	-0.068172604
88	0xbd250935	-0.040291984
89	0xbd43a34e	-0.04776316
90	0x3dd92620	0.10602975
91	0x3d9cddf6	0.07659523
92	0xbd37260d	-0.044714022
93	0xbdb568fd	-0.088579156
94	0xbd5c289a	-0.05374966
95	0xbb282ce5	-0.0025661525
96	0xbc2d121b	-0.010563399
97	0xbd6dc39c	-0.058047876
98	0xbd9b3601	-0.0757866
99	0x3d2e27ae	0.04251831
100	0xbdb017d1	-0.085982926
101	0x3de39a94	0.11113468
102	0x3d7c5bb1	0.06161088
103	0xbc92eefa	-0.017936219
104	0x3da73d7f	0.08166026
105	0xbdc548b3	-0.09633007
106	0xbc0b22d5	-0.008492191
107	0x3be405c8	0.006958697
108	0xbd925188	-0.07144457
109	0x3db07af9	0.08617205
110	0xbd775f28	-0.060393482
111	0x3d977694	0.07395664
112	0xbd916ed3	-0.07101216
113	0xbd7848f1	-0.060616437
114	0x3d31c01c	0.0433961
115	0x3a33d2a7	0.0006859698
116	0xbd282b47	-0.041056897
117	0xbdc15fd1	-0.09442104
118	0xbd2e95ef	-0.042623457
119	0xbcc58dfb	-0.024115553
120	0x3dd7e251	0.10541213
121	0x3dd59780	0.10429287
122	0xbc87966b	-0.016551217
123	0x3da97c7d	0.082756974
124	0xbd9a1782	-0.07524015
125	0xbcabb496	-0.020960134
126	0xbc91408c	-0.017730974
127	0xbc5249b9	-0.01283496
