Dry fermentation prediction and optimization system/predictor_percolate_tank/Predictor_Percolate Tank Biogas Production/models/NeuralNetTorch_BAG_L1/S1F5/net.params (torch, 208391 bytes, 9 tensors)

weight f4 [128, 7]
000000 ac c1 cf bc 8a db 46 3e 48 cc 9f be 8c 70 8e be
       -0.025360905 0.19419685 -0.31210542 -0.2782024
000010 98 38 20 be 5e 8f 01 3e 8d f5 5d bc 08 ad a1 3e
       -0.15646589 0.12652346 -0.013547313 0.31577325
000020 18 2e 15 bd 86 6f bf 3d fa 88 e3 bd c9 34 09 be
       -0.03642091 0.09347443 -0.111101106 -0.13399042
000030 b6 2c b4 be 69 1f 6f be 6b d9 3a be 50 8d 39 bc
       -0.35190362 -0.23351826 -0.18247001 -0.011325195
000040 c5 e9 2a 3e b6 6e 66 3e d5 8a 82 be c1 20 27 be
       0.16690738 0.2250317 -0.25496545 -0.16321088
000050 4f 5d 00 3e 7b dd a6 3e 28 e1 aa bd ab 1a 8e 3e
       0.12535594 0.3259085 -0.083437264 0.2775472
000060 e1 17 96 bd 90 f2 15 3d 91 ed a9 3e ed 53 bb be
       -0.07328773 0.03660828 0.3318906 -0.36587468
000070 15 8a 7b be 80 20 07 be 2d ad 0e be 82 cf ad 3e
       -0.24564393 -0.13195992 -0.13933249 0.33947378
000080 dc 41 70 be de 52 2b be 48 18 89 be 89 6d cc be
       -0.23462623 -0.1673083 -0.26776338 -0.3992732
000090 b5 ae 8d be c1 3d 9a 3e 76 21 17 3e 50 ee 16 3e
       -0.27672353 0.3012524 0.14758858 0.14739347
0000a0 78 eb 41 3b d1 b9 26 be 3d 93 bb 3d 95 f9 ae be
       0.0029589813 -0.16281821 0.09158943 -0.3417479
0000b0 5e fb 8c be d2 28 50 be aa 01 80 3e 3c a0 5b 3e
       -0.27535528 -0.20328072 0.2500127 0.21447843
0000c0 3b c6 21 be e2 c4 43 bd 04 bd 8d 3e 6c 04 c0 3e
       -0.15798275 -0.047795184 0.2768327 0.37503374
0000d0 90 96 13 3e bb 88 ad 3c 87 3a 7c 3e 18 ce 61 be
       0.14412904 0.021183362 0.24631701 -0.22051275
0000e0 4e 5e db 3d 48 a9 9e be 66 26 8c be 7d 69 58 be
       0.107113466 -0.30988526 -0.27373046 -0.2113399
0000f0 89 ff 24 3e f5 99 23 3e 3d 5e 5d be 3d 25 f7 3d
       0.16113104 0.15976699 -0.2161798 0.120676495
000100 54 29 4e 3e 96 68 37 bd ae a0 cb 3c ef e9 ed 3d
       0.20132953 -0.044777475 0.024856891 0.11616885
000110 e1 37 75 3e 5d 5d b2 3e af ad 7f be 36 0b e3 bd
       0.23947097 0.34836856 -0.24968599 -0.11086123
000120 64 5c 0e 3e 34 6a a9 3e a0 5a b4 3e a2 58 a4 3e
       0.13902432 0.3308884 0.3522539 0.3209887
000130 9b 43 ba 3d 14 47 ab be a6 a6 28 bc fe 63 80 be
       0.09094926 -0.33452666 -0.010293638 -0.25076288
000140 6c 94 bb be e7 9f 9c 3e d0 8b 95 3e 47 90 bf be
       -0.36636674 0.30590746 0.2920823 -0.37414762
000150 54 b4 eb 3d 5f 1d a6 bd fb 42 af bd ff 05 52 be
       0.11509004 -0.08111071 -0.085576974 -0.205101
000160 b5 f9 08 3e b0 f4 49 be 72 f4 fe 3d 01 6a 40 3e
       0.13376506 -0.19722247 0.12448968 0.18790437
000170 53 d1 a7 3e e4 e2 38 3e b6 db b2 be d5 de 84 be
       0.3277689 0.18055302 -0.3493325 -0.25951257
000180 0c 50 4a 3e 14 ae be 3d 09 71 a4 be 8c 23 72 be
       0.19757098 0.093105465 -0.3211749 -0.23646373
000190 c8 3e ba 3e e7 f2 86 3e dc 41 31 be 1e 8a bf bd
       0.36376023 0.26357195 -0.1731028 -0.09352516
0001a0 b1 b5 c8 be f6 5d 0d bd e1 c7 8b be a0 59 88 be
       -0.3920112 -0.034513436 -0.27300933 -0.26630878
0001b0 99 f1 3a bc d3 a3 47 3d b7 bc 2a be 8c 91 63 3e
       -0.01141014 0.04874022 -0.16673551 0.2222349
0001c0 c9 7e 71 be f4 85 b4 3e de dd 86 3e de 7b a0 be
       -0.23583521 0.35258448 0.26341146 -0.31344503
0001d0 63 5d d1 bd 38 ce 9b 3c 27 d3 71 3d ac 68 ee 3d
       -0.1022289 0.019019231 0.05903926 0.11641058
0001e0 b7 28 0c 3e 7c 4d b5 3c c2 fd 57 be 11 ea 65 3e
       0.13687406 0.022131674 -0.21092895 0.2245257
0001f0 4e 07 b1 be 5c 9e 68 be db 07 ec bd 04 37 68 be
       -0.34575886 -0.2271666 -0.11524936 -0.22677237
000200 54 49 0a be e7 4a a3 be 13 59 ea bd 87 5a 8f 3d
       -0.13504535 -0.31893083 -0.11442771 0.069996886
000210 c6 ee 5a be af 42 a6 bc a4 9b 84 3e d2 f8 41 bd
       -0.21380147 -0.02029547 0.25899994 -0.047356434
000220 7a 39 18 3d 72 cf 10 bc 70 40 ae 3d 25 57 6d 3e
       0.03716419 -0.008838521 0.08508384 0.23177774
000230 d8 34 b9 3e e9 9b 63 3e 11 88 c5 3e 8c 2e 21 bd
       0.3617313 0.22227444 0.38580373 -0.03935103
000240 9f 49 b9 be 6b 9a 30 be bb 27 80 3e de 4b d1 bc
       -0.3618898 -0.17246406 0.25030312 -0.025548872
000250 b0 0c 6f be 60 b3 9a be 5c 2e c3 be 6d b0 aa be
       -0.23344684 -0.30214977 -0.38121307 -0.33337727
000260 1c ba 71 bd 39 4b 4a 3e e1 ca 40 3e 55 cc cc be
       -0.05901538 0.19755258 0.18827392 -0.39999643
000270 51 83 55 3e 47 9a ae be 9d 84 df bd 41 6c 02 be
       0.20850874 -0.3410208 -0.10913966 -0.12736608
000280 c5 2c b2 bd 7d f7 87 bd 12 90 bd be 8b d1 9c be
       -0.08699945 -0.066390015 -0.3702398 -0.3062862
000290 01 5c 2f bd aa 98 b0 3c 37 0d 31 be 02 7e 02 3e
       -0.04281235 0.02155717 -0.17290197 0.1274338
0002a0 e0 35 a6 be 69 61 46 3c 08 0b ae 3e 7e 21 17 be
       -0.32462978 0.012108185 0.3399279 -0.1475887
0002b0 10 50 c2 3e 96 28 06 3e 82 68 b5 be 79 4d 83 3e
       0.37951708 0.1310142 -0.35431296 0.25645044
0002c0 17 ee c7 bd 9d 1f 55 be 36 58 82 3e 3a 95 b5 be
       -0.09762209 -0.20812841 0.25457925 -0.35465413
0002d0 08 fc 81 3d 07 5d b5 bd 38 e4 89 3e 5d cf 0f 3e
       0.06346899 -0.08855634 0.2693193 0.14043947
0002e0 fc 26 38 3e b9 70 0d 3e f8 18 d0 bd 18 d5 7d bd
       0.17983621 0.13812532 -0.101610124 -0.0619708
0002f0 55 6f 9f be 5d 80 5b 3e 71 f6 8d 3e 3f f3 8e 3e
       -0.31139627 0.21435685 0.27727082 0.27919957
000300 30 b1 8d be 05 0a 70 bc e7 47 76 be c7 ed 66 be
       -0.27674246 -0.014650826 -0.24050866 -0.22551642
000310 ab 8a 5c be 10 2c 16 3e ff 1f 56 be 32 dc 69 3c
       -0.21537273 0.14665246 -0.20910643 0.01427369
000320 17 a7 36 3d 6b 29 86 3e 0d 15 a4 be 68 ca 88 be
       0.044592943 0.26203474 -0.3204731 -0.26716924
000330 42 33 83 be 13 d8 76 3e 5d 78 18 be bb 4b 98 3e
       -0.25625044 0.24105863 -0.14889665 0.29745278
000340 29 11 1e 3e c9 2c 2e 3d 5b 86 83 3c d3 98 61 bd
       0.15436234 0.04252318 0.016055277 -0.055077385
000350 57 e5 48 3d a4 89 b2 bd 2e 31 44 bc 4e fe 36 3d
       0.04904684 -0.08717659 -0.011974616 0.044676118
000360 1b 57 9a be fa 1d 34 be 37 14 ac 3e d2 c4 ad be
       -0.3014458 -0.1758956 0.33609173 -0.33939224
000370 69 d0 04 3b 3a 30 ce 3e 2c 14 d3 3d da 86 18 3d
       0.0020265824 0.4027117 0.10306582 0.03723798
000380 3a 2b af be 94 eb 20 3e 6a d1 7f be c2 4e f1 bd
       -0.34212667 0.15714866 -0.24982229 -0.117826
000390 91 18 00 be a0 94 81 bd 8e ab cf 3b ac 28 ab 3e
       -0.12509371 -0.06327176 0.0063375896 0.33429468
0003a0 10 b9 76 3c 45 ee ab 3e c6 55 63 3e 09 f1 94 be
       0.015058771 0.33580223 0.22200689 -0.29090145
0003b0 cd db 1c 3e 7c 96 85 be 59 45 27 be c3 4a 95 3d
       0.15318222 -0.26091373 -0.16335048 0.0728965
0003c0 5e ee df 3d b4 e1 91 3e d8 61 00 be 87 3f fa 3b
       0.10934137 0.2849251 -0.12537324 0.0076369676
0003d0 af ef 3c 3e da a3 cd be c3 3f 83 3e 46 98 9a be
       0.18450807 -0.4016407 0.25634584 -0.301943
0003e0 20 fc bc bc 5c 82 a2 bd 2b e8 57 be 77 c4 6e 3d
       -0.023069441 -0.0793502 -0.21084659 0.058292832
0003f0 e5 2f ad 3e ae ec c3 bd 3c 79 61 be 50 77 0a be
       0.33825603 -0.095666274 -0.22018903 -0.13522077

bias f4 [128]
000000 76 6b ae be 96 97 e6 bc 87 b2 ff 3d 46 b1 17 3e
       -0.3406636 -0.028148454 0.12485223 0.14813718
000010 31 83 a0 3e 02 85 bb 3e 89 37 b0 3e 3d 76 94 3e
       0.3135009 0.36624914 0.3441737 0.2899646
000020 66 2d 8c 3e 3d a4 67 bd 37 c6 99 be 16 ff fc bd
       0.27378386 -0.056553114 -0.30034038 -0.12353341
000030 ce 50 ab bc ab 2e 5b be 7c a8 59 3e 18 9f fd 3d
       -0.020912554 -0.21404521 0.21255678 0.1238386
000040 05 1d 91 3d c9 d9 bb 3d c7 6a b3 3e f0 f8 0c 3e
       0.07085613 0.091723986 0.35042402 0.13766837
000050 ba df ab be 8e 33 81 be c1 88 20 3e f6 a6 38 3d
       -0.33569127 -0.25234646 0.15677167 0.0450811
000060 d0 79 4a 3e 23 ba b0 be e7 94 b7 be 26 fc 5f 3e
       0.1977303 -0.3451701 -0.3585579 0.21873531
000070 03 6d 67 3e fe 23 b1 be 4b 92 29 3e 4a 96 86 be
       0.22600178 -0.34597772 0.16559713 -0.26286536
000080 9d 3d 88 3e 6f ed 21 3e 54 23 c1 3e fa 16 b0 be
       0.26609507 0.1581323 0.37722266 -0.3439253
000090 bb 8d c4 be a3 f9 79 3e 00 b9 a5 3e 53 ca 7a 3e
       -0.38389382 0.24411635 0.32367706 0.24491243
0000a0 71 02 8b 3e a5 8f 9b be 33 3e 89 3e 46 9a be be
       0.271503 -0.3038303 0.26805267 -0.37227076
0000b0 51 5e cb 3d a2 ae 80 be 10 33 35 be be 72 95 3d
       0.09930099 -0.25133234 -0.1769526 0.07297276
0000c0 f8 8f 12 be 19 a8 9a bd 7b cc c0 be 04 77 a8 be
       -0.14312732 -0.07551593 -0.37656006 -0.32903302
0000d0 f5 ff e4 3d d9 8b 20 be 5c 4e 5f be 4c ad 0c be
       0.111816324 -0.15678348 -0.21807235 -0.13737983
0000e0 e6 06 87 be 2b b5 a8 be e0 a9 80 3e 58 5a 4d 3e
       -0.2637245 -0.3295072 0.25129604 0.20053995
0000f0 80 33 3c 3d 69 fd 59 be ee 1c 03 3e cd 52 97 3c
       0.04594755 -0.21288075 0.12804005 0.0184721
000100 d2 10 87 be 95 a1 96 3d 4d 77 b3 3e da 44 b3 be
       -0.2638002 0.07355038 0.35051957 -0.35013467
000110 5a de cc be 2b 05 a0 3d c8 4a 94 3e 90 80 74 be
       -0.4001339 0.07813486 0.28963304 -0.23877168
000120 fb 19 d0 3d 4b 95 95 3e c8 df c9 3d ce ee 99 3d
       0.101612054 0.29215464 0.09857136 0.075162515
000130 5f cc b9 3e 3e 02 85 3e 16 de 59 be a5 02 21 bc
       0.36288735 0.25978273 -0.21276125 -0.009827291
000140 8c af 2d 3e f5 b2 a4 3e 2b 69 aa be 80 dd 49 3e
       0.16961497 0.32167783 -0.33283362 0.19713402
000150 3a f3 71 bd 0b e5 ba be 3c f4 e2 3d 41 06 36 be
       -0.05906985 -0.3650287 0.1108174 -0.17775823
000160 d6 21 9b 3d ab 14 6f be 4d 8c 98 be 4a 83 59 bd
       0.07574813 -0.23347728 -0.2979454 -0.053103723
000170 1f c4 fc bd 4a b2 53 3e 88 ca 8a 3d 24 40 a8 3e
       -0.12342095 0.2067348 0.06776911 0.32861435
000180 3e 11 86 3d 43 37 15 be cf 2c 7d 3e b1 57 5b 3d
       0.065462574 -0.14571862 0.24724124 0.053550426
000190 44 46 6f 3d 89 12 fa bd b1 23 23 3d 10 63 e1 bd
       0.05841662 -0.122105666 0.03982896 -0.11005223
0001a0 7c 80 00 bd 95 00 97 be 6c 0c 54 3b 89 32 91 be
       -0.031372532 -0.29492632 0.0032356037 -0.28358868
0001b0 93 71 7f bd 7d ae 81 3e 07 bd 86 be f9 d1 52 be
       -0.062364172 0.25328436 -0.2631609 -0.2058791
0001c0 24 1d f0 bd ba e5 bd bd 27 2e 9d 3d 83 05 84 3d
       -0.11724308 -0.092723325 0.076748185 0.06446364
0001d0 5e 4d 62 3e 74 55 8b be e8 79 74 bc c6 64 30 3e
       0.22099826 -0.27213633 -0.014921643 0.17225942
0001e0 f9 b9 9f 3e 37 22 21 bd 23 12 6d be 50 52 14 3e
       0.31196573 -0.03933927 -0.2315145 0.14484525
0001f0 c7 99 35 3e 80 df 59 be d7 8e 5e be 09 20 19 3e
       0.17734443 -0.21276665 -0.21734177 0.14953627

weight f4 [128, 128]
000000 e5 be 1c b9 fe 48 af bd 18 14 4c bd 90 17 21 3d
       -0.00014948433 -0.08558844 -0.04982385 0.03932911
000010 dc 13 bc bc c7 23 78 3d 3b b6 9c 3d de c1 7f 3c
       -0.022958688 0.060580995 0.07651945 0.015610186
000020 dc 3c 4e 3b e7 b1 18 bc c7 28 c3 ba cb b3 7c 3c
       0.003146938 -0.009319759 -0.0014889472 0.015423725
000030 0e 4f 52 bd cd cb 59 bd f3 94 9e bd 38 eb 98 3d
       -0.051344924 -0.053172875 -0.077432536 0.074667394
000040 a8 88 90 bd 60 5c 99 3d d3 26 56 ba 34 e6 a4 bc
       -0.07057315 0.07488322 -0.00081692374 -0.0201293
000050 84 3f 14 3d 97 ba 13 3d a3 13 a3 3d 0f b4 6e 3d
       0.036193386 0.036066618 0.0796273 0.058277186
000060 a0 15 b9 bd dd 9d bb 3d 17 de 2d bc 08 ff 1b bd
       -0.09037328 0.091609694 -0.010612032 -0.038085014
000070 11 7d 75 3d d3 d0 4a 3d af 79 81 bd 71 38 35 3a
       0.059933726 0.049515557 -0.063220374 0.00069130125
000080 d0 77 a0 3d e5 97 0f 3d 30 bd ad 3d 87 37 07 bd
       0.078353524 0.035056967 0.0848335 -0.03301194
000090 ac 1f 96 bc d3 f6 97 3d 8f be 19 3d 3b 35 da 3d
       -0.01832565 0.07420125 0.037535246 0.10654684
0000a0 55 35 ca bc e3 e9 1e bd c3 80 9f bb e9 b6 a4 bd
       -0.024683634 -0.03879727 -0.0048676445 -0.080427
0000b0 38 c6 71 3d 45 48 aa 3d ce 25 0a 3d 57 df 09 3a
       0.059026927 0.083145656 0.03372746 0.00052594155
0000c0 f9 a2 7e 3d 06 12 54 bd 5e 36 de 3d f9 ed aa bd
       0.06216714 -0.051775 0.108502135 -0.08346171
0000d0 84 59 b5 bd 79 98 ba 3a 7b db a0 3d f6 0c a5 3c
       -0.088549644 0.0014236114 0.078543626 0.020147782
0000e0 43 54 42 3c a5 e3 82 bd d6 ae 62 3d cf a4 5a 3c
       0.01186091 -0.06391076 0.055342518 0.0133449575
0000f0 a3 e8 04 3d a5 1a 2e 3d 31 77 e0 3c c0 f8 c3 bc
       0.032448422 0.04250588 0.027400585 -0.023922324
000100 64 14 ea bb 0d aa 36 bd 91 c0 d2 bc 1a 9f 7e 3d
       -0.007143544 -0.044595767 -0.025726588 0.06216345
000110 bc 54 1e bd 32 33 88 3d 6d 67 e5 bc 06 74 f4 bc
       -0.038655028 0.0665039 -0.028003419 -0.02984048
000120 7d 83 82 3c 97 dd 6a bd ee 30 e5 3b 63 40 b9 bc
       0.01593184 -0.05734023 0.0069943583 -0.02261371
000130 c1 e7 29 39 40 2b 42 39 96 1d 90 3d 78 b5 60 3d
       0.00016203431 0.00018517394 0.07036893 0.054860562
000140 8f 6d 92 bd 30 f5 42 3d 5e 18 b4 bd 8f 4c a3 bd
       -0.07149803 0.04759711 -0.0879371 -0.07973587
000150 85 2b d8 3c fa 37 e8 bb 63 43 30 bd 7f 6a 9f bd
       0.02638794 -0.007086751 -0.043033015 -0.077839844
000160 23 ee 1c bd 1b 66 dd 3c 7c 55 94 bd 93 1a ca bd
       -0.038313042 0.027026227 -0.07242867 -0.0986835
000170 bb 04 d2 3c 69 79 0b bd 4b 43 95 bd d2 26 f8 bc
       0.025637021 -0.034051333 -0.07288226 -0.030291948
000180 bb 53 97 3b 53 41 b6 bd 9f 70 44 bd 0d ce 10 3d
       0.0046181357 -0.08899178 -0.047958966 0.035352755
000190 17 42 82 bd 5a 47 e4 bb 6e 6b 0f bd 06 f3 9a bd
       -0.06360262 -0.0069665136 -0.035014562 -0.07565884
0001a0 9d 92 46 3d 63 53 7d bd 8e e8 53 bd e2 d9 a9 3d
       0.048479665 -0.061847102 -0.051735453 0.08293511
0001b0 b6 88 a2 3c cb 63 ba 3d 6b 6f 4a bc 13 0d 39 bd
       0.01984058 0.09101065 -0.012355666 -0.045178484
0001c0 34 f1 d6 3b b1 c3 de bb 2b 93 83 3d a1 30 86 bd
       0.0065595154 -0.0067982306 0.064245544 -0.06552244
0001d0 d4 6d 30 3a 78 2b ab 3d b9 97 26 bd 1c 61 5a bd
       0.0006730233 0.083579004 -0.040672038 -0.053315267
0001e0 7d 63 82 3d 77 09 88 bd 49 14 f0 3c 14 71 57 bd
       0.06366632 -0.0664243 0.029306548 -0.052598074
0001f0 03 2c 53 3d 94 5e 9b bd df a4 7b 3d 4f 76 91 bd
       0.051555645 -0.07586399 0.06143653 -0.07102644
000200 b0 e7 59 bd 17 19 14 bc 20 67 7d 3d 5b 01 b4 bd
       -0.05319947 -0.009039185 0.061865926 -0.08789321
000210 2e a5 48 bd f3 91 93 3d fc fb bc 3b 8d 25 e1 3c
       -0.048985653 0.07205572 0.0057673436 0.027483726
000220 84 ff 75 bd d5 3c 2f bd a4 f4 8b bd 4b 30 8b 3d
       -0.06005813 -0.042782623 -0.06833771 0.067963205
000230 5f 1e c7 3c b0 82 8d bd 74 a8 bf 3b ef 33 23 bc
       0.024306474 -0.06909692 0.0058489386 -0.009961112
000240 76 cd 1c bd 9a c2 7a bd e7 b4 16 bd 85 3f 46 3d
       -0.03828188 -0.061220743 -0.036793616 0.04840042
000250 4b fb 94 bd ec a7 a5 bd 32 d4 87 bc 82 48 de bb
       -0.07274493 -0.08088669 -0.016580675 -0.006783546
000260 08 ae 04 3c a2 8b 19 bc b8 fc f8 bc da b6 7d bd
       0.008098133 -0.00937167 -0.030393943 -0.06194196
000270 9a ca da bc a8 aa 3d bd 54 5e 72 3d 1a c5 e8 bd
       -0.026707936 -0.04630533 0.05917199 -0.11365719
000280 65 2b 83 bd c5 c8 9d bd 6f be cb bc 66 71 73 3d
       -0.06404761 -0.077043094 -0.02487108 0.059434317
000290 dc d6 26 3d 8f ca b0 bd 83 71 e6 bb 6f 06 30 3d
       0.04073225 -0.08632385 -0.0070325746 0.042974886
0002a0 77 39 32 3d ed 61 b1 3a 6d 6a 82 3b 3e fa 8a bd
       0.043511834 0.0013533212 0.003979972 -0.06786011
0002b0 04 08 41 3d b0 2a a8 bc 18 5c 09 3d 11 ca e0 bc
       0.047126785 -0.020528167 0.033535093 -0.027440103
0002c0 5a 48 c5 3c bb 48 9e 3d 53 cb 96 3d 58 93 b5 bd
       0.024082351 0.07728716 0.07363 -0.08865994
0002d0 71 be 71 bd 4c 02 20 bc a9 01 8d bd 5e 71 6f 3d
       -0.05901951 -0.009766173 -0.06885082 0.058457725
0002e0 a5 6b ed bb ee e1 8c bd 76 67 4b bd d9 11 35 bd
       -0.0072454982 -0.0687903 -0.049659215 -0.044206474
0002f0 d4 1d ff 3c c0 3c a6 bd 0f df b4 bd fb 06 b7 bd
       0.031142153 -0.08117056 -0.088316076 -0.08936878
000300 33 e3 d5 3c cf cc 0f 3d 97 39 76 bd 0f a1 08 3c
       0.026109314 0.03510743 -0.060113516 0.008339181
000310 51 69 86 3d f1 29 71 3b 31 95 08 bd 0b 03 80 bb
       0.06563056 0.003679868 -0.033345405 -0.0039066128
000320 1a 87 49 bb 2e 35 13 3d 1a c4 8c bd 07 39 2b 3d
       -0.0030750693 0.035939388 -0.06873341 0.041802432
000330 56 45 46 3d ee a8 47 bd db 2e 83 3d 3f 88 a7 3d
       0.048405968 -0.04874509 0.06405421 0.08180284
000340 02 85 38 bd 13 61 1c bd 28 85 25 3d d6 f7 80 bd
       -0.04504872 -0.038178515 0.04041019 -0.06297271
000350 d5 63 02 3d 10 36 7f 3c b6 4b 35 3d c1 72 a0 bd
       0.03183349 0.015576854 0.044261657 -0.078343876
000360 96 1b 98 bd cf bd 06 3d f1 8b 8d 3c 32 25 bb bd
       -0.074271366 0.03289586 0.017278643 -0.09137954
000370 1b 53 83 bd bd 36 c9 bd 22 2f a6 bd 1d 88 35 bd
       -0.064123355 -0.098248936 -0.081144586 -0.04431926
000380 ae e0 6f 3d 2b 13 da bc f9 dc 30 3d 4c 35 9d 3d
       0.05856388 -0.026620468 0.043179486 0.07676181
000390 eb 1e ba 3c d5 9b ae bd 99 bf 40 3d 96 d1 c7 3c
       0.022719821 -0.08525816 0.04705772 0.02439193
0003a0 82 d0 9f 3d a0 25 c9 bd 0a 6a 31 3d 19 de 8f 3d
       0.078034416 -0.098216295 0.043314017 0.07024784
0003b0 1e fe b3 bd c4 bf 23 ba 2b 08 8e 3d c5 99 9f bd
       -0.087887034 -0.0006246532 0.06935152 -0.07793001
0003c0 33 62 d4 3c d5 29 fc 3c 94 fc 58 3c 59 06 8f 3d
       0.025925731 0.030781666 0.013243813 0.069836326
0003d0 af 31 a6 3d 11 a6 69 3d 94 5a 84 bc 1a 1f 9f 3d
       0.08114945 0.05704314 -0.016156472 0.07769604
0003e0 78 36 c1 bd 28 16 70 bd e9 8c f7 bc e0 4f 0b bd
       -0.09434217 -0.05861488 -0.030218558 -0.03401172
0003f0 46 2f 9c 3d 8f 72 25 3d 88 b0 43 3d d1 5e 5c 3d
       0.07626204 0.040392455 0.047775775 0.05380136

bias f4 [128]
000000 12 26 3f 3d 3f 65 9f bd 4d bc 9b 3c dd c9 f8 3c
       0.046667166 -0.07782983 0.019010687 0.030369693
000010 43 4b 89 3c fb 6c 69 3d b3 ee 76 3d a7 4f 6c 3d
       0.01675952 0.056988697 0.060286235 0.05769315
000020 16 da 98 bd e1 f5 0d 3c e8 fb 2a 3d 66 91 7c 3d
       -0.074634716 0.008664579 0.041744143 0.0616621
000030 7d a1 33 bd ce b1 e9 3b 54 1d 31 bc 15 72 66 bc
       -0.04385518 0.0071317917 -0.010810215 -0.014065285
000040 e7 94 4e 3d 10 ab 61 3d 9f 3b b9 bd 28 be 76 3c
       0.050434973 0.05509478 -0.09044575 0.015059985
000050 3e 6c 4d bd 25 70 45 3d 71 30 01 3c 65 8c 28 3d
       -0.050152056 0.048202652 0.0078850845 0.041149516
000060 20 21 d2 39 28 90 be 3d 57 8b 87 bd 46 35 7f 3d
       0.00040079 0.093048394 -0.06618374 0.062306665
000070 7d ca ea 3d ab a8 86 bc 3b 8c 08 3d f3 18 3e bd
       0.11464403 -0.016437849 0.03333686 -0.046410512
000080 c3 a0 ac bc 25 93 cb bc 64 db 3e 3d b6 3e 70 3d
       -0.02107275 -0.024850437 0.046595946 0.058653556
000090 4b 5d ab bc 11 61 b8 ba 6d f3 87 bd d3 82 84 3d
       -0.020918509 -0.0014067014 -0.06638227 0.06470265
0000a0 7f 26 55 3d 12 62 69 3c 9a 07 e5 bc 83 3b 46 3d
       0.052038666 0.014244573 -0.027957726 0.0483966
0000b0 b5 70 49 bd 70 67 90 3d 47 b8 7d bd 13 39 4b 3d
       -0.04917975 0.07050979 -0.06194332 0.049614977
0000c0 83 58 85 bd a3 3f 59 3b f0 b7 aa 3d 6e 3a 3a 3d
       -0.06511023 0.0033149503 0.083358645 0.04546588
0000d0 e2 eb 79 bd 52 6b 00 bc f7 80 39 3c e3 cb 1d bd
       -0.06101597 -0.007838087 0.0113222515 -0.03852452
0000e0 6a 5c eb bb 07 dd a7 3d bd 1b 5e bd cc f4 ba bd
       -0.0071826475 0.081964545 -0.054225672 -0.091287225
0000f0 d4 ae 8d bd 96 50 9e 3a 5a 05 01 bd 4b ee 05 3d
       -0.069181114 0.001207846 -0.031499244 0.032697957
000100 8d 0c 23 bd cb fc 05 bd 5b 90 4f bd 65 c7 28 3d
       -0.03980689 -0.032711785 -0.050674777 0.041205782
000110 02 ed 7b 3d 56 08 b3 bd 8c b0 79 3d a4 5d 72 3d
       0.061505325 -0.08741824 0.060959384 0.059171334
000120 3a 5b 74 bd d9 d4 06 bd 8e 57 97 3d ce d1 32 bd
       -0.059657313 -0.03291783 0.073897466 -0.043657117
000130 e6 61 5a 3d 73 97 00 bc f7 47 b4 bd 79 df 79 3d
       0.05331602 -0.007848608 -0.08802789 0.061004136
000140 41 42 67 3b 1e 8c 0a bd 2f d0 f8 3c 74 1c 4a bc
       0.0035287293 -0.033825032 0.030372707 -0.012335885
000150 8a 87 d3 bc 9a af 34 bd 48 e7 8f bd a5 db 8e bd
       -0.025821466 -0.04411278 -0.07026535 -0.069754876
000160 ce ac 84 bc 51 ab 0e bd 8d 17 b4 3c 9d 17 98 3d
       -0.016195681 -0.03483135 0.021983886 0.07426379
000170 72 b0 95 bc b2 3a 96 bd 35 c6 aa bd 97 a8 52 3d
       -0.018272612 -0.07335414 -0.08338586 0.05143031
000180 ef e1 a5 ba c2 fd 70 bd fd ab 20 bd 2b 06 01 3d
       -0.0012655834 -0.058835752 -0.03922652 0.031500023
000190 6c 0c 95 3c 8e d0 61 3d f4 2b d3 3d 73 0c 37 bd
       0.0181944 0.055130534 0.10311118 -0.044689607
0001a0 69 84 5c bc 9f 1c 7d bd 0c 54 b4 3d 6c 2b 8a bc
       -0.013459303 -0.061794873 0.08805093 -0.016866408
0001b0 c8 b9 b4 bc 97 8b 57 3c ea 20 90 bc 3e ed ce 3c
       -0.022061244 0.013155839 -0.01759382 0.02525961
0001c0 11 c9 96 3d cb d4 21 3d 53 85 24 3d 47 18 26 bd
       0.07362569 0.039509576 0.04016621 -0.040550496
0001d0 a2 32 76 3d fd 43 db 3d d1 65 ad bd 44 91 ef bc
       0.06010688 0.10706327 -0.084666856 -0.029244073
0001e0 4d 22 c8 3d 7c 21 ae 3d 77 2d 84 3c 19 38 a1 3d
       0.09772167 0.085024804 0.01613496 0.07872028
0001f0 35 f6 5b bc be b0 2f 3d 27 01 0f 3d 7f 36 ba 3d
       -0.0134254 0.042893164 0.03491321 0.090924256

weight f4 [128, 128]
000000 53 1c 5f bd a0 62 37 bc b7 df 73 3d 70 13 8a bc
       -0.05447037 -0.011192948 0.059539523 -0.016854972
000010 0c b2 f0 bc 66 c2 1e 3d 85 75 84 bd 8a f3 58 3d
       -0.029381774 0.03875961 -0.064677276 0.052966632
000020 c5 cb 9d 3d 8e 22 47 3d b1 e8 1d bd 70 37 98 3d
       0.077048816 0.04861694 -0.03855199 0.07432449
000030 9b 44 3a 3d f6 06 af bd 3f 14 d6 bd 0f e4 4b 3d
       0.045475584 -0.085462496 -0.104530804 0.04977804
000040 f9 db f1 3c 11 a0 b9 3d 0d a5 9b 3d 4c 13 9f bb
       0.029523836 0.09063733 0.0759984 -0.0048545953
000050 c5 60 ec bc b0 3d 96 3c e6 f4 72 bd ce 92 38 3c
       -0.028854737 0.018339962 -0.059315585 0.01126547
000060 4a 79 37 3d 6f 56 4c 3d cc 9d 82 3c f3 d6 90 3c
       0.044793405 0.049887117 0.015944384 0.01768062
000070 ff 3c db 3c 19 04 86 bd d9 81 63 bd e5 3c 0a bc
       0.026762484 -0.0654375 -0.055543754 -0.00843737
000080 0f 7c 35 3d 92 43 f5 3b 74 f1 d1 bc 68 d6 54 bd
       0.044307765 0.0074848616 -0.02562783 -0.051962286
000090 35 8f e5 bc 60 bc ac 3d a3 98 48 3d 9b 17 75 bd
       -0.028022388 0.08434367 0.04897369 -0.059836965
0000a0 9f 68 5b bd de 64 25 3d 09 90 8b bc 06 e7 1d bc
       -0.05356657 0.040379398 -0.017036455 -0.0096376
0000b0 a5 1e dd bd da bd 7e 3c d6 9a 2d bb 78 88 9c 3d
       -0.107968606 0.015548194 -0.0026489994 0.07643217
0000c0 96 15 a3 bc 03 9e 50 bd 39 66 03 3a 40 71 55 3c
       -0.019907754 -0.05093194 0.0005012486 0.013027489
0000d0 0b cc b8 ba cf 5f 94 bd 77 74 68 3d ff f4 40 3b
       -0.0014098895 -0.072448365 0.056751695 0.0029442904
0000e0 c0 0a b4 bc e5 16 b2 bb 2f 54 96 bd 0e 0d 37 bd
       -0.021977782 -0.005434858 -0.073402755 -0.044690184
0000f0 bf e8 cf bd 20 be da 3c 85 47 26 bd 56 ee bc bd
       -0.10151815 0.026701987 -0.04059555 -0.092251465
000100 d4 6f be bc cf 3a 40 3d 41 6b 28 bd 06 b9 73 bd
       -0.023246683 0.046931084 -0.04111791 -0.059502624
000110 95 5f fd bc 36 af 91 3d b1 a4 64 3c 15 57 1e 3d
       -0.030929366 0.07113497 0.013955281 0.038657267
000120 25 47 77 bc fa 28 29 bd 31 e3 14 bb 07 84 1f 3d
       -0.015092646 -0.041298844 -0.0022718424 0.03894427
000130 bc dd a5 bd 62 5b 98 3d a6 93 95 bd 8a 32 e2 bd
       -0.08098933 0.07439305 -0.07303552 -0.11044796
000140 d1 06 d5 bd 64 96 7a 3c 33 7d 9a 3a 73 d1 06 3d
       -0.10401691 0.015294645 0.001178658 0.03291459
000150 47 63 5e bd 82 28 23 bd 88 6e c6 3c 22 9c 17 3d
       -0.054293897 -0.039833553 0.024222627 0.037014134
000160 0b cb b5 bd ce 85 75 3c 68 a6 e6 bc 3e 3c 41 bc
       -0.08876618 0.014985515 -0.02815552 -0.011794148
000170 99 07 41 3d 90 08 d4 bd 82 8d 84 3c fe 24 65 bd
       0.047126386 -0.10353196 0.016180757 -0.05594348
000180 dc 1a 5f 3d 44 d8 da bc 47 5b 2b 3d 02 23 8e bd
       0.054468974 -0.026714452 0.041835096 -0.06940271
000190 7f b5 c2 bd 21 11 d2 3d ec 6c bd bc 7e 41 4d 3b
       -0.09507274 0.10257173 -0.023123227 0.0031319554
0001a0 40 22 99 3d 6d f4 cd 3d ce df f7 bb a3 ea cc bd
       0.07477236 0.10056386 -0.0075645214 -0.10005691
0001b0 7c 1b df bc 7e 16 9e 3d 0c b0 2b 3d 6f 72 97 3d
       -0.027234785 0.07719134 0.04191594 0.07394873
0001c0 00 86 8c bc 9e 5f a3 bd 9d 4c 40 bd a4 99 14 bc
       -0.01715374 -0.07977222 -0.046948064 -0.009069834
0001d0 0a d6 af 3d 46 68 43 bd 0f 5f 29 bd 26 5b c8 3d
       0.085857466 -0.047706865 -0.04135042 0.0978301
0001e0 0d e7 9d 3d 41 ea ad 3d 54 7a 71 3d 3b a8 2c 3d
       0.07710085 0.08491946 0.05895455 0.042152625
0001f0 a3 01 2f 3c 1f 44 43 bd 49 f6 37 bd b4 55 99 bd
       0.010681543 -0.047672387 -0.04491261 -0.0748705
000200 a4 db 84 3d 07 95 60 3d 5f d0 15 3d f4 96 ab bb
       0.064872056 0.054829624 0.03657567 -0.005236501
000210 a1 80 ab bd e6 2b 93 3d fe 12 be 3c c7 7e 0e 3c
       -0.083741434 0.07186107 0.023202416 0.008697218
000220 9b 6b 83 bc 0c 7f 74 bd 08 4e c1 3b 60 a4 7a bc
       -0.016042521 -0.059691474 0.0058991946 -0.015297979
000230 de c4 a9 3d 91 14 23 3c 0e 56 6b 3c c3 54 7a 3d
       0.082895026 0.009953634 0.014363779 0.06111599
000240 c2 fc 47 bd c1 46 95 3d f8 85 db bb ab b8 1b bd
       -0.048825033 0.07288886 -0.00669932 -0.03801791
000250 75 1d 38 3d c2 b4 57 bd 81 8d 43 3d 16 71 a0 3d
       0.044949967 -0.05266262 0.04774237 0.078340694
000260 67 a4 be 3b 8d f8 f8 bc 6b 06 d3 ba db a2 89 3d
       0.005817938 -0.030391956 -0.0016099935 0.06720515
000270 d5 15 66 3d 08 cf a8 3d de 95 21 3c 2e 20 88 bd
       0.056173164 0.08242613 0.009862391 -0.06646763
000280 95 8a 12 3d fb d1 6e 3c ff 04 6b 3c d0 d9 9c 3d
       0.035776693 0.01457643 0.014344453 0.07658732
000290 50 4e df bc 38 f7 97 3d ae 7e 70 bd b5 df 84 bd
       -0.027259022 0.074202 -0.05871456 -0.06487981
0002a0 59 e0 69 3d a7 d1 84 3d 87 2c da bc a8 c4 9d 3c
       0.05709872 0.064853005 -0.02663256 0.019258812
0002b0 bf 85 3d 3c 16 36 26 3d a5 cf a6 bc 71 b2 9f bd
       0.011567532 0.040578924 -0.020362685 -0.07797707
0002c0 76 22 e0 3c 6c 6d bd bd e7 10 91 bd 5f 72 78 bd
       0.027360182 -0.09249386 -0.07083302 -0.060655948
0002d0 a5 a0 22 3d 9e 1f 32 3d 0a c0 6d bd 49 dc 89 3d
       0.039703984 0.043487184 -0.05804447 0.06731469
0002e0 cc 34 6f bd b5 8c 70 3d 1e b8 11 3d cb 9c ce bc
       -0.05839996 0.05872794 0.03557598 -0.02522125
0002f0 e8 48 95 3d a2 8b 61 3d 0e cd 8b 3d 22 c9 85 bd
       0.072892964 0.055064805 0.068262205 -0.06532504
000300 77 d6 9c bc 28 47 6b bd 4f 3a 94 3d 90 70 0b 3d
       -0.019145234 -0.057440907 0.07237684 0.034042895
000310 01 05 59 bd 25 0c ef bc aa b6 93 3d 50 37 cc 3d
       -0.052983288 -0.029180596 0.07212575 0.099714875
000320 ce c9 c5 bb e2 e2 9b bd 5c 96 37 bd 04 e5 4f 3d
       -0.00603602 -0.07611634 -0.04482113 0.050755516
000330 12 f1 d6 ba 8d 19 59 3d ef d9 8b 3d af e7 a4 bc
       -0.0016398749 0.053002883 0.06828677 -0.020130007
000340 e2 40 25 3d 83 8a 4f 3c cc 89 4a bd 91 13 70 bd
       0.04034508 0.012667301 -0.04944782 -0.05861241
000350 12 6e da 3c 9f 05 38 3b aa f1 46 3d c0 34 b4 3d
       0.026663814 0.0028079522 0.048570313 0.08799124
000360 5e 22 a2 bd e6 c9 17 bc 59 b2 3b bd 89 f5 02 3d
       -0.07916711 -0.009264445 -0.045824382 0.03197244
000370 28 b9 fe 3c a8 0f bd 3d f3 7e 74 3d 3e 9f 6c 3d
       0.031094149 0.09231502 0.05969138 0.057769053
000380 90 bd a0 bd 25 c7 8a bd 2e 5d a9 bd 45 ba 60 bd
       -0.07848656 -0.06776265 -0.08269726 -0.05486514
000390 62 96 73 bd a4 cc 92 3d 10 f1 1f bd 3d 0c 6a 3d
       -0.059469588 0.07167938 -0.039048254 0.057140578
0003a0 0e 7c 98 3d b1 a2 66 3d a6 63 61 3d ab a2 40 3d
       0.074455366 0.0563075 0.055026673 0.047030132
0003b0 c6 dd bc 3c 54 ae 24 bd f6 ea 9c 3d 75 09 9e 3d
       0.023054969 -0.040205315 0.07662003 0.077166475
0003c0 5a 15 6e 3d c8 25 8f bd 2f 64 7d bc 09 c1 5c 3d
       0.05812583 -0.06989628 -0.01546578 0.05389503
0003d0 81 af 37 bc 0b 43 c2 bb 53 8e 42 bd c4 da 62 3d
       -0.011211277 -0.0059284023 -0.047499012 0.055384412
0003e0 f6 04 2a 3d fc ad b2 bc 1e d2 73 3d e4 a7 09 bd
       0.041508637 -0.021811478 0.059526555 -0.03360738
0003f0 ba 6a 11 3d 69 52 a0 3a 86 b5 80 bd f9 96 23 3c
       0.035502173 0.0012231591 -0.06284623 0.009984725

bias f4 [128]
000000 e6 c5 05 3d 30 07 bb 3d 0d d6 a7 3c 2b cc 97 3d
       0.032659434 0.0913223 0.02048781 0.07411989
000010 a5 e2 99 3c 46 6b b0 bc c7 05 37 3d c6 fe 71 3d
       0.01878483 -0.021535527 0.044683244 0.05908086
000020 10 35 e3 bc 26 d4 88 3c cc 83 83 3d 4a a1 71 bd
       -0.027735263 0.016702723 0.06421623 -0.058991708
000030 d5 a9 a0 3d fd 0c a1 3d e9 39 00 bc 4c ed 8d 3d
       0.07844893 0.078638054 -0.007826307 0.069300264
000040 eb b4 a7 3d fc a3 c5 3c 16 e6 3d bc 90 c8 5a bd
       0.08188804 0.024126045 -0.011590501 -0.053413928
000050 a3 0b 31 3d e9 e1 98 bd 4c e4 a6 3b 2a 4c 92 bd
       0.04322399 -0.07464964 0.005093133 -0.071434334
000060 48 e6 9f 3c d6 4e 7c 3d 01 67 a2 3d b6 fe ab 3d
       0.019518986 0.06159862 0.07929803 0.08398192
000070 ca f9 c8 bd f3 87 b9 3d 4b 69 85 3d e3 b5 4c bd
       -0.098132685 0.090591334 0.06514224 -0.04997815
000080 b7 75 98 3d 82 f0 5f bd 5a 32 b9 3d b5 3d e5 3c
       0.07444327 -0.054672725 0.09042807 0.027983526
000090 08 97 9f bd 98 c8 0c 3c 3d 1e 23 bd e7 0e a7 bd
       -0.07792479 0.008592747 -0.03982376 -0.08157139
0000a0 bc e1 52 3d 8c b4 36 bd 09 cf 4c bd 94 29 18 3d
       0.05148481 -0.044605777 -0.05000213 0.037149027
0000b0 4d 7d 10 bb d8 ca 34 3d 53 a6 d9 bc 66 39 59 bd
       -0.0022047341 0.04413876 -0.026568567 -0.053033255
0000c0 15 6b 7c 3d 51 85 8a 3d 04 2a 54 bd f6 e4 0b 3d
       0.06162556 0.06763709 -0.05179788 0.0341539
0000d0 07 3f 16 3d 61 58 3e bd b3 6e 38 bd f4 8d b7 3d
       0.0366812 -0.046471003 -0.045027446 0.08962622
0000e0 a1 32 bf 3d ad e3 a4 3c e1 78 ab 3d bc e9 ba bc
       0.093358286 0.020128096 0.08372665 -0.022816531
0000f0 48 17 12 3c 6f bf a9 3d 4b 4d 17 bd 70 47 59 bc
       0.0089166835 0.08288466 -0.036938947 -0.013261661
000100 7d 22 f7 bc 20 a0 35 bd 78 dc 6c 3d 26 64 a4 bd
       -0.030167812 -0.04434216 0.057827443 -0.08026914
000110 0c 03 cb 3d 7e 3a fa 3b 6d ab 4a bd 71 f9 83 bd
       0.099126905 0.0076363673 -0.04947989 -0.064440615
000120 68 77 79 bd 08 96 a3 3d a7 db c9 3d a0 41 71 3d
       -0.06090489 0.079876006 0.098563485 0.058900476
000130 c3 63 41 3c 9d 82 28 3b 40 5d cc bc cf be bc 3d
       0.01180357 0.0025712617 -0.024946809 0.09216081
000140 d8 d3 81 3d f7 89 83 3c f3 d4 07 3d 56 df a2 3d
       0.06339234 0.016056998 0.03316207 0.07952754
000150 5b 7e 2f bd 43 42 1e 3b fc f2 19 bd 17 65 07 bd
       -0.04284511 0.0024148382 -0.037585244 -0.03305539
000160 af 83 8b 3b 4f 11 c9 3d b6 a3 86 3d 70 80 c2 bc
       0.0042576413 0.098177545 0.06574194 -0.023742884
000170 40 6d 9b bd 32 1c 25 3b 17 9f 6b 3d 57 a5 ad 3d
       -0.07589197 0.0025193808 0.057524767 0.08478802
000180 cf 54 64 bd be 09 a7 3d 4b 2d 4a bd 42 1a b6 3c
       -0.055744942 0.08156155 -0.0493596 0.022229318
000190 96 11 98 bd 76 87 13 bd 67 ce 1f bd c7 68 8f bd
       -0.07425229 -0.036017857 -0.0390152 -0.070024066
0001a0 79 71 51 bd 38 53 a3 3d 38 10 05 bd 08 9c 0a 3d
       -0.051133607 0.07974857 -0.03248617 0.03384021
0001b0 c0 17 79 bd 6b 1e d7 3c 29 b3 1e 3d ab a2 1a 3d
       -0.060813665 0.026259622 0.03874508 0.03775279
0001c0 ac c4 83 3d 9d 98 b7 bb 66 93 1f 3d 80 5b 00 3b
       0.064339966 -0.0056029097 0.03895893 0.0019585788
0001d0 61 26 5d 3d 4f 64 14 bd 6c 86 14 3d ec f3 2c 3c
       0.05399168 -0.036228474 0.036261007 0.010556202
0001e0 92 18 21 3d 6e 28 fb 3c 05 22 c8 3d 0d b6 08 3d
       0.039330073 0.030658927 0.09772114 0.033376742
0001f0 6e 6d 88 3d c5 ba 8c 3c 7e 2e 02 3d 70 b8 36 bd
       0.06661497 0.017178902 0.03178262 -0.044609487

weight f4 [128, 128]
000000 1e 08 0e 3d 04 cc 72 3c ee 30 47 bc 4c 19 b4 ba
       0.03467571 0.014819149 -0.012157662 -0.0013740449
000010 41 1f cd 3c d5 f9 89 3d 94 15 2b 3d b0 98 13 bd
       0.025039317 0.06737105 0.041768625 -0.036034286
000020 85 c4 8f 3d 70 2c 9a bc 5e 61 a6 3d ae 50 62 bd
       0.07019905 -0.018820018 0.0812404 -0.055252723
000030 38 1f a9 bc ea 6a 97 bc 04 44 6a 3d 57 65 09 bd
       -0.02064477 -0.018483598 0.05719377 -0.03354391
000040 08 04 6c bd 95 cf 7e bd ff f4 8e 3d e6 91 bc 3d
       -0.057621032 -0.062209684 0.06980323 0.092075154
000050 f3 d2 7b bc af d1 67 3d f6 6c f7 bb 1a a0 03 bd
       -0.015370118 0.056596454 -0.007550831 -0.032135107
000060 02 f0 95 bd 8e 7f 4f 3c a9 c3 72 3d 8f f6 5b 3a
       -0.073211685 0.012664689 0.059268627 0.0008390927
000070 18 9a a6 3d fa 4c cc bd 3e ce b6 bd 9a f0 c7 3d
       0.0813486 -0.099756196 -0.08926056 0.09762688
000080 be 9f 0f 3d e6 b8 2c 3a bb a6 cc bd 5f 49 99 3d
       0.03506445 0.00065888313 -0.09992739 0.074846976
000090 a0 a6 a9 3d f9 54 60 3a 5e 31 69 3d 95 1a 9c 3d
       0.08283734 0.0008557584 0.056931846 0.076222576
0000a0 0a a7 45 3b e7 ff 82 bd 0d f8 36 bc ef 58 a4 3d
       0.0030159377 -0.06396466 -0.011167538 0.08024775
0000b0 da 60 34 bd 50 0d 2b bd 1e 7d ae bd 05 29 b3 3d
       -0.044037677 -0.041760743 -0.08519958 0.08748058
0000c0 78 38 57 3d d0 7e 64 3d 72 0c 2c bc b0 ee 9d 3d
       0.052544087 0.055785 -0.010501014 0.07711542
0000d0 3d 72 8d bd b1 49 9a 3d 36 0d 90 3c 45 49 60 bd
       -0.06906555 0.07533587 0.017584424 -0.054757375
0000e0 94 f2 a2 bd f6 f8 16 bd 81 4c 96 bd bc 04 ae 3b
       -0.07956424 -0.03685852 -0.07338811 0.005310623
0000f0 30 56 c2 bb 8b f5 6c 3d 9a 11 52 bd b7 89 33 bd
       -0.0059306845 0.057851356 -0.051286317 -0.043832507
000100 ce fb 41 bc f4 66 9c 3d e5 15 39 bd af 28 e5 3d
       -0.01183982 0.07636824 -0.045186896 0.111894004
000110 e1 8f 9d 3d ec f1 29 3d fe 50 8e 3d 60 8b ad bd
       0.07693458 0.04149048 0.06949042 -0.08473849
000120 45 e5 84 3d 50 bb a3 bd 72 26 b5 bd 7a 27 16 3c
       0.06489042 -0.079947114 -0.088452235 0.009164685
000130 af 12 26 3c dd f0 59 bd 74 ef 64 3d 6e d4 26 3d
       0.01013629 -0.05320822 0.055892423 0.040729932
000140 34 63 0f bd d7 a3 db 3d cc a6 86 3d 58 35 91 bd
       -0.035006717 0.10724609 0.06574783 -0.07090253
000150 e9 0d ff bc 1c 1b 93 bd c8 f8 3a 3d 6c e3 ee 3c
       -0.031134563 -0.07182905 0.045647413 0.029161178
000160 59 b5 50 bc c1 b3 81 3c b6 32 91 bd db 09 1c bd
       -0.012738549 0.015832784 -0.070897505 -0.038095336
000170 71 b9 8a 3d ec 1b 0f bc e3 c5 75 bb 48 2d dd 3c
       0.067736514 -0.008734684 -0.0037501983 0.02699913
000180 8d fd 24 3d f1 f0 a7 bc 49 b0 65 3d ab c8 3b bc
       0.040280867 -0.020500632 0.05607632 -0.011461417
000190 5d 73 1d bd f5 cd 67 3d cd 04 10 bd 11 0d 80 bd
       -0.038440097 0.0565929 -0.03516083 -0.06252492
0001a0 0a e9 bf bb a1 3a a5 bd 49 53 34 3d 4f 0b 59 3d
       -0.005856638 -0.08067823 0.04402474 0.0529893
0001b0 2c 9e 2d 3d 52 16 42 3d 99 3e 8d 3d 2c ae 75 3c
       0.042387173 0.047384568 0.06896705 0.014995139
0001c0 93 1e 30 3d 09 ab 74 3d e5 55 05 bd d1 b7 36 bd
       0.042997908 0.059733424 -0.03255262 -0.044608895
0001d0 82 e7 c8 3c 17 c3 09 3d 39 50 5e 3d 61 cd 9f 3d
       0.024524454 0.033633318 0.054275725 0.07802845
0001e0 eb c1 d4 bd b5 62 3e bd bd 35 5c 3d fd 2a 3f bd
       -0.103885494 -0.046480853 0.053762186 -0.046671856
0001f0 1a 55 ec 3c 1d 69 cc 3b b2 37 ec 3d 0e 20 80 bc
       0.028849173 0.0062381164 0.115340605 -0.015640285
000200 bd 5d bc 3d 45 ce 2b 3d b4 69 47 bd f0 5c 16 bd
       0.09197567 0.04194476 -0.04868479 -0.036709726
000210 7c bd 86 bd e4 0a 2d 3d 23 b5 40 bd bc 7e 33 bd
       -0.0657911 0.042246714 -0.047047745 -0.043822035
000220 48 7a 6f 3c f0 27 91 3d 0b b6 94 bd b2 8e b8 bc
       0.014616556 0.070876956 -0.072612844 -0.02252898
000230 52 49 39 bd cf e1 44 bd 3c 32 e3 bc 22 e0 37 3d
       -0.04523594 -0.04806691 -0.027733915 0.044891484
000240 ad 08 9e bc eb 7c fc bc 28 ac 47 bb 74 7a 5b bd
       -0.019291246 -0.030821284 -0.0030467603 -0.053583577
000250 fd 36 c2 3d 57 f0 01 bd d5 f9 8d bd b4 2e 07 bd
       0.094831444 -0.031723347 -0.06932417 -0.033003524
000260 86 9a 15 3d 01 65 a8 bd 35 84 9f 3d a5 27 3f bc
       0.03652432 -0.0822239 0.07788888 -0.011667167
000270 eb 4e 0b bd c2 cf cd bc de 39 a8 3d 5f 27 a2 bc
       -0.03401081 -0.02512348 0.08214162 -0.019794164
000280 d7 36 31 bd b8 f5 d7 3c da 9f c7 3d 2d 72 48 3d
       -0.04326519 0.026362285 0.09747286 0.04893701
000290 8f 85 6b 3d 0d c9 9f bd 5b 2c c4 bc 97 8e 8a bc
       0.05750042 -0.07802019 -0.023946932 -0.016913695
0002a0 59 8e a3 3d f8 be af 3d 66 06 de bc b7 3b 90 bd
       0.07986135 0.08581346 -0.02710266 -0.0704264
0002b0 4f 86 a5 3d fc 49 66 bd f7 53 80 bd 34 0e 94 3d
       0.08082258 -0.0562229 -0.06266015 0.072292715
0002c0 36 c8 95 3d a1 cf ce 3c b8 67 0d bd 4e 65 7b 3d
       0.07313578 0.02524549 -0.034522742 0.06137591
0002d0 1a 7f a1 bd e3 ed 85 3c a8 53 c9 bc 77 5b b0 bb
       -0.07885571 0.016348785 -0.024576023 -0.005381997
0002e0 a2 e7 13 3d 91 1b 42 3d dd 7a bf bc ea 17 92 3d
       0.036109574 0.04738957 -0.023374015 0.071334675
0002f0 40 97 c4 bb 29 b3 5f bd fa ee b3 bd 6e 1a 8f bc
       -0.0059994757 -0.05461422 -0.087858155 -0.017468657
000300 66 6e 68 bd e2 de 7e 3d 6b 64 28 3d 92 4b 7e bd
       -0.05674591 0.062224276 0.04111139 -0.06208379
000310 d2 b3 b2 bc 22 41 96 bd 3e a8 83 3d c1 01 8a 3d
       -0.02181426 -0.07336642 0.06428574 0.06738616
000320 64 36 84 3b c9 0e 93 bd c1 5f a3 3d ee cd 88 bc
       0.004034804 -0.071805544 0.07977248 -0.016699757
000330 56 d2 81 bd db b3 18 3c c9 3f 97 3d 12 5b 95 bc
       -0.063389465 0.009320225 0.07385213 -0.018231902
000340 36 6c e3 3c b9 41 23 3d db bb 00 3d 85 a3 b9 3b
       0.02776156 0.0398576 0.031429153 0.005665245
000350 63 ec 4a 3c 34 97 57 3d 9a 7b 0a 3d 9f 4a 86 3d
       0.012385461 0.052634433 0.033809282 0.065572016
000360 57 58 9a bc 5d ab ad 3c 3c 8d b7 3d ba a5 9d 3d
       -0.018840952 0.021199876 0.08962485 0.076976255
000370 43 48 b4 bc 23 1d 81 bd 21 7f 68 bd c1 ac a3 3c
       -0.022007113 -0.063043855 -0.056761865 0.019979836
000380 e1 f1 f4 bc c6 76 c9 3d 65 00 3b 3d 54 94 b3 bd
       -0.029900493 0.09837107 0.045654673 -0.08768526
000390 4e 93 ea 3b 6c 8d a3 3b 6d 89 8d bd 5c 2f 2e bc
       0.0071586734 0.004991224 -0.069109775 -0.010631409
0003a0 ff 13 97 3d 16 b1 c0 3d 19 ec 9b bd d9 cb 47 3d
       0.07376861 0.094087765 -0.076133914 0.04877839
0003b0 15 12 13 bd 7e 6c ac 3c f3 e0 d5 3c a6 be 2c 3d
       -0.035905916 0.021047827 0.02610824 0.042174004
0003c0 98 83 ad 3d b1 35 ad 3d 94 f9 b2 3d 5d 47 5a 3d
       0.08472365 0.084575064 0.087390095 0.053290714
0003d0 60 14 f0 bc 25 87 af 3d ff 81 a0 bd 4e de 3e 3d
       -0.02930659 0.08570699 -0.07837295 0.046598725
0003e0 bf 66 cb bc 9c 46 7b 3d 53 2b ac 3c 40 40 82 3d
       -0.024829267 0.061346635 0.021016752 0.06359911
0003f0 d6 7c 23 3d b7 0a 04 bd 6c d2 16 bc 9a d2 e2 bc
       0.039913975 -0.03223678 -0.009205442 -0.027688313

bias f4 [128]
000000 b7 cc 2d bd 51 0d 0e 3d 7e 0d 15 3d cf 0f 3e bd
       -0.04243156 0.03468067 0.03638982 -0.046401795
000010 59 6c eb bc dd d4 c5 bd 40 da db 3c 6a 32 a7 bc
       -0.028738188 -0.09659741 0.026837468 -0.020409781
000020 d3 26 2d bd 78 e6 88 3d ae ed bb bd 73 dc 78 bd
       -0.042273354 0.066845834 -0.09176193 -0.06075711
000030 9e 3b 78 3d 7c 6c 87 3b 29 b1 47 bd ed ef ad 3d
       0.06060373 0.0041328054 -0.048752937 0.08493028
000040 82 1e da bc 2a c4 0c bd 5e 94 4e 3d f5 18 16 3d
       -0.026625875 -0.034366764 0.050434463 0.036644895
000050 37 f9 ae 3d c0 23 b1 3c f5 2f 8a bc 77 96 2f bc
       0.08543628 0.021623492 -0.01686857 -0.010717026
000060 1f 24 97 3d f4 1c a5 3d 7e 10 63 3d 18 c6 73 3d
       0.073799364 0.08062163 0.05543565 0.05951509
000070 ed 2f 09 3d 34 3f 1a bd 2d 6e b7 bc 4b 09 27 bc
       0.03349297 -0.03765793 -0.022391403 -0.010195087
000080 90 e8 31 bd 76 7e d4 3d ed 67 ae 3d f9 03 0e bd
       -0.04343468 0.10375683 0.08515916 -0.034671757
000090 ce 92 3f 3d 18 ea 2f bb af b4 a7 3d 18 19 ce bc
       0.046770863 -0.0026842412 0.081887595 -0.02515845
0000a0 16 0e cb 3d ca 84 14 3c 62 30 75 3d 51 68 93 3d
       0.09914796 0.0090648625 0.059860595 0.07197631
0000b0 e5 c2 5f 3b d7 a3 76 3c 67 ce e7 3a 8f 50 69 bd
       0.0034143266 0.015053711 0.0017685414 -0.056961592
0000c0 d7 84 07 3d 77 fa 0e 3d 4a ee 81 bc ea 81 92 3c
       0.03308567 0.03490683 -0.015860695 0.017884213
0000d0 18 51 ad 3d a2 ec 83 bd f9 c3 a8 3d 83 0f cc 3c
       0.08462733 -0.064416185 0.08240504 0.02490974
0000e0 d1 56 6f 3d 91 d2 2a 3d bb 01 90 3d 0a 2c ac 3d
       0.058432404 0.041704718 0.0703158 0.08406837
0000f0 4e 39 29 3d 07 70 c9 bb cd b9 87 bb 66 ed 7f bd
       0.041314416 -0.006147388 -0.004142022 -0.06248226
000100 d6 f4 b7 bd 3c b3 a3 bd 4e db c8 3d e7 79 9f bd
       -0.089822456 -0.079931706 0.09807454 -0.07786923
000110 3c 45 76 3d 30 ae a8 bd 3d 6f c7 3d 39 60 30 3d
       0.06012462 -0.08236349 0.09738014 0.043060515
000120 dd 16 21 3d 77 54 0d bc 80 c1 b1 bc ab a1 c0 3d
       0.039328445 -0.008626095 -0.021698713 0.09405836
000130 68 75 95 3c d9 ad 01 bc 68 b4 1e 3d bf a7 ae 3d
       0.01824446 -0.007914984 0.038746268 0.08528089
000140 cb 88 73 bc 16 da 7d 3d 68 77 6c 39 e1 48 48 bd
       -0.014864157 0.06197556 0.00022551196 -0.048897628
000150 ae 60 e2 3c 71 14 b5 3c c8 f4 58 bd 62 ef 1e bd
       0.027633991 0.022104474 -0.052967817 -0.038802512
000160 e0 a7 72 bd fc f1 1d bd a1 14 c2 3d ae 67 a5 3d
       -0.05924213 -0.038560852 0.09476591 0.08076416
000170 98 83 7f bd 27 00 b3 3d 43 1e 12 39 32 bd ab 3a
       -0.062381357 0.087402634 0.00013934918 0.0013102649
000180 70 21 56 3d 42 f6 96 3d b5 8f ce 3b f5 3a 13 3d
       0.052277982 0.07371189 0.0063037523 0.035944898
000190 3a db e7 3c 5c f2 a6 bd 86 9c a5 3c 37 c2 b0 bd
       0.028302778 -0.08151695 0.020216238 -0.086307935
0001a0 98 79 b2 3d 5a 57 53 bd 78 d5 21 3d d5 9a bc 3d
       0.087145984 -0.051596977 0.03951022 0.09209219
0001b0 d8 89 ac 3d ff 8b 77 bd 6d 86 91 bc c8 9e 92 3d
       0.08424729 -0.060436245 -0.017764295 0.07159191
0001c0 25 c1 12 bd 67 33 95 3c d6 4b 09 bd ec a2 d2 3c
       -0.03582873 0.018212987 -0.03351959 0.025712453
0001d0 96 7f 04 3d 53 28 2a 3d 5c 54 50 3d 71 16 c2 3a
       0.032348238 0.041542362 0.0508617 0.0014807713
0001e0 e0 c8 98 bd 5b 0d 91 3d 2e 03 92 3d b8 53 97 3d
       -0.07460189 0.070826255 0.07129513 0.07389015
0001f0 c0 b3 8b bd 8d 50 50 bc 74 ae 87 bd 37 a2 4a bd
       -0.06821394 -0.012714517 -0.06625071 -0.049471106

weight f4 [1, 128]
000000 91 11 ba bd 59 1d 63 3d 17 87 95 3c 31 55 5e 3b
       -0.09085382 0.05544791 0.018252892 0.003392529
000010 87 28 b7 bd 41 cf 87 3d 46 aa 80 3c 22 3f 05 3c
       -0.08943277 0.066313274 0.015706193 0.008132728
000020 8d fb 26 3b b9 ae 2f bd 25 89 e4 3c 24 e8 42 3d
       0.0025479526 -0.042891238 0.027897427 0.047584668
000030 6b c5 b2 bc db d2 70 3d af 32 9b 3d 3d 31 0b 3d
       -0.021822652 0.058794837 0.075780265 0.033982504
000040 ae f7 37 3d 9e 95 40 bd 84 9d 30 bd 02 99 81 bd
       0.04491394 -0.047017686 -0.04311897 -0.06328012
000050 90 5e 62 3d c4 b8 39 3d b0 ab d1 bd 82 9b 08 bd
       0.055265963 0.04534222 -0.10237825 -0.03335143
000060 02 34 a1 3d 42 d9 bc 3d 91 29 3d 3d 78 18 5e 3c
       0.07871248 0.09221126 0.04618222 0.0135556385
000070 99 bd 7b bd 0e a9 28 bd d8 e4 8f bc 38 f2 17 3b
       -0.06146011 -0.041176848 -0.017565176 0.0023185145
000080 6c f6 52 bd 3c 6f d9 3d 3c 91 67 3d 45 3e 4d 3d
       -0.051504537 0.106169194 0.05653499 0.050108213
000090 5c 78 94 bd 92 e2 94 3c 20 3c 8c 3d 19 74 3e 3d
       -0.07249519 0.018174443 0.068474054 0.046497438
0000a0 60 3a bc 3d 85 84 41 bd d3 48 81 bd b5 01 52 bd
       0.09190822 -0.04724552 -0.06312718 -0.05127116
0000b0 0f de da bd 63 c3 b6 3d 1e 67 76 bd fc a6 64 3d
       -0.106868856 0.08923986 -0.060156934 0.05582331
0000c0 3e f8 76 3d f0 cb e6 3c 1f b8 d9 3c a2 81 98 bd
       0.060295336 0.028173417 0.026577054 -0.074466005
0000d0 28 b4 ba 3c d4 5a 17 bd b4 6e ab 3c 92 1f 47 3d
       0.022790983 -0.036951855 0.02092681 0.048614092
0000e0 35 12 08 3d af c8 a0 3d af ce 01 bc 28 90 b8 3d
       0.03322049 0.07850777 -0.007922812 0.090118706
0000f0 a6 9f ac bd 03 98 d1 bd 9e d0 d7 3c 2c c2 97 3d
       -0.08428888 -0.10234072 0.026344594 0.07410082
000100 d6 06 68 3d d2 dd 1a 3d 80 2f b8 3d 1b 64 bc 3c
       0.056647144 0.0378092 0.08993435 0.022996953
000110 7b b9 44 bd 7c fb 16 bd b5 9d 3a 3d 50 f0 2b 3d
       -0.04802845 -0.036860928 0.045560557 0.041977227
000120 d3 cb 36 3d 34 99 40 bd 21 b3 09 bc 66 81 27 3d
       0.044627976 -0.047021106 -0.008404524 0.04089489
000130 dd cf 17 3d b0 b1 9a bc be be 70 bd 89 3d 76 3d
       0.03706347 -0.018883556 -0.058775656 0.06011728
000140 f5 58 12 bd b7 18 1d 3d c5 db cf bd 4d 8b a5 3d
       -0.035729367 0.038353648 -0.101493396 0.0808321
000150 53 4a 2c bd f0 8f 71 bd 7c a5 0a 3d aa c1 48 3c
       -0.04206307 -0.05897516 0.033849224 0.012253204
000160 16 2a 80 3a eb 44 88 bd 75 95 60 bd 6d f4 c5 3d
       0.0009778168 -0.0665377 -0.054830033 0.09665761
000170 09 25 cb 3c 20 d7 54 3d 53 92 b7 3d 1b 69 f0 bc
       0.024797933 0.05196297 0.08963456 -0.029346993
000180 de 4f d1 bd 90 4c 04 bd c3 b2 9d bd b4 0c b4 3c
       -0.102203116 -0.03229958 -0.07700112 0.021978714
000190 bd 7d 80 3d 89 00 b8 3d 3d 67 01 3d ba 7d 84 3c
       0.06273983 0.08984477 0.031592596 0.016173232
0001a0 83 51 1b 3d c5 58 92 3d 60 dd 06 3d 1d 55 1e 3d
       0.037919533 0.07145838 0.032925963 0.03865539
0001b0 a9 de 96 bd cb ae 68 3b 11 84 d1 bd 2e 02 78 3d
       -0.07366688 0.0035504575 -0.10230268 0.060548954
0001c0 ee 40 8a ba 07 ac 96 3d 36 72 83 bd 54 e4 a0 3d
       -0.0010547915 0.0735703 -0.064182684 0.0785605
0001d0 1e 01 80 bb 77 a1 4a 3d 1d 34 cc 3c 24 be 4e 3d
       -0.003906383 0.04947039 0.024927193 0.0504743
0001e0 88 dd 76 3d 94 32 ce 3d db 73 99 bd 29 26 e5 bd
       0.060269862 0.10068241 -0.07492801 -0.11188919
0001f0 5b c9 a3 bd 20 9e 17 3d 46 54 a1 bd b2 1b 27 3c
       -0.0799739 0.037016034 -0.07877402 0.010199474
