Dry fermentation prediction and optimization system/predictor_percolate_tank/Predictor_Percolate Tank Biogas Production/models/NeuralNetTorch_BAG_L1/S1F1/net.params (torch, 208391 bytes, 9 tensors)

weight f4 [128, 7]
0	0xbd355ea7	-0.04427972
1	0x3e40e2ed	0.18836565
2	0xbeafcffa	-0.3433836
3	0xbe9ea0f6	-0.30982178
4	0xbe387257	-0.18012367
5	0x3e0bf50b	0.13667695
6	0xbbffd31e	-0.0078071496
7	0x3e9cac97	0.30600426
8	0xbd5507d6	-0.052009426
9	0x3dea5d0e	0.1144353
10	0xbde56670	-0.11201179
11	0xbd83252e	-0.06403576
12	0xbeb463aa	-0.35232288
13	0xbe7d0171	-0.24707581
14	0xbe1e8d86	-0.15483674
15	0x3bda5dd8	0.006664019
16	0x3e0a6f50	0.13519025
17	0x3e71fed4	0.23632365
18	0xbe8343ca	-0.25637656
19	0xbe2a5aaa	-0.16636148
20	0x3e00207a	0.12512389
21	0x3eab29df	0.33430383
22	0xbdb7c7c0	-0.08973646
23	0x3e8ceede	0.2752599
24	0xbd81baaf	-0.06334435
25	0x3d21f63b	0.039541464
26	0x3ead7afe	0.33882898
27	0xbeb3fb79	-0.35152796
28	0xbe6805e7	-0.22658502
29	0xbdb6dea4	-0.08929184
30	0xbe33eaa0	-0.17569971
31	0x3e9e6161	0.3093367
32	0xbe844797	-0.2583587
33	0xbe3037f0	-0.17208838
34	0xbe81a2c1	-0.25319484
35	0xbeb7225d	-0.35768405
36	0xbe6f7b80	-0.23386955
37	0x3e90b332	0.28261715
38	0x3e2a70e9	0.16644634
39	0x3e39682a	0.18106142
40	0x3c9a53cb	0.018838784
41	0xbe49e5d3	-0.19716577
42	0x3db8c227	0.090214066
43	0xbeaed0bc	-0.34143627
44	0xbe8bef9e	-0.2733125
45	0xbe5a65b4	-0.21327859
46	0x3e68c13f	0.22729968
47	0x3e51f9ce	0.20505449
48	0xbe1de4ef	-0.15419362
49	0xbca7769f	-0.020442305
50	0x3e6bf2b2	0.230418
51	0x3ec95aef	0.3932719
52	0x3e1f587b	0.15561096
53	0x3d52ebfd	0.051494587
54	0x3e7a7e20	0.24462175
55	0xbe634c0f	-0.22196983
56	0x3dbe398c	0.0928832
57	0xbea12426	-0.31472892
58	0xbe95d8e9	-0.29267052
59	0xbe603e70	-0.21898818
60	0x3e20c97d	0.15701862
61	0x3e160ad1	0.14652564
62	0xbe51fea7	-0.20507298
63	0x3dd99370	0.106238246
64	0x3e630642	0.22170356
65	0xbd0e191e	-0.034691922
66	0x3c643106	0.013927704
67	0x3dcaace5	0.09896258
68	0x3e71dfdd	0.23620553
69	0x3eb0ece2	0.34555727
70	0xbe9a3b36	-0.301233
71	0xbe07bee5	-0.13256414
72	0x3e32ee49	0.17473711
73	0x3ea18e62	0.31553942
74	0x3eab3ed4	0.33446372
75	0x3ea534fd	0.3226699
76	0x3d936ed8	0.07198876
77	0xbeb4b625	-0.35295215
78	0x3cc8bb6a	0.024503428
79	0xbe8d69b0	-0.27619696
80	0xbec119b5	-0.37714925
81	0x3ea0f6da	0.31438333
82	0x3e97f9bd	0.29682723
83	0xbebe4835	-0.37164465
84	0x3d8104d9	0.06299753
85	0xbd2eb6dc	-0.042654857
86	0xbd2bd9c8	-0.04195574
87	0xbe1f9fd3	-0.15588312
88	0x3e2c4199	0.16821899
89	0xbe6f800b	-0.23388688
90	0x3e0722c6	0.13196859
91	0x3e4f5c9c	0.20250171
92	0x3e7b71c0	0.24555111
93	0x3de4b50a	0.11167343
94	0xbeca898e	-0.3955807
95	0xbe88de32	-0.26732022
96	0x3e52dcec	0.20592088
97	0x3dbbe94b	0.091753565
98	0xbe917331	-0.28408197
99	0xbe6ed168	-0.2332207
100	0x3eb4d694	0.3531996
101	0x3e8e23f7	0.27761814
102	0xbe146b17	-0.14493977
103	0xbdbb590c	-0.09147844
104	0xbebf5a5e	-0.37373632
105	0xbd20df17	-0.039275255
106	0xbe8f71c6	-0.2801649
107	0xbe9881f0	-0.29786634
108	0xbbd006eb	-0.006348481
109	0x3d655661	0.05599058
110	0xbe262b04	-0.16227347
111	0x3e678740	0.22610188
112	0xbe5cb881	-0.21554758
113	0x3eb227e2	0.34796053
114	0x3e81475f	0.25249764
115	0xbeb0ebaa	-0.34554797
116	0xbdca75b1	-0.09885729
117	0x3cf75c5b	0.030195406
118	0x3d5e4a87	0.054270294
119	0x3dbf4676	0.09339611
120	0x3e0ddd3c	0.13853925
121	0x3d0a8160	0.033814788
122	0xbe33686f	-0.17520307
123	0x3e45861a	0.19289437
124	0xbeb2f340	-0.3495121
125	0xbe6eaedd	-0.23308893
126	0xbdfb2283	-0.12262442
127	0xbe486b0e	-0.19572088
128	0xbe250e2c	-0.16118687
129	0xbe9b2784	-0.30303586
130	0xbd90718a	-0.07052906
131	0x3da0ee67	0.07857972
132	0xbe7a3558	-0.24434412
133	0x3c1be1bc	0.0095142685
134	0x3e8b15f9	0.271652
135	0xbd60a43f	-0.054844137
136	0xbc43b4d4	-0.011944968
137	0xbd16223a	-0.036653735
138	0x3da9a89c	0.08284113
139	0x3e6ec2a6	0.2331644
140	0x3ebaf007	0.3651125
141	0x3e6891ac	0.2271182
142	0x3ec7cdcd	0.390242
143	0xbd15d9d8	-0.036584705
144	0xbeb39a2d	-0.35078564
145	0xbe2a8696	-0.16652903
146	0x3e884144	0.26612294
147	0xbc12c627	-0.008958376
148	0xbe61ff81	-0.22070123
149	0xbeaa1a91	-0.33223394
150	0xbeba6f7f	-0.3641319
151	0xbeac8efc	-0.33702838
152	0xbd8be0dc	-0.06829998
153	0x3e4c7ba0	0.19969034
154	0x3e469639	0.19393243
155	0xbec7f026	-0.39050406
156	0x3e690505	0.22755821
157	0xbe985721	-0.29753974
158	0xbd8e7bd0	-0.06957209
159	0xbe0707bc	-0.13186544
160	0xbd9cc8c7	-0.07655483
161	0xbdc8869a	-0.09791298
162	0xbeaa2855	-0.33233896
163	0xbeb47e48	-0.35252595
164	0xbd5f16ed	-0.054465223
165	0x3b204853	0.002445717
166	0xbe3666db	-0.17812674
167	0x3e076260	0.13221121
168	0xbea7fd8f	-0.32810637
169	0xbcd308ff	-0.025761126
170	0x3eb36a6c	0.3504213
171	0xbe1a32db	-0.15058462
172	0x3eb60050	0.35547113
173	0x3e041e5e	0.12902209
174	0xbeb32d4d	-0.349955
175	0x3e724f23	0.23663001
176	0xbd85d8ad	-0.06535468
177	0xbe338f51	-0.1753514
178	0x3e9848ae	0.2974295
179	0xbe9d2d59	-0.3069866
180	0x3d36fe37	0.044676032
181	0xbd6eea3e	-0.05832886
182	0x3e8d07b5	0.27544942
183	0x3dbe71ee	0.09299074
184	0x3e4938a6	0.19650516
185	0x3e141d72	0.14464357
186	0xbd9f827d	-0.077885605
187	0xbd996d93	-0.07491603
188	0xbe9f02c7	-0.31056806
189	0x3e5c7549	0.21529116
190	0x3e9abd2b	0.3022245
191	0x3e806309	0.25075558
192	0xbe901e19	-0.28147963
193	0x3c09f906	0.008421188
194	0xbe8012f4	-0.2501446
195	0xbe500bee	-0.20317051
196	0xbe5e4a98	-0.21708143
197	0x3e1a5d65	0.1507469
198	0xbe68d6de	-0.22738215
199	0xb9888144	-0.00026036252
200	0x3d0021cb	0.031282227
201	0x3e7596f1	0.23983361
202	0xbe8ffc8d	-0.28122368
203	0xbe898cb5	-0.26865163
204	0xbe6f26e7	-0.23354684
205	0x3e928378	0.28615928
206	0xbe0ddb5c	-0.1385321
207	0x3ea6bb94	0.32564986
208	0x3e0aaffd	0.13543697
209	0x3d73d571	0.059529725
210	0x3c913239	0.017724143
211	0xbd9ef8d2	-0.077623025
212	0x3d836b8a	0.06416996
213	0xbda60248	-0.08105904
214	0xb9cdb981	-0.00039238858
215	0x3d2438f0	0.040093362
216	0xbe99e0d9	-0.30054358
217	0xbe41de2e	-0.18932411
218	0x3ea8659f	0.3289003
219	0xbe920aef	-0.28523967
220	0xbca9a991	-0.020710738
221	0x3ec3bfd8	0.38232303
222	0x3df04b1d	0.11733077
223	0x3c7b7c5e	0.015349476
224	0xbeb87f6b	-0.36034712
225	0x3e44f934	0.19235688
226	0xbe8d2c43	-0.27572832
227	0xbdc183eb	-0.094489895
228	0xbde79ca9	-0.113091774
229	0xbd814259	-0.06311483
230	0xb9835bc2	-0.00025054632
231	0x3ea59421	0.32339576
232	0x3d1543be	0.036441557
233	0x3ea9ba5c	0.33149993
234	0x3e6ba768	0.23013079
235	0xbe7ba759	-0.24575557
236	0x3e264512	0.16237286
237	0xbe875eb2	-0.26439434
238	0xbe0f93c2	-0.14021209
239	0x3de6151c	0.11234495
240	0x3e063cf6	0.13109192
241	0x3e8f1380	0.27944565
242	0xbddc016a	-0.10742457
243	0x3c65db55	0.014029344
244	0x3e376e94	0.17913276
245	0xbed02c71	-0.40658906
246	0x3e7f6460	0.24940634
247	0xbeb89f17	-0.36058876
248	0xbcd89672	-0.026438925
249	0xbdda262e	-0.106518134
250	0xbe5114db	-0.20418112
251	0x3d67f3ad	0.05662887
252	0x3eb15e75	0.34642377
253	0xbdccb464	-0.09995344
254	0xbe71cc1e	-0.23613021
255	0xbe2324cb	-0.15932004

bias f4 [128]
0	0xbe9b9d79	-0.3039358
1	0xbccff413	-0.025384938
2	0x3dfc257e	0.123118386
3	0x3e03e303	0.12879567
4	0x3ea81f17	0.3283622
5	0x3ec456f5	0.38347593
6	0x3eb8a11a	0.3606041
7	0x3e8dc062	0.2768584
8	0x3e912091	0.2834516
9	0xbd8f37cd	-0.06993065
10	0xbe92ba84	-0.28657925
11	0xbdf0f710	-0.117658734
12	0xbd77fdf1	-0.06054491
13	0xbe37d10b	-0.17950837
14	0x3e484b27	0.19559918
15	0x3ddb25b6	0.10700552
16	0x3d9684ee	0.07349573
17	0x3dbe7411	0.09299482
18	0x3eaaa272	0.3332706
19	0x3e15b885	0.1462117
20	0xbea7b384	-0.32754147
21	0xbe84b694	-0.25920546
22	0x3e2d764c	0.16939658
23	0x3d21feec	0.039549753
24	0x3e42a8ba	0.19009677
25	0xbec3edde	-0.38267416
26	0xbeb16497	-0.34647056
27	0x3e769c62	0.24083093
28	0x3e5a67ae	0.21328613
29	0xbea5591c	-0.32294548
30	0x3e22500b	0.15850846
31	0xbe932817	-0.28741524
32	0x3e896635	0.2683579
33	0x3e0c7f18	0.13720357
34	0x3ebfda53	0.37471256
35	0xbea9a149	-0.33130863
36	0xbeb06e58	-0.34459186
37	0x3e8099c0	0.25117302
38	0x3eaf7cd3	0.3427492
39	0x3e7b213e	0.245244
40	0x3e8ac372	0.27102238
41	0xbe9f456a	-0.31107646
42	0x3e914a43	0.2837697
43	0xbeb646d6	-0.3560092
44	0x3dcb97d4	0.09941068
45	0xbe62ea98	-0.22159803
46	0xbe135250	-0.14386868
47	0x3d9c541c	0.0763323
48	0xbe0de529	-0.13856949
49	0xbd81c861	-0.06337047
50	0xbeb9f5a4	-0.3632022
51	0xbec24136	-0.37940377
52	0x3e274a12	0.1633685
53	0xbe13ff78	-0.14452922
54	0xbe6437fb	-0.2228698
55	0xbe08ddd6	-0.13365874
56	0xbe8ff867	-0.28119203
57	0xbe9d69ec	-0.30744874
58	0x3e802007	0.25024435
59	0x3e4f338e	0.2023451
60	0x3d2886f5	0.04114433
61	0xbe3705be	-0.17873284
62	0x3dea3ead	0.11437736
63	0x3ca98383	0.020692592
64	0xbe858708	-0.26079583
65	0x3dc7f50f	0.09763538
66	0x3eb3269f	0.34990403
67	0xbeb65f9b	-0.35619816
68	0xbebb402f	-0.36572406
69	0x3d746c23	0.05967344
70	0x3e951898	0.29120326
71	0xbe664935	-0.22488864
72	0x3df29f33	0.11846771
73	0x3e8feb50	0.28109217
74	0x3dfa5734	0.12223664
75	0x3da3ff8a	0.080077246
76	0x3ebf0107	0.3730547
77	0x3e84a632	0.25908047
78	0xbe4907a5	-0.19631822
79	0x3d13747a	0.035999753
80	0x3e3d424f	0.18482326
81	0x3eac22eb	0.3362039
82	0xbebc556d	-0.36783925
83	0x3e4d9dfa	0.20079795
84	0xbdbdadef	-0.09261691
85	0xbeb7b5d5	-0.35880914
86	0x3db462ef	0.088079326
87	0xbe37fbc1	-0.1796713
88	0x3cd6d6a7	0.026225401
89	0xbe661085	-0.22467239
90	0xbe92660b	-0.28593478
91	0xbcf32de3	-0.029684966
92	0xbdff57a1	-0.12467886
93	0x3e6e4d72	0.2327173
94	0x3d1a1178	0.037614316
95	0x3e99a19f	0.3000612
96	0x3d86d5ac	0.065837234
97	0xbddc19fc	-0.107471436
98	0x3e82f9d6	0.25581235
99	0x3cc37e7e	0.023864027
100	0x3d40c678	0.047064275
101	0xbde4faa6	-0.1118062
102	0x3c8b9b6e	0.017041888
103	0xbdcda682	-0.100415245
104	0xbc8629f1	-0.016377421
105	0xbe9dce71	-0.30821565
106	0x3c794cb6	0.015216043
107	0xbe9702de	-0.29494375
108	0xbdb2a5c8	-0.087230265
109	0x3e7aaf1f	0.24480866
110	0xbe81cbe9	-0.25350884
111	0xbe60d023	-0.21954398
112	0xbdbd8aa5	-0.0925496
113	0xbdca2d72	-0.09871949
114	0x3d6edf5e	0.05831849
115	0x3db94f06	0.09048276
116	0x3e5475e7	0.20748101
117	0xbe86d24b	-0.26332316
118	0xbcd6e16f	-0.026230542
119	0x3e401d08	0.18761075
120	0x3eaac993	0.33356914
121	0xbcd95771	-0.026530953
122	0xbe5d6ade	-0.21622798
123	0x3e05e416	0.13075289
124	0x3e613f4a	0.21996799
125	0xbe6dcefb	-0.23223488
126	0xbe5c1c1b	-0.21495096
127	0x3e32ea19	0.17472114

weight f4 [128, 128]
0	0x3b9c8834	0.004776979
1	0xbdb0bbe9	-0.08629591
2	0xbd4c89ce	-0.04993611
3	0x3d1b0d2f	0.03785437
4	0xbcabc627	-0.02096851
5	0x3d8d0c50	0.06887114
6	0x3d9672cd	0.07346115
7	0x3c90119f	0.017586527
8	0x3a3ea272	0.0007272131
9	0xbd0ddd40	-0.03463483
10	0xbb877d3a	-0.004134801
11	0x3ba7bb5e	0.0051187715
12	0xbda52163	-0.08063009
13	0x3b8a9f3c	0.004230408
14	0xbd7b878f	-0.061408576
15	0x3d563c3d	0.05230354
16	0xbd16d752	-0.03682644
17	0x3daba27e	0.08380602
18	0xbc3fc4bb	-0.011704619
19	0xbd1ba424	-0.037998334
20	0x3ceb3dc5	0.028715977
21	0x3cd22e10	0.02565673
22	0x3da89819	0.08232135
23	0x3d0df99e	0.03466188
24	0xbd97965a	-0.07401724
25	0x3db8fb24	0.09032276
26	0xbb25dca4	-0.0025308514
27	0xbcbe559b	-0.02323418
28	0x3d66b7b7	0.056327548
29	0x3d7b02ed	0.061282087
30	0xbd7b9c1e	-0.06142818
31	0xbc4a0d90	-0.012332335
32	0x3d900ca9	0.07033665
33	0x3d1fe362	0.03903521
34	0x3da48d56	0.0803477
35	0xbd770eb9	-0.060316775
36	0xbcca7cdd	-0.024717743
37	0x3db03b65	0.086050786
38	0x3d77c57c	0.06049107
39	0x3dc6a42d	0.09699283
40	0xbd20f790	-0.039298594
41	0xbdabc3e8	-0.083869755
42	0x3c03a5ed	0.008035165
43	0xbdba706c	-0.09103474
44	0x3d385753	0.045005154
45	0x3d85c88f	0.06532394
46	0x3cf72998	0.0301712
47	0xbc425796	-0.011861702
48	0x3d2bcb39	0.041941855
49	0xbd4fd464	-0.05073966
50	0x3db43a56	0.08800189
51	0xbda3d251	-0.07999099
52	0xbd748309	-0.059695277
53	0xbb878119	-0.0041352627
54	0x3d8d4f2b	0.06899866
55	0x3cc5a928	0.024128512
56	0x3d034d26	0.032055996
57	0xbd647d3b	-0.05578349
58	0x3d443c2f	0.047908958
59	0x3a8b9a2a	0.0010650803
60	0x3d2c40d4	0.042054012
61	0x3d3a270d	0.045447398
62	0x3d2cf913	0.042229723
63	0xbc95a597	-0.018267436
64	0x3a16bf8d	0.0005750589
65	0xbd2c717a	-0.042100407
66	0xbc6435eb	-0.013928871
67	0x3d90e50d	0.07074938
68	0xbd1a5165	-0.03767528
69	0x3d85b6ce	0.06529008
70	0xbc9acc07	-0.018896116
71	0xbb7907ca	-0.0037999027
72	0x3c732214	0.014839668
73	0xbd8c8ecb	-0.06863173
74	0x3b9fc834	0.004876161
75	0xbc60dbab	-0.013724248
76	0xbb1433b8	-0.0022613835
77	0xbb34287e	-0.0027489956
78	0x3d208198	0.03918609
79	0x3d47a525	0.04874148
80	0xbd96f5c6	-0.07371096
81	0x3d6649af	0.056222614
82	0xbd9c35bf	-0.07627439
83	0xbdaf776c	-0.085677
84	0x3d50347b	0.0508313
85	0x3ca0e6aa	0.01964124
86	0xbd1d6bc6	-0.03843286
87	0xbdccbf91	-0.09997476
88	0xbd273b10	-0.04082781
89	0x3c61b72d	0.013776583
90	0xbd819f74	-0.063292414
91	0xbdd9b954	-0.10631052
92	0x3ba25de1	0.004955039
93	0xbd4e6d16	-0.050397
94	0xbda82f7c	-0.08212182
95	0xbcd56c2f	-0.026052563
96	0xbc09ee85	-0.008418684
97	0xbda67c18	-0.08129138
98	0xbd6259e7	-0.05526152
99	0x3cc74a0b	0.024327299
100	0xbdacda11	-0.0844003
101	0xbc78ff27	-0.015197552
102	0xbd825a62	-0.063648954
103	0xbd98e65a	-0.07465811
104	0x3d45598f	0.048181113
105	0xbd583210	-0.05278212
106	0xbd560638	-0.052252024
107	0x3d5a617a	0.053315617
108	0x3c91127b	0.017709007
109	0x3daa5182	0.08316328
110	0xbce0ba0b	-0.027432462
111	0xbd7ff516	-0.06248959
112	0xbcb681f1	-0.022278758
113	0x3bdb1b19	0.00668658
114	0x3d856d92	0.065150395
115	0xbd9e1ad8	-0.07719964
116	0xbb906321	-0.0044063483
117	0x3d204a46	0.039133333
118	0xbcf39ae7	-0.02973695
119	0xbd35d69a	-0.044394113
120	0x3d676b44	0.05649878
121	0xbd9ae6a4	-0.075635225
122	0x3bc5f0c0	0.0060406625
123	0xbd5e85ef	-0.054326948
124	0x3d6f1f3a	0.05837939
125	0xbd663cd8	-0.05621037
126	0x3d88f925	0.066881455
127	0xbd99039f	-0.07471394
128	0xbd8f3e7f	-0.06994342
129	0x3c6a2591	0.014291183
130	0x3da5d371	0.0809697
131	0xbd919752	-0.0710894
132	0xbd183ec3	-0.03716923
133	0x3d871a7d	0.06596849
134	0xbcc53176	-0.024071436
135	0x3cc18f7b	0.023627987
136	0xbdd3ccf1	-0.10341824
137	0xbd1ecb3c	-0.03876804
138	0xbd881256	-0.06644122
139	0x3d972318	0.073797405
140	0x3d462ce9	0.048382673
141	0xbd8b31e3	-0.067966245
142	0x3bed858d	0.0072485865
143	0x3ba530f1	0.0050412347
144	0xbd106fb4	-0.03526278
145	0xbd25f35d	-0.040515292
146	0xbcd3ef54	-0.025870956
147	0x3d7266c8	0.05918005
148	0xbd755885	-0.059898872
149	0xbd7f8931	-0.062386695
150	0xbcb7180a	-0.02235033
151	0x3c4d7dfd	0.012542245
152	0x3bdca1e4	0.006733166
153	0xbad27033	-0.0016055166
154	0xbc5a3e29	-0.013320484
155	0xbd42eb58	-0.047587723
156	0xbcfbae79	-0.030722843
157	0xbd68c2d4	-0.056826428
158	0x3d631bd0	0.055446446
159	0xbdd16c60	-0.10225749
160	0xbd2c3140	-0.042039156
161	0xbd8df34f	-0.06931173
162	0xbca71ee9	-0.020400481
163	0x3da9034c	0.08252582
164	0x3d98674b	0.074415766
165	0xbdbbcb1f	-0.09169602
166	0xbb2d4ed9	-0.0026444702
167	0x3d572b58	0.05253157
168	0x3cf3c7c6	0.029758345
169	0x3d1104d5	0.035405
170	0xbbe42c80	-0.0069633126
171	0xbd84c88f	-0.06483566
172	0x3d82a558	0.06379193
173	0xbd028560	-0.031865478
174	0x3d05479c	0.032538995
175	0xbc830bcc	-0.015996836
176	0x3d31555b	0.043294292
177	0x3da9e9fd	0.08296583
178	0x3d8c8817	0.068618946
179	0xbd8d7e26	-0.069088265
180	0xbd6f8b73	-0.0584826
181	0xbd1ad686	-0.03780224
182	0xbd7b20b5	-0.06131049
183	0x3da3d297	0.07999151
184	0xbccf27ce	-0.025287535
185	0xbd5f3682	-0.054495342
186	0xbd0bc420	-0.034122586
187	0xbd52fac2	-0.051508673
188	0x3d387979	0.04503772
189	0xbd8bb7a7	-0.06822138
190	0xbd933b7c	-0.0718908
191	0xbdaab1e6	-0.08334713
192	0x3cbf0be8	0.023321107
193	0x3d678ff6	0.056533776
194	0xbd5ec2fd	-0.054385174
195	0x3bf36d51	0.007428803
196	0x3d8e9a6f	0.069630496
197	0x3c3153de	0.010823218
198	0xbcf53ef5	-0.029937247
199	0xbc584265	-0.013199423
200	0xbc51e263	-0.012810322
201	0x3d471272	0.048601575
202	0xbd5fc3cd	-0.05463009
203	0x3d222718	0.039588064
204	0x3d720232	0.059084125
205	0xbd73a0bf	-0.05947947
206	0x3daee887	0.08540445
207	0x3dc017eb	0.09379562
208	0xbd2b5d8d	-0.041837264
209	0xbce5fdd9	-0.028075146
210	0x3d16fb79	0.036860917
211	0xbd95bc15	-0.073112644
212	0x3ce413a0	0.02784139
213	0x3cb5d783	0.02219749
214	0x3d7a03f8	0.06103894
215	0xbda953f7	-0.08267968
216	0xbd7fdd5f	-0.062466975
217	0x3d541276	0.05177542
218	0x3d13d37f	0.03609037
219	0xbdb6ff8e	-0.08935462
220	0xbd297298	-0.04136905
221	0xbdae3953	-0.085070275
222	0xbd632f6c	-0.055465147
223	0xbcf9ec99	-0.030508326
224	0x3d97c92c	0.07411417
225	0xbcd31ab3	-0.025769567
226	0x3d63d4ab	0.055622738
227	0x3da0cf80	0.078520775
228	0x3d52c399	0.051456068
229	0xbd8384d0	-0.06421816
230	0x3d16dac2	0.036829717
231	0x3d19c8d9	0.03754506
232	0x3d816a23	0.06319072
233	0xbd93b4f1	-0.07212246
234	0x3d5fc0d7	0.054627266
235	0x3d5fdc12	0.054653235
236	0xbdb5fa20	-0.08885598
237	0x3c744d4c	0.014911007
238	0x3d9d1e9c	0.07671854
239	0xbd92a2e1	-0.07159973
240	0x3d3346af	0.04376858
241	0x3d425af3	0.047450017
242	0x3ce957fb	0.028484335
243	0x3db770c6	0.08957057
244	0x3d8186ba	0.06324525
245	0x3d955c9b	0.07293054
246	0xbc91f4b0	-0.017816871
247	0x3dabc63f	0.08387422
248	0xbdaae345	-0.083441295
249	0xbd321961	-0.043481234
250	0xbbc33c80	-0.00595814
251	0xbca33fb0	-0.01992783
252	0x3dbad84f	0.09123289
253	0x3d1c3344	0.03813483
254	0x3d7e74fd	0.062123287
255	0x3d6f32a1	0.058397893

bias f4 [128]
0	0x3d098423	0.03357328
1	0xbd95ba8e	-0.07310973
2	0x3ce2bb5a	0.027677227
3	0x3c93fe0d	0.018065477
4	0x3bb81c0a	0.005618577
5	0x3d32b35d	0.043628085
6	0x3d6eaf4e	0.058272652
7	0x3d885a0f	0.06657802
8	0xbda0dcad	-0.078545906
9	0x3b027069	0.0019903427
10	0x3d78c3b6	0.06073352
11	0x3d58ff07	0.052977588
12	0xbd6c1696	-0.057638727
13	0x3b95633e	0.0045589497
14	0xbc301844	-0.010747973
15	0xbaae0e27	-0.0013279364
16	0x3d57a8bc	0.052651152
17	0x3d4b79a7	0.049676564
18	0xbd7fb0e2	-0.062424548
19	0x3b4534c2	0.003009126
20	0xbd300133	-0.042969894
21	0x3d67926e	0.05653613
22	0x3c232848	0.009958334
23	0x3d0b5bb0	0.034022987
24	0x3b9def16	0.004819761
25	0x3db647c6	0.089004084
26	0xbd83715b	-0.06418105
27	0x3d5b8ab1	0.053599063
28	0x3dd0bad8	0.101918876
29	0xbcb7176b	-0.022350034
30	0x3d103204	0.03520395
31	0xbd50e6c3	-0.05100132
32	0xbce7935a	-0.028268505
33	0xbd5db298	-0.0541254
34	0x3d598b75	0.053111512
35	0x3d75dbaf	0.06002396
36	0xbc85bf1c	-0.01632648
37	0xbb411733	-0.002946329
38	0xbd9cd291	-0.0765735
39	0x3d74b1ce	0.05973988
40	0x3d5871f7	0.05284306
41	0x3bdcc526	0.006737369
42	0xbd09165f	-0.0334686
43	0x3d1dfce2	0.038571246
44	0xbd2ebf7a	-0.042663075
45	0x3d81e008	0.06341559
46	0xbd590a02	-0.05298806
47	0x3d3a5d4f	0.045499142
48	0xbd37f4eb	-0.044911306
49	0x3c198073	0.009369004
50	0x3dc92696	0.09821813
51	0x3d7723af	0.060336765
52	0xbd8216d4	-0.0635201
53	0xbc655940	-0.01399833
54	0x3c136c3e	0.008997975
55	0xbd089f87	-0.033355262
56	0xbbc6498b	-0.0060512475
57	0x3da8d093	0.082429074
58	0xbd67a09b	-0.05654965
59	0xbd9f8acc	-0.07790145
60	0xbd99d0e8	-0.07510549
61	0xbb76b93f	-0.0037647036
62	0xbc5c88d7	-0.01346036
63	0x3c868ced	0.01642462
64	0xbd2be062	-0.041962035
65	0xbd2eb38f	-0.04265171
66	0xbd58656e	-0.052831106
67	0x3d3a10b8	0.0454261
68	0x3db5e218	0.088810146
69	0xbd9ec00d	-0.077514745
70	0x3d4904b7	0.049076762
71	0x3d9931f9	0.07480235
72	0xbd8d9f8a	-0.06915195
73	0xbd0a0ae3	-0.03370179
74	0x3d99eb7d	0.07515619
75	0xbd049e92	-0.032377787
76	0x3d860f4d	0.06545887
77	0xbb5ea699	-0.0033973812
78	0xbd98818c	-0.07446584
79	0x3d34d1fb	0.044145565
80	0x3c1124bd	0.008858857
81	0xbd301f80	-0.04299879
82	0x3cfc1458	0.03077142
83	0xbc6b61c3	-0.01436657
84	0xbd0be3cb	-0.034152787
85	0xbd21fa5c	-0.039545402
86	0xbd6e58bd	-0.058190096
87	0xbd8b67b7	-0.068068914
88	0xbc4123e3	-0.011788341
89	0xbd1c2352	-0.03811962
90	0x3d0c851d	0.034306634
91	0x3d8af971	0.067858584
92	0xbc55a489	-0.0130397165
93	0xbd98c8e6	-0.07460193
94	0xbdbdf22e	-0.09274708
95	0x3d41d06a	0.0473179
96	0x3b15988e	0.0022826525
97	0xbd8837ee	-0.06651293
98	0xbd29dfb9	-0.041473124
99	0x3d33474c	0.043769166
100	0x3cbc6266	0.022996139
101	0x3d0930c1	0.03349376
102	0x3db8d7f7	0.09025567
103	0xbd20f35e	-0.039294593
104	0xbba32b2a	-0.004979511
105	0xbd83df83	-0.06439116
106	0x3db196a3	0.0867131
107	0xbc6ae7b1	-0.014337466
108	0xbc712e7f	-0.014720558
109	0xbb68fc4c	-0.0035550771
110	0xbce69d0a	-0.028151054
111	0x3c8b9149	0.01703705
112	0x3d8fbd37	0.07018512
113	0x3d0e4acb	0.034739297
114	0x3cf6e21f	0.03013712
115	0xbd079633	-0.033102226
116	0x3d2d1fce	0.04226666
117	0x3ddcf0be	0.107881054
118	0xbd8fcedb	-0.070218764
119	0xbcff7cad	-0.03118738
120	0x3dc7606e	0.097351894
121	0x3db15cd4	0.08660284
122	0x3cc794b2	0.024362896
123	0x3db60bb4	0.08888951
124	0xbc361615	-0.011113663
125	0x3d1e3210	0.038621962
126	0x3ce1b942	0.027554158
127	0x3dc108db	0.09425517

weight f4 [128, 128]
0	0xbd3e1eee	-0.046416216
1	0x3cc22c4c	0.023702763
2	0x3d7fb9d7	0.06243309
3	0xbd19715e	-0.03746163
4	0xbd6feccc	-0.058575436
5	0x3c8d33fb	0.0172367
6	0xbd8ba5a6	-0.06818704
7	0x3d6da7a7	0.058021214
8	0x3ddd1295	0.1079456
9	0x3d8f488e	0.069962606
10	0xbd0a858f	-0.033818778
11	0x3da3fc92	0.08007158
12	0x3cd53681	0.026026966
13	0xbd313493	-0.04326303
14	0xbd445a48	-0.04793766
15	0x3d1bf3a4	0.03807415
16	0x3caa6e3f	0.020804523
17	0x3d9bcced	0.07607446
18	0x3d30956e	0.043111257
19	0x3cd792c8	0.026315108
20	0xba939c87	-0.0011261859
21	0x3c8f2ad1	0.017476471
22	0xbd9e92ed	-0.077428676
23	0x3a1aba92	0.0005902435
24	0xbc322632	-0.010873364
25	0x3cd86698	0.026416108
26	0xbc2270ae	-0.00991456
27	0x3bb2749e	0.0054460308
28	0xbc0c0a84	-0.008547429
29	0xbdc4db73	-0.09612169
30	0x3c4263f2	0.011864649
31	0xbce3abd8	-0.027791902
32	0x3d1c351a	0.03813658
33	0x3abd619e	0.0014448648
34	0xbd1bf176	-0.038072072
35	0xbd4dc3da	-0.050235607
36	0x3c4a966d	0.012364966
37	0x3dad20c4	0.08453515
38	0x3d5f4bc4	0.054515615
39	0xbd7fdeeb	-0.06246845
40	0xbd8ccee0	-0.06875396
41	0x3cde919e	0.027169045
42	0xbd17cd9b	-0.037061315
43	0xbd22a482	-0.039707668
44	0xbd90c59d	-0.07068942
45	0x3d0f5752	0.034995385
46	0x3bc86cbb	0.0061164773
47	0x3dca0add	0.09865353
48	0xbd18e6d4	-0.03732951
49	0xbd2aad9e	-0.04166948
50	0xbc3da15d	-0.011574117
51	0x3d3aeb2e	0.04563444
52	0x3cf6d83c	0.030132405
53	0xbda7aa32	-0.08186759
54	0x3d57e530	0.052708805
55	0xbb9ea702	-0.004841686
56	0xbc026f41	-0.007961095
57	0xbd4470d7	-0.047959175
58	0xbdbac833	-0.09120216
59	0xbc897a08	-0.016781822
60	0xbdbd501b	-0.092437945
61	0x3cb9b285	0.022668133
62	0xbd83fbd6	-0.06444518
63	0xbda29d60	-0.07940173
64	0xbd8021ca	-0.06256445
65	0x3cda2afa	0.026631821
66	0xbd03bc61	-0.032162074
67	0xbda9cfa2	-0.08291556
68	0x3be5a037	0.0070076245
69	0x3d8dfc53	0.06932893
70	0x3d5a43de	0.05328738
71	0x3d0e6eb5	0.034773547
72	0xbcbc60c6	-0.022995364
73	0xbd596ca8	-0.05308214
74	0x3c3bf81f	0.011472731
75	0x3d2b2d40	0.0417912
76	0xbd9972cc	-0.07492599
77	0x3d8a77c9	0.067611285
78	0xbd986dbe	-0.07442807
79	0xbd57c79c	-0.052680597
80	0xbdab5d37	-0.08367389
81	0x3c5a853a	0.013337428
82	0xbbe1c381	-0.006889761
83	0x3a8304bb	0.0009995917
84	0xbd9eb770	-0.07749832
85	0xbd02d643	-0.031942617
86	0x3d461722	0.048361905
87	0x3d33cc8d	0.043896247
88	0xbd9b819b	-0.0759308
89	0xbc8017a8	-0.01563628
90	0x3c92b3fa	0.017908085
91	0xbd23cdd6	-0.039991222
92	0x3d60aa5c	0.054849967
93	0xbda3f276	-0.0800523
94	0x3d0a6d34	0.03379555
95	0xbd41a466	-0.047275923
96	0x3daba132	0.08380355
97	0xbb438470	-0.0029833578
98	0x3d8495fd	0.064739205
99	0xbd71c198	-0.059022516
100	0xbdbcf78a	-0.09226902
101	0x3d9a828b	0.0754443
102	0xbcfe897f	-0.031071423
103	0x3cc56877	0.024097664
104	0x3d18b3d8	0.037280887
105	0x3d1cd141	0.038285498
106	0xbb8abffb	-0.0042343116
107	0xbdb2a8f6	-0.08723633
108	0xbd811897	-0.06303518
109	0x3d9f29e5	0.077716626
110	0xbaa7871a	-0.0012781352
111	0x3ce619a8	0.028088406
112	0xbc084bb6	-0.008318832
113	0xbdd8de11	-0.10589231
114	0xbd01f59c	-0.031728372
115	0x3d933210	0.07187283
116	0x3d58c64e	0.052923493
117	0xbd8eff9a	-0.06982346
118	0xbcf7a527	-0.030230118
119	0x3de21f6f	0.11041152
120	0x3dc6f58d	0.09714804
121	0x3dbdda3a	0.09270139
122	0x3d9aed9f	0.07564854
123	0x3d24a8d9	0.04020009
124	0x3d0f29da	0.034952022
125	0xbd9f9f07	-0.07794004
126	0xbb8f5cb2	-0.004375064
127	0xbdca69f0	-0.09883487
128	0x3d8004ff	0.06250953
129	0x3d11b03f	0.035568472
130	0x3d2e7743	0.042594206
131	0x3bc4dd7b	0.006007848
132	0xbd919918	-0.071092784
133	0x3d9b0df7	0.07571023
134	0x3c9c9545	0.019114146
135	0x3cf141a7	0.02945025
136	0xbc69a796	-0.014261147
137	0xbd67973a	-0.056540705
138	0x3d085395	0.033282835
139	0xbc8c3103	-0.017113214
140	0x3dc9543d	0.0983052
141	0x3c952e05	0.01821042
142	0x3cca5319	0.024697827
143	0x3d800750	0.06251395
144	0xbd0f49ea	-0.0349826
145	0x3d960361	0.07324863
146	0x3be54634	0.0069968943
147	0xbd62f6da	-0.055411197
148	0x3d091576	0.033467732
149	0xbd327acc	-0.04357414
150	0x3d5a5594	0.05330427
151	0x3db6a58d	0.08918295
152	0x3b811f78	0.003940519
153	0xbd08f068	-0.033432394
154	0x3c25aa5e	0.0101114195
155	0x3d9881b5	0.07446615
156	0x3d80df23	0.0629256
157	0x3d98bfe4	0.07458475
158	0xbc143c54	-0.0090475865
159	0xbd9157cb	-0.07096823
160	0x3d452eae	0.04814022
161	0x3b718f99	0.0036859273
162	0x3ce17871	0.027523251
163	0x3da6eadc	0.081502646
164	0xbcef0055	-0.029174963
165	0x3dac81d1	0.08423198
166	0xbd4e76f7	-0.050406422
167	0xbd5e8daf	-0.05433434
168	0x3d017ffd	0.0316162
169	0x3d92aeb6	0.0716223
170	0xbc80930e	-0.015695121
171	0x3c046976	0.0080817845
172	0x3c7cbe2b	0.015426199
173	0x3d1bcc2c	0.03803651
174	0xbc2d29fd	-0.010569093
175	0xbd9daa0b	-0.07698449
176	0x3d174384	0.036929622
177	0xbdb2bc38	-0.08727306
178	0xbd80733d	-0.0627198
179	0xbd9ad4e4	-0.07560137
180	0x3cb49150	0.022041947
181	0x3d3e664f	0.046484288
182	0xbd57665d	-0.052587856
183	0x3d9e5c43	0.07732441
184	0xbd9b87e2	-0.07594277
185	0x3d83df21	0.06439043
186	0x3d0c0ea7	0.03419366
187	0xbcdee659	-0.027209448
188	0x3d8bd873	0.06828394
189	0x3d891a54	0.06694475
190	0x3da8d2e8	0.08243352
191	0xbd9c410c	-0.07629594
192	0xbcdaeb2c	-0.026723467
193	0xbd8da3e6	-0.06916027
194	0x3d886b36	0.06661074
195	0x3cbda82d	0.023151482
196	0xbd26942d	-0.040668655
197	0xbc155653	-0.00911482
198	0x3d853456	0.06504123
199	0x3dc8d6b9	0.0980658
200	0x3b5f7537	0.0034096965
201	0xbd98f38c	-0.07468328
202	0xbcf1fea8	-0.029540375
203	0x3da5f0f5	0.081025995
204	0x3d167bf5	0.03673931
205	0x3d81511c	0.063142985
206	0x3d97a8cb	0.074052416
207	0xbd020e19	-0.031751726
208	0x3d3c8f53	0.046035122
209	0x3c165e46	0.00917775
210	0xbd360959	-0.04444251
211	0xbd2f65e7	-0.04282179
212	0x3d0753ca	0.03303889
213	0x3c2e04fb	0.010621305
214	0x3d5451bc	0.05183576
215	0x3dae3eb7	0.08508056
216	0xbd8f4c34	-0.069969565
217	0xbb2d7219	-0.0026465713
218	0xbd26019e	-0.040528886
219	0x3d337eea	0.043822207
220	0x3d0a9041	0.033828977
221	0x3da51245	0.08060125
222	0x3d6a4286	0.057192348
223	0x3d6dcb4f	0.05805522
224	0xbda92bfc	-0.082603425
225	0xbd7bbf53	-0.061461758
226	0xbdafa200	-0.08575821
227	0xbd2ee6da	-0.042700626
228	0xbd161f07	-0.036650684
229	0x3d9311d1	0.071811326
230	0xbd29be9a	-0.041441537
231	0x3d8427b4	0.06452885
232	0x3db73d0d	0.089471914
233	0x3d78ba8d	0.060724784
234	0x3d687215	0.056749422
235	0x3d822f85	0.0635672
236	0x3cbf7b38	0.023374185
237	0xbd84a30a	-0.0647641
238	0x3da3a8d7	0.07991188
239	0x3d986ea4	0.07442978
240	0x3d88bcae	0.06676613
241	0xbd787c34	-0.060665324
242	0xbc07d8bd	-0.0082914205
243	0x3d5fefe7	0.054672148
244	0xbb739014	-0.0037164735
245	0xb9effc6e	-0.00045773707
246	0xbd4aa53b	-0.049473982
247	0x3d61f1ec	0.055162355
248	0x3d391cde	0.045193546
249	0xbc51eab9	-0.01281231
250	0x3d858338	0.065191686
251	0xbd01deb0	-0.031706512
252	0x3d4048de	0.04694449
253	0x3c29f761	0.010373921
254	0xbd2c5572	-0.042073674
255	0x3c9d2701	0.019183638

bias f4 [128]
0	0x3ce622a7	0.028092695
1	0x3db2d5c9	0.087321825
2	0x3cf0a818	0.029377028
3	0x3da7537f	0.081702225
4	0x3ce37128	0.027763918
5	0xbcfb8e14	-0.030707397
6	0x3d2fbc00	0.0429039
7	0x3d80d840	0.062912464
8	0xbd0955ac	-0.03352897
9	0x3c5b5c71	0.013388739
10	0x3d78e710	0.060767233
11	0xbd5472be	-0.05186724
12	0x3da538af	0.08067452
13	0x3d8ed556	0.06974284
14	0xbcbc72c2	-0.02300394
15	0x3d81000b	0.06298836
16	0x3dab364d	0.083599664
17	0x3ce2c655	0.027682463
18	0xbd13dee4	-0.036101237
19	0xbd2c9050	-0.042129815
20	0x3d3ad2f6	0.045611344
21	0xbd97afbd	-0.07406566
22	0x3c63bebf	0.013900458
23	0xbd710b69	-0.058848772
24	0x3d02e2ff	0.03195476
25	0x3d85bbad	0.06529937
26	0x3d91f851	0.07127441
27	0x3d9f617c	0.077822655
28	0xbdc182ea	-0.09448798
29	0x3d9c7e77	0.07641309
30	0x3d4e17de	0.05031573
31	0xbd440555	-0.047856648
32	0x3db012d9	0.08597345
33	0xbd48b06e	-0.04899638
34	0x3dafe6f2	0.08588971
35	0x3d15c158	0.03656134
36	0xbd99d3f1	-0.07511128
37	0x3c81141c	0.01575666
38	0xbd204d09	-0.039135966
39	0xbdbb28a7	-0.09138613
40	0x3d38a51b	0.04507933
41	0xbd1a7a2b	-0.037714165
42	0xbd3aedd5	-0.04563697
43	0x3d1701eb	0.036867063
44	0xbc3ff78d	-0.011716736
45	0x3d523f45	0.05132987
46	0xbd1632db	-0.036669593
47	0xbd453123	-0.048142564
48	0x3d7798df	0.060448524
49	0x3d75d717	0.06001958
50	0xbd4fb8dd	-0.05071341
51	0x3c9f6856	0.019458931
52	0x3d46bd24	0.048520222
53	0xbcf1a9a9	-0.029499846
54	0xbd4aa6e7	-0.049475577
55	0x3db1fa41	0.0869031
56	0x3db71a6d	0.08940587
57	0x3cd2ef12	0.025748763
58	0x3d9e35d4	0.07725111
59	0xbd5700bb	-0.05249093
60	0x3a4f3ce9	0.00079054997
61	0x3da0eb17	0.0785734
62	0xbd20eddf	-0.03928935
63	0xbc1f68b2	-0.009729551
64	0xbd534054	-0.05157502
65	0xbd3499b4	-0.044091895
66	0x3d48492b	0.048897903
67	0xbd9ace6f	-0.07558905
68	0x3dc46881	0.09590245
69	0x3a62db5b	0.00086539023
70	0xbd6480f1	-0.05578703
71	0xbd84a6e4	-0.06477144
72	0xbd8876a4	-0.06663254
73	0x3da43f2d	0.08019862
74	0x3dcb9257	0.099400215
75	0x3d465cab	0.04842822
76	0x3be1da9e	0.0068925163
77	0xbbe413c9	-0.0069603664
78	0xbcf60be8	-0.030034974
79	0x3da5f496	0.08103292
80	0x3d79d821	0.060997132
81	0x3cf7edf6	0.030264836
82	0x3d24a594	0.04019697
83	0x3da8f455	0.08249728
84	0xbd672c22	-0.056438573
85	0xbc41c06f	-0.011825665
86	0xbce893f3	-0.02839086
87	0xbd04616b	-0.032319468
88	0x3b1ed886	0.0024237945
89	0x3dd07728	0.10178977
90	0x3d837e85	0.06420616
91	0xbcbf7980	-0.023373365
92	0xbda773eb	-0.081764065
93	0x3c3d359d	0.011548427
94	0x3d6d0461	0.057865504
95	0x3d9fc4a5	0.07801179
96	0xbd31f044	-0.043442026
97	0x3d9b8e29	0.07595474
98	0xbd55491a	-0.05207167
99	0x3c6b0f2f	0.014346882
100	0xbd8da1f7	-0.06915658
101	0xbcec190f	-0.028820543
102	0xbd2ad03c	-0.041702494
103	0xbd8040a0	-0.06262326
104	0xbd4654b5	-0.048420627
105	0x3d5159ed	0.05111115
106	0xbd15c73a	-0.03656695
107	0x3cda8f1f	0.026679574
108	0xbd8dc31c	-0.0692198
109	0x3cb8d673	0.022563195
110	0x3d6ebbac	0.058284447
111	0x3cfcd468	0.030863002
112	0x3d2fece8	0.04295054
113	0xbba69f35	-0.005084897
114	0x3cd88a05	0.026433
115	0xbbdc9874	-0.006732041
116	0x3d5ab744	0.053397432
117	0xbd19943a	-0.037494875
118	0x3d1bd48c	0.038044497
119	0xbb5ecddd	-0.0033997216
120	0x3d11164f	0.035421666
121	0x3cbd0f68	0.023078635
122	0x3dc84c2f	0.09780156
123	0x3d2d7948	0.04235199
124	0x3d79c2d9	0.060976837
125	0x3c999224	0.018746443
126	0x3cf18dd9	0.029486584
127	0xbd2c51ca	-0.042070188

weight f4 [128, 128]
0	0x3d79a91a	0.060952283
1	0x3c83f7b1	0.01610932
2	0xbcefdfc0	-0.029281497
3	0x3c2d952d	0.010594648
4	0x3ca8c48b	0.020601531
5	0x3d913fcd	0.07092247
6	0x3d410f42	0.04713369
7	0xbd25f2f4	-0.0405149
8	0x3d9c1c4b	0.07622584
9	0xbc720312	-0.01477124
10	0x3d7ad312	0.06123645
11	0xbd4a7826	-0.04943099
12	0xbc50fafb	-0.012755151
13	0xbc5b07ab	-0.013368527
14	0x3d8c6b77	0.06856435
15	0xbd1a0b41	-0.03760839
16	0xbd882f3f	-0.066496365
17	0xbd88bd82	-0.06676771
18	0x3d973017	0.07382219
19	0x3db28437	0.08716624
20	0xbc58fe66	-0.013244247
21	0x3d3be871	0.04587597
22	0xbcb60aa3	-0.022221869
23	0xbd036496	-0.032078348
24	0xbdaa67b1	-0.08320559
25	0x3c0abe20	0.008468181
26	0x3d31ba62	0.04339064
27	0x3be7b324	0.007070916
28	0x3d9f1aab	0.077687584
29	0xbdaeaea4	-0.08529404
30	0xbda56cb8	-0.08077377
31	0x3db58f91	0.08865274
32	0x3c91115e	0.017708477
33	0x3bee5e2f	0.007274411
34	0xbdab8116	-0.083742306
35	0x3d9b6861	0.07588268
36	0x3d921670	0.07133186
37	0xbb725795	-0.0036978472
38	0x3d68f32f	0.056872543
39	0x3d75b448	0.059986383
40	0xbb9044e8	-0.0044027455
41	0xbd714e3c	-0.0589125
42	0xbc02a66d	-0.007974249
43	0x3d8dba27	0.06920271
44	0xbd216f63	-0.039412867
45	0xbd7b9259	-0.061418865
46	0xbda20a84	-0.07912162
47	0x3da8bca2	0.08239104
48	0x3d8514c4	0.06498101
49	0x3d8f6be3	0.07003
50	0xbc9c9e1b	-0.01911836
51	0x3d51318c	0.051072642
52	0xbd8fe7ed	-0.07026658
53	0x3d86d050	0.06582701
54	0x3bf311c1	0.007417888
55	0xbd36394f	-0.044488247
56	0xbd906fa7	-0.07052546
57	0xbd5263f2	-0.051364847
58	0xbd95dfc3	-0.0731807
59	0x3d01273d	0.03153156
60	0x3bce7949	0.0063010794
61	0x3d83c638	0.064342916
62	0xbd6d182b	-0.057884376
63	0xbd8c563b	-0.06852385
64	0xbc9e42cb	-0.019318959
65	0x3d851246	0.06497626
66	0xbd0e299f	-0.03470766
67	0x3da87c79	0.08226866
68	0x3d9ad16e	0.07559477
69	0x3d2c6151	0.042084996
70	0x3d953d33	0.072870634
71	0xbdab04a4	-0.083504945
72	0x3d5c88d6	0.053841434
73	0xbda4361f	-0.08018135
74	0xbdaf62b5	-0.08563749
75	0x3bd354ab	0.006449302
76	0x3c934d80	0.01798129
77	0xbd315a6c	-0.043299124
78	0x3d6c8900	0.05774784
79	0x3d27e279	0.040987466
80	0xbd2c7354	-0.042102173
81	0x3db0ee1c	0.08639166
82	0x3d8cafa5	0.06869439
83	0xbd9465b9	-0.072459646
84	0xbcfeb87c	-0.031093828
85	0xbd8cea4f	-0.06880628
86	0x3d397340	0.045275927
87	0x3ce9913a	0.028511632
88	0xbcd6ab7a	-0.026204813
89	0x3c1e11e8	0.009647824
90	0xbd8aa729	-0.067701645
91	0xbd1ca189	-0.03823999
92	0x3d15e4ea	0.036595263
93	0xbc178a52	-0.009249287
94	0x3c79656e	0.015221937
95	0x3d02b009	0.03190616
96	0x3d55f82b	0.052238625
97	0xbc6097f6	-0.013708105
98	0x3d8e02bf	0.069341175
99	0xbb9b1e85	-0.004733863
100	0xbd5962d6	-0.053072773
101	0x3d08fc3b	0.03344367
102	0xbcad8c86	-0.02118517
103	0xbd8091e8	-0.062778294
104	0xbc5b0054	-0.013366777
105	0xbd940d78	-0.072291315
106	0x3d33ef30	0.04392928
107	0x3d8148f6	0.06312744
108	0x3d4e5c80	0.050381184
109	0x3d3aa028	0.045562893
110	0x3d82ab8c	0.06380376
111	0x3cbfa8ac	0.023395859
112	0x3d1bfe44	0.038084283
113	0x3d82cbc8	0.063865244
114	0xbd3190b4	-0.04335089
115	0xbd3681fb	-0.044557553
116	0x3cfa58d4	0.030559935
117	0x3d32074e	0.043463998
118	0x3d799fcc	0.06094341
119	0x3d96a562	0.07355763
120	0xbdb669f5	-0.089069284
121	0xbdaaa86e	-0.08332907
122	0x3d7cf34c	0.061755463
123	0xbd95da22	-0.07316996
124	0x3d08b272	0.033373304
125	0x3c83b789	0.016078727
126	0x3dc1dcc3	0.09465935
127	0xbcd592a0	-0.026070893
128	0x3d653a83	0.055964004
129	0x3d31779f	0.04332697
130	0xbd231d02	-0.039822586
131	0xbd1066d9	-0.035254333
132	0xbd977101	-0.07394601
133	0x3d209d36	0.039212428
134	0xbd3b6fae	-0.045760803
135	0xbd258ae5	-0.040415663
136	0x3c12c3df	0.008957832
137	0x3da4394f	0.08018743
138	0xbd8d8270	-0.069096446
139	0xbd297ec3	-0.041380655
140	0xbd41527d	-0.047197808
141	0xbd5c67cb	-0.053809922
142	0xbced49e6	-0.028965902
143	0x3d3614da	0.04445348
144	0xbc4fcf47	-0.012683696
145	0xbcf70ba6	-0.030156922
146	0x3b4e5b77	0.0031487623
147	0xbd6b458f	-0.057439383
148	0x3dd05941	0.10173274
149	0xbd246fc0	-0.040145636
150	0xbd4ebb3e	-0.050471537
151	0xbd13cace	-0.03608208
152	0x3d1f3e2e	0.03887766
153	0xbd9c8af2	-0.07643689
154	0x3d86a232	0.06573905
155	0xbc011d79	-0.007880562
156	0xbd2e740e	-0.042591147
157	0xbd488a90	-0.04896027
158	0x3d85215f	0.06500506
159	0xbd0fd8ea	-0.035118975
160	0xbd26e0fb	-0.0407419
161	0x3d0f1c03	0.034938823
162	0x3dcbdaf4	0.09953871
163	0x3d6d93a5	0.058002133
164	0x3d8f56b9	0.06998963
165	0xbda1d374	-0.079016596
166	0xbd0be17e	-0.034150593
167	0xbcd043e2	-0.025422994
168	0x3da72137	0.08160632
169	0x3da40f46	0.08010726
170	0xbcf6976d	-0.030101502
171	0xbd84ea82	-0.06490041
172	0x3dbcdd36	0.0922188
173	0xbcdae039	-0.026718246
174	0xbd8102ed	-0.06299386
175	0x3da4f0dd	0.080537535
176	0x3da332b3	0.079686545
177	0x3cdca49b	0.026933959
178	0xbcc84476	-0.024446707
179	0x3d879557	0.06620281
180	0xbd8a7035	-0.06759683
181	0x3c868780	0.016422033
182	0xbcb35681	-0.021891834
183	0xb7fedb60	-3.0381314e-05
184	0x3d2f04cf	0.042729195
185	0x3d5045e2	0.050847895
186	0xbbd9716b	-0.006635835
187	0x3d006110	0.031342566
188	0xbc03e7d0	-0.008050874
189	0xbda2fa87	-0.079579405
190	0xbd95890d	-0.07301531
191	0xbc3e456c	-0.011613231
192	0xbd97985c	-0.07402107
193	0x3d8ca324	0.06867054
194	0x3d2905a3	0.04126514
195	0xbd6390ae	-0.0555579
196	0xbcc10c2a	-0.02356537
197	0xbd87fd85	-0.06640152
198	0x3d89643b	0.067085706
199	0x3d6f2b4d	0.058390904
200	0x3c8ee359	0.017442392
201	0xbd7a60db	-0.061127525
202	0x3daf7c91	0.08568681
203	0xbcb32e9b	-0.02187281
204	0xbd637d6c	-0.055539533
205	0x3b67d126	0.0035372465
206	0x3db1780e	0.08665477
207	0xbc9b6310	-0.018968135
208	0x3cfc8e03	0.030829435
209	0x3d449451	0.047993008
210	0x3d21f099	0.039536092
211	0x3ba179a4	0.004927831
212	0x3cc0c792	0.023532663
213	0x3d6391f1	0.055559102
214	0x3d6ae214	0.05734451
215	0x3d7cece9	0.061749373
216	0xbcd2577e	-0.025676485
217	0x3d0a08b4	0.033699706
218	0x3dbf8fdb	0.0935361
219	0x3d82ac11	0.06380475
220	0xb9b6d744	-0.0003487413
221	0xbd860745	-0.06544355
222	0xbd4aee52	-0.049543686
223	0x3cb6f665	0.022334287
224	0xbc914613	-0.01773361
225	0x3dbc2590	0.09186852
226	0x3d377a79	0.044794533
227	0xbda7c06e	-0.08191
228	0x3c112200	0.008858204
229	0x3b6e0e68	0.0036324505
230	0xbdaa16c8	-0.083051264
231	0xbc340ab9	-0.010988885
232	0x3dabc73a	0.08387609
233	0x3da8c02a	0.082397774
234	0xbd87de60	-0.066342115
235	0x3d3e1aff	0.046412464
236	0xbce23bc3	-0.027616387
237	0x3d12d227	0.03584495
238	0x3d1c432c	0.038149998
239	0x3d3bbd9f	0.045835134
240	0x3dac376d	0.08409009
241	0x3db5bb18	0.08873576
242	0x3d92b859	0.07164068
243	0x3d6bb5a8	0.057546288
244	0xbd226e2c	-0.03965585
245	0x3d98272e	0.07429348
246	0xbd970f1b	-0.07375928
247	0x3d649db4	0.05581446
248	0xbccc3768	-0.024928764
249	0x3dadffce	0.084960565
250	0x3d0e829b	0.034792524
251	0x3d91f033	0.071258925
252	0x3d3fd8a4	0.046837464
253	0xbd0fba7b	-0.03508995
254	0xbb9b0014	-0.004730234
255	0xbce937b2	-0.02846894

bias f4 [128]
0	0xbd3e371b	-0.04643927
1	0x3cf9dc61	0.030500593
2	0x3d079780	0.033103466
3	0xbd69c23e	-0.05707001
4	0xbce1b702	-0.027553085
5	0xbdc0c4e9	-0.09412558
6	0x3cb6279e	0.022235688
7	0xbbc7c679	-0.006096658
8	0xbd1603ae	-0.036624603
9	0x3d86f96f	0.065905444
10	0xbdb21ac5	-0.08696512
11	0xbd7db2bc	-0.061938033
12	0x3d7a9053	0.061172795
13	0x3c47d458	0.012196623
14	0xbd6aaa34	-0.057291225
15	0x3da77425	0.0817645
16	0xbcded097	-0.027199073
17	0xbd06c651	-0.032903973
18	0x3d675f38	0.056487292
19	0x3d026e60	0.031843543
20	0x3da731e4	0.08163813
21	0x3c9c1c69	0.019056516
22	0xbccc44f4	-0.024935223
23	0xbc3ba4b1	-0.01145284
24	0x3d92e386	0.07172303
25	0x3d9ab3af	0.07553803
26	0x3d4233f4	0.047412828
27	0x3d5ffb0f	0.054682788
28	0x3d11b132	0.035569377
29	0xbcb2d298	-0.021828935
30	0xbce2dc32	-0.027692888
31	0x3b858237	0.0040743607
32	0xbd5bfd2f	-0.05370825
33	0x3dc7d577	0.09757512
34	0x3da37dee	0.079830036
35	0xbd18adcf	-0.03727513
36	0x3d411f1c	0.04714881
37	0xb90ea236	-0.00013602604
38	0x3d9bc2df	0.07605528
39	0xbce8baa2	-0.028409306
40	0x3dc3cf72	0.095610514
41	0x3b0b9760	0.0021299943
42	0x3d5e09f3	0.054208707
43	0x3d85d6e5	0.065351285
44	0x3b01093f	0.001968935
45	0x3c212eaa	0.009837786
46	0x3b0ea146	0.0021763607
47	0xbd8df9c0	-0.06932402
48	0x3cf0b3a8	0.029382542
49	0x3d117da5	0.035520215
50	0xbcd09f19	-0.025466489
51	0x3cc541fa	0.024079312
52	0x3da1e540	0.07905054
53	0xbd89b48a	-0.06723888
54	0x3da8f9ec	0.08250794
55	0x3c9b50a4	0.01895935
56	0x3d5b2b1e	0.053507917
57	0x3d0f1ba1	0.03493846
58	0x3d894f6b	0.06704601
59	0x3da24b5b	0.07924529
60	0x3d3201b2	0.043458648
61	0xbaccdc9a	-0.0015629709
62	0xbc3824b2	-0.011239218
63	0xbd94b650	-0.07261336
64	0xbda86deb	-0.0822409
65	0xbda993c4	-0.08280137
66	0x3dbaadc3	0.09115174
67	0xbda4d821	-0.08049036
68	0x3d74507c	0.05964707
69	0xbda5cce7	-0.08095723
70	0x3dbc2d2e	0.09188305
71	0x3d1dd405	0.038532276
72	0x3d09d8fd	0.0336542
73	0xbacb8d6f	-0.0015529821
74	0xbca9d745	-0.020732531
75	0x3dbd9f0f	0.09258854
76	0x3c77f07a	0.015133018
77	0xbb0c9c71	-0.002145555
78	0x3cf5e27d	0.030015225
79	0x3da22c08	0.079185545
80	0xbd1fd4b7	-0.03902122
81	0x3d64c8ff	0.055855747
82	0xbb0285a0	-0.0019916072
83	0xbd1005a9	-0.035161648
84	0x3cea4092	0.028595243
85	0x3d2b7118	0.0418559
86	0xbd1aaefa	-0.037764527
87	0xbd62ef72	-0.055404134
88	0xbd621b73	-0.05520196
89	0xbd5afaf1	-0.053461973
90	0x3dac9751	0.08427299
91	0x3d7d3db0	0.061826408
92	0xbd8af950	-0.06785834
93	0x3da8bd9d	0.08239291
94	0xbb7436a4	-0.0037264014
95	0xbb121a56	-0.002229353
96	0x3d5deeea	0.054182924
97	0x3d9bd269	0.07608492
98	0x3bded383	0.0068001165
99	0x3ce2932d	0.02765807
100	0x3cbefe87	0.023314727
101	0xbdab5939	-0.08366627
102	0x3ca57a80	0.020200014
103	0xbd80d059	-0.06289739
104	0x3da90be5	0.08254222
105	0xbd7688c0	-0.06018901
106	0x3d0eef9e	0.034896486
107	0x3db028f2	0.0860156
108	0x3d9e436c	0.077277035
109	0xbd8e178e	-0.069380865
110	0xbc58b747	-0.0132272905
111	0x3d80c23e	0.06287049
112	0xbd56f005	-0.052474994
113	0xbbd02f6f	-0.006353311
114	0xbc9f67c8	-0.019458666
115	0x3cb2b40c	0.021814369
116	0x3d2db679	0.042410348
117	0x3d0f8e3d	0.03504776
118	0x3d317b9d	0.043330777
119	0xbbd6be03	-0.006553413
120	0xbd724af5	-0.059153516
121	0x3d84222e	0.06451832
122	0x3d91d8d7	0.07121437
123	0x3d90e931	0.07075728
124	0xbd8aaabe	-0.06770848
125	0xbc808d8b	-0.015692493
126	0xbd856f49	-0.065153666
127	0xbd57d9eb	-0.052698057

weight f4 [1, 128]
0	0xbdb09a21	-0.08623148
1	0x3d6df351	0.058093373
2	0x3c81dc62	0.015852157
3	0xbb47afb6	-0.0030469722
4	0xbdb5a68c	-0.08869657
5	0x3d348790	0.044074595
6	0x3c100473	0.008790123
7	0x3cc02bd3	0.023458397
8	0xbc1ec422	-0.009690316
9	0xbd107827	-0.035270836
10	0x3ce5875b	0.028018644
11	0x3d08cd85	0.033399124
12	0xbca79f0c	-0.020461582
13	0x3d897d3f	0.06713342
14	0x3d8d42fe	0.06897543
15	0x3d0ce853	0.03440125
16	0x3ca57255	0.02019612
17	0xbd6465cc	-0.055761144
18	0xbd2499e9	-0.040185843
19	0xbd6aa2bb	-0.057284098
20	0x3d4d0231	0.050050918
21	0x3d240d11	0.040051524
22	0xbd97c061	-0.0740974
23	0xbd09fcc5	-0.033688325
24	0x3d9727cf	0.0738064
25	0x3db79084	0.08963111
26	0x3d2e8875	0.042610604
27	0x3c3f1916	0.011663696
28	0xbd74d6e2	-0.05977524
29	0xbd4467ab	-0.047950428
30	0x3b041e0c	0.002015951
31	0xbc9b3afb	-0.018949023
32	0xbd58e74c	-0.052954957
33	0x3dcdbd33	0.100458525
34	0x3d519e36	0.051176272
35	0x3d6e4a0c	0.058176085
36	0xbd8fc408	-0.07019812
37	0x3cc82d61	0.0244357
38	0x3d8655f1	0.06559361
39	0x3d4ac6b7	0.049505915
40	0x3db86275	0.09003154
41	0xbd123d87	-0.03570321
42	0xbd5d5e04	-0.05404474
43	0xbd1b25b1	-0.037877742
44	0xbdcec23f	-0.10095643
45	0x3db4a4b2	0.08820476
46	0xbd5d075a	-0.05396209
47	0x3d58f16f	0.052964624
48	0x3d7227e7	0.059120085
49	0x3cd67331	0.026177974
50	0x3cbfe954	0.02342669
51	0xbda23cfe	-0.079217896
52	0x3c8b89e7	0.01703353
53	0xbd2f1f4a	-0.04275445
54	0x3ce1aae3	0.027547305
55	0x3d3031b5	0.043016154
56	0x3cdf0e2d	0.02722844
57	0x3da06d91	0.07833398
58	0xbb52bb4c	-0.0032155095
59	0x3db4035c	0.08789703
60	0xbd960b60	-0.07326388
61	0xbdce2466	-0.10065536
62	0x3cefc846	0.029270303
63	0x3d574c79	0.052563164
64	0x3d82a4b0	0.06379068
65	0x3d202ea3	0.039106976
66	0x3db28f84	0.0871878
67	0x3caf7cd0	0.02142182
68	0xbd46b074	-0.048508123
69	0xbd604512	-0.05475337
70	0x3d2b230e	0.041781478
71	0x3d2503fe	0.04028701
72	0x3d29c99d	0.04145204
73	0xbd4a5fb7	-0.049407687
74	0xbc176e63	-0.009242627
75	0x3d111c10	0.035427153
76	0x3d10b1e6	0.035325907
77	0xbc96ecd0	-0.018423468
78	0xbd5079b3	-0.05089731
79	0x3d6515ba	0.055928923
80	0xbbf5ceb0	-0.0075014457
81	0x3d2b1d7d	0.04177617
82	0xbdcadc1f	-0.09905266
83	0x3d7800cf	0.060547646
84	0xbd2f7bcd	-0.042842675
85	0xbda443f0	-0.080207705
86	0x3c372d48	0.0111802295
87	0x3c30a516	0.010781547
88	0x3b95e89f	0.0045748497
89	0xbd97b800	-0.07408142
90	0xbd4c279a	-0.049842454
91	0x3d97366f	0.07383429
92	0x3cd48f77	0.025947316
93	0x3d3672b1	0.044542972
94	0x3dac952d	0.084268905
95	0xbc6bdb38	-0.014395528
96	0xbdd68747	-0.10475021
97	0xbd2971a7	-0.041368153
98	0xbda07d90	-0.07836449
99	0x3c6c4ca6	0.014422571
100	0x3d807cc7	0.062737994
101	0x3da7cadd	0.0819299
102	0x3cf8e7ee	0.03038403
103	0x3d11ca6e	0.035593443
104	0x3d04bd68	0.032407194
105	0x3d94df76	0.07269184
106	0x3cd6971e	0.026195105
107	0x3d117770	0.035514295
108	0xbda14092	-0.07873644
109	0x3b0d3be8	0.00215506
110	0xbdc1bfb4	-0.094603926
111	0x3d70787b	0.05870865
112	0x3942f885	0.00018593862
113	0x3d4bbce2	0.04974068
114	0xbd884f28	-0.06655723
115	0x3d976602	0.07392503
116	0x3cd4235e	0.02589577
117	0x3d43e281	0.047823433
118	0x3c3d4066	0.011550998
119	0x3d3d0e7b	0.046156388
120	0x3d974607	0.073864035
121	0x3dbee6cd	0.093213655
122	0xbd98b8c1	-0.07457114
123	0xbdd084f8	-0.10181612
124	0xbd9df065	-0.07711867
125	0x3d26b42d	0.040699173
126	0xbd937c2f	-0.072014205
127	0xbb6fe5ab	-0.0036605399
