Dry fermentation prediction and optimization system/optimize_digester/Predictor_Digester Biogas Production/models/NeuralNetTorch_BAG_L1/S1F4/net.params (torch, 207367 bytes, 9 tensors)

weight f4 [128, 5]
00000000: 5dfd 91bc 46db 6e3e aa7d bebe c2ad a8be
00000010: 81b7 30be ba05 1b3e 7776 76bb 2e1f ed3e
00000020: 4780 fbbc 7f61 023e d93e fbbd 6dce d5bd
00000030: 9083 d2be a16f 98be c15b 3ebe 799a 0cbb
00000040: 30ea 3c3e 0260 9a3e a25d 94be 81b0 39be
00000050: b79b 383e f6e8 bd3e e3a2 a3bd ad83 aa3e
00000060: 45f1 96bd 16e2 6a3d 47ad c13e 240f d1be
00000070: 5ec9 96be f136 01be 9d5c 35be add6 bf3e
00000080: f87f 90be aa09 56be cf95 a1be 74b4 d5be
00000090: ed54 80be 0da6 d13e cb43 323e f3df 433e
000000a0: 25a3 0b3d 3d41 83be 458e a63d 4c79 d7be
000000b0: 8b21 a7be 724f 84be d3c1 913e 2f62 8b3e
000000c0: 2664 4bbe b48b 86bc fe62 a63e 9bb4 df3e
000000d0: 6ef4 593e 48f0 633d 4e15 973e c41f 8abe
000000e0: ba30 5d3d 9c93 adbe 4fb0 a2be 7d8c 74be
000000f0: 8175 583e 9472 513e 6298 88be e3fd e43d
00000100: fe8b 633e 24b6 24bd 3b50 b13c bcf2 e73d
00000110: 74e5 843e 98b4 d23e 4be2 c3be 9fcb 1dbe
00000120: fa94 053e 36e4 b33e 166e bd3e d1bf d13e
00000130: 3cb1 6a3d a545 c5be a9ad 1b3d cdd9 90be
00000140: 8431 debe bef4 e03e b7d7 ca3e 45b0 dabe
00000150: a74d d23d 36d3 b8bd 9ae2 bfbd e894 8dbe
00000160: fd95 3a3e c561 82be b098 263e a6b3 633e
00000170: 8ec2 a63e bc09 283e 2738 e4be 77c5 93be
00000180: 2957 603e 98e1 e23d 6b39 b1be 0574 82be
00000190: 260b c93e 9b06 a53e 3289 4cbe a779 d2bd
000001a0: f81b d5be 8ab8 86bc f8c8 a7be 7264 ccbe
000001b0: f16a 16bd fb8b 613d 9969 3bbe 90d9 833e
000001c0: 8dc8 93be 7f2b c43e 5d52 913e eeff d2be
000001d0: baa6 f0bd c75a 3ebc 1cc2 5e3d b1f9 c23d
000001e0: 15f3 423e 14ed 913b 2444 5fbe ddca 533e
000001f0: fc17 debe 3ab5 88be 6519 0dbe 3068 62be
00000200: b7f0 0cbe 070a b2be b1d2 10be f2a8 803d
00000210: 9ad3 b2be d9e2 07bd fbac 9e3e 4792 21bd
00000220: 3219 bebc d32e 35bd 33c5 9a3d 6bf1 893e
00000230: 4649 df3e 7209 893e b04e d53e d405 1dbd
00000240: 88c2 d0be 3ec5 53be 9943 973e ad09 0f3c
00000250: 8db9 68be 5104 b2be 848b dabe 41bd c5be
00000260: 635e b3bd 102b 6f3e bc9c 6b3e a985 e1be
00000270: 467e 813e 3f0d b1be 57e0 cfbd f6ce 40be
00000280: ce34 88bd be55 b5bd 597e c9be 8a17 c1be
00000290: 45bd 79bd 5b51 9d3c c415 70be 2d4c 383e
000002a0: 5de3 c8be dd06 a4bc 7ea6 ea3e 033f 7fbe
000002b0: f7cb d53e d35a 403e bd62 c1be a4e8 a03e
000002c0: f95b 89bd 6cec 28be 6d35 b93e 42ec b6be
000002d0: 927c 9b3d 4cb6 b0bd b412 b73e b9d9 ea3d
000002e0: 4ba3 513e 7413 523e f7a4 1cbe f287 97bd
000002f0: 9f80 aebe 0742 8a3e 9dca c73e 72bf b33e
00000300: 924d c4be 53c7 a63d b5ed 81be eb6c 69be
00000310: 6117 92be 7422 313e 098f 82be 6fdc e43a
00000320: 68f0 ea3c 0229 8a3e e59c afbe 22eb 9dbe
00000330: 78ae 85be dff1 ab3e 608e 25be ecdf d53e
00000340: d017 223e 77ef 593d 1972 643c 585d edbd
00000350: 9722 8c3d a340 dcbd 8963 0cbc 3c0d 8b3d
00000360: a2ba c4be b55d 67be ae67 b03e d24f c2be
00000370: a236 48bd 4e13 de3e 98ce 3c3e bf3e 7f3c
00000380: cfef c4be 9cd5 943e 104b babe 7f0f 87bd
00000390: 2da6 03be 4e44 37bd 2322 163d 8ab1 c83e
000003a0: 5b22 893d 7b18 c53e 5b12 843e c6e8 a5be
000003b0: 91ea 6b3e 9500 a8be 7871 33be a956 153e
000003c0: dafe 253e cb98 b03e 2124 12be b23f b4ba
000003d0: ca9e 693e c4a0 f1be b0ee 803e b066 e0be
000003e0: 17f8 9d3c 20d9 80bd d3fc 6bbe 4c35 163d
000003f0: a25b c13e 331c 12be c40f 8ebe d258 21be
-0.017821008 0.23325834 -0.3720525 -0.32945067 -0.17257501 0.15138903 -0.0037607232 0.4631285
-0.030700816 0.12732504 -0.122678466 -0.10439763 -0.41116 -0.29772666 -0.18589689 -0.0021454378
0.1844871 0.30151373 -0.28977686 -0.18133737 0.1802815 0.37091798 -0.079900526 0.33303586
-0.07370237 0.05734452 0.37827513 -0.40831864 -0.29450506 -0.12618615 -0.1771111 0.37468472
-0.28222632 -0.20902124 -0.31559607 -0.41739237 -0.25064793 0.40947 0.17408673 0.19128399
0.034091134 -0.2563571 0.081326045 -0.4208473 -0.3264278 -0.25841862 0.2846819 0.27223346
-0.19862422 -0.016424038 0.324974 0.4369248 0.21284649 0.055649072 0.29508442 -0.2697736
0.054001547 -0.3390168 -0.31775138 -0.23881717 0.21138574 0.20453864 -0.2667876 0.111812375
0.22221372 -0.040212765 0.021644702 0.11325595 0.2595631 0.41153407 -0.38258585 -0.15409707
0.13045111 0.3513505 0.3699805 0.40966657 0.05729793 -0.38529697 0.038007412 -0.2829117
-0.43397152 0.43936723 0.39617702 -0.42712608 0.10268717 -0.0902466 -0.09369393 -0.2765267
0.18221278 -0.25465217 0.16269183 0.22236499 0.32570308 0.16409963 -0.4457409 -0.2886159
0.21908249 0.11078185 -0.3461412 -0.2547914 0.39266318 0.32231602 -0.19974211 -0.102771096
-0.416229 -0.016445417 -0.32770514 -0.39920384 -0.03672308 0.055065136 -0.18302001 0.25751925
-0.28863946 0.38314435 0.2838315 -0.41210884 -0.117505506 -0.011618323 0.054384336 0.09520281
0.19038041 0.0044533107 -0.21803337 0.20682855 -0.43377674 -0.26700765 -0.13779218 -0.22110057
-0.137637 -0.34773275 -0.14142872 0.06282224 -0.34927064 -0.033175323 0.3099135 -0.03944614
-0.023205373 -0.04423411 0.07557144 0.26942 0.4361059 0.2676502 0.41661596 -0.038335636
-0.40773416 -0.2068071 0.2954376 0.008730334 -0.22727032 -0.34768918 -0.42684567 -0.38620952
-0.08758237 0.23356271 0.23009008 -0.44047287 0.2529165 -0.34580418 -0.10150211 -0.1882895
-0.06650697 -0.08854245 -0.39354208 -0.3771327 -0.060971517 0.019203832 -0.23445803 0.17997809
-0.39235964 -0.020022804 0.45830148 -0.24926381 0.41757175 0.18784647 -0.37770644 0.3142749
-0.067069955 -0.16496438 0.36173573 -0.35727125 0.07592119 -0.0862852 0.35756457 0.114673086
0.20472448 0.20515233 -0.15297304 -0.073989764 -0.34082505 0.270035 0.3902177 0.35107
-0.3834043 0.08143487 -0.2537667 -0.22795455 -0.28533462 0.17298299 -0.25499752 0.0017460714
0.028679088 0.2698441 -0.3429939 -0.30843455 -0.26109672 0.3358297 -0.16167593 0.417724
0.15829396 0.053206887 0.013943219 -0.115900695 0.06842535 -0.10754516 -0.008568653 0.06789634
-0.3842364 -0.2259434 0.344541 -0.37951523 -0.048880227 0.43374103 0.18438184 0.015578925
-0.3846421 0.2906922 -0.36385393 -0.065947525 -0.1285636 -0.044742875 0.03665365 0.39197952
0.06696006 0.3849524 0.25795254 -0.32404155 0.23038699 -0.32812944 -0.17523754 0.1458384
0.162105 0.34491572 -0.14271595 -0.0013751893 0.2281448 -0.47192967 0.25182104 -0.43828344
0.019283338 -0.06291413 -0.23045664 0.03667192 0.37765223 -0.1426857 -0.27746403 -0.15756539

bias f4 [128]
00000000: 51af 84be 4fbf 933d d2c4 0f3e 1464 4b3c
00000010: a848 95be fe1a df3e 9e83 84be b92b ac3e
00000020: 0e08 b5be bd72 dcbd dcdf 753e 728d 32be
00000030: 9d16 b73e 0bb9 a6be fc1b cabe 430b 4abe
00000040: 593f 9b3d 78f5 db3e ca21 59be f611 1c3e
00000050: b45d f2bd c555 b8bd cc27 9b3e 4c69 b8be
00000060: 4687 433d bfd7 d53e 4b7f 9dbd 1e66 a93e
00000070: a9eb 06be ee1a b63e ce11 e6be 5b02 65bd
00000080: 56c1 bbbd 9aba 103e c180 5e3e 4c15 a93e
00000090: c5bf 98bd 0129 7fbc d536 a73e 63ae 08be
000000a0: db84 c93e 8707 9bbe 3d4a 43bd a4da 47bd
000000b0: d5db 543e 3b93 a23e 2726 b1bd 0e3c b7be
000000c0: 2206 613e 28cf 1c3e 6df9 403e ee81 88be
000000d0: 6234 8b3e 4b99 d03e 322a 513d 6fcf cfbe
000000e0: 9821 9e3e ff1b 98be 1775 ca3d 721f a13d
000000f0: 7274 6fbe 8007 023e 1446 c0be 2f05 c23d
00000100: 7959 95be f6cc 5ebd b5eb 8d3d 8b73 bb3e
00000110: 903e 4dbe bfaf a43e a8c9 86bd 2fb4 46be
00000120: c6d4 d5be a4e3 c6be 1c58 d93e dc89 eebd
00000130: 9438 4d3c 63be ef3d eb02 9c3e 4448 c83e
00000140: fae2 b23e b9e6 a3be f8da ccbd a201 8bbe
00000150: f8c1 85be 1700 013e 67b4 e43e 79b2 babe
00000160: 4bf2 9a3e 558c 5dbe e026 89bd dc64 ad3e
00000170: 98d6 e8bd 7972 2e3d e1b7 96be 5693 c93e
00000180: 85c3 81bd 2451 a6be 2871 103e 7478 adbe
00000190: 4b49 c0be 21d7 c63c c812 c03e f07c 09be
000001a0: dead 563e 175e c43e 3087 963e 095b 7abe
000001b0: 8149 65bd 83c2 13be 40b1 bfbe 0d0c 79bc
000001c0: 60d4 b03e 760e b83e 3f5e 643d 2411 a53d
000001d0: c542 43be e9dc a23e 39b5 4ebe a031 a6be
000001e0: 328f 3a3d 3cee 8b3e 92f3 bebe 35bd ca3e
000001f0: ce3a 263e 4048 9fbe 661a bbbd f2ba de3e
-0.25915006 0.072142236 0.14039925 0.012413997 -0.29156995 0.4357528 -0.25881666 0.33627108
-0.35357708 -0.10764072 0.24011177 -0.1743677 0.3575944 -0.32563052 -0.39474475 -0.19730859
0.07580442 0.42960715 -0.21204296 0.15241227 -0.11834279 -0.09000734 0.303038 -0.36017835
0.04773643 0.41766164 -0.07690295 0.33085722 -0.13175835 0.3556742 -0.4493546 -0.05591045
-0.09167735 0.14133683 0.21728803 0.3302406 -0.07458452 -0.015573741 0.3265902 -0.13347773
0.39359173 -0.3027918 -0.04767822 -0.048792496 0.20786984 0.31752953 -0.08649855 -0.35788006
0.21974996 0.15313399 0.18845148 -0.26661628 0.27188402 0.40741953 0.05106563 -0.40587947
0.30885005 -0.2970886 0.09885614 0.07867326 -0.23384264 0.12698174 -0.37553465 0.09473645
-0.29169825 -0.054394685 0.06929723 0.3661159 -0.20043397 0.32165334 -0.065814316 -0.19404672
-0.41763896 -0.3884555 0.42450035 -0.11647388 0.012525696 0.11706235 0.30470976 0.39117634
0.34938794 -0.32011965 -0.100027025 -0.27149683 -0.2612455 0.1259769 0.44668886 -0.3646429
0.3026298 -0.21635564 -0.06696868 0.33866012 -0.113690555 0.04258964 -0.29437163 0.3937022
-0.063361205 -0.3248378 0.14105666 -0.3388096 -0.37555918 0.024272503 0.3751433 -0.13426566
0.20964763 0.38353035 0.29400015 -0.2444879 -0.055978302 -0.14429669 -0.3743992 -0.015200627
0.3453703 0.35948533 0.055753943 0.0805991 -0.1906844 0.31809166 -0.20186318 -0.32459736
0.045546718 0.27330196 -0.37295204 0.39597479 0.1623337 -0.3110981 -0.091358945 0.43502003

weight f4 [128, 128]
00000000: 2b4f 8dbd 1190 b1bc 5e89 e23c 3d4f 8abd
00000010: e4ef 293d 4314 283d ebf6 3f3d eae3 56bd
00000020: 2892 d03d dd12 5dbd 01e7 ac3d 81ff bfbd
00000030: f0dd 9cbd 73e0 763d 4da1 303c f828 923c
00000040: b660 57bd a248 1fbd a97e afbc 95f9 b8bd
00000050: 697d 3e3c 5689 b43c a993 88ba 98b9 f83c
00000060: 7483 bb3d decd c83c 1f7e 17bd ec65 0cbd
00000070: 33ca 4cbd 155e 88bd a2a1 d0bb 65f5 debc
00000080: a9e2 1c3d 779c e8bc a695 cc3d 0fc8 48bd
00000090: b59a d13b 3eed d43d 3108 c33d a6e5 24bd
000000a0: 24ad 613c 1bb0 5f3c 132a 71bc 0614 fabb
000000b0: cdb9 c53c 7a53 3cbd c0d5 473c 5469 283c
000000c0: b744 2dbd f99d 7c3d f576 81ba 25de 703d
000000d0: 764d ad3d d6a1 c8bc d418 3c3d 3954 0bbd
000000e0: 1fa8 5cbc ac69 e73c 4ae2 65bc 45fb 5fbd
000000f0: a4d8 8d3c c70a 313b e890 803d 0bcb 5abc
00000100: 472b de3b 8296 0dbd dd42 7bbd ba7a 0a3d
00000110: 6ef0 403d 8898 b4bc bdac f5bc 82b2 1d3d
00000120: be0e 3fbc b750 813d 1b8f 15ba c462 f73c
00000130: f7ae 2e3d deac dbbc d0ec 253d 0180 6f3d
00000140: 70ac c33b 1860 883c e6f9 083c 5707 893d
00000150: 9739 0ebd 2d60 52bd 86c3 2a3d b10e a8bd
00000160: 9849 88bb f0bc 8ebc f4b5 873d 5bfc 8abd
00000170: 4762 593d 89a5 bb3d a8b9 003c e819 9e3b
00000180: ef93 a93d 2416 35bd 4bf2 17bc e0f4 13bd
00000190: ac71 66bc 930b ea3c d36e 59bc cad7 62bc
000001a0: e856 a2bd d59b 2fbc 809d e635 0340 bd3c
000001b0: 26e8 663d 7ef8 b53d 7781 34bd 28f3 ec39
000001c0: 1ba8 0cbd 8561 a0bd edb4 5cbd 7007 aa3d
000001d0: fbcf 603d cc02 3a3d 3882 593d db7c 8bbd
000001e0: 7327 ac3b b7ed 913d 397f 14bd ed39 a13d
000001f0: 2d7c b03c 5987 653d ef4a 2abd fb7e 1f3d
00000200: 6958 92bd e2e5 0cbd a1d8 0d3d 1b89 483d
00000210: 5e65 683d 2f48 b53d 0548 a53d 8f19 693d
00000220: d74d a33d 781e 483c 9ab7 b3bd bc66 03bd
00000230: 82ee b6bc 7334 5cbd 61dd 223d 852f 3d3d
00000240: 68d8 023d ded1 303d 998c bc3d fa80 2d3d
00000250: da39 82bd 67ea 03bd 3fb5 ef3c c63e a13c
00000260: 1da8 583d 78f2 9cbd 24b4 b8bd d41c 423d
00000270: 5749 8b3d 0d0d 9abd ce59 183d 8408 91bd
00000280: f811 943d 8593 3b3d 32e0 da3d 3b54 b0bd
00000290: 6768 c3bd 3442 a53d e29d af3d fba2 a03d
000002a0: 8cd6 813d 1abc cbbd 3098 c33d 1cfd 33bd
000002b0: 4afe 093d 769a 2ebd 0ba1 2cbd 30fa 90bc
000002c0: f700 32bd 1b20 58bb 8517 80bd e168 6cbd
000002d0: 7404 fc3c 9140 2abd 36d0 f5bc f8bc 0fbd
000002e0: e8b4 9abd b037 33bd eaaa 833d f4b0 403d
000002f0: 000b 313c 5b86 48bd f2cc 8a3d d814 8439
00000300: c5e3 87bd 7a98 3f3d a332 e23d 5b15 b9bd
00000310: d5e1 f5bd a34f f13c 0fa2 813d 3c53 10bd
00000320: 4182 ac3c aa57 973d 8b27 083d 8ce1 5b3c
00000330: 33aa 973d ef50 793d 4766 2abd ebf6 5bbc
00000340: 41f3 1c3d c3ec a73d 538e 74bd d55a 3b3d
00000350: bb44 0abd 77e1 76bd de57 193d 1ae1 50bd
00000360: fed4 273d 62e9 06bd 6534 06bd f79d 443c
00000370: 60cc c9bb c8b4 6a3d 1455 233c 9d3e b93d
00000380: e428 b53c eb0e a1bc 1fde 343d 854d 643a
00000390: cf65 4e3c 3fab cbbc 53ef 18bc a38c bebc
000003a0: 5350 1c3c 47d7 8fbd 0dcf 0d3c 9626 3dbd
000003b0: 0933 97bc 14fa 1e3d 2a09 fdbc 174a 7fbd
000003c0: 6bf4 ff3b 3f9a f4bc fbb8 f13c 6a1f 153c
000003d0: 34b4 943d 8acc 88bd aaa6 98bb a741 193d
000003e0: 707c a53d bcc4 a4bb c57e 9ebd 1087 533c
000003f0: 7a3e 833d cc0d 4abd 5229 a5bd bab5 803d
-0.06899866 -0.021675142 0.027653392 -0.06753395 0.041488543 0.041034948 0.04686634 -0.05246345
0.10184127 -0.053973068 0.08442498 -0.093749054 -0.07659519 0.060272645 0.010780645 0.017841801
-0.052582465 -0.038887627 -0.021422701 -0.09031979 0.01162658 0.022038143 -0.0010419983 0.030361935
0.09155932 0.024512228 -0.036985513 -0.034276888 -0.04999752 -0.0665857 -0.0063669244 -0.027216623
0.038302097 -0.02839492 0.09989481 -0.049018916 0.0063966163 0.10396813 0.09523047 -0.040258072
0.01377419 0.013652827 -0.014719504 -0.0076317815 0.024136448 -0.045978047 0.012196958 0.010279018
-0.04230186 0.061674092 -0.0009877371 0.058805604 0.0846204 -0.024491232 0.045922115 -0.034015868
-0.013467818 0.02824863 -0.014031002 -0.05468299 0.017315216 0.002701448 0.06277639 -0.013354073
0.0067800614 -0.034567364 -0.061343063 0.033808447 0.04710429 -0.022045389 -0.029989595 0.038500316
-0.01166123 0.06314223 -0.00057052233 0.030198462 0.04264733 -0.026815828 0.040509045 0.058471683
0.005971484 0.016647384 0.008360362 0.06690853 -0.03472289 -0.05136125 0.041690372 -0.08205927
-0.0041591637 -0.017424077 0.06626502 -0.06786414 0.05307224 0.09162433 0.007856764 0.0048248656
0.08280169 -0.044210568 -0.009274076 -0.036122203 -0.014065187 0.028569972 -0.013271051 -0.013845393
-0.07926732 -0.010718306 1.7182174e-06 0.023101812 0.056373738 0.08885287 -0.04406878 0.00045194593
-0.034340005 -0.078311004 -0.05388348 0.083022 0.054885846 0.045412824 0.053102702 -0.06810924
0.005253726 0.07125419 -0.03625414 0.078723766 0.021543587 0.05603728 -0.04157537 0.038939457
-0.07145769 -0.03439892 0.03463042 0.04895888 0.056737296 0.088516586 0.08070377 0.05690914
0.07973831 0.012214296 -0.087752536 -0.032080397 -0.022330526 -0.053760957 0.039761905 0.046187896
0.031944662 0.043168895 0.092065044 0.04235933 -0.063586906 -0.032205965 0.02926123 0.019683253
0.0528947 -0.07663435 -0.09018734 0.047390774 0.06801098 -0.075220205 0.03719502 -0.07081702
0.0722999 0.045794982 0.10687293 -0.08609816 -0.095413975 0.08069268 0.08575036 0.07843586
0.0633975 -0.09947987 0.09550512 -0.043942556 0.033689775 -0.042627774 -0.04214577 -0.017697424
-0.04345795 -0.003297812 -0.06254486 -0.057717208 0.030763842 -0.04156548 -0.03000651 -0.035092324
-0.075540364 -0.04375428 0.06429084 0.047043756 0.010805845 -0.048956256 0.067773715 0.00025192532
-0.066352405 0.046776272 0.110448144 -0.09037276 -0.12005965 0.029456919 0.06329738 -0.03523563
0.021058204 0.073897675 0.033240836 0.013420474 0.0740551 0.0608682 -0.041601446 -0.013425569
0.038317923 0.081994556 -0.059706043 0.04574092 -0.033756953 -0.060273614 0.037437312 -0.050995924
0.04097461 -0.032937415 -0.03276481 0.012000552 -0.0061583966 0.057301313 0.009969015 0.09045146
0.022114225 -0.019660434 0.044157144 0.0008709061 0.012597515 -0.02486193 -0.009334403 -0.02326042
0.009540635 -0.07023483 0.008655322 -0.046179377 -0.018456953 0.03881271 -0.030888159 -0.062326517
0.0078111193 -0.029858707 0.02950715 0.009101728 0.072609335 -0.06679638 -0.00465854 0.037416127
0.08080375 -0.0050283354 -0.07739023 0.012910619 0.06408401 -0.049329564 -0.08064522 0.062846616

bias f4 [128]
00000000: cbd1 783d bc90 e1bc 143b c53a 5421 453d
00000010: a8b5 9cbb 184f 88bd 722d 94bd 5e0d 4ab9
00000020: e2e8 c73c 1e9b 6d3d 59e5 263d 17b0 ae3d
00000030: 1788 333d 6d39 373d 12d4 9a3d 3270 febc
00000040: 615a 1f3d 369f cbbc c76a 7c3c 49be 513d
00000050: 43d4 adbd 59e1 8a3d 1c2e 793c 5603 5fbc
00000060: 045c 08bd 01e7 a9bc 282e eb3c 5c87 08bc
00000070: 2403 bc3c 85bd cebc be00 91bb 2683 843d
00000080: 4440 b6bd 6058 a8bb aa90 2a3d 8de8 2c3d
00000090: eb5c 0b3d c8d7 5a3d 9f28 9cbd fc01 8abd
000000a0: ae05 b0bd d2ba 9d3d 90d8 843d da8a 6b3d
000000b0: ad01 ad3d ace2 e5bc ba1d a83d b1be 083b
000000c0: acf9 933c 672f c9bc 8d7d cfbc 53da 3abd
000000d0: 2563 203d f6bd 3f3d 1d71 1bbd 8067 0dbd
000000e0: d4d6 60bc 63a0 97bd 2e55 3bba 25a6 bd3c
000000f0: bac8 93bb c9a6 ceba d2bd 693d a88e 9cbd
00000100: 30fc e4bc 4ed2 a2bc c34c f73c 42cd fd3c
00000110: b991 8bbd 6840 9ebb dcca 89bd a32a 8fbd
00000120: 077b e13c fcd9 4dbd 100e 913d 5170 29bd
00000130: 0521 cdbc aed5 5d3d 712c e43c dbda dd3c
00000140: 74bf be3b 8713 7cbc da88 21bd ff54 b73d
00000150: c2a4 8e3d 0839 3cbd c131 663d 7986 ba3c
00000160: 5d77 85bd cac5 25bd f002 083c b860 4ebd
00000170: 0a98 32bd 564c d4bb 710b 91bd 55ac 5cbd
00000180: dcbe ac3c 7111 45bc 77bf 343d 157c 793d
00000190: 01f8 763d 1e6c 29bd 2c8a 1a3c 1b93 01bd
000001a0: 3bf6 ca3c eb9f a2bd fff4 a33d f94b 373d
000001b0: 730a 52bc eed1 e7bc 2b5d a43d a612 553d
000001c0: 25e9 c73d e5bd 3ebd 01ba a3bd d45b a2bd
000001d0: 760f 263a 1b46 53bb a1ce 983d 0dd9 53bd
000001e0: 8b16 a4bd c61a 8f3b f9ff 333c 9211 003d
000001f0: ae69 07bd bf1b 77bd e47f 9abd c3a2 af3d
0.06074695 -0.027534835 0.0015047514 0.048127487 -0.0047823973 -0.06655711 -0.072352305 -0.00019269201
0.02440304 0.05800926 0.040746067 0.0852968 0.043830957 0.0447325 0.075599805 -0.031059358
0.03890455 -0.024856191 0.015406317 0.05120686 -0.08487751 0.06781263 0.015208747 -0.013611635
-0.033290878 -0.020740034 0.028708532 -0.008333053 0.022950716 -0.025236854 -0.0044251373 0.06470327
-0.088989764 -0.0051374882 0.04164187 0.042213965 0.03402416 0.05342844 -0.07624935 -0.0673866
-0.08594833 0.07701649 0.064866185 0.057505466 0.08447585 -0.028062187 0.08208795 0.0020865614
0.018063389 -0.024558736 -0.025328422 -0.045618366 0.03915705 0.04681202 -0.03794967 -0.034522533
-0.013723094 -0.07403638 -0.00071461766 0.023150513 -0.0045100125 -0.0015766259 0.057065792 -0.07644397
-0.027952284 -0.019875672 0.03018797 0.030981664 -0.06814904 -0.004829455 -0.067281455 -0.06990554
0.027524484 -0.050256714 0.0708276 -0.04136688 -0.025040159 0.05415886 0.027853223 0.027081897
0.005821163 -0.015385515 -0.039437152 0.089517586 0.06965019 -0.045952827 0.056199793 0.0227692
-0.06516907 -0.04047183 0.008301482 -0.050385207 -0.043602027 -0.0064788265 -0.070822604 -0.053875286
0.021087103 -0.012028084 0.044127908 0.06090935 0.06029511 -0.041362874 0.009432357 -0.03163443
0.024775615 -0.07940658 0.08005714 0.044750188 -0.012819874 -0.028298344 0.08025583 0.052019738
0.09761266 -0.046567816 -0.07994462 -0.07927671 0.00063347013 -0.003223783 0.07461286 -0.051720668
-0.08012112 0.0043672053 0.010986322 0.031266756 -0.03305977 -0.060329195 -0.075439245 0.08575966

weight f4 [128, 128]
00000000: cd37 8ebc 2c43 e8bb 18d3 803d 3d1a 6abd
00000010: 2f46 9dbd 8229 9fbd 9ddd cb3c 9d42 333d
00000020: 38dc 413d 6d40 05bd c66e b13c 1242 183b
00000030: ae5d 583d c2b5 61bd 24ca 913d 7111 1cbb
00000040: 2016 583d 21e7 7cbd 0542 30bd 096d b0bd
00000050: 21b6 c9bc ee59 3abd 8f9a 063d 22c7 b33d
00000060: 75d2 753d 7c89 52bd 4e43 edbb 3192 8dbc
00000070: 6ece 1ebd 179f 44bd d358 3a3d 73b1 e6bc
00000080: 3525 8dbd ca8d 283c cc85 a83d 84b2 fab9
00000090: b499 ca3d b2d3 83bd f25f 9b3d ccec c23c
000000a0: 3ab7 933d af27 263c c098 523a 02cd 7fbd
000000b0: 164c 95bc 019c f73c ed8d 78bc 5158 963d
000000c0: 9ea6 2abd 4667 27bd 9505 04bd 61fe 343c
000000d0: d293 a73d 9bb5 963c 9f8d 96bd fad7 f13c
000000e0: fde8 b13c 4bb1 653d a921 8dbb 66b5 a83d
000000f0: 471b 823d 9e11 15bd fd04 a33d b502 03bd
00000100: f446 acbd 7101 7f3d bb37 e7bc fbd6 0d39
00000110: 7d4d c23d f236 56bd 0452 8c3d 9cf5 1b3d
00000120: ee4b 753c 1805 c73c db26 54bd 47f8 14bd
00000130: fdc5 65bd 130b 913d a5d9 97ba 3672 8f3d
00000140: 4d22 d73c ecd1 55bb 9b7a a33d 3811 293d
00000150: 0bf1 5e3d e1d5 2dbc f00f bf3c 4154 b0bd
00000160: 1bab 25bc bd45 8ebc 4421 91bd 98e4 4d3c
00000170: 5422 683d 1895 753d 86d4 8db8 78fa dcbc
00000180: 4e64 25bd ffff 63bd 8cc1 a9bc ed30 4fbd
00000190: 9589 76bd 4485 6d3c 6dde 61bd 071f a03b
000001a0: b818 833d da51 7bbd 6359 333d 7308 25bd
000001b0: 51a2 b0bd 1a35 aa3d 3e6c b9bc 74cc dd3d
000001c0: 7573 983d d42d f83c 70ac 2bbd 9e9d 0a3c
000001d0: 26ac c53c b007 aa3c 82d1 dc3a 7ca4 ba3d
000001e0: cace 903b 09f8 5a3d 27ce 0fbd 8f0f 07bd
000001f0: 4d4a 9a3d 01cb 8dbc 6ede 2f3d 3798 28bd
00000200: 047b 993c 876d 64bd d902 cb3c 6b4a ac3c
00000210: b53d 553c 5024 2f3d eae1 943d 6202 903d
00000220: a2da a0bd a9f4 2b3d 926e f63c 579a 663d
00000230: 2637 4dbd 51f3 c8bc c1af ba3c 7206 b4bb
00000240: 1001 3c3d 8f59 643d 0f78 88bd 60c4 d3bb
00000250: 22bc 52bd 485f 833d 7f5c 833b a6e6 933c
00000260: ba02 853c 9042 d03d 4a04 b1bd 8f92 373d
00000270: aee6 e63d 6c38 20bd 3086 2c3d d7e0 c5bc
00000280: c6fb 09bd 212f 36bd 95e8 313d c810 823d
00000290: 13a3 b03c af4c 663c f3f4 72bd d3a4 a63d
000002a0: a843 473d 9ac4 3bbb 2407 1ebd 6ae8 5c3d
000002b0: 17b2 66bd be93 8b3d 3b3f 77bd 4ed2 813d
000002c0: a982 30bd f180 fc3c 97f1 d53d 9d40 8c3d
000002d0: cf16 8cbd 96b3 94bc fa47 8f3c a8dc 13bd
000002e0: 4f4f a73b 5216 9d3d cd89 1fbd 2fca 8fbd
000002f0: a3c3 93bd 1fe2 3f3c b5b6 a53c a3e0 013d
00000300: 5172 f8bc 7920 5fbd cf4c 83bc dfac f33c
00000310: 4574 be3d cbf6 8bbd 1d9a 413d 2436 a03d
00000320: 7dc2 45bd 5cf2 1dbd be93 353d 6678 22bd
00000330: 9d39 873d 9be5 8d3c 5ad8 33bd 7a87 6a3d
00000340: bdbc de3c a00b 7cbd 99b6 c73c 620a e2bc
00000350: cf42 e8bc 539b babb 8f3d 85bd 164a 8ebd
00000360: e8da 043c f494 87bd 6817 fb3c b6a7 ad3d
00000370: f31e b63c e028 6fbd c307 a3bd 5676 6b3d
00000380: 4df0 4c3d 4312 69bd 8c6e 10bd 011d 2b3d
00000390: ff48 e53c cdaf 773d 07ca d43d 6d68 eabc
000003a0: f19b babc 5fbd b7bd d6b6 d33d e969 803c
000003b0: b610 9dbb fe00 b3bb 9524 a3bc f294 1d3d
000003c0: c0d3 573d c03d f03c 97c7 363d 0956 94bb
000003d0: b87f 623d 3763 d03d 5207 adbd 5897 0ebd
000003e0: 3f47 b73d b017 a33d 6085 363d fcf0 a43d
000003f0: 45a6 05ba 3d71 3f3d c1fb 493d 3179 913d
-0.017360592 -0.0070880856 0.06290263 -0.05715393 -0.07679402 -0.07771589 0.024885947 0.0437647
0.047329158 -0.032532144 0.021659266 0.002323274 0.052823715 -0.05510498 0.071186334 -0.0023814107
0.052755475 -0.06174386 -0.04303171 -0.08614547 -0.024622979 -0.04549592 0.032862242 0.08778216
0.06001516 -0.051400647 -0.0072406894 -0.017281624 -0.038771085 -0.048003282 0.045494866 -0.028160786
-0.06891862 0.010287711 0.08228645 -0.0004781672 0.09892598 -0.06436862 0.075866595 0.023794554
0.07212682 0.010141297 0.0008033626 -0.06245137 -0.018224757 0.030225756 -0.0151705565 0.07341064
-0.041662805 -0.040869974 -0.032231886 0.011046977 0.08182491 0.018397143 -0.07351231 0.029521931
0.021717543 0.056077283 -0.004306991 0.08237724 0.06352859 -0.036393754 0.07959936 -0.031985004
-0.08411971 0.062257234 -0.028224817 0.00013526894 0.09487436 -0.052298494 0.06851581 0.03807603
0.014971716 0.024294421 -0.051794868 -0.03636959 -0.05609702 0.0708219 -0.0011585249 0.07004206
0.026261473 -0.0032626344 0.079823695 0.041276187 0.054429095 -0.010610075 0.02332303 -0.0860982
-0.0101115955 -0.017367238 -0.07086423 0.012566708 0.056673363 0.05995664 -6.7629895e-05 -0.026974902
-0.04037886 -0.05566406 -0.020722173 -0.05058377 -0.060189802 0.014497105 -0.055143762 0.0048865112
0.06401199 -0.061357357 0.043786418 -0.04029126 -0.086247094 0.083109096 -0.022634622 0.10830012
0.07443897 0.03029529 -0.041912496 0.00846043 0.024129938 0.020755619 0.0016847106 0.09113404
0.0044191824 0.0534592 -0.03510871 -0.032973822 0.07533703 -0.017308714 0.042936735 -0.04116079
0.018735416 -0.055768516 0.024781631 0.021031579 0.0130152 0.04275924 0.07269652 0.070317045
-0.07854201 0.041981373 0.03008202 0.056299534 -0.05010142 -0.024530085 0.022788884 -0.0054939324
0.04589945 0.055749472 -0.06663524 -0.0064626187 -0.05144895 0.06414658 0.004008829 0.018054318
0.016236652 0.10168946 -0.08643396 0.044817504 0.112744674 -0.039116308 0.04212016 -0.024155064
-0.033687375 -0.04447854 0.043434698 0.06350857 0.021562135 0.014056369 -0.059315633 0.081369065
0.048648506 -0.002865112 -0.03858103 0.053932585 -0.056322183 0.06815289 -0.060363036 0.063389406
-0.043093357 0.030823203 0.1044647 0.068482615 -0.06840288 -0.01815204 0.017490376 -0.036099106
0.00510589 0.07670273 -0.038949776 -0.07020985 -0.07215049 0.011711626 0.020228723 0.03170837
-0.030327948 -0.054474328 -0.016027836 0.029745517 0.092995204 -0.068341814 0.047266115 0.078228265
-0.04828118 -0.03856121 0.04433035 -0.039665602 0.06602786 0.017321398 -0.0439075 0.057258107
0.027189607 -0.061534524 0.024379062 -0.027592842 -0.02835217 -0.0056947856 -0.06505882 -0.069477245
0.008108832 -0.066202074 0.03065081 0.08479254 0.022231555 -0.05838859 -0.07960465 0.0574859
0.050033856 -0.05690218 -0.035261676 0.041775707 0.027988909 0.06047039 0.10390096 -0.028614247
-0.022779437 -0.089716665 0.103376076 0.015675502 -0.004793252 -0.0054627648 -0.019914905 0.038472123
0.052692175 0.02932632 0.044623937 -0.0045268578 0.055297583 0.10175174 -0.08448662 -0.0348123
0.08949136 0.079635024 0.04456079 0.080537766 -0.00050983235 0.04673885 0.049312357 0.071031936

bias f4 [128]
00000000: b864 103d 73a7 3b3b 0956 b2bd cc9e 373c
00000010: 1658 e4bb de2a 5b3b 5d5a 9b3c 2251 8fbd
00000020: 1b5c 87bd 7cae 843d 3406 01bd db31 ccbc
00000030: cd85 19bc c87e b2bd 0b62 1c3b 6a65 4c3d
00000040: b0cd 113d 83aa 8cbd 5362 993c 6d50 2c3d
00000050: 247d 7c3d 5179 10bd a05e 10bd 4de4 55bd
00000060: cff5 183d 26c8 713d 0eaf 37bd 16a0 573d
00000070: 58d7 f33c da37 77bb 7949 933d 854c 7fbc
00000080: dc7c 80bc 3772 3abd 9719 743d 6b16 573d
00000090: 1e5d ab3d 88fe 0fbd 5c7a 3bbc ef81 fb3c
000000a0: 90ae b6bd 4ba1 8fbd 4e86 bdbc 2fa6 83bd
000000b0: a13c 963d f3ef 873d 9530 2bbd a765 93bd
000000c0: b5ba 9abd 21db 8bbc b725 89bd e76f 2cbd
000000d0: a825 2c3d b63d bbbc 6867 0dbd b751 97bc
000000e0: 09b8 be3d c0b6 5a3d 2a3b e13c f683 7e3d
000000f0: 4cdb f8bb ac08 e5bc d263 52bc c71c 8f3b
00000100: ecfb d9bc c468 913d 4b82 193d 7c45 c03d
00000110: 7ddc aebd 5fed 85bd 5e7f 2bbd 274d b9ba
00000120: 3b57 923c e3c8 873d 5e33 b5bd ecb8 6fbd
00000130: 82b5 583d d542 a6bc 6336 6dbd 8df9 a2bd
00000140: d64c 893d c3de a43b 9c85 683d e932 b7bd
00000150: 36ea 8ebb d6f3 003d 5603 63bd b15c f13c
00000160: 4159 79bd 759a abbd 3afa ea3b ee0f 873d
00000170: f0b9 8aba d98b b8bc b452 373d d70e 903d
00000180: ba5b 2a3a 3839 4c3d f21d 29bd fea9 a3bd
00000190: 0849 343c 6067 39bd c34c 3e3d 4727 8cbb
000001a0: 6007 99bc caf5 42bd 18a2 66bc ca20 123c
000001b0: 7542 763d 35dc 47bd 3e0f 81bb d88c 63bd
000001c0: a396 8bbc 3b17 31bc afff 093d 4c32 9f3b
000001d0: 8f86 583d f683 5d3d 93b7 97bd b601 d23c
000001e0: 1968 54bc 40e7 4dbb 8f87 1bb9 89e3 7c3d
000001f0: ac8b 1bbc 22b7 a9bd 1c90 f73b 3528 d0bc
0.035252303 0.0028633743 -0.08707816 0.011207294 -0.0069685085 0.00334423 0.018963987 -0.06997897
-0.066093646 0.06478593 -0.031500056 -0.024926117 -0.0093702795 -0.08715588 0.002386215 0.049901403
0.03559655 -0.0686846 0.018723642 0.042068888 0.06164278 -0.035271946 -0.03524649 -0.052219678
0.037343796 0.059028767 -0.04484468 0.052642904 0.02976577 -0.00377225 0.07191748 -0.0155822085
-0.015684538 -0.04551908 0.059594717 0.052511614 0.0836737 -0.03515485 -0.011442747 0.030701606
-0.08920014 -0.07013186 -0.02313533 -0.064281814 0.07335783 0.066375636 -0.04179438 -0.07197123
-0.07555143 -0.017072262 -0.06696647 -0.042098906 0.0420281 -0.022856575 -0.034522444 -0.018471582
0.09312446 0.05339694 0.027494032 0.062137567 -0.0075945016 -0.027958237 -0.012841182 0.004367444
-0.026609384 0.071000606 0.037477773 0.09388253 -0.085381486 -0.065394156 -0.041869514 -0.0014137373
0.01786386 0.06630113 -0.08847688 -0.058525965 0.052907474 -0.02029554 -0.057913195 -0.07957754
0.067041084 0.005031438 0.056768045 -0.08945257 -0.004361416 0.03148254 -0.055423103 0.029463144
-0.060876135 -0.0837907 0.0071709426 0.06594835 -0.0010583978 -0.022527622 0.044756606 0.070340805
0.00064986537 0.049859256 -0.041288324 -0.07991408 0.01100374 -0.0452646 0.046459924 -0.004277143
-0.018680274 -0.047597684 -0.014076732 0.00891895 0.060121972 -0.04879399 -0.0039385846 -0.05555424
-0.017039603 -0.010808761 0.033691105 0.004858291 0.0528627 0.054080926 -0.07408061 0.025635581
-0.012964272 -0.0031418353 -0.00014832451 0.061740432 -0.00949375 -0.08286883 0.007555021 -0.025409797

weight f4 [128, 128]
00000000: e2b2 3abc 763e 76bd fc2b 2cbd b589 3f39
00000010: f294 cc3d f3c9 c9bd b120 7d3d 90c1 153d
00000020: ad69 a0bd f636 8a3d 706c 61bd 77f8 dabc
00000030: 4726 0e3d a406 253d 3c28 efbc d9d6 873d
00000040: 0eec 4bbc d966 2fbd c0b8 73bd 3624 083b
00000050: 6668 56bd 6d4e 703d 6589 c1bd 89e7 833b
00000060: 889c 79bb fe9d 8b3d 69bc 153d 04aa 223c
00000070: 963e fb3a c7c9 37bc 445d 3abd 4771 a83d
00000080: 8fe4 55bd 1d9f fa3d 7971 9ebd 761e c73b
00000090: 495a b7bc d77f b73d d69d 94bc af07 c2bc
000000a0: b9dd 813d 2aee dabb 245f 8fbd 4618 5a3d
000000b0: f760 a73c f836 5cbc a6d9 33bd 0289 273c
000000c0: 4aa5 e53c 06cd 50bd 3596 99bc 4a26 323d
000000d0: e942 76bd 989e ca3d 51ef bb3d 7639 bebc
000000e0: 6e69 733d 581b 32bd 4265 bd3c 37cf 64bd
000000f0: 2ff6 553d 5cb9 7e3d 16d4 44bd b9ca 95bd
00000100: 226a 703d 6a11 303d 33b3 97bd b6bb 85bc
00000110: f903 7bbd d3d9 de3b 89a7 8abd 60be 573d
00000120: 87f8 fcbc 0ef8 d63d a4d3 41bd 14ef 50bd
00000130: 3cef fbbc ea28 943d 426e 073d 305a 733b
00000140: 06f0 63bd e9fc c1bb b0c5 933d 5f6f 7f3c
00000150: 5e46 913d d435 8a3d 5f2c e2bb 157c 96bd
00000160: e4d3 b63d 9aaa 28bb 2582 c33c 9471 41bd
00000170: 0c7d 983c d9cb e6ba 9a69 66bd b1f6 b23d
00000180: 9179 0dbd 9734 52bd 2e91 72bd dd51 b13d
00000190: 8c0c bb3d 8427 b63d 246a 903d d1d0 90bd
000001a0: 45b4 abbd 4df7 9e3d 0fff 6dbd b3a0 7fbc
000001b0: 9ff5 0c3c f183 b3bc c983 0dbd 6f15 f1bc
000001c0: b30e 7b3d 7399 b93d edbb c83c 7a24 7cbd
000001d0: 7c88 0ebd 7550 e8bc bbf5 383c dec7 61bd
000001e0: a697 bd3d d322 d8bc cb59 33bd a1e1 a2bd
000001f0: d6c1 25bd 22bc b33b bb54 41bd 300f 43bd
00000200: c8ee 113d 214a c93d 7cdf 143d 8ed3 9c3d
00000210: f40d ad3b 983c 5ebd a47b 753c 93e1 a33c
00000220: e561 37bd 72ab e23c 6b1e a13d 807b 4cbd
00000230: 06b7 643d e927 823d 5f1d b1bc 32af 9a3d
00000240: ec3e 633d 436a 483c 79d6 02bd 276a 40bd
00000250: 8e43 bf3c d291 b7bd f0cb 263c 4455 40bd
00000260: 03c6 873c c50d 423d cc15 aa3d d35c 743d
00000270: 77c5 c4bd 2d2a 993d 9562 7a3d fc2c 8abd
00000280: 009e cb3d c6cf 62bd 54da 4c3d 305f 5f3d
00000290: 4e21 a8bd 8f87 08bb 9a16 11bd 5ccd 78bd
000002a0: 10cd b73c c5d6 56bd 00c4 5fbd 41e2 1d3d
000002b0: 71b8 12bd 8e45 273d 145e 47bd 5fbf 23bd
000002c0: 9d10 973d 94b9 373d 9e25 9dbd 0d9d 823b
000002d0: 6bc5 1f3d 5447 e6bc a5ec 69bd cc17 953d
000002e0: 9cee b63d 5e11 b33c e2a7 4b3d 4b13 81bd
000002f0: bd84 e2bc 070c ab3d 17aa 5abd df9f f4ba
00000300: 6845 79bd 34e0 44bd 111e 423d a5d3 94bd
00000310: 004b a63d 4a2f 963b ff21 83bd f136 89bd
00000320: d07a 77bd aca3 503d 92c2 b33d 7204 143d
00000330: 2525 99ba 1457 5dbc c16a 1cbd 2abc 8e3d
00000340: de93 313d 7387 a83c 8fc7 593d aed5 a63d
00000350: f0af 89bd c29a 27bd 4c76 ddbc 82aa 03bd
00000360: cdae f03a 9268 ab3d 5e9e 233d 1c11 35bd
00000370: 9e11 b6bd 06ae 253c 72d7 5c3d 296b 813d
00000380: bd6b 66bd 592d 4c3d 5b29 abbd a23f 46bb
00000390: 1f9f d1bd 58b5 3fbd 322b 0cbd 2f6f 7ebd
000003a0: f030 40bd f912 253d b548 61bd cd4e 0c3c
000003b0: c224 b9bd 93d9 673b bcf3 1e3d 4dcc 933c
000003c0: 323d 423d 21bf 10bd cb7c 323d 05d6 02bd
000003d0: 1c33 453d e88a e0bc 05af 0c3d f701 8fbc
000003e0: f102 8f3c f653 e7ba 6432 893d 846b 003d
000003f0: 405f 1b3d c825 113d a8a2 c63c ca85 47bd
-0.011395188 -0.06011816 -0.042034134 0.0001826648 0.099893466 -0.09852972 0.061798755 0.03656155
-0.07832656 0.06748764 -0.055035055 -0.026729805 0.034704473 0.040289536 -0.02919399 0.06632776
-0.012446417 -0.042822693 -0.059502363 0.0020773537 -0.052345656 0.058668543 -0.09450034 0.004025404
-0.0038087685 0.06817244 0.036556635 0.00992823 0.0019168432 -0.011217541 -0.0454991 0.08224731
-0.052219924 0.1223738 -0.07736487 0.0060766293 -0.022381919 0.089599304 -0.018141668 -0.023685304
0.06341118 -0.0066812234 -0.070005685 0.053245805 0.020431979 -0.01344084 -0.043908738 0.010225536
0.028032918 -0.050976776 -0.018748382 0.043493547 -0.060122404 0.098935306 0.09176505 -0.023220759
0.059426717 -0.04348311 0.023119573 -0.055861678 0.052236732 0.06218849 -0.048053823 -0.07314057
0.058694966 0.042985357 -0.074072264 -0.01632486 -0.061283085 0.006800869 -0.06770236 0.05267179
-0.030880226 0.104965314 -0.047320977 -0.051009253 -0.030753724 0.07234366 0.033064134 0.0037132613
-0.055648826 -0.005920042 0.0721544 0.015590518 0.070934996 0.06748548 -0.006902262 -0.073478855
0.08927134 -0.0025736452 0.023865769 -0.047227457 0.018614314 -0.0017608359 -0.056253053 0.08738459
-0.034539763 -0.051319685 -0.059220485 0.08658192 0.091332525 0.08894256 0.07051495 -0.070710786
-0.08383993 0.07762013 -0.05810457 -0.0156022785 0.0086034825 -0.0219135 -0.03454951 -0.029429166
0.061293315 0.09062471 0.024503672 -0.061558224 -0.03479813 -0.028358677 0.011289055 -0.05512225
0.0925744 -0.026383793 -0.043786805 -0.079531915 -0.04046806 0.0054850737 -0.047199946 -0.047621906
0.03562811 0.09828592 0.036345944 0.07657538 0.0052812044 -0.054257005 0.0149830915 0.020005023
-0.044771094 0.027669642 0.0786713 -0.049922466 0.055838607 0.063552685 -0.02162045 0.07552947
0.05547993 0.012232366 -0.03194282 -0.046976235 0.023347642 -0.0896336 0.010180458 -0.046956316
0.016573912 0.047376413 0.08304939 0.059658837 -0.09607976 0.074787475 0.06112917 -0.06746861
0.099422455 -0.05537393 0.0500129 0.054534137 -0.08209477 -0.0020832752 -0.035421945 -0.06074272
0.022436649 -0.052450914 -0.05463028 0.03854585 -0.03582043 0.040837817 -0.048673704 -0.039977428
0.073762156 0.044854715 -0.076731905 0.003986007 0.03900663 -0.028110184 -0.057110447 0.072799295
0.0893223 0.021858867 0.049720652 -0.06302508 -0.027651185 0.083519034 -0.053384867 -0.0018663368
-0.060857207 -0.04806538 0.047391955 -0.072669305 0.08119774 0.004583274 -0.064029686 -0.06699932
-0.060419858 0.05093734 0.08777346 0.036137052 -0.0011684044 -0.013509531 -0.038187746 0.06969483
0.043353908 0.0205724 0.05316883 0.08146225 -0.067230105 -0.040919073 -0.027033947 -0.03214503
0.0018362642 0.083695546 0.039945953 -0.04420577 -0.08890079 0.010112291 0.053916402 0.06319267
-0.05625509 0.049847934 -0.08357497 -0.003025033 -0.10235428 -0.046803802 -0.03422088 -0.06211775
-0.04692167 0.040301297 -0.05500098 0.008563709 -0.09040214 0.0035377487 0.038806662 0.018041754
0.04742164 -0.035338525 0.043576043 -0.031942386 0.048144445 -0.027409986 0.0343466 -0.017456992
0.017457457 -0.0017648924 0.066990644 0.031352535 0.037932634 0.03543642 0.024247482 -0.048711576

bias f4 [128]
00000000: 5acc b43d 8170 1e3d 5034 2cbd 1f9f 5e3d
00000010: a026 243c 3cd2 6aba f64e b4bb 1007 a9bd
00000020: 0e0e 763d f55f 2dbc 8644 093d fa2e 643d
00000030: 43b8 943d 214c 723d bd39 2cbb 0961 0dbd
00000040: 9b13 373d 34da 76bd 52e9 babd be00 53bc
00000050: 7207 9bbd 0e8e 11bd 9265 67bd 10fc 4b3c
00000060: 0764 a2bd 0b53 31bd e0c7 9c3d 3453 b63c
00000070: f2e5 8fbc f8e5 8fbd 1ee9 12bd 6dec 8cbd
00000080: 4af0 42ba 22ee 863d 1627 fa3c f4a5 1f3d
00000090: e4e6 8f3c dfe6 90bd 1f5f 9bbd f817 2d3d
000000a0: 7dba bcbd 207d 7ebc 2dc4 8b3d f0a9 e23c
000000b0: ecb1 843d dc4f bd3d bc3c 90bd c173 173d
000000c0: 8180 e4bc 82c6 87bc cf9e 18bc 1dbb ab3d
000000d0: 0d28 e4bb 9785 99bd b984 333d b428 c8bd
000000e0: 99ad bbbd 2f6b 08bc 33d1 b03d 6dc4 b2bc
000000f0: 1073 533d edf4 14bd a414 b43c 2348 353d
00000100: 3a08 15bd 1a3b cabc ef79 2fbd 1461 c43c
00000110: 3ea9 da3c 328d e8bc d509 b0bc d7ba 433c
00000120: b1df 89bc eb22 783d 93a4 b43b 2f0d 6f3d
00000130: 93c5 8bbd 133e 52bd 39e0 263d f6f9 863d
00000140: 458d 573d 850f 223b 43eb 843d bdfb f2bc
00000150: 0191 86bd 6e0b 5bbd 1368 8b3d 6e6c 50bd
00000160: 4e49 adbb 1e97 193d 99ad 9abc a05b 8a3d
00000170: a317 1b3d ed99 433c 609a e13c d48b 15bd
00000180: 1ab5 5b3c ff17 0fbd 1c2e cbbc 7ac4 9a3d
00000190: d133 bebb a3e2 933d 7103 74bb 341e 353d
000001a0: 605d 243b 9c20 793d 0acc 813c 5ac7 47bd
000001b0: c34e 5f3d 7102 9bbd 9f40 533d 8864 a4bd
000001c0: dbe5 933c b8e5 67bd 3b9c d5bb 7f5f b4bd
000001d0: df47 0a3c 2539 1bbd ec5d 86bc 2098 51bd
000001e0: 6b18 51bb 0684 c8bb b504 a2bd 2db7 bd3d
000001f0: bb75 4b3d d4f3 0fbd b1ca 8c3d 7cd4 adbc
0.088280395 0.03868151 -0.042042077 0.05435097 0.010018975 -0.0008957719 -0.005502577 -0.082533
0.060071997 -0.01058196 0.033512615 0.055708863 0.07261708 0.059154633 -0.0026279532 -0.034516368
0.04469643 -0.06026669 -0.091265336 -0.012878595 -0.075697795 -0.035535865 -0.05649335 0.012450233
-0.07929235 -0.043292087 0.07655311 0.022256471 -0.017565701 -0.07026285 -0.03586685 -0.06881032
-0.00074363186 0.06588389 0.030536216 0.038976625 0.017566152 -0.07075285 -0.07586502 0.042259187
-0.09215257 -0.015532762 0.06824527 0.027668923 0.064792484 0.092437476 -0.07042834 0.036975626
-0.027893307 -0.016574148 -0.009315207 0.083852984 -0.0069627822 -0.07496183 0.043827746 -0.097733885
-0.091639705 -0.008326336 0.086336516 -0.021822179 0.051623404 -0.036366392 0.021982498 0.044258248
-0.0363848 -0.024686385 -0.042840894 0.023972072 0.02669203 -0.02838764 -0.021489063 0.011946402
-0.016830297 0.060580175 0.005512783 0.058362182 -0.06824794 -0.05132873 0.04074118 0.06590645
0.05262496 0.0024728489 0.06490185 -0.029661054 -0.06570626 -0.053477697 0.0680696 -0.050884657
-0.0052882796 0.037497632 -0.018881606 0.06755757 0.03786434 0.011938554 0.027539432 -0.036510304
0.013409877 -0.034934994 -0.02480226 0.07557006 -0.005804517 0.07220962 -0.0037233497 0.044218257
0.002508007 0.060822114 0.015844364 -0.0487741 0.054518472 -0.07568825 0.0515753 -0.08026987
0.01805394 -0.05661556 -0.0065188683 -0.08807277 0.008439987 -0.037896294 -0.016402207 -0.05117047
-0.0031905423 -0.006119254 -0.07911054 0.09263454 0.049672823 -0.035144642 0.06874598 -0.021219485

weight f4 [1, 128]
00000000: 2a9b 983d 0178 fbbc dea5 82bd 8af3 683d
00000010: 6e8c 8f3d baeb 7b3d e0f6 783d 0bc8 263d
00000020: 21c0 90bd 5af0 0f3d 04d0 b9bd 3063 b0bd
00000030: ab3f a8bc 2298 9bbd b466 813d 3594 ed38
00000040: dd00 173d 9bb2 75bd 1a17 05bb 03d1 3ebd
00000050: 582a 0fbd f568 b9bd 5272 2d3c 461e 393c
00000060: 046d 18bd 9949 993d e585 9abc 82fc 65bd
00000070: c03c f9bc 1829 203d f06f 9dbd 692a ba3d
00000080: 5c86 3f3d 5a6d 57bd f348 c6bc 547e c03d
00000090: cb60 d33d b1c1 9ebd 7bba 59bc c373 a23d
000000a0: 39fc 27bd 7044 afbd a120 f0bc 2f16 443b
000000b0: 54f1 fd3c cfbd 353d f288 babc d81b a5bd
000000c0: 1155 6d3d 5adc c03d 640c 65bb e852 a0bc
000000d0: 12e9 143d 2160 e33b 4f47 953d 9626 19bd
000000e0: 2f8b bcbd 80e9 ff3c 7271 87bc b8e9 393d
000000f0: f098 0abd 8308 80bc e38c 96bd 873f 36bc
00000100: 17a6 58bd ff07 14bd e139 92bd 3720 66bc
00000110: 2550 b23d 99a1 b2bd fdab d9bc 69d2 81bd
00000120: c886 923d aabb 793d bf6e 85bd c21f a3bc
00000130: 3051 8ebd ad03 823d 70c9 c6ba a047 af3d
00000140: efb5 31bd 562a 393d 1c8a 5cbd 700e 66bc
00000150: ecea 8a3d 872f a63d d1aa 8e3d 4541 a43c
00000160: 79c9 debc b53c 53bd 4216 cb3d e148 b33d
00000170: 9c89 ca3d f960 87bd aee9 ad3d eaa8 44bd
00000180: 6323 7abd 182a 313d 1553 53bd 136c d53d
00000190: cfcd 963d 0fab a03d c785 5a3d af54 87bd
000001a0: 0838 883d dab2 c13d 6c19 a93b 84ac 71bd
000001b0: 9fcc b73d a595 4cbd caff 653d 8861 b23c
000001c0: 1950 9b3d 1c33 eebb 3274 01bc fea2 92bd
000001d0: 5244 afbd 78d2 06bb 02df a4bc bbed bbbc
000001e0: 6a96 bd3c 8e5e 7cbc 2519 263c f29a 50bd
000001f0: ec1f b93d 73d2 133c 35a0 773c cfd1 fc3c
0.0745147 -0.03069687 -0.06379293 0.056872882 0.07009207 0.061504103 0.060782313 0.04071812
-0.07067896 0.035141326 -0.09072879 -0.086126685 -0.020538172 -0.075973764 0.06318417 0.00011328646
0.036866058 -0.059984785 -0.002030796 -0.046586048 -0.03495249 -0.09053222 0.010586338 0.011298722
-0.03721334 0.07484741 -0.018862674 -0.056149013 -0.030424476 0.03910169 -0.07687366 0.0909012
0.046758994 -0.05259452 -0.024204707 0.09399095 0.10321196 -0.077517875 -0.013289089 0.07932236
-0.041012023 -0.08557975 -0.029312434 0.002992045 0.030998863 0.04437047 -0.022770379 -0.080619514
0.057942454 0.09417029 -0.0034950012 -0.019570783 0.036355086 0.0069389497 0.07288992 -0.037390314
-0.09206235 0.031239271 -0.016533587 0.045388907 -0.03383726 -0.015629059 -0.07351091 -0.011123545
-0.05289277 -0.03614044 -0.07139946 -0.014045767 0.087066926 -0.087222286 -0.026571268 -0.06338961
0.07154614 0.060969986 -0.06515264 -0.019912604 -0.06949079 0.06348357 -0.0015166234 0.08558583
-0.043386396 0.04520639 -0.05384265 -0.014041528 0.06783089 0.08114534 0.069661744 0.020050654
-0.027195679 -0.051571567 0.09916355 0.08754135 0.09889528 -0.06610293 0.084918365 -0.04801265
-0.061068904 0.043253034 -0.051592905 0.10421004 0.073634736 0.07845127 0.053350236 -0.06607949
0.06651312 0.09457941 0.005160501 -0.059002414 0.08974575 -0.0499474 0.056152143 0.021775022
0.07583637 -0.0072692763 -0.007901238 -0.071599945 -0.08557953 -0.0020572226 -0.02012587 -0.022940507
0.023143012 -0.015403403 0.010137831 -0.050929017 0.09039292 0.009022343 0.01511388 0.030861763
