Dry fermentation prediction and optimization system/predictor_digester/Predictor_Digester Biogas Production/models/NeuralNetTorch_BAG_L1/S1F2/net.params (torch, 209863 bytes, 9 tensors)

weight f4 [128, 10]
0.010384759 0.16393878 -0.31091288 -0.23843697 -0.11089216 0.07113666 -0.01992766 0.2893385
-0.07499394 0.060072005 -0.10533087 -0.010460954 -0.33568695 -0.20756063 -0.12706657 -0.002560868
0.11074076 0.1853051 -0.22396861 -0.15257649 0.16348878 0.23515782 -0.05678206 0.25364634
-0.08340093 0.026696593 0.279572 -0.27095246 -0.17817847 -0.041861854 -0.12881656 0.3012019
-0.21437715 -0.17744398 -0.22482207 -0.28501627 -0.17344439 0.288813 0.14910424 0.13596337
0.0024830687 -0.2244541 0.029086959 -0.30274755 -0.21555623 -0.1682776 0.19426733 0.18451123
-0.13799046 -0.035296462 0.20272268 0.32953474 0.18732025 0.039235298 0.21453239 -0.18798338
0.057139345 -0.24686693 -0.22891276 -0.1639983 0.13369837 0.13060668 -0.26658922 0.11978476
0.20517291 -0.032238644 0.01974884 0.030246897 0.18408835 0.33521813 -0.2543316 -0.09235668
0.0738382 0.2726231 0.32185498 0.23870538 0.02261354 -0.2586346 0.034429684 -0.16973788
-0.30266586 0.32639885 0.29725143 -0.30138406 -0.011602996 -0.026600169 -0.025367245 -0.17143045
0.14326827 -0.15336652 0.13704461 0.08204642 0.31680763 0.12620483 -0.2918367 -0.20969655
0.1533366 0.13697085 -0.24819773 -0.22418754 0.26446572 0.19308524 -0.17318426 -0.09988497
-0.29002577 -0.014753618 -0.24720779 -0.24074048 -0.020175787 0.029034344 -0.14827321 0.1756717
-0.17412356 0.2525938 0.20561928 -0.27348316 -0.085517555 0.037430603 0.071003 0.044926908
0.08183412 -0.017612966 -0.1992712 0.08327368 -0.30023283 -0.18261728 -0.07434845 -0.15502597
-0.10771983 -0.32949367 -0.028807579 0.039380647 -0.2253065 -0.0020009526 0.27106145 -0.0044757714
0.036821187 -0.006593339 0.087561674 0.2517134 0.31208542 0.2107032 0.38452557 -0.0019791226
-0.30588067 -0.14209074 0.22314677 -0.00782605 -0.16963698 -0.20875752 -0.3057762 -0.32834998
-0.11419697 0.16209361 0.21231811 -0.25818565 0.24405186 -0.24358198 -0.045448035 -0.1560327
-0.06301461 -0.027777204 -0.3513307 -0.30493334 -0.028648576 0.0017017013 -0.14604203 0.124362536
-0.26757517 -0.056776244 0.2972755 -0.0925039 0.29236776 0.1302953 -0.29121122 0.21280143
-0.023765983 -0.13971823 0.26567104 -0.22420314 0.058331307 -0.06868103 0.27221003 0.09328902
0.13599299 0.12818114 -0.059542347 -0.061250128 -0.23505524 0.18355604 0.23064943 0.28829512
-0.15701453 0.012724542 -0.19785954 -0.16817784 -0.17836714 0.12298467 -0.19741607 -0.016254814
0.0096283695 0.16428356 -0.270293 -0.23293108 -0.17526026 0.21801184 -0.1169992 0.25972527
0.13390635 0.031728733 -0.024331095 -0.08501978 0.038441077 -0.086962886 0.012754645 0.03946774
-0.24823591 -0.16796471 0.25189096 -0.26556984 -0.017287787 0.3561315 0.09896013 -0.00097211305
-0.31858253 0.16928884 -0.21260625 -0.08543662 -0.09089925 -0.03826571 -0.03891001 0.27407458
0.056007918 0.27977493 0.22537386 -0.17832866 0.16342431 -0.2113796 -0.1425114 0.065856315
0.0540874 0.25796267 -0.14429516 -0.0069997017 0.2229086 -0.30983186 0.22461633 -0.2389794
-0.05074504 -0.06959677 -0.1915676 0.0714081 0.32497507 -0.088063195 -0.15667517 -0.11526205
00000000: d624 2a3c 91df 273e f92f 9fbe d228 74be
00000010: 6e1b e3bd 19b0 913d 553f a3bc 2d24 943e
00000020: 6c96 99bd 100e 763d b6b7 d7bd 6c64 2bbc
00000030: 29df abbe c68a 54be bd1d 02be 3cd4 27bb
00000040: 0dcc e23d 9fc0 3d3e 0758 65be 033d 1cbe
00000050: 9a69 273e 36cd 703e 4e94 68bd efdd 813e
00000060: 1bce aabd d0b2 da3c 1024 8f3e 48ba 8abe
00000070: 6b74 36be 5677 2bbd 7de8 03be 2337 9a3e
00000080: af85 5bbe e0b3 35be c237 66be a7ed 91be
00000090: 689b 31be 4cdf 933e c8ae 183e fb39 0b3e
000000a0: fbba 223b 4cd7 65be c647 ee3c ba01 9bbe
000000b0: c6ba 5cbe f750 2cbe 04ee 463e 83f0 3c3e
000000c0: 5f4d 0dbe 0693 10bd 8996 4f3e c7b8 a83e
000000d0: e1d0 3f3e 31b5 203d 61ae 5b3e b77e 40be
000000e0: f20a 6a3d afca 7cbe 1b68 6abe 2cef 27be
000000f0: 3ae8 083e c2bd 053e 627e 88be b651 f53d
00000100: d918 523e ab0c 04bd 52c8 a13c 57c8 f73c
00000110: a881 3c3e b6a1 ab3e c037 82be 8025 bdbd
00000120: 7b38 973d 4195 8b3e 2dca a43e 2f6f 743e
00000130: 0840 b93c c16b 84be 2406 0d3d c4cf 2dbe
00000140: 05f7 9abe c01d a73e 5731 983e 034f 9abe
00000150: 7e1a 3ebc 99e8 d9bc f8ce cfbc 778b 2fbe
00000160: ebb4 123e 1d0c 1dbe 6c55 0c3e f407 a83d
00000170: 9c34 a23e d73b 013e 9f6b 95be b1ba 56be
00000180: 4504 1d3e 1642 0c3e 8c27 7ebe 6b91 65be
00000190: 0d68 873e 23b8 453e 3757 31be 7e90 ccbd
000001a0: 427e 94be 29b9 71bc 0a24 7dbe ac84 76be
000001b0: b147 a5bc 6fd9 ed3c efd4 17be 48e3 333e
000001c0: 724d 32be f953 813e dc8d 523e fc05 8cbe
000001d0: d423 afbd d550 193d 056a 913d 4705 383d
000001e0: a698 a73d 1149 90bc c00d 4cbe 648b aa3d
000001f0: 1eb8 99be 0600 3bbe 0044 98bd 21bf 1ebe
00000200: 379c dcbd 65b3 a8be dffd ebbc 9a4d 213d
00000210: bfb6 66be 6a22 03bb 91c8 8a3e 7ea9 92bb
00000220: d0d1 163d f00c d8bb 8953 b33d 94e0 803e
00000230: a9c9 9f3e 94c2 573e 89e0 c43e 2bb4 01bb
00000240: 649c 9cbe 3c80 11be 9680 643e d538 00bc
00000250: 51b5 2dbe 88c4 55be b38e 9cbe 7d1d a8be
00000260: 1ae0 e9bd defb 253e eb69 593e e930 84be
00000270: bbe8 793e 8e6d 79be b827 3abd 09c7 1fbe
00000280: ce0d 81bd 058d e3bc 9ee1 b3be 3920 9cbe
00000290: 6bb0 eabc 9f0b df3a 0b8c 15be c9b1 fe3d
000002a0: 9dff 88be 358e 68bd 7f34 983e af72 bdbd
000002b0: 3ab1 953e 226c 053e a319 95be 9ee8 593e
000002c0: e1b0 c2bc 4c12 0fbe 0906 883e 8295 65be
000002d0: cfec 6e3d a4a8 8cbd 1d5f 8b3e 500e bf3d
000002e0: bf41 0b3e eb41 033e ade2 73bd 6ae1 7abd
000002f0: 52b2 70be 1df6 3b3e 5d2f 6c3e 6b9b 933e
00000300: 6bc8 20be 997a 503c b19b 4abe d036 2cbe
00000310: e0a5 36be 63df fb3d 7027 4abe d128 85bc
00000320: 4fc0 1d3c f339 283e d863 8abe 7c85 6ebe
00000330: 6d77 33be 7f3e 5f3e 479d efbd b6fa 843e
00000340: bf1e 093e fdf5 013d 0152 c7bc da1e aebd
00000350: 6474 1d3d 9919 b2bd dcf8 503c eda8 213d
00000360: 8e31 7ebe f1fe 2bbe daf7 803e c5f8 87be
00000370: 1e9f 8dbc de56 b63e 9cab ca3d 67d5 7eba
00000380: 401d a3be 0e5a 2d3e 74b5 59be 65f9 aebd
00000390: 6329 babd 81bc 1cbd 1a60 1fbd 8153 8c3e
000003a0: 8f68 653d a93e 8f3e 68c8 663e ca9b 36be
000003b0: b458 273e e573 58be 82ee 11be addf 863d
000003c0: c08a 5d3d af13 843e 1cc2 13be c15d e5bb
000003d0: 2742 643e 48a2 9ebe d301 663e 04b7 74be
000003e0: 08da 4fbd c088 8ebd 4c2a 44be 693e 923d
000003f0: 2263 a63e 7a5a b4bd 756f 20be 820e ecbd

bias f4 [128]
-0.247812 -0.06834089 0.040135566 0.08939672 0.15721963 -0.12201431 -0.08483702 0.22414725
-0.06668629 -0.21587113 0.2210004 0.21710481 -0.073190786 -0.026974287 -0.23532535 -0.23365717
0.12944315 -0.13081568 0.26570162 -0.2983718 -0.059311155 -0.0069087897 0.16053025 0.29821697
0.21591002 0.09981501 -0.136859 -0.23350607 -0.2877824 0.0008270659 0.29499272 -0.065758325
-0.05494658 -0.2182764 0.07338758 0.2156041 -0.3378147 -0.23323645 0.21844165 0.058176696
-0.01461873 0.07058102 -0.056260463 -0.22129773 -0.31858298 0.19699717 -0.053894408 -0.13355294
-0.12650266 -0.17476648 -0.055588137 -0.25583893 0.22830729 0.14401521 -0.14808008 -0.0817903
0.12437452 -0.106684364 0.086388916 0.067710586 -0.20815077 0.059149686 -0.003904327 0.27462807
-0.12076241 -0.07685489 0.25812358 -0.28078768 0.009969517 0.29887262 -0.14836678 0.29704008
0.24418357 0.27787316 -0.054964084 0.27609754 -0.11544014 -0.1144426 0.107729465 0.07297025
0.14726807 0.27080315 -0.1885922 0.16395035 0.10915578 0.15781245 0.16887116 -0.15915382
-0.25557733 0.26026714 -0.17074883 0.22662638 -0.28086647 -0.06875399 0.015058931 0.027293697
0.0069550346 0.11776738 -0.051175974 0.06498704 0.30458155 -0.21978796 -0.009914805 -0.14812098
0.27603033 0.2693655 0.00533475 -0.13044176 -0.20155528 0.23544948 -0.007470684 0.29783553
0.18869251 0.26998252 0.24693769 -0.19546984 0.095508754 -0.12512447 0.14806168 0.004209064
0.040582795 -0.2153169 -0.26841328 0.09698552 0.05162972 0.0074179797 0.19112915 -0.1458204
00000000: 6ec2 7dbe 4ff6 8bbd 3165 243d a115 b73d
00000010: 2ffe 203e a3e2 f9bd 08bf adbd db86 653e
00000020: d292 88bd 520d 5dbe ee4d 623e b950 5e3e
00000030: 0de5 95bd 2ef9 dcbc 21f9 70be d343 6fbe
00000040: bf8c 043e 8cf4 05be 0b0a 883e 30c4 98be
00000050: 41f0 72bd 2163 e2bb 0b62 243e e5af 983e
00000060: 8417 5d3e d06b cc3d c424 0cbe 371c 6fbe
00000070: 3758 93be 74cf 583a 4909 973e 4dac 86bd
00000080: aa0f 61bd d983 5fbe 3a4c 963d 52c7 5c3e
00000090: 0cf6 acbe 89d5 6ebe 2baf 5f3e b04a 6e3d
000000a0: 6683 6fbc c88c 903d 5f71 66bd df9b 62be
000000b0: 4f1d a3be a0b9 493e 62c0 5cbd 1ac2 08be
000000c0: ea89 01be fcf5 32be 63b0 63bd 52fd 82be
000000d0: 63c9 693e b978 133e 4ea2 17be ac81 a7bd
000000e0: 11b8 fe3d 557d dabd acec b03d d9ab 8a3d
000000f0: 7a25 55be f146 723d bddf 7fbb 0d9c 8c3e
00000100: 4852 f7bd 1966 9dbd c628 843e 67c3 8fbe
00000110: 2f57 233c d505 993e 76ed 17be a315 983e
00000120: 420b 7a3e 6445 8e3e 0522 61bd a85c 8d3e
00000130: e16b ecbd e260 eabd 44a1 dc3d 6d71 953d
00000140: 71cd 163e b6a6 8a3e 501e 41be 9ae2 273e
00000150: 118d df3d 9699 213e 90ec 2c3e 38f9 22be
00000160: 08db 82be bc41 853e c8d8 2ebe bf10 683e
00000170: bbcd 8fbe e4ce 8cbd bcb9 763c 0897 df3c
00000180: 0fe7 e33b 0630 f13d e69d 51bd ed17 853d
00000190: 1df2 9b3e 1810 61be b571 22bc 07ad 17be
000001a0: d953 8d3e 46ea 893e 20cf ae3b 8692 05be
000001b0: 8264 4ebe ab19 713e a4cc f4bb e67d 983e
000001c0: 9c38 413e 263b 8a3e 3cdd 7c3e 3f29 48be
000001d0: 189a c33d a120 00be 7b9d 173e 30ec 893b
000001e0: 253a 263d 097c 5cbe 776d 89be 58a0 c63d
000001f0: af79 533d 8612 f33b 5cb7 433e f151 15be

weight f4 [128, 128]
0.13763297 -0.03575129 0.031207759 -0.018930208 0.033078164 0.077274 0.13634704 -0.0167057
0.045973334 -0.11028985 -0.06342553 -0.0030985007 0.0145328455 -0.046987887 -0.059339397 -0.04145807
-0.022332946 -0.006149243 0.061647683 0.067888334 -0.027343946 -0.09572141 -0.07072697 0.013973704
0.077393554 0.0017677662 -0.04384942 0.0029655716 0.022643154 -0.07983923 -0.10244316 0.0772417
-0.028891783 -0.038974777 -0.018554004 -0.047287866 -0.0132885715 0.0790191 -0.012334974 0.028122675
0.029979236 -0.1016276 0.074190624 0.059959617 0.066231266 -0.02982672 0.03548264 -0.04860829
-0.007981057 -0.011002234 -0.005063355 0.035194922 -0.0673772 0.056510057 0.0023902156 -0.09085847
-0.01651357 -0.021070186 0.044215355 0.033566054 0.09670761 -0.06758294 0.015340344 0.022668548
0.08733704 0.045879576 -0.041856192 -0.08042269 -0.09242555 -0.052669495 0.124342114 0.05327514
0.07933664 0.06746777 -0.007177118 -0.10460552 0.1792277 0.071967825 0.04459754 -0.011060994
0.05755586 0.0017696483 0.07611281 0.029592538 0.07906503 -0.09135154 0.02363409 0.08389259
0.0043803374 -0.043363404 0.06840643 -0.030381382 0.067593455 -0.06173252 0.013508388 -0.019615958
-0.057206247 -0.0015033028 -0.015720975 0.055627327 -0.04678632 0.060602315 0.025267405 0.06822994
-0.035859987 -0.15243082 -0.039374 -0.06503079 -0.039867725 0.022648063 -0.02259915 -0.05623797
0.06461553 0.028078672 -0.035154466 -0.0291158 0.11938311 0.093828686 -0.09650891 -0.037738193
-0.010607332 -0.07208387 0.08532838 -0.03150308 0.07228176 0.0040098266 -0.024683876 0.01651497
-0.054099463 -0.00048693517 0.03407203 -0.019168522 0.05860829 -0.034606617 0.05306022 0.07717021
-0.017694838 0.11654079 0.012516757 -0.07187466 -0.10702852 0.050593674 -0.03167429 -0.01958176
0.027465722 0.014044185 0.0067503233 0.02329055 -0.05501498 -0.09046441 -0.033230647 -0.081894405
-0.01303856 0.005138143 -0.045007356 -0.11930234 0.034087125 -0.046578433 -0.03809657 -0.10025805
-0.05521131 0.03390352 -0.08382946 -0.04813712 0.061697282 -0.047755774 -0.034896053 -0.033069193
0.052309617 -0.021609299 0.002588715 0.04000949 -0.040286392 0.019848125 -0.08341706 0.03640253
0.023732834 -0.020638077 -0.1308554 0.06147567 0.0458332 -0.02999059 0.05405707 -0.061492253
-0.032125358 0.014580365 0.054568816 -0.0066305324 -0.09169351 -0.01059828 0.04949865 -0.024181696
-0.04708721 0.06268971 0.04997325 -0.022128332 0.013449313 0.015346049 0.009226975 -0.011374492
-0.06262122 0.006886561 -0.0016764909 0.033919796 -0.14831844 -0.0025699541 -0.05616529 0.020173248
0.039210297 -0.02678189 -0.11433232 0.0035749462 0.0021955858 -0.09873629 -0.22521704 0.07063488
0.07776655 -0.05622271 0.11230397 -0.001411793 0.029170608 0.04077158 -0.06776311 -0.009388103
0.06882887 0.006830944 -0.06734284 -0.07532409 0.013906728 0.07560817 0.061503343 -0.0377421
0.060690634 -0.08667612 -0.022184426 -0.09222668 0.06288245 -0.00931821 -0.04534774 0.0069327103
-0.09992479 -0.056630783 0.0049999654 0.011557497 -0.14258078 -0.067720555 0.01489207 0.093869
0.024425272 -0.0033115363 0.021119704 0.0028132582 -0.08323953 -0.059407827 0.02029083 0.05798558
00000000: a8ef 0c3e f26f 12bd 6aa7 ff3c 8613 9bbc
00000010: f87c 073d d541 9e3d 8f9e 0b3e 64da 88bc
00000020: 894e 3c3d a5df e1bd 3fe5 81bd 3710 4bbb
00000030: 2c1b 6e3c 5f76 40bd de0d 73bd f0cf 29bd
00000040: 95f3 b6bc 977f c9bb 4882 7c3d 0a09 8b3d
00000050: 6900 e0bc 9609 c4bd 4dd9 90bd f6f1 643c
00000060: 8380 9e3d 64b4 e73a 739b 33bd 095a 423b
00000070: 237e b93c c082 a3bd b8cd d1bd e530 9e3d
00000080: 76ae ecbc 04a4 1fbd 91fe 97bc ecb0 41bd
00000090: 4fb8 59bc c4d4 a13d a118 4abc 8661 e63c
000000a0: 0497 f53c 2222 d0bd 41f1 973d 3798 753d
000000b0: 42a4 873d 2a57 f4bc 3f56 113d 7c19 47bd
000000c0: fbc2 02bc b742 34bc 80ea a5bb 8d28 103d
000000d0: 0ffd 89bd 1777 673d 2aa5 1c3b 0114 babd
000000e0: 7747 87bc 629b acbc 291b 353d 8f7c 093d
000000f0: a40e c63d ed68 8abd 1156 7b3c 64b3 b93c
00000100: c3dd b23d 39ec 3b3d 6671 2bbd a7b4 a4bd
00000110: 9b49 bdbd f8bb 57bd 14a7 fe3d 0837 5a3d
00000120: 407b a23d 8b2c 8a3d 082e ebbb 6b3b d6bd
00000130: 7787 373e de63 933d e9ab 363d 2c39 35bc
00000140: b2bf 6b3d 8bf3 e73a 08e1 9b3d 0d6c f23c
00000150: d9ec a13d 8416 bbbd 479c c13c e1cf ab3d
00000160: ef88 8f3b d39d 31bd ac18 8c3d 60e2 f8bc
00000170: 706e 8a3d 3ddb 7cbd 4952 5d3c a5b1 a0bc
00000180: 1951 6abd 790a c5ba 46c9 80bc 7bd9 633d
00000190: 03a3 3fbd 223a 783d 97fd ce3c 24bc 8b3d
000001a0: ece1 12bd d316 1cbe a246 21bd dd2e 85bd
000001b0: 574c 23bd 6e88 b93c da21 b9bc c959 66bd
000001c0: 2655 843d 3e05 e63c 21fe 0fbd 4284 eebc
000001d0: 227f f43d 4129 c03d 77a6 c5bd 5d93 1abd
000001e0: 60ca 2dbc b5a0 93bd a5c0 ae3d 6009 01bd
000001f0: 7608 943d dd64 833b d735 cabc 674a 873c
00000200: 6697 5dbd 554b ffb9 1d8f 0b3d 4e07 9dbc
00000210: 3f0f 703d abbf 0dbd ac55 593d 6a0b 9e3d
00000220: c4f4 90bc f0ac ee3d 1513 4d3c 0633 93bd
00000230: c531 dbbd 503b 4f3d e6bc 01bd ed69 a0bc
00000240: cbff e03c 9519 663c d131 dd3b d3cb be3c
00000250: 6357 61bd 6845 b9bd dc1c 08bd 41b8 a7bd
00000260: af9f 55bc de5d a83b a259 38bd c954 f4bd
00000270: f19e 0b3d 07c9 3ebd 260b 1cbd 1854 cdbd
00000280: 4125 62bd 6bde 0a3d c8ae abbd 6e2b 45bd
00000290: 4ab6 7c3d 8f9b 43bd 2aef 0ebd 9073 07bd
000002a0: 9c42 563d fc05 b1bc 6ea7 293b fee0 233d
000002b0: 5803 25bd 8998 a23c 90d6 aabd d21a 153d
000002c0: 5c6b c23c 2f11 a9bc f5fe 05be eacd 7b3d
000002d0: 98bb 3b3d d3ae f5bc f26a 5d3d 4ddf 7bbd
000002e0: e195 03bd 7ce2 6e3c 8d83 5f3d f044 d9bb
000002f0: cfc9 bbbd 68a4 2dbc 19bf 4a3d b118 c6bc
00000300: 85de 40bd 7663 803d c0b0 4c3d 7a46 b5bc
00000310: 825a 5c3c ff6d 7b3c bd2c 173c 145c 3abc
00000320: 8e3f 80bd a9a8 e13b b3bd dbba 7cef 0a3d
00000330: cae0 17be ad6c 28bb 930d 66bd 5e42 a53c
00000340: fa9a 203d b265 dbbc 1027 eabd a549 6a3b
00000350: d1e3 0f3b 4136 cabd 4c9f 66be 05a9 903d
00000360: 1244 9f3d c949 66bd a0ff e53d ea0b b9ba
00000370: 33f7 ee3c 1a00 273d 63c7 8abd 8fd0 19bc
00000380: 27f6 8c3d 1dd6 df3b 0beb 89bd 8443 9abd
00000390: 0bd9 633c 75d8 9a3d eeea 7b3d 7697 1abd
000003a0: be96 783d 4083 b1bd 1dbc b5bc 57e1 bcbd
000003b0: 84c8 803d 68ab 18bc 8dbe 39bd ca2b e33b
000003c0: 5ea5 ccbd aef5 67bd c0d6 a33b a85b 3d3c
000003d0: b200 12be 13b1 8abd defd 733c 643e c03d
000003e0: 8217 c83c 5c06 59bb 3b03 ad3c a45e 383b
000003f0: 7d79 aabd 9f55 73bd f438 a63c 4a82 6d3d

bias f4 [128]
-0.083232224 0.07011962 -0.033125915 -0.047193203 0.008548579 0.059536595 0.061712194 0.06790979
-0.020669322 0.01242346 0.08753922 0.047820933 0.08204706 0.039158136 -0.082314186 0.02865766
-0.010186573 0.021713158 0.038845863 0.044079207 -0.04238933 -0.06548206 0.089828566 0.031165972
0.05350227 0.025519878 -0.017708207 -0.073489614 0.08027129 0.07940011 -0.00932175 -0.015955362
0.040138144 -0.08344873 0.016461883 0.077986225 -0.025889914 0.007428752 0.038517635 -0.0018814986
-0.009389444 0.024379222 -0.0032928293 -0.0076399692 0.0030331598 0.037112065 0.076977015 -0.0018448408
0.009302302 -0.057064485 0.040958233 0.035054147 -0.051721822 0.047726326 0.027066497 -0.057679515
-0.024465172 -0.06390823 0.019422138 0.04696973 -0.064435266 -0.0022408536 0.06880721 0.061523747
0.06224486 -0.038098253 0.005724311 -0.05231706 0.091467135 0.006832688 -0.05950034 -0.0061711916
0.008229153 0.023297869 -0.021199528 0.011397027 -0.079855256 -0.0419589 0.044205386 0.030819856
0.083316 0.07826368 0.04385181 -0.06026944 0.07251958 0.055345617 -0.039574523 -0.041812718
-0.050855048 -0.047041662 0.04386909 -0.04493056 0.08286871 0.020394117 -0.011038339 0.031802256
0.042904254 0.0017437798 -0.06978573 -0.08593388 0.07215278 0.06420729 -0.031994667 0.07304637
0.032190003 -0.067426145 0.00074471533 -0.07357164 0.029209083 0.022507703 0.040729534 0.008410714
0.015938925 -0.046854313 -0.08630861 -0.040150955 0.034802213 -0.027902968 -0.0054193055 -0.036439545
-0.04525738 -0.04558785 -0.019444158 0.0769657 -0.017185936 -0.0140254265 -0.041145686 -0.06389185
00000000: a875 aabd e09a 8f3d 0aaf 07bd a94d 41bd
00000010: 570f 0c3c a5dc 733d edc5 7c3d 4a14 8b3d
00000020: b652 a9bc c58b 4b3c c347 b33d e2df 433d
00000030: 4a08 a83d 4864 203d 5794 a8bd 78c3 ea3c
00000040: 95e5 26bc cbdf b13c d71c 1f3d 668c 343d
00000050: 6fa0 2dbd 751b 86bd 0af8 b73d c84f ff3c
00000060: 3225 5b3d 100f d13c cd10 91bc b981 96bd
00000070: 4665 a43d 869c a23d 41ba 18bc d2b4 82bc
00000080: e567 243d 2be7 aabd 12db 863c 3eb7 9f3d
00000090: 1617 d4bc e36c f33b abc4 1d3d 9e9c f6ba
000000a0: 2fd6 19bc efb6 c73c 82cc 57bb b558 fabb
000000b0: fac7 463b d202 183d 20a6 9d3d 96ce f1ba
000000c0: af68 183c 73bc 69bd d2c3 273d f094 0f3d
000000d0: 43da 53bd ae7c 433d 8fba dd3c 5b41 6cbd
000000e0: 2f6b c8bc 51e2 82bd 2d1b 9f3c 5563 403d
000000f0: a3f6 83bd 49db 12bb cbea 8c3d 5300 7c3d
00000100: 77f4 7e3d ea0c 1cbd 0093 bb3b 6a4a 56bd
00000110: 1f53 bb3d bee4 df3b a1b6 73bd b537 cabb
00000120: 92d3 063c 2cdb be3c a2aa adbc 99ba 3a3c
00000130: 278b a3bd 18dd 2bbd b510 353d ec79 fc3c
00000140: 94a1 aa3d b548 a03d f59d 333d 17dd 76bd
00000150: 2585 943d 16b2 623d e518 22bd d043 2bbd
00000160: 624d 50bd c2ae 40bd 13b0 333d 1b09 38bd
00000170: 12b7 a93d 9011 a73c 26da 34bc 1543 023d
00000180: 5fbc 2f3d 8a8f e43a d2eb 8ebd 1afe afbd
00000190: d6c4 933d 1d7f 833d d70c 03bd 5699 953d
000001a0: aad9 033d b816 8abd 0039 433a baac 96bd
000001b0: e347 ef3c 1362 b83c 03d4 263d 17cd 093c
000001c0: 5992 823c 4fea 3fbd 92c2 b0bd 5475 24bd
000001d0: c48c 0e3d c494 e4bc 6e94 b1bb a241 15bd
000001e0: cd5f 39bd 53ba 3abd 5b49 9fbc 31a0 9d3d
000001f0: 85c9 8cbc e7ca 65bc 6188 28bd bbd9 82bd

weight f4 [128, 128]
-0.09041332 -0.06668652 -0.025542788 -0.015098885 -0.062035907 -0.0031774112 0.07004609 -0.07444646
0.047325436 -0.064458594 0.016163113 -0.009009846 -0.08073977 -0.041315462 -0.042748667 -0.09984859
4.7281355e-26 -0.07405526 0.07884661 0.0019143048 -0.078948155 -0.040825333 0.06913054 -0.027964821
0.029905967 0.05085306 -0.05036418 0.06182854 -0.05079586 -0.08128297 0.050745904 -0.067407295
-0.071614504 -0.071211286 0.036369137 -0.014502929 0.07095303 -0.036752895 0.0031102637 0.042239465
-0.022482676 -0.0066797053 -0.043841913 0.0382751 0.018963836 -0.019547699 -0.05172625 0.05103577
-0.08080027 0.030520441 0.061064843 -0.031013228 0.016637754 0.014198726 -0.001112217 -0.042654872
-0.024160715 -0.01781783 0.023398379 -0.09884805 -0.004922602 0.024950547 0.019617822 -0.048632864
-0.03907741 0.038612604 0.019447202 0.08739666 -0.038277965 0.048779346 -0.017966976 0.017088221
-0.011961436 -0.08930181 0.022838382 0.01291392 -0.071465306 -0.0035493642 0.0068387333 0.051095042
0.09684631 -0.026844444 -0.032141123 -0.02729902 -0.06847882 0.031085182 0.071942315 0.07819522
-0.094227195 -0.09110711 -0.07285741 -0.019699775 -0.035471898 -0.076049015 -0.089472055 -0.09128472
-0.032073345 0.0027454158 0.07997294 -0.08635744 0.041572798 -0.037292466 0.07623301 -0.08036379
-0.0986388 -0.013541472 0.049538787 -0.07979152 -0.026966246 -0.07609739 0.04325005 -0.042113896
-0.045093503 -0.06871716 0.0069954675 0.0720589 0.016719416 0.02901456 0.072455704 -0.0025799116
0.00341871 0.06796313 -0.032009345 -0.10040858 0.009442835 0.033264015 0.0097287595 0.051296804
0.122107156 -0.013479165 0.05983864 -0.09019088 -0.013467773 0.057637587 0.08168047 -0.094877765
0.07907755 0.008329064 0.0049130837 -0.0019824482 0.01321591 -0.0757479 0.085168846 0.04002978
-0.016352348 -0.11048033 0.027665485 0.07021277 0.04355757 0.08408198 -0.015139072 -0.015409472
0.021785406 0.014687616 0.022391915 0.032461695 0.05575673 0.034320276 0.07591583 -0.006600917
-0.03445841 -0.059282027 -0.019178826 -0.09124823 -0.062397327 -0.036076073 0.07118695 -0.103361875
0.047145154 -0.04477235 -0.12751402 -0.044492096 -0.073743984 0.10595649 0.071684405 0.067884825
-0.06693224 -0.08820088 -0.021210194 0.09038823 -0.0002462467 -0.05555634 -0.034649115 -0.002833845
0.093724735 -0.068726406 0.049443223 0.052229468 -0.03537338 -0.07710715 -0.04062526 0.07456056
-0.10360153 0.045002297 0.078317836 -0.07565974 -0.009043792 0.04908642 -0.029995471 0.06856013
-0.008076276 -0.034452464 0.063450634 0.0030535997 0.006335947 0.015527379 0.006979199 -0.009717196
-0.031632002 -0.036968205 -0.044368073 -0.0009989102 -0.05999262 -0.030715339 -0.014996458 -0.04108018
-0.00797133 -0.06886501 0.07353786 0.03903554 0.08599127 0.008035506 0.06733252 -0.011162966
5.1436364e-05 -0.08829798 0.052171223 0.043051265 -0.031313773 -0.060425155 -0.07615546 0.056228798
-0.0111909425 0.022480262 0.027337514 0.05453719 0.026782677 0.03001352 -0.041112743 -0.08761857
0.077029794 -0.020036822 0.023105947 -0.09456373 -0.031737547 0.013806721 0.06451012 0.039809823
0.002872389 -0.047011882 0.060312275 0.046890426 0.02510645 0.04295112 0.0091523575 0.080849655
00000000: 9e2a b9bd f192 88bd 1c3f d1bc 5061 77bc
00000010: 5d19 7ebd 1d3c 50bb 5374 8f3d 6377 98bd
00000020: 51d8 413d de02 84bd 8168 843c 089e 13bc
00000030: e45a a5bd 673a 29bd 3a19 2fbd 6b7d ccbd
00000040: 3d20 6a15 49aa 97bd 557a a13d 69e9 fa3a
00000050: 92af a1bd 7738 27bd 5094 8d3d 7b16 e5bc
00000060: 5cfd f43c 4c4b 503d ac4a 4ebd ec3f 7d3d
00000070: 520f 50bd b077 a6bd f0da 4f3d d60c 8abd
00000080: a0aa 92bd 39d7 91bd cef7 143d b19d 6dbc
00000090: d24f 913d 348a 16bd 91d5 4b3b 4a03 2d3d
000000a0: 972d b8bc 6ee1 dabb 9493 33bd 5ac6 1c3d
000000b0: 0c5a 9b3c 7f22 a0bc e8de 53bd e20a 513d
000000c0: 9d7a a5bd 0106 fa3c 211f 7a3d 740f febc
000000d0: e64b 883c c6a1 683c cfc7 91ba e0b6 2ebd
000000e0: b1ec c5bc b3f6 91bc f5ad bf3c d970 cabd
000000f0: c74d a1bb 1765 cc3c 8eb5 a03c 4133 47bd
00000100: a20f 20bd 4028 1e3d bd4f 9f3c 05fd b23d
00000110: 5bc9 1cbd dacc 473d 7b2f 93bc 99fc 8b3c
00000120: e6f9 43bc dee3 b6bd 8f17 bb3c e894 533c
00000130: 675c 92bd 739c 68bb 7417 e03b 0949 513d
00000140: 5c57 c63d e1e8 dbbc 69a6 03bd 32a2 dfbc
00000150: a03e 8cbd 5aa6 fe3c 7e56 933d d124 a03d
00000160: 30fa c0bd 5d96 babd 4436 95bd 6c61 a1bc
00000170: fb4a 11bd 96bf 9bbd 203d b7bd 7cf3 babd
00000180: 575f 03bd 6fec 333b dac8 a33d 2bdc b0bd
00000190: 3d48 2a3d fcbf 18bd 0d20 9c3d c595 a4bd
000001a0: 2403 cabd 0ddd 5dbc 2fe9 4a3d bd69 a3bd
000001b0: 51e8 dcbc f3d8 9bbd f726 313d 9f7f 2cbd
000001c0: f7b3 38bd 95bb 8cbd 3c3a e53b 9e93 933d
000001d0: 28f7 883c f1af ed3c a863 943d bc13 29bb
000001e0: 700c 603b 4130 8b3d 3b1c 03bd 03a3 cdbd
000001f0: 1fb6 1a3c d93f 083d 6065 1f3c 991c 523d
00000200: 5113 fa3d b7d7 5cbc 5d19 753d ffb5 b8bd
00000210: efa7 5cbc 6415 6c3d 1748 a73d 464f c2bd
00000220: 69f3 a13d a076 083c effd a03b f6eb 01bb
00000230: 8b87 583c b721 9bbd 016d ae3d 44f6 233d
00000240: 5cf5 85bc 8343 e2bd baa2 e23c b6cb 8f3d
00000250: 6c69 323d 2c33 ac3d df09 78bc 0378 7cbc
00000260: 4f77 b23c 54a4 703c 406f b73c 8ef6 043d
00000270: 2b61 643d 6b93 0c3d c279 9b3d 814c d8bb
00000280: 4324 0dbd b6d1 72bd ea1c 9dbc 5ae0 babd
00000290: 5794 7fbd 81c4 13bd 77ca 913d 64af d3bd
000002a0: 471b 413d 3663 37bd 0993 02be 583d 36bd
000002b0: 1607 97bd b7ff d83d 46cf 923d 3307 8b3d
000002c0: c513 89bd aaa2 b4bd 00c1 adbc 771d b93d
000002d0: ac1a 81b9 0b8f 63bd 3bec 0dbd 08b8 39bb
000002e0: c1f2 bf3d 6ec0 8cbd fa84 4a3d 91ee 553d
000002f0: ade3 10bd 5aea 9dbd ac66 26bd 35b3 983d
00000300: 0a2d d4bd 5454 383d 1a65 a03d 7ef3 9abd
00000310: 6a2c 14bc d80e 493d 10b9 f5bc 4169 8c3d
00000320: 5b52 04bc 071e 0dbd 68f2 813d e71e 483b
00000330: c79d cf3b 8c66 7e3c c4b1 e43b e034 1fbc
00000340: 8f90 01bd f96b 17bd 4cbb 35bd dded 82ba
00000350: d2ba 75bd bc9e fbbc b4b3 75bc b143 28bd
00000360: 2e9a 02bc 1909 8dbd 049b 963d bbe3 1f3d
00000370: 311c b03d 5ba7 033c a2e5 893d dfe4 36bc
00000380: 60bd 5738 92d5 b4bd 7eb1 553d 8656 303d
00000390: df42 00bd 5e80 77bd 65f7 9bbd 2b50 663d
000003a0: 375a 37bc 8728 b83c ecf2 df3c 6362 5f3d
000003b0: 5867 db3c eade f53c d665 28bd 5d71 b3bd
000003c0: ccc1 9d3d 4324 a4bc af48 bd3c a1aa c1bd
000003d0: 3bff 01bd 9635 623c e21d 843d a00f 233d
000003e0: b13e 3c3b 888f 40bd 010a 773d 2d10 403d
000003f0: 0bac cd3c 83ed 2f3d c5f3 153c 8194 a53d

bias f4 [128]
0.015902976 0.06085137 -0.031567328 0.06392104 -0.052176718 0.04684805 -0.08579774 0.007512197
-0.026303 0.06605214 0.030276537 -0.04163327 -0.036474343 -0.025609601 0.007858333 -0.042010114
-0.012831099 -0.0764448 0.0084604975 -0.044029035 0.011294445 0.05522127 0.08039211 -0.07017972
-0.040496957 0.04682141 0.021627415 0.08271563 0.009832445 -0.054616716 -0.0061377482 0.093780436
0.055348378 -0.0380375 -0.06100656 0.056047484 0.031461477 0.060093723 -0.09701164 -0.052287374
-0.06808879 -0.034733843 0.057045553 0.052762058 -0.02818945 -0.06347594 -0.019609151 0.042541526
-0.040310625 -0.033248857 0.007096576 -0.019441264 0.05661177 0.063503355 0.012200465 -0.06250983
-0.004018823 0.05469996 -0.051051714 -0.0033907807 0.08748711 0.034856316 0.03801281 -0.004461142
-0.01661063 -0.026162548 0.055154618 0.059131786 0.047089603 0.042820707 0.08545621 -0.054078214
0.05032157 -0.019761518 0.019556124 0.076171294 -0.05029714 -0.000315083 -0.0052631213 0.05454097
0.017834216 -0.07159994 0.044315815 -0.07898315 -0.024704836 -0.03949017 -0.040313765 0.026672287
-0.07659388 -0.08830012 -0.06503441 0.010924397 -0.05756822 -0.03230472 -0.00696441 -0.050256927
-0.09180914 0.047108434 -0.079955176 0.05441176 0.08327347 -0.046055533 0.02825467 0.045172177
-8.2469105e-06 -0.050804757 0.08249952 0.04616737 -0.037946995 0.00073927396 0.055212684 -0.08088502
0.08633216 0.036010966 -0.07429288 0.03265614 -0.022694847 0.049910065 -0.02321177 -0.045735203
-0.0071761133 -0.04073655 0.06887955 -0.08072483 -0.015888777 -0.052942015 -0.054647908 -0.0020930911
00000000: f546 823c 493f 793d be4c 01bd 09e9 823d
00000010: 41b7 55bd bee3 3f3d bab6 afbd e028 f63b
00000020: 6479 d7bc 5846 873d 8006 f83c a687 2abd
00000030: 1f66 15bd 3acb d1bc 3dc0 003c cc12 2cbd
00000040: 8839 52bc 178f 9cbd e69d 0a3c ca57 34bd
00000050: 560c 393c b32f 623d 9ea4 a43d 63ba 8fbd
00000060: 23e0 25bd cfc7 3f3d fa2b b13c d066 a93d
00000070: 4318 213c c7b5 5fbd 2a1f c9bb f50f c03d
00000080: fbb4 623d 36cd 1bbd 04e2 79bd 0c92 653d
00000090: c0dd 003d d624 763d 0aae c6bd 492b 56bd
000000a0: 2372 8bbd 1345 0ebd 99a8 693d 071d 583d
000000b0: 90ed e6bc acff 81bd 5fa3 a0bc 0640 2e3d
000000c0: c11c 25bd f42f 08bd 658a e83b 4943 9fbc
000000d0: bee1 673d 0c0e 823d 76e4 473c 2705 80bd
000000e0: 55b0 83bb 110d 603d 9a1b 51bd dc37 5ebb
000000f0: 712c b33d 7fc5 0e3d 52b3 1b3d c52e 92bb
00000100: 0413 88bc d752 d6bc cfe9 613d 2c34 723d
00000110: 07e1 403d c464 2f3d aa03 af3d 1e81 5dbd
00000120: fe1d 4e3d e8e2 a1bc 2a34 a03c b2ff 9b3d
00000130: 6004 4ebd b931 a5b9 4376 acbb 5a66 5f3d
00000140: 1019 923c fda2 92bd 8084 353d ebc1 a1bd
00000150: cc61 cabc 72c0 21bd 0c20 25bd d77f da3c
00000160: 41dd 9cbd b1d6 b4bd c330 85bd 3efc 323c
00000170: a7cc 6bbd f451 04bd b535 e4bb 35da 4dbd
00000180: 6e06 bcbd c6f4 403d 8abf a3bd dede 5e3d
00000190: 488b aa3d baa4 3cbd 5676 e73c 7606 393d
000001a0: 365c 0ab7 a618 50bd 82f5 a83d ff19 3d3d
000001b0: 4f6e 1bbd d6cb 413a b226 623d 0ca7 a5bd
000001c0: eace b03d 3c80 133d de26 98bd 72c2 053d
000001d0: 8bea b9bc 7f6e 4c3d 9c26 bebc d654 3bbd
000001e0: 9a25 ebbb 5edb 26bd b910 8d3d 0f53 a5bd
000001f0: 2e29 82bc bad9 58bd 7cd6 5fbd 3e2c 09bb

weight f4 [128, 128]
0.042996183 0.050489467 -0.038682688 -0.09465632 -0.024514034 0.06715055 0.048458066 0.05390938
-0.0010541232 -0.0016644419 -0.03497527 -0.04229419 -0.03436038 -0.0037230279 -0.044064585 -0.035701662
0.02832549 -0.041504364 -0.006002902 -0.060767725 0.014109464 0.048264097 0.02643583 -0.025929706
0.026486242 0.03732318 -0.001862353 -0.061805155 -0.044918455 -0.058287848 -0.034785215 0.0050380444
0.09184655 0.035834044 0.034892965 0.015931953 -0.03509652 0.08176273 0.018706787 0.040341955
0.056542203 0.033384904 0.069824465 -0.047532704 -0.045727484 0.0054133227 0.051461313 -0.043983597
-0.069244705 -0.047299847 0.055227585 0.07508709 0.0121597145 -0.026324121 0.07884139 -0.028854107
0.056315895 -0.07224819 -0.091937006 -0.050324243 0.03721219 0.068960026 0.0726309 0.00067732
0.095075265 0.03484317 0.042097267 0.1149328 0.07650811 0.090794265 0.049308527 0.018607583
-0.05953267 -0.045487005 -0.07519853 -0.0040750164 0.02117851 0.007215029 0.060898345 0.011542321
0.04246543 -0.025295781 -0.0099339895 0.013832262 0.017717764 0.018870104 -0.00039569152 -0.07286483
0.08750113 0.034622286 0.084553495 -0.06803603 -0.04909367 -0.06223894 -0.0626897 -0.009350238
-0.025114805 0.07150003 -0.0044217063 0.091181405 -0.018847799 -0.061067868 -0.05602292 -0.08235063
-0.027664676 -0.06267984 -0.041769754 0.07095668 -0.020462418 -0.0049575167 -0.069702044 0.05551514
-0.04663805 -0.0072073373 -0.00073034695 -0.044578202 -0.026610438 -0.037948612 0.040380716 0.013869156
-0.0029858698 0.011784301 0.0691128 0.03116406 -0.021645708 -0.058928747 0.0058230464 -0.043844115
-0.056808207 -0.06089154 -0.047759466 0.017571075 -0.07027213 0.0042116595 0.010801777 -0.071482696
-0.02582296 0.035479117 0.0020166477 -0.036165744 -0.005957452 -0.06803467 -0.011640982 0.010102378
0.08541229 0.041330192 -0.0493651 0.062258795 0.032279193 -0.02381821 0.021711836 0.06925012
0.0019179487 -0.009831353 -0.001287966 -0.060676455 -0.003730773 -0.04915229 -0.050272625 -0.082574844
0.016339296 -0.06632973 -0.009725164 0.08632775 0.02827583 0.08212782 -0.0754071 -0.05483772
0.05847854 0.0123109715 -0.019935403 0.049984876 -0.053646777 0.026020754 -0.07768616 -0.09290129
0.0116181355 -0.053069476 -0.08703227 0.013881541 0.048560202 -0.020443713 -0.05021917 -0.079610534
0.083202146 0.004983947 -0.059187606 -0.036471117 0.072779685 -0.0045008743 -0.02964795 0.052293774
0.06269129 0.03479534 0.06958816 -0.012556362 0.007524989 -0.027954098 -0.03496008 -0.04408401
-0.08580504 0.048033416 -0.035182126 0.024478307 -0.04181142 0.09773239 0.09350834 -0.0032232276
0.0080324905 0.06222781 0.016170513 -0.07890881 0.02460825 0.07610943 0.034600943 0.020999432
0.040796377 0.058205195 -0.03224139 -0.046004575 -0.02646541 -0.07373581 -0.0815992 0.06860086
-0.065471604 0.08905831 -0.033725794 0.08416898 0.042153716 -0.07058073 -0.023092108 -0.09181318
0.031062718 -0.011548576 0.060599647 0.047274105 -0.0041331626 -0.07954995 -0.0054872283 -0.03741688
0.049271613 -0.034599215 0.08716528 -0.022461243 -0.017541027 0.05478862 -0.070959665 0.065341406
0.06299343 -0.07514942 -0.028030975 0.06826941 0.058818404 -0.037915144 0.061944585 -0.03648856
00000000: c41c 303d 0bce 4e3d bd71 1ebd 2cdb c1bd
00000010: a8d1 c8bc 3a86 893d f77b 463d 15d0 5c3d
00000020: 812a 8aba 6729 daba 3b42 0fbd ac3c 2dbd
00000030: 78bd 0cbd 0bfe 73bb 117d 34bd e83b 12bd
00000040: dc0a e83c 7b00 2abd feb3 c4bb 94e7 78bd
00000050: 622b 673c 93b0 453d f48f d83c 896a d4bc
00000060: adf9 d83c 31e0 183d 321a f4ba 6727 7dbd
00000070: 6afc 37bd 3dbf 6ebd f17a 0ebd 2e16 a53b
00000080: 0b1a bc3d b8c6 123d edeb 0e3d ba83 823c
00000090: 5ec1 0fbd 3873 a73d fa3e 993c 9b3d 253d
000000a0: cc98 673d 9cbe 083d 2100 8f3d a7b1 42bd
000000b0: be4c 3bbd 3e62 b13b 19c9 523d 2528 34bd
000000c0: 2bd0 8dbd 7cbd 41bd 5236 623d 43c7 993d
000000d0: 8a39 473c afa5 d7bc 9877 a13d 735f ecbc
000000e0: 7fab 663d dcf6 93bd 7849 bcbd cb20 4ebd
000000f0: cf6b 183d ea3a 8d3d 82bf 943d 2d8e 313a
00000100: d2b6 c23d b6b7 0e3d 2f6e 2c3d e361 eb3d
00000110: 49b0 9c3d 58f2 b93d bdf7 493d ee6e 983c
00000120: 87d8 73bd 9550 3abd b001 9abd b787 85bb
00000130: 8e7e ad3c 0d6c ec3b 8b70 793d 011c 3d3c
00000140: 3bf0 2d3d 1939 cfbc 2cc2 22bc b6a0 623c
00000150: d824 913c 7a95 9a3c d174 cfb9 283a 95bd
00000160: cb33 b33d 19d0 0d3d 622a ad3d 7956 8bbd
00000170: 7216 49bd 42ee 7ebd 7563 80bd be31 19bc
00000180: 90bd cdbc 9c6e 923d f6e3 90bb 51bd ba3d
00000190: b366 9abc 4d22 7abd 4a78 65bd 72a7 a8bd
000001a0: 08a1 e2bc 4a5e 80bd c316 2bbd bc51 913d
000001b0: cda0 a7bc aa72 a2bb f2bf 8ebd d863 633d
000001c0: 8a07 3fbd 872b ecbb c174 3fba a297 36bd
000001d0: 22fe d9bc 0170 1bbd 4066 253d 753b 633c
000001e0: 95ae 43bb f112 413c 038b 8d3d c54b ff3c
000001f0: 5752 b1bc 455f 71bd 41cf be3b e395 33bd
00000200: b9af 68bd 6869 79bd 6e9f 43bd 37f1 8f3c
00000210: d6ea 8fbd f601 8a3b f0f9 303c 8565 92bd
00000220: ac8a d3bc 8d52 113d bc29 043b 8822 14bd
00000230: bb36 c3bb c355 8bbd d1b9 3ebc 7284 253c
00000240: a4ec ae3d d949 293d 0f33 4abd 1403 7f3d
00000250: 3037 043d 681e c3bc 05dd b13c 02d3 8d3d
00000260: ae63 fb3a af13 21bc f8d0 a8ba e087 78bd
00000270: fc7f 74bb e953 49bd abea 4dbd 001d a9bd
00000280: fdd9 853c e2d7 87bd 4b56 1fbc 9acc b03d
00000290: b7a2 e73c a132 a83d 0a6f 9abd 849d 60bd
000002a0: 3287 6f3d f5b3 493c 924f a3bc f1bc 4c3d
000002b0: b9bc 5bbd 7a29 d53c ec19 9fbd 0843 bebd
000002c0: fe59 3e3c 615f 59bd fa3d b2bd 676f 633c
000002d0: 10e7 463d 9379 a7bc 9eb2 4dbd d90a a3bd
000002e0: e365 aa3d 6150 a33b b46e 72bd bd62 15bd
000002f0: 840d 953d 127c 93bb 42e0 f2bc ff31 563d
00000300: 4b64 803d 8f85 0e3d 3d84 8e3d 33b9 4dbc
00000310: 2f94 f63b feff e4bc 4d32 0fbd 6f91 34bd
00000320: 8eba afbd b0be 443d 221b 10bd bb86 c83c
00000330: 7442 2bbd eb27 c83d 4d81 bf3d c93c 53bb
00000340: b59a 033c 97e2 7e3d 0678 843c f19a a1bd
00000350: 3e97 c93c 43df 9b3d b8b9 0d3d 0007 ac3c
00000360: 1a1a 273d 9268 6e3d 8c0f 04bd 4b6f 3cbd
00000370: fdcd d8bc cd02 97bd 7b1d a7bd 9c7e 8c3d
00000380: fa15 86bd 3464 b63d 0f24 0abd c960 ac3d
00000390: 60a9 2c3d a18c 90bd a92b bdbc 8c08 bcbd
000003a0: 3e77 fe3c 3d36 3dbc 5637 783d 7ea2 413d
000003b0: 7b6f 87bb 16eb a2bd 35ce b3bb 7142 19bd
000003c0: 08d1 493d e8b7 0dbd b683 b23d a400 b8bc
000003d0: 33b2 8fbc 086a 603d 4d53 91bd b7d1 853d
000003e0: b302 813d f0e7 99bd 37a1 e5bc d5d0 8b3d
000003f0: 91eb 703d e94c 1bbd 9bb9 7d3d 0775 15bd

bias f4 [128]
-0.022019794 0.050246328 0.06708496 -0.034168612 0.06523892 0.07012997 -0.09207833 -0.008929638
0.060356833 0.06240914 0.035347562 -0.012772716 0.075672664 0.009724348 -0.037209682 0.006683884
0.029671252 0.06542012 -0.03459144 0.013016763 0.014721486 0.030769894 -0.035223737 -0.025956485
0.06393401 -0.047103785 0.1045907 0.08840706 0.017278608 -0.048701726 0.04042725 0.09759316
0.073533 -0.054831956 0.09259096 -0.018157437 0.029309567 0.047608633 -0.069500566 0.0652608
0.083429 0.071918316 -0.061092682 0.08216022 -0.100602 -0.023714747 -0.042444758 0.073005535
-0.033314463 -0.010772276 -0.052197393 0.013249009 0.041715525 -0.0844728 0.029619595 -0.044827297
0.09285979 -0.05272696 -0.04144898 -0.020009035 0.032052804 0.051102474 0.053132154 -0.05209778
-0.016246548 -0.03040675 0.08764825 -0.029522913 -0.002284398 0.07779977 -0.07838691 0.08989987
-0.009727918 -0.022420038 0.050580323 -0.013620122 -0.002429294 -0.023765026 0.034999583 0.026158165
-0.029820984 -0.054514572 -0.013029212 0.041934393 0.013480833 0.06775382 -0.030850079 0.027885193
-0.02110005 0.0035643457 0.028828656 -0.024985509 -0.012428979 0.0035782207 0.08187653 -0.06439279
-0.076158546 0.010991334 -0.058393344 -0.04084564 0.07357404 -0.04481296 0.030683797 0.058861136
0.08320236 -0.061701875 -0.008252789 0.045230538 -0.08121595 0.08137136 -0.04236649 -0.030552393
0.06766961 -0.06243147 0.10271248 -0.020112256 -0.02102214 0.09060945 0.022107352 -0.053040832
-0.033880033 0.008080829 0.048506644 -0.013648131 0.047009286 0.052028935 0.030510861 -0.04477731
00000000: db62 b4bc 18cf 4d3d d763 893d 63f4 0bbd
00000010: fc9b 853d 4da0 8f3d 9093 bcbd 9e4d 12bc
00000020: ba38 773d baa0 7f3d 9bc8 103d a744 51bc
00000030: 45fa 9a3d df52 1f3c 2e69 18bd 7c04 db3b
00000040: 2011 f33c fcfa 853d c1af 0dbd 4344 553c
00000050: 6332 713c 2511 fc3c c446 10bd b2a2 d4bc
00000060: d6ef 823d e6ef 40bd a633 d63d c30e b53d
00000070: de8b 8d3c 767b 47bd 0b97 253d ecde c73d
00000080: 7898 963d 7997 60bd 54a0 bd3d e8be 94bc
00000090: 9e1a f03c 4501 433d 5056 8ebd 74a7 853d
000000a0: d3dc aa3d e949 933d 523c 7abd 9e43 a83d
000000b0: 6c08 cebd 6e45 c2bc 8eda 2dbd ed83 953d
000000c0: bf74 08bd 337e 30bc efcc 55bd 5f12 593c
000000d0: e6dd 2a3d 1300 adbd cba4 f23c d49c 37bd
000000e0: 462d be3d 3af8 57bd 68c6 29bd fde9 a3bc
000000f0: cd49 033d d450 513d 1aa1 593d 7b64 55bd
00000100: 7b17 85bc 9417 f9bc ed80 b33d 09da f1bc
00000110: d7b5 15bb 7c55 9f3d 5189 a0bd 6c1d b83d
00000120: d861 1fbc 3aaa b7bc 502d 4f3d ef26 5fbc
00000130: ca34 1fbb dfae c2bc b95b 0f3d a649 d63c
00000140: 234b f4bc ac4a 5fbd 7a78 55bc 66c3 2b3d
00000150: b6de 5c3c 84c2 8a3d 4eb9 fcbc 7d6f e43c
00000160: 03da acbc cc97 693b 132a ec3c 69ae ccbc
00000170: eba2 4bbc 9580 6a3b e2ae a73d 5ee0 83bd
00000180: 03f9 9bbd ff14 343c dc2d 6fbd c24d 27bd
00000190: fcad 963d cb8d 37bd 965c fb3c 6018 713d
000001a0: 0066 aa3d 1bbb 7cbd b536 07bc a843 393d
000001b0: 8c54 a6bd 07a6 a63d 7c88 2dbd 0349 fabc
000001c0: 5d96 8a3d 24b8 7fbd ec5a d23d 75c2 a4bc
000001d0: 9f36 acbc 7391 b93d 7a1a b53c 5841 59bd
000001e0: cac5 0abd 7465 043c e7ae 463d 699c 5fbc
000001f0: cf8c 403d 4b1c 553d eaf1 f93c 6a68 37bd

weight f4 [1, 128]
-0.07113785 -0.018655704 -0.08360116 -0.048307072 -0.05826294 0.045866605 0.04248257 0.050278876
-0.08755085 -0.075482436 0.009949628 -0.038499616 -0.040271543 0.09916646 0.012854558 -0.057243016
0.0036217903 0.0846934 -0.022809653 0.110416174 0.020911336 0.07265062 -0.09359898 0.047397457
-0.01934532 -0.025393877 0.08539288 0.014182412 0.06909801 -0.00081775454 -0.07113413 0.022560302
-0.09255 -0.043515403 0.08499356 0.09187693 -0.074787326 -0.056235623 -0.057308607 -0.04162288
0.05372651 0.09044947 -0.081085704 0.030683154 -0.08904832 0.04444695 -0.04719003 0.022545902
0.074155726 0.088284045 -0.018340126 0.04956531 0.014582695 -0.0005474517 -0.04126024 -0.037792753
0.09387385 0.0093613565 -0.041345295 -0.07276881 -0.06956151 -0.017088404 0.020693595 -0.05042264
0.1092568 0.025726091 0.02579919 -0.100212984 -0.005562128 0.080406286 0.008573085 0.040182445
-0.029214151 0.022013405 0.02876203 -0.0020432721 0.018974816 0.050287478 0.026892168 0.051739857
0.027891481 -0.07969748 -0.02051459 0.0911446 -0.06626298 0.02464205 0.021818327 -0.07254581
-0.022190515 -0.020083033 0.103965394 0.053154707 -0.04050222 -0.0904851 -0.058137756 -0.0029355003
-0.013524603 -0.061887704 -0.065627776 0.0621105 -0.07317677 0.077273816 0.06801418 -0.019090574
0.067400105 -0.09246203 -0.013250158 0.014955533 -0.06730897 0.08738926 -0.045203913 0.070489
-0.07047262 -0.0681283 0.04279443 0.006431967 -0.04168045 -0.09750007 -0.04754454 -0.029290054
0.10434789 0.10229731 -0.01797923 0.08121191 -0.07369534 -0.02896746 -0.02170588 -0.0068170023
00000000: b9b0 91bd d9d3 98bc 1637 abbd a3dd 45bd
00000010: 1fa5 6ebd 9fde 3b3d 3402 2e3d 39f1 4d3d
00000020: dc4d b3bd 8996 9abd c403 233c c6b1 1dbd
00000030: c6f3 24bd c917 cb3d ed9b 523c a777 6abd
00000040: 8f5b 6d3b bc73 ad3d 4fdb babc e021 e23d
00000050: 404e ab3c d9c9 943d d2b0 bfbd d623 423d
00000060: 147a 9ebc d206 d0bc 76e2 ae3d 595d 683c
00000070: 4283 8d3d 945e 56ba c5ae 91bd 62d0 b83c
00000080: db8a bdbd 353d 32bd 1b11 ae3d f929 bc3d
00000090: 192a 99bd 5357 66bd 6ebc 6abd c17c 2abd
000000a0: 5410 5c3d 923d b93d 4310 a6bd 3d5b fb3c
000000b0: f75e b6bd 010e 363d 554a 41bd 2fb2 b83c
000000c0: f5de 973d 44ce b43d 083e 96bc ff04 4b3d
000000d0: 42ec 6e3c dd82 0fba 7f00 29bd 93cc 1abd
000000e0: ef40 c03d 6060 193c af59 29bd d007 95bd
000000f0: 4476 8ebd fbfc 8bbc 9d85 a93c f887 4ebd
00000100: 07c2 df3d 86bf d23c d358 d33c 773c cdbd
00000110: 8342 b6bb 0dac a43d 2076 0c3c 5996 243d
00000120: 8452 efbc 7555 b43c 599e eb3c 6be8 05bb
00000130: 1371 9b3c 3efa 4d3d f74c dc3c 2ced 533d
00000140: ad7c e43c 6f38 a3bd 370e a8bc 05aa ba3d
00000150: e3b4 87bd 20de c93c 59bc b23c e692 94bd
00000160: e2c8 b5bc 2c85 a4bc cfeb d43d c0b8 593d
00000170: a8e5 25bd 4150 b9bd db21 6ebd 8661 40bb
00000180: 4c96 5dbc f67d 7dbd db67 86bd 9467 7e3d
00000190: b4dd 95bd bc41 9e3d 054b 8b3d d663 9cbc
000001a0: 1109 8a3d bc5c bdbd 3117 59bc 0d08 753c
000001b0: 49d9 89bd 24f9 b23d bd27 39bd 895c 903d
000001c0: f353 90bd da86 8bbd 3649 2f3d 40c3 d23b
000001d0: 1fb9 2abd 1eae c7bd 10be 42bd b2f1 efbc
000001e0: 59b4 d53d 4181 d13d 2e49 93bc 6e52 a63d
000001f0: 95ed 96bd 2b4d edbc 88d0 b1bc 2961 dfbb
