Dry fermentation prediction and optimization system/optimize_digester/Predictor_Digester Biogas Production/models/NeuralNetTorch_BAG_L1/S1F1/net.params (torch, 207367 bytes, 9 tensors)

weight f4 [128, 5]
000000 7a d5 61 bc f8 20 71 3e ef 7b bc be 50 0e aa be
       -0.013783807 0.23547733 -0.36813304 -0.33214045
000010 92 78 33 be d6 f1 fd 3d 3f af eb bc 7c fd e4 3e
       -0.17526463 0.12399642 -0.028770087 0.44724643
000020 dc bf eb bc 97 59 04 3e ae 45 e7 bd 55 ac f9 bd
       -0.02877801 0.12924801 -0.11292587 -0.12191073
000030 15 e9 d1 be ab fe 96 be ed 79 3b be be bd 85 3c
       -0.4099814 -0.2949117 -0.1830823 0.016325828
000040 e8 3b 4f 3e 50 d0 97 3e 24 cf 90 be 8d 93 32 be
       0.20237696 0.29651117 -0.28283036 -0.17439099
000050 fd 92 54 3e 07 6a b8 3e 70 da 27 bd 94 8c ab 3e
       0.20759197 0.36018392 -0.040979803 0.3350569
000060 b6 cd 92 bd bf 15 6c 3d fa a4 c0 3e cd 31 d6 be
       -0.071681425 0.057637926 0.37625867 -0.4183487
000070 18 d3 92 be d5 94 f2 bd 58 77 39 be 6f 85 c4 3e
       -0.28676677 -0.11844794 -0.18111932 0.38383052
000080 ca 97 94 be ba 19 55 be c2 1d a1 be 12 64 d1 be
       -0.29022056 -0.20810595 -0.31468016 -0.4089666
000090 71 45 8d be 7e d9 db 3e a0 fe 3d 3e c8 9a 4f 3e
       -0.27592042 0.4293937 0.18554163 0.20273888
0000a0 67 aa 8c 3c d5 11 81 be 01 81 8f 3d 0f a2 d4 be
       0.017171098 -0.25208917 0.070070274 -0.4152989
0000b0 4f 4a a4 be 67 ba 7c be ab f3 97 3e cb 94 86 3e
       -0.32087943 -0.24680482 0.2967809 0.26285395
0000c0 8f b5 58 be 9b 16 f1 bc e8 1b a6 3e 36 0f e3 3e
       -0.21163009 -0.029429724 0.32443166 0.44347543
0000d0 01 99 64 3e 27 5a 6e 3d 8a 62 98 3e 24 a0 89 be
       0.22323991 0.058191445 0.2976268 -0.2687999
0000e0 9a f1 a3 3d 55 9e ad be 2f 45 a1 be 41 b6 71 be
       0.08005066 -0.3390986 -0.31498095 -0.2360468
0000f0 0f 4c 64 3e 27 82 56 3e 05 5f 8f be 55 36 eb 3d
       0.22294639 0.20948087 -0.28002182 0.114849724
000100 3a a8 66 3e 94 c5 ef bc 6a 96 6b 3c e7 2d f5 3d
       0.22525111 -0.029269017 0.014379123 0.11971646
000110 f2 04 87 3e 16 d4 d4 3e 5d 16 bb be d6 9a 31 be
       0.2637096 0.4156806 -0.365405 -0.17344221
000120 a9 57 36 3e 58 45 b5 3e 38 cf be 3e b1 73 d1 3e
       0.17806877 0.35404468 0.3726747 0.40908578
000130 a0 4d 71 3d 4d 6a d0 be cd a2 0e 3d 1c 7b 92 be
       0.05891192 -0.407061 0.034823228 -0.2860955
000140 6a 88 d5 be dc 1f d5 3e f5 9c b1 3e 5f 3c e6 be
       -0.41705638 0.4162587 0.3469006 -0.44967934
000150 59 1d a4 3d e5 4c 02 be b7 d3 94 bd 53 0c 8a be
       0.0801341 -0.12724645 -0.07266944 -0.26962528
000160 6a 4f 3d 3e 01 05 81 be a5 21 17 3e 2f 4e 8a 3e
       0.18487325 -0.2519913 0.14758928 0.27012774
000170 5a 9c b5 3e 60 35 30 3e 40 22 e0 be 60 f7 8f be
       0.3547085 0.17207861 -0.4377613 -0.2811842
000180 f1 f4 54 3e b2 aa e2 3d 95 21 b0 be 2c 5c 81 be
       0.20796563 0.11067714 -0.3440062 -0.25265634
000190 d8 bf d1 3e cd f8 a1 3e 8a be 39 be d1 cb cd bd
       0.40966678 0.31635132 -0.18139091 -0.100486405
0001a0 82 f0 d3 be 03 ca 15 bd c1 77 a9 be eb a1 c1 be
       -0.4139443 -0.036569607 -0.33099177 -0.37818846
0001b0 8f cd 28 bd 59 29 4f 3d d0 02 55 be 62 41 8e 3e
       -0.04121166 0.05057654 -0.20801854 0.27784258
0001c0 1e f9 a3 be fa 82 c6 3e d9 a9 93 3e 10 71 d8 be
       -0.32026 0.38771802 0.2884052 -0.4227376
0001d0 32 80 f3 bd 9d ea d8 bc 64 44 83 3d 14 dd d6 3d
       -0.11889686 -0.02647906 0.06409529 0.10491386
0001e0 f0 9e 36 3e a1 a7 32 bc 66 57 75 be 6b 2e 54 3e
       0.17834067 -0.010904224 -0.23959121 0.20720832
0001f0 43 e6 dd be 92 ff 8f be 8d 03 0e be 79 2c 75 be
       -0.43339738 -0.28124672 -0.13868542 -0.23942746
000200 32 7b 23 be 40 4f bd be 1e b1 0d be 65 82 77 3d
       -0.15964964 -0.36974525 -0.13837096 0.06042709
000210 a5 3a b0 be cf a8 07 bd 4f b4 9e 3e a6 ae 99 bd
       -0.34419742 -0.033119973 0.3099694 -0.07504015
000220 7a 4e 24 3a 23 18 9b bd 18 e4 a4 3d 18 79 8c 3e
       0.00062677974 -0.07572963 0.08051318 0.27436137
000230 4e 05 e4 3e ac 11 83 3e 11 71 db 3e af 2c 39 bd
       0.44535297 0.2559942 0.428597 -0.04520863
000240 59 47 d4 be 18 a5 6a be 5d a7 a1 3e a0 88 32 3c
       -0.41460684 -0.22914541 0.31573 0.010896832
000250 6d f9 61 be 44 a4 ae be 65 f8 e1 be 35 55 db be
       -0.22067805 -0.341097 -0.44134822 -0.42838445
000260 3d e9 c9 bd 03 f8 69 3e af 69 66 3e 37 8b e1 be
       -0.0985894 0.22848515 0.22501253 -0.44051525
000270 82 88 87 3e b7 d4 b3 be 86 fb c7 bd 7f dc 3c be
       0.26471335 -0.35123226 -0.09764771 -0.18443488
000280 e5 74 a2 bd 1b bb c5 bd ca 35 d0 be b2 65 c3 be
       -0.07932452 -0.09654828 -0.40666038 -0.38163525
000290 40 17 86 bd ce 25 e9 3c 64 2d 71 be 8c 97 31 3e
       -0.06547403 0.02846041 -0.23552471 0.17342967
0002a0 ad 07 cb be 23 4c c6 bc 37 70 c9 3e 2b 2c 3b be
       -0.39654294 -0.024206227 0.39343426 -0.18278567
0002b0 bc 79 ce 3e 05 d5 0a 3e 9a 25 dc be 86 6b 9d 3e
       0.4032725 0.13557823 -0.42997438 0.30746096
0002c0 69 f5 ad bd c5 ae 22 be 31 02 b8 3e 78 1f b8 be
       -0.08494074 -0.15886982 0.35939172 -0.3596151
0002d0 9a d5 b6 3d 07 ff ab bd fb c3 bf 3e ee 7e e3 3d
       0.0892746 -0.08398252 0.3745421 0.11108194
0002e0 ea f5 4d 3e df d8 34 3e 7f 01 09 be f4 1f b0 bd
       0.2011334 0.17660855 -0.13379477 -0.085998446
0002f0 fe af b8 be ac 12 80 3e 2e 97 ba 3e 30 36 ae 3e
       -0.3607177 0.25014246 0.36443466 0.34025717
000300 a6 10 98 be de b0 6f 3d 6f a9 8d be 20 6f 75 be
       -0.29700202 0.058518283 -0.2766833 -0.23968172
000310 80 49 92 be 0a 0f 17 3e 1f bf 86 be 5a d4 d2 bb
       -0.285717 0.1475183 -0.2631769 -0.0064340057
000320 db fc c2 3c e1 7e 7b 3e f8 f3 b5 be f3 db 9f be
       0.023802212 0.24560119 -0.35537696 -0.31222495
000330 48 9f 87 be 4d bb a8 3e 86 d3 2c be ce ad de 3e
       -0.2648871 0.329554 -0.16877565 0.43491977
000340 ce a7 22 3e 98 2f 5c 3d 0f 52 51 3c 94 78 ed bd
       0.15884325 0.053756326 0.012775912 -0.11595264
000350 fe 1c 70 3d 48 e1 cb bd 22 8e 16 ba ef 3a 81 3d
       0.0586214 -0.09955078 -0.00057432253 0.06310069
000360 f2 9a d3 be 74 ea 4c be 56 f4 bb 3e 2c c3 b6 be
       -0.4132915 -0.20011312 0.3670985 -0.3569578
000370 87 58 b8 bc cc dc ed 3e 2b b5 57 3e a8 6b 89 3c
       -0.02250315 0.46457517 0.21065204 0.016774967
000380 09 53 c4 be 38 6b 73 3e 4d ff b7 be 9e a0 e7 bd
       -0.383446 0.2377137 -0.35936967 -0.11309932
000390 5b 59 10 be 2a 11 6a bd d2 b3 0e 3d c6 16 bb 3e
       -0.14096586 -0.057145275 0.03483946 0.36540812
0003a0 3d 51 a3 3d 95 ed c6 3e 75 e7 85 3e a2 01 97 be
       0.07974479 0.38853136 0.2615315 -0.29493433
0003b0 3f 41 45 3e 26 0b a2 be 7c fc 48 be 40 97 ff 3d
       0.1926317 -0.3164913 -0.19627565 0.124800205
0003c0 19 56 50 3e e7 7e b7 3e 53 73 bb bd 32 55 af 3a
       0.20345344 0.35839006 -0.09152856 0.0013376831
0003d0 f3 65 6c 3e c7 ca f0 be 15 01 88 3e f6 c0 e4 be
       0.23085766 -0.47029707 0.26563326 -0.44678468
0003e0 50 6b b1 3c ae f8 77 bd 31 76 6f be a5 f4 53 3d
       0.021657616 -0.060539894 -0.2338493 0.051746983
0003f0 0b fa bc 3e e3 49 03 be b2 a6 86 be b4 0f 28 be
       0.36909518 -0.12821154 -0.26299053 -0.1641224

bias f4 [128]
000000 02 77 89 be 9f ca 9a 3d c7 be 16 3e 9b 5f 1e bc
       -0.26848608 0.07558178 0.14721213 -0.009666349
000010 bd 3f 94 be 7b b8 da 3e 8e 8e 87 be 8f 71 b1 3e
       -0.28954878 0.42718872 -0.26475948 0.3465695
000020 f7 29 bc be e8 8d de bd cf d0 75 3e 3f e1 45 be
       -0.36750767 -0.1086691 0.24005435 -0.19324206
000030 2c 40 b6 3e 84 99 a4 be e2 ba c8 be e3 87 51 be
       0.35595834 -0.32148373 -0.3920508 -0.20461993
000040 28 93 6f 3d 19 0e de 3e 26 3b 68 be 28 f9 1f 3e
       0.05848995 0.4337013 -0.22678813 0.1562239
000050 87 20 f1 bd 87 9a d0 bd 12 6d 9d 3e 3e 86 b2 be
       -0.11773782 -0.10185724 0.30747277 -0.34868044
000060 78 73 4d 3d 97 bd da 3e 13 00 90 bd 75 c8 ab 3e
       0.050158948 0.4272277 -0.07031264 0.33551374
000070 55 bc ee bd db 9a b2 3e ab a5 e7 be f1 72 8e bd
       -0.11657015 0.3488377 -0.45243582 -0.06955517
000080 f9 2b b5 bd 40 61 12 3e 68 41 2a 3e 0b 27 a9 3e
       -0.08846278 0.1429491 0.16626513 0.330376
000090 df 9c ae bd 38 13 fa bc b6 64 98 3e da 38 0b be
       -0.085260145 -0.030526742 0.29764336 -0.13595906
0000a0 55 f6 cb 3e e0 e3 9a be b0 9d 5f bd 1d f5 c4 bc
       0.39836374 -0.3025198 -0.054593742 -0.02404266
0000b0 70 fc 4a 3e ad 09 9d 3e cc d1 a9 bd 0a c1 be be
       0.1982286 0.30671445 -0.08291969 -0.37256652
0000c0 ee 35 6b 3e f1 27 20 3e 20 3c 2c 3e 02 2e 90 be
       0.22969791 0.15640236 0.16819811 -0.281601
0000d0 aa d1 8e 3e 4c 7f d0 3e 7b ed 9d 3d 37 31 d1 be
       0.27894336 0.4072212 0.077113114 -0.4085786
0000e0 b3 76 a2 3e d1 8e 9d be 36 65 dc 3d 10 de 93 3d
       0.31731185 -0.30773023 0.10761492 0.072200894
0000f0 96 4a 6a be 9e 43 13 3e cb 2a c4 be e6 b7 ca 3d
       -0.22880015 0.14381263 -0.38313898 0.09898357
000100 0d b0 95 be 35 2a 5e bd e2 59 98 3d d3 28 c3 3e
       -0.2923588 -0.05423947 0.07439019 0.38117084
000110 6d 82 5f be be 4d a4 3e 7a 58 91 bd 29 ed 56 be
       -0.21827097 0.32090563 -0.07096954 -0.20988907
000120 93 5f d8 be 1d 67 cf be 97 e3 dd 3e 58 88 f1 bd
       -0.42260417 -0.40508357 0.433377 -0.11793584
000130 33 bc 38 3c 9a 75 f5 3d 2c f8 98 3e 45 25 cc 3e
       0.011275339 0.11985321 0.2987684 0.39872184
000140 23 35 b1 3e f5 9f 9f be c6 72 b5 bd 28 7b 8f be
       0.34610853 -0.31176725 -0.08859782 -0.28023648
000150 72 41 8c be 9f 5d fd 3d 98 ce c8 3e 21 54 ba be
       -0.2739368 0.123713724 0.3922012 -0.3639231
000160 c8 fc 9b 3e 9a fb 68 be 6f 04 90 bd 4f aa bc 3e
       0.30466294 -0.22752228 -0.07032096 0.36848685
000170 f5 40 06 be 43 a0 3b 3d d2 f9 96 be fa e6 c8 3e
       -0.13110717 0.045807134 -0.29487473 0.3923872
000180 a6 e1 95 bd 85 d2 85 be 9a c0 f8 3d 2f a9 ac be
       -0.0731843 -0.26137176 0.12146111 -0.33722827
000190 3a 5f bf be 4b 5e 9d 3c 99 8c bd 3e d6 8e 12 be
       -0.3737734 0.019210001 0.3702133 -0.143123
0001a0 ac 77 55 3e fb 5b ca 3e b1 d9 97 3e 3b 2b 79 be
       0.20846432 0.395233 0.29658273 -0.24332897
0001b0 1d ec 3b bd c2 cd 17 be fe 42 c2 be e2 60 20 bc
       -0.045879472 -0.14824584 -0.37941736 -0.009788724
0001c0 94 f8 ae 3e aa 70 b1 3e c1 7a 15 3d 15 3d b7 3d
       0.34174025 0.34656268 0.03649402 0.08947197
0001d0 dc 0f 47 be 85 aa a0 3e 4d d0 53 be 18 f7 aa be
       -0.19439644 0.31380096 -0.20684929 -0.33391643
0001e0 5c 90 46 3d 73 b7 88 3e a1 63 c9 be 88 6a ca 3e
       0.048477516 0.2670246 -0.39333823 0.39534402
0001f0 17 3d 3b 3e fc 5e 9e be cf 6a c4 bd 36 53 dc 3e
       0.18285023 -0.30931842 -0.095906846 0.43032235

weight f4 [128, 128]
000000 0a db 92 bd 67 11 9f bc 3a 3b c2 3c 4e 45 9c bd
       -0.07170685 -0.019417478 0.023709882 -0.07630406
000010 3f ad 21 3d 9b 6e 1a 3d 09 0d 5c 3d fb 9b 64 bd
       0.03947186 0.037703138 0.05372337 -0.055812817
000020 a2 16 bc 3d e5 bc 5e bd 0e fc 99 3d 56 0f b1 bd
       0.09184004 -0.054379363 0.07518779 -0.08645503
000030 d8 a0 a6 bd af 68 64 3d c7 d6 1b 3c 19 74 92 3b
       -0.08136147 0.055763897 0.009511656 0.0044694063
000040 05 ef 4e bd 6c 9e a2 bd ab a1 b9 bc 3a c1 c1 bd
       -0.050520916 -0.07940373 -0.022660097 -0.09460683
000050 70 7b 4b 3b 6d 47 e3 3c e4 26 42 bb 07 25 07 3d
       0.0031048916 0.02774402 -0.0029625231 0.032994296
000060 91 f7 a6 3d 75 f6 90 3c d1 68 10 bd 99 05 08 bd
       0.08152688 0.017695645 -0.03525621 -0.033208463
000070 00 5e 5f bd 55 9d 8d bd ec d3 c2 bb 72 6c aa bc
       -0.054533005 -0.06914774 -0.005945673 -0.020803664
000080 1a f6 11 3d c8 41 24 bd 67 f2 7c 3d 8a 6a 7d bd
       0.03563509 -0.040101796 0.06175461 -0.06186918
000090 50 eb 7f bb 84 22 a2 3d 86 c2 99 3d d8 41 51 bd
       -0.003905017 0.079167396 0.075078055 -0.051088184
0000a0 1c ba 1c 3c 62 99 68 3c 11 48 1b bd ea 61 0e 3c
       0.009565856 0.014196726 -0.037910525 0.008690337
0000b0 12 a4 d0 3c fb 74 a0 bd bd 83 31 ba 9b 22 af 3c
       0.02546886 -0.07834812 -0.00067716447 0.021378806
0000c0 0b d0 54 bd 2e ab bb 3c 5f 81 ba bb 4f e1 32 3d
       -0.051956218 0.022908773 -0.005691692 0.043671902
0000d0 d2 77 a5 3d bd 8d ca bc 93 6d ea 3c 1c 86 83 bd
       0.080794945 -0.02472579 0.028616702 -0.06422064
0000e0 82 66 8a bb 4b a3 c4 bd 35 23 f7 3b 5c ba 84 bd
       -0.0042236457 -0.09601458 0.007542039 -0.06480858
0000f0 a3 6d 8d 3c f8 98 fa b9 24 09 81 3d 1a e9 cd bb
       0.017264193 -0.00047797686 0.063005716 -0.0062838914
000100 76 eb 1a 3c 14 5e 04 be bc 8a 62 bd 68 c2 02 3d
       0.009455552 -0.12926513 -0.05530809 0.03192368
000110 4c d2 4a bc 69 0e db bd 32 a4 2a bd 04 b5 07 3d
       -0.01237924 -0.10696108 -0.041660495 0.033131614
000120 9b a5 63 bc 09 f5 69 3d a5 c7 1c bb 7c 64 df 3c
       -0.013894464 0.05711845 -0.0023922708 0.027269594
000130 ea 4d 0b 3d eb 4b 41 bd b8 a8 08 3d b2 55 34 3d
       0.03400985 -0.04719154 0.033364028 0.044027038
000140 dd 7e 42 3b 0a c0 0f bc 48 d6 b2 3b b2 db 76 3d
       0.0029677667 -0.008773813 0.005457673 0.06026811
000150 6b 85 16 bd 02 f0 cb bd c8 41 40 3d c3 b9 a0 bd
       -0.03674833 -0.09957887 0.046937734 -0.07847931
000160 07 7c 7e bc 30 55 24 bd 08 37 0b bd 82 d3 ac bd
       -0.0155325 -0.040120304 -0.03398803 -0.084387794
000170 24 ec 64 3d 03 20 ae 3d b6 19 bd bc 43 20 f9 3b
       0.055889264 0.085021995 -0.023083549 0.007602723
000180 6c b1 d3 3d 6b 67 d3 bd 7a e2 cb bb 09 2d 27 bd
       0.10336575 -0.1032246 -0.0062220665 -0.040814433
000190 f4 ac 90 bc f5 0b 81 bb 1f 4d a9 bc 7d dc 36 bb
       -0.017660595 -0.003938193 -0.020666657 -0.0027902417
0001a0 2d d7 b3 bd 8c f9 43 bb 65 cc a8 bb e7 7c 7a 3c
       -0.08781276 -0.002990338 -0.005151319 0.015288568
0001b0 ea f0 86 3d 8d 4b c4 3d 86 db f2 bc a0 b6 7f bb
       0.065889195 0.09584723 -0.029645693 -0.0039018765
0001c0 99 f3 90 bd bd 6d a8 bd a4 bb 84 bd 3b b4 a6 3d
       -0.070777126 -0.08224056 -0.06481102 0.08139845
0001d0 60 2f 52 3d d8 f7 2e 3d 5a 3a 5b 3d 78 6b 8f bd
       0.05131471 0.04271683 0.053522445 -0.0700292
0001e0 80 e3 86 3c b9 2b 94 3d 3d ee 71 bd 8c 89 97 3d
       0.016465902 0.07234902 -0.059065092 0.07399282
0001f0 95 9d b6 3c 44 df 66 3d 9f 4c 3d bd e1 1d e0 3b
       0.022291938 0.056365266 -0.04621565 0.0068394993
000200 5e 57 9a bd 3f aa 37 bd a8 c8 fe 3c d4 f0 06 3d
       -0.07536195 -0.044840094 0.03110154 0.032944515
000210 b0 a8 8a 3d fe fc a6 3d 20 84 ac 3d b8 1a 76 3d
       0.06770456 0.08153723 0.08423638 0.060084075
000220 86 d6 8e 3d 80 68 14 bb da ba a8 bd 28 cf 02 bd
       0.06974511 -0.0022645295 -0.08238764 -0.03193584
000230 02 45 cd bb a3 8d 3d bd 41 13 3a 3d 84 2c 40 3d
       -0.00626433 -0.046277653 0.04542852 0.046917453
000240 a6 f0 a7 3c dc bd 56 3d b1 12 9c 3d c5 da 00 3d
       0.020500492 0.052427158 0.076207526 0.031458635
000250 2d ce 8b bd bc 90 2b bd 70 e9 13 3d 67 7d f3 3c
       -0.06826434 -0.041886076 0.036111295 0.029722882
000260 3e e0 67 3d ab 5e b0 bd 32 82 9a bd b3 98 60 3d
       0.05661034 -0.086118065 -0.07544364 0.054833125
000270 fd fb 83 3d 8a 95 ad bd 0b 42 38 3d 1a 6b 92 bd
       0.06444547 -0.08475788 0.04498486 -0.07149334
000280 2c be 95 3d ee bf 1c 3d 26 a0 c5 3d 66 1e b4 bd
       0.07311663 0.038268976 0.096496865 -0.087948605
000290 c6 38 b2 bd b8 76 9b 3d 21 19 a4 3d 60 fe 89 3d
       -0.08702235 0.07591003 0.080126055 0.06737971
0002a0 b5 cb 7c 3d 5d 2d d3 bd 7a 11 ac 3d 83 48 7c bd
       0.061717708 -0.10311387 0.08401771 -0.06159259
0002b0 c6 ba b7 3c 0e b1 3c bd 66 a3 07 bd a4 7d 2a 3c
       0.022427928 -0.04606729 -0.033114813 0.010405932
0002c0 92 c0 22 bd 6e a0 84 3c 22 0c a2 bd f0 29 95 bd
       -0.03973443 0.01618978 -0.079124704 -0.072833896
0002d0 de 02 19 3d 22 c2 11 bd f3 4d fa bc 4f 1d 2e bc
       0.03735625 -0.03558553 -0.030554747 -0.010627105
0002e0 89 b5 81 bd 8b a5 22 bd 83 c9 0d 3d 70 aa 82 3d
       -0.06333453 -0.039708655 0.034616005 0.063801646
0002f0 51 b8 d0 3c c8 37 30 bd 58 7d 5b 3d 33 45 a3 b9
       0.025478514 -0.043021947 0.053586334 -0.0003114134
000300 b0 55 76 bd ad 7b 5c 3d 82 40 c8 3d 9c 82 b8 bd
       -0.06014031 0.053828884 0.09777929 -0.09009287
000310 95 82 c7 bd 81 32 00 3d d0 74 95 3d 14 aa 12 bd
       -0.097417034 0.031298164 0.07297671 -0.03580673
000320 37 e7 fe 3c 94 a5 8c 3d da 58 e5 3c 1d f8 98 3c
       0.031116111 0.06867519 0.02799647 0.018672997
000330 0f 45 a2 3d 92 46 2f 3d 7a 8c 40 bd 9e 4f 82 3b
       0.07923328 0.04279191 -0.04700897 0.0039767763
000340 a4 4c 41 3d 66 9e 99 3d da 77 b8 bd fc 12 5c 3d
       0.04719223 0.07500915 -0.09007235 0.053729042
000350 b9 9d a6 bc 1e 49 4f bd 5f fc 03 3c e6 8b 3c bd
       -0.02033888 -0.05060684 0.008055775 -0.046031855
000360 d5 d0 20 3d b5 0d 28 bd ea 46 13 bd 87 d2 05 3b
       0.039261658 -0.041028697 -0.0359563 0.0020419674
000370 03 4c 8b bc 35 a8 65 3d 25 d1 c7 bb da 2a b5 3d
       -0.017004019 0.056068618 -0.00609793 0.08846064
000380 05 5c 0a 3d a9 70 83 bc 27 c2 3e 3d 4b e6 46 3c
       0.033779163 -0.016044931 0.046571877 0.012139867
000390 d0 9f c2 3c 07 74 24 bd e2 f3 4a 3c a9 8d c1 bc
       0.023757845 -0.040149715 0.012387248 -0.02362712
0003a0 ee ad d4 b8 97 ee 8b bd 15 b6 89 3b 2c 4f 31 bd
       -0.00010141345 -0.06832617 0.004202614 -0.043288395
0003b0 b5 bb 52 bc 8a 4b 2f 3d 98 4c 19 bd ec a7 5a bd
       -0.012862136 0.04279665 -0.03742656 -0.0533828
0003c0 23 7c 59 3c 0b 95 c5 bc db ba a9 3c 10 6b 74 3c
       0.013274225 -0.02411892 0.020718982 0.014918104
0003d0 05 11 9f 3d 35 35 7f bd 5a 43 4d 3b e9 59 3c 3d
       0.07766918 -0.0623066 0.0031320662 0.045984183
0003e0 5d da bb 3d c2 89 35 bc da ec 96 bc 11 e3 89 3c
       0.09172509 -0.011080207 -0.018423487 0.016831907
0003f0 83 ba 51 3d d1 44 50 bd 87 38 92 bd 32 fc 85 3d
       0.051203262 -0.05084688 -0.07139688 0.06542243

bias f4 [128]
000000 09 e7 73 3d c5 c3 c7 bc 53 4b 4e bb c7 ef 39 3d
       0.059546504 -0.024385342 -0.0031478002 0.045394685
000010 75 33 30 bb e2 4f 96 bd 82 e3 96 bd e2 3f 6e 3a
       -0.002688614 -0.07339455 -0.073676124 0.0009088499
000020 4e 2f 65 3c ab 7c 78 3d 8a 38 25 3d 86 ff a7 3d
       0.013988329 0.060665768 0.040337123 0.08203034
000030 6e 82 4a 3d 83 35 47 3d 63 ac 9b 3d 74 2c 19 bd
       0.049440794 0.048635017 0.076012395 -0.03739591
000040 11 7a 0b 3d 94 14 f1 bc 5d 71 a8 3c f8 67 2e 3d
       0.03405196 -0.029428758 0.020561868 0.04257962
000050 22 87 b0 bd c5 67 8c 3d fb f6 a3 3c de 46 c4 bc
       -0.086195245 0.0685573 0.02001523 -0.023959573
000060 4d 0c 18 bd e3 88 a4 bc 2b d7 ac 3c 6d ac df bb
       -0.037121106 -0.020084804 0.021098694 -0.0068259747
000070 74 8f 95 3c 27 ff c4 bc 77 49 49 bc ae eb 88 3d
       0.01825688 -0.024047447 -0.012285582 0.06685577
000080 fa 9d b1 bd db 28 5c bc 90 15 44 3d 77 3d 28 3d
       -0.0867271 -0.013437475 0.047872126 0.041074242
000090 c1 31 70 3c ba a7 5e 3d 28 4d a0 bd 52 cb 8e bd
       0.0146603 0.054359175 -0.078272164 -0.06972374
0000a0 f7 d7 b1 bd 8c 09 8d 3d ae f8 7a 3d a8 1f 6c 3d
       -0.0868377 0.068865865 0.061272316 0.057647377
0000b0 2b c3 b1 3d 9e f0 0b bd 7f 74 a5 3d 2f 78 50 3a
       0.086798035 -0.034165017 0.080788605 0.0007952479
0000c0 38 00 8d 3c 28 62 ab bc 6f ac 04 bd d4 10 52 bd
       0.017212018 -0.020920828 -0.032391008 -0.05128558
0000d0 1f c3 06 3d 33 57 57 3d f1 ce 25 bd e0 5d 23 bd
       0.032900926 0.052573394 -0.040480558 -0.039884448
0000e0 36 46 74 bc 59 c3 a0 bd ec 23 80 3a 33 de c6 3c
       -0.014909318 -0.078497596 0.000977633 0.024275875
0000f0 72 3e 21 bc 86 a6 07 bc 50 a1 6b 3d c3 7d 87 bd
       -0.009841548 -0.008279448 0.057526886 -0.06615784
000100 4a d7 f3 bc ac d7 e6 bc 95 89 11 3d 80 c5 81 3c
       -0.029765744 -0.028179012 0.0355316 0.015841246
000110 da 91 97 bd 9a e8 86 bb dd 40 7e bd 2a b3 63 bd
       -0.07400866 -0.0041170837 -0.062073577 -0.055590786
000120 ed b8 80 3c 08 c0 72 bd 51 2a 8c 3d 8c 95 33 bd
       0.01571318 -0.059265167 0.06844009 -0.04384379
000130 58 5b 9b bc ca b5 27 3d 52 64 a0 3c e5 65 ae 3c
       -0.018964455 0.040944852 0.019579086 0.021288821
000140 9e b1 31 bb 81 31 6b bc 13 31 3a bd 40 03 be 3d
       -0.0027113925 -0.014355064 -0.045456957 0.09277964
000150 fa e4 97 3d 23 a0 48 bd c6 8e 69 3d be 56 ad 3c
       0.07416721 -0.048980843 0.057020925 0.021159526
000160 64 c2 81 bd 7d da 25 bd c2 91 d5 3b 50 94 3e bd
       -0.06335905 -0.04049157 0.00651762 -0.04652816
000170 3d 1b 45 bd b5 fe 5d bc 97 45 97 bd 3e 90 68 bd
       -0.04812168 -0.013549496 -0.0738632 -0.056778185
000180 59 b0 81 3c b9 0b 34 bc 8d 28 37 3d 2f 25 6d 3d
       0.01583116 -0.010989123 0.044716407 0.05789679
000190 53 74 6d 3d 8d 20 10 bd 10 83 7a 3c 80 c7 e6 bc
       0.057972264 -0.035187293 0.015290037 -0.0281713
0001a0 7d be ed 3c 6c 4a b4 bd 10 79 9b 3d 52 bc 77 3d
       0.029021496 -0.08803257 0.0759145 0.06048233
0001b0 8a 04 70 bc 52 71 14 bd aa 6b 9f 3d d9 fd 5b 3d
       -0.01464952 -0.036240883 0.07784207 0.053708885
0001c0 6f 65 bc 3d 25 97 4d bd 00 44 9c bd 98 ab a6 bd
       0.091990344 -0.05019297 -0.076301575 -0.08138198
0001d0 50 01 a8 bc 72 8f e7 ba d8 63 94 3d 24 a9 57 bd
       -0.020508438 -0.0017666651 0.07245606 -0.05265154
0001e0 0b ea a6 bd 55 4a 6f bb ea 5a 86 3c df 96 bd 3c
       -0.08150109 -0.0036512811 0.016400773 0.02314323
0001f0 95 31 20 bd f8 3a 70 bd 83 96 a9 bd 9f 95 c0 3d
       -0.039109785 -0.058649987 -0.08280661 0.09403538

weight f4 [128, 128]
000000 ac 47 a1 bc 69 bb a3 bb a1 15 71 3d 82 d2 73 bd
       -0.019687496 -0.0049967063 0.058858518 -0.059526928
000010 82 09 87 bd 29 2e 9c bd f4 a7 cf 3c 8c 14 35 3d
       -0.0659361 -0.07625992 0.025348641 0.04420905
000020 e2 b6 4b 3d 91 49 52 3a fb 28 bc 3b 14 a0 ee 3b
       0.049734958 0.00080218265 0.00574219 0.0072822664
000030 63 5b 71 3d 0c ea df bd ef 8f a8 3d 02 4e 1d bc
       0.058925044 -0.10933313 0.08230578 -0.009601118
000040 78 5b 8e 3d e7 7b 79 bd 8a ff e2 bc c1 93 df bd
       0.0695104 -0.060909178 -0.027709741 -0.10916854
000050 c5 ac 88 bc 6e 79 9f bc 69 fa 30 3d e0 b2 c0 3d
       -0.016683945 -0.019467082 0.04320756 0.09409118
000060 a9 c2 94 3d 52 47 22 bd d5 72 f3 bb 3f 6e 0b bb
       0.07263691 -0.039618798 -0.0074294605 -0.0021275429
000070 3b c0 db bc a6 bc e7 bc ba 05 25 3d 10 d0 cd bc
       -0.026825061 -0.028288197 0.040288664 -0.025123626
000080 dc 95 5c bd 99 cd 76 3a e8 4f 9f 3d 0c b2 1f 3c
       -0.053853855 0.0009414792 0.07778913 0.0097470395
000090 5f 9d fe 3d 54 19 59 bd 95 03 a5 3d 3d 10 1c 3d
       0.1243236 -0.05300267 0.08057324 0.038101424
0000a0 ec 67 97 3d 19 f3 30 3c 7e 9a 48 3b 31 35 80 bd
       0.073928684 0.0108001465 0.0030609663 -0.062601455
0000b0 4e 53 26 bc 29 b0 02 3d d0 fc 91 bb b5 ad a4 3d
       -0.010151697 0.03190628 -0.0044551864 0.080409445
0000c0 70 2a 2a bd 4f b4 e1 bc a7 88 e7 bc a6 c8 e8 3c
       -0.041544378 -0.027551798 -0.028263403 0.02841599
0000d0 04 3c b1 3d 0c e3 3f ba 8d 9e 81 bd 9c 1a 11 3d
       0.08654025 -0.00073199044 -0.06329069 0.035425767
0000e0 a1 49 89 3c e8 24 86 3d 20 06 15 3c 68 d3 b4 3d
       0.016758742 0.06550008 0.009095699 0.08829385
0000f0 2b ef 8e 3d 2f f6 21 bd 65 fa c4 3d 9b bb 0e bd
       0.069792114 -0.03954142 0.096180715 -0.034846883
000100 13 27 96 bd 2e 56 bc 3d 5e c4 ef bc a0 16 7a 3c
       -0.073316716 0.09196125 -0.02926844 0.015264183
000110 16 29 bb 3d f1 e2 35 bd 29 06 88 3d e2 6f e1 3c
       0.09138696 -0.04440588 0.066418 0.02751917
000120 78 35 d1 3c 61 fb d2 3c a5 a5 8d bd ae 37 d3 bc
       0.025538191 0.025754632 -0.0691636 -0.025783386
000130 eb 1c 27 bd 00 27 b5 3d 7c d8 95 3b 44 70 a5 3d
       -0.040799063 0.08845329 0.004572926 0.080780536
000140 6c 3d 0b 3d 26 e3 17 bb 8e 4f b5 3d c9 8c 37 3d
       0.033994123 -0.0023176163 0.088530645 0.044811998
000150 d9 2d 7b 3d 20 57 11 bb 0a ca ef 3c af 64 8d bd
       0.06132302 -0.0022177175 0.029271144 -0.069039695
000160 9f d3 96 bb 24 5a 16 3c 83 1b 8d bd 46 07 91 3b
       -0.004602864 0.009176765 -0.06890013 0.004425916
000170 cd 48 89 3d c0 1e 86 3d af c6 41 3c d3 73 df bc
       0.06703339 0.06548834 0.011827155 -0.027276909
000180 cd bf 3e bd 0f cd 57 bd cf 6d ac bb 03 e8 1a bd
       -0.046569634 -0.052685793 -0.0052621136 -0.03781892
000190 90 99 4d bd 48 f5 64 3c 86 9b 41 bd 17 12 a8 3b
       -0.050195277 0.013974495 -0.04726746 0.0051291096
0001a0 76 79 a7 3d cd c9 43 bd 58 12 78 3d 00 cf 65 bd
       0.08177464 -0.047799874 0.06056437 -0.056105614
0001b0 85 6e 9f bd 38 cc c7 3d 65 44 9f bc 30 6a e4 3d
       -0.07784752 0.097557485 -0.019441793 0.11153066
0001c0 67 55 a4 3d 56 63 2c 3d b4 b2 13 bd 7e b2 e3 3b
       0.08024102 0.04208692 -0.036059096 0.006948768
0001d0 f8 c8 cc 3c 56 c9 dd 3c 40 28 95 3c 3e 1e b3 3d
       0.024998173 0.027073544 0.01820767 0.087460026
0001e0 8c e8 9c 3c ed 5b 4b 3d 54 a6 3d bd 32 05 ae bc
       0.019153856 0.049648214 -0.0463012 -0.021242712
0001f0 b6 db a7 3d 8b 7d 93 bc ed d1 24 3d a6 69 99 bc
       0.081962034 -0.0180042 0.040239263 -0.018727135
000200 3b aa d8 3c da 12 73 bd fb 5f df 3c 45 84 0d 3c
       0.02644836 -0.05934415 0.027267447 0.008637493
000210 80 e0 99 3c 64 11 37 3d 02 3d 46 3d 3d 04 9b 3d
       0.018783808 0.04469432 0.048398025 0.07569168
000220 4c f5 96 bd c2 78 2d 3d 24 b0 47 3d 02 15 80 3d
       -0.073710054 0.04235149 0.048751965 0.06254007
000230 69 7e 4d bd 5b ba 5b bd 85 30 9c 3c f9 61 26 bc
       -0.050169382 -0.05364452 0.019066105 -0.010155194
000240 2b 3b 6a 3d 74 a2 46 3d 6c 7b af bd 15 bf e2 bc
       0.057185333 0.04849477 -0.08568463 -0.027679006
000250 82 ed 9d bc 2d 77 ad 3d 3a 83 81 3b 18 2a ae 3c
       -0.019278292 0.084699966 0.003952411 0.021260306
000260 e8 a0 39 bc e2 e0 c6 3d e7 3d b4 bd 77 b2 5b 3d
       -0.011329867 0.09710862 -0.088008694 0.053636994
000270 85 2d e2 3d 82 8d 83 bc 39 c2 ff 3c f2 f9 1f bc
       0.110438384 -0.016058687 0.031220542 -0.009764181
000280 cb 68 0e bd 15 70 54 bd c1 44 37 3d b9 c3 87 3d
       -0.034767907 -0.051864702 0.044743303 0.06629128
000290 53 03 c8 3c 4a ec 0c bc 4f f5 7a bd bd d0 b8 3d
       0.024415648 -0.008601258 -0.0612691 0.09024189
0002a0 97 23 67 3d b0 63 b4 3b 37 af 37 bd 53 ee 63 3d
       0.056430425 0.0055050477 -0.044844832 0.055647206
0002b0 24 10 5d bd 93 e3 c7 3d c4 83 58 bd d5 46 4a 3d
       -0.05397047 0.09760203 -0.052860036 0.049383957
0002c0 17 41 58 bd 80 19 ac 3c 39 c9 fe 3d 25 ff 73 3d
       -0.05279645 0.021008253 0.12440724 0.059569497
0002d0 a8 f4 68 bd e4 ef 1e bd 66 2a ba 3b f6 25 06 bd
       -0.056873947 -0.038802996 0.005681324 -0.032751046
0002e0 01 01 4a 3c c0 5e 9d 3d be d6 21 bd ed 37 88 bd
       0.012329341 0.07684088 -0.039511435 -0.06651292
0002f0 02 f3 98 bd 5e 1e 77 3c b6 11 85 3c f2 09 84 3c
       -0.07468225 0.015082924 0.016243797 0.016118024
000300 a3 dd 1e bd 05 21 f5 bc 17 1e 6d bc b1 25 06 3d
       -0.038785588 -0.029922972 -0.014472506 0.03275079
000310 a1 35 be 3d db e5 96 bd 51 32 51 3d 58 db 90 3d
       0.09287573 -0.0736806 0.051073376 0.070730865
000320 80 5e f4 bc 86 b8 22 bd 6a b7 c5 3c c9 47 d8 bc
       -0.029830217 -0.039726757 0.02413531 -0.026401417
000330 ce 42 9a 3d 87 d0 dd 3c c1 24 3b bd 67 6e 44 3d
       0.07532273 0.027076973 -0.045689348 0.04795685
000340 ab 6d 19 3d 2c 6f 56 bd d2 45 c3 3c 34 d6 fc bc
       0.037458103 -0.052352116 0.023837004 -0.030863859
000350 b1 3f e7 bc 1f 43 6a bc 15 ee 98 bd de 30 8f bd
       -0.028228613 -0.0142982295 -0.074672855 -0.069917426
000360 8f 0d 3f ba ae 61 64 bd e3 fa e1 3c 8a 66 aa 3d
       -0.0007288092 -0.055757217 0.027585452 0.08320339
000370 4c 63 02 3d 8c d8 97 bd c1 87 bd bd 6a 05 5a 3d
       0.031832978 -0.0741435 -0.09254409 0.05322782
000380 43 94 c4 3c bd 05 90 bd 4e 7f 94 bc 24 81 0a 3d
       0.023996478 -0.070323445 -0.01812711 0.033814564
000390 ce 05 dd 3c 1b e5 46 3d 46 a6 c1 3d 98 99 c2 bc
       0.026980307 0.048558336 0.09455542 -0.02375488
0003a0 b9 76 a7 bb 30 c3 a2 bd 9d 99 b4 3d 3b b0 ad 3c
       -0.0051105884 -0.07947385 0.08818362 0.021202197
0003b0 9b ab ca bc 17 d4 39 3b 7b 99 a8 bc 25 3d 39 3d
       -0.024740031 0.0028355175 -0.020580998 0.045224328
0003c0 8a 14 80 3d 00 50 3a 3d 17 88 13 3d 66 6b 8f bc
       0.062539175 0.04548645 0.036018457 -0.017507266
0003d0 1c c2 55 3d 5b 91 cc 3d 92 47 cc bd 9a 22 37 bd
       0.05218707 0.09988662 -0.099745885 -0.044710733
0003e0 5c 4b ac 3d c9 4f a2 3d 52 92 de 3c d9 bc ae 3d
       0.08412811 0.07925374 0.02716938 0.085321136
0003f0 2f 71 1d 3c 72 2d 00 3d e6 90 30 3d ad bb ce 3d
       0.009609505 0.03129334 0.043106936 0.1009439

bias f4 [128]
000000 9b 95 23 3d 5c bf 10 bb f2 62 9a bd 7c bf 39 3c
       0.039937597 -0.0022086715 -0.075384036 0.011337157
000010 bd fb c0 bb 70 50 e2 ba 27 81 ac 3c f4 fc af bd
       -0.0058893845 -0.0017266404 0.021057678 -0.08593169
000020 e5 e6 a0 bd 4d 34 96 3d 70 56 ea bc ad fb cc bc
       -0.0785654 0.07334194 -0.02860567 -0.025022352
000030 96 c9 31 3a 57 60 b1 bd 65 1f f0 3a 0c 27 49 3d
       0.0006782053 -0.086609535 0.0018319903 0.049109504
000040 90 45 07 3d 2c 31 8b bd d4 81 13 3d 43 b4 79 3d
       0.033025324 -0.06796488 0.036012486 0.060962927
000050 36 4e 7c 3d 8c 93 14 bd 00 73 1b bd e2 c9 73 bd
       0.061598025 -0.036273524 -0.03795147 -0.059518702
000060 7a d6 20 3d cf 51 5f 3d 9b 0a 44 bd ac 3a 06 3d
       0.03926704 0.054521378 -0.047861677 0.032770798
000070 34 9d f6 3c 7d 74 36 3b 46 3e 99 3d 01 cd c5 bb
       0.030104257 0.0027840429 0.07482581 -0.0060364013
000080 c5 c4 a4 bc ea 96 8d bd 9e 48 86 3d 9e 0e 3b 3d
       -0.020113358 -0.0691355 0.065568194 0.045668237
000090 b6 46 ab 3d 51 30 22 bd bf 3c 25 bc da 5f b7 3c
       0.083630964 -0.03959686 -0.010085284 0.022384573
0000a0 86 df 9b bd 9b 2d 97 bd 27 37 c8 bc 87 d5 70 bd
       -0.07610993 -0.073817454 -0.024440361 -0.058797386
0000b0 6a 85 95 3d 09 a6 8d 3d 48 72 15 bd b9 4b a0 bd
       0.07300837 0.06916434 -0.03648594 -0.07826943
0000c0 95 7e a5 bd 49 e2 70 bc bd 9d 8a bd 4e 83 2f bd
       -0.08080784 -0.014702388 -0.067683674 -0.04284983
0000d0 94 34 25 3d 24 bc c2 bc 9a 9e d2 bc 30 e0 9f bc
       0.040333346 -0.023771353 -0.025710393 -0.01951608
0000e0 e7 ee a3 3d 56 cd 1d 3d 8e 46 ca 3c 0d 73 54 3d
       0.080045514 0.0385259 0.024691846 0.051867533
0000f0 d8 d6 04 bc 10 82 fa bc 57 1d ac bc c3 62 1f bb
       -0.008107863 -0.030579597 -0.021010084 -0.0024320341
000100 07 e7 bf bc 87 c8 75 3d 24 ce 15 3d e4 41 bd 3d
       -0.023425592 0.06000569 0.036573544 0.09241083
000110 de 74 b9 bd 5f 8b 8e bd 8a 89 38 bd 52 b7 15 3b
       -0.09055494 -0.06960177 -0.045053042 0.0022844863
000120 37 4f 8c 3c 9c 2c 84 3d 9e 2d bd bd b3 6c 6e bd
       0.017127616 0.06453821 -0.092372164 -0.058209132
000130 a5 da 62 3d 00 09 10 bc 49 c5 8d bd 3a 5e ab bd
       0.055384297 -0.008791208 -0.06922395 -0.08367582
000140 0c 16 89 3d 6f 69 99 3b 64 e4 5c 3d e1 54 aa bd
       0.06693658 0.004681758 0.053928748 -0.083169706
000150 49 ab a1 bb 7c f1 0e 3d 0e e6 92 bd e7 75 a0 3c
       -0.004933749 0.034898266 -0.07172786 0.01958747
000160 1f 00 78 bd 3b 3e ac bd e3 88 54 3c 15 25 7d 3d
       -0.06054699 -0.08410307 0.012972089 0.061802942
000170 25 30 3c bb de 2f 76 bc d1 ca 53 3d d5 1e 59 3d
       -0.002871522 -0.015026061 0.051707093 0.05300792
000180 7c 0e c2 3a f8 23 2d 3d a4 1f 25 bd 2c 1f 6c bd
       0.0014805342 0.04227063 -0.040313378 -0.057646915
000190 86 f5 d0 3b c0 24 30 bd c9 5c 2d 3d d3 d7 c1 bc
       0.006376925 -0.043003798 0.042324815 -0.023662483
0001a0 d5 72 b0 bb b0 db 58 bd a7 60 98 bc 29 8f 9f 3c
       -0.005384783 -0.052943885 -0.018600775 0.019477444
0001b0 e9 42 81 3d 48 a6 3a bd 74 8f 79 bc 00 c9 88 bd
       0.0631159 -0.045568734 -0.015231956 -0.06678963
0001c0 09 3c 87 bc 0e a7 29 bc f7 f6 26 3d 23 b6 a3 3a
       -0.01650812 -0.01035477 0.040762868 0.0012490194
0001d0 9a 81 22 3d 80 f6 60 3d dc b3 9c bd 95 33 ed 3c
       0.03967438 0.05492258 -0.07651493 0.02895526
0001e0 67 88 97 bc 6e 2a 35 3b f0 33 c3 3b 15 a6 80 3d
       -0.018497659 0.0027643698 0.005957119 0.06281678
0001f0 63 4a a5 bc 76 ce 94 bd ae 1d 42 3c 1d ba 0c bd
       -0.020177072 -0.07265942 0.0118478965 -0.03435718

weight f4 [128, 128]
000000 5f 47 b7 bb cc 86 98 bd e8 f5 8e bd 27 ae 47 b8
       -0.005593225 -0.074475855 -0.06980497 -4.760749e-05
000010 45 01 c5 3d fa e4 af bd d5 f1 7c 3d 83 f8 ae 3c
       0.09619383 -0.08588596 0.061754066 0.021358734
000020 ad df 98 bd 4c 70 8c 3d 3f c3 36 bd 06 3a 8d bc
       -0.07464538 0.068573564 -0.044619795 -0.017239582
000030 e3 72 e1 3c cf be 2f 3d 98 10 f0 bc df 16 9a 3d
       0.027520603 0.04290658 -0.029304788 0.075238936
000040 01 9c a1 bc 8a f9 33 bd 43 45 38 bd db 5f 6b 3c
       -0.019727709 -0.04393915 -0.044987928 0.014366115
000050 d7 7c 46 bd 48 d6 54 3d 15 4d 92 bd a7 8a c8 bc
       -0.0484589 0.051962167 -0.071436085 -0.024480177
000060 17 20 d2 bb 28 06 88 3d c8 71 fb 3c 91 db 93 bc
       -0.006412517 0.06641799 0.030693904 -0.018049033
000070 9b 1b 9a bb c3 3b 3d bc 32 f9 47 bd 89 be 96 3d
       -0.004702998 -0.011549893 -0.048821636 0.073605604
000080 13 e2 90 bd 52 62 b1 3d 89 49 8e bd da 86 b4 3b
       -0.0707437 0.08661331 -0.069476195 0.0055092396
000090 51 29 06 bd 00 dc a6 3d 70 d4 88 bc d9 51 04 bd
       -0.032754246 0.081474304 -0.01670286 -0.03230462
0000a0 1b d2 7f 3d b1 40 3e bb 61 fa 88 bd 86 5f 21 3d
       0.06245623 -0.0029030258 -0.06688381 0.03939774
0000b0 03 18 8e 3c d8 6c 7f bc 7a ac 67 bd 6d 5d b8 3b
       0.017345434 -0.015589915 -0.05656097 0.0056263716
0000c0 fe ea a5 3c 8e 66 63 bd dc ad 9a bc 0a 68 2d 3d
       0.020253655 -0.055517726 -0.01888173 0.042335548
0000d0 57 ec 83 bd 30 2d c1 3d cd 22 be 3d 16 48 d6 bc
       -0.064415626 0.09432447 0.092839815 -0.02615742
0000e0 02 e9 72 3d 9c e4 a9 bd 37 19 8d 3c fb 13 51 bd
       0.059304245 -0.08295557 0.017223937 -0.051044445
0000f0 2d a4 41 3d fe 82 5c 3d 00 a8 54 bd e8 1b 87 bd
       0.04727571 0.05383586 -0.05191803 -0.065971196
000100 b5 c5 64 3d f3 f6 34 3d c2 73 84 bd 65 f1 27 bc
       0.05585261 0.04418082 -0.064673916 -0.010250424
000110 a7 97 49 bd 9f 84 b4 3b b0 cf 84 bd 22 90 5c 3d
       -0.049216893 0.0055089737 -0.06484926 0.053848393
000120 eb e8 bd bc 4b c4 d0 3d 9a 03 23 bd a7 ee 71 bd
       -0.023182353 0.1019369 -0.039798357 -0.059065487
000130 24 63 17 bd a9 dd ab 3d c2 cf f3 3c 86 e4 0a bc
       -0.036959782 0.08391888 0.029762153 -0.008477336
000140 21 58 60 bd 3d 5b d9 bb 57 01 90 3d 80 95 65 3c
       -0.054771546 -0.006633191 0.070315056 0.014012694
000150 1d ea 94 3d a5 f3 9e 3d d2 6b eb bc 32 b5 9d bd
       0.07271216 0.07761315 -0.028737936 -0.07700576
000160 38 cd 8f 3d f8 c1 49 bc 98 57 e9 3c 59 2b 2e bd
       0.07021564 -0.012314312 0.02848415 -0.04252181
000170 dc da 8f 3c 73 0c d1 bb 51 b7 66 bd 47 52 98 3d
       0.017560415 -0.006379658 -0.056327168 0.07437568
000180 b7 7d 86 bb 0e 73 57 bd 7c 8f 73 bd 1f 09 f2 3d
       -0.004104342 -0.05259996 -0.05946301 0.11818146
000190 c9 63 b2 3d 88 ba b7 3d 7f 88 9a 3d 87 df 7d bd
       0.08710439 0.08971125 0.07545566 -0.06198075
0001a0 86 5e 86 bd aa c7 97 3d b1 25 83 bd e5 12 9b bc
       -0.06560998 0.0741113 -0.064036734 -0.018929908
0001b0 86 72 ed 3b d0 94 af bc af 24 14 bd ba e7 0d bd
       0.0072463183 -0.021433264 -0.036167797 -0.03464482
0001c0 0a 2a 89 3d 4e 14 bd 3d 92 d8 71 3c 0c 9f 96 bd
       0.066974714 0.092323884 0.014761107 -0.073545545
0001d0 9c 5f 3a bd 6a 61 cf bc f5 87 a0 3c 6c ef 4a bd
       -0.045501336 -0.025315005 0.01959608 -0.049544737
0001e0 3a 21 be 3d 81 b7 bf bc ad 3a 1c bd 3d 54 a0 bd
       0.09283681 -0.023402931 -0.038141895 -0.07828567
0001f0 f1 c8 8f bd f3 18 b7 3b 46 50 51 bd a8 0c 5c bd
       -0.070207484 0.005587691 -0.051101945 -0.053723007
000200 d5 d7 08 3d b3 f1 cf 3d 3f 4f fb 3c dc 72 8d 3d
       0.03340896 0.10153522 0.030677436 0.06906673
000210 23 d2 b9 3b a4 ff 4d bd 62 78 7b 3c b9 08 22 3d
       0.005670802 -0.050292626 0.015348526 0.0395591
000220 f2 31 1f bd d3 c3 64 3c 2f bf 8b 3d ac 8c 42 bd
       -0.03886599 0.013962704 0.06823575 -0.047497436
000230 d1 6b 6d 3d 20 28 85 3d da 56 dd bc 50 7f a2 3d
       0.05796415 0.06501794 -0.027018953 0.07934439
000240 d5 a8 88 3d 73 33 80 3c 31 9a 1f bd 41 c4 81 bd
       0.06672827 0.015649533 -0.038965408 -0.063362606
000250 f7 47 eb 3c bb d2 99 bd 5c d1 28 bc 20 cf 0d bd
       0.028720839 -0.07510897 -0.010303821 -0.034621358
000260 cd 01 4d 3c 71 0f 49 3d 86 87 a1 3d 6c 49 3f 3d
       0.012512636 0.04908699 0.07887177 0.04670088
000270 ee 1f a8 bd 41 0e 86 3d 4d 16 85 3d d1 dc 93 bd
       -0.08209215 0.065456875 0.06498394 -0.07219852
000280 67 95 d4 3d 32 46 79 bd 97 71 46 3d b3 a4 5b 3d
       0.10380059 -0.06085796 0.04844817 0.053623866
000290 b5 68 91 bd b2 26 b8 ba 56 9c 13 bd 99 b0 39 bd
       -0.071000494 -0.0014049618 -0.036037765 -0.045334432
0002a0 19 ad 01 3d ee 65 4f bd 8c b2 44 bd 17 5e b6 3c
       0.03165922 -0.050634317 -0.048021838 0.022261662
0002b0 98 9e c1 bc 6d e4 3c 3d 7b 00 5a bd 47 84 30 bd
       -0.023635194 0.04611628 -0.053223114 -0.0430949
0002c0 52 c1 84 3d be 94 41 3d 3a e7 9d bd 41 21 13 3c
       0.064821854 0.047260992 -0.077101186 0.008980096
0002d0 6c 48 07 3d 70 90 fe bc 7e bf 94 bd 9d b7 97 3d
       0.03302805 -0.031074733 -0.07263087 0.07408068
0002e0 34 b2 b4 3d 2c cc 5c 3d 78 b8 4d 3d af ab 76 bd
       0.08823052 0.05390565 0.05022475 -0.060222324
0002f0 2a 70 d7 bc 36 7c be 3d 68 29 63 bd a0 23 05 bc
       -0.026298601 0.09301035 -0.05545941 -0.008126169
000300 40 e9 5c bd 26 c8 28 bd bb 6e 0e 3c 79 a7 a2 bd
       -0.053933382 -0.0412065 0.008693392 -0.07942099
000310 7f 44 8e 3d 27 88 74 3a ed e7 81 bd 8d c7 87 bd
       0.06946658 0.00093281496 -0.063430645 -0.06629858
000320 b3 a0 83 bd 8b 61 6d 3d 3c f7 ba 3d 2f 75 49 3d
       -0.06427135 0.057954352 0.091291875 0.04918402
000330 46 f8 1d 3b 16 e9 f9 ba bf 86 0f bd 60 2d 95 3d
       0.0024104281 -0.0019066657 -0.035040613 0.07284045
000340 31 63 41 3d 0a 8a bb 3c d2 53 7f 3d c3 ec af 3d
       0.047213737 0.02289297 0.062335797 0.085900806
000350 6f e9 8b bd 66 24 27 bd 3b 94 76 bc a6 84 e4 bc
       -0.06831633 -0.040806197 -0.015049989 -0.027895283
000360 23 78 e3 3c 07 0f d1 3d b0 ee 48 3d 80 91 db bc
       0.027767247 0.10207944 0.049055755 -0.026802778
000370 40 73 ac bd 22 0d 12 bc fb 4d 5d 3d 22 63 9c 3d
       -0.0842042 -0.008914264 0.054029446 0.076360956
000380 c0 94 8d bd d6 2d 64 3d d2 23 a3 bd 67 3d 7a bc
       -0.069131374 0.055707775 -0.079658166 -0.0152734285
000390 ca 87 bb bd 41 6e 34 bd 27 fc 04 bd 12 73 7b bd
       -0.09156759 -0.04405046 -0.032467034 -0.061389036
0003a0 b2 a4 57 bd c9 d6 2d 3d 06 cd 5c bd ce ee ba 3b
       -0.0526473 0.042441163 -0.053906463 0.0057047373
0003b0 a0 12 c6 bd 12 af 13 bc da 22 29 3d d5 82 e2 3c
       -0.09671521 -0.009013908 0.041293003 0.027650276
0003c0 8b b6 5f 3d cd c4 18 bd 81 bf 16 3d 00 b4 1e bd
       0.054617446 -0.03729706 0.036803726 -0.03874588
0003d0 36 c0 74 3d 0a 57 85 bc f4 5b 3c 3d a2 9c 8a bc
       0.05975362 -0.016276855 0.04598613 -0.016920391
0003e0 9c 8d a3 3c 00 38 ed 3b 00 d8 81 3d 6b 05 0a 3d
       0.019964986 0.0072393417 0.06340027 0.033696573
0003f0 8c 80 32 3d 5e 1c 28 3d 85 46 a9 3c 7d 11 09 bd
       0.043579623 0.041042678 0.02066351 -0.033463944

bias f4 [128]
000000 68 39 ba 3d 43 a1 0d 3d 37 0c 39 bd 32 74 6d 3d
       0.090929806 0.03457762 -0.045177665 0.05797214
000010 0c 80 d5 3c c0 2f d2 3b 55 20 d3 3a 1b e4 a1 bd
       0.026062034 0.0064143836 0.0016107658 -0.07904836
000020 f3 f6 6d 3d 5c 14 44 bc 5e 5a b9 3c 1b 1c 55 3d
       0.058096837 -0.011967745 0.022626098 0.052028757
000030 b4 f9 90 3d 76 cd 4a 3d 24 0e bc bb 89 43 5c bc
       0.07078877 0.04951235 -0.0057389904 -0.013443836
000040 7c 69 3b 3d 1f 3a 44 bd 33 15 79 bd 25 e9 8f bc
       0.045754895 -0.04790699 -0.060811233 -0.017567227
000050 ea 3b a1 bd 0f 35 0b bd 56 a4 73 bd d7 d9 b9 3c
       -0.07872756 -0.033986147 -0.059482895 0.022686882
000060 a1 02 9a bd 07 59 23 bd d2 c1 8b 3d cf e9 85 3c
       -0.07520033 -0.039879825 0.06824078 0.01634684
000070 fd 32 e5 bc 9f 39 8e bd 6a 40 0c bd 48 bd 9f bd
       -0.027978415 -0.06944584 -0.034241118 -0.077997744
000080 76 a1 f8 bb 8d 47 86 3d 04 ed e5 3c 51 bd 14 3d
       -0.007587607 0.06556616 0.02806712 0.03631336
000090 79 ea a4 3c e7 e1 98 bd 34 5a a0 bd f8 f8 37 3d
       0.020131337 -0.074649625 -0.07829705 0.04491517
0000a0 2c 48 be bd e8 49 9f bc 2e 5f 84 3d c0 17 c4 3c
       -0.092911094 -0.019444421 0.064634666 0.023937106
0000b0 f9 d5 8d 3d f5 d6 c2 3d fb 8e 99 bd f3 1d dd 3c
       0.06925578 0.09513656 -0.074979745 0.02699182
0000c0 0b 10 b5 bc d2 63 8d bc ed df e7 bc 01 e5 9b 3d
       -0.022102376 -0.017259512 -0.028305018 0.076120384
0000d0 f5 b1 94 b9 0d 4d 7f bd 61 70 4b 3d d0 f6 c1 bd
       -0.00028361348 -0.06232934 0.04966772 -0.09470904
0000e0 7e f4 b9 bd ac 66 0a bc ef fb b2 3d e4 3e 9a bb
       -0.09079836 -0.00844733 0.08739459 -0.004707204
0000f0 a0 90 57 3d 7b eb 1d bd fa 02 a4 3c 0d 7f 2e 3d
       0.05262816 -0.03855465 0.02002095 0.042601634
000100 ac be 30 bd c5 12 ed bc a5 7c 46 bd 78 06 cc 3c
       -0.04315059 -0.028939614 -0.048458714 0.024905428
000110 a4 40 c8 3c d2 f6 f6 bc c5 c8 f4 bc 0f 37 20 3c
       0.024444886 -0.03014699 -0.02988089 0.009778752
000120 82 41 04 bd 6b d5 77 3d 3a 74 ec 3a 37 86 59 3d
       -0.032289036 0.060506266 0.0018040009 0.053106513
000130 ac ed 8d bd b6 b5 32 bd 77 5d 19 3d e3 cf 86 3d
       -0.06930098 -0.043630324 0.03744265 0.0658262
000140 82 6c 46 3d 58 8b 2c bc 98 f3 7f 3d b5 b0 f5 bc
       0.048443325 -0.010531269 0.06248817 -0.029991487
000150 8f c0 86 bd 28 5b 5d bd 46 e3 90 3d ed f5 88 bd
       -0.065796964 -0.05404201 0.07074599 -0.066875316
000160 3b 3e 63 bb 91 ea f0 3c 09 23 af bc f4 6f 86 3d
       -0.0034674543 0.029408725 -0.02137901 0.06564322
000170 a0 2a 19 3d c9 bd 27 3c 8e 9f df 3c c5 8e fe bc
       0.037394166 0.010238119 0.027297761 -0.031073937
000180 8b 96 a7 3b af 98 1c bd df 0b f4 bc 1c c1 97 3d
       0.0051143817 -0.038231548 -0.029790817 0.074098796
000190 fc ab fd 3a ac 39 94 3d 18 7b 0b bc d0 86 29 3d
       0.0019353624 0.072375625 -0.008513235 0.041388333
0001a0 07 84 34 bb 41 84 81 3d 88 4e 2e 3d ec 0a 64 bd
       -0.0027544515 0.063240536 0.042555362 -0.05567448
0001b0 ed c3 6c 3d ab 4e 9c bd 3e ad 58 3d 4c b5 97 bd
       0.057804037 -0.07632192 0.05289959 -0.074076265
0001c0 67 6e ca 3c 3f 2a 5c bd 21 eb dd 3a fe c0 a6 bd
       0.024710847 -0.053751227 0.0016931036 -0.08142279
0001d0 32 23 4f 3c 90 61 04 bd 5a c7 40 bc 9a 24 50 bd
       0.012642669 -0.032319605 -0.011766279 -0.050816156
0001e0 64 74 3d b7 16 fc 33 bc 4f e5 93 bd f5 3c aa 3d
       -1.1292377e-05 -0.010985395 -0.072214715 0.08312408
0001f0 6f 8c 5c 3d 2f d2 05 bd cb 1f 94 3d 68 11 b4 bc
       0.053844865 -0.03267115 0.072326265 -0.021980956

weight f4 [1, 128]
000000 ab 3d 92 3d 1b c8 05 bd dd 05 80 bd c1 d4 8d 3d
       0.071406685 -0.03266154 -0.06251118 0.06925345
000010 b9 f4 db 3d 37 15 ac 3d 04 f5 ad 3d cf ce 2a 3d
       0.107400365 0.08402484 0.08493999 0.041701134
000020 82 4c 8e bd 5d 89 19 3d 8a a4 b0 bd 9a 77 b4 bd
       -0.069481865 0.037484515 -0.08625133 -0.08811875
000030 d0 9f a6 bc 13 0b ad bd 93 f1 60 3d 59 f6 c3 3c
       -0.020339876 -0.08449378 0.054917883 0.023921179
000040 68 3b 0c 3d 5b 21 93 bd db f8 c6 3c 7b 0a 9c bd
       0.03423634 -0.071840964 0.024288585 -0.076191865
000050 1b 23 0a bd 6f b7 b2 bd 01 ab 1d 3c 50 98 8d 3c
       -0.033724885 -0.087263934 0.00962329 0.017284542
000060 d0 11 50 bd 52 f4 99 3d 1c 50 be bb 18 02 65 bd
       -0.050798237 0.075173035 -0.0058078896 -0.0559102
000070 ad 27 f8 bc 5c f1 40 3d f2 39 91 bd f2 5c ae 3d
       -0.030292356 0.04710518 -0.0709113 0.08513822
000080 5d b6 40 3d c0 53 57 bd a9 9a a7 bc 14 f0 e8 3d
       0.047048915 -0.052570105 -0.02045949 0.11373916
000090 aa 54 c9 3d 3d da aa bd 1a 9f 05 bc 7e 6d a0 3d
       0.098306015 -0.08342407 -0.008155609 0.07833384
0000a0 92 93 20 bd 1a 1d b0 bd 36 fe cf bc 0c f2 85 3b
       -0.039203234 -0.08599301 -0.025389772 0.004087692
0000b0 a2 d8 00 3d cc 15 28 3d 6c 2c b2 bc 21 69 a7 bd
       0.031456597 0.041036412 -0.021749698 -0.081743486
0000c0 52 b6 72 3d 76 53 c7 3d 95 1b 9f 3b 33 29 9f bc
       0.059255905 0.09732716 0.004855583 -0.019428825
0000d0 db ef 67 3d 9e 3f 8c 3c 3f 09 88 3d 2e af df bc
       0.05662523 0.017120179 0.066423886 -0.027305212
0000e0 54 06 a6 bd 31 5e 19 3d 6a 62 99 bc 46 9a 5a 3d
       -0.08106676 0.037443344 -0.018723685 0.053369783
0000f0 50 b4 07 bd 3d f5 c0 bc 81 98 8d bd 5b c1 34 bc
       -0.033130944 -0.023554439 -0.069138534 -0.011032428
000100 06 6f 51 bd 55 f1 27 bd 98 70 92 bd 08 97 4d bc
       -0.05113127 -0.041001637 -0.07150382 -0.012548216
000110 20 78 b7 3d 62 36 b2 bd f9 a1 d2 bc 9d f4 71 bd
       0.08958459 -0.08701779 -0.025712 -0.059071172
000120 c4 db 77 3d 9f f2 78 3d 3e b9 51 bd 1a 4a 42 bc
       0.06051232 0.060778257 -0.05120205 -0.0118584875
000130 7e 6c 86 bd 79 80 92 3d fb c4 f1 ba 94 d5 b5 3d
       -0.06563662 0.071534105 -0.0018445546 0.088786274
000140 ac 0a 03 bd 2f 53 cb 3c 80 9d 92 bd ad 82 51 bc
       -0.0319926 0.024819938 -0.07158947 -0.012787503
000150 06 d5 40 3d e5 16 a1 3d 1b fe 95 3d 75 d1 0e bb
       0.047078155 0.07865695 0.073238574 -0.0021792327
000160 1c c1 cf bc 48 93 17 bd 28 77 cc 3d a2 2a b3 3d
       -0.025360636 -0.037005693 0.09983665 0.08748366
000170 e0 95 c5 3d 27 ab 8a bd 90 b7 ad 3d 70 b8 6e bd
       0.09647727 -0.06770926 0.084822774 -0.058281362
000180 62 f0 76 bd 70 6b 3f 3d 9a 6a 5d bd 17 01 db 3d
       -0.06028784 0.04673332 -0.05405674 0.10693567
000190 35 6d 7e 3d f9 94 a6 3d a3 05 4e 3d 11 0e 85 bd
       0.062115867 0.08133883 0.050298344 -0.064968236
0001a0 1e 2e 83 3d 51 10 c3 3d 12 12 3e 3d e5 b7 79 bd
       0.064052805 0.095245965 0.046403952 -0.06096639
0001b0 8e fb b3 3d 00 d9 52 bd 1f 0d 54 3d f0 e2 06 3d
       0.087882146 -0.05147648 0.051770326 0.03293127
0001c0 be 9a 95 3d a0 6f e8 bb 9d cd 13 bc 40 9f a0 bd
       0.07304905 -0.007093385 -0.00902119 -0.078428745
0001d0 6b 4c a7 bd 03 03 6e ba 2c 86 1d bd d3 4a b1 bc
       -0.081688724 -0.0009079428 -0.038458034 -0.021642124
0001e0 fa e3 87 3d 1f 33 18 bc e6 27 21 3c a7 25 4e bd
       0.0663528 -0.009289532 0.009836173 -0.050328877
0001f0 d4 78 b7 3d 91 96 c9 3b 6f 09 86 3c 07 40 f6 3c
       0.08958593 0.006151982 0.01636192 0.030059827
