Dry fermentation prediction and optimization system/predictor_digester/Predictor_Digester Biogas Production/models/NeuralNetTorch_BAG_L1/S1F4/net.params (torch, 209863 bytes, 9 tensors)

weight f4 [128, 10]
00000000: 3eeb 46bc 94f5 653e 3450 96be ad06 8ebe
00000010: 489d 06be cdcf 9d3d 5a80 65bc 7bdb 8a3e
00000020: 765a 68bd 0a6a 403d 418b e3bd c013 cd3b
00000030: 6705 b9be 0736 87be e048 aebd 7d08 3cbb
00000040: 822a e23d f7c8 293e 7f20 5abe e44d 0cbe
00000050: d998 533e c3b2 5b3e 869e 48bd 3062 973e
00000060: 87fb a3bd 059f 6d3c d3e5 883e 6545 7cbe
00000070: ad32 17be 478d 22bd d303 c8bd d044 a93e
00000080: 24cb 5bbe b464 0fbe bdf7 70be c39e 93be
00000090: a4fd 34be 12b6 923e cca7 163e 02a6 173e
000000a0: 6fa9 833c f654 8dbe ca1f 793d 28e2 9bbe
000000b0: a723 56be 96b1 26be 668d 4c3e b4e9 383e
000000c0: ebc7 05be 8230 1cbd f020 413e bf3a ae3e
000000d0: 2527 5a3e 655c e53c 1acb 413e 9065 3abe
000000e0: b237 813d c33f 7ebe 58f5 57be 351d 48be
000000f0: 997d fb3d e90a 903e 9c50 a3be 9884 f53d
00000100: d9f9 393e 59ba 14bd 0f6d 803c 60aa 1e3d
00000110: e7b7 3f3e 133a 993e b5a9 89be a67b cabd
00000120: f48a e43d e927 953e 9f4f 9b3e 81d3 6f3e
00000130: 2763 943c 0124 77be 5c63 8e3c e1f7 37be
00000140: acb5 9fbe 463d aa3e 10d7 823e 2f18 a3be
00000150: 9ae8 3a3d 48b1 ccbc 9a97 c2bc f5f9 35be
00000160: 5214 c83d e39c 20be a9d6 053e bf90 043e
00000170: 8d28 a33e a90c 353e a89a c4be 0124 5dbe
00000180: f69a 163e 702f 073e 5614 5cbe 6d34 7fbe
00000190: 1071 a73e ebc8 3f3e 4db0 26be 8952 7ebd
000001a0: 8108 99be 62cb b2bc fc30 82be 5afe 6bbe
000001b0: 0d53 89bc 03a9 1c3d e913 e5bd 2a59 403e
000001c0: d430 33be 9ed5 883e 2a71 523e 54d1 8abe
000001d0: 7951 aabd fb08 383d 379a b03d 78f8 683d
000001e0: 5498 e13d f9b2 013d 9371 5fbe 639d 023e
000001f0: 8152 a4be 7262 39be bb08 95bd 1f2a 18be
00000200: 3e22 efbd 6f16 a3be f17d 1fbe 7c36 853e
00000210: d124 79be 5f7c 5dbd 9387 8a3e 74d9 6abd
00000220: eb64 83bc 0305 f3bd e651 e63c d952 433e
00000230: 04b9 be3e 8370 433e ae94 003f 41f2 323d
00000240: f271 86be 1558 13be bda8 623e a54c d43c
00000250: d774 3abe df64 29be dbbf 95be 28b4 aabe
00000260: d7db dabd fbc6 3b3e f877 683e 1cfb 84be
00000270: 3854 783e 891e 66be ce75 76bd 4c4c 17be
00000280: e96b 82bd e72b 27bd dc4c b4be 61a7 90be
00000290: dc28 92bd 8dfa 433c 6c0a 0bbe 970b e03d
000002a0: 8d8f 8cbe 0d3c 65bd 8c95 903e 3d67 ffbd
000002b0: 6c53 9e3e 89c4 1c3e 1e44 6abe 4c65 573e
000002c0: 22cb d6bc db56 10be eba0 7b3e 5d06 58be
000002d0: a117 3c3d add5 50bd c5df a23e 1796 b63d
000002e0: f373 1e3e 8a26 053e 2d50 6cbd 4f3b 22bd
000002f0: c6bd 65be 19f0 333e c712 873e d38f 953e
00000300: ecff 03be 4ebb 803d d912 5bbe cfca 29be
00000310: de39 34be d443 e53d a9bb 55be 4315 d3bc
00000320: a340 723c 712d 2d3e 3fd2 a9be 4e61 6abe
00000330: b1be 3dbe 9141 553e 9ecb 01be 0b3f 853e
00000340: 9651 263e cec4 693d 1fca c0bc cea2 afbd
00000350: 59f6 7a3d 8994 81bd f6dd 03bc ca4f 003d
00000360: ec43 83be 684e 2ebe 3114 6d3e a439 88be
00000370: 6107 9ebc 51c3 bc3e a735 103e 36b8 463d
00000380: 1f7f 8cbe 2e02 1f3e 510d 68be 0a27 8bbd
00000390: 489f e5bd 8251 43bd 270a d3bd 982d 9a3e
000003a0: 61b5 ba3c 0583 6c3e d6f2 653e 77da 40be
000003b0: 041a 1d3e 0a68 6cbe 439f 1dbe 108e 273d
000003c0: d735 503d 291f 9b3e b66f 17be 9fed 8abc
000003d0: 52aa 7c3e 8edb 9fbe 428f 633e c7d8 72be
000003e0: 455c 42bd 9da3 91bd 3659 37be 4c59 a23d
000003f0: 6be2 a23e 978f 9abd d9ea 53be 647b d4bd
-0.012141047 0.22456962 -0.29358065 -0.27739468 -0.13145936 0.077056505 -0.014007652 0.27120575
-0.056726895 0.046976127 -0.11110545 0.006258458 -0.36136934 -0.26408407 -0.085099936 -0.0028691583
0.11043264 0.16580568 -0.21301459 -0.13701588 0.20663776 0.21454911 -0.048979305 0.295671
-0.080069594 0.014503245 0.26737842 -0.24635847 -0.14765425 -0.039685514 -0.097663544 0.33060312
-0.21464211 -0.14003259 -0.23532005 -0.28832063 -0.17674881 0.28654534 0.14712447 0.1480942
0.016072003 -0.27603883 0.060821332 -0.3044598 -0.20912038 -0.16278681 0.19975814 0.180579
-0.13064544 -0.0381322 0.18860221 0.34029195 0.21303995 0.027998159 0.18925133 -0.18202806
0.06309451 -0.2482901 -0.21089685 -0.19542392 0.12279815 0.28133324 -0.31897438 0.11988181
0.18161716 -0.036310527 0.015677003 0.0387367 0.18722497 0.2992712 -0.2688729 -0.09886865
0.11159316 0.29132012 0.30334184 0.23420526 0.018113686 -0.24134828 0.017381363 -0.17965652
-0.31193292 0.33249873 0.25554705 -0.31854388 0.045631982 -0.024986878 -0.02375393 -0.17771132
0.09769501 -0.15684848 0.13070168 0.12945841 0.31866875 0.1768061 -0.38399243 -0.21595766
0.1470755 0.1320169 -0.21492133 -0.24922343 0.32703447 0.18728988 -0.16278191 -0.06209043
-0.298893 -0.021825496 -0.25427997 -0.23046246 -0.016763235 0.03824712 -0.11185438 0.18784013
-0.17499095 0.26725477 0.20550981 -0.2711283 -0.08316321 0.04493044 0.08623164 0.056877583
0.110153824 0.031664822 -0.21820669 0.12755351 -0.32094195 -0.1810396 -0.07277056 -0.14859818
-0.11676453 -0.31853053 -0.15575387 0.2601813 -0.2433045 -0.054073688 0.2705656 -0.057336286
-0.016039332 -0.1186619 0.028115224 0.19074573 0.3725053 0.19085889 0.5022687 0.043688063
-0.26258808 -0.1438907 0.22134681 0.025915453 -0.18208633 -0.16542386 -0.29247937 -0.33340573
-0.106864624 0.18337624 0.22702014 -0.2597283 0.24250877 -0.22472586 -0.06017094 -0.14775199
-0.063682385 -0.040813353 -0.3521489 -0.282527 -0.071366996 0.011961591 -0.13578194 0.109397106
-0.2745327 -0.055965472 0.28239095 -0.12470863 0.3092302 0.15309347 -0.22877547 0.21034735
-0.026219908 -0.14095633 0.24573104 -0.21096177 0.04592097 -0.050985027 0.31811348 0.08915346
0.15473919 0.13002983 -0.05769365 -0.039607342 -0.22435674 0.17572059 0.26381513 0.29211292
-0.12890595 0.062857255 -0.21393909 -0.16581272 -0.176002 0.11194578 -0.20872368 -0.025766974
0.014785918 0.16911866 -0.33168218 -0.22888681 -0.18529774 0.20825793 -0.1267533 0.2602466
0.1624206 0.057072453 -0.023533879 -0.085759744 0.06127009 -0.06327159 -0.008048525 0.031326093
-0.25637758 -0.17022097 0.23152234 -0.26606476 -0.019290628 0.36867765 0.14082967 0.04851552
-0.27440736 0.15528175 -0.2266133 -0.067945555 -0.11212021 -0.047685154 -0.10304671 0.3011291
0.022791566 0.23096855 0.22455916 -0.18833338 0.15341955 -0.23086563 -0.15392785 0.040906966
0.050832596 0.3029721 -0.14788708 -0.01695901 0.24674347 -0.31222194 0.22222617 -0.23715506
-0.047451276 -0.07111285 -0.17905125 0.07927188 0.31813368 -0.07546919 -0.20695056 -0.103750974

bias f4 [128]
00000000: ea05 77be 888d 90bd 2525 ea3c d29a 753d
00000010: 7ac5 193e 8bf4 03be 7889 b3bd 188c 6a3e
00000020: 8f5f 93bd 13cf 5abe fabf 4b3e f907 5b3e
00000030: ade8 c0bd 7af8 aebd 9af0 6bbe c78b 6fbe
00000040: 5baf e33d b6e4 01be a17b 8a3e 4aed a8be
00000050: 5068 2fbd 2051 cdbc 6062 0e3e 5a48 9d3e
00000060: f0a7 603e 4812 963d 6f86 f9bd 4a41 7cbe
00000070: 10de 9fbe bc6c 743c 7ad2 aa3e 1183 96bd
00000080: bf17 9cbd 9412 88be b51a 823d dce8 5b3e
00000090: d31d babe cda8 77be ddfd 463e 8b94 433d
000000a0: 6ad6 64bc d82a 923d 3071 61bd 2406 81be
000000b0: 5cec afbe 393c 373e 9b66 d4bd fa82 0abe
000000c0: 0897 10be 7cec 25be f5f6 babd 7d36 87be
000000d0: 89c0 623e de61 183e 1861 1bbe 4660 b5bd
000000e0: f193 c83d 1a74 e8bd 6aab ca3d 68d0 543d
000000f0: 8c2b 66be f48e 133d d0ef 26bc 8f1b 853e
00000100: d71c 0cbe d961 9abd 8581 763e a14a 94be
00000110: a192 773c 1e73 9a3e 99e4 b7bd 0012 9c3e
00000120: 0757 6f3e 492e 8d3e d8a1 9dbd 6705 893e
00000130: dd28 12be a977 04be 6862 c93d 3e8e 633d
00000140: 6eac ee3d b1c4 863e f6cd 5ebe a6a9 1f3e
00000150: 5af8 ed3d d1dc 213e 3e28 303e d626 23be
00000160: ed03 8ebe 28e8 833e b894 4dbe cc65 413e
00000170: d2ba 8dbe 3a5e bebd 7d5b 333b 72b3 563c
00000180: 85c7 973b 733d ea3d 2124 7dbd 1018 643d
00000190: cf66 983e e9fd 7cbe a72c 0bbc 9343 1abe
000001a0: 9d3a 893e 0121 853e 7d52 2a3c c5de 06be
000001b0: 6d7e 67be 3fa7 533e 02f0 0abd 8ea1 973e
000001c0: 190a 3e3e b0fb 983e 511e 793e f852 54be
000001d0: f4fd 073e aec1 f3bd 23e8 143e fafb 6dbc
000001e0: 8224 ca3c d574 43be 84e4 87be 12ab 9c3d
000001f0: f249 033d f4f2 52bc 020f 393e 1e93 0abe
-0.2412335 -0.07058245 0.028582165 0.0599621 0.15016738 -0.12886254 -0.087664545 0.22905004
-0.07195961 -0.21368055 0.19897452 0.2138976 -0.094193794 -0.08543487 -0.23041001 -0.23393165
0.11117431 -0.12684903 0.27047446 -0.32993537 -0.04282409 -0.025063097 0.13904715 0.30719262
0.21939063 0.073277056 -0.12183844 -0.24634281 -0.31224108 0.014918502 0.33363706 -0.07349218
-0.07621717 -0.26576674 0.0635275 0.21475548 -0.3635088 -0.24185486 0.19432779 0.047749083
-0.013967136 0.07137078 -0.055039585 -0.25199997 -0.34360015 0.17894067 -0.10371133 -0.13526526
-0.14120114 -0.16203493 -0.091291346 -0.2640876 0.22143759 0.14881083 -0.15173757 -0.08856253
0.097938426 -0.113502696 0.09895976 0.051956564 -0.2247755 0.036025003 -0.010189012 0.25997588
-0.13682877 -0.07538194 0.24072845 -0.28963187 0.015110643 0.30165952 -0.089791484 0.30482483
0.23373042 0.27574375 -0.07696885 0.26761934 -0.142734 -0.12936272 0.09833223 0.055555575
0.11653982 0.2632194 -0.21758255 0.1559206 0.11619635 0.15806891 0.17202851 -0.15932783
-0.2773737 0.2576306 -0.20076263 0.18886489 -0.27681595 -0.09295316 0.0027367764 0.0131043065
0.004631939 0.11437502 -0.061802033 0.05568701 0.29765937 -0.24706234 -0.008494533 -0.1506484
0.2680253 0.26001742 0.010395643 -0.13170917 -0.22606821 0.20669268 -0.033920296 0.29615444
0.1855854 0.29879522 0.24327971 -0.20734775 0.13280469 -0.11902176 0.14541678 -0.014525408
0.024675611 -0.19087537 -0.2654153 0.076498166 0.03205294 -0.012875307 0.18072131 -0.13532683

weight f4 [128, 128]
00000000: b051 183e b69f fcbc b0c4 cf3c 420a 12bc
00000010: 2252 9c3c cb12 893d 7135 043e 9876 8dbc
00000020: 1758 243d a43a fabd e0dc c9bd 8fbe 65bd
00000030: 46d2 8b3c 47c1 30bd 5d01 9fbd d1ce 74bd
00000040: 158d f5bb 9d34 15bc 6eb1 493d cc25 153c
00000050: b596 e8bc 3f45 bdbd 7cd9 d1bd 3ea3 163c
00000060: 66ec a03d 330b 57bd ab39 06bd dfcd 24bd
00000070: 794d c43c 46cb cbbd fd27 e9bd c379 473d
00000080: 8049 0abd ae88 d6bc 2eac d5bc 2475 55bd
00000090: a6fb b9bc 802f 363d 6c42 87bc 3068 983b
000000a0: 4c8e d73c 739c c0bd b69c 0d3d e295 593d
000000b0: 6f42 503d 2ee5 0abd 4658 9e3c f98a b8bd
000000c0: e178 a2bb 8e9a 39bc ded4 15bc bd72 853d
000000d0: 8afa 97bd d6e4 683d 6fc0 cfbb 7d78 84bd
000000e0: d42f f9bc 532b 89bd 07f1 373d 8707 503d
000000f0: 7a12 bc3d a0f2 abbd 5082 593c 5c14 5437
00000100: a75f 943d b923 013d fb9b 84bd cd82 a0bd
00000110: e847 edbd 84b8 afbd e33c f03d 4305 073d
00000120: 9012 813d 5ae5 8f3d 5393 5fbc c91e fbbd
00000130: 922e 1c3e d10a 5d3d 6316 92bb ee58 26bd
00000140: 5497 323d 7421 d5bb ad72 923d 76ea d03c
00000150: 7aee 6f3d d4e8 77bd e2dc 94bc 88a5 b13d
00000160: e3ee 1fbd a122 96bd 4148 b13d 3ed7 72bc
00000170: 24ca d53c 197c 6ebd 9d22 57bc 689a c5bc
00000180: 186c a0bd c1b0 6ebc fc79 63bd b172 393d
00000190: 438a dfbc 2030 303d 6bc6 0cbd 40dc 5f3d
000001a0: 287f 42bd ec58 eabd bcca 68bd abb3 06be
000001b0: 761f d7bc 61ab df3c 1c1e 2fbd cd09 adbd
000001c0: 83c7 a53d c279 463d 80dc 06bc 0efe 8abd
000001d0: 8b52 cd3d 85ed ae3d 18d2 8cbd 79c3 87bd
000001e0: b9d0 5fbc cfef bdbd 0003 083e 5089 833c
000001f0: 13cf 3c3d 2b75 b0bc 9f5a 4ebd f8cf 2a3c
00000200: 0d2e 37bd d77f ed3b 85f6 0f3d 56e8 143c
00000210: ac1b 683d 14c9 3abd 5407 3e3d ab5d 9e3d
00000220: 929f 26bc 2099 fd3d 8505 de3c 4809 b8bd
00000230: 97c0 e6bd 6700 b8bc f6cd c7bc a32d 27bc
00000240: e739 cf3c 5547 ca3c 343e 5dbc 3e0d 733d
00000250: d34a 53bd 5225 73bd b44a c0bc 4393 b1bd
00000260: 9e3d 2fbc 87cd 473c 6439 f0bc 2b27 f7bd
00000270: 8950 2b3d 7cf9 4cbd b0db aabb 5aae e4bd
00000280: 7bfd 6bbd 281b 163d d97d bfbd 5d53 53bd
00000290: 4295 813d 6997 4cbd 37b6 47bd a97b 2cbd
000002a0: 1706 453d 6074 8cbd 5966 c53b 6c31 2b3d
000002b0: 5f70 1abd 64dc 383c ebe1 a5bd c649 233c
000002c0: 4f8c e23c 65d2 97bc 4827 20be e956 833d
000002d0: e7a9 3b3d ddd1 03bd a69d b13c 69a5 89bd
000002e0: 94ec 15bd 2ff1 2b3a 5175 a43d ef9f 2e3c
000002f0: 9913 bbbd 6feb 31bc 7699 173d ce46 ebbc
00000300: 5169 3cbd 3781 953d baa3 ea3c 5891 76bc
00000310: 427c 343c 3b98 643c 8452 253c 3b1f 80bb
00000320: 6b96 68bd 6031 563c 294d d7bb 83d1 6e3d
00000330: 2ea0 0ebe 4cbf 6d3a 699c 77bd 2151 6fbb
00000340: 53a1 fe3c e45a d8bc 6502 0cbe 675d 0b3b
00000350: 70d4 15bb 09b2 89bd 9539 7cbe 7e1f 823d
00000360: 5d0b 8d3d e87c 3ebd 3eba 0e3d 2f83 aebd
00000370: 58f3 673d 818c 333d 4852 81bd e606 38bc
00000380: 1063 613d 4347 e53b b868 b8bd c134 a0bd
00000390: fa7d 913c 40ec 773d 02cf ad3d 182b 57bd
000003a0: 809c 503d 6a9c aabd c081 c2bc 9538 92bd
000003b0: e75e 853d a70b 193b e434 14bd dbc4 703c
000003c0: cd04 b4bd 6e66 4fbd 1f72 f73a 5caf 103d
000003d0: 353d e5bd be44 8ebd 06f9 083d 8165 e63d
000003e0: 1a87 133d 59e5 b6bc 2557 d13c 4617 b33c
000003f0: 87b8 66bd 9e72 7fbd e2e9 483c e984 503d
0.14874911 -0.030837875 0.025362343 -0.008913578 0.019082133 0.066930376 0.12911011 -0.017268464
0.04012307 -0.12218216 -0.09856582 -0.056089934 0.01706804 -0.043153074 -0.07763932 -0.059767548
-0.007493625 -0.009106782 0.049241476 0.00910325 -0.028392175 -0.09241723 -0.1024656 0.009194193
0.078575894 -0.052500915 -0.03276984 -0.040235396 0.023962723 -0.09950881 -0.1138458 0.048700105
-0.0337615 -0.02618822 -0.026083078 -0.052113667 -0.022703003 0.044478893 -0.016511165 0.004651092
0.02631297 -0.0940484 0.03457328 0.053121455 0.050844606 -0.03390997 0.019329201 -0.09010882
-0.0049582575 -0.011328353 -0.00914499 0.06516025 -0.074208334 0.05685886 -0.0063400785 -0.06468294
-0.030418314 -0.066977166 0.044907596 0.05078843 0.091832116 -0.083958864 0.013275698 1.2640925e-05
0.07244807 0.03152821 -0.064750634 -0.07837448 -0.11585981 -0.085801154 0.11730363 0.032964002
0.06302369 0.07026167 -0.013645965 -0.12261731 0.1525214 0.053965393 -0.004458235 -0.040612154
0.04360135 -0.006504232 0.07150779 0.025502425 0.05857704 -0.060524777 -0.018171731 0.08674151
-0.03904618 -0.07330824 0.086563595 -0.014821826 0.026097365 -0.058223817 -0.013130811 -0.024121478
-0.07833117 -0.014568509 -0.055536255 0.045275394 -0.027287608 0.043014646 -0.034368914 0.054653406
-0.047484547 -0.11442742 -0.056833968 -0.13154475 -0.026260119 0.0273034 -0.042753324 -0.08449135
0.080946945 0.04845596 -0.008231282 -0.06786738 0.100255094 0.08541397 -0.0687601 -0.0662908
-0.013660603 -0.092742555 0.13282394 0.016056687 0.04609592 -0.021540245 -0.05037939 0.01042556
-0.04472165 0.0072479057 0.03514721 0.009088596 0.056667015 -0.04560192 0.046393707 0.077327095
-0.01016988 0.12382722 0.027102241 -0.08986145 -0.11267202 -0.02246113 -0.024390202 -0.010203752
0.025296165 0.024692217 -0.0135036 0.0593388 -0.05158503 -0.059361763 -0.023473121 -0.08670666
-0.010695843 0.012194998 -0.029324241 -0.120680176 0.04182485 -0.050042614 -0.005214177 -0.111660674
-0.057614785 0.036646992 -0.093501754 -0.051593173 0.06327297 -0.049949083 -0.048757758 -0.04211012
0.04810151 -0.06858134 0.0060241637 0.04179518 -0.03770482 0.011283014 -0.08099731 0.009966319
0.027654795 -0.018532941 -0.15639985 0.06413061 0.04581633 -0.032182563 0.021681618 -0.067210026
-0.03660257 0.00065590715 0.08030189 0.010658248 -0.09134597 -0.010859354 0.037011586 -0.028720286
-0.045998875 0.073000364 0.028642524 -0.015049301 0.0110159535 0.01395231 0.010090474 -0.003909973
-0.056784075 0.013073295 -0.0065704775 0.058305275 -0.13928291 0.0009069338 -0.0604519 -0.0036516862
0.031082785 -0.026410528 -0.13672788 0.002126539 -0.0022862218 -0.06723411 -0.24631341 0.06353663
0.06886933 -0.04650584 0.034845583 -0.08521115 0.056628555 0.043835167 -0.06314522 -0.0112321135
0.055026114 0.0069970204 -0.090043485 -0.07822562 0.017760266 0.06052804 0.08486749 -0.05253133
0.0509305 -0.08330615 -0.02374351 -0.071396984 0.06512242 0.0023352893 -0.036183253 0.0146953715
-0.08789978 -0.050634794 0.0018878615 0.035323486 -0.11193315 -0.06946705 0.033440612 0.11249829
0.036017515 -0.022326158 0.025554249 0.021861684 -0.056328323 -0.062365167 0.012262793 0.050908003

bias f4 [128]
00000000: fcb4 c0bd 8c85 923d 3394 22bd 3b4c 5ebd
00000010: 7994 4a3c ec1d 773d bfd3 4d3d 811e 8c3d
00000020: 07cb b8bc 7c70 0dbc 1117 ba3d 2cac 453d
00000030: 35ad 8c3d 6623 b33c 3e4c c3bd 9b8a a93c
00000040: c0ae a7bb 2466 5b3c 41c7 0f3d bf7c ba3c
00000050: fc44 53bd 04db 82bd 3baf a63d 9098 a73c
00000060: a0fa a93d 15c9 953c d493 07bd 2567 99bd
00000070: abcc 8b3d 03be a53d a8dc c7bc a762 95bc
00000080: 3a20 213d e2dd 8cbd 8512 d53c 09db a73d
00000090: 0531 d0bc 5efe 0bbc c0c9 223d c326 463b
000000a0: 0322 eabb 621e 1c3d 484d c33a a2f5 1bbc
000000b0: 465f dd3b 7160 0f3d c997 833d 8d33 ba3b
000000c0: 4e4f 973b d79e 6cbd 4c82 6f3d f643 933c
000000d0: c63b 9ebd 4820 683d 50cb e13c 788d 76bd
000000e0: fce9 2dbd 45a3 79bd efcd 873b d566 9f3c
000000f0: 7fd1 95bd f516 1cbb 2140 8d3d c92f 503d
00000100: 3e83 6f3d 081b 22bd e993 7cbb 0d7d 6abd
00000110: a8c6 b93d 0589 ee3b f590 80bd 6c27 16bc
00000120: abe4 513b f614 0d3d d37a c4bc c9a9 493c
00000130: 3085 bcbd f6d8 4fbd 4c67 1c3d 6095 bd3c
00000140: e2f2 d23d 58f7 a63d 8fc9 0a3d 8061 87bd
00000150: 398e a13d 20b5 7a3d 1d80 37bd b536 d4bc
00000160: df36 7cbd 6348 2dbd 8035 3f3d 73d6 1fbd
00000170: 9043 8d3d 2722 ea3b 6356 68bc 0d63 f03c
00000180: 6b36 fd3c 52d5 93ba 4b68 8abd 510d d2bd
00000190: 03d6 843d 3af7 ad3d 896a d33a 81a6 5e3d
000001a0: e734 b53c c192 8cbd 1cb4 3bbc f5f7 88bd
000001b0: 19e2 c83c fe45 e43b 69bd 453d 1bf5 6e3c
000001c0: fac0 9b3c 6fc0 76bd 83cd bebd 680f d7bc
000001d0: b0c9 ba3c 1799 b5bc a46a b0bc f61a 28bd
000001e0: 64b0 36bd 63ae 38bd 729a fbbc 1c45 a23d
000001f0: b3dc 63bc 034a babc f6c3 27bd c5b2 88bd
-0.0940952 0.07154378 -0.039692115 -0.054271918 0.0123645 0.06033127 0.050250765 0.06841756
-0.022557748 -0.008632775 0.09086431 0.0482599 0.06868974 0.021867465 -0.095360264 0.020695975
-0.0051172674 0.013391051 0.035102133 0.022764562 -0.05157946 -0.0638943 0.08138891 0.02045849
0.08299756 0.01828436 -0.033099964 -0.074903764 0.06826147 0.080928825 -0.02439721 -0.018235518
0.039337374 -0.06878258 0.026009807 0.081960745 -0.025414 -0.008544533 0.039743185 0.0030235506
-0.007145168 0.038114913 0.0014900351 -0.009519013 0.0067557422 0.035004083 0.06425435 0.005682415
0.004617608 -0.05776867 0.05847387 0.017976742 -0.07726245 0.05667141 0.027562767 -0.06019351
-0.042459473 -0.06094672 0.0041444222 0.019458214 -0.07315349 -0.0023817394 0.06896997 0.05082682
0.05847477 -0.03957656 -0.003854031 -0.057248164 0.09071094 0.0072795176 -0.06277648 -0.009164672
0.0032027166 0.034443818 -0.023984348 0.012308546 -0.09205091 -0.05074402 0.03818445 0.023142517
0.103002325 0.08152646 0.033883628 -0.066103935 0.07888455 0.06120789 -0.044799913 -0.025904993
-0.061575767 -0.04230536 0.04668188 -0.039022874 0.06897652 0.0071451846 -0.014180752 0.029344106
0.030909738 -0.0011278784 -0.067581736 -0.10256446 0.06486132 0.0849442 0.0016129772 0.05435801
0.022119952 -0.068639286 -0.011456516 -0.06687919 0.024521874 0.0069663515 0.04827634 0.014584805
0.019012917 -0.060242113 -0.09316542 -0.026252463 0.02280125 -0.022167725 -0.021535225 -0.041041337
-0.044601813 -0.045088183 -0.030713294 0.07923338 -0.013907599 -0.02274037 -0.040958367 -0.066747226

weight f4 [128, 128]
00000000: 5464 01be 8db0 8cbd cfcf 3fbd 2918 bbbc
00000010: 426d 78bd 87f2 2ebc 9aa3 583d 4ff3 d0bd
00000020: 786a 873d f39a 10bd cd2c 513c d572 10bd
00000030: 7fb6 6fbd 3fd9 cebc ee55 80bd 4ff9 9bbd
00000040: e367 2f03 ff7e b7bd a2e5 5f3d 043e 593c
00000050: 1da3 c1bd d205 8fbd 77b8 8f3d dc6e b3bb
00000060: 5a11 e03d 3f46 c33d 570c a6bd d09a 093d
00000070: 823c 46bd d933 c9bd 4c4d 163d e088 76bd
00000080: e105 8dbd 0f09 23bc 3996 8f3c f30c 3dbb
00000090: 3528 503d 6c9c e6bc a3df 2b3d fae7 923d
000000a0: 1956 373c 9924 15bd e192 94bd f277 3f3c
000000b0: e58a 283d c23f 5bbc bed9 b3bc 4760 e83c
000000c0: 6545 48bd b185 653c 57fb 8e3d 2cbb 91bc
000000d0: bc12 0a3d 5737 cb3c dafc df3b 0f94 6bbd
000000e0: 0a0b 7bbc 543d 9fbc ec17 483c c3e8 b0bd
000000f0: 0d3f 51bd 1643 7c3c ed46 c33c de8f 39bd
00000100: c635 debc e18f fb3c 8950 933c 0754 ae3d
00000110: 52c6 6cbd 8488 d33b aad9 f4bb 5431 333d
00000120: 4fe4 b13c 2930 acbd b5c9 a63c 7c68 623c
00000130: b41b 84bd 135b bc3b 65c8 d6bc 3a28 513d
00000140: 6c79 963d 1953 05bd 5577 01bb c00c 8fbd
00000150: dcb9 9fbd 4d01 c73c 6aca ad3d 6f1c 813d
00000160: 18f8 debd 5b2c b7bd b14b 98bd e881 0dbd
00000170: 99ed d1bc 3788 d3bd d790 e0bd c2af 92bd
00000180: 1bcb 93bc d563 bcbc 145a a13d 286a 2abd
00000190: 8d69 aa3d c49a c6bd ff95 0f3e cab6 9abd
000001a0: 1a52 92bd 32ac fbbb d171 303d 6f9d cebd
000001b0: 2a75 93b9 2b80 89bd 0e1e fdbb 8c47 9dbd
000001c0: 88a8 9dbd 315d 4bbd 75b4 f33b d529 a93d
000001d0: 8001 f63c 4fcf 813b 5eb2 313d 4c0b e2b7
000001e0: 3a4e 7ebc 4b68 8f3d f30b 09bd b316 e9bd
000001f0: e448 103c 2ff3 cd3c c13d 153c 8e1f 623d
00000200: c6cc eb3d 2c7c 6ebc 8233 3a3d 2401 86bd
00000210: ea35 96bc 6127 703d af25 853d 32be afbd
00000220: 90f6 b83d af3f 5a3c 3f6e a33b f258 1d3b
00000230: 68d5 433b 4c17 45bd 26c1 bb3d b934 303d
00000240: cb5d b4bb c717 acbd a4fe e63c adf5 af3d
00000250: fed5 623d 6aee c63d 945f bfbb b293 c0bc
00000260: 0ddd d13b 99d4 3c3c 2453 f93c 617c ed3c
00000270: 04b6 d13d 9f21 233d 9bbb ae3d 5ec2 82ba
00000280: 1281 0fbd 7fcf a5bd 1fe0 a6bc 4d76 c4bd
00000290: 4798 50bd f6a1 0a3b 7556 893d 0f81 c3bd
000002a0: 4f38 0e3d ca00 3fbd fbc3 fbbd 819a 50bd
000002b0: 2221 8dbd 16fa e13d 50e1 843d 8402 843d
000002c0: 6a0a 09bd 5228 c5bd e855 78bc 22df a73d
000002d0: 78a7 ec3c a909 9fbd 7b7a 28bd b1e2 a9bb
000002e0: ba1e ba3d 2945 90bd 00ba 533d ba63 5f3d
000002f0: 1c4f e83a 916f a3bd bdee 09bd 18f4 883d
00000300: 8a5a e4bd 8c88 223d bb5f a13d c256 9abd
00000310: 8d72 acbc 10c8 803d d9a1 6abc 1606 8d3d
00000320: a893 e838 6299 5bbd 20df 833d bf2e 153a
00000330: f8f2 4b3c 6c85 e23c 2783 433c 9cd2 55bc
00000340: 4e56 23bd efe2 59bd 1f0e 60bd cd26 df3b
00000350: 77a7 63bd 8070 26bd 8e15 4dbc ab00 6abd
00000360: 9f0c 23bc 62de 58bd c678 933d 9d40 8f3c
00000370: 9e37 ac3d b94f 853c 6d8c 963d 6968 c1bb
00000380: e9aa 073a e8bc b7bd b752 823d 5e2c 383d
00000390: cd1f e1bc a6ba 2dbd 50a1 f4bd 5ef7 713d
000003a0: 3778 8abc 9761 393c 940b 523d daf6 893d
000003b0: 9e1f bd3c 90b5 923c 859b 35bd c73b dfbd
000003c0: c38a 973d fbd7 0cbd 7b96 a73c ebe3 cabd
000003d0: 90c7 04bd 3eb1 f13c c240 973d 2239 373d
000003e0: c1e3 8fbc 7389 2ebd d95d a13d 9526 1b3d
000003f0: a866 913c f8ae ea3c c35a 03ba 7e3c b53d
-0.12635928 -0.06869612 -0.04682904 -0.022838669 -0.06065107 -0.01067794 0.052890398 -0.102026574
0.06612104 -0.03530402 0.012767029 -0.035265762 -0.05852365 -0.025250075 -0.0626639 -0.07615911
5.1547134e-37 -0.089597695 0.054662354 0.013259415 -0.094549395 -0.06983532 0.07017606 -0.005475862
0.109408095 0.09534883 -0.081078224 0.033594906 -0.04839755 -0.09824342 0.03669481 -0.060189128
-0.06885887 -0.00995089 0.017527686 -0.002884683 0.050819594 -0.02815076 0.041961323 0.07173152
0.011189961 -0.036411855 -0.072545774 0.011686312 0.041148085 -0.0133819 -0.021954414 0.028366221
-0.048894305 0.014008925 0.06981533 -0.017789446 0.033709273 0.024806662 0.006835562 -0.057514247
-0.015322456 -0.019438423 0.012212735 -0.08638146 -0.05108552 0.015396854 0.023837531 -0.045303218
-0.02712525 0.030708255 0.017982738 0.08512121 -0.05780632 0.006455483 -0.0074722366 0.043748215
0.021715311 -0.08407623 0.020359853 0.013818856 -0.064505965 0.0057481616 -0.026218602 0.051063754
0.07347378 -0.03254995 -0.0019754965 -0.06984854 -0.07799122 0.024292612 0.08485873 0.063042514
-0.10887164 -0.08944007 -0.07436312 -0.034547716 -0.02562599 -0.10328715 -0.10965126 -0.071624294
-0.018041184 -0.022996822 0.07878509 -0.041605145 0.083209135 -0.09697488 0.14022063 -0.075543955
-0.07144566 -0.0076804394 0.043077294 -0.10088622 -0.0002812532 -0.06713899 -0.00772453 -0.07679662
-0.076981604 -0.04964942 0.0074372836 0.08259932 0.030030012 0.0039614807 0.043382995 -2.694656e-05
-0.01552158 0.07002314 -0.03345866 -0.11381283 0.008806441 0.025140373 0.009108962 0.055205874
0.11513667 -0.014555972 0.045459278 -0.06543186 -0.018336255 0.058631305 0.06501328 -0.08581199
0.09031403 0.013320847 0.0049875076 0.0024009314 0.0029881839 -0.04811792 0.091676995 0.04301903
-0.005504345 -0.08402973 0.028197594 0.08591781 0.05537986 0.097134426 -0.005840251 -0.023507927
0.006404525 0.011525297 0.030435152 0.028989973 0.10239795 0.039826985 0.08531877 -0.0009976139
-0.0350352 -0.08096217 -0.020370541 -0.095928766 -0.050926473 0.0021153665 0.067059435 -0.095461
0.03472167 -0.046631612 -0.1229324 -0.050928596 -0.06891085 0.11034028 0.064882874 0.06445792
-0.033457197 -0.09626831 -0.0151572 0.08196856 0.02888845 -0.077655144 -0.04113243 -0.0051844944
0.09087892 -0.07044441 0.051691055 0.054538466 0.0017723772 -0.07980264 -0.033674944 0.06687182
-0.111500815 0.039681002 0.07879587 -0.07536079 -0.021050716 0.06288159 -0.014320814 0.068859264
0.00011090125 -0.053613074 0.06439042 0.00056908646 0.012448065 0.027651511 0.011933125 -0.0130507015
-0.03987723 -0.053194936 -0.054700967 0.0068100453 -0.05557963 -0.040634632 -0.012517346 -0.057129543
-0.00995174 -0.052946456 0.0720077 0.017486865 0.08409046 0.016273366 0.07351003 -0.0059023392
0.0005175309 -0.08971578 0.06363433 0.044964187 -0.027480984 -0.04241433 -0.119448304 0.0590738
-0.016903026 0.011314771 0.051280573 0.06736536 0.023086365 0.017908841 -0.044337768 -0.109000735
0.073995136 -0.034385663 0.020457497 -0.09906753 -0.03241688 0.029503461 0.073853984 0.04473222
-0.017564656 -0.04261155 0.07879228 0.03787859 0.017749146 0.028647885 -0.0005010778 0.088494286

bias f4 [128]
00000000: 78a4 ef3c 4ce7 583d 2e78 17bd 93b2 8a3d
00000010: a49e 6bbd a48c 533d fdd7 afbd 4831 103c
00000020: b078 06bd 2dee 873d bf14 b93c d49c 2fbd
00000030: 6184 f7bc a079 25bd d289 1a3c f089 3cbd
00000040: f950 9abc 81ac a9bd d0aa b33a 4eb1 78bd
00000050: 2336 ae3c f084 6d3d 34ae a23d fe43 a3bd
00000060: 8794 38bc ea06 6a3d 9a84 af3c 2b36 833d
00000070: 13bb 2f3c a756 63bd 31be 1abc dbaa 9e3d
00000080: 00dc 6f3d 11dd bcbc febd a9bd b43d 613d
00000090: 94c9 913c ccf2 753d 177d d3bd 16d6 5fbd
000000a0: 14dd 9abd 6ae8 e6bc 0e16 823d 8f75 7c3d
000000b0: 5605 f3bc c18d 5dbd 8d43 dcbc 90dc ee3c
000000c0: 0221 03bd 41c0 fbbc b211 10bb ee9c 98bc
000000d0: 8deb 4d3d fb5a 583d cf70 a33b 940b 63bd
000000e0: b228 3ebc 6a5c 8a3d c89b 3fbd daa0 16bc
000000f0: d02c a03d 9af5 013d 4f65 243d 9b11 6fbc
00000100: 3ae4 2bbc 4dc8 e5bc a540 853d 8648 533d
00000110: 326a 3c3d 3668 353d 007f ae3d 4b3a 64bd
00000120: a175 733d 36f7 07bc fa33 913c 2407 823d
00000130: 4ca2 7ebd 6054 47bb 1ee9 e5bb b58b 5f3d
00000140: e502 ee3c f8b8 a9bd 087e 623d bcf5 a9bd
00000150: e8c8 1dbd 10c1 0abd d43e 26bd fcba e03c
00000160: 4a07 a6bd 7556 b9bd 75c8 87bd 1812 83bb
00000170: 1fb1 98bd bcd9 a4bc 8f9c 02bd 51fc 17bd
00000180: c850 bfbd e80c 3a3d 371f a0bd 1f18 3d3d
00000190: ed84 9f3d 318b 29bd d419 923c 9b1e 333d
000001a0: e9fa 153c eb92 61bd 22bf a73d 0350 053d
000001b0: 3159 68bd 4fc1 413b 9975 7e3d 2915 babd
000001c0: 36b9 b53d 798a 183d 233e 9ebd 9b7d 263d
000001d0: 0df8 6abc 200d 503d f44f 8ebc 7306 20bd
000001e0: 623e 4fbb de11 14bd 048f 8d3d 4f77 c3bd
000001f0: 140c dbbc 32ce 6ebd 68e4 45bd 18c2 b93a
0.02925323 0.052954957 -0.036979847 0.067723416 -0.05752434 0.051647797 -0.08586118 0.008800812
-0.03282994 0.06637225 0.0225929 -0.042874172 -0.03021449 -0.040399194 0.009432273 -0.046029985
-0.018837439 -0.08284856 0.0013707522 -0.060715966 0.021266049 0.057988107 0.07943383 -0.07971953
-0.01126588 0.0571355 0.021425534 0.06406816 0.010725754 -0.05550256 -0.009444759 0.07747432
0.058559418 -0.023054631 -0.08288191 0.054990485 0.017796315 0.060046002 -0.10326593 -0.054647528
-0.075616986 -0.028186996 0.06351863 0.06163555 -0.02966563 -0.054090265 -0.02688768 0.029157907
-0.0320139 -0.030731322 -0.0021983203 -0.018629517 0.050273467 0.05282114 0.004987813 -0.055430964
-0.011606382 0.06755908 -0.046779424 -0.009193623 0.07821047 0.031728365 0.040135678 -0.0145916
-0.010491425 -0.028049612 0.065064706 0.051582836 0.045999713 0.044288836 0.08520317 -0.055719655
0.05943835 -0.008298686 0.01772498 0.06349018 -0.062166497 -0.0030415282 -0.007016315 0.054576594
0.029054115 -0.08287233 0.055295974 -0.08298823 -0.038521677 -0.033875525 -0.04058726 0.027432911
-0.08106859 -0.090496935 -0.06630031 -0.0039999597 -0.07455658 -0.020123355 -0.031887587 -0.037105862
-0.0934158 0.045422465 -0.07818454 0.04616558 0.077890255 -0.04139251 0.017834581 0.04373036
0.00915406 -0.055071753 0.081907526 0.03254701 -0.056725685 0.0029564684 0.06212387 -0.09086067
0.08873217 0.037241433 -0.077266954 0.04064713 -0.0143413665 0.050793767 -0.017372109 -0.03906865
-0.0031622876 -0.036149852 0.06912044 -0.09544241 -0.026739158 -0.058302112 -0.04831353 0.0014172224

weight f4 [128, 128]
00000000: acb3 de3c 3e09 073d 0055 2dbd 3bd1 a3bd
00000010: fc51 cdba e684 203d cbad 253d 4373 8b3d
00000020: edc0 21bd 53b1 3bbc 4828 5bbc 22a1 5dbd
00000030: 17a0 9bbc 66ae ddbc 6d7e 5ebd c7f8 20bd
00000040: aed4 153c e0bf 4bbd 0067 c3bc c421 9dbd
00000050: 1cda b43c 4e4a ea3c 11cb 8d3c 94f2 20bd
00000060: 4cd5 6a3c 218b ca3c ce4a ea39 cd57 80bd
00000070: be00 3ebd 4c26 63bd 6064 40bd fe68 0a3b
00000080: 420f b03d d363 0c3d ff85 023a e6ec 133c
00000090: 560c b2bc 7da8 713d afdd b43c adeb 583d
000000a0: 11a5 033d 92ba 283d ba1b a03d 7651 91bd
000000b0: e661 6bbd bb49 f8bc 2303 413d 609d 8dbd
000000c0: 8b92 9cbd 786b 2cbd 7879 473d 5a22 7d3d
000000d0: 409a fbbb a37e 35bd 0965 7b3d fd62 28bd
000000e0: 924b 343d 5ee6 96bd 6184 abbd ce9b 53bd
000000f0: 6e82 e73c e581 eb3c a0a6 823d 9b23 22bc
00000100: dff3 a93d 1e90 e43c 0462 b03c 61ef c33d
00000110: 84d9 d53d f792 b13d c1cc 773d e511 063c
00000120: 4aa3 71bd 5906 6ebd 979c a9bd 5b05 ddbb
00000130: e2d3 a4ba c73e 04bd 1c3a 283d dd8d 2d3b
00000140: 32f3 0e3d 8b10 11bc 4813 3dbd 6e87 303c
00000150: f118 713d 32ed 98bc 0fad df3c eb5d 79bd
00000160: d04d b63d b376 bb3c 7876 d43d c93b 9bbd
00000170: 6655 83bd a981 58bd 71ba 15bd 1ef7 aebb
00000180: 6d16 57bd dc6d 763d cf18 a4bc acbe a13d
00000190: f3fc e3bc 1827 95bd 5e83 77bd 72c7 50bd
000001a0: bff5 17bd 1d02 98bd 7cf4 5bbc 047c ff3d
000001b0: d6e4 8dba 5a91 833c 06a1 89bd 9125 1a3d
000001c0: b085 5bbd ef81 07bd 04e3 4abc b3c0 48bd
000001d0: b9f8 c2bc cb04 4abd 48a3 9c3c 655c 7fbc
000001e0: 6269 afbc 939e 233d e9dd a93d 1b7f 13bd
000001f0: 7a2a d8bc 413c 90bd 61a5 9fbc b381 8fbd
00000200: 6d1c e2bd 9b51 c2bd efca 3dbd 1f24 ff3b
00000210: 02bb 87bd a331 20bd fcaf 043a 15fa 39bd
00000220: 203c 2cbd 6f6c 3e3c f548 d0bb c6cb 3abd
00000230: 7f34 353c ddae 41bd 68ba f3bc c437 153d
00000240: f380 843d 9e8f 2b3d 6623 9ebd 6f9d 2e3d
00000250: a3e3 363d 907d 4ebd 12a2 1b3d deb7 863d
00000260: 16c4 64bc 66f1 84bc dc9e 583c 0e5f 59bd
00000270: 2d44 77bb fe58 45bd 1980 86bd 0b64 b9bd
00000280: 4bf6 c13b 1983 82bd ce8f 76bc a451 933d
00000290: b4b8 803d 97ac 473d 6de4 cabd d07a 3cbd
000002a0: 134a 6c3d f2b8 013c 0f80 b0bc 6903 193d
000002b0: 0fbc 95bd 2fa6 6ebc 3319 8cbd d4ed babd
000002c0: 5da4 743c 2388 48bd e092 a7bd 8a24 64bc
000002d0: 8b2b 1e3d 320b 9f3b 3927 4ebd 518e debd
000002e0: 9506 613d 2bea 78bb c90f 34bd fe10 21bd
000002f0: edce 563d 32df 54bd 39f1 41bd 73a3 773d
00000300: ca88 633d 911c 203d 8b56 303d 380c f9bc
00000310: 2245 2e3d 8e26 4cbd ef65 edbc b406 94bd
00000320: 7b82 babd 3a3a 233d 00b7 23bd 36e0 f73c
00000330: 9f1c 99bd eb6c 9c3d bfdd 743d a315 6abc
00000340: 4e43 bd3b eb71 493d 58b5 82bb deac 7fbd
00000350: d553 223d db16 1a3d 040a 693d 9a13 da3c
00000360: 127f 0a3d b4dc 223d 560e abbc bff5 27bd
00000370: 5a75 76bd 6fe5 9dbd 5a36 27bd 8553 873d
00000380: 89e6 8abd a2cc 943d e24e 88bc 789f 6c3d
00000390: d631 043d 0fdb 94bd bd5a bebc fef7 bebd
000003a0: 9e17 c33c 2a80 cabc d689 8a3d 9940 303d
000003b0: e85f bb3c dd03 7fbd 7173 813b ec42 92bd
000003c0: 5588 303d dd29 6ebd 1176 9f3d 750c 56bd
000003d0: 7dab dcbc f3f0 3b3d e36a 82bd 8b5a 2c3d
000003e0: 1ca0 443d 3418 40bd b263 4ebc 5b17 0a3d
000003f0: 2cfd 3e3d 526f 49bd bf7d 393d fd8b 9dbd
0.027185284 0.0329678 -0.04231739 -0.07998892 -0.0015664692 0.03918924 0.040448945 0.06809094
-0.03949063 -0.011455852 -0.013376303 -0.054108746 -0.018997235 -0.027060699 -0.054319788 -0.039299753
0.009144945 -0.049743533 -0.023852825 -0.07672456 0.022076659 0.028599884 0.017308744 -0.03929384
0.0143330805 0.024724545 0.00044687692 -0.06266747 -0.046387427 -0.055456445 -0.046970725 0.002111971
0.0859666 0.034274887 0.00049790734 0.009028649 -0.021734398 0.058998574 0.022078363 0.052959133
0.03213984 0.041193552 0.078177884 -0.070956156 -0.05746641 -0.030308595 0.047122132 -0.069147825
-0.07645138 -0.042094678 0.048699826 0.06180034 -0.0076783 -0.044310223 0.06137565 -0.041110028
0.044017382 -0.07368158 -0.08374859 -0.05166226 0.028260436 0.028748462 0.063794374 -0.009896184
0.08298468 0.027900752 0.021531112 0.09567142 0.104418784 0.086706094 0.060498003 0.008182977
-0.058993615 -0.058111522 -0.0828182 -0.006745023 -0.0012575353 -0.03228643 0.041071042 0.0026482262
0.034899898 -0.008854042 -0.046160966 0.010774476 0.058861677 -0.018667791 0.0273042 -0.060880583
0.0890156 0.022883749 0.103741586 -0.075797625 -0.06412773 -0.05285803 -0.036554758 -0.0053395173
-0.05251162 0.060163364 -0.02003136 0.07897696 -0.027830577 -0.07282847 -0.060428016 -0.050971456
-0.037099596 -0.07422278 -0.013424989 0.12474826 -0.0010825645 0.01606052 -0.06720166 0.037633482
-0.05359429 -0.0330829 -0.012383226 -0.049011897 -0.02380024 -0.049320977 0.019120827 -0.015585993
-0.021412555 0.03994615 0.08294279 -0.03600989 -0.026387442 -0.070427425 -0.019488038 -0.0700716
-0.11040578 -0.09488221 -0.04633611 0.0077862884 -0.06627466 -0.039109837 0.0005061624 -0.045404512
-0.042049527 0.011622532 -0.0063563534 -0.04560449 0.011059879 -0.047285903 -0.029751971 0.036430135
0.064699076 0.04188501 -0.077215955 0.04263061 0.044650685 -0.050412714 0.03799636 0.06578039
-0.013962766 -0.016228389 0.013221469 -0.053069167 -0.0037729845 -0.048180573 -0.065674014 -0.09052285
0.005919253 -0.06372661 -0.015048934 0.07193306 0.06285229 0.04874858 -0.0990685 -0.04601556
0.05768783 0.00791763 -0.021545438 0.037356768 -0.0731126 -0.014565988 -0.06840744 -0.09127393
0.014931765 -0.048957955 -0.08182311 -0.013924727 0.038615745 0.0048536295 -0.050330374 -0.108669885
0.054937918 -0.0037981372 -0.043960366 -0.039322846 0.052443434 -0.051970668 -0.04734919 0.06045861
0.055550374 0.039089743 0.043051284 -0.030401334 0.0425464 -0.049841456 -0.02897927 -0.07227841
-0.091069184 0.03985045 -0.039969444 0.03025828 -0.07476162 0.07637962 0.059781786 -0.014287385
0.0057758456 0.049180906 -0.003988903 -0.06242072 0.03963073 0.037619453 0.056894317 0.026620675
0.03381259 0.03976126 -0.02088086 -0.041005846 -0.06017051 -0.077097766 -0.040823318 0.06607727
-0.06782252 0.07265593 -0.016639177 0.05776927 0.03227409 -0.072683446 -0.023236627 -0.093246445
0.023814972 -0.024719317 0.06764571 0.043030355 0.02287288 -0.062259544 0.0039505293 -0.071416706
0.043098766 -0.058145393 0.07786191 -0.052257974 -0.02693724 0.045884084 -0.06368043 0.042078536
0.048004255 -0.046898082 -0.012597011 0.03371368 0.046628162 -0.04917843 0.045285936 -0.07692716

bias f4 [128]
00000000: 0fc7 11bd f399 243d 92c3 7f3d 146b 00bd
00000010: faaf 793d ecf8 a73d a53c c3bd 0b31 973b
00000020: 28cc 6f3d c404 803d 62bc 803d 9139 b2bc
00000030: 1001 903d 5028 dc3b 4222 55bd 8290 f33a
00000040: 566a 893d 0f24 8e3d 4b85 efbc 4cb6 883c
00000050: 0894 a73c 9439 d63b 269c 2dbd dcc2 9abc
00000060: cc53 6f3d 3a3a 47bd 4e5a ee3d 737c c53d
00000070: 6cbf 903c cc75 1abd 44a7 213d eadb ec3d
00000080: 4bd6 913d 7679 6abd 9d43 d03d d8ca 0dbc
00000090: 4b86 c63c 9aa0 203d 3ad6 80bd 38bb 873d
000000a0: c60b c13d 0794 ac3d bcf0 71bd 62d5 933d
000000b0: 378c adbd 4422 43bd 390f 28bd 4bf1 a83d
000000c0: 6057 d3bc 493a c7bb d24c 89bd a84f bd3c
000000d0: 4d15 483d 46aa c3bd b089 e53c 79bb 35bd
000000e0: c43b d43d a6f9 61bd 431a 7dbd 986c b7bc
000000f0: 7184 013d 2b14 383d 8964 7f3d b0bd 3dbd
00000100: 7cb8 faba 0026 e9bc a196 a83d 4936 06bd
00000110: 54b3 9dbb 8208 983d 9143 96bd 2582 c33d
00000120: 4608 0abc 7533 3dbc 3480 6a3d 1096 73bc
00000130: 8742 123c 3d00 39bc 2263 1b3d 30db c53c
00000140: 5f99 cebc 244c 22bd b394 b5bb dac7 3d3d
00000150: 0e6d ba3b a148 a73d 90c8 94bc ba8a a23c
00000160: c353 05bc 5a24 cf3b 3fba 183d 59a4 8ebc
00000170: 451f 94bc b66f 4dba 07b6 9a3d a545 a0bd
00000180: c630 b3bd 0f69 903b 1b79 81bd 1697 0bbd
00000190: 3adf 9b3d 84bf aabb cdef e23c d091 543d
000001a0: 77af a93d 66e8 82bd 70a1 31bc 1c66 d83c
000001b0: 35f5 b0bd 731d b93d f939 3ebd 0930 89bc
000001c0: b66d 803d 536f 96bd 9c6e e33d 6f53 48bc
000001d0: 8629 02bd f19d af3d 2049 ac3c 726c 85bd
000001e0: d67e 21bd c883 423c c361 403d c709 12bc
000001f0: 4883 1f3d 0356 393d 9e88 b83c 657a 23bd
-0.035590228 0.04018588 0.06244237 -0.031352118 0.06095884 0.08201775 -0.095330514 0.0046140007
0.058544308 0.06250909 0.06285931 -0.021755965 0.07031453 0.006718673 -0.052034624 0.0018582495
0.06709735 0.069404714 -0.029238364 0.016688488 0.020456329 0.0065376256 -0.042385243 -0.018891744
0.058429524 -0.048639514 0.11638318 0.096428774 0.017669402 -0.037709996 0.039466158 0.11565383
0.07120951 -0.05724474 0.10169146 -0.008654319 0.024233958 0.03921566 -0.062908605 0.06627506
0.09426074 0.084266715 -0.059067473 0.07218434 -0.084740095 -0.0476401 -0.041030142 0.08249148
-0.0257985 -0.006079946 -0.067041054 0.023109272 0.04884844 -0.095539615 0.028019756 -0.04436824
0.10362962 -0.055169724 -0.061792623 -0.022390649 0.031620447 0.04494111 0.062351737 -0.04632348
-0.0019128467 -0.028460503 0.08231855 -0.032766614 -0.0048126373 0.07423498 -0.07337106 0.095463075
-0.008424824 -0.011547913 0.05725117 -0.014867321 0.008926994 -0.011291561 0.037936337 0.024152368
-0.025219617 -0.039623395 -0.005541408 0.04633317 0.00568927 0.0816815 -0.018162042 0.01984154
-0.008137646 0.006321472 0.037286993 -0.017412351 -0.018081317 -0.00078367756 0.0755425 -0.07825784
-0.08749537 0.004407055 -0.06321927 -0.034079634 0.076109365 -0.0052108187 0.027702237 0.05189687
0.082854204 -0.06391983 -0.010841712 0.026415877 -0.086405195 0.0903882 -0.046442006 -0.016746538
0.06270926 -0.07345452 0.111050814 -0.012226923 -0.03177788 0.08575047 0.021030962 -0.06514825
-0.0394276 0.011872239 0.046968233 -0.008913464 0.03894356 0.045248043 0.022526082 -0.039911646

weight f4 [1, 128]
00000000: 50f9 65bd 2cfc c4bb d853 91bd 5b3d 49bd
00000010: 9fc2 8ebd 844a 453d 322b 2b3d 9422 483d
00000020: 65ab b8bd a64e a0bd 20d1 223d 245a 1cbd
00000030: 8056 f6bc f079 e93d f112 aa3a 96ac 79bd
00000040: 1b97 8a3d b878 bc3d ef66 46bd 514c e23d
00000050: 4e5a c73c fb05 423d 42f1 d3bd d276 393d
00000060: 4531 a0bc a360 f6bc 4249 b53d f96a bb3c
00000070: 08b7 a83d 9c8d 85bc acd4 99bd aab2 c73c
00000080: f299 cdbd 83c6 30bd 7e94 b73d c484 c03d
00000090: d3d2 a2bd 9696 60bd 51d3 98bd 773d 42bd
000000a0: f03e 6f3d 4e30 c03d 1a67 b5bd eb30 90bc
000000b0: a0f3 a7bd bf56 b53c 799c 5ebd f3b3 ce3c
000000c0: 15be ae3d 5103 ca3d 6fda 1ebc e088 5e3d
000000d0: dbd5 8a3d e672 1ebc d5fe a7bd ded7 afbd
000000e0: b1a7 c53d 923a fc3b 1d35 10bd cf95 a2bd
000000f0: 674c 9cbd 9577 b2bc 53c2 ea3c 9e0a 69bd
00000100: ee10 123e 24df 7d3c 153d c63c b78f dcbd
00000110: b27c 95bc 84d6 c03d a61e a039 c403 3e3d
00000120: f8a6 7abd f4c3 123d 90d9 eb3c 9534 ccbb
00000130: ab98 ce3c b11e 6d3d 09c0 3a3d b6f7 603d
00000140: 0090 ed3c 44e9 08be 6cc8 cdbc 1702 c13d
00000150: d503 adbd d23b dd3c 90ab c63c 8528 92bd
00000160: f7ad 303b 2ad6 4abd df4b df3d 22bb 723d
00000170: b74f 55bd 5ac8 c5bd 8baf 65bd e877 55bc
00000180: 5fe0 33bb 3658 86bd db9f 92bd 63ca 823d
00000190: ed19 c6bd 8137 063e cfde 933d 75a1 9cbc
000001a0: 8550 ab3d dfc6 c1bd 3c6b c7bc f58a f3bb
000001b0: d580 8ebd c877 c23d c87c 85bd 8e50 d63d
000001c0: 1d6a 96bd 0901 6bbd 06c5 393d 40f6 143c
000001d0: 4cac 17bd bfc3 c9bd cd12 6bbd 781e e2bc
000001e0: 1f71 e03d 5b54 d63d a67a abbc fb4e df3d
000001f0: 85f7 a2bd 4611 dfbc 8ed4 a8bc dc51 0bbd
-0.056145966 -0.0060115065 -0.0709607 -0.04913078 -0.06970715 0.048166767 0.04178924 0.0488611
-0.09017066 -0.07827501 0.03975022 -0.038171902 -0.030070543 0.11400211 0.0012975616 -0.060955606
0.06767102 0.09202713 -0.04843801 0.110497124 0.024335053 0.047368985 -0.10348751 0.04527933
-0.019554744 -0.030075377 0.088518634 0.022878157 0.082380354 -0.016302876 -0.07511267 0.024377186
-0.10039128 -0.043158066 0.089638695 0.09400323 -0.07950368 -0.05483111 -0.074621804 -0.0474219
0.05840963 0.093842134 -0.08857556 -0.01760145 -0.08200765 0.02213609 -0.054348443 0.02523229
0.08532349 0.09863914 -0.009695633 0.054329753 0.06779071 -0.009670949 -0.08202902 -0.08586095
0.09651125 0.007697412 -0.035206903 -0.0793873 -0.0763176 -0.021785537 0.028657114 -0.05689489
0.1426427 0.015495095 0.024199048 -0.10769599 -0.018247936 0.094159156 0.00030540413 0.04639031
-0.06119439 0.035831407 0.028790265 -0.006231854 0.025219282 0.057890598 0.045593295 0.054923736
0.028999329 -0.13370234 -0.025119983 0.09424227 -0.084479965 0.027006064 0.02425173 -0.07136635
0.002695916 -0.04952065 0.10903143 0.059260495 -0.052077975 -0.09657355 -0.056075614 -0.013029076
-0.0027446968 -0.06559794 -0.07159396 0.063862585 -0.09672914 0.1310711 0.07220232 -0.019119957
0.08364967 -0.0946176 -0.024343126 -0.0074323365 -0.069581665 0.09495503 -0.06517941 0.10464583
-0.07344458 -0.057374034 0.04535391 0.009091914 -0.03702955 -0.09851789 -0.057390977 -0.02760242
0.10959076 0.10465308 -0.020932507 0.10903736 -0.07957367 -0.027229916 -0.020609166 -0.034013614
